Models/071223_EDForced_Transformers/3_base.pth (torch, 151363 bytes, 40 tensors)

encoder_embedding.weight f4 [47, 32]
000000 0f f4 82 3e 3b 30 29 3f 4d 1b ca bf 9c b0 6f 3e
       0.25576827 0.6608922 -1.5789582 0.23407215
000010 0c 13 aa bf e3 36 b1 3e fc 65 69 3e 42 10 85 bf
       -1.3287063 0.34612188 0.2279281 -1.0395586
000020 e9 08 aa bf 89 b3 75 3e c6 19 fd 3f c3 eb a2 bf
       -1.3283969 0.23994268 1.977349 -1.2728199
000030 b6 9e 6b 3e b2 dc 81 bf 3c d1 f0 be 34 bb ae bf
       0.23009762 -1.0145476 -0.47034633 -1.365088
000040 b0 2d 9b 3e 83 73 be bf 57 e0 49 bf 86 b1 89 bf
       0.30308294 -1.4879001 -0.7885794 -1.0757301
000050 70 21 de 3e 6a 77 5b 3f 2f 5c d6 bf 50 55 5b 3f
       0.43384886 0.85729086 -1.6746882 0.8567705
000060 2d 1e b9 bf 90 26 0a c0 35 b0 8b 3f f5 3e 18 3f
       -1.4462334 -2.1586037 1.0913149 0.59471065
000070 b6 d1 be 3f a5 fc 1a bf 92 ec 07 3e f9 3e b5 3e
       1.4907749 -0.60541755 0.13273838 0.35399607
000080 63 78 47 3f e5 33 3d 3f 3b 71 20 3f 89 26 85 3f
       0.7791807 0.7390731 0.62672776 1.0402385
000090 75 f3 18 bf 87 e1 8d 3f c0 b0 87 bf 53 a1 93 bf
       -0.59746486 1.108445 -1.0600815 -1.1533607
0000a0 d9 a3 80 3e 02 30 06 3f e3 e9 af be 1b 7b 94 3f
       0.25125006 0.52417004 -0.3435813 1.1600069
0000b0 7d c5 83 bf 1d ff 6e be 2a 11 e0 be 53 7b 48 be
       -1.0294644 -0.23339505 -0.43763095 -0.19578294
0000c0 e8 b8 81 bd 51 a2 2a bf 31 d9 5f bf 2f a0 7f be
       -0.06334096 -0.66653925 -0.8744078 -0.24963449
0000d0 1b 46 4c bf db 53 9c be a7 1c d3 bf 73 35 10 c0
       -0.7979447 -0.30532727 -1.6493119 -2.2532623
0000e0 01 fc 46 3f a3 16 57 3f fb ad 7b 3e 65 78 00 3f
       0.7772828 0.84018916 0.24578087 0.5018371
0000f0 cd f9 e8 be 20 b4 d1 bf 13 0e 8f 3e f6 1a 23 c0
       -0.45503083 -1.6383095 0.27940425 -2.5485206
000100 7d 35 ee 3f 43 eb cd 3e 0b 90 32 c0 1e 89 d4 3e
       1.8610073 0.40218553 -2.7900417 0.41510862
000110 c4 b8 4a 3e 14 59 09 be f6 52 9a bf 37 d1 67 bf
       0.19797045 -0.13412887 -1.2056568 -0.9055361
000120 f6 e3 80 bd 4c 1d ed bf ad 3e f0 3f 5a ca 60 3f
       -0.0629348 -1.8524566 1.8769127 0.87808764
000130 f5 45 09 3f 00 3e 43 3e ec 5b 8a bf a3 5f e9 be
       0.5362237 0.1906662 -1.0809302 -0.45580778
000140 1c 08 f8 3e 4d ee 12 3e a5 47 85 bf a9 30 cd be
       0.48443687 0.14348717 -1.0412489 -0.40076187
000150 25 70 af bf dd 19 cd bf 92 04 90 be 65 4a 63 3f
       -1.3706099 -1.6023518 -0.28128487 0.8878539
000160 e8 4b 22 bf 81 05 b3 be 7d ae 93 bf df 5e b7 3f
       -0.63397074 -0.34965137 -1.1537625 1.4325827
000170 f4 15 19 3c 2d dc 2a bf 34 c1 5c 3f 9e c7 ad 3f
       0.009343613 -0.6674221 0.86232305 1.3576543
000180 e0 28 ef 3d a8 5c 6d bf a2 1d 1b 3f 19 3f 2e bf
       0.11677718 -0.9271951 0.6059209 -0.6806503
000190 c9 bd 7e bf 55 11 52 3d 8b 51 85 bf 7b b6 59 bf
       -0.9950834 0.05128606 -1.041551 -0.8504407
0001a0 4c a6 fd 3f ac f8 04 bf 39 cf a8 be 26 7a 56 bf
       1.9816375 -0.51941943 -0.32970598 -0.83780134
0001b0 51 46 82 be 7e 9f 9d be b9 e4 05 3e e9 65 a8 3f
       -0.25444272 -0.30785745 0.13075532 1.31561
0001c0 c0 3f f3 3d 21 8f 90 3f 4c 7e 4c be b2 8c 8d 3f
       0.11877394 1.129368 -0.19970053 1.1058562
0001d0 92 e0 d3 be 45 3c 9e bd 08 4c ec bf 31 20 76 be
       -0.4138227 -0.07726339 -1.8460703 -0.24035718
0001e0 63 76 c8 bf 76 48 93 bc 38 84 07 bf 2f 5f 86 3d
       -1.5661129 -0.017978888 -0.52936125 0.065611236
0001f0 33 0e bb be fe 03 b4 3f e9 e6 6d 3e 81 a1 fe 3f
       -0.3653427 1.4063718 0.23232616 1.9893037
000200 0b 9e a8 bf 94 f9 a0 be 0a 9f a9 bf d7 2b 68 3f
       -1.3173231 -0.31440413 -1.325166 0.90691894
000210 b1 fc ea bf 93 86 69 3e 20 7f a3 be ef ea a3 3f
       -1.8358365 0.22805242 -0.31932926 1.2806071
000220 d3 af 54 bb b7 bf 47 be 24 55 0a 3f 24 52 b5 bf
       -0.0032453432 -0.19506727 0.54036164 -1.4165692
000230 ac f2 1d 3f ce 1d b4 3f 02 1d e9 bf d7 dd 00 c0
       0.6169841 1.4071596 -1.8211977 -2.01354
000240 78 1e a0 3d 2c f3 8a 3e 24 47 da bf df 45 b6 3f
       0.078183115 0.2713865 -1.705296 1.4240073
000250 24 91 5b 3f e2 49 8a 3f 78 78 75 3f b5 34 a4 3f
       0.8576834 1.0803797 0.95886946 1.2828585
000260 32 7a d9 3f f8 af f7 3e 4e ca d1 3f 38 c3 be bc
       1.6990416 0.4837644 1.6389863 -0.023286447
000270 fa 7a b4 be 36 08 aa bd c5 47 53 3f 2f 49 87 bf
       -0.35250074 -0.08302347 0.82531387 -1.0569209
000280 38 d9 09 40 2b e5 54 be e2 61 8a 3f 69 50 76 3f
       2.153883 -0.20790546 1.0811121 0.96216446
000290 76 19 47 bf d2 41 c2 be aa ff 32 bf 39 f2 42 bf
       -0.77773225 -0.37940842 -0.6992136 -0.7615085
0002a0 45 a4 26 3f 8c d5 2a 3d a6 c6 a4 3f e3 a7 77 3d
       0.65094405 0.04170756 1.2873123 0.060462844
0002b0 80 b9 ec 3e 68 ad 23 3f db e9 8e 3f 65 d9 20 3f
       0.46235275 0.6393647 1.1165117 0.6283172
0002c0 0c 31 3e 3e 05 aa 24 bf b2 7f b2 3f 9f 8c 91 3f
       0.18573397 -0.6432193 1.394522 1.1371039
0002d0 d2 30 32 bf 61 fc c9 bf 55 77 81 3f 11 b3 e5 3f
       -0.69605744 -1.5780145 1.0114542 1.7945272
0002e0 05 12 ff be da e3 52 3f f7 f6 bc 3f 97 c4 ff 3e
       -0.49818435 0.82378924 1.4762868 0.49954674
0002f0 d8 53 a7 be 9b 1b 90 3e d4 f6 56 bf 7b 34 ff be
       -0.32681155 0.2814606 -0.8397038 -0.49844727
000300 4a 8e c1 3e 00 f6 e7 bf 22 3f e8 be b1 db 8e be
       0.3780387 -1.8121948 -0.45360667 -0.27901986
000310 ff 57 0c bf cf bb 41 bf 8f e2 00 3f cf 56 13 3f
       -0.5482177 -0.756772 0.503457 0.57554334
000320 d9 c7 15 be 0a d2 3d 3f 80 7f 82 3f 0c a3 43 bf
       -0.14627017 0.7414862 1.019516 -0.76420665
000330 5c 3a 8f 3e 43 d7 89 be ba 98 13 be 36 51 9b 3f
       0.27974212 -0.26922044 -0.1441373 1.2134159
000340 54 51 c9 3e 0c fb d4 3f b2 0f c0 be d4 89 3f be
       0.3931986 1.6639113 -0.37511975 -0.18704921
000350 6e 6f 7f bf b6 86 e1 3f e8 62 e4 be fa 85 53 3e
       -0.99779403 1.7619236 -0.4460671 0.20656577
000360 5c 18 22 3f ff e9 8a 3f db b3 ac 3f 0f 07 7a 3f
       0.6331842 1.085266 1.3492388 0.9766702
000370 39 1a 0e bf 04 dd 64 3e b6 8e 0d 40 42 bb 45 3e
       -0.5550876 0.22349936 2.2118354 0.19309714
000380 0f ee 3d 40 09 7a 86 bf d6 e0 0d bf 35 f7 e5 3f
       2.967655 -1.0505992 -0.554212 1.7966067
000390 ca 24 b8 3f 4d a3 47 3e 2a 55 8e be e8 68 80 bf
       1.4386227 0.19495888 -0.2779935 -1.0032015
0003a0 a1 74 f6 3e 96 56 60 3e d4 3b a9 be 28 33 cd ba
       0.48135856 0.2190803 -0.33053458 -0.0015655505
0003b0 77 dd 8e bf d2 98 c3 3f 20 57 c4 3f 87 6f 48 3f
       -1.1161336 1.5281012 1.5339088 0.7829518
0003c0 22 e9 81 3e 30 a5 05 be bc 5b b8 bf f2 23 0f 3f
       0.2537318 -0.13051295 -1.4402995 0.55914223
0003d0 01 ee 66 40 29 f7 49 be dd 7a b3 3f 17 6e 0a bf
       3.6082766 -0.1972319 1.402187 -0.54074234
0003e0 52 c9 a4 3e 78 18 c2 3e 05 de 34 40 4e f5 9e bf
       0.32184845 0.37909293 2.826051 -1.2418611
0003f0 00 3d 3b 3e 91 94 a6 bf b3 0e cf bf be 99 ed 3e
       0.18284988 -1.3014089 -1.6176361 0.46406358

decoder_embedding.weight f4 [45, 32]
000000 88 86 76 bf 5f fc 08 be 33 2d 69 3f f6 20 af 3e
       -0.9629903 -0.13377522 0.91084594 0.34204835
000010 83 00 c1 3f e1 72 71 3f 7d 62 e9 3f b3 83 25 bf
       1.5078281 0.94315916 1.8233181 -0.6465408
000020 93 3c 75 3e 13 73 13 c0 02 51 55 be 27 a6 80 be
       0.23948888 -2.3038986 -0.20831683 -0.25126764
000030 aa 7c c8 bf 4e 91 4b bf 4b 30 8a bf dd 16 a8 3e
       -1.5663044 -0.7951859 -1.0795988 0.32829943
000040 8a 03 8e bf 48 a1 76 bf 50 17 e8 be a4 dc 02 bf
       -1.109483 -0.96339846 -0.45330286 -0.5111792
000050 c3 f9 14 c0 3e a3 92 bd 6b 48 3b 3e 9b bb 11 bf
       -2.3277442 -0.07160042 0.18289344 -0.5692689
000060 c5 12 60 3f aa 92 c6 3e bf 72 bc bf 02 8a 3b be
       0.8752864 0.3878377 -1.4722518 -0.18314365
000070 00 e8 88 bf bd ca 90 bf a4 37 06 bf 8d 3a 44 be
       -1.0695801 -1.1311871 -0.5242865 -0.1916296
000080 b3 e9 d0 3f bb 55 cd 3f 60 ff 52 3f 5c 14 c1 be
       1.6321319 1.6041788 0.8242092 -0.37710845
000090 af 71 b1 bf b3 ad 2f bf 65 be 4e bf 68 6b 0a 3f
       -1.3862818 -0.6862442 -0.8075927 0.5407014
0000a0 5c 9f bb be 7b 3d 02 bf b9 e5 33 bf 3b 87 80 3f
       -0.3664502 -0.5087506 -0.70272404 1.0041269
0000b0 5e a5 95 3f 48 8b 09 40 ec b9 48 bf 50 c2 12 40
       1.1691091 2.149126 -0.78408694 2.29311
0000c0 aa db fd bf 1e 84 d3 3f 60 ff 87 3f 1f 60 97 3e
       -1.9832661 1.6524694 1.0624809 0.29565522
0000d0 08 66 3a 3f ef 07 45 bf ce 5d 73 be 1f 0e 9d be
       0.7281194 -0.7696523 -0.23766252 -0.30674836
0000e0 f6 9d 11 3b 66 1c 77 3f 81 6f 71 3f a2 97 e4 3e
       0.0022219396 0.9652771 0.94310766 0.44646937
0000f0 b9 97 b8 be 3b 90 b9 3e 09 67 dc be 5a c5 b7 bf
       -0.36053255 0.36242852 -0.4304736 -1.4357102
000100 a2 c5 bb 3e e3 3e 76 bf b2 f7 87 be 60 a1 7a bf
       0.3667422 -0.9618971 -0.26556164 -0.9790249
000110 c8 2f a9 3f a6 28 83 3e 02 f2 d4 3e a6 fe b5 3f
       1.3217707 0.2561695 0.41590887 1.4218338
000120 c3 86 fb bf d2 de 5e bf 22 81 0c 3f 20 a4 70 3f
       -1.9650501 -0.87058747 0.5488454 0.94000435
000130 61 19 6a bf eb 9a 10 3f c4 ac 46 3e 6c 34 37 3f
       -0.91444975 0.56486386 0.19401842 0.71564364
000140 4f d6 92 3d 24 7e 03 c0 63 e9 a8 3d c9 58 e3 bd
       0.07169782 -2.054574 0.0824764 -0.11100919
000150 dc 2e c8 3e ae 81 d6 3d af 80 36 bf 0e 6e 1c bf
       0.3909825 0.10473953 -0.71290106 -0.6110543
000160 6f c1 a1 bf f7 bc 17 be db a2 0e be a2 a7 98 bf
       -1.2637156 -0.14818178 -0.13929312 -1.1926157
000170 e4 59 2b 3f 56 da ea be 5d 4e ac be a7 05 c6 3e
       0.6693404 -0.45869702 -0.33653536 0.38676187
000180 41 b0 9a bf ac ca 32 3e 18 29 36 c0 ab 91 3a 3f
       -1.2085038 0.17460126 -2.8462582 0.7287852
000190 7e aa 81 3f 1c 73 47 3f eb b7 a5 3e 97 3d 9f 3f
       1.0130155 0.7791002 0.3236688 1.2440671
0001a0 3d 0c a3 3e cf 90 e4 3e 68 cb 82 3f 67 41 7e bf
       0.31845275 0.4464173 1.0218325 -0.99318546
0001b0 fe e3 74 bf ea 87 6e 3f f4 5a d0 be e5 64 75 bf
       -0.9566039 0.9317614 -0.40694392 -0.9585708
0001c0 cc 15 b6 be 09 ba 3f 3f 46 3b 2f 3f a6 31 95 3f
       -0.35563505 0.7489324 0.6844982 1.1655777
0001d0 2e cf ed be cf 70 49 3f 42 9f bf be 34 7e 1f c0
       -0.46447128 0.7868776 -0.37426192 -2.4920778
0001e0 51 6c 19 bd 83 e5 21 3f 53 c8 1c bf 5e 0a 26 bf
       -0.037456814 0.6324083 -0.6124317 -0.6485957
0001f0 59 e9 9a 3e 8f 1d 38 bf 2d 2a 70 bf b8 be 99 3e
       0.30256155 -0.719201 -0.93814355 0.3002832
000200 3e 38 e6 bd e9 24 21 3e 3d 07 26 3f a5 25 44 bf
       -0.11241196 0.15736736 0.64854795 -0.7661994
000210 43 ad 4f 3f 43 43 36 3d 6b eb f6 3f 64 7e a3 3e
       0.8112375 0.04449774 1.9290594 0.31932366
000220 08 e9 57 bf a0 9f 30 be 00 2b 12 3e 47 10 02 bf
       -0.8433995 -0.17248392 0.14274216 -0.5080609
000230 eb 35 58 3f 1c d6 0d bf c6 38 4f be 59 73 9c 3f
       0.8445727 -0.5540483 -0.20236501 1.2222701
000240 fe f1 de be 17 e2 41 3f 18 54 9d bf d3 dd d7 3f
       -0.43544 0.7573561 -1.2291288 1.686457
000250 16 f8 d0 3e d2 5c 81 3e 93 1c d7 bf a7 d5 f6 bd
       0.40814275 0.2526613 -1.6805595 -0.1205247
000260 14 33 af bc 2c 3e dd bf 69 c3 ce be 19 6a b7 3d
       -0.02138666 -1.7284598 -0.4038346 0.089557834
000270 45 1a 43 bf 17 c5 4e bf 90 6a a9 3f 48 22 81 3f
       -0.7621196 -0.80769485 1.3235645 1.0088587
000280 ce bd 96 be 43 1f be 3e e4 c4 1f 3f 35 5a 18 3f
       -0.29441684 0.37133226 0.62409806 0.59512645
000290 a3 f8 42 bf 56 47 0f 3f b3 4c 31 bf 5a 99 01 bf
       -0.7616064 0.55968225 -0.6925766 -0.5062462
0002a0 aa d2 02 c0 d4 af 16 3f 71 30 4f 3f 49 1c d8 bf
       -2.044108 0.5886204 0.8093329 -1.6883632
0002b0 cd 74 02 bf c4 92 8e bf f1 c5 9d be d4 ff 3a 3f
       -0.50959474 -1.1138539 -0.3081508 0.7304661
0002c0 a3 92 82 bf 0a 1a b8 3f fc 78 35 bf 9c 10 13 bf
       -1.0201 1.4382946 -0.7088773 -0.5744722
0002d0 4c c5 71 3d 7d b0 65 bf 73 36 02 40 96 77 2b bf
       0.059026048 -0.89722425 2.0345733 -0.6697935
0002e0 3a ba 85 bf 80 1e 8c bf cc 11 10 3d f2 67 a0 bf
       -1.0447457 -1.0946808 0.035173222 -1.2531722
0002f0 28 7b 0d bf 71 65 91 3d 6a 67 a9 3c d8 7e 8d be
       -0.55266047 0.070994265 0.020679194 -0.27635837
000300 50 e8 7f bf ef fd b9 3e 2c 4b 0e bf 9e 5f 02 3f
       -0.99963856 0.36326548 -0.55583453 0.5092715
000310 d8 c1 9c be 47 9a a0 be 62 b0 af 3e a7 91 97 3f
       -0.3061664 -0.31367704 0.34314257 1.1841325
000320 cb d5 31 bf 3f 5c 16 bf cd 3b c3 3e f7 6b 8f bf
       -0.6946685 -0.58734506 0.38131562 -1.1204823
000330 66 07 84 3f 69 bc de 3d 2b e5 d5 bf 15 f1 cb bf
       1.0314758 0.1087578 -1.6710562 -1.5932947
000340 cf 86 ff be fe 2b b9 bd 17 14 fd be 00 e2 1c bf
       -0.49907538 -0.09041594 -0.4942939 -0.6128235
000350 df 2e b0 3f 54 92 f1 3e 27 bf 02 c0 85 b3 12 3f
       1.3764304 0.47181952 -2.042917 0.57305175
000360 2d ee 2b 3f ab 00 6b bf 86 b5 9b bf 1b 2d 83 bf
       0.671603 -0.91797894 -1.2164772 -1.024814
000370 18 41 02 3f 93 91 25 be f6 cc 08 c0 a7 a1 0e bf
       0.50880575 -0.16168813 -2.1375098 -0.5571541
000380 6b 9b 4a 3f 0b a0 dc bf 9c a4 78 3f 28 63 01 40
       0.791434 -1.7236341 0.97126174 2.021677
000390 fc fa a3 3f 19 59 67 3f 37 d3 96 3f a5 fc 4b 3f
       1.2810969 0.9037033 1.1783208 0.7968238
0003a0 01 c5 f6 bf d4 29 da be ac 2a 82 bf 10 e4 14 bf
       -1.9278871 -0.42610037 -1.0169272 -0.58160496
0003b0 ec ed 3e 3e 45 1c d5 bd c1 48 e7 bd 7b ff ac bf
       0.18645447 -0.104057826 -0.112931736 -1.3515466
0003c0 b9 df 3d 3e ef 3f 47 3f 74 43 38 bf 8a 9a b2 3e
       0.18542375 0.7783193 -0.71977925 0.3488353
0003d0 9b af f6 bf 0c c3 8d 3f b4 de 86 3e 36 80 71 bf
       -1.927234 1.1075149 0.26341784 -0.9433626
0003e0 37 ab eb 3e 7a 8a 93 bf 64 70 4e be f1 62 fe 3c
       0.46029064 -1.1526635 -0.20160061 0.031053038
0003f0 23 0d b6 3e c9 0a c6 be ff d4 33 40 45 79 d1 be
       0.35556898 -0.38680103 2.8098752 -0.40912834

encoder_pos_embedding.weight f4 [8, 32]
000000 1d 08 a1 bf c5 29 e9 bf 51 ab d0 be 40 34 99 bf
       -1.2580601 -1.8215872 -0.40755704 -1.196907
000010 89 e7 04 bd 8c fa 4c 3f dc 4d 5b be 89 4d e3 bf
       -0.03244737 0.80069804 -0.2141642 -1.7758037
000020 a7 88 59 bf f8 0a 0c bf b8 a2 93 3f a4 98 6f bd
       -0.8497414 -0.54704237 1.1534033 -0.05849518
000030 ee 73 35 3f ee b2 79 bf 42 82 80 3e 22 90 ec 3e
       0.7088002 -0.9753865 0.2509938 0.46203715
000040 9e dd c4 bc 1a c8 ae 3f 1d bf 1c 3d ab a7 2c 3f
       -0.024031457 1.3654816 0.038268197 0.6744334
000050 6b 3f 5b 3f 75 22 ee be 38 60 cf 3f 70 cc 59 3f
       0.85643643 -0.46510664 1.6201239 0.8507757
000060 e9 1b f4 3f b3 4d 11 3f f1 ec fa 3f 02 f5 c9 3d
       1.9071018 0.56759185 1.9603559 0.09861185
000070 25 2c 12 c0 82 62 93 3e f4 7b 3a bd 7e 7d 91 bf
       -2.2839444 0.28786093 -0.045528367 -1.1366422
000080 e3 f7 f4 3e fc 7b bf bf 0a 7a 4f be 4a e0 41 3f
       0.47845373 -1.4959712 -0.20261398 0.7573286
000090 48 de 63 bf 4b ce a7 3d bc 54 2d 3d 14 e2 72 3e
       -0.8901105 0.08193644 0.042317137 0.23719054
0000a0 62 2a a3 bf a0 df 69 bf ab 62 76 bf f9 a7 0e 3f
       -1.2747309 -0.9135685 -0.96244305 0.55725056
0000b0 a2 37 01 bf 4b 3d 2b bf f4 17 2c 3f c6 d9 ef 3e
       -0.50475514 -0.668904 0.6722405 0.46845835
0000c0 98 d7 4d 3f 87 81 13 3f b2 ba 89 3f 23 31 38 bf
       0.80407095 0.5761952 1.07601 -0.71949977
0000d0 70 91 f6 be 57 3c 30 bf 3f b1 62 3f 66 1f 37 be
       -0.48157835 -0.6884207 0.88551706 -0.17883071
0000e0 31 02 e1 bd cf 55 ef 3e 58 e3 3f bf 7b c3 32 bf
       -0.10986746 0.46745154 -0.74956274 -0.6982953
0000f0 b9 00 e3 3f e1 ed 69 3f ff ed 86 3f 0f 89 e7 3d
       1.7734596 0.913786 1.0541381 0.11305439
000100 da 44 9c bf 56 b9 c9 3e dc c8 d3 3d 9f 82 d7 bf
       -1.2208512 0.39399213 0.10341045 -1.6836737
000110 71 c6 8a be 5b 6e 7b bf 9b 9a c0 3d 82 8f cd 3d
       -0.27104524 -0.98215264 0.09404489 0.100371376
000120 72 d4 25 c0 95 3b b1 be 67 5e 83 3e f5 25 3f 3f
       -2.5910916 -0.3461577 0.2565796 0.7466729
000130 6b fe 6f 3f d0 60 9c 3f 2a 1f 5b 3f 0b 13 a8 3e
       0.93747586 1.2217045 0.8559443 0.3282703
000140 00 41 8e 3f be 9e 84 3f 04 1f dc bf 49 67 83 3e
       1.1113586 1.0360944 -1.7196965 0.25664738
000150 11 d8 2b bf 8e 88 0f bf 1e 2e 77 be 97 9e 82 3d
       -0.67126566 -0.5606774 -0.24138686 0.06377905
000160 56 82 0e 3f c4 f5 54 bf 97 ea 79 bf 77 7b 1f 3f
       0.55667627 -0.8318751 -0.9762358 0.6229777
000170 47 d3 90 3f 98 aa 77 bf 9a cd ea be 21 cc 9e 3f
       1.1314477 -0.9674468 -0.45859987 1.2406045
000180 38 84 60 bc eb aa a9 3e 21 f4 81 bf e0 a2 95 bf
       -0.013703398 0.33138213 -1.0152627 -1.169033
000190 44 db 77 bf dd 43 9b bf ec 73 bf bf a6 32 03 3f
       -0.9681895 -1.2130085 -1.4957252 0.5124916
0001a0 a7 e0 db 3f 05 5a d6 3f 1b b0 c2 bf 53 44 9b be
       1.7177933 1.6746222 -1.5209993 -0.30325565
0001b0 4a d7 54 bf 97 13 f5 be 3d d9 8c 3d 0f 37 fc 3e
       -0.83141005 -0.47866508 0.068773724 0.49260756
0001c0 1d a8 fe bf 73 75 62 bf 3e 3f 68 bf ea 1b ba be
       -1.9895054 -0.88460463 -0.907215 -0.36349422
0001d0 f5 5c 90 3e 5f 97 51 bf 79 e3 f2 3f 6d db 6f bf
       0.2819592 -0.818716 1.8975669 -0.9369419
0001e0 af 11 fe 3e b9 78 18 bf 1a dc 0c c0 b7 2d 28 bf
       0.49622867 -0.5955921 -2.200934 -0.65694755
0001f0 11 d6 c0 be da bd a1 bd 70 5f 12 bf aa 75 19 bf
       -0.3766332 -0.078975394 -0.57176876 -0.59945166
000200 0d b8 41 3f 2f e3 cf 3e a8 98 74 bf 82 8a c5 3f
       0.75671464 0.40603015 -0.95545435 1.5432894
000210 65 fe e6 bf e0 3d b8 3f 98 39 a9 bf 9e 98 28 3e
       -1.8046385 1.4393883 -1.3220701 0.16464469
000220 16 7e 5d 3f f0 34 15 c0 c3 97 80 3f 5c 66 a6 3f
       0.86520517 -2.331356 1.0046314 1.2999988
000230 93 f9 35 bf f5 7e 08 3f b1 54 73 3f 8f 59 df 3f
       -0.71083945 0.5331872 0.95051104 1.7449206
000240 7c 78 ab 3f ce 0d 1b 3f df bc 88 3f 66 93 85 3f
       1.3396144 0.6056794 1.0682639 1.0435607
000250 90 b9 1b 3f 14 21 5a bf 1d 12 e7 bf 14 9a 2d bf
       0.6083002 -0.85206723 -1.8052403 -0.6781323
000260 9a 82 74 3f 9d 83 be be 12 04 26 3e d1 19 91 bf
       0.9551178 -0.37209788 0.1621249 -1.1336004
000270 18 27 7b be 0c 0b 81 bf 34 85 be 3f 77 91 79 bf
       -0.24526632 -1.0081496 1.48844 -0.97487587
000280 eb 1c 56 bf 65 2a 00 bf e2 24 65 be dd 63 4b bf
       -0.83637875 -0.5006469 -0.22377351 -0.79449254
000290 05 48 da bf 6e 21 77 bf 12 72 66 3f 56 e2 39 be
       -1.7053229 -0.96535385 0.9001781 -0.18152747
0002a0 9e f3 dc bd 53 5b 64 3f 1b 04 9c 3e 70 ed 82 3e
       -0.10788654 0.8920185 0.30471882 0.25571775
0002b0 f0 38 93 bf f6 0b bf bf ad 63 1e bf b9 ac 86 3e
       -1.1501751 -1.4925525 -0.61870843 0.26303652
0002c0 0d 16 56 bf f3 d6 10 bf e8 7a d9 3d 70 3a c1 3f
       -0.83627397 -0.56577986 0.10619146 1.5095959
0002d0 c6 0e c6 be 86 8a 71 bf 7d 6d 42 bf f4 32 bc 3e
       -0.38683146 -0.94351995 -0.75948316 0.36757624
0002e0 76 28 0f 3e fd 33 3f bf 35 19 c0 3f 1b 59 32 be
       0.13980278 -0.746887 1.5007693 -0.17416804
0002f0 c4 5f 45 bf 11 a2 1a 3f 1c 09 81 3d 00 32 d7 be
       -0.7709925 0.60403544 0.063005656 -0.42030334
000300 af 11 2f bf 4f a6 3f be 35 7c 05 40 68 20 b5 bf
       -0.6838636 -0.18715785 2.085706 -1.4150515
000310 b1 b8 80 bf 4f b3 19 3f 1a fa ab bf 85 66 80 3f
       -1.0056363 0.6003923 -1.34357 1.0031286
000320 ad 5f 91 3e 97 bc c4 3d d7 85 01 bf 0f 30 ab 3f
       0.28393307 0.09606283 -0.5059485 1.3374041
000330 5e d1 9c 3e ec 55 d6 3e e2 34 7c bf e9 a1 94 3f
       0.30628484 0.41862428 -0.9851819 1.1611911
000340 d9 6e ed 3d 9b ba 26 bf bf 69 7b be 5e 53 05 3c
       0.11593408 -0.6512849 -0.24552058 0.008137552
000350 c3 1c c7 be d4 73 8c bc 88 fa 49 be 19 67 8a 3f
       -0.3888913 -0.017145075 -0.19724476 1.0812713
000360 2a ed 4f bf 65 af 43 bf 32 2f f1 3e 79 59 b8 be
       -0.8122126 -0.76439506 0.4710632 -0.36005762
000370 5f a7 46 bf 82 da 22 3e 3c da 68 3f ee 7b 0c 3f
       -0.7759914 0.15903667 0.90958 0.548766
000380 a7 6f 28 bf 4e 8e 42 bf 84 11 46 be 25 ba a4 3f
       -0.6579537 -0.7599839 -0.19342619 1.2869307
000390 49 22 d9 bf 61 f0 f8 3f 3e 24 1b 40 b0 d5 88 be
       -1.6963588 1.9448358 2.424087 -0.2672553
0003a0 43 33 78 3f e9 ae 98 3d 09 ac 28 3d 0f 33 71 3f
       0.9695322 0.074552365 0.04117969 0.94218534
0003b0 9b 67 e0 3f 10 54 8c bf ff 14 e9 3e 12 0e 0b bf
       1.7531618 -1.0963154 0.4552383 -0.54318345
0003c0 ea 81 38 c0 1a 0b 42 3d aa 0b ed 3f 3e f6 e9 3d
       -2.8829293 0.04737387 1.8519185 0.1142392
0003d0 30 14 2a bf 3f d3 d2 bf ec ac bd 3e a5 f5 e0 3e
       -0.66437054 -1.6470717 0.3704599 0.43937412
0003e0 e7 a3 97 bf 2e 87 34 3f f9 69 39 3e a1 c4 8c bd
       -1.1846894 0.7051877 0.18106832 -0.068734415
0003f0 f4 67 ab 3e 4d a5 d0 bf 3e 10 88 be fb 42 14 bf
       0.33477747 -1.6300446 -0.26574892 -0.57914704

decoder_pos_embedding.weight f4 [8, 32]
000000 7a 3d 90 3f ea b7 22 3f fa 99 18 bf d7 b7 db bf
       1.1268761 0.6356188 -0.5960995 -1.7165478
000010 e9 46 9f bf 3a eb bc bf ee fb 2f bf b1 19 82 3f
       -1.2443515 -1.4759285 -0.6874379 1.016409
000020 d0 4e 8b 3f af eb 64 bf f6 a2 9b 3f 64 ec 54 be
       1.0883427 -0.89422125 1.2159107 -0.20793301
000030 15 19 d6 be a6 0a 54 be ec 04 38 3f 86 b4 d7 bf
       -0.4181601 -0.20707187 0.7188251 -1.6851966
000040 37 33 30 3e 99 e3 02 bf f6 f3 64 3f 51 50 90 be
       0.17207037 -0.51128536 0.89434755 -0.28186277
000050 72 a7 2c 3d 80 47 08 bf ca d9 86 be dc f1 4b bf
       0.042151876 -0.532341 -0.26338035 -0.79665923
000060 25 09 fa bf 3b 6f 19 3f ff 7a 08 3f 0b 4a 20 bf
       -1.9534041 0.5993535 0.5331268 -0.6261298
000070 39 61 ce 3e eb 90 2f be 66 13 c5 3e 02 47 f5 3e
       0.4030855 -0.17145126 0.38491362 0.47905737
000080 4f d7 a2 3e ea 59 b3 3f 2a eb 03 bf 09 f2 25 3e
       0.31804892 1.4011815 -0.51530707 0.1620561
000090 11 1e c0 3f 60 5f c8 3f 86 b3 79 40 51 6a 35 bf
       1.5009176 1.5654106 3.9015822 -0.7086535
0000a0 6d 8d ed be 25 33 91 3f d6 6c 68 3e 2f b3 ce bf
       -0.46396962 1.1343733 0.22697768 -1.6148432
0000b0 ef 57 1a 40 c6 3e 6a bf 95 9f d2 bc 5d d2 81 3d
       2.411617 -0.91502035 -0.02571086 0.06338952
0000c0 73 38 89 3f cc 16 87 3f ee 2b 8a bd 26 c6 25 bf
       1.0720352 1.0553832 -0.0674666 -0.64755476
0000d0 55 4a cf 3e 8c 40 e6 bf 8e ae 3f bd b8 14 df bf
       0.40486398 -1.7988448 -0.046797328 -1.7428198
0000e0 9b d5 b2 bd da 32 3f 3e 7f ad ad 3e 27 fe 9f 3f
       -0.08732148 0.18671742 0.3392143 1.2499436
0000f0 00 7d 7a be da ab b2 3e 34 05 dc bf 46 6f bc bd
       -0.24461746 0.34896737 -1.7189088 -0.09200911
000100 2b bd 8e bf 69 b6 bb 3e 5b 58 83 3f 86 d3 db 3e
       -1.115148 0.36662605 1.0261339 0.42934817
000110 09 52 10 40 74 08 46 bf a0 67 4e 3e 4f 63 be 3f
       2.255007 -0.7735665 0.20156717 1.4874057
000120 f9 3f 2a bf c4 07 c3 3f 71 92 d8 be c9 af f2 be
       -0.66503865 1.5236745 -0.42299226 -0.47399738
000130 b0 6a 7f 3f d0 98 bb 3d 16 d7 bb 3f 49 42 f3 3e
       0.9977217 0.09160006 1.4675014 0.4751151
000140 75 2a 34 3f e4 3a 8d be be 7c c1 bf 2b c5 2f 3f
       0.70377284 -0.27583992 -1.5116193 0.6866023
000150 1c 21 4c 3e b2 02 98 be a8 a7 ee bf 82 75 26 bf
       0.19934505 -0.29689556 -1.8644915 -0.6502305
000160 b5 73 ed 3e e6 0e e0 be ed 83 d4 bf ce fc 1d 3f
       0.4637734 -0.43761367 -1.660276 0.61713874
000170 12 fc 65 bf a7 1d e7 bf 0b f7 6e 3f fa 9e 1f c0
       -0.89837754 -1.8055924 0.9334571 -2.4940782
000180 fc 82 10 bf 3b 73 08 bf fc c1 8f bf d6 03 ed be
       -0.56449866 -0.5330083 -1.1231074 -0.4629199
000190 b5 c7 d5 bf 03 55 13 c0 b8 9f 4d 3f f6 14 c9 3e
       -1.6701571 -2.3020637 0.80321836 0.39273804
0001a0 d5 c6 da bd 9e 79 b0 3f 56 46 eb bf 73 ef ab 3f
       -0.106824555 1.3787115 -1.838084 1.3432449
0001b0 bc 4a bb bf 9c 4d d4 3d 56 6e 54 3e 17 e9 2e 3f
       -1.4632182 0.10366365 0.20745215 0.68324417
0001c0 7b 8f 54 be 39 db 74 3f 03 86 4a 3f 36 31 d6 be
       -0.20757858 0.9564701 0.79110736 -0.4183442
0001d0 83 76 8d 3f 67 98 fd 3e 01 b9 5a 3f be ca f4 3f
       1.1051792 0.49530336 0.85438544 1.9124372
0001e0 f1 7c f4 3f e6 d0 02 c0 03 c4 cb 3f f5 61 c5 3f
       1.9100629 -2.0440001 1.5919193 1.5420519
0001f0 03 c9 c3 be b3 cd 93 bf a5 fa 0e 3f 95 6b 9d be
       -0.38239297 -1.154715 0.55851203 -0.3074614
000200 5d d8 8c 3e 0d 62 c4 bf f4 98 6d be 2e 73 d8 bf
       0.27508822 -1.5342423 -0.23202878 -1.691015
000210 ae 9c 2b 3f 9b e7 91 3d f4 9b b1 3f d0 40 a9 bf
       0.6703595 0.07124253 1.3875718 -1.3222904
000220 02 d9 e6 be bb 0e e9 be 8c d6 dc bf 8b 30 f5 3f
       -0.4508744 -0.4551905 -1.7252975 1.9155439
000230 e5 6a a4 3f 8a bf ad 3d aa 81 2b 40 e3 f1 e5 3f
       1.2845122 0.08483799 2.679789 1.7964443
000240 2e 44 0e 3f 23 38 ab bf 0d ef 9d bf f0 0a 38 3e
       0.55572784 -1.3376507 -1.2338578 0.17972922
000250 b2 15 e3 3e 18 f8 09 bf 41 30 bf be 14 d1 be be
       0.4435249 -0.53894186 -0.37341502 -0.3726889
000260 5e e9 91 bf ee 2b 55 bf 5e 25 ec be 0c b6 6f 3e
       -1.1399343 -0.83270156 -0.4612226 0.23409289
000270 10 29 b4 3f 05 cc 07 bf 7f 46 99 3f 93 db 8f 3e
       1.4075031 -0.53045684 1.1974639 0.2809721
000280 80 a4 b4 3f 24 56 68 3f d2 c1 8a bf a0 64 8c 3c
       1.4112701 0.9075644 -1.0840399 0.017137825
000290 8e 74 02 be a0 8f 18 bf 95 5c e6 be bc 13 2e be
       -0.12739775 -0.59594154 -0.4499251 -0.16999716
0002a0 e8 cb 6a 3f e3 4f 15 40 23 73 76 be 7f b7 c3 3e
       0.91717386 2.333001 -0.24067359 0.38225934
0002b0 03 4c 01 bf 1c 32 75 3e 15 fb a0 bf 0a cf 36 3f
       -0.5050661 0.23944896 -1.2576624 0.71409667
0002c0 ae 9d 06 3e dc c4 33 bf 21 43 88 bd 5f 8d 9f be
       0.13146088 -0.7022226 -0.06653429 -0.31162545
0002d0 5b a3 eb 3e 16 89 9a bf a7 92 8c 3f 8a 81 50 3f
       0.46023068 -1.2073085 1.0982255 0.8144766
0002e0 46 4e 25 3d 6d 11 22 bf 2a 8c f5 be b9 63 81 3e
       0.04035785 -0.6330784 -0.479585 0.25271395
0002f0 1c 10 e9 3f 3e df 7a 3f 4a f4 21 c0 00 2f 1f bf
       1.8208041 0.9799689 -2.5305352 -0.6218109
000300 7e ac 74 be e1 a1 ee be f1 8b 84 3f ac 45 9e bf
       -0.23893926 -0.4660788 1.0355207 -1.2365012
000310 d4 c7 41 3f fa c6 bf 3d e3 f2 3f bf 93 4e 20 be
       0.7569554 0.09364124 -0.7497999 -0.15654974
000320 5a 36 76 bf e9 86 12 40 18 3e 39 bf 53 a0 d5 3f
       -0.96176684 2.2894843 -0.7236037 1.6689552
000330 f1 74 d5 3e 57 74 94 3f 68 f4 ad be 1b 2e 1d 40
       0.41690782 1.1598004 -0.3397553 2.455939
000340 cd 21 cc be fb 64 02 40 96 56 22 bf 8b 98 11 bf
       -0.39869538 2.0374134 -0.6341337 -0.5687339
000350 5d c8 4c 3f 85 60 43 bf ba 32 98 3c 1e 3d 98 bf
       0.7999323 -0.7631915 0.018578876 -1.1893651
000360 b1 e7 21 3f 60 d7 8b 3f 0d 2f e1 be 40 8c 75 3f
       0.6324416 1.0925102 -0.4398121 0.9591713
000370 9d 8b 3e 3f 48 d5 ef be b1 73 26 3f 0e f1 1f 3f
       0.7443178 -0.46842408 0.6502028 0.62477195
000380 3e b0 c0 3f 31 66 df be 19 cb d7 3e 6b de 6a 3f
       1.5053785 -0.43632653 0.4214714 0.9174563
000390 b5 ad 36 bf e7 bc f2 3e af 29 c7 3f 20 77 99 be
       -0.71358806 0.47409746 1.5559596 -0.29973698
0003a0 51 82 5f be 10 7f c1 be bb 32 97 3e d6 7f 5a be
       -0.21827056 -0.37792253 0.29530892 -0.21337828
0003b0 ec 4b 03 c0 e4 16 da bd 14 ce f3 3e 71 98 51 3f
       -2.051509 -0.10648897 0.47618163 0.8187323
0003c0 0a 75 d4 bf cb 68 52 3c 44 1c bf 3e 67 b5 e9 be
       -1.6598217 0.012842367 0.37326252 -0.45646212
0003d0 b8 19 52 3f a6 aa be be 23 ba 6e 3f 65 7b 8d 3e
       0.82070494 -0.3723957 0.9325277 0.27633205
0003e0 fa 61 94 3f 78 0c 97 3e 1b 4b 68 3e 5a 97 d0 bc
       1.15924 0.295017 0.226849 -0.025462795
0003f0 a6 df cb 3f 80 ca 1c bf b5 fe 65 bf 27 8c 45 bf
       1.5927627 -0.6124649 -0.8984178 -0.7716698

transformer.encoder.layers.0.self_attn.in_proj_weight f4 [96, 32]
000000 9e 9e 9d 3d 18 5c 9f 3c 08 45 d1 bd d2 8c 42 3d
       0.076962695 0.019453093 -0.10218245 0.047497578
000010 26 40 e7 bc d0 6e 84 bd 95 a1 09 be dc b3 21 bd
       -0.02822883 -0.06466448 -0.13440545 -0.039478168
000020 39 3c e7 3d d5 0c 2c 3e ef 95 a4 3c e9 2d e6 3d
       0.112907834 0.1680177 0.020091025 0.112392254
000030 52 3b 9b 3d 88 80 76 3a 47 45 5b bd 0b 1c d9 bc
       0.07579674 0.0009403308 -0.053532865 -0.02650263
000040 3d fd 2c 3e d4 ed d1 bd 14 9e 1b 3d 78 6b 25 3d
       0.16893478 -0.1025044 0.037992552 0.040385693
000050 ae 13 5d 3e 85 04 63 3d 47 a6 4b 3e 07 21 0b be
       0.21589538 0.055424232 0.19887649 -0.13586818
000060 4b 20 fc bd 5a c0 3e 3e 09 c3 e1 bd 85 f1 24 3d
       -0.12310847 0.18628064 -0.11023528 0.040269393
000070 98 31 86 3d be 47 12 be 1a 31 dd bd 6a 48 ba 3d
       0.06552428 -0.1428518 -0.10800381 0.09095843
000080 12 84 ea 3d 02 6d 01 3e eb a4 8a 3e 2d 52 44 3e
       0.11450972 0.1263924 0.27078947 0.19171973
000090 4e 0a fd bd 93 2c 25 3d 6f 51 87 bb 01 6d 01 3d
       -0.12355481 0.040325712 -0.0041295807 0.031598095
0000a0 53 20 f8 3c 90 f4 05 bc f0 d4 1f 3d 89 7d 75 3e
       0.03028885 -0.008175984 0.039021432 0.23973669
0000b0 8b d1 08 be ce a8 06 3e 57 dd 72 be 5d dd af bd
       -0.13361184 0.13150331 -0.23717247 -0.085871436
0000c0 fc 60 30 be 20 6a f9 bd f0 87 52 3e b9 3e 37 bc
       -0.17224497 -0.12178445 0.20559669 -0.011184388
0000d0 c2 3b 51 be 1a 65 c8 bd f9 14 e4 bc 33 94 5a be
       -0.20432952 -0.097849086 -0.027842032 -0.21345596
0000e0 8f cd 50 3e 7a 6c ea 3d 47 17 23 bd b0 59 a1 bd
       0.20390914 0.114464715 -0.03981712 -0.07878435
0000f0 ab 75 b4 3d 98 a9 1d 3e 07 95 a0 bd 66 d0 c2 3d
       0.08811506 0.15396726 -0.07840925 0.09512405
000100 8d ac 91 3c 6a 8a 94 bd 76 b1 98 3d f8 28 a0 3d
       0.017782474 -0.07252963 0.07455723 0.07820314
000110 29 db 92 bd 22 2a 12 3e cd 18 05 be a4 56 1b 3e
       -0.07170708 0.14273885 -0.12997742 0.1516977
000120 a9 f9 c3 3d 45 66 a0 bd 9b 57 bc 3d 63 48 dc bc
       0.09569103 -0.07832006 0.09196397 -0.026889985
000130 b2 43 90 3e 40 91 0a be 5d 5a 6a 3b 37 70 b1 3d
       0.28176647 -0.13531971 0.0035759427 0.086639814
000140 66 d2 92 bb 1c de a4 3d ba 00 03 3e c8 ba 14 3e
       -0.004480648 0.080501765 0.12793246 0.14524376
000150 ed 78 ce 3d ed f0 52 be 35 c5 ae bd 06 e7 fa 3c
       0.100816585 -0.20599718 -0.08533708 0.030627739
000160 29 3b 91 3a 0e bd 2b 3e fd 80 88 bc 05 12 7a 3e
       0.0011080253 0.16771337 -0.016663069 0.24420936
000170 f1 ea 09 3e ab 28 37 be ba b3 c1 bd 12 82 fc bd
       0.1346853 -0.17886607 -0.09458108 -0.123294964
000180 dd 79 9d 3c 34 8a ac 3d 83 75 01 be b4 b9 51 bd
       0.019223148 0.08424798 -0.12642483 -0.05120249
000190 0b 81 10 3e 3c 11 25 be 5e 90 f5 3d 7b 03 20 bd
       0.14111726 -0.16119856 0.119904265 -0.03906582
0001a0 ac b2 08 be 3f a1 46 3e 81 30 5d be da bb ef 3c
       -0.13349408 0.19397448 -0.21600534 0.02926438
0001b0 ac 71 62 bd 4b ae b9 bd 63 9a 71 be 4e 4e 7a bc
       -0.055284187 -0.09066447 -0.2359405 -0.015277458
0001c0 b5 11 6c 3d 39 d4 75 be 3c b0 63 3e ee 1d 2a be
       0.057634074 -0.24006738 0.22235197 -0.1661298
0001d0 be f4 f1 bb 00 fb 08 be f6 46 ee 3d c9 6e 88 bd
       -0.007383912 -0.13376999 0.116346285 -0.066617556
0001e0 4a 0a c5 3d d6 5f dc 3d 61 bc 81 bc 28 bb 31 3d
       0.09621103 0.10760467 -0.015836896 0.043391377
0001f0 44 b0 01 be 2d b1 42 be e2 62 fd bd 92 3e b6 bd
       -0.12664896 -0.190129 -0.12372376 -0.08898653
000200 10 04 09 3e b2 be 2f 3e 06 29 bf bd 1d 57 8e 3d
       0.13380456 0.17162588 -0.093339965 0.06950209
000210 a5 79 ab 3d ec c3 b9 bd 6c 00 66 bd 5b 58 82 bd
       0.08372811 -0.09070572 -0.056152746 -0.06364509
000220 bb 04 a4 bc 11 65 09 be 41 4d 6f bd 1b 0d 83 3e
       -0.020021787 -0.1341746 -0.058423284 0.25595936
000230 98 e0 99 3e f0 28 82 3e 10 b3 91 3c 36 78 15 3d
       0.30054164 0.25421858 0.017785579 0.036491595
000240 97 6b 16 3e 97 aa 05 be 29 18 cb bc d2 14 62 be
       0.1468948 -0.13053356 -0.024791794 -0.22078255
000250 66 18 fb bd 02 2e 28 3e ae 44 a3 bd e9 17 59 3d
       -0.12260513 0.164238 -0.07972084 0.053001318
000260 7d 12 e8 3d ce 32 e9 bb 6d e5 52 bd f3 a1 d8 3d
       0.11331651 -0.007116652 -0.05148833 0.10577764
000270 4a 5e a6 3d e5 d2 84 be b1 bb 02 3e 43 35 28 3e
       0.08123453 -0.2594215 0.12766911 0.16426568
000280 8b d3 94 bd 08 f0 ac 3d 83 68 b5 bd af 02 33 be
       -0.07266911 0.0844422 -0.08857825 -0.17481492
000290 e0 74 99 bd 8e 35 c8 bc d0 fa 9b bd e6 88 25 bd
       -0.07492995 -0.0244396 -0.07616198 -0.04041376
0002a0 c7 a0 1c 3e a6 eb 05 be 40 19 80 bd 45 83 68 be
       0.15295707 -0.13078174 -0.06254816 -0.22706325
0002b0 6b 42 54 be e4 a1 b3 3c 88 e6 55 be 38 18 4b 3e
       -0.20728461 0.021927781 -0.20888722 0.19833457
0002c0 31 7c 31 3e 4a 53 48 3e c0 fd 0e 3e 7a 70 6d 3e
       0.17332532 0.19563022 0.13963985 0.23187438
0002d0 76 e2 95 bd ee 84 14 be d3 5a 37 be 14 3b 22 be
       -0.073185846 -0.14503834 -0.1790574 -0.15842849
0002e0 13 c3 dd bd 7a 13 87 bb 32 ab b1 bc 03 05 bc bd
       -0.10828223 -0.004122195 -0.021688078 -0.091806434
0002f0 84 fb 66 be 43 0a cc 3d dd fa a1 bc ee 18 a8 3d
       -0.22556883 0.09962895 -0.019772941 0.0820788
000300 2a 0e bd 3d 59 6d a6 bd fc 2d 9f 3d ea 7c ad 3d
       0.09231217 -0.08126325 0.07772443 0.08471091
000310 b0 10 4a be 7d 70 c7 3d 2c 47 a0 3d 07 20 85 bd
       -0.19732928 0.09738252 0.07826075 -0.06500249
000320 67 15 29 be 38 77 85 bd 1f 9c 3e 3e 35 a9 b2 bc
       -0.1651207 -0.0651688 0.18614243 -0.0218092
000330 ec c1 2b be 45 5f 7b 3d 39 b7 95 bd da 1c 1f be
       -0.16773194 0.061370153 -0.073103376 -0.1553835
000340 94 09 49 bc 78 9d 38 3e 0c 99 df bd ca 53 15 be
       -0.01227035 0.1802882 -0.10917863 -0.14582744
000350 2e ca fe bd 69 18 1b be 8b 76 5f 3e 79 af 03 be
       -0.124409065 -0.1514603 0.21822564 -0.12859906
000360 d8 0a 1a be 32 6b 06 bd dd c5 87 be cc e6 28 3e
       -0.15043199 -0.032817073 -0.26518145 0.16494292
000370 72 9d 36 3e ac 57 26 3e 2e 09 fa bd 12 6c ac 3d
       0.17833498 0.16244382 -0.12208782 0.0841905
000380 54 70 e3 3d 5b 93 01 3e 7d 52 7c bb f6 0e 62 3e
       0.11105409 0.12653868 -0.0038501315 0.2207602
000390 c3 14 aa 3d f2 8b 12 3e c5 b8 53 bd f1 aa 0a 3e
       0.08304741 0.14311197 -0.05168988 0.13541771
0003a0 20 f0 9c bd 6c 0d 25 3d 04 d0 53 bd 4d ab 10 be
       -0.07662988 0.040296003 -0.05171205 -0.14127846
0003b0 77 2b 31 be 48 59 4b be 30 26 05 3d ec de a8 3d
       -0.17301737 -0.19858277 0.03250712 0.08245644
0003c0 00 52 32 bd 4a e6 71 bc d6 70 c5 bc 0d fd 18 3e
       -0.043535233 -0.014764378 -0.024101656 0.14940281
0003d0 4c 6a 8c 3d 63 eb 36 be 2d 0f 1c be be 94 18 bd
       0.06856212 -0.1786323 -0.15240164 -0.037251227
0003e0 bc ea 46 3d 6f e0 87 bd 9f 24 2a be 1b 69 06 3e
       0.048563704 -0.06634604 -0.16615532 0.13126032
0003f0 b7 54 18 3c b1 1e 3f be df 0e 64 be 3a 82 fa 3d
       0.009297541 -0.18664052 -0.22271298 0.1223187

transformer.encoder.layers.0.self_attn.in_proj_bias f4 [96]
000000 30 49 34 3e c5 7a b9 bd 95 7f 65 bd dd 62 88 3d
       0.17606044 -0.090566196 -0.056029875 0.06659482
000010 c3 a0 84 bc e1 e8 86 bd a4 cd bc 3d e8 40 a7 bd
       -0.016189938 -0.06587387 0.0921891 -0.08166677
000020 13 3d 0b 3d d4 f5 4d 3b 66 d2 c5 3d d7 15 35 bd
       0.03399379 0.0031427043 0.09659271 -0.04421028
000030 6d 2f 01 bc 2d 77 01 3e 51 77 2b bd 2b a9 b1 3d
       -0.007884842 0.12643118 -0.041861836 0.08674844
000040 c7 e4 d3 3d 89 27 c7 bb 22 f1 7f 3c b0 e7 9a 3d
       0.1034637 -0.006077711 0.015621455 0.07563722
000050 43 6c 6d ba 5e 6e f4 3d 4a 82 44 bd 7f 79 01 3d
       -0.0009056965 0.11935113 -0.047975816 0.03161001
000060 ba e3 89 bd 7c a4 25 3d fb f5 bb bc 23 ce 91 3d
       -0.067328885 0.040440068 -0.022944441 0.071193956
000070 f3 54 43 3d 72 04 3b 3d 83 87 ee bd 8a 05 87 bd
       0.047688436 0.045658536 -0.116469406 -0.06592853
000080 0c 08 95 3b c7 b8 7f bc aa b1 b5 bc 42 17 05 3c
       0.0045480784 -0.015608019 -0.022179443 0.008123221
000090 9e 40 02 bd d9 79 cb 3c af 87 17 bc 50 50 bf 3c
       -0.031799905 0.024838375 -0.009248658 0.023353726
0000a0 5c ee 53 bc 10 f8 f0 3b 50 b1 19 bd 03 aa d5 bb
       -0.012935247 0.00735379 -0.037522614 -0.006520511
0000b0 26 02 11 3c 15 ef 3e bd 72 b3 b0 3c be 42 c0 bb
       0.00885061 -0.046614725 0.021569941 -0.0058673313
0000c0 34 48 a2 bb 04 f7 46 3d 06 75 b1 bc 75 53 39 bb
       -0.004952455 0.048575416 -0.021662246 -0.0028278504
0000d0 b5 d6 80 3d e8 03 ae 3a 5d f2 aa bc fa fe 23 3d
       0.06290952 0.0013276311 -0.020867521 0.040038086
0000e0 f3 04 4c 3c b0 0c c0 3c 43 33 dd 3c 40 2a d5 3a
       0.012452352 0.02344355 0.027001983 0.0016263202
0000f0 62 1a 99 bc bd 6a 01 bc d6 20 b3 bc 34 06 bc bb
       -0.018689338 -0.007898984 -0.021866243 -0.005738044
000100 9f 20 84 3d 73 49 e9 3c 23 83 19 bd cd 00 8c 3d
       0.064515345 0.028477406 -0.037478577 0.0683609
000110 c4 21 88 3d 0d 98 f5 bb 85 85 ef ba 9c 37 36 bd
       0.06647065 -0.0074949325 -0.0018274045 -0.044486627
000120 ab d7 96 3d 2e d2 f1 bc a9 86 9c bd 50 fa bf 3c
       0.07365354 -0.029519167 -0.07642872 0.023434788
000130 0e 7d 05 bc ee 4d 49 bd 33 4e 9c bc c5 8f 8b 3d
       -0.008147491 -0.049146585 -0.019080257 0.06814531
000140 31 2f b8 bc 26 ba 83 bc 76 a3 bc bd 38 1d c4 bd
       -0.02248344 -0.016079973 -0.09210865 -0.095758855
000150 25 55 0c 3e 01 26 0f 3e 21 df 09 3c 58 18 f5 bd
       0.13704355 0.13979341 0.0084150145 -0.11967534
000160 1e 9d b2 3d bc 46 d0 3c bb 50 e5 3c 26 cb 7e bc
       0.08721374 0.025424354 0.027992597 -0.015551364
000170 46 79 40 3d ac 50 5d 3b 96 11 60 3b 0b 70 bf 3d
       0.046990655 0.0033770008 0.003419017 0.093475424

transformer.encoder.layers.0.self_attn.out_proj.weight f4 [32, 32]
000000 7b 53 4e be 28 0c a5 3d 1e 4d 34 be 00 c7 6b 3e
       -0.20149033 0.08058959 -0.17607543 0.23025131
000010 98 4a 5a be 36 64 37 bc aa 7f c8 bd db ab 9b be
       -0.21317518 -0.011193326 -0.09789975 -0.30404553
000020 09 1f 5f 3e d4 bb c9 bd b3 e0 1e 3e 81 0b 81 be
       0.21789183 -0.098502785 0.15515403 -0.2520409
000030 8a f2 c6 bd c5 27 03 be db 36 6f 3d 6a 05 6d 3e
       -0.097142294 -0.1280814 0.058401924 0.23146597
000040 80 bf 80 3e 37 99 11 3d d0 49 ee 3d 52 3b b2 bd
       0.25146103 0.035546508 0.11635172 -0.08702721
000050 d7 ea 01 3e e0 1e 93 3e 25 e8 20 be e8 78 db 3c
       0.1268724 0.28734493 -0.15713556 0.026791051
000060 36 dc 6a 3e 4f 40 2f 3e 4d 01 1e be 76 fe 3f 3d
       0.22935566 0.17114376 -0.15430184 0.046873532
000070 00 7f bd 3d d1 56 2a be cb 9e 92 be 2d 39 8a 3e
       0.09252739 -0.1663468 -0.28636774 0.26996747
000080 70 d7 b8 3d 8b 1a ec 3d d2 53 69 be bb 15 84 3d
       0.090254664 0.115285 -0.22785881 0.06449457
000090 3e 44 3a 3e 5d 7d 1f be 91 6f 10 bd 7b 39 60 3e
       0.18190095 -0.15575166 -0.035262648 0.21896927
0000a0 4c 81 e3 3c a0 2e 17 3e d4 50 83 be 01 12 3e 3e
       0.027771614 0.1476388 -0.25647604 0.18561555
0000b0 0e 78 75 be 06 9f 92 3e 62 81 b6 3d 72 61 4b bd
       -0.23971578 0.2863695 0.089113966 -0.049653478
0000c0 9a af 5b bd d6 b9 94 3c c2 b2 01 be f9 0b 63 be
       -0.053634264 0.01815502 -0.12665847 -0.22172536
0000d0 07 6a 53 3e 98 62 84 3e 2c 45 51 be 4f a4 5d be
       0.20645915 0.2585647 -0.20436543 -0.2164471
0000e0 c4 a6 6c bc 01 a7 33 bd 89 0d c0 3e 81 34 97 3d
       -0.014444057 -0.04386044 0.37510327 0.07383061
0000f0 f8 da 24 bd 33 27 33 be 1a 8d a3 bd 6f 8c e9 3d
       -0.040247887 -0.17495422 -0.07985897 0.11403739
000100 3b ec 25 3e 26 98 80 be d4 71 9b be 77 11 80 3c
       0.16203396 -0.2511608 -0.3036028 0.015633328
000110 62 be 3e be e8 a8 87 bd 12 db 7a 3e d8 65 25 3e
       -0.18627313 -0.06624013 0.24497631 0.16152132
000120 42 39 bb be 16 92 18 be d6 24 7b be 7d ca b5 be
       -0.36567122 -0.14899477 -0.2452577 -0.3550605
000130 89 ce 29 bd 29 0a 89 bd af f1 80 3e b3 af 11 3e
       -0.041456733 -0.06691391 0.2518439 0.1422718
000140 fe 38 86 be 60 f1 9f be e6 99 84 3e a3 76 0a 3e
       -0.26215357 -0.31238842 0.25898665 0.13521819
000150 47 36 fa bc 08 d3 7f bc 49 64 98 bd 5f e5 6f bd
       -0.03054346 -0.015614279 -0.07441003 -0.058568355
000160 a5 01 93 3e e9 fe 83 3e 35 cb e5 3c 81 6c 67 bd
       0.28712192 0.2578042 0.028050998 -0.05649996
000170 3b c6 bd bb d1 78 26 3d c4 79 61 be 01 ac d2 3d
       -0.005791453 0.040642563 -0.22019106 0.102867134
000180 7a 62 90 3e 76 a2 43 be 94 d5 78 bd 56 79 05 3e
       0.28200132 -0.19104943 -0.06075056 0.13034567
000190 dd 76 83 3e 49 82 82 bd 6f 28 6e 3d 39 05 70 be
       0.25676623 -0.06372506 0.05814403 -0.23439492
0001a0 49 a6 8d 3c 1b 42 1a be d9 30 b9 3e 72 31 95 bb
       0.017291205 -0.1506428 0.3617008 -0.0045530135
0001b0 fc f7 4d be 9e 93 c6 bd 73 95 c5 bd 61 98 bd be
       -0.2011413 -0.096961245 -0.09647646 -0.37030318
0001c0 ea cb e9 3c 26 10 56 be 64 78 db bd aa b5 a8 3e
       0.028539617 -0.20904598 -0.10716322 0.329511
0001d0 e3 e2 84 3e 44 60 b7 bd 88 8b 73 be 98 24 42 3e
       0.2595435 -0.08953908 -0.23783696 0.18959272
0001e0 fd 6f 53 3e 5f 9a d0 3e 12 5e 67 3e 3d 87 1e bc
       0.20648189 0.40742776 0.22594479 -0.009675798
0001f0 28 db 25 be 1b 16 76 be 2a 9f 68 bc b1 01 3c 3e
       -0.16196883 -0.2403187 -0.014198104 0.1836002
000200 bc 34 16 3d 2f b1 8d be b4 e5 6f be 34 65 68 be
       0.036671385 -0.27674243 -0.23427469 -0.22694856
000210 1e 1f 19 3e 29 32 2b be 42 b2 c3 bd ab 1a 07 3e
       0.14953277 -0.16718353 -0.09555484 0.13193767
000220 f7 66 42 3e e4 f0 6f be e3 cd c3 3e fe 18 a6 3e
       0.1898459 -0.23431736 0.38243017 0.32440943
000230 69 93 9b 3d fa 66 8a 3d 60 bb ce bd af fb 95 3e
       0.07596476 0.067579225 -0.10094333 0.29293582
000240 7e 25 5d 3e 06 7f 96 3e 4e b1 be bc fe c0 03 be
       0.21596333 0.29393786 -0.023277905 -0.1286659
000250 da 12 5b be 66 08 92 3d 54 72 58 3d 59 55 f4 bd
       -0.2139391 0.07130508 0.052843407 -0.11930341
000260 49 2d 54 be 13 7c 76 3d 71 a5 ec bd 6d bc 28 be
       -0.207204 0.06017692 -0.11554993 -0.16478129
000270 26 34 5b 3e 16 ce e0 3d 18 ef d3 bb df 97 a1 be
       0.21406612 0.10976808 -0.006467711 -0.3156118
000280 84 77 79 3e e9 be 38 be 87 3b 20 3d 39 6e 95 bd
       0.24361998 -0.18041576 0.03911927 -0.07296414
000290 a5 fc ed bd eb 1a 84 be 06 74 8d bd 05 1f 9a 3e
       -0.11620454 -0.25801787 -0.06906895 0.3010179
0002a0 80 c2 6d be 9c 8b ea 3d b6 30 38 3e c9 fe 56 bd
       -0.23218727 0.114524096 0.17987332 -0.052489076
0002b0 c7 2c 8f 3e 63 7b a1 3d 92 9b 91 bd 8d 7d 30 3e
       0.2796385 0.07884862 -0.07109751 0.17235394
0002c0 e8 0e 2c 3e cc 9c 4c bc d0 1c 95 be cc cb 80 3e
       0.16802561 -0.012488555 -0.29123545 0.25155485
0002d0 39 75 c0 3c 68 f7 a9 3e bb 4f c4 3d 84 8a c7 bd
       0.023493396 0.33196568 0.0958552 -0.09743217
0002e0 71 58 6c 3d b9 98 4a 3e c8 67 08 be 49 2d dd 3d
       0.05770153 0.19784822 -0.1332084 0.10799653
0002f0 3c 5d b5 3d 9a 6a b5 bc 9d b9 4d be 47 72 3a 3c
       0.08855674 -0.022145558 -0.20090337 0.011379785
000300 99 f6 0c bd 6b 4b 02 be c2 2e 67 be 1d 1a 1b be
       -0.03441486 -0.12724082 -0.2257643 -0.1514668
000310 ca ff ba 3d 0a 9a 3a bd 96 1b df bd 9d ef e1 bd
       0.09130819 -0.04555706 -0.108939335 -0.11032031
000320 7f cd 8c be de 2b 33 bc ef 6c 7e bd 49 9e 89 bd
       -0.2750053 -0.010935752 -0.062115606 -0.067196436
000330 b2 39 c5 3e e5 77 66 3e 0f 35 9c bd 2c a5 53 be
       0.3852058 0.22506674 -0.076273076 -0.20668477
000340 32 fc 06 be d5 1c a0 3e 57 7c 3a be e3 6b 09 be
       -0.13182142 0.31271997 -0.18211494 -0.13420062
000350 0a 55 74 3e 1f 4b af bb 44 2f 08 3e 80 c8 3b be
       0.23860565 -0.0053495313 0.1329928 -0.18338203
000360 b6 b1 35 be c8 91 e1 bb 7c 45 19 bc d6 3c 76 3d
       -0.17743573 -0.0068838336 -0.009354945 0.06011661
000370 1b 71 73 be b5 0d c6 bd 12 de 85 bd b5 90 0f 3e
       -0.23773615 -0.09670583 -0.06536497 0.14020045
000380 ef 48 0d be 43 c2 5b 3d 8d d8 88 be a8 a5 f0 3d
       -0.13797353 0.05365206 -0.26727715 0.117503464
000390 67 ce 3c 3e 38 15 bb bc f0 57 a6 3e a6 35 6f 3d
       0.18438111 -0.022837266 0.32488966 0.058400773
0003a0 53 4f 8a be c8 f9 c7 3d d7 22 99 3e 20 d5 86 be
       -0.27013645 0.09764439 0.29909393 -0.26334476
0003b0 da bb 3c be 6c 4e 81 3d 7e e8 22 3e 57 22 c1 3c
       -0.18431035 0.06313786 0.15909001 0.023575945
0003c0 de 12 68 3e e0 22 c4 be 77 88 79 bd 7e 43 46 bd
       0.22663447 -0.38307858 -0.06092116 -0.04840421
0003d0 d7 bf 0a be f4 2c f2 3d 1c 24 a3 bd 6c aa 04 3e
       -0.13549744 0.118249804 -0.07965872 0.12955636
0003e0 63 bb 4b be e9 be 26 3e c2 61 8b 3c 4c 7a 14 3e
       -0.19895701 0.16283764 0.017014388 0.14499778
0003f0 f3 0d 8e 3d ee f6 45 3e 86 d1 96 bd e8 cb 9c be
       0.06936254 0.19332477 -0.07364182 -0.30624318

transformer.encoder.layers.0.self_attn.out_proj.bias f4 [32]
000000 d3 28 91 3d 51 9e 43 bd 97 d0 46 be 13 c6 1e bd
       0.07087865 -0.047758404 -0.19415508 -0.038763117
000010 c9 e3 f2 3c 80 69 3c bd fa 7d 8c bd 3c aa 0f bd
       0.029649632 -0.04599905 -0.068599656 -0.035074458
000020 f3 ea 9f bb a2 a7 e4 bd 91 8f 24 3e 52 1c e7 3d
       -0.004880303 -0.11164786 0.16070391 0.112846985
000030 13 55 3e 3e 4a 08 aa 3d 99 03 06 be 7b fa 57 bd
       0.1858714 0.08302362 -0.1308731 -0.05272911
000040 b1 d0 c4 bd 11 d9 33 be 4f 6f bf bd a3 7f f4 bd
       -0.09610117 -0.17563273 -0.09347402 -0.11938407
000050 ae 3c c8 3d 27 43 08 3e c6 db 0e 3e f2 cb 33 be
       0.09777199 0.13306867 0.13951024 -0.17558268
000060 11 54 d7 bc e5 10 0d 3d 59 b7 77 3d e4 3b 22 3d
       -0.026285203 0.03443994 0.06047759 0.039607897
000070 9f 16 d9 3b b4 3b 87 3d e2 c7 8a 3c 19 2e c2 bd
       0.006625011 0.06603184 0.016941015 -0.09481449
