Models/071223_EDForced_Transformers/3_encoderForced.pth (torch, 154237 bytes, 40 tensors)

encoder_embedding.weight f4 [47, 32]
00000000: 0ff4 823e 3b30 293f 4d1b cabf 9cb0 6f3e
00000010: 0c13 aabf e336 b13e fc65 693e 4210 85bf
00000020: e908 aabf 89b3 753e c619 fd3f c3eb a2bf
00000030: b69e 6b3e b2dc 81bf 3cd1 f0be 34bb aebf
00000040: b02d 9b3e 8373 bebf 57e0 49bf 86b1 89bf
00000050: 7021 de3e 6a77 5b3f 2f5c d6bf 5055 5b3f
00000060: 2d1e b9bf 9026 0ac0 35b0 8b3f f53e 183f
00000070: b6d1 be3f a5fc 1abf 92ec 073e 0000 0000
00000080: 6378 473f e533 3d3f 3b71 203f 8926 853f
00000090: 75f3 18bf 87e1 8d3f c0b0 87bf 53a1 93bf
000000a0: d9a3 803e 0230 063f e3e9 afbe 1b7b 943f
000000b0: 7dc5 83bf 1dff 6ebe 2a11 e0be 537b 48be
000000c0: e8b8 81bd 51a2 2abf 31d9 5fbf 2fa0 7fbe
000000d0: 1b46 4cbf db53 9cbe a71c d3bf 7335 10c0
000000e0: 01fc 463f a316 573f fbad 7b3e 6578 003f
000000f0: cdf9 e8be 20b4 d1bf 130e 8f3e 0000 0000
00000100: 7d35 ee3f 43eb cd3e 0b90 32c0 1e89 d43e
00000110: c4b8 4a3e 1459 09be f652 9abf 37d1 67bf
00000120: f6e3 80bd 4c1d edbf ad3e f03f 5aca 603f
00000130: f545 093f 003e 433e ec5b 8abf a35f e9be
00000140: 1c08 f83e 4dee 123e a547 85bf a930 cdbe
00000150: 2570 afbf dd19 cdbf 9204 90be 654a 633f
00000160: e84b 22bf 8105 b3be 7dae 93bf df5e b73f
00000170: f415 193c 2ddc 2abf 34c1 5c3f 0000 0000
00000180: e028 ef3d a85c 6dbf a21d 1b3f 193f 2ebf
00000190: c9bd 7ebf 5511 523d 8b51 85bf 7bb6 59bf
000001a0: 4ca6 fd3f acf8 04bf 39cf a8be 267a 56bf
000001b0: 5146 82be 7e9f 9dbe b9e4 053e e965 a83f
000001c0: c03f f33d 218f 903f 4c7e 4cbe b28c 8d3f
000001d0: 92e0 d3be 453c 9ebd 084c ecbf 3120 76be
000001e0: 6376 c8bf 7648 93bc 3884 07bf 2f5f 863d
000001f0: 330e bbbe fe03 b43f e9e6 6d3e 0000 0000
00000200: 0b9e a8bf 94f9 a0be 0a9f a9bf d72b 683f
00000210: b1fc eabf 9386 693e 207f a3be efea a33f
00000220: d3af 54bb b7bf 47be 2455 0a3f 2452 b5bf
00000230: acf2 1d3f ce1d b43f 021d e9bf d7dd 00c0
00000240: 781e a03d 2cf3 8a3e 2447 dabf df45 b63f
00000250: 2491 5b3f e249 8a3f 7878 753f b534 a43f
00000260: 327a d93f f8af f73e 4eca d13f 38c3 bebc
00000270: fa7a b4be 3608 aabd c547 533f 0000 0000
00000280: 38d9 0940 2be5 54be e261 8a3f 6950 763f
00000290: 7619 47bf d241 c2be aaff 32bf 39f2 42bf
000002a0: 45a4 263f 8cd5 2a3d a6c6 a43f e3a7 773d
000002b0: 80b9 ec3e 68ad 233f dbe9 8e3f 65d9 203f
000002c0: 0c31 3e3e 05aa 24bf b27f b23f 9f8c 913f
000002d0: d230 32bf 61fc c9bf 5577 813f 11b3 e53f
000002e0: 0512 ffbe dae3 523f f7f6 bc3f 97c4 ff3e
000002f0: d853 a7be 9b1b 903e d4f6 56bf 0000 0000
00000300: 4a8e c13e 00f6 e7bf 223f e8be b1db 8ebe
00000310: ff57 0cbf cfbb 41bf 8fe2 003f cf56 133f
00000320: d9c7 15be 0ad2 3d3f 807f 823f 0ca3 43bf
00000330: 5c3a 8f3e 43d7 89be ba98 13be 3651 9b3f
00000340: 5451 c93e 0cfb d43f b20f c0be d489 3fbe
00000350: 6e6f 7fbf b686 e13f e862 e4be fa85 533e
00000360: 5c18 223f ffe9 8a3f dbb3 ac3f 0f07 7a3f
00000370: 391a 0ebf 04dd 643e b68e 0d40 0000 0000
00000380: 0fee 3d40 097a 86bf d6e0 0dbf 35f7 e53f
00000390: ca24 b83f 4da3 473e 2a55 8ebe e868 80bf
000003a0: a174 f63e 9656 603e d43b a9be 2833 cdba
000003b0: 77dd 8ebf d298 c33f 2057 c43f 876f 483f
000003c0: 22e9 813e 30a5 05be bc5b b8bf f223 0f3f
000003d0: 01ee 6640 29f7 49be dd7a b33f 176e 0abf
000003e0: 52c9 a43e 7818 c23e 05de 3440 4ef5 9ebf
000003f0: 003d 3b3e 9194 a6bf b30e cfbf 0000 0000
0.25576827 0.6608922 -1.5789582 0.23407215 -1.3287063 0.34612188 0.2279281 -1.0395586
-1.3283969 0.23994268 1.977349 -1.2728199 0.23009762 -1.0145476 -0.47034633 -1.365088
0.30308294 -1.4879001 -0.7885794 -1.0757301 0.43384886 0.85729086 -1.6746882 0.8567705
-1.4462334 -2.1586037 1.0913149 0.59471065 1.4907749 -0.60541755 0.13273838 0.0
0.7791807 0.7390731 0.62672776 1.0402385 -0.59746486 1.108445 -1.0600815 -1.1533607
0.25125006 0.52417004 -0.3435813 1.1600069 -1.0294644 -0.23339505 -0.43763095 -0.19578294
-0.06334096 -0.66653925 -0.8744078 -0.24963449 -0.7979447 -0.30532727 -1.6493119 -2.2532623
0.7772828 0.84018916 0.24578087 0.5018371 -0.45503083 -1.6383095 0.27940425 0.0
1.8610073 0.40218553 -2.7900417 0.41510862 0.19797045 -0.13412887 -1.2056568 -0.9055361
-0.0629348 -1.8524566 1.8769127 0.87808764 0.5362237 0.1906662 -1.0809302 -0.45580778
0.48443687 0.14348717 -1.0412489 -0.40076187 -1.3706099 -1.6023518 -0.28128487 0.8878539
-0.63397074 -0.34965137 -1.1537625 1.4325827 0.009343613 -0.6674221 0.86232305 0.0
0.11677718 -0.9271951 0.6059209 -0.6806503 -0.9950834 0.05128606 -1.041551 -0.8504407
1.9816375 -0.51941943 -0.32970598 -0.83780134 -0.25444272 -0.30785745 0.13075532 1.31561
0.11877394 1.129368 -0.19970053 1.1058562 -0.4138227 -0.07726339 -1.8460703 -0.24035718
-1.5661129 -0.017978888 -0.52936125 0.065611236 -0.3653427 1.4063718 0.23232616 0.0
-1.3173231 -0.31440413 -1.325166 0.90691894 -1.8358365 0.22805242 -0.31932926 1.2806071
-0.0032453432 -0.19506727 0.54036164 -1.4165692 0.6169841 1.4071596 -1.8211977 -2.01354
0.078183115 0.2713865 -1.705296 1.4240073 0.8576834 1.0803797 0.95886946 1.2828585
1.6990416 0.4837644 1.6389863 -0.023286447 -0.35250074 -0.08302347 0.82531387 0.0
2.153883 -0.20790546 1.0811121 0.96216446 -0.77773225 -0.37940842 -0.6992136 -0.7615085
0.65094405 0.04170756 1.2873123 0.060462844 0.46235275 0.6393647 1.1165117 0.6283172
0.18573397 -0.6432193 1.394522 1.1371039 -0.69605744 -1.5780145 1.0114542 1.7945272
-0.49818435 0.82378924 1.4762868 0.49954674 -0.32681155 0.2814606 -0.8397038 0.0
0.3780387 -1.8121948 -0.45360667 -0.27901986 -0.5482177 -0.756772 0.503457 0.57554334
-0.14627017 0.7414862 1.019516 -0.76420665 0.27974212 -0.26922044 -0.1441373 1.2134159
0.3931986 1.6639113 -0.37511975 -0.18704921 -0.99779403 1.7619236 -0.4460671 0.20656577
0.6331842 1.085266 1.3492388 0.9766702 -0.5550876 0.22349936 2.2118354 0.0
2.967655 -1.0505992 -0.554212 1.7966067 1.4386227 0.19495888 -0.2779935 -1.0032015
0.48135856 0.2190803 -0.33053458 -0.0015655505 -1.1161336 1.5281012 1.5339088 0.7829518
0.2537318 -0.13051295 -1.4402995 0.55914223 3.6082766 -0.1972319 1.402187 -0.54074234
0.32184845 0.37909293 2.826051 -1.2418611 0.18284988 -1.3014089 -1.6176361 0.0

decoder_embedding.weight f4 [45, 32]
00000000: 8886 76bf 5ffc 08be 332d 693f f620 af3e
00000010: 8300 c13f e172 713f 7d62 e93f b383 25bf
00000020: 933c 753e 1373 13c0 0251 55be 27a6 80be
00000030: aa7c c8bf 4e91 4bbf 4b30 8abf dd16 a83e
00000040: 8a03 8ebf 48a1 76bf 5017 e8be a4dc 02bf
00000050: c3f9 14c0 3ea3 92bd 6b48 3b3e 9bbb 11bf
00000060: c512 603f aa92 c63e bf72 bcbf 028a 3bbe
00000070: 00e8 88bf bdca 90bf a437 06bf 8d3a 44be
00000080: b3e9 d03f bb55 cd3f 60ff 523f 5c14 c1be
00000090: af71 b1bf b3ad 2fbf 65be 4ebf 686b 0a3f
000000a0: 5c9f bbbe 7b3d 02bf b9e5 33bf 3b87 803f
000000b0: 5ea5 953f 488b 0940 ecb9 48bf 50c2 1240
000000c0: aadb fdbf 1e84 d33f 60ff 873f 1f60 973e
000000d0: 0866 3a3f ef07 45bf ce5d 73be 1f0e 9dbe
000000e0: f69d 113b 661c 773f 816f 713f a297 e43e
000000f0: b997 b8be 3b90 b93e 0967 dcbe 5ac5 b7bf
00000100: a2c5 bb3e e33e 76bf b2f7 87be 60a1 7abf
00000110: c82f a93f a628 833e 02f2 d43e a6fe b53f
00000120: c386 fbbf d2de 5ebf 2281 0c3f 20a4 703f
00000130: 6119 6abf eb9a 103f c4ac 463e 6c34 373f
00000140: 4fd6 923d 247e 03c0 63e9 a83d c958 e3bd
00000150: dc2e c83e ae81 d63d af80 36bf 0e6e 1cbf
00000160: 6fc1 a1bf f7bc 17be dba2 0ebe a2a7 98bf
00000170: e459 2b3f 56da eabe 5d4e acbe a705 c63e
00000180: 41b0 9abf acca 323e 1829 36c0 ab91 3a3f
00000190: 7eaa 813f 1c73 473f ebb7 a53e 973d 9f3f
000001a0: 3d0c a33e cf90 e43e 68cb 823f 6741 7ebf
000001b0: fee3 74bf ea87 6e3f f45a d0be e564 75bf
000001c0: cc15 b6be 09ba 3f3f 463b 2f3f a631 953f
000001d0: 2ecf edbe cf70 493f 429f bfbe 347e 1fc0
000001e0: 516c 19bd 83e5 213f 53c8 1cbf 5e0a 26bf
000001f0: 59e9 9a3e 8f1d 38bf 2d2a 70bf b8be 993e
00000200: 3e38 e6bd e924 213e 3d07 263f a525 44bf
00000210: 43ad 4f3f 4343 363d 6beb f63f 647e a33e
00000220: 08e9 57bf a09f 30be 002b 123e 4710 02bf
00000230: eb35 583f 1cd6 0dbf c638 4fbe 5973 9c3f
00000240: fef1 debe 17e2 413f 1854 9dbf d3dd d73f
00000250: 16f8 d03e d25c 813e 931c d7bf a7d5 f6bd
00000260: 1433 afbc 2c3e ddbf 69c3 cebe 196a b73d
00000270: 451a 43bf 17c5 4ebf 906a a93f 4822 813f
00000280: cebd 96be 431f be3e e4c4 1f3f 355a 183f
00000290: a3f8 42bf 5647 0f3f b34c 31bf 5a99 01bf
000002a0: aad2 02c0 d4af 163f 7130 4f3f 491c d8bf
000002b0: cd74 02bf c492 8ebf f1c5 9dbe d4ff 3a3f
000002c0: a392 82bf 0a1a b83f fc78 35bf 9c10 13bf
000002d0: 4cc5 713d 7db0 65bf 7336 0240 9677 2bbf
000002e0: 3aba 85bf 801e 8cbf cc11 103d f267 a0bf
000002f0: 287b 0dbf 7165 913d 6a67 a93c d87e 8dbe
00000300: 50e8 7fbf effd b93e 2c4b 0ebf 9e5f 023f
00000310: d8c1 9cbe 479a a0be 62b0 af3e a791 973f
00000320: cbd5 31bf 3f5c 16bf cd3b c33e f76b 8fbf
00000330: 6607 843f 69bc de3d 2be5 d5bf 15f1 cbbf
00000340: cf86 ffbe fe2b b9bd 1714 fdbe 00e2 1cbf
00000350: df2e b03f 5492 f13e 27bf 02c0 85b3 123f
00000360: 2dee 2b3f ab00 6bbf 86b5 9bbf 1b2d 83bf
00000370: 1841 023f 9391 25be f6cc 08c0 a7a1 0ebf
00000380: 6b9b 4a3f 0ba0 dcbf 9ca4 783f 2863 0140
00000390: fcfa a33f 1959 673f 37d3 963f a5fc 4b3f
000003a0: 01c5 f6bf d429 dabe ac2a 82bf 10e4 14bf
000003b0: eced 3e3e 451c d5bd c148 e7bd 7bff acbf
000003c0: b9df 3d3e ef3f 473f 7443 38bf 8a9a b23e
000003d0: 9baf f6bf 0cc3 8d3f b4de 863e 3680 71bf
000003e0: 37ab eb3e 7a8a 93bf 6470 4ebe f162 fe3c
000003f0: 230d b63e c90a c6be ffd4 3340 4579 d1be
-0.9629903 -0.13377522 0.91084594 0.34204835 1.5078281 0.94315916 1.8233181 -0.6465408
0.23948888 -2.3038986 -0.20831683 -0.25126764 -1.5663044 -0.7951859 -1.0795988 0.32829943
-1.109483 -0.96339846 -0.45330286 -0.5111792 -2.3277442 -0.07160042 0.18289344 -0.5692689
0.8752864 0.3878377 -1.4722518 -0.18314365 -1.0695801 -1.1311871 -0.5242865 -0.1916296
1.6321319 1.6041788 0.8242092 -0.37710845 -1.3862818 -0.6862442 -0.8075927 0.5407014
-0.3664502 -0.5087506 -0.70272404 1.0041269 1.1691091 2.149126 -0.78408694 2.29311
-1.9832661 1.6524694 1.0624809 0.29565522 0.7281194 -0.7696523 -0.23766252 -0.30674836
0.0022219396 0.9652771 0.94310766 0.44646937 -0.36053255 0.36242852 -0.4304736 -1.4357102
0.3667422 -0.9618971 -0.26556164 -0.9790249 1.3217707 0.2561695 0.41590887 1.4218338
-1.9650501 -0.87058747 0.5488454 0.94000435 -0.91444975 0.56486386 0.19401842 0.71564364
0.07169782 -2.054574 0.0824764 -0.11100919 0.3909825 0.10473953 -0.71290106 -0.6110543
-1.2637156 -0.14818178 -0.13929312 -1.1926157 0.6693404 -0.45869702 -0.33653536 0.38676187
-1.2085038 0.17460126 -2.8462582 0.7287852 1.0130155 0.7791002 0.3236688 1.2440671
0.31845275 0.4464173 1.0218325 -0.99318546 -0.9566039 0.9317614 -0.40694392 -0.9585708
-0.35563505 0.7489324 0.6844982 1.1655777 -0.46447128 0.7868776 -0.37426192 -2.4920778
-0.037456814 0.6324083 -0.6124317 -0.6485957 0.30256155 -0.719201 -0.93814355 0.3002832
-0.11241196 0.15736736 0.64854795 -0.7661994 0.8112375 0.04449774 1.9290594 0.31932366
-0.8433995 -0.17248392 0.14274216 -0.5080609 0.8445727 -0.5540483 -0.20236501 1.2222701
-0.43544 0.7573561 -1.2291288 1.686457 0.40814275 0.2526613 -1.6805595 -0.1205247
-0.02138666 -1.7284598 -0.4038346 0.089557834 -0.7621196 -0.80769485 1.3235645 1.0088587
-0.29441684 0.37133226 0.62409806 0.59512645 -0.7616064 0.55968225 -0.6925766 -0.5062462
-2.044108 0.5886204 0.8093329 -1.6883632 -0.50959474 -1.1138539 -0.3081508 0.7304661
-1.0201 1.4382946 -0.7088773 -0.5744722 0.059026048 -0.89722425 2.0345733 -0.6697935
-1.0447457 -1.0946808 0.035173222 -1.2531722 -0.55266047 0.070994265 0.020679194 -0.27635837
-0.99963856 0.36326548 -0.55583453 0.5092715 -0.3061664 -0.31367704 0.34314257 1.1841325
-0.6946685 -0.58734506 0.38131562 -1.1204823 1.0314758 0.1087578 -1.6710562 -1.5932947
-0.49907538 -0.09041594 -0.4942939 -0.6128235 1.3764304 0.47181952 -2.042917 0.57305175
0.671603 -0.91797894 -1.2164772 -1.024814 0.50880575 -0.16168813 -2.1375098 -0.5571541
0.791434 -1.7236341 0.97126174 2.021677 1.2810969 0.9037033 1.1783208 0.7968238
-1.9278871 -0.42610037 -1.0169272 -0.58160496 0.18645447 -0.104057826 -0.112931736 -1.3515466
0.18542375 0.7783193 -0.71977925 0.3488353 -1.927234 1.1075149 0.26341784 -0.9433626
0.46029064 -1.1526635 -0.20160061 0.031053038 0.35556898 -0.38680103 2.8098752 -0.40912834

encoder_pos_embedding.weight f4 [8, 32]
00000000: 1d08 a1bf c529 e9bf 51ab d0be 4034 99bf
00000010: 89e7 04bd 8cfa 4c3f dc4d 5bbe 894d e3bf
00000020: a788 59bf f80a 0cbf b8a2 933f a498 6fbd
00000030: ee73 353f eeb2 79bf 4282 803e 2290 ec3e
00000040: 9edd c4bc 1ac8 ae3f 1dbf 1c3d aba7 2c3f
00000050: 6b3f 5b3f 7522 eebe 3860 cf3f 70cc 593f
00000060: e91b f43f b34d 113f f1ec fa3f 02f5 c93d
00000070: 252c 12c0 8262 933e f47b 3abd 7e7d 91bf
00000080: e3f7 f43e fc7b bfbf 0a7a 4fbe 4ae0 413f
00000090: 48de 63bf 4bce a73d bc54 2d3d 14e2 723e
000000a0: 622a a3bf a0df 69bf ab62 76bf f9a7 0e3f
000000b0: a237 01bf 4b3d 2bbf f417 2c3f c6d9 ef3e
000000c0: 98d7 4d3f 8781 133f b2ba 893f 2331 38bf
000000d0: 7091 f6be 573c 30bf 3fb1 623f 661f 37be
000000e0: 3102 e1bd cf55 ef3e 58e3 3fbf 7bc3 32bf
000000f0: b900 e33f e1ed 693f ffed 863f 0f89 e73d
00000100: da44 9cbf 56b9 c93e dcc8 d33d 9f82 d7bf
00000110: 71c6 8abe 5b6e 7bbf 9b9a c03d 828f cd3d
00000120: 72d4 25c0 953b b1be 675e 833e f525 3f3f
00000130: 6bfe 6f3f d060 9c3f 2a1f 5b3f 0b13 a83e
00000140: 0041 8e3f be9e 843f 041f dcbf 4967 833e
00000150: 11d8 2bbf 8e88 0fbf 1e2e 77be 979e 823d
00000160: 5682 0e3f c4f5 54bf 97ea 79bf 777b 1f3f
00000170: 47d3 903f 98aa 77bf 9acd eabe 21cc 9e3f
00000180: 3884 60bc ebaa a93e 21f4 81bf e0a2 95bf
00000190: 44db 77bf dd43 9bbf ec73 bfbf a632 033f
000001a0: a7e0 db3f 055a d63f 1bb0 c2bf 5344 9bbe
000001b0: 4ad7 54bf 9713 f5be 3dd9 8c3d 0f37 fc3e
000001c0: 1da8 febf 7375 62bf 3e3f 68bf ea1b babe
000001d0: f55c 903e 5f97 51bf 79e3 f23f 6ddb 6fbf
000001e0: af11 fe3e b978 18bf 1adc 0cc0 b72d 28bf
000001f0: 11d6 c0be dabd a1bd 705f 12bf aa75 19bf
00000200: 0db8 413f 2fe3 cf3e a898 74bf 828a c53f
00000210: 65fe e6bf e03d b83f 9839 a9bf 9e98 283e
00000220: 167e 5d3f f034 15c0 c397 803f 5c66 a63f
00000230: 93f9 35bf f57e 083f b154 733f 8f59 df3f
00000240: 7c78 ab3f ce0d 1b3f dfbc 883f 6693 853f
00000250: 90b9 1b3f 1421 5abf 1d12 e7bf 149a 2dbf
00000260: 9a82 743f 9d83 bebe 1204 263e d119 91bf
00000270: 1827 7bbe 0c0b 81bf 3485 be3f 7791 79bf
00000280: eb1c 56bf 652a 00bf e224 65be dd63 4bbf
00000290: 0548 dabf 6e21 77bf 1272 663f 56e2 39be
000002a0: 9ef3 dcbd 535b 643f 1b04 9c3e 70ed 823e
000002b0: f038 93bf f60b bfbf ad63 1ebf b9ac 863e
000002c0: 0d16 56bf f3d6 10bf e87a d93d 703a c13f
000002d0: c60e c6be 868a 71bf 7d6d 42bf f432 bc3e
000002e0: 7628 0f3e fd33 3fbf 3519 c03f 1b59 32be
000002f0: c45f 45bf 11a2 1a3f 1c09 813d 0032 d7be
00000300: af11 2fbf 4fa6 3fbe 357c 0540 6820 b5bf
00000310: b1b8 80bf 4fb3 193f 1afa abbf 8566 803f
00000320: ad5f 913e 97bc c43d d785 01bf 0f30 ab3f
00000330: 5ed1 9c3e ec55 d63e e234 7cbf e9a1 943f
00000340: d96e ed3d 9bba 26bf bf69 7bbe 5e53 053c
00000350: c31c c7be d473 8cbc 88fa 49be 1967 8a3f
00000360: 2aed 4fbf 65af 43bf 322f f13e 7959 b8be
00000370: 5fa7 46bf 82da 223e 3cda 683f ee7b 0c3f
00000380: a76f 28bf 4e8e 42bf 8411 46be 25ba a43f
00000390: 4922 d9bf 61f0 f83f 3e24 1b40 b0d5 88be
000003a0: 4333 783f e9ae 983d 09ac 283d 0f33 713f
000003b0: 9b67 e03f 1054 8cbf ff14 e93e 120e 0bbf
000003c0: ea81 38c0 1a0b 423d aa0b ed3f 3ef6 e93d
000003d0: 3014 2abf 3fd3 d2bf ecac bd3e a5f5 e03e
000003e0: e7a3 97bf 2e87 343f f969 393e a1c4 8cbd
000003f0: f467 ab3e 4da5 d0bf 3e10 88be fb42 14bf
-1.2580601 -1.8215872 -0.40755704 -1.196907 -0.03244737 0.80069804 -0.2141642 -1.7758037
-0.8497414 -0.54704237 1.1534033 -0.05849518 0.7088002 -0.9753865 0.2509938 0.46203715
-0.024031457 1.3654816 0.038268197 0.6744334 0.85643643 -0.46510664 1.6201239 0.8507757
1.9071018 0.56759185 1.9603559 0.09861185 -2.2839444 0.28786093 -0.045528367 -1.1366422
0.47845373 -1.4959712 -0.20261398 0.7573286 -0.8901105 0.08193644 0.042317137 0.23719054
-1.2747309 -0.9135685 -0.96244305 0.55725056 -0.50475514 -0.668904 0.6722405 0.46845835
0.80407095 0.5761952 1.07601 -0.71949977 -0.48157835 -0.6884207 0.88551706 -0.17883071
-0.10986746 0.46745154 -0.74956274 -0.6982953 1.7734596 0.913786 1.0541381 0.11305439
-1.2208512 0.39399213 0.10341045 -1.6836737 -0.27104524 -0.98215264 0.09404489 0.100371376
-2.5910916 -0.3461577 0.2565796 0.7466729 0.93747586 1.2217045 0.8559443 0.3282703
1.1113586 1.0360944 -1.7196965 0.25664738 -0.67126566 -0.5606774 -0.24138686 0.06377905
0.55667627 -0.8318751 -0.9762358 0.6229777 1.1314477 -0.9674468 -0.45859987 1.2406045
-0.013703398 0.33138213 -1.0152627 -1.169033 -0.9681895 -1.2130085 -1.4957252 0.5124916
1.7177933 1.6746222 -1.5209993 -0.30325565 -0.83141005 -0.47866508 0.068773724 0.49260756
-1.9895054 -0.88460463 -0.907215 -0.36349422 0.2819592 -0.818716 1.8975669 -0.9369419
0.49622867 -0.5955921 -2.200934 -0.65694755 -0.3766332 -0.078975394 -0.57176876 -0.59945166
0.75671464 0.40603015 -0.95545435 1.5432894 -1.8046385 1.4393883 -1.3220701 0.16464469
0.86520517 -2.331356 1.0046314 1.2999988 -0.71083945 0.5331872 0.95051104 1.7449206
1.3396144 0.6056794 1.0682639 1.0435607 0.6083002 -0.85206723 -1.8052403 -0.6781323
0.9551178 -0.37209788 0.1621249 -1.1336004 -0.24526632 -1.0081496 1.48844 -0.97487587
-0.83637875 -0.5006469 -0.22377351 -0.79449254 -1.7053229 -0.96535385 0.9001781 -0.18152747
-0.10788654 0.8920185 0.30471882 0.25571775 -1.1501751 -1.4925525 -0.61870843 0.26303652
-0.83627397 -0.56577986 0.10619146 1.5095959 -0.38683146 -0.94351995 -0.75948316 0.36757624
0.13980278 -0.746887 1.5007693 -0.17416804 -0.7709925 0.60403544 0.063005656 -0.42030334
-0.6838636 -0.18715785 2.085706 -1.4150515 -1.0056363 0.6003923 -1.34357 1.0031286
0.28393307 0.09606283 -0.5059485 1.3374041 0.30628484 0.41862428 -0.9851819 1.1611911
0.11593408 -0.6512849 -0.24552058 0.008137552 -0.3888913 -0.017145075 -0.19724476 1.0812713
-0.8122126 -0.76439506 0.4710632 -0.36005762 -0.7759914 0.15903667 0.90958 0.548766
-0.6579537 -0.7599839 -0.19342619 1.2869307 -1.6963588 1.9448358 2.424087 -0.2672553
0.9695322 0.074552365 0.04117969 0.94218534 1.7531618 -1.0963154 0.4552383 -0.54318345
-2.8829293 0.04737387 1.8519185 0.1142392 -0.66437054 -1.6470717 0.3704599 0.43937412
-1.1846894 0.7051877 0.18106832 -0.068734415 0.33477747 -1.6300446 -0.26574892 -0.57914704

decoder_pos_embedding.weight f4 [8, 32]
00000000: 7a3d 903f eab7 223f fa99 18bf d7b7 dbbf
00000010: e946 9fbf 3aeb bcbf eefb 2fbf b119 823f
00000020: d04e 8b3f afeb 64bf f6a2 9b3f 64ec 54be
00000030: 1519 d6be a60a 54be ec04 383f 86b4 d7bf
00000040: 3733 303e 99e3 02bf f6f3 643f 5150 90be
00000050: 72a7 2c3d 8047 08bf cad9 86be dcf1 4bbf
00000060: 2509 fabf 3b6f 193f ff7a 083f 0b4a 20bf
00000070: 3961 ce3e eb90 2fbe 6613 c53e 0247 f53e
00000080: 4fd7 a23e ea59 b33f 2aeb 03bf 09f2 253e
00000090: 111e c03f 605f c83f 86b3 7940 516a 35bf
000000a0: 6d8d edbe 2533 913f d66c 683e 2fb3 cebf
000000b0: ef57 1a40 c63e 6abf 959f d2bc 5dd2 813d
000000c0: 7338 893f cc16 873f ee2b 8abd 26c6 25bf
000000d0: 554a cf3e 8c40 e6bf 8eae 3fbd b814 dfbf
000000e0: 9bd5 b2bd da32 3f3e 7fad ad3e 27fe 9f3f
000000f0: 007d 7abe daab b23e 3405 dcbf 466f bcbd
00000100: 2bbd 8ebf 69b6 bb3e 5b58 833f 86d3 db3e
00000110: 0952 1040 7408 46bf a067 4e3e 4f63 be3f
00000120: f93f 2abf c407 c33f 7192 d8be c9af f2be
00000130: b06a 7f3f d098 bb3d 16d7 bb3f 4942 f33e
00000140: 752a 343f e43a 8dbe be7c c1bf 2bc5 2f3f
00000150: 1c21 4c3e b202 98be a8a7 eebf 8275 26bf
00000160: b573 ed3e e60e e0be ed83 d4bf cefc 1d3f
00000170: 12fc 65bf a71d e7bf 0bf7 6e3f fa9e 1fc0
00000180: fc82 10bf 3b73 08bf fcc1 8fbf d603 edbe
00000190: b5c7 d5bf 0355 13c0 b89f 4d3f f614 c93e
000001a0: d5c6 dabd 9e79 b03f 5646 ebbf 73ef ab3f
000001b0: bc4a bbbf 9c4d d43d 566e 543e 17e9 2e3f
000001c0: 7b8f 54be 39db 743f 0386 4a3f 3631 d6be
000001d0: 8376 8d3f 6798 fd3e 01b9 5a3f beca f43f
000001e0: f17c f43f e6d0 02c0 03c4 cb3f f561 c53f
000001f0: 03c9 c3be b3cd 93bf a5fa 0e3f 956b 9dbe
00000200: 5dd8 8c3e 0d62 c4bf f498 6dbe 2e73 d8bf
00000210: ae9c 2b3f 9be7 913d f49b b13f d040 a9bf
00000220: 02d9 e6be bb0e e9be 8cd6 dcbf 8b30 f53f
00000230: e56a a43f 8abf ad3d aa81 2b40 e3f1 e53f
00000240: 2e44 0e3f 2338 abbf 0def 9dbf f00a 383e
00000250: b215 e33e 18f8 09bf 4130 bfbe 14d1 bebe
00000260: 5ee9 91bf ee2b 55bf 5e25 ecbe 0cb6 6f3e
00000270: 1029 b43f 05cc 07bf 7f46 993f 93db 8f3e
00000280: 80a4 b43f 2456 683f d2c1 8abf a064 8c3c
00000290: 8e74 02be a08f 18bf 955c e6be bc13 2ebe
000002a0: e8cb 6a3f e34f 1540 2373 76be 7fb7 c33e
000002b0: 034c 01bf 1c32 753e 15fb a0bf 0acf 363f
000002c0: ae9d 063e dcc4 33bf 2143 88bd 5f8d 9fbe
000002d0: 5ba3 eb3e 1689 9abf a792 8c3f 8a81 503f
000002e0: 464e 253d 6d11 22bf 2a8c f5be b963 813e
000002f0: 1c10 e93f 3edf 7a3f 4af4 21c0 002f 1fbf
00000300: 7eac 74be e1a1 eebe f18b 843f ac45 9ebf
00000310: d4c7 413f fac6 bf3d e3f2 3fbf 934e 20be
00000320: 5a36 76bf e986 1240 183e 39bf 53a0 d53f
00000330: f174 d53e 5774 943f 68f4 adbe 1b2e 1d40
00000340: cd21 ccbe fb64 0240 9656 22bf 8b98 11bf
00000350: 5dc8 4c3f 8560 43bf ba32 983c 1e3d 98bf
00000360: b1e7 213f 60d7 8b3f 0d2f e1be 408c 753f
00000370: 9d8b 3e3f 48d5 efbe b173 263f 0ef1 1f3f
00000380: 3eb0 c03f 3166 dfbe 19cb d73e 6bde 6a3f
00000390: b5ad 36bf e7bc f23e af29 c73f 2077 99be
000003a0: 5182 5fbe 107f c1be bb32 973e d67f 5abe
000003b0: ec4b 03c0 e416 dabd 14ce f33e 7198 513f
000003c0: 0a75 d4bf cb68 523c 441c bf3e 67b5 e9be
000003d0: b819 523f a6aa bebe 23ba 6e3f 657b 8d3e
000003e0: fa61 943f 780c 973e 1b4b 683e 5a97 d0bc
000003f0: a6df cb3f 80ca 1cbf b5fe 65bf 278c 45bf
1.1268761 0.6356188 -0.5960995 -1.7165478 -1.2443515 -1.4759285 -0.6874379 1.016409
1.0883427 -0.89422125 1.2159107 -0.20793301 -0.4181601 -0.20707187 0.7188251 -1.6851966
0.17207037 -0.51128536 0.89434755 -0.28186277 0.042151876 -0.532341 -0.26338035 -0.79665923
-1.9534041 0.5993535 0.5331268 -0.6261298 0.4030855 -0.17145126 0.38491362 0.47905737
0.31804892 1.4011815 -0.51530707 0.1620561 1.5009176 1.5654106 3.9015822 -0.7086535
-0.46396962 1.1343733 0.22697768 -1.6148432 2.411617 -0.91502035 -0.02571086 0.06338952
1.0720352 1.0553832 -0.0674666 -0.64755476 0.40486398 -1.7988448 -0.046797328 -1.7428198
-0.08732148 0.18671742 0.3392143 1.2499436 -0.24461746 0.34896737 -1.7189088 -0.09200911
-1.115148 0.36662605 1.0261339 0.42934817 2.255007 -0.7735665 0.20156717 1.4874057
-0.66503865 1.5236745 -0.42299226 -0.47399738 0.9977217 0.09160006 1.4675014 0.4751151
0.70377284 -0.27583992 -1.5116193 0.6866023 0.19934505 -0.29689556 -1.8644915 -0.6502305
0.4637734 -0.43761367 -1.660276 0.61713874 -0.89837754 -1.8055924 0.9334571 -2.4940782
-0.56449866 -0.5330083 -1.1231074 -0.4629199 -1.6701571 -2.3020637 0.80321836 0.39273804
-0.106824555 1.3787115 -1.838084 1.3432449 -1.4632182 0.10366365 0.20745215 0.68324417
-0.20757858 0.9564701 0.79110736 -0.4183442 1.1051792 0.49530336 0.85438544 1.9124372
1.9100629 -2.0440001 1.5919193 1.5420519 -0.38239297 -1.154715 0.55851203 -0.3074614
0.27508822 -1.5342423 -0.23202878 -1.691015 0.6703595 0.07124253 1.3875718 -1.3222904
-0.4508744 -0.4551905 -1.7252975 1.9155439 1.2845122 0.08483799 2.679789 1.7964443
0.55572784 -1.3376507 -1.2338578 0.17972922 0.4435249 -0.53894186 -0.37341502 -0.3726889
-1.1399343 -0.83270156 -0.4612226 0.23409289 1.4075031 -0.53045684 1.1974639 0.2809721
1.4112701 0.9075644 -1.0840399 0.017137825 -0.12739775 -0.59594154 -0.4499251 -0.16999716
0.91717386 2.333001 -0.24067359 0.38225934 -0.5050661 0.23944896 -1.2576624 0.71409667
0.13146088 -0.7022226 -0.06653429 -0.31162545 0.46023068 -1.2073085 1.0982255 0.8144766
0.04035785 -0.6330784 -0.479585 0.25271395 1.8208041 0.9799689 -2.5305352 -0.6218109
-0.23893926 -0.4660788 1.0355207 -1.2365012 0.7569554 0.09364124 -0.7497999 -0.15654974
-0.96176684 2.2894843 -0.7236037 1.6689552 0.41690782 1.1598004 -0.3397553 2.455939
-0.39869538 2.0374134 -0.6341337 -0.5687339 0.7999323 -0.7631915 0.018578876 -1.1893651
0.6324416 1.0925102 -0.4398121 0.9591713 0.7443178 -0.46842408 0.6502028 0.62477195
1.5053785 -0.43632653 0.4214714 0.9174563 -0.71358806 0.47409746 1.5559596 -0.29973698
-0.21827056 -0.37792253 0.29530892 -0.21337828 -2.051509 -0.10648897 0.47618163 0.8187323
-1.6598217 0.012842367 0.37326252 -0.45646212 0.82070494 -0.3723957 0.9325277 0.27633205
1.15924 0.295017 0.226849 -0.025462795 1.5927627 -0.6124649 -0.8984178 -0.7716698

transformer.encoder.layers.0.self_attn.in_proj_weight f4 [96, 32]
00000000: 871a f03d 070c 80bc 54af d0bd e6cc a93d
00000010: 0689 ae3b 74b1 edbc b410 e1bd d4ea 85bd
00000020: 6b26 bf3d 3fb2 9b3d 9a95 ba3d c259 1b3e
00000030: 8200 9a3d ad6e 4fbd 2947 14bc adfd f138
00000040: 4f97 333e 3480 96bd 6100 933d 97e8 a33d
00000050: de66 e23d 5530 843d bfaf 143e 855e 08be
00000060: 9afe ddbd 3ce0 633e 9cc9 8abd 1c15 373d
00000070: 28c2 373d a7f5 f8bd e3a8 92bd c432 14bd
00000080: 1489 243e b9a3 003e eb5a 3f3e aa16 593e
00000090: f5ea 98bd 3213 fa3a f7f9 d13c dd7f 863d
000000a0: 5c06 a63c 51b0 25bd eea1 693c 5186 5f3e
000000b0: 9041 dbbd 09aa 013e 15fb 39be 6771 03be
000000c0: b9ec ccbd 4597 c9bd dd53 593e e1b4 e53b
000000d0: fbe6 77be b45f 59bc 91d5 0dbd 8d77 59be
000000e0: 0cb5 463e 6b74 6e3d 3e71 06bd a9f8 12be
000000f0: 2676 4a3e 584a 443e 6682 b1bd b2bb 25be
00000100: a67a 0e3d 87b8 03bd fea4 74ba 27dd 083d
00000110: 7756 99bd 37b2 173e c223 06be c7a3 143e
00000120: f296 ba3d b4de b2bd c1ba cb3d eeba 83bc
00000130: ba8a 9f3e 4ec4 1cbe 4903 813d 60b0 1bbc
00000140: dad6 863d c08c 6d3d 5a5e bf3d 84ca 203e
00000150: d179 dc3d ab5f 27be 428d aabd fa19 19bb
00000160: 1267 903c 1b50 f63d b4fe f23b 629d 583e
00000170: f6a2 3b3e 6a7f 39be b8cb cdbd 6be8 b7be
00000180: 435d 263d 3f3a cd3d e700 0fbe 01ae a6bd
00000190: ac87 353e 2469 33be f233 333e e7c1 1ebd
000001a0: 727a 29be ab4c c63d cee7 1bbe 8fbc f03c
000001b0: da33 bebc 9472 89bd 8d1b 21be d1ef 98bd
000001c0: 10f1 923d 1ece 51be 535f 693e 266d ddbd
000001d0: 71e3 d9bd a173 93bd 7807 dd3c 75ff 80bd
000001e0: 7cb2 8a3d 10bd 793d d429 7a3c 4b87 ba3c
000001f0: fe2f 8cbd 9d67 31be ea70 13be 9c14 91be
00000200: fbe3 463d 940a 053e a57f 4cbd 2878 6d3d
00000210: 841f 693c ea8c cfbc c371 f1bd 89b4 e3bd
00000220: d47d a43b 10da 82bd 348a afbd c5ba 8c3e
00000230: 9d73 6f3e ca94 6e3e f58f 08bd 12ca f73d
00000240: fe73 a83d 5d5c 1ebe ff30 5dbd 434b 75be
00000250: b9ca 2abd 38c2 603d 3b4c 76bc c584 f73c
00000260: 124b 2f3e 1d3f a23d 38f4 97bd ddeb 173e
00000270: 8ba4 70bd 0d3f a9be 1d4a 2d3e aab1 013f
00000280: bff0 2cbe 553e d13d a9f7 c6bd 9bfc 3ebe
00000290: 180a 3dbd 8c45 c83c 74a5 77bd d932 a4bd
000002a0: bfa2 073e 4c5c 0cbe a190 a5bc 47ea 4fbe
000002b0: 2679 2bbe fcf5 c73b 428c 4ebe 6058 063e
000002c0: 4bea 1e3e 4747 2d3e ab23 b43d 7103 6b3e
000002d0: df23 e2bc e91d 3bbe 219b 3ebe baf7 2dbe
000002e0: 0f6a 95bd 071f 303d a2c3 b23c f6c9 b3bd
000002f0: 078d 8cbe 6ce3 0d3d fa3f 9bbc 2dd0 dc3d
00000300: fdbd a23d f7ac 0fbd 4b47 f23d b272 c13d
00000310: e0b0 45be bc1f 763d a830 ac3d 15c3 b4bc
00000320: bcfb e0bd 1559 133c 94c7 023e 795e 9bbd
00000330: 39b5 31be fa6a b93d f346 93bd a1cf f9bd
00000340: c5d9 04bd 6baf 1a3e 59a7 9abd ceb8 6cbe
00000350: 4e2b e3bc 14d7 13be 2399 753e cff3 a2bd
00000360: 29ea 42be 527b 54bd a3c2 a4be afe7 273e
00000370: 1960 3b3e b35c 3b3e ad8c 03be dc32 863e
00000380: 1af7 12bc f0be d93d 76d5 963d 6313 5f3e
00000390: f09c 7e3d d167 593e 1db7 a1bd 4940 d43d
000003a0: 072d 6ebd bd1a c73d f471 36bd 0716 e8bd
000003b0: 8f2d 4dbe a35b 3cbe db62 f83a 47f2 173e
000003c0: 1452 c2bd 6c02 34bd 9222 99bc e825 093e
000003d0: 2cc8 eb3d d81f 83be 5c43 04be 772e 01bd
000003e0: 3a14 813d 583a 8eba a86e 36be 2d7b 343e
000003f0: da69 d3bd b300 84be 3345 22be e40a fc3e
0.1172381 -0.015630735 -0.10189691 0.082910344 0.005326393 -0.02901528 -0.10989514 -0.065389305
0.093334995 0.07602357 0.091105655 0.15170959 0.07519628 -0.050642658 -0.009050169 0.00011539026
0.17538188 -0.073486716 0.07177807 0.08003347 0.110547766 0.06454531 0.14520167 -0.13317306
-0.10839577 0.22253507 -0.06776735 0.044697866 0.044862896 -0.121562295 -0.07161119 -0.036181226
0.16067916 0.12562455 0.18687026 0.21200052 -0.074666895 0.0019079207 0.025631888 0.06567357
0.020266704 -0.04045135 0.014259798 0.21828581 -0.107058644 0.1266252 -0.18162186 -0.12836228
-0.10006089 -0.098433055 0.21223398 0.007010088 -0.24209206 -0.013267446 -0.0346275 -0.21237011
0.19405001 0.058216494 -0.03282284 -0.14352669 0.19771633 0.19168985 -0.0866745 -0.16184881
0.034784935 -0.0321584 -0.0009332447 0.033414032 -0.07487195 0.14814077 -0.13099578 0.14515601
0.09110822 -0.087338835 0.0994773 -0.016080346 0.31160527 -0.1530926 0.06299455 -0.0095025
0.065839484 0.057995558 0.09344168 0.15702254 0.10765422 -0.16345088 -0.08327724 -0.002336143
0.017627273 0.12026998 0.007415617 0.21153787 0.18323883 -0.18115011 -0.10048622 -0.35919508
0.040616285 0.10020875 -0.13965188 -0.08138657 0.17727536 -0.17520577 0.17500284 -0.03875914
-0.16550615 0.09682592 -0.15225145 0.029386787 -0.023218084 -0.06711307 -0.15733166 -0.07467616
0.07174885 -0.20488784 0.2279027 -0.10811834 -0.10639084 -0.07199789 0.0269811 -0.062987246
0.067723244 0.06097132 0.015268762 0.02276959 -0.06845091 -0.17324682 -0.14398542 -0.28336036
0.048557263 0.12992316 -0.04992642 0.057975918 0.014228705 -0.025335748 -0.117892765 -0.11118419
0.0050198827 -0.06389248 -0.08571282 0.27486244 0.23383947 0.23298946 -0.033340413 0.12099089
0.08225249 -0.15464921 -0.054001804 -0.23954491 -0.041697238 0.05487272 -0.015032823 0.030214677
0.17118481 0.07922194 -0.07419628 0.14836068 -0.05875067 -0.33055916 0.16922803 0.5066172
-0.16888712 0.10216967 -0.09715206 -0.18651049 -0.046152204 0.024447225 -0.060460523 -0.08017511
0.13245676 -0.13707083 -0.020210566 -0.20304213 -0.16745433 0.0061023217 -0.20170692 0.1311965
0.15519063 0.16921721 0.087958656 0.22950532 -0.027604995 -0.18273129 -0.18613864 -0.16989031
-0.0729562 0.04299834 0.0218218 -0.08778755 -0.27451345 0.034640715 -0.018951405 0.10781894
0.07946394 -0.03507706 0.11830004 0.094457045 -0.19305754 0.060088858 0.08407718 -0.022065679
-0.109855145 0.008993407 0.12771446 -0.075863786 -0.17354287 0.09053607 -0.07191267 -0.12197805
-0.032434244 0.15105979 -0.0755145 -0.23117372 -0.02773061 -0.14437515 0.23984198 -0.07956659
-0.19034638 -0.05187542 -0.32179746 0.16396974 0.18298377 0.1829708 -0.12846632 0.26210678
-0.008970046 0.106321216 0.07364933 0.21784739 0.062161386 0.21231009 -0.07896254 0.10363824
-0.05814841 0.09721897 -0.044542268 -0.113323264 -0.2003691 -0.18394332 0.001895036 0.14838515
-0.094883114 -0.043947622 -0.018693242 0.13393366 0.11512789 -0.25610232 -0.1291632 -0.031538453
0.06302686 -0.0010851128 -0.1781565 0.17625113 -0.10322924 -0.25781783 -0.1584671 0.4922706

transformer.encoder.layers.0.self_attn.in_proj_bias f4 [96]
00000000: f1e4 253e 2ef4 f9bd 5c23 71bd 51d7 df3c
00000010: d469 7c3d 284c 3dbd 4d52 993d 78e2 54bd
00000020: 39da 403c 0172 063d 3c60 fc3d d8dd a2bd
00000030: dec8 f03c ef6c c53d f780 a3bd 1c9c 883d
00000040: 17e2 143e 65c8 cbbc 7af8 cc3c e82d c33d
00000050: e56e 1f3c e713 b53d c774 78bc 840d babb
00000060: 5a06 d6bd e629 4a3d 4126 a2bd a7a4 a33d
00000070: ee52 a23d a47c 893d 4a39 b5bd 1ba7 f6bc
00000080: e59c 96bc e488 adbc c1d4 e9bc 53b0 13bd
00000090: ef55 9dbc ac81 ca3c d59c 983c 2b7a 41bb
000000a0: 1940 133c 8ec8 26bb 1708 ae3a 8990 3abc
000000b0: c3d0 fc3a b0e3 f9bc d71d 213c e8da dd3b
000000c0: 9ee6 fe3b 94bf 193d 8c74 cebc 0223 1d3c
000000d0: 8b41 763c 7410 a0bc 51a7 0fbd 4b1a 843c
000000e0: b275 97ba 1ff7 e33c ed4c 833c e1a6 1dbc
000000f0: 8296 cd3b 7e16 58bc 0dfe c5bc 0408 bd3b
00000100: 1d4d a63d 5b35 393d db8d 00bd 71cc 903d
00000110: 9aa3 773d 467e 9cbb 3561 86bc 3fbe d8bc
00000120: 91a8 9d3d 6636 e7bc bf85 e8bd 7e9d 453d
00000130: 459b 9fbc 6560 65bd fa36 a0bc 6d08 c33d
00000140: 2e55 0fbd 1f49 52bd 1a0a e7bd fac7 e2bd
00000150: de77 093e ef2a f53d 671d c0ba 1635 fabd
00000160: 1a12 e43d 925c fe3b 3254 893c 1278 d9bc
00000170: 1899 443d 1bdd e0bc 1ca8 3c3c 2f95 da3d
0.16200615 -0.12204777 -0.058871612 0.02732435 0.061624363 -0.046215206 0.07486401 -0.05197379
0.011770778 0.032823566 0.12323043 -0.079524696 0.029392656 0.09639918 -0.079835825 0.066704005
0.14539371 -0.024875829 0.025020827 0.0953024 0.009731029 0.08841687 -0.015164561 -0.0056778807
-0.1045043 0.049356364 -0.079174526 0.07990389 0.07925974 0.067132264 -0.08848818 -0.030108979
-0.01838536 -0.021183439 -0.028543832 -0.036056828 -0.019206015 0.024720035 0.01862947 -0.002952228
0.00898745 -0.002544913 0.0013277557 -0.011386999 0.001928829 -0.030504078 0.0098337745 0.0067704804
0.0077789566 0.03753622 -0.025202058 0.009590866 0.015030275 -0.019539095 -0.035071675 0.016125819
-0.0011555462 0.027827797 0.016027892 -0.009622307 0.0062740454 -0.013188956 -0.024168992 0.005768778
0.08120177 0.0452169 -0.031385284 0.07070244 0.060458757 -0.004775795 -0.016403774 -0.026457904
0.07698167 -0.028224181 -0.11353635 0.0482459 -0.019483218 -0.056000132 -0.019557465 0.095230915
-0.034993343 -0.051339265 -0.112812236 -0.11073299 0.13424632 0.119710796 -0.00146572 -0.122171566
0.11136265 0.0077625 0.01676378 -0.026546512 0.047997564 -0.027449181 0.01151469 0.10672986

transformer.encoder.layers.0.self_attn.out_proj.weight f4 [32, 32]
00000000: 3992 4fbe 78e5 9e3d 780f 38be d1c6 8b3e
00000010: e292 6dbe 8743 7dbd 5e10 03be af6a b5be
00000020: f2e2 5a3e 4dfa 00be dd5e 1a3e 74b9 90be
00000030: 552a e0bd a19c a7bd d214 643d 2950 813e
00000040: f65a 7a3e 84a6 c33c 5f55 023e 5c2b 8cbd
00000050: fea4 f83d 3171 973e e8c4 05be 1412 603d
00000060: 3adf 683e d49d 3b3e 533e 28be bacb e13b
00000070: 54f8 f33d 64e5 24be 9f34 8ebe 40d0 8c3e
00000080: 004c cb3d ec6e 0c3e d537 48be be73 f03c
00000090: 1858 1a3e 53c6 09be e9ab f0bc a96f 573e
000000a0: cbe9 153d a159 0b3e 5f0d 78be 1b9c 6a3e
000000b0: 060e 6bbe 2223 843e 2b0f a63d 2f0b 5bbd
000000c0: e3ab 94bd b91f 8c3d 9605 c2bd 82e4 86be
000000d0: f77b 443e 9454 863e 58af 3ebe 970d 57be
000000e0: d261 323d 5246 85bd 8bba cd3e de8e f93d
000000f0: e397 b0bd 3f4e 2ebe 2970 0abe cc9a fc3d
00000100: 5156 1a3e 3771 80be 20d1 9cbe b9b2 943c
00000110: c99b 66be 34d5 8abd 68b9 723e 1028 443e
00000120: eda7 c7be 1ce0 fcbd 4aa0 8cbe dd64 a6be
00000130: 453e a6bd 4113 24bc fcbb 793e ba53 083e
00000140: 1476 67be 698c 95be 9033 8c3e 9049 033e
00000150: 7cf3 3bbd 00d2 f2bc 3a7f 9ebd fdae a1bd
00000160: 2339 7e3e af6b 813e e473 0f3c b7b7 80bd
00000170: 8cdf baba be58 453d 61f7 65be 91b0 123e
00000180: 8dd8 663e 988c 5ebe de87 65bd f8e7 123e
00000190: 3d3f 953e beec 86bd 8305 ff3c 78ba 89be
000001a0: c398 003d 4c35 24be 645e b73e 185d 9b3c
000001b0: 7e17 22be ce23 9cbd 3198 6cbd 6034 bdbe
000001c0: b215 5b3c c145 3cbe 9396 cdbd aef2 a83e
000001d0: 5419 7c3e d89f 033c 4308 85be f975 573e
000001e0: dc8c 373e 3aab e53e 11d6 473e 60bb 7bbc
000001f0: aefa 17be 2e85 70be fe88 cdbc a719 353e
00000200: b485 ebbb 0ef8 a8be 4134 4bbe 9552 7abe
00000210: d8ef 603e c0d4 2dbe 813b a5bd 6179 f53d
00000220: 5f43 5f3e 8b5d 76be c5eb cb3e 24ef b43e
00000230: e7e6 be3d 7a43 933d 534e ccbd c28f 7b3e
00000240: a70a 263e f64d 9d3e dc8b b63c cc89 b2bd
00000250: 5f19 63be fe3b 973d 0bf6 a63d 436f 96bd
00000260: 390e 5fbe 8231 e13d 2025 10be bc72 03be
00000270: 241b 473e 68bf b93d c2be ea3a 1f78 a3be
00000280: 3b07 5d3e 4e5b 2bbe dac2 3d3d 312a fabd
00000290: 22d5 06be 3e0a 71be 663b 9fbc 2d4d 923e
000002a0: 21a3 87be 272b b33d d398 1e3e abee aebd
000002b0: 7977 993e 3aca 643d 5528 88bd 771b 403e
000002c0: 155c 1b3e 6c3e 61bd 870b 8bbe 0a2d 953e
000002d0: 473e d33b 5f6e 973e f2bb b03d b1ae 6abd
000002e0: b063 943d 9799 5d3e adb8 febd 957f d43d
000002f0: c74d c73d 1856 793c 11c5 3bbe 34eb 29bc
00000300: 1626 3dbd b3c0 20be 7dfa 48be a540 0cbe
00000310: 0794 753d ff90 4fbd 09ed 2cbe ee4a 8fbd
00000320: 93eb 8fbe e9f7 0a3d 93e3 0cbd e652 83bd
00000330: a8ee d63e c009 483e fd46 64bd 40e0 39be
00000340: 342d 15be 1b6b a43e 8f87 5cbe d38c debd
00000350: 8fea 7e3e b74c 1eba 7b38 203e e000 5cbe
00000360: 0c83 2dbe 48fb a5bd a3a3 24bc dbab 123d
00000370: d1f3 58be bdff a9bd 4f2e 7abd e29b 463e
00000380: b09d 3cbe b7ed f03d 7840 9cbe 4840 463e
00000390: 400c 083e c9e9 62bd 191e b23e 207f ae3d
000003a0: 9133 8fbe f946 b23d 4f51 a43e 5bd7 afbe
000003b0: a186 4bbe 883b 9e3d da39 193e 83ff 223d
000003c0: 31ae a13e cbbe cfbe a761 f5bc 7d75 29bd
000003d0: 4dc8 0ebe a87e 943d 1092 8cbd 31e0 213e
000003e0: cf44 4fbe 1348 3b3e 00bb c23d 9c34 4c3e
000003f0: c72c 043e 2198 2f3e 8b11 ccbd 6cff aebe
-0.20270623 0.077586114 -0.17974651 0.27300122 -0.23200563 -0.061831977 -0.12799212 -0.35432956
0.21375635 -0.12595482 0.1507525 -0.2826649 -0.10945574 -0.081841715 0.05568392 0.2525647
0.24448761 0.023883112 0.12727879 -0.06844208 0.12140845 0.29578546 -0.13063395 0.05470474
0.22741404 0.18321925 -0.16430025 0.006890741 0.11912599 -0.1610313 -0.27774522 0.27502632
0.09926605 0.13714188 -0.19552548 0.029352065 0.15072668 -0.13454561 -0.029378848 0.21038689
0.036599915 0.1360841 -0.2422385 0.22911112 -0.22954568 0.25808054 0.08108362 -0.053477462
-0.07259347 0.06841988 -0.09473722 -0.26346213 0.19187914 0.26236403 -0.18621576 -0.21001278
0.04355032 -0.06507553 0.40181383 0.12185453 -0.0862272 -0.17022036 -0.13519348 0.12334213
0.1507199 -0.25086376 -0.306283 0.018151628 -0.22520365 -0.067789465 0.2370354 0.19155908
-0.38995305 -0.12347433 -0.2746604 -0.32498828 -0.08117346 -0.010014356 0.24388117 0.13313189
-0.22603637 -0.29208687 0.2738309 0.1282103 -0.0458865 -0.029641151 -0.0773911 -0.078947045
0.24826483 0.2527747 0.008755658 -0.06285041 -0.0014257296 0.048180334 -0.22457649 0.14325167
0.22543545 -0.2173332 -0.056037776 0.14346302 0.2914981 -0.06588124 0.031130558 -0.26900077
0.031395685 -0.16035956 0.35814202 0.018965289 -0.15829274 -0.07624017 -0.05776233 -0.3695402
0.013371872 -0.18385984 -0.100384854 0.3299765 0.24619037 0.008033715 -0.25982866 0.21041097
0.17924827 0.44857198 0.19515254 -0.015364498 -0.1484172 -0.23488304 -0.025089737 0.17685567
-0.0071875695 -0.3300175 -0.19844152 -0.24445565 0.21966493 -0.16975689 -0.0806799 0.11986042
0.21803044 -0.24059121 0.39828315 0.353387 0.09321385 0.071906045 -0.09975877 0.24566558
0.16215001 0.30723542 0.022283487 -0.08717689 -0.22177647 0.073844895 0.08152398 -0.0734544
-0.2178277 0.10995771 -0.14076662 -0.12836736 0.19443947 0.09069711 0.0017909633 -0.31927583
0.2158479 -0.16734049 0.046328403 -0.122150786 -0.13167241 -0.23539063 -0.019437503 0.28574505
-0.26491645 0.08748465 0.15487985 -0.08541616 0.29973963 0.05585692 -0.06648318 0.18760477
0.15171845 -0.05499117 -0.27157232 0.29135925 0.006446633 0.29576394 0.08629598 -0.057295505
0.072455764 0.21640621 -0.12437568 0.10375897 0.09731632 0.01521828 -0.18336894 -0.010371018
-0.0461789 -0.15698509 -0.19626804 -0.13696535 0.059955623 -0.05067539 -0.16887297 -0.069967136
-0.28109416 0.03392783 -0.03439672 -0.06412296 0.41978955 0.1953497 -0.055731762 -0.18151951
-0.14568025 0.32112965 -0.21536086 -0.10866704 0.24894165 -0.0006038653 0.15646546 -0.21484709
-0.16944522 -0.08104569 -0.01004878 0.035808425 -0.21186759 -0.08300731 -0.06107932 0.19395402
-0.18419528 0.117640905 -0.30517936 0.19360459 0.13285923 -0.055398736 0.34788588 0.08520341
-0.2796903 0.08704943 0.32093284 -0.3434399 -0.19875576 0.077261984 0.14963475 0.039794456
0.3157821 -0.4057525 -0.02995379 -0.04137181 -0.13943596 0.0725072 -0.06863797 0.15808178
-0.20241092 0.18289213 0.09508324 0.19941944 0.12907706 0.17147876 -0.099642836 -0.34179246

transformer.encoder.layers.0.self_attn.out_proj.bias f4 [32]
00000000: d46a 5d3d 8d18 8fbd 3596 6fbe 69cb 5a3c
00000010: 9ef4 973d a593 76bd a8bc 96bd fe3f 54bd
00000020: ffb4 71bd 2101 01be 1978 2c3e b198 0b3d
00000030: 211c 8a3e 3038 0b3e 3529 00be e294 40bd
00000040: e3fd 6fbd d418 63be 3276 f1bd ba37 2dbe
00000050: a3ce 583e 8ba2 e53d 90ec 123e ab05 38be
00000060: c8b7 03be b6c8 193d 860e 103c 16a0 4f3c
00000070: 4a8b 03bd e3df 7f3d 014f 783d 787b 293d
0.054056957 -0.069871046 -0.23397143 0.013354161 0.07419704 -0.0601994 -0.07360202 -0.05181884
-0.059010502 -0.12598087 0.16842689 0.034081165 0.26974586 0.13595653 -0.12515719 -0.047016986
-0.058591735 -0.2217744 -0.11790122 -0.16915789 0.21172576 0.11212643 0.14348054 -0.17970912
-0.12863076 0.03754493 0.008792525 0.012672445 -0.03211526 0.062469374 0.06062222 0.041377515

transformer.encoder.layers.0.linear1.weight f4 [128, 32]
00000000: 01fc 02be b4db 93bb 08a8 16bc 8953 043e
00000010: 8cd2 8e3b 08c4 c13d 4bb8 48bd 4c9f ba3d
00000020: 071d 1f3e 9b78 f8bd 6d56 c0bd 8756 14be
00000030: 7bb5 573d 1c45 1d3e 9332 81be 3b2e 76bd
00000040: 0386 c13d a666 edbd 7c94 30bd 9885 7fbd
00000050: 9b13 c43d 8398 203d dcf6 2dbe bfe3 783e
00000060: 2e45 853d 639e ff3d 3d80 913d bae1 cb3c
00000070: b697 eabc 03ed 003e c7b7 30bc e089 803e
00000080: 1236 d43d 506a fcb7 9fc6 c73d 3e24 463e
00000090: b297 1abc aa5b 8cbc 4cdc 1f3e b001 2b3e
000000a0: fd5a 28bc 7cbf f9bd 927b b43c 017c 01be
000000b0: 0be0 9a3b e8d8 443c 11cd bebd 0688 8fbd
000000c0: 1ba0 b5bd 9c18 09bc 121f 6c3d 067e 423c
000000d0: b7b3 2cbe ee3b e63d b765 88be 8536 d33d
000000e0: 3ed8 4e3d ae69 fc3d 9809 503e d047 1abe
000000f0: 250d 8f3c 2479 94bd 7a5a 5ebd e5b5 ebbc
00000100: 11f4 d2bc 2848 3bbd 8d76 b23d 2b19 58bd
00000110: aa22 7c3e b7d1 033e 0e2a a0bd 8ca5 e8bc
00000120: d37c 8f3b 59fc c9bc 7cc9 243d 2528 90be
00000130: da12 203e 8175 c93c 217e 16be c935 5fbd
00000140: a87f 35be 4c5d 3ebe 8c6e 8f3e 2563 09be
00000150: 61b3 6abd afea 673c dfb0 86be 662a 81bd
00000160: f766 2ebe 80ed 82be 30f0 ba3d 66f7 333e
00000170: 1660 d4bd 2f2a dbbc f65f 163d 80ca 823d
00000180: e872 2e3d f003 9b3c 36b3 173d e068 243d
00000190: 26d4 14be 309d 123e 864b f43d a340 0dbd
000001a0: 2062 a2bc cc81 61be 4b18 983d b19d 0d3c
000001b0: 20b0 95bd b91e ddbd 1b7c ba3c 8124 e7bc
000001c0: 0ab9 7ebe 6940 88bd 0cd1 0d3e 4a1e 05be
000001d0: 42f1 23be f38a d63d 61e5 adbd 9766 1ebe
000001e0: 8154 6bbd b8c6 08be 99a3 88bd 3a23 523d
000001f0: 497b 12bd c25f d6bc 8f98 173e 4cbd 023e
00000200: c376 6d3c 7c7b 86bb f326 893d 153d a23e
00000210: 0120 813b 331b 11bd 0108 613e 056c f8bc
00000220: 0775 bf3c be49 b1bd a499 033e 7360 3fbe
00000230: e656 e4bd 03ca d9bd c9df ccbd 9ed5 6bbe
00000240: bb70 f2bd ce31 193d cb3f 863d 8393 13be
00000250: e918 853d 2840 67be 2f22 07bc 54d1 8dbd
00000260: c96e 2ebe 81c8 073c b86a 0d3e 5cf5 febd
00000270: db7d aabc e189 8f3c 2557 58bd b1e4 8cbb
00000280: 4c90 4abe 686d 5fbd 7e0a 413e 4620 273e
00000290: c575 823d d088 21be eb7d 3dbe c1d1 6abd
000002a0: c25d b33c 01db 3bbb d272 063e 5aaf 03be
000002b0: 83db 05ba a07b 7cbe 2ce1 723c f37a 2ebe
000002c0: 99ba a2bd 4150 52bd 451f 1a3e e75f e93d
000002d0: 4afa c93d 6058 703b 221f 3c3e 0941 413e
000002e0: c6fd 47bd 3b6c b23d cf70 46bd 851d efbd
000002f0: be23 903d 66d9 c23d d520 63bd 851c 57bd
00000300: d829 0dbe f02a 8f3c c079 b2bc 6dc8 143d
00000310: 48fb 09be 4763 0fbd 2a0d c1bd 2e85 063e
00000320: 1c51 313e 9401 6b3d 8e37 413e 76a3 15be
00000330: 2d60 123e bb7e 61be 37b6 28be 239b 72bc
00000340: 1ba1 523e 2d5d 1c3e 9c75 9dbd 3ac2 36be
00000350: 8f99 323c a137 aebd 36c7 623c 01e2 df3c
00000360: 56d3 c5bc 1099 02be 827c c93d fe8d 333e
00000370: 4eff e7bc d757 ce3d 6630 bebd da74 a7bc
00000380: 7b5b 9e3d 6f94 383d 0c45 a9ba 004d bc3d
00000390: de76 babc 2384 a43d 64ef 1d3c cc80 53bd
000003a0: 5bd7 833e 6b1b 9dbd f013 a73d 2af1 b13d
000003b0: 63de 29bd 795d 6ebe 31f8 553e 4ae3 b23d
000003c0: 0c19 12bd 3d35 17be e14b 863e dae3 1a3d
000003d0: e86f 823d b2f1 a03e 9948 78be 0887 b9bd
000003e0: 3611 de3d f593 96bb 1038 e3bd d26e b2bd
000003f0: 7747 e43d 6772 f53b a10e b93b 69ed f13b
-0.12791444 -0.0045122746 -0.009195335 0.12922491 0.0043585952 0.09461218 -0.04900388 0.09112415
0.15538417 -0.12132379 -0.093914844 -0.14486133 0.052663308 0.15358394 -0.25233898 -0.060102683
0.09449389 -0.11591844 -0.043110356 -0.062383264 0.09574052 0.039207947 -0.169887 0.24305628
0.065073356 0.12481382 0.07104538 0.024887908 -0.028636795 0.12590413 -0.010786003 0.2510519
0.103618756 -3.0090247e-05 0.09754681 0.19349763 -0.009435581 -0.017133553 0.1561138 0.16699862
-0.0102756 -0.12194726 0.02203158 -0.1264496 0.004726415 0.012014605 -0.09316457 -0.07008366
-0.08868428 -0.008367684 0.05764682 0.011870867 -0.16865431 0.112418994 -0.26640102 0.10313133
0.050499193 0.12324844 0.2031616 -0.15066457 0.017462322 -0.07249668 -0.054285504 -0.028773258
-0.025751146 -0.04572311 0.08714018 -0.052758377 0.24622598 0.12872969 -0.07820521 -0.028399251
0.004378894 -0.024656462 0.040231213 -0.28155628 0.15632191 0.024592163 -0.14696552 -0.054494653
-0.17724478 -0.18590277 0.28014028 -0.13416727 -0.057299975 0.014155074 -0.26306817 -0.06306915
-0.17031465 -0.25571823 0.091278434 0.17574844 -0.103698894 -0.026753513 0.03671261 0.0638628
0.042590052 0.018922776 0.037036143 0.04013908 -0.14534053 0.14317775 0.119284675 -0.03448547
-0.01982218 -0.2202217 0.074265085 0.008643554 -0.07308984 -0.107968755 0.022764256 -0.028215649
-0.24875274 -0.0665291 0.13849276 -0.12999836 -0.16010001 0.10475721 -0.08491016 -0.15468822
-0.057453636 -0.13357055 -0.06671829 0.051303126 -0.035762105 -0.026168708 0.1480429 0.12767524
0.014493647 -0.004104076 0.06696882 0.31687227 0.0039405827 -0.03542633 0.2197571 -0.030324945
0.023371233 -0.08656643 0.12851578 -0.18689136 -0.11149387 -0.10634234 -0.10003621 -0.23030707
-0.11837908 0.037401013 0.06555136 -0.1441174 0.06498892 -0.22583067 -0.008247896 -0.06924692
-0.17034449 0.00828755 0.13810241 -0.12449142 -0.020811966 0.0175218 -0.052817483 -0.004299723
-0.19781607 -0.054547697 0.18851659 0.16320905 0.06370119 -0.15774846 -0.18505065 -0.057328943
0.021895293 -0.0028664472 0.13129738 -0.1285986 -0.0005106257 -0.24656534 0.014824193 -0.17039089
-0.07945747 -0.051346067 0.15050991 0.11395245 0.09862192 0.003667377 0.18371251 0.18872465
-0.048826 0.087120496 -0.048447426 -0.11675552 0.07038067 0.09514122 -0.055451233 -0.052517433
-0.13785493 0.017476529 -0.02178657 0.036323953 -0.13474762 -0.035006788 -0.09426339 0.13136742
0.17316097 0.057374552 0.18868849 -0.14613137 0.142945 -0.22021 -0.1647576 -0.014807495
0.2056927 0.15269919 -0.07688448 -0.17847529 0.010900869 -0.08506704 0.013841441 0.027329447
-0.024148624 -0.12753701 0.09838201 0.17534634 -0.028319981 0.10075348 -0.09286575 -0.020441461
0.07732292 0.045063432 -0.0012914254 0.09194374 -0.022761758 0.080330156 0.009639595 -0.051636502
0.2575024 -0.07671245 0.081581 0.086885765 -0.04147185 -0.23277844 0.20895459 0.08734758
-0.035668418 -0.14766403 0.26229766 0.037814952 0.06369001 0.314344 -0.24246444 -0.09058958
0.108431265 -0.0045952746 -0.110946774 -0.087125435 0.11146443 0.0074904445 0.005647496 0.007383038

transformer.encoder.layers.0.linear1.bias f4 [128]
00000000: 8301 b6be 44b8 a93c 55d1 08be 923e 87be
00000010: 9d4f 51be 76fe fbbd 6d48 73be f08c 43bd
00000020: c69e cd3a 1806 88be b3d4 993c bc6d 90be
00000030: 779c 29be 2394 5ebe 7303 65be be3a 7cbe
00000040: a4b3 98be b445 42be 2ab0 21be baf1 3cbe
00000050: 8495 b5be 5cf4 4dbe e664 43be 4ed4 ecbd
00000060: 042c 6ebe a907 55be 67e8 9fbe efee 7bbe
00000070: 49f1 9abd 9b16 91be be30 3fbe 91eb 2bbe
00000080: 5b6b 24be 2583 1bbe 0faf cbbd e3b3 80be
00000090: e8d6 b3bd d28b 35be ed97 0ebe 3743 c4be
000000a0: cb85 b2be 5562 98be 16e0 c0bd d9fc 69be
000000b0: 39cc 6ebe 5934 9dbe e9ef 78be ba99 62bd
000000c0: e8b5 52be 2319 77be d86a bd3c 2a3d 26be
000000d0: 268b ecbd 7af8 2abe 846d 1fbe b422 96be
000000e0: 751e b6bd 4948 0abe 5974 b2be 9b87 953c
000000f0: 9fbd aebe c221 45bd 3c93 47be 211f e9bd
00000100: f15b 2bbe db69 4fbe 9c7f 03be 11e2 263c
00000110: ff75 57be 77cd 2abe 91c7 b3bd f528 07be
00000120: 29b4 2ebe efc0 afbe deda fdbd 86d8 16be
00000130: 6ef1 97be 0522 50be fdfb b53c 73c2 a4be
00000140: 42f3 c6bd b513 b9bd 0389 e9bd 551c 4dbe
00000150: 69da 15bd bd43 91be b820 41be 149c a6be
00000160: 3c9d 56be 92d0 10be e91d c4be 95bc 8abe
00000170: 6216 2dbe 2459 a4be 1b47 72be 14a6 21be
00000180: b577 83be d58f 1bbe 2f8f 25be e9ea ae3d
00000190: ec4b dbbd c0c1 00be 05b3 a5bd 7ba2 8dbe
000001a0: 23e1 0cbe 9473 4abe ff86 07be eb9c abbe
000001b0: 7356 0abd b5a4 8ebd f3aa 4dbe 4c4a cebd
000001c0: 7529 46bd 9b61 21be 5274 06be 39bc 4cbe
000001d0: 5c08 003c a4cd 18bd 3085 23bc 9213 35bd
000001e0: 72da f3bd e89c acbd 4afb 9ebe 348c 8abe
000001f0: 5d0f 67bd 45a3 e2bd 4a4f 9fbd 8e32 a4bd
-0.35548028 0.020717748 -0.13361104 -0.26414925 -0.20440526 -0.12304394 -0.23758097 -0.04774183
0.0015687577 -0.2656715 0.01877818 -0.2820872 -0.16563593 -0.21736197 -0.22364597 -0.24631783
-0.29824555 -0.18971902 -0.15789858 -0.18451586 -0.35465634 -0.20112747 -0.19081458 -0.115639314
-0.23258978 -0.20803703 -0.31231996 -0.24602865 -0.07565553 -0.2833756 -0.18670937 -0.1678908
-0.16056578 -0.15186746 -0.09945499 -0.25137243 -0.087812245 -0.17729118 -0.13925143 -0.3833253
-0.348677 -0.2976252 -0.09417741 -0.2285036 -0.23320092 -0.30704 -0.24310268 -0.055322386
-0.20577204 -0.24130683 0.023122236 -0.1623427 -0.11549978 -0.16696349 -0.1556912 -0.2932335
-0.08892528 -0.13504137 -0.3485439 0.018253138 -0.34129044 -0.048127897 -0.19489759 -0.113828905
-0.16734292 -0.20255224 -0.12841648 0.010185734 -0.21041106 -0.16679941 -0.08778299 -0.13199218
-0.17060913 -0.34326884 -0.12395261 -0.14731035 -0.29676384 -0.20325477 0.022214884 -0.32179603
-0.097143665 -0.09036962 -0.11403086 -0.20030339 -0.036585245 -0.28371993 -0.18860137 -0.32540953
-0.20958418 -0.14142063 -0.3830407 -0.27097002 -0.1690307 -0.3209926 -0.23659937 -0.1578601
-0.25677267 -0.15191586 -0.16167901 0.08540899 -0.1070784 -0.1257391 -0.08090786 -0.27663025
-0.13757758 -0.19770652 -0.1323509 -0.33518156 -0.03377385 -0.06965009 -0.20084743 -0.10072765
-0.04837938 -0.1575989 -0.1313031 -0.19993676 0.007814493 -0.03730549 -0.009980485 -0.044208117
-0.119068995 -0.08428365 -0.31051093 -0.27060091 -0.056411136 -0.110662974 -0.07778795 -0.08017455
