Models/071223_EDForced_Transformers/4_encoderForced.pth (torch, 154237 bytes, 40 tensors)

encoder_embedding.weight f4 [47, 32]
0	0xbd4de5d9	-0.050268028
1	0xbfc256da	-1.5182755
2	0x40529e4f	3.2909124
3	0xbfa4d4b6	-1.2877414
4	0x3eb96d50	0.3621621
5	0x3df5468a	0.11976345
6	0x3f2a2038	0.6645541
7	0xc003d449	-2.0598319
8	0x3fecf5c8	1.8512506
9	0x3ed50b7b	0.4161032
10	0x3f4f0248	0.80862856
11	0x3e505952	0.20346573
12	0x3d35ab78	0.04435298
13	0x3f758bbe	0.95916355
14	0xbf4b2723	-0.7935659
15	0x3f48f14c	0.7849319
16	0xbf8f0d90	-1.1176014
17	0xbe7b6f6d	-0.24554224
18	0xbf0fe158	-0.5620322
19	0x3e716f70	0.23577666
20	0xbf85e0aa	-1.0459187
21	0xbf3a94ed	-0.7288349
22	0x3fcfc97b	1.6233362
23	0x3f396c19	0.7243057
24	0xbfe75451	-1.8072606
25	0x3e02b419	0.12764014
26	0x3f56917d	0.8381575
27	0x3e808180	0.250988
28	0x3f2af4f2	0.66780007
29	0xbe85bb65	-0.26119533
30	0x3f5d388c	0.8641441
31	0x00000000	0.0
32	0xbf9322c1	-1.1494981
33	0x3f41a5ac	0.7564342
34	0x3eea0315	0.45705476
35	0xbe418e62	-0.18901971
36	0xbe43314e	-0.19061777
37	0x3fa95ed0	1.323206
38	0x3fe19ef5	1.7626635
39	0x3c4cd34f	0.012501552
40	0x3fb45105	1.4087225
41	0xbf23cbdb	-0.63982934
42	0xbed5acb4	-0.41733325
43	0xbee05497	-0.43814537
44	0x3ff696f9	1.9264823
45	0xbf44b67c	-0.7684095
46	0xbe2479b9	-0.16062059
47	0x3e6eabe2	0.23307756
48	0x3fda2110	1.704134
49	0xbf9ec2df	-1.240322
50	0xbf94709b	-1.1596864
51	0x3f0af9fe	0.5428771
52	0x3ee8a458	0.45437884
53	0xbed4be65	-0.4155151
54	0x3fc1b698	1.5133848
55	0xbeb524a5	-0.3537952
56	0xbf6531d7	-0.89529175
57	0xbf4d9dff	-0.8031921
58	0xbda3cdea	-0.07998259
59	0xbf73c5bb	-0.9522359
60	0xbe2b658c	-0.16737956
61	0xbf8d6ed6	-1.104945
62	0x3f4144ea	0.7549578
63	0x00000000	0.0
64	0xbddbb951	-0.10728706
65	0xbe0410d0	-0.12897038
66	0xbf35c828	-0.7100854
67	0x3f6e5282	0.93094647
68	0x3f3230bc	0.6960561
69	0xc039204f	-2.892597
70	0xbf851593	-1.0397209
71	0x3f97d6da	1.1862442
72	0xbfb04966	-1.37724
73	0xbe29c4d1	-0.16578986
74	0x3ea6b51a	0.32560045
75	0xbf3cb26b	-0.73709744
76	0x3fc5141a	1.539676
77	0xbeec9500	-0.46207428
78	0x3fea7890	1.8318043
79	0x3e8d4d26	0.27597922
80	0x3f93260d	1.1495987
81	0x3f826e99	1.0190002
82	0x3f91685f	1.1359977
83	0xbf9f8188	-1.2461405
84	0xbeb15a5a	-0.34639245
85	0xbe6c9966	-0.23105392
86	0xbf489d22	-0.78364766
87	0x3faf2196	1.3682125
88	0xbdd568df	-0.10420393
89	0x3f76ffe0	0.96484184
90	0xbde30e17	-0.11086672
91	0x3fa807af	1.3127345
92	0xbfd0d78e	-1.6315782
93	0x3f996c21	1.1986123
94	0x3f49743a	0.7869297
95	0x00000000	0.0
96	0xbe30faef	-0.17283224
97	0xbfb58511	-1.4181234
98	0x3f649d67	0.89302677
99	0xbcc1f802	-0.02367783
100	0x3f93d201	1.1548463
101	0x3f8e689f	1.1125678
102	0xbf6d949d	-0.9280489
103	0x3e793521	0.24336673
104	0x3e918b8f	0.28426787
105	0x3e7dc50b	0.24782197
106	0xbf738e49	-0.95138985
107	0xbf8b3910	-1.0876789
108	0xbf028c6e	-0.5099553
109	0x3f597b92	0.8495418
110	0x3f4799b3	0.779689
111	0x3f42816d	0.7597874
112	0xbf8b8b23	-1.0901836
113	0x3f319e47	0.6938214
114	0x3f49dbda	0.7885109
115	0x3fc90625	1.5705
116	0x3f5da4af	0.8657941
117	0x3efe6cc8	0.49692369
118	0x3f6c2cea	0.92256033
119	0xbda7b065	-0.081879415
120	0xbfa77e06	-1.3085334
121	0xbf630b47	-0.8868908
122	0x3f486c56	0.7829031
123	0x3eb16701	0.34648898
124	0xbed2a920	-0.41144657
125	0x3e4132f3	0.18867092
126	0xbfaaa997	-1.3333005
127	0x00000000	0.0
128	0x3dfca218	0.123356044
129	0xbf559a96	-0.83439004
130	0x40253ba3	2.581765
131	0xbe630c8b	-0.22172754
132	0xbf765066	-0.9621643
133	0xbf4a96ea	-0.79136527
134	0xbf197196	-0.59938943
135	0x3e684a6c	0.2268464
136	0xbf1cbf8d	-0.61229783
137	0x3f1b6154	0.60695386
138	0xbffd374d	-1.9782501
139	0xc0059f15	-2.0878346
140	0x3f19d35c	0.60088134
141	0xbfcd585e	-1.6042593
142	0x3f96d8c8	1.1784906
143	0xbf806143	-1.0029682
144	0xbef08da1	-0.46983054
145	0x3f2b71ce	0.6697053
146	0x3fb3cdac	1.4047141
147	0x3f85808d	1.0429856
148	0x3f89a1e8	1.0752535
149	0xbfa27e88	-1.2694864
150	0x3f656e81	0.8962174
151	0x3f17a712	0.59239304
152	0x3f8f8afa	1.1214287
153	0x3f9f38ee	1.2439249
154	0x3ecaa47f	0.39578626
155	0x3e9e9155	0.30970255
156	0x3fd39fa0	1.6533089
157	0x3f4c3462	0.7976743
158	0x3dd34dfd	0.103176095
159	0x00000000	0.0
160	0xbebb1c28	-0.3654492
161	0x3ec57f23	0.3857356
162	0x3fd43782	1.657944
163	0x3fc9abef	1.5755595
164	0xbf0d3616	-0.55160654
165	0x3e81bb83	0.25338373
166	0xbeebf59e	-0.4608583
167	0x3ec73bf5	0.3891293
168	0xbf960317	-1.1719693
169	0x3ef63a21	0.48091224
170	0x3efd206c	0.49438798
171	0x3f666c01	0.9000855
172	0xbf823362	-1.0171931
173	0x3fa122ce	1.2588747
174	0xbf03a395	-0.5142148
175	0x3e9619fd	0.29316702
176	0xbf3ff97c	-0.7499006
177	0xbfcfd8c5	-1.6238028
178	0x40054e16	2.082891
179	0x3f17dc28	0.59320307
180	0x3ead9f04	0.33910382
181	0x3f74f809	0.9569097
182	0x3f744fe3	0.954344
183	0x3db21cbf	0.08696889
184	0xbf0c8030	-0.548831
185	0x3c7efe89	0.015563616
186	0xbfac6ff3	-1.3471664
187	0xbf7b34b6	-0.98127306
188	0x3c3e3168	0.011608459
189	0x3d028db7	0.03187343
190	0xbebe3054	-0.37146246
191	0x00000000	0.0
192	0x3f20f8f8	0.62879896
193	0x3f1de5e5	0.61678916
194	0xbfab59d3	-1.3386787
195	0xbe712ee9	-0.23553051
196	0xbe8a8c92	-0.27060372
197	0x3f5073d2	0.8142673
198	0x3fab274e	1.337137
199	0xbf66ce0a	-0.9015814
200	0x3e84245c	0.2580899
201	0x3edb642d	0.42849866
202	0xbf77dbcc	-0.9681976
203	0xbd6d978f	-0.058005866
204	0x3f123a2e	0.57120025
205	0x3ec94d8b	0.39316973
206	0xbf8fb3be	-1.1226728
207	0xbf64cf1d	-0.8937853
208	0x3ec26ae2	0.3797217
209	0x400ac568	2.1682987
210	0xbf253065	-0.6452697
211	0x3e8ce013	0.27514705
212	0x3f8fb134	1.1225953
213	0xc040705d	-3.006858
214	0x3ffad53a	1.9596322
215	0x3f19a165	0.60011894
216	0x3f33e5a4	0.7027228
217	0xbdd24f47	-0.10269027
218	0x3df533d7	0.11972778
219	0x3f8d2b44	1.1028829
220	0xbf393b4b	-0.723561
221	0xbfddcfce	-1.7329042
222	0x3c9a1513	0.018808877
223	0x00000000	0.0
224	0xbfb95511	-1.4479085
225	0x3e4d5e78	0.20055568
226	0x3fa96fe1	1.3237268
227	0xbe0395fe	-0.12850186
228	0xbe008b88	-0.12553227
229	0x40338490	2.804966
230	0x3ead534d	0.33852616
231	0x3ef983b4	0.48733294
232	0xbef9ded7	-0.48802826
233	0xbe12e4d2	-0.143451
234	0x3fb66178	1.4248495
235	0xbf9ded39	-1.233802
236	0x40140df7	2.3133523
237	0x3f63e456	0.8902029
238	0x3fae851c	1.3634372
239	0xbcd7387e	-0.026272055
240	0x3f1203d3	0.57037085
241	0xbf95966b	-1.1686529
242	0x3f7a021a	0.97659457
243	0xbf44fd1e	-0.76948726
244	0x3f5b90e7	0.8576798
245	0x3fe1943e	1.7623365
246	0xc001dd46	-2.0291305
247	0x3e472cec	0.1945073
248	0x3a9af1f7	0.0011821379
249	0x3ee62794	0.4495207
250	0x3e9f66e6	0.31133193
251	0x3e94ca8e	0.29060787
252	0xbf107204	-0.56423974
253	0x3ff489d2	1.910456
254	0x3f004cde	0.5011729
255	0x00000000	0.0

decoder_embedding.weight f4 [45, 32]
0	0x3d11c88b	0.035591643
1	0x3f480ec9	0.7814756
2	0xbf4db1f3	-0.80349654
3	0x3e7b3c9b	0.24534838
4	0xbf1b69ce	-0.6070832
5	0xbdd90932	-0.10597457
6	0x3df9c009	0.12194831
7	0x3f7f5cfc	0.9975126
8	0xbf139150	-0.57643604
9	0x3f02bbee	0.5106801
10	0x3da39a68	0.07988435
11	0xc00f0444	-2.2346354
12	0xbf5292ba	-0.82255137
13	0x3f28804f	0.65820783
14	0xbf88a3f8	-1.0675039
15	0xbdcbf659	-0.099590965
16	0xbeb4f7a3	-0.35345182
17	0x3ec9ca35	0.39412084
18	0xc006fa03	-2.1090095
19	0x3c95a107	0.01826526
20	0xbdb2471c	-0.08704969
21	0xbf146a38	-0.57974577
22	0x3ed95544	0.42447865
23	0x3f14b708	0.58091784
24	0xbf0e59f3	-0.55606
25	0xbea9b42b	-0.3314527
26	0x3f9f8ae7	1.2464265
27	0x3ea8dde6	0.32981795
28	0xbeb02848	-0.34405732
29	0x3e0da465	0.13832243
30	0xbf95dc08	-1.1707773
31	0x3f884369	1.0645572
32	0xbe5ae238	-0.21375358
33	0xbf1f1e6f	-0.6215581
34	0x3e0975c7	0.13423835
35	0xbe9a8e42	-0.3018666
36	0x3f6558f0	0.8958883
37	0x3ed28f06	0.41124743
38	0xbf68093e	-0.906391
39	0x3f3e0bd3	0.7423679
40	0xbf1ddce1	-0.6166516
41	0xbee84a30	-0.453691
42	0x3e97a4a3	0.29617795
43	0xbfb05c27	-1.3778123
44	0x3ee5befe	0.44872278
45	0x3f420a63	0.757971
46	0x3faff136	1.3745487
47	0xbe338225	-0.17530115
48	0xbf86b8ed	-1.0525185
49	0x3f539f24	0.82664704
50	0x3e46bb17	0.19407307
51	0xbe30e171	-0.17273499
52	0x3f468dca	0.775601
53	0xbf2ac7b1	-0.66710955
54	0xbf0bd9ae	-0.5462903
55	0x3f2b7056	0.66968286
56	0x3d7a840e	0.061161093
57	0x3e7036c5	0.23458393
58	0x3f36e4b5	0.7144273
59	0xbf63135d	-0.8870142
60	0xbf380ff4	-0.7189934
61	0x3f3bba80	0.7333145
62	0x40407f90	3.0077858
63	0x3f8ded85	1.108811
64	0xc01030f6	-2.2529883
65	0x3f93b3c3	1.1539234
66	0xbf7bbaa1	-0.9833165
67	0xbe952c92	-0.29135567
68	0xbfe46ff6	-1.7846668
69	0xbf9f519a	-1.2446778
70	0x3efe62e7	0.49684832
71	0x3ecf16e4	0.40447152
72	0x3f79522f	0.9739103
73	0xbfb40009	-1.4062511
74	0x3ef5f794	0.4804045
75	0x3e6fd932	0.23422697
76	0xbf970f7d	-1.1801602
77	0xbee62cfc	-0.44956195
78	0x3f896035	1.0732485
79	0x3eaf9a32	0.3429733
80	0x3f1a6c3f	0.6032142
81	0x3f5ffed8	0.87498236
82	0x3e123f25	0.142819
83	0x3fc97577	1.5738972
84	0x3fe4b72a	1.7868397
85	0x3e2e4abe	0.170207
86	0xbf205a95	-0.6263822
87	0x3e700713	0.23440199
88	0x3f2090fc	0.6272123
89	0x3f785a31	0.9701262
90	0xbf18b548	-0.59651613
91	0xbfd6f6ee	-1.6794107
92	0x3f057e61	0.52145964
93	0xbf09e5ce	-0.5386628
94	0x3f12a891	0.5728846
95	0xbec1fd8c	-0.37888753
96	0xbf1e0103	-0.61720294
97	0xbfec0b9d	-1.8441044
98	0xbf95d938	-1.1706915
99	0xbf8ab1cc	-1.0835509
100	0xbf90a3e9	-1.1300021
101	0x3f04e609	0.51913506
102	0x3ea6916f	0.32532832
103	0xbf1367d0	-0.5758028
104	0xc02386c0	-2.5550995
105	0xbf9b371a	-1.2126191
106	0x3f4ba2b0	0.79545116
107	0x3c84924f	0.016183047
108	0x3fa28cba	1.2699196
109	0xbf2b40e2	-0.6689588
110	0xbc73f38b	-0.014889608
111	0x3d2e64bc	0.042576537
112	0xbf7968ca	-0.9742552
113	0x3f545cb1	0.82953936
114	0x3fa83b17	1.3143033
115	0x3f895af8	1.0730886
116	0x3ff91415	1.9459254
117	0x3f858ef0	1.0434246
118	0xbe9244b7	-0.2856805
119	0x3eef262b	0.46708807
120	0xbebf6ec1	-0.37389186
121	0x3fb6552b	1.4244741
122	0x3d858105	0.06518749
123	0xbe8a400b	-0.27001986
124	0xbddd8fae	-0.1081842
125	0x3ec532eb	0.3851541
126	0x3f1aca0c	0.6046455
127	0xbea12ca1	-0.31479362
128	0xbad35078	-0.0016122004
129	0x3f26a3b1	0.65093523
130	0xbf1831ee	-0.59451187
131	0x3fffcc81	1.9984285
132	0xbe526979	-0.20548047
133	0x3ecbafd4	0.39782584
134	0xbdad0db3	-0.084498785
135	0xbfc7a9a5	-1.5598646
136	0x3c9c8632	0.019106958
137	0xbfb1ec98	-1.3900328
138	0x3e941f77	0.28930256
139	0xbd3089d9	-0.04310021
140	0x3e9f9b0e	0.31172985
141	0x3efbe977	0.49201557
142	0xc007d579	-2.1224043
143	0xbf959336	-1.168555
144	0xbf19e067	-0.60108036
145	0xbf3c97ae	-0.73668945
146	0x3f880069	1.0625125
147	0x3ef0e393	0.47048625
148	0xbf06bfa4	-0.5263617
149	0xbf165406	-0.5872196
150	0xbe488aae	-0.19584152
151	0x3fa110f0	1.2583294
152	0xbf53444a	-0.82526076
153	0x3fbcf319	1.4761688
154	0xbf5e6794	-0.868768
155	0x3f9daecd	1.231897
156	0xbdf82020	-0.12115502
157	0xbe42701f	-0.18988083
158	0x3f3e18a6	0.7425636
159	0xbef719cf	-0.48261878
160	0x40011afa	2.0172715
161	0x3ec039d5	0.37544122
162	0xbf996a2d	-1.1985527
163	0x3f5d834f	0.86528486
164	0x3f436d87	0.76339
165	0x3fbe104e	1.4848726
166	0xbf92d530	-1.147131
167	0x3f0d85ed	0.5528248
168	0xbe6b6fd1	-0.22991873
169	0x3f8d8bcb	1.1058286
170	0xbe908e0f	-0.28233382
171	0xbf8dcdd2	-1.1078436
172	0xbf0bff8b	-0.546868
173	0xbf057bb6	-0.5214189
174	0x3f4a4e43	0.7902567
175	0xbd13b89c	-0.03606473
176	0xbef7260e	-0.4827122
177	0xbe20fdc9	-0.15721811
178	0xbf85c78c	-1.0451522
179	0x4004b5d3	2.0735977
180	0xbee5739b	-0.44814762
181	0xbe57df9c	-0.21081394
182	0x3fa1124e	1.2583711
183	0x3e39837d	0.18116565
184	0x3fa9b354	1.3257852
185	0x3d7a6322	0.061129697
186	0xbeddf925	-0.43354145
187	0xbeef9092	-0.46789986
188	0xbf61bfd2	-0.8818332
189	0xbf56f9be	-0.83974826
190	0xc0177cf3	-2.3670013
191	0x3e34990f	0.17636512
192	0x3ef03fd9	0.46923712
193	0xbf006044	-0.5014689
194	0xbee29c43	-0.44259843
195	0xbf7c3037	-0.9851107
196	0xbf86a193	-1.0518059
197	0xbf7e350f	-0.9929971
198	0xbf3f24e4	-0.74665666
199	0x3f7491da	0.9553505
200	0xbeed628f	-0.46364257
201	0x3f7dcb93	0.99138755
202	0xbd98db10	-0.07463658
203	0x3f98cbc4	1.1937184
204	0xbe5cf68e	-0.21578428
205	0xbf0c0c82	-0.54706585
206	0x3f8595fe	1.0436399
207	0xbf217452	-0.63068116
208	0xbf361abd	-0.7113455
209	0x3cc986c3	0.024600392
210	0x3ee23188	0.44178414
211	0xbf052484	-0.52008843
212	0xbd982747	-0.074293666
213	0x3e0736c4	0.13204485
214	0x3ee50ba2	0.44735438
215	0x3e482983	0.19547085
216	0x3f8b03c7	1.0860528
217	0x3e9ee4e5	0.31034008
218	0x3e390295	0.18067391
219	0x402979eb	2.6480663
220	0x3f5b386f	0.85632986
221	0x3f65fd7f	0.8983993
222	0x3f039adc	0.5140817
223	0xbf76839d	-0.96294576
224	0x3f196b95	0.5992978
225	0x3f7af725	0.9803336
226	0x3f632873	0.88733596
227	0x3f9ab02a	1.2085011
228	0x3f9ee5cd	1.241388
229	0x3e052858	0.13003671
230	0x3fe6afd4	1.8022408
231	0xbebf72ad	-0.37392178
232	0xbec70ee9	-0.38878563
233	0xbdeb0097	-0.11474722
234	0x3f2bfe30	0.67184734
235	0xbf485572	-0.7825538
236	0xbe980e37	-0.29698345
237	0xbf2364ee	-0.6382588
238	0x3fd25fda	1.6435502
239	0x3ec9b937	0.3939912
240	0x3ee7e474	0.45291483
241	0xbebca46d	-0.36844197
242	0x3fa10764	1.258038
243	0xbea923d2	-0.3303514
244	0x3fb41159	1.4067794
245	0x3fcc5c30	1.5965633
246	0xbec57bd2	-0.3857103
247	0x3f8951f3	1.0728134
248	0x3f46ff42	0.7773324
249	0x3f73439b	0.9502503
250	0xbf631014	-0.8869641
251	0xbe984f93	-0.2974821
252	0xbe40a9d9	-0.18814792
253	0xbdcca4c7	-0.09992366
254	0x3fbc78fb	1.472442
255	0xbf55eccf	-0.83564466

encoder_pos_embedding.weight f4 [8, 32]
0	0xbca7581b	-0.020427754
1	0x3dfdbce6	0.12389545
2	0xbfa4eb1d	-1.2884251
3	0x3e9520a6	0.2912647
4	0xbf1d235f	-0.61382097
5	0x3eab021b	0.33400044
6	0xbe2dab1b	-0.16959803
7	0xbece34fd	-0.40274802
8	0x3fcd9535	1.6061159
9	0xbeab8c63	-0.33505544
10	0x3db2949e	0.08719753
11	0x3f3809ba	0.7188984
12	0xbf90797b	-1.1287073
13	0x3e9d3590	0.30704927
14	0x3fba8136	1.4570682
15	0x3f6fa6de	0.93613994
16	0x3f078857	0.52942413
17	0xbeebe3d7	-0.46072266
18	0x3fec9217	1.8482083
19	0xbe1ce510	-0.15321755
20	0x3dbc1078	0.09182829
21	0xbfff14f3	-1.9928268
22	0xbf42f20d	-0.7615059
23	0x3ee060f2	0.43823963
24	0x3fba3e03	1.4550174
25	0x3f4bc88f	0.79602903
26	0x3db8778c	0.09007177
27	0xbf9823b0	-1.1885891
28	0x3d44e543	0.048070204
29	0x3f271986	0.6527332
30	0xbe9ef18e	-0.31043667
31	0xbf1296de	-0.57261455
32	0x3edf74da	0.43643838
33	0x3f03dea1	0.5151158
34	0x3f9ea340	1.239357
35	0xbdedc4b6	-0.11609785
36	0xbfa72b24	-1.306004
37	0xc00881e6	-2.1329284
38	0x3faeeb6b	1.3665594
39	0x3f1b7970	0.60732174
40	0x3ee14428	0.43997312
41	0xbff9ea7e	-1.9524686
42	0x3f7c58a6	0.98572767
43	0x3f39293b	0.7232854
44	0x3fc259e4	1.5183682
45	0xbf46a7fd	-0.7760008
46	0xbdb1724b	-0.08664378
47	0x3f32133e	0.6956061
48	0x3ffa957e	1.9576871
49	0x3f929ade	1.1453512
50	0xbf807707	-1.0036324
51	0x3f954e54	1.1664529
52	0x3dae5511	0.08512319
53	0x3fedc28b	1.8574995
54	0xbf5634b1	-0.8367415
55	0xbedf5501	-0.4361954
56	0xbee5e3a1	-0.4490023
57	0x3f6b2c7f	0.9186477
58	0xbf07b6b5	-0.53013164
59	0xbe385c0a	-0.1800386
60	0xbd6a4fbe	-0.057204954
61	0xbf1f182f	-0.62146276
62	0x3e3ac3d9	0.18238772
63	0xbf3ef0ab	-0.7458598
64	0xbfb5a670	-1.4191418
65	0xc024f9bb	-2.5777423
66	0xbf843d81	-1.033127
67	0xbfa62a2d	-1.2981621
68	0x3eb41f02	0.35179907
69	0x3dde20b2	0.1084608
70	0x3fc7a150	1.5596104
71	0x3f919de7	1.1376313
72	0xbed51d3e	-0.41623873
73	0xbed30c03	-0.41220102
74	0xbf984b3c	-1.189796
75	0x3ed78145	0.42090812
76	0xbfa39b5d	-1.2781788
77	0xbfe67213	-1.8003563
78	0x3f877f80	1.0585785
79	0x3f48c547	0.7842602
80	0xbfb4f43f	-1.4137038
81	0xbe098f73	-0.13433628
82	0xbde6ee7c	-0.11275956
83	0x3e34e971	0.17667176
84	0xbfb139f3	-1.384581
85	0x3dc365a2	0.09540869
86	0x3f3886f5	0.7208093
87	0x3f6f9206	0.9358219
88	0xbe6fb7e8	-0.23409998
89	0xbf8b14d6	-1.0865734
90	0xbe89b6b9	-0.2689722
91	0xbefa3e2f	-0.48875567
92	0x3fbe37c7	1.4860772
93	0xbfc1791f	-1.5115088
94	0x3d9cbdd1	0.07653392
95	0xbf8458d8	-1.0339613
96	0xbf05d975	-0.5228494
97	0x406c7670	3.6947289
98	0xbf837619	-1.0270416
99	0x3fef2988	1.8684549
100	0x3e2eaea9	0.17058815
101	0xbffbbfaa	-1.9667866
102	0x3f3539d5	0.7079137
103	0xbf86217f	-1.0478972
104	0xbe0f8c29	-0.1401831
105	0xbf6c5790	-0.9232111
106	0xbfaba665	-1.3410155
107	0x3f77fc47	0.9686932
108	0x3f931ff8	1.1494131
109	0xbf59fe5d	-0.8515375
110	0xbca556bd	-0.020182962
111	0xbf6df1a9	-0.9294687
112	0xbdb7b197	-0.089694194
113	0xbe1f876b	-0.15579002
114	0xbf52d07f	-0.8234939
115	0x3eb07039	0.3446062
116	0x3f8a126d	1.0786873
117	0x3e84a608	0.25907922
118	0xbfa70ece	-1.3051393
119	0xbec9bf2c	-0.39403665
120	0xbf3e6470	-0.74372005
121	0xbefcbb25	-0.4936153
122	0xbeab6a7c	-0.3347968
123	0x3f4b6ac2	0.79459774
124	0xbf06580b	-0.5247809
125	0x3fb27a6e	1.3943613
126	0x3f3cecae	0.73798645
127	0xbe8a41a7	-0.27003214
128	0x3d4d43bd	0.05011343
129	0xbf5aaacf	-0.85416883
130	0xbf81cb2e	-1.014013
131	0xbf9e60df	-1.2373313
132	0xbf8ae118	-1.0849943
133	0x3f6b131b	0.9182603
134	0x3f8469b5	1.0344759
135	0xbfcedf18	-1.6161833
136	0xbfc56a21	-1.5423013
137	0x3f988b03	1.1917423
138	0x3eca6360	0.39528942
139	0x3e407584	0.18794829
140	0xbee18d1e	-0.44052976
141	0xbf5b5093	-0.8566982
142	0x3f8e2fd2	1.1108344
143	0x3ed2f277	0.4120061
144	0x3f087a67	0.5331177
145	0xbf94f5c8	-1.1637506
146	0xbd16111f	-0.03663742
147	0x3ebf66db	0.3738316
148	0x3f99a22f	1.200262
149	0x3d8e2e16	0.06942384
150	0x3f1b7ef2	0.6074058
151	0xbf6821a8	-0.90676355
152	0xbe9149d2	-0.28376633
153	0x3dbef6fc	0.09324452
154	0xbf0893d0	-0.53350544
155	0x3f816011	1.0107442
156	0xbf8da2a4	-1.1065259
157	0x3fc83192	1.5640128
158	0xbff1e539	-1.8898078
159	0xbf9a3053	-1.2045997
160	0x3f75a9d5	0.9596227
161	0xbf159fce	-0.5844697
162	0xbf90bc84	-1.130753
163	0xbe119b51	-0.14219405
164	0xbe87f223	-0.26551923
165	0xc0201df0	-2.5018272
166	0x3f9274a1	1.1441842
167	0xbf4696c0	-0.77573776
168	0xbf9c6a7b	-1.2219995
169	0xbe6e30f8	-0.23260868
170	0xbe0f3395	-0.1398452
171	0xbfcd7d88	-1.6053934
172	0x3efdfff5	0.49609342
173	0x3f94bb19	1.1619598
174	0x3e824f28	0.25451016
175	0xbfaad107	-1.334504
176	0x3f3fb375	0.74883205
177	0xbfc618d2	-1.5476325
178	0xbf836dff	-1.0267943
179	0x40011ab0	2.0172539
180	0xbe2004eb	-0.15626876
181	0x3f815966	1.0105407
182	0xbfcd2800	-1.6027832
183	0x4017f21b	2.374152
184	0xbeaf564d	-0.3424553
185	0x3f7cc389	0.9873586
186	0x3e85ab2f	0.26107165
187	0x3ffd0de5	1.9769865
188	0x3e995f50	0.2995553
189	0x3f59a3c0	0.8501549
190	0xbf4bf61d	-0.79672414
191	0x3f76e879	0.96448475
192	0xbd85b229	-0.06528122
193	0x3df2f6a3	0.118634485
194	0xbfc844b1	-1.5645963
195	0x3e1944d0	0.14967656
196	0x3fb2a4d5	1.3956553
197	0x3e74542c	0.23860234
198	0xbf04bb3a	-0.51848185
199	0xbea1ba30	-0.31587362
200	0x3fa48f15	1.2856165
201	0xbf09f2ed	-0.538863
202	0xbfb94667	-1.447461
203	0xbe1fcc1b	-0.15605204
204	0x3f260b81	0.64861304
205	0x3ef352b8	0.47524047
206	0x3eeeda58	0.46650958
207	0x3f7f134f	0.9963884
208	0x3f0901dc	0.5351846
209	0x3ec66254	0.38746893
210	0x3f335d1c	0.7006395
211	0x3ea53997	0.322705
212	0x3f1b09e1	0.6056195
213	0xbf532612	-0.82479966
214	0x3e8e2657	0.27763626
215	0x3e06257c	0.13100237
216	0xbf471931	-0.77772814
217	0xbd9ed0ae	-0.07754646
218	0x3f488fc7	0.78344387
219	0x3eb93ca7	0.36179087
220	0xbf6cd7f0	-0.92516994
221	0x3d1870c4	0.037216917
222	0xbee750a8	-0.45178723
223	0x3fdf715d	1.7456471
224	0xbfb0347b	-1.3766016
225	0xbe5ea5a4	-0.21742874
226	0xbef89c11	-0.4855657
227	0xbfaecb24	-1.3655744
228	0xbf7c094f	-0.98451704
229	0xbdbb5483	-0.09146979
230	0xbd83ab6e	-0.06429182
231	0xbf466001	-0.7749024
232	0x40022b70	2.0339012
233	0xbed2ff42	-0.4121037
234	0xbd98397e	-0.07432841
235	0x3e05c1ff	0.13062285
236	0x3e9ea113	0.30982265
237	0x3fabdd06	1.3426826
238	0x3d966439	0.07343335
239	0xbefcdc11	-0.49386647
240	0x401d7086	2.459993
241	0xbf498444	-0.78717446
242	0x3f7b61dc	0.98196197
243	0x3ea8d3d5	0.32974115
244	0xbf0a622c	-0.5405605
245	0x3d5699a4	0.052392617
246	0xc009066e	-2.1410174
247	0x3fcddd07	1.6083077
248	0x401b1b2a	2.423533
249	0xbf0b9e56	-0.54538476
250	0xbe4869b0	-0.19571567
251	0x3d868d51	0.06569923
252	0xbf25ef19	-0.6481796
253	0x3ed2defb	0.41185746
254	0xbf8c9dab	-1.0985616
255	0x3f089e03	0.53366107

decoder_pos_embedding.weight f4 [8, 32]
0	0x400c6fc8	2.1943226
1	0xbf6b6874	-0.9195626
2	0xbf5ec730	-0.87022686
3	0x3f6bede7	0.92159885
4	0x3fd80ee7	1.6879548
5	0xbf114d81	-0.56758887
6	0x3e2ac747	0.16677581
7	0xbf72627f	-0.94681543
8	0x3e0319ed	0.12802859
9	0xbf1a8c7a	-0.603706
10	0x3f877e12	1.0585349
11	0x3f4c38dd	0.79774266
12	0x3fef8b41	1.8714372
13	0x3e89a2a3	0.26881894
14	0x3ede02e1	0.4336157
15	0x3fc20f0a	1.516084
16	0x3dc810bb	0.09768816
17	0x3fa641e3	1.2988857
18	0xbe63d3d7	-0.22248779
19	0xbf0d9b94	-0.5531552
20	0xbd5c0ef8	-0.053725213
21	0xbf2e034c	-0.6797378
22	0x3fbf99fe	1.496887
23	0x3ce6e526	0.028185438
24	0xbedd7453	-0.4325281
25	0xbfd90d55	-1.6957194
26	0x3f54bf1b	0.83104104
27	0x3f855211	1.041567
28	0xbe63203f	-0.2218027
29	0xbf71ec9f	-0.9450168
30	0x3f36c512	0.71394455
31	0xbef3fc70	-0.47653532
32	0x405c6cd9	3.4441435
33	0x3f892f57	1.0717572
34	0x3fc3e171	1.5303174
35	0xbe90d0a2	-0.28284174
36	0xbd312bef	-0.04325479
37	0xc0597035	-3.3974736
38	0xbf864dae	-1.0492456
39	0x3edf776d	0.43645802
40	0x3f45009d	0.7695406
41	0x3e019aac	0.12656659
42	0x4002df1f	2.0448682
43	0x3f26f3a1	0.652155
44	0xc02b58dd	-2.6772988
45	0x3fca464f	1.5802706
46	0xbf02b6f6	-0.51060426
47	0x3dec2ab9	0.11531586
48	0x3dafcc25	0.08583859
49	0x3e5583bd	0.20851035
50	0x3cc6b0e9	0.02425428
51	0xbd05c478	-0.03265807
52	0xbd5b8488	-0.05359319
53	0x3f2a84d3	0.66608924
54	0x3fd79adc	1.6844134
55	0x3fbc787a	1.4724267
56	0x3facaf52	1.3491004
57	0xbe4ad0b9	-0.19806184
58	0x3f9d1a7d	1.2273709
59	0xbfac4b41	-1.3460466
60	0x3ff4ad91	1.9115468
61	0x3eae4fc1	0.34045222
62	0xbf251822	-0.6448995
63	0x3ec04d04	0.37558758
64	0x3fbe52ca	1.4869015
65	0x3eda92cb	0.4269012
66	0xbeb7e094	-0.35913527
67	0x3f9bef6e	1.2182443
68	0xbfdf3ee1	-1.7441064
69	0xbd4f75a2	-0.050649293
70	0x3f55e6b5	0.83555156
71	0xbfa48196	-1.2852046
72	0xc035d36f	-2.84103
73	0x402bd5c2	2.6849217
74	0xbf46d81d	-0.7767351
75	0x402ea734	2.7289553
76	0xbf1d6c78	-0.61493635
77	0x3fc69067	1.5512818
78	0x3f9c5f7d	1.2216641
79	0xbf6e1003	-0.9299318
80	0x3f9fff51	1.2499791
81	0x3edd6fd2	0.43249375
82	0x3feb7a8d	1.8396775
83	0xbf556af5	-0.8336633
84	0x3f666ce0	0.9000988
85	0x3fb412eb	1.4068273
86	0x3f88a7d9	1.0676223
87	0xbf278e07	-0.6545109
88	0xbe041ee5	-0.1290241
89	0xbfe74b93	-1.8069938
90	0x40238707	2.5551164
91	0xbf91ad4d	-1.1381012
92	0x3f67155d	0.9026697
93	0x3f309978	0.68984175
94	0xc0150d4a	-2.328936
95	0x3f97fbfc	1.1873775
96	0xbfa54c77	-1.291396
97	0xbf80c356	-1.0059612
98	0x3f820830	1.0158749
99	0xbf71b389	-0.94414574
100	0xbf1cf437	-0.6131014
101	0xbfe68172	-1.8008254
102	0xbfb33eda	-1.4003556
103	0x3e9c632f	0.3054442
104	0xbf818887	-1.011979
105	0x3e1af63a	0.1513299
106	0xbff1452e	-1.8849237
107	0x3fa4d409	1.2877208
108	0xbfdbe8ab	-1.718038
109	0xbf56909c	-0.83814406
110	0x3d50c0be	0.050965063
111	0x3fa0eee4	1.2572904
112	0x3e79aecb	0.24383084
113	0x3c157cde	0.009124009
114	0x3e50bb8b	0.20384042
115	0x4019ec72	2.4050565
116	0xbe92fba7	-0.2870762
117	0xbef3d57f	-0.47623822
118	0x3efd204c	0.49438703
119	0x3ef3ee2e	0.47642654
120	0xbffb1b51	-1.9617711
121	0xbea99489	-0.33121136
122	0x3f3022eb	0.6880328
123	0x4019f1a5	2.4053738
124	0xbfc1ec9a	-1.515033
125	0xbefc10af	-0.4923148
126	0xbf61c643	-0.8819315
127	0x3f27743a	0.6541172
128	0x3fa0a1ad	1.254934
129	0x3da2f9cc	0.07957801
130	0x3e959470	0.2921481
131	0xbf84d540	-1.0377579
132	0xbe20aaea	-0.15690199
133	0xbff25956	-1.8933513
134	0xc00415ac	-2.0638227
135	0xbf3410e3	-0.7033827
136	0x3fb64074	1.423842
137	0xbe566d0a	-0.20940033
138	0xbf0f0701	-0.5587006
139	0xbf67d462	-0.90558445
140	0xbf68b28f	-0.9089746
141	0xbf989845	-1.1921469
142	0x3f2e0d4e	0.6798905
143	0x3f0544ae	0.5205792
144	0x3eaaa033	0.33325347
145	0xbe9ac64a	-0.30229408
146	0xbb2465db	-0.0025085125
147	0xbd2e6a9d	-0.042582143
148	0xbec093ea	-0.3761285
149	0x3f928570	1.1446972
150	0xbf1733e8	-0.5906358
151	0x3f32d11a	0.69850314
152	0x3f48cb6d	0.78435403
153	0x3fc93df3	1.572203
154	0x3f619759	0.88121563
155	0xbf9f65d3	-1.2452949
156	0xbf852e40	-1.0404739
157	0x3fd249e2	1.6428797
158	0x3f8af55f	1.0856131
159	0xbf82f1f5	-1.023009
160	0xbf47e0c2	-0.7807733
161	0x3d8a474d	0.06751881
162	0x3ee7563c	0.4518298
163	0xbfa090d4	-1.2544198
164	0xbf90bda2	-1.1307871
165	0xbf303127	-0.68825
166	0xbeb5f347	-0.35537168
167	0x3f07ede7	0.53097385
168	0x3f323ef6	0.6962732
169	0xbf733803	-0.9500734
170	0x400904d7	2.1409204
171	0xbff41ab9	-1.9070655
172	0xbeb231fa	-0.34803754
173	0x3fce85a5	1.6134535
174	0x400f6619	2.2406065
175	0x3dcda405	0.1004105
176	0xbf8c9db9	-1.0985633
177	0x3f1bdcf3	0.60884017
178	0xbe997f4f	-0.2997994
179	0xbfab40f2	-1.3379195
180	0xbfff088b	-1.9924482
181	0x3f557e53	0.8339588
182	0x3ea2458f	0.31693694
183	0xbf88349b	-1.0641054
184	0xbdbf83a5	-0.09351281
185	0x3f7b4ed8	0.9816718
186	0x3e944507	0.28958914
187	0xbdc16fe1	-0.09445167
188	0xbf25e3c1	-0.6480065
189	0xbf536f60	-0.8259182
190	0x3f2723fd	0.6528929
191	0xbd25c5a5	-0.04047169
192	0x3ee06159	0.4382427
193	0x3ea81882	0.32831198
194	0xbdd7062d	-0.10499225
195	0x3f095854	0.53650403
196	0x3ea5b8ee	0.32367653
197	0x3fc1da91	1.5144826
198	0xbfa08d0e	-1.2543046
199	0xbf650c8e	-0.8947228
200	0xbedad053	-0.42737064
201	0x3eb292f3	0.34877738
202	0xbf28b343	-0.6589853
203	0xbff25eaa	-1.8935139
204	0xbf973b25	-1.1814924
205	0xbdb759e1	-0.0895269
206	0xbfde1060	-1.7348747
207	0xbf357bd3	-0.70892066
208	0xbf325f9e	-0.6967715
209	0x3e52c74d	0.2058384
210	0xbd669bd0	-0.056300938
211	0x3d8c48ed	0.06849847
212	0x3ebcf48f	0.36905333
213	0x3fbb02f6	1.4610279
214	0xbfbda52f	-1.4816035
215	0xbf55f0ca	-0.8357054
216	0x3b86ac24	0.004109876
217	0xbf85136d	-1.0396553
218	0x3f9e1729	1.2350818
219	0x3e94053b	0.2891024
220	0xbe31d4e9	-0.17366375
221	0x3ed68fb0	0.419065
222	0xbf5dd8a7	-0.8665871
223	0x3e856902	0.26056677
224	0xbf21d743	-0.6321909
225	0x3f66a17c	0.90090156
226	0xbfcf8ceb	-1.621488
227	0xbf765c48	-0.9623456
228	0x3e7c0abc	0.2461347
229	0xbf0541ae	-0.52053344
230	0x3d9b9275	0.07596294
231	0xbf97f4ee	-1.1871622
232	0xbf3b48f0	-0.7315817
233	0x3fc7171d	1.5553929
234	0xbf246dc9	-0.6423002
235	0x3f009bbb	0.50237626
236	0x3f73edf1	0.95284945
237	0x3ed991a0	0.42493916
238	0x3eaab8ba	0.3334406
239	0x3f02cc5c	0.5109308
240	0xc009903e	-2.1494288
241	0xbef1f8e8	-0.47260213
242	0xbf610ef6	-0.87913454
243	0xbe932c93	-0.28744945
244	0xbfb0cb5b	-1.3812059
245	0x3fd6243b	1.6729807
246	0x3dacdb59	0.08440275
247	0xbd8b5a66	-0.068043515
248	0x3f8b0dcf	1.0863589
249	0x3fd5329c	1.665607
250	0xbebed867	-0.37274477
251	0x3eebaa57	0.46028396
252	0xbfab3422	-1.3375285
253	0xbee49c2c	-0.446504
254	0xbfe29433	-1.7701477
255	0x3f4c5a5e	0.7982539

transformer.encoder.layers.0.self_attn.in_proj_weight f4 [96, 32]
0	0x3d89f5cf	0.067363374
1	0x3daeb84f	0.08531248
2	0x3d5a5e57	0.053312626
3	0x3d381d1e	0.044949643
4	0xbe10f8fe	-0.14157483
5	0xbb5fadaa	-0.0034130611
6	0xbe8c561d	-0.2740945
7	0xbd61ccc3	-0.055126917
8	0x3dfc12c3	0.12308266
9	0x3c850ce9	0.016241508
10	0x3e060600	0.13088226
11	0xbdafd33e	-0.08585213
12	0x3d4c17c2	0.049827345
13	0x3e482ddb	0.19548742
14	0xbe57db2a	-0.21079698
15	0x3d76bf1a	0.060240842
16	0x3d94b2f0	0.07260692
17	0xbdcb8099	-0.099366374
18	0xbe8d5f1f	-0.27611634
19	0x3d01dd21	0.031705026
20	0x3a04108c	0.0005037866
21	0xbd18aa93	-0.037272047
22	0xbd839760	-0.06425357
23	0xbe22ad32	-0.15886381
24	0xbe302209	-0.17200483
25	0x3e7a8ecd	0.24468537
26	0xbd4940cd	-0.049134064
27	0xbcf74b09	-0.030187147
28	0x3d0001d3	0.03125174
29	0xbe0a6e05	-0.13518532
30	0x3e4928ee	0.1964452
31	0xbe514488	-0.20436299
32	0xbc99d576	-0.018778544
33	0xbd9bd226	-0.07608442
34	0x3c28f0a1	0.010311277
35	0xbe10c337	-0.14136969
36	0xbe46a7a3	-0.19399886
37	0xbda0352b	-0.07822641
38	0xbe1453d0	-0.14485097
39	0xbe277ac9	-0.16355433
40	0x3e251809	0.1612245
41	0xbe1918ee	-0.14950916
42	0xbe2d3c97	-0.16917644
43	0x3e08e416	0.13368258
44	0x3b25e88f	0.0025315618
45	0xbd171624	-0.03688635
46	0xbc8d7252	-0.017266426
47	0x3c400eba	0.011722261
48	0xbdafb26a	-0.08578952
49	0x3de1933a	0.11014409
50	0xbbc004e5	-0.0058599585
51	0xbc01551a	-0.007893825
52	0xbd1746f7	-0.03693291
53	0xbd13286d	-0.035927225
54	0xbca04c1c	-0.019567542
55	0xbdb0371d	-0.08604262
56	0x3d7e59b9	0.062097285
57	0x3ce5f5ff	0.028071402
58	0xbe262ef5	-0.1622885
59	0xbe0953ed	-0.13410921
60	0x3de18b3c	0.11012885
61	0xbc7bee9c	-0.015376713
62	0x3af9292a	0.001900946
63	0x3f094bd9	0.5363136
64	0xbe3e1da1	-0.1856599
65	0xbe42862e	-0.18996498
66	0xbda3ff9c	-0.08007738
67	0xbe287717	-0.16451679
68	0xbd116650	-0.035497963
69	0xbe2be732	-0.16787413
70	0xbd351cf1	-0.044217054
71	0xbd855066	-0.065094754
72	0x3d0bbd5a	0.034116127
73	0xbe2e8d66	-0.17046127
74	0x3d77c3e1	0.06048954
75	0xbb608385	-0.003425808
76	0xbe609a99	-0.21933974
77	0xbe38386b	-0.17990272
78	0x3e4455f4	0.19173414
79	0x3e208e32	0.15679243
80	0xbdd595ce	-0.104289636
81	0xbe3e622f	-0.18592142
82	0xbe3dbe63	-0.18529658
83	0xbe252395	-0.16126855
84	0xbd29d714	-0.04146488
85	0x3d17b7ab	0.037040394
86	0xbdbca538	-0.092112005
87	0x3e05a74e	0.13052103
88	0x3d51f6ad	0.05126064
89	0xbcad293c	-0.021137826
90	0xbc80c2e2	-0.015717927
91	0x3e0eb148	0.13934815
92	0x3d932f8e	0.07186805
93	0xbd2c2e6d	-0.042036463
94	0xbb910fbd	-0.004426925
95	0xbe94b6c2	-0.29045683
96	0x3deb0ec8	0.11477429
97	0x3d395eb0	0.045256317
98	0xbd8ddd2c	-0.06926951
99	0x3d5570c0	0.05210948
100	0xbcdd2a7c	-0.026997797
101	0x3d1c7256	0.038194977
102	0x3e10b4b5	0.14131434
103	0xbc24737d	-0.0100373
104	0x3b9afe35	0.004730011
105	0x3e1ed371	0.15510346
106	0xbdc68bc7	-0.09694629
107	0x3db01cef	0.08599269
108	0xbc859cde	-0.016310152
109	0xbbebb123	-0.007192747
110	0x3d5aa0cb	0.053376
111	0xbd0672b3	-0.03282423
112	0x3d1cb4ff	0.03825855
113	0xbdf950fd	-0.121736504
114	0x3da2114e	0.07913457
115	0xbe333b1d	-0.17503019
116	0x3d5b84d7	0.053593483
117	0x3de91f38	0.11382908
118	0x3d3e206c	0.04641764
119	0xbd93d90d	-0.072191335
120	0x3ceb67f9	0.028736101
121	0x3e0e21f9	0.13880147
122	0x3e29317e	0.16522786
123	0x3e275871	0.16342331
124	0xbdd61d34	-0.10454789
125	0xbe0f8578	-0.14015758
126	0x3c80b9d7	0.015713615
127	0x3e310389	0.17286505
128	0x3df51df7	0.11968606
129	0x3dcd6245	0.10028509
130	0x3b9e2a64	0.0048268307
131	0xbe225c86	-0.15855607
132	0x3de1e3a8	0.1102975
133	0xbd0afec6	-0.033934377
134	0x3e53c134	0.2067917
135	0x3d63cffb	0.055618268
136	0xbd2ed9df	-0.042688247
137	0xbdb43dcf	-0.088008516
138	0x3d3514e5	0.04420938
139	0x3d886dde	0.066615805
140	0xbc9a0d85	-0.018805275
141	0xbd89ffab	-0.06738218
142	0xbded56f4	-0.115888506
143	0xbe506a02	-0.20352939
144	0x3d2f6150	0.042817414
145	0x3e327a25	0.17429407
146	0x3e2570bc	0.16156286
147	0xbe0d6d5b	-0.13811247
148	0x3dc243e5	0.09485606
149	0xbe3c3524	-0.18379647
150	0xbdb8dd21	-0.09026552
151	0xbe76fa39	-0.2411889
152	0xbe316124	-0.17322212
153	0x3db6616d	0.08905301
154	0x3e70a5b0	0.23500705
155	0xbd854d15	-0.06508843
156	0x3c5eacc6	0.013590997
157	0x3dc4f0c4	0.09616235
158	0xbdc243d9	-0.09485597
159	0xbe10b083	-0.14129834
160	0x3e1df83c	0.15426725
161	0xbe3bedb1	-0.18352391
162	0x3bbe3109	0.0058041853
163	0x3e7d7da2	0.24754956
164	0x3d01119a	0.031510927
165	0xbe04a897	-0.12954937
166	0xbd50a175	-0.050935227
167	0xbc2f7f71	-0.010711537
168	0x3db4873a	0.08814855
169	0xbdb85fac	-0.09002623
170	0xbd773c69	-0.060360346
171	0xbe03a222	-0.12854818
172	0xbc9593dd	-0.018258983
173	0xbddb243b	-0.1070027
174	0x3daf202c	0.08551058
175	0x3c0ac582	0.008469941
176	0xbcbd6777	-0.023120625
177	0x3c377e4b	0.011199544
178	0xbe624114	-0.22095138
179	0xbccbbc1d	-0.024869973
180	0x3e2fa97b	0.17154495
181	0xbd9fa2fe	-0.0779476
182	0xbe253329	-0.16132797
183	0x3ddf9538	0.10917133
184	0xbd45f11e	-0.04832565
185	0x3e211b8c	0.15733165
186	0x3d8907d7	0.066909485
187	0x3c469747	0.012121028
188	0xbd7e09f7	-0.062021222
189	0xba9569fb	-0.0011399382
190	0x3e0de861	0.13858177
191	0xbee0db95	-0.43917528
192	0x3d306d4e	0.04307299
193	0x3ddd8a7d	0.1081743
194	0xbe1b3c32	-0.15159681
195	0x3dac7597	0.08420866
196	0x3e51a7fb	0.20474236
197	0xbe80e405	-0.25173965
198	0x3cda4ac6	0.026646983
199	0x3e15cd43	0.14629082
200	0xbe0128f4	-0.12613279
201	0xbe49a0ef	-0.19690298
202	0x3d88026e	0.066410884
203	0xbde2c9f0	-0.11073673
204	0xbd88d64a	-0.066814974
205	0x3d94d1ce	0.072665796
206	0x3e1d1457	0.1533979
207	0x3d9ff806	0.078109786
208	0xbc0f16f4	-0.0087335
209	0xbdbc26d9	-0.09187097
210	0x3daa6903	0.08320811
211	0x3d2b3fe3	0.041808974
212	0xbd401714	-0.04689701
213	0xbe2d6c4d	-0.16935845
214	0xbcf3f2cb	-0.029778859
215	0xbdfae96e	-0.122515544
216	0xbde9792f	-0.11400067
217	0x3dad935e	0.08475374
218	0x3dd2c0e1	0.10290695
219	0xbdb0970d	-0.08622561
220	0x3dd29085	0.10281471
221	0xbe182713	-0.14858656
222	0xbda852c0	-0.08218908
223	0x3ec3256e	0.38114494
224	0x3dc63b25	0.0967925
225	0x3e2b700b	0.1674196
226	0xbdb623e2	-0.08893563
227	0x3d87690a	0.066118315
228	0x3dd2d39f	0.1029427
229	0xbbff56bd	-0.0077923224
230	0xbe50e9b1	-0.20401646
231	0x3e103588	0.1408292
232	0xbdf97855	-0.12181155
233	0x3dfffa7d	0.12498949
234	0x3df58294	0.119877964
235	0xbdc83d9c	-0.09777376
236	0x3c85db9a	0.016340066
237	0x3e2d6ace	0.16935274
238	0xbdbac743	-0.091200374
239	0x3e0df7a6	0.13864002
240	0x3e8802e8	0.26564717
241	0xbe4785ee	-0.19484684
242	0xbe6307af	-0.221709
243	0x3deee19d	0.11664126
244	0x3e299f59	0.16564693
245	0x3dd850f7	0.10562318
246	0x3e04625b	0.12928145
247	0xbdddde73	-0.108334444
248	0x3e48363d	0.1955194
249	0x3e536e3a	0.20647517
250	0xbdeacf01	-0.11465264
251	0x3d46ec97	0.048565473
252	0xbdf3fd28	-0.1191352
253	0x3dbc35a1	0.091899164
254	0x3d027387	0.031848457
255	0xbecc7bb9	-0.39938143

transformer.encoder.layers.0.self_attn.in_proj_bias f4 [96]
0	0xbd05a6f8	-0.032629937
1	0xbb665e86	-0.0035151555
2	0x3d641ee4	0.055693522
3	0xbcd3dc06	-0.025861751
4	0xbbc8e298	-0.0061305277
5	0x3d9cab00	0.07649803
6	0x3de5f2e5	0.11227969
7	0xbd6ebfca	-0.058288373
8	0xbdccb616	-0.09995668
9	0x3de6e7cd	0.11274681
10	0xbd0afc11	-0.033931796
11	0x3dcafbb5	0.099112906
12	0x3d30a20f	0.0431233
13	0x3d316a37	0.043314185
14	0xbe129c0e	-0.14317343
15	0x3beea350	0.007282652
16	0x3d5a1ecb	0.053252023
17	0x3df73bcb	0.120719515
18	0x3c8924a3	0.016741103
19	0xbc21a17f	-0.009865164
20	0x3b6f29f7	0.003649352
21	0xbce28d25	-0.027655194
22	0xbda83834	-0.08213845
23	0xbccfd97d	-0.025372261
24	0x3c099036	0.008396199
25	0x3d78652a	0.060643353
26	0x3c67d9c5	0.014151041
27	0x3d9adc19	0.075615115
28	0x3df4fc63	0.119622014
29	0x3c1e8e02	0.009677412
30	0xbd8a4c86	-0.06752877
31	0xbd532f44	-0.051558748
32	0xbc666d4b	-0.014064143
33	0x3c83b7f7	0.016078932
34	0x3d3e139c	0.04640542
35	0xbd28ff03	-0.041258823
36	0x3b7fc5a2	0.003902771
37	0xbbe891c4	-0.0070974547
38	0x3d41a619	0.047277544
39	0xbd3e3af8	-0.046442956
40	0xbd01ae71	-0.0316605
41	0xbd4eed43	-0.05051924
42	0x3c339f26	0.010963237
43	0xba5c1165	-0.0008394926
44	0x3c722b12	0.014780777
45	0x3c8882a8	0.016663864
46	0xbd351d7c	-0.04421757
47	0xbbfc7044	-0.007703813
48	0x3ac5add5	0.0015081713
49	0x3dc71b2f	0.09721982
50	0xbc4f6c85	-0.01266015
51	0xbd24d89b	-0.040245634
52	0xbb1e06da	-0.002411297
53	0x3cb11637	0.021617038
54	0xbd0cc061	-0.034363154
55	0xbd0c9341	-0.03432012
56	0xbd148631	-0.036260787
57	0x3c83d523	0.016092842
58	0x3cd68559	0.026186632
59	0xbcdd80bd	-0.027038926
60	0xbcabc502	-0.020967964
61	0xbd1dc0bc	-0.038513884
62	0xbd2acf81	-0.041701797
63	0xbc09f23e	-0.008419571
64	0x3d649913	0.055810045
65	0xbda18f33	-0.07888641
66	0xbde2b28e	-0.11069213
67	0xbe2d87bf	-0.16946314
68	0xbd0a4aa3	-0.033762585
69	0x3cdf3025	0.027244637
70	0xbd4fdf49	-0.05075005
71	0x3d54b065	0.051926035
72	0x3c84c5df	0.016207634
73	0xbd6db999	-0.058038328
74	0xbcecdd12	-0.028914008
75	0x3d52a74b	0.051429074
76	0x3ce4bbd4	0.027921595
77	0xbd23c9d8	-0.039987415
78	0x3d59372c	0.05303113
79	0xbd0c05ce	-0.034185223
80	0x3cbc8bea	0.023015935
81	0xbd53039c	-0.051517114
82	0x3daaf67e	0.08347796
83	0xbd20cf35	-0.039260108
84	0x3cbf6865	0.023365209
85	0x3cdefa2f	0.027218906
86	0x3dbfd509	0.09366805
87	0x3d97c617	0.074108295
88	0x3d76612b	0.06015126
89	0x3d9ec084	0.07751563
90	0x3c3e7784	0.011625174
91	0xbd15fae0	-0.036616206
92	0xbbf8b62f	-0.0075900774
93	0x3d6d3958	0.057916015
94	0xbda57cc8	-0.08080441
95	0x3db61680	0.0889101

transformer.encoder.layers.0.self_attn.out_proj.weight f4 [32, 32]
0	0x3e3f3864	0.18673855
1	0x3daf6e26	0.08565931
2	0x3d6e40f9	0.05816743
3	0xbe165a08	-0.14682782
4	0xbe81e077	-0.25366566
5	0x3d3f245b	0.04666553
6	0xbe35cc13	-0.1775363
7	0xbe535fe4	-0.20642048
8	0x3e403312	0.18769482
9	0xbdca9767	-0.09892159
10	0xbe9063ad	-0.28201047
11	0x3e135812	0.14389065
12	0x3d92bcc0	0.071649075
13	0xbc6ae07b	-0.014335747
14	0x3e99eed8	0.30065036
15	0xbded7dd0	-0.115962625
16	0xbd8c67d5	-0.06855742
17	0xbe70cc16	-0.23515353
18	0x3e07f1e0	0.13275862
19	0xbd25211b	-0.040314775
20	0xbd0d76b8	-0.034537047
21	0x3c9a579a	0.0188406
22	0x3e754034	0.23950273
23	0x3ec608f7	0.38678715
24	0x3dab0645	0.08350805
25	0xbdd51a2f	-0.10405385
26	0x3d3e62e8	0.046481043
27	0x3ec304d8	0.38089633
28	0xbe34fcaa	-0.17674509
29	0xbdc76440	-0.09735918
30	0xbd72059f	-0.059087392
31	0x3cafb259	0.021447347
32	0xbea54d37	-0.32285473
33	0x3de0689d	0.109574534
34	0x3de87f1f	0.113523714
35	0x3dcf1f5f	0.101134054
36	0xbd29e95c	-0.041482314
37	0x3e3f4760	0.18679571
38	0x3cd1a106	0.025589477
39	0xbcaa844e	-0.02081504
40	0x3dea672e	0.11445461
41	0xbe376325	-0.17908914
42	0xbdaa394a	-0.08311708
43	0x3dd7629a	0.10516854
44	0xbe7418f5	-0.23837645
45	0x3d53eedf	0.051741477
46	0xbe0fb6f1	-0.1403463
47	0xbe0dfb39	-0.13865365
48	0x3c2fcae4	0.010729525
49	0xbe03d32e	-0.12873527
50	0x3d1e2aa7	0.038614895
51	0x3dac4ad8	0.08412713
52	0xbd092828	-0.03348556
53	0x3e8c39b5	0.27387777
54	0xbd381d1f	-0.044949647
55	0xbe07a1be	-0.13245293
56	0xbe940456	-0.28909558
57	0x3db8028c	0.08984861
58	0xbe8304f2	-0.2558971
59	0xbba320a0	-0.0049782544
60	0xbeae7251	-0.34071591
61	0x3e91ccaf	0.28476474
62	0xbd9eba9c	-0.07750437
63	0x3e79bf1b	0.24389307
64	0x3e40aba2	0.18815473
65	0xbd1fcd03	-0.039013874
66	0x3d247d9c	0.040158853
67	0x3e2ed4a7	0.17073308
68	0xbd89a478	-0.06720823
69	0xbe5202cd	-0.20508881
70	0x3e6feb8c	0.23429698
71	0x3dd1e92d	0.10249553
72	0xbe64cc9c	-0.22343677
73	0x3c5e482c	0.013567012
74	0xbd90c52d	-0.07068858
75	0x3d7d9498	0.06190929
76	0xbc4a325d	-0.012341109
77	0x3d994178	0.0748319
78	0x3e4445e6	0.19167289
79	0x3eb6f8cd	0.35736695
80	0x3eb1216e	0.34595817
81	0xbe94fcf2	-0.29099232
82	0xbdecd56d	-0.11564145
83	0xbce94cec	-0.028479062
84	0x3dd71d2b	0.1050361
85	0x3e560e55	0.20903905
86	0x3bfcf75c	0.007719917
87	0xbeaf5cd4	-0.3425051
88	0xbc892e09	-0.016745584
89	0xbda22f53	-0.07919183
90	0x3de8c7bb	0.113662206
91	0xbd8b1b3d	-0.06792305
92	0xbdeaf860	-0.11473155
93	0x3ddc8c59	0.10768957
94	0xbe234c33	-0.15947036
95	0x3e779e4c	0.24181479
96	0xbe9588a9	-0.29205826
97	0x3e7eb32a	0.24873033
98	0x3e88dff3	0.2673336
99	0x3e199eff	0.15002058
100	0xbd653f91	-0.055968825
101	0xbe527f36	-0.2055634
102	0x3d59c607	0.05316737
103	0x3eacbfad	0.33739987
104	0x3e6e6291	0.23279788
105	0x3e1b433f	0.15162371
106	0xbe9cf773	-0.3065754
107	0x3e5cd535	0.21565707
108	0xbeb83511	-0.35977986
109	0x3e7e5638	0.24837577
110	0x3e48808d	0.19580288
111	0xbe89b55f	-0.26896188
112	0x3e9735dd	0.29533282
113	0xbcc33451	-0.023828657
114	0xbe560d2a	-0.20903459
115	0x3d9eacde	0.077478155
116	0xbd06f5bf	-0.032949205
117	0x3e553b3d	0.20823379
118	0x3dd00e57	0.10158985
119	0xbdcd846c	-0.10035023
120	0xbdf54581	-0.119761474
121	0x3d69513d	0.05696224
122	0xbd604819	-0.054756258
123	0xbcd42f12	-0.025901351
124	0x3e100645	0.14064892
125	0xbd573d4d	-0.052548695
126	0xbd97da7f	-0.07414722
127	0x3e65ebfd	0.22453304
128	0x3c09b579	0.008405083
129	0x3e4c7a5d	0.19968553
130	0xbe51296f	-0.20425962
131	0xbe483af6	-0.19553742
132	0x3d278432	0.040897556
133	0xbe421ab5	-0.189555
134	0x3d234409	0.039859805
135	0xbdd20807	-0.10255437
136	0xbd807681	-0.06272603
137	0xbc9c603e	-0.01908886
138	0x3e491fdd	0.19641061
139	0xbe04fe10	-0.12987542
140	0xbd4d29fc	-0.050088868
141	0xbc840cb8	-0.016119346
142	0x3df3be1b	0.11901494
143	0x3da8207f	0.08209323
144	0x3cde4ce7	0.02713628
145	0xbe1d6364	-0.15369946
146	0x3e8d2bf6	0.27572602
147	0x3e11f293	0.14252691
148	0x3eeb470d	0.45952645
149	0xbeadd8e7	-0.33954546
150	0xbe25c588	-0.16188633
151	0xbe4a63aa	-0.19764581
152	0x3e11334f	0.14179729
153	0x3cdb4c6e	0.026769843
154	0xbd9174eb	-0.071023785
155	0x3e11dc50	0.14244199
156	0x3d79f7dd	0.061027396
157	0xbd5e47f3	-0.054267835
158	0x3df5ba65	0.119984426
159	0x3e0cf4e0	0.13765287
160	0xbe4f4b59	-0.20243587
161	0xbc9a71ce	-0.018853094
162	0x3e4221c6	0.18958196
163	0xbe24fb90	-0.16111588
164	0x3d6a48fd	0.057198513
165	0xbe209f96	-0.15685877
166	0xbe0b86fa	-0.13625708
167	0x3c1d8e26	0.00961641
168	0xbea4459f	-0.32084367
169	0xbcc912b1	-0.024545046
170	0x3cd6490c	0.026157878
171	0x3e986ad1	0.29768994
172	0xbd7aa584	-0.061193004
173	0xbc9dc933	-0.019260978
174	0xbe1ce6ed	-0.15322466
175	0xbd143583	-0.036183845
176	0x3e34ac72	0.17643908
177	0xbe3b0b3d	-0.18266006
178	0xbbd29cbb	-0.006427375
179	0x3ea63568	0.3246262
180	0xbdd0b3a3	-0.10190513
181	0xbdea8aaf	-0.11452233
182	0x3c850452	0.016237412
183	0x3e916775	0.28399244
184	0xbe79e15c	-0.24402374
185	0xbe687102	-0.22699359
186	0x3d86e06c	0.06585774
187	0xbe9c9bfa	-0.3058775
188	0x3ddca4f5	0.107736506
189	0xbd2fe255	-0.042940456
190	0x3db6a305	0.08917812
191	0x3e8e3b0f	0.27779433
192	0xbcd23150	-0.02565828
193	0xbdc1b44f	-0.09458219
194	0x3e0a65b0	0.13515353
195	0x3d06865a	0.03284297
196	0x3e089079	0.13336362
197	0xbe321b51	-0.17393233
198	0xbcfbe51e	-0.0307489
199	0xbe2a9a1d	-0.16660352
200	0x3ca6c5d5	0.020358006
201	0x3cd9412a	0.02652033
202	0xbe9ed6d0	-0.31023264
203	0xbe7bafe9	-0.24578823
204	0x3db9e16b	0.09076198
205	0xbcd2bb71	-0.025724145
206	0x3e26c512	0.16286114
207	0x3e34056c	0.17580193
208	0x3d94d7f7	0.072677545
209	0xbe8c77d6	-0.27435178
210	0x3ea6462d	0.32475415
211	0xbc976fbd	-0.018485898
212	0x3e60183d	0.21884246
213	0xbe229c96	-0.15880045
214	0xbdd38d99	-0.10329742
215	0x3e9d0a54	0.30671942
216	0x3ceeb3aa	0.029138405
217	0xbc7c2852	-0.0153904725
218	0x3d612702	0.05496884
219	0xbe8c49dc	-0.274001
220	0xbe926d68	-0.28599095
221	0x3845b0f5	4.7133264e-05
222	0xbe4df804	-0.20114142
223	0x3e01b6b5	0.12667353
224	0xbd1360a9	-0.035980854
225	0xbe0071fe	-0.12543485
226	0x3e4ebe2d	0.20189734
227	0x3e5a00ec	0.21289414
228	0x3df0b732	0.11753692
229	0xbe494d40	-0.19658375
230	0x3da53c51	0.08068145
231	0xbb84a1b2	-0.004047596
232	0x3c14cd34	0.009082127
233	0xbd84d86d	-0.064865924
234	0x3e0d18fd	0.13779064
235	0xbeb2081e	-0.34771818
236	0xbe8e8be2	-0.27841097
237	0x3e84d058	0.25940204
238	0xbd085127	-0.033280518
239	0x3e661b43	0.22471337
240	0xbec44bbd	-0.38339034
241	0x3e663aa2	0.22483304
242	0x3d345f37	0.044036116
243	0x3d276856	0.040870987
244	0xbe8ba156	-0.27271527
245	0xbe5b68f0	-0.21426749
246	0xbeb20ef3	-0.3477703
247	0xbe23615b	-0.15955107
248	0xbd0bdb7a	-0.034144856
249	0x3cfcfad1	0.030881317
250	0x3e265fc9	0.16247477
251	0x3e839e7d	0.25706854
252	0xbd3cdb11	-0.046107356
253	0x3e4c1684	0.19930464
254	0x3e5664d8	0.20936906
255	0x3c5606a9	0.013063111

transformer.encoder.layers.0.self_attn.out_proj.bias f4 [32]
0	0x3e1e8707	0.15481196
1	0xbd352038	-0.04422018
2	0xbcc7a702	-0.024371628
3	0x3d01efeb	0.031722944
4	0xbe222a4c	-0.15836447
5	0xbe06fb97	-0.13181911
6	0xbd582864	-0.052772895
7	0x3cbabd51	0.022795351
8	0xbd2fd945	-0.042931814
9	0x3dcae5eb	0.099071346
10	0xbe1d1876	-0.15341362
11	0x3d2394ff	0.039937016
12	0x3d8ef10c	0.0697957
13	0x3d0e4375	0.0347323
14	0xbd6fa7e8	-0.058509737
15	0xbd226729	-0.039649162
16	0x3e76a8e2	0.24087861
17	0x3b92cb28	0.0044797845
18	0xbc8ada6a	-0.016949851
19	0x3d824cb4	0.06362286
20	0x3d2ae8f7	0.04172608
21	0xbddfd833	-0.109299086
22	0xbc4d17db	-0.012517895
23	0xbdbfea42	-0.09370853
24	0x3e28c85d	0.16482683
25	0xbc6fd9e1	-0.014639349
26	0x3becd1ee	0.007227174
27	0xbdc113f2	-0.094276324
28	0xbc03aa0a	-0.008036146
29	0x3c08d1a0	0.00835076
30	0x3d322763	0.043494593
31	0xbd803326	-0.06259756

transformer.encoder.layers.0.linear1.weight f4 [128, 32]
0	0xbe298f1b	-0.16558497
1	0xbdf87452	-0.12131561
2	0x3d89162c	0.06693682
3	0x3e074ed6	0.13213667
4	0xbd9f22bc	-0.07770297
5	0x3d10a9e8	0.035318285
6	0xbdab310f	-0.083589666
7	0xbd9c7264	-0.07639006
8	0xbe9d78a6	-0.3075611
9	0x3e75df6d	0.24011011
10	0x3debb0bd	0.115083195
11	0xbe457d9b	-0.19286196
12	0xbcbbce76	-0.022925597
13	0x3df15e51	0.117855676
14	0xbd1b3086	-0.037888072
15	0xbddea918	-0.10872096
16	0x3c8fbc64	0.017545886
17	0xbcf476cc	-0.029841803
18	0x3e284e15	0.16436036
19	0x3d4b27ea	0.049598612
20	0x3e8dbc13	0.27682552
21	0x3dd69e65	0.1047943
22	0x3e2d7303	0.16938405
23	0xbe1e2072	-0.15442064
24	0xbd2e3099	-0.042526815
25	0x3cc7aa02	0.024373058
26	0xbd5b415c	-0.05352913
27	0x3e75747a	0.23970214
28	0xbc94031f	-0.018067895
29	0x3e93f014	0.28894103
30	0xbe3c37cc	-0.1838066
31	0x3d658672	0.05603642
32	0x3e7340a5	0.23755129
33	0x3bcc261a	0.006230128
34	0x3e641659	0.2227415
35	0x3dd9c76d	0.106337406
36	0x3c52c774	0.012864936
37	0xbda6a670	-0.08137214
38	0xbe6cce85	-0.23125656
39	0xbde65af3	-0.11247816
40	0x3e37b88f	0.17941497
41	0x3d36febc	0.044676527
42	0xbe1edf2b	-0.1551482
43	0xbe4bf365	-0.19917066
44	0xbe36bc48	-0.17845261
45	0xbde192ef	-0.110143535
46	0xbd899fd4	-0.06719938
47	0xbe49b104	-0.19696432
48	0x3d0bd1db	0.03413568
49	0xbe25fc1b	-0.16209452
50	0xbe156775	-0.14590247
51	0xbe10250b	-0.14076631
52	0xbe7c4696	-0.24636301
53	0x3c759202	0.014988424
54	0x3ea9fe6d	0.33201924
55	0x3e6d22d5	0.23157819
56	0xbcab260b	-0.020892164
57	0xbd3d48c5	-0.046211977
58	0x3d66194a	0.05617646
59	0xbdab05da	-0.083507255
60	0x3d933ef8	0.07189745
61	0xbd020833	-0.0317461
62	0x3d39ca8e	0.045359187
63	0x3d400cbc	0.046887144
64	0x3e1169b6	0.14200482
65	0x3c51c1f9	0.012802594
66	0x3d361f2d	0.044463325
67	0x3d5cf8bb	0.053948145
68	0x3e032118	0.12805593
69	0x3d9f79be	0.07786892
70	0xbd25eb6d	-0.040507723
71	0xbe409990	-0.1880858
72	0xbdc55618	-0.09635562
73	0x3e1507e4	0.14553791
74	0xbdde7a5e	-0.108631834
75	0xbe427c1a	-0.18992653
76	0x3de7e8de	0.11323713
77	0x3b9f117d	0.0048543797
78	0xbe8d9400	-0.27651978
79	0xbd9c89ff	-0.07643508
80	0x3d74a644	0.059728876
81	0x3cd4df49	0.025985377
82	0x3e02e1b7	0.12781416
83	0xbd5d392b	-0.054009598
84	0x3db24588	0.08704668
85	0x3de8d13e	0.11368035
86	0xbc830477	-0.01599334
87	0x3d086cc2	0.033306845
88	0x3d840f74	0.0644826
89	0x3e9e111c	0.30872428
90	0xbe382b78	-0.17985332
91	0xbd72e291	-0.0592981
92	0x3d715f1f	0.058928605
93	0x3dc74f14	0.0973188
94	0xbd34025e	-0.04394757
95	0x3e71b45f	0.23603962
96	0xbd9c419e	-0.07629703
97	0xbd3bfcb4	-0.045895293
98	0xbd86f35e	-0.06589387
99	0x3c7119b7	0.014715604
100	0x3dffc646	0.124889895
101	0xbcdfd66b	-0.027323922
102	0xbe9dfa3a	-0.3085497
103	0x3d3f9dba	0.04678128
104	0xbe679119	-0.22613944
105	0xbe8b7a7c	-0.27241886
106	0x3e7ad872	0.2449663
107	0xbc1ab148	-0.009441681
108	0xbdd94bdd	-0.10610173
109	0xbd4025c5	-0.04691102
110	0x3d23d3aa	0.03999678
111	0xbe0da15b	-0.13831083
112	0xbd2ae742	-0.04172445
113	0xbd7e9378	-0.062152356
114	0x3d1eb84a	0.03874997
115	0xbe27d39c	-0.16389316
116	0xbdcacc61	-0.099022634
117	0x3da9e4c3	0.08295586
118	0x3e7bd4f2	0.24592951
119	0xbcf50145	-0.029907832
120	0xbdbf7a5d	-0.09349511
121	0xbe6b6c7e	-0.22990605
122	0xbe6b08f1	-0.2295263
123	0x3e2073b4	0.15669137
124	0x3dd32b84	0.10311034
125	0x3dee3cc1	0.11632682
126	0xbecb8ec2	-0.39757353
127	0x3d6f002e	0.05834978
128	0x3de60e7e	0.11233233
129	0xbe61bb68	-0.22044146
130	0x3d302fd6	0.04301437
131	0xba97e982	-0.0011589976
132	0x3e9517a4	0.291196
133	0x3daab177	0.0833463
134	0xbe9f60cd	-0.3112854
135	0x3e488cb8	0.1958493
136	0x3dfb4516	0.122690365
137	0x3dfbfec5	0.12304453
138	0x3e0e60fa	0.13904181
139	0xbe33aaf6	-0.17545685
140	0x3e8650dd	0.2623357
141	0x3dbd2b63	0.09236791
142	0x3d197501	0.0374651
143	0x3e5999fc	0.21250147
144	0xbe9c0a00	-0.3047638
145	0x3c84cc72	0.016210768
146	0x3e6d6ba6	0.23185596
147	0xbc7738ea	-0.015089253
148	0x3c327465	0.010892008
149	0x3daeae5f	0.085293524
150	0x3e5ed93c	0.21762556
151	0xbe59ac84	-0.21257216
152	0x3b1944eb	0.0023387026
153	0xbdb39f51	-0.087706216
154	0x3dacae82	0.08431722
155	0xbde9569a	-0.11393471
156	0x3c427441	0.011868537
157	0xbdc00494	-0.09375873
158	0xbe964002	-0.2934571
159	0x3d7e4867	0.062080767
160	0x3dc4adf1	0.09603489
161	0xbdb05986	-0.08610825
162	0x3dbb60bd	0.09149311
163	0xbd4dbf0a	-0.050231017
164	0x3e6a2beb	0.22868316
165	0x3da67735	0.08128206
166	0xbdbde3a0	-0.09271932
167	0xbe19c21b	-0.15015452
168	0xbd9b7db5	-0.07592336
169	0x3e5d935f	0.21638249
170	0x3b755aa2	0.0037438055
171	0xbdad819b	-0.08471986
172	0xbe29c738	-0.16579902
173	0xbd4d3f40	-0.050109148
174	0xbe6ff503	-0.23433308
175	0xbd8051a8	-0.06265575
176	0xbdb9d941	-0.09074641
177	0xbe370352	-0.1787236
178	0xbd18da6d	-0.037317682
179	0x3e3fae2d	0.18718787
180	0xbddfa992	-0.10921015
181	0x3db726f4	0.089429766
182	0x3ca5af4e	0.020225193
183	0xbd2e7c42	-0.04259897
184	0x3cffda60	0.031232059
185	0xbd2c2b3a	-0.04203341
186	0x3e3ab571	0.18233277
187	0x3d97211a	0.073793605
188	0xbdf26216	-0.11835115
189	0xbdf12619	-0.11774845
190	0xbd03ea53	-0.03220589
191	0xbdcd3f05	-0.10021786
192	0x3debe247	0.11517768
193	0xbcce215e	-0.025162395
194	0xbda8ebcc	-0.082481
195	0xbe39b734	-0.18136293
196	0xbe2c985a	-0.16854993
197	0x3e7b288c	0.24527186
198	0xbe9ce26b	-0.30641493
199	0x3df2bb09	0.118520804
200	0xbe790f7e	-0.24322316
201	0xbc6b734d	-0.014370752
202	0x3dd378a2	0.10325743
203	0x3db21f37	0.0869736
204	0xbacf8fae	-0.0015835667
205	0xbb9eef58	-0.0048503093
206	0xbd32a5bc	-0.043615088
207	0x3d977dbb	0.07397028
208	0xbe872899	-0.2639816
209	0x3e0d5ce3	0.13804965
210	0x3d959a21	0.073047884
211	0xbd03ea58	-0.03220591
212	0x3e814e92	0.25255257
213	0x3e51f577	0.20503794
214	0xbdba87da	-0.09107943
215	0x3d99bcf4	0.07506743
216	0xbca47910	-0.020077258
217	0xbd0d087e	-0.034431927
218	0x3e33ce0e	0.17559072
219	0xbd38abe8	-0.045085818
220	0x3cbac873	0.02280066
221	0x3d77aece	0.06046944
222	0x3d2abb8e	0.041682772
223	0xbde2cd0f	-0.11074268
224	0x3e878714	0.26470244
225	0xbb05815e	-0.0020371298
226	0x3e4aca5c	0.19803756
227	0x3d3f11bc	0.046647772
228	0x3e89d3eb	0.26919493
229	0x3d1f83eb	0.038944166
230	0xbd689415	-0.056781847
231	0xbdc1c043	-0.09460499
232	0xbd1188ae	-0.03553074
233	0x3e2a8d50	0.16655469
234	0x3e1c7d71	0.15282227
235	0xbea546a3	-0.32280454
236	0xbe798423	-0.24366812
237	0x3d83d0c4	0.06436303
238	0xbc676c56	-0.01412495
239	0x3d8f3403	0.06992342
240	0x3b1237f0	0.0022311173
241	0x3d3eab3d	0.046550024
242	0x3d9eed38	0.0776009
243	0x3e3c831d	0.18409391
244	0xbd8d8df7	-0.06911843
245	0x3baead21	0.005330697
246	0xbe09fd8d	-0.13475628
247	0x3dbbbd7d	0.091670014
248	0x3d53ea59	0.051737163
249	0x3d820823	0.06349208
250	0xbd5a0e95	-0.053236563
251	0xbde0b67c	-0.10972306
252	0xbd8a9a0a	-0.06767662
253	0x3e62cfbf	0.22149561
254	0xbe586124	-0.21130806
255	0x3d0352fc	0.032061562
