Encoder_Decoder_Files/Decoder_Only_Models/EDTransformers/transformer_1head_32hidden_100epochs_minus5females_model2.pth (torch, 156129 bytes, 40 tensors)

encoder_embedding.weight f4 [47, 32]
000000 64 1d 66 3f 6b 34 00 3f ee 1c ad be bf 72 9e bf
       0.89888597 0.50079983 -0.33811134 -1.2378768
000010 99 4f 3c 3f 86 23 cd be c7 89 a4 be ac d4 19 3f
       0.73558956 -0.40066165 -0.32136366 0.60090137
000020 fe f7 d6 3e c9 4e c9 be 23 fa dc bf c1 4c 23 bf
       0.41986078 -0.3931792 -1.7263836 -0.6378899
000030 16 a3 86 3f 8d 34 9a be 18 a4 69 bf eb 9a 22 be
       1.051852 -0.30118218 -0.9126601 -0.15879409
000040 f6 67 b5 3e da bf 2f bf 46 9b 95 3f 0f 55 8e 3f
       0.35430878 -0.6865212 1.1688011 1.1119708
000050 59 b2 8e 3f 73 40 bf 3f 6d a2 be 3e 05 7f 04 3f
       1.1148177 1.4941543 0.37233296 0.51756316
000060 61 2d 81 bf 71 01 91 3f 6d 18 67 bf 0f 4e 39 3f
       -1.0091974 1.1328565 -0.90271646 0.7238473
000070 03 45 a6 3f 32 45 0e 3e 28 e9 6c bf 46 9f 88 3d
       1.2989811 0.13893583 -0.9254327 0.06671004
000080 cc ff 07 40 6c 80 af 3e 61 98 11 c0 c5 24 d8 be
       2.1249876 0.34277666 -2.2749255 -0.42215553
000090 04 86 ca bf e4 bb a2 be 21 e0 e2 be 30 b1 64 3c
       -1.5822148 -0.31783974 -0.44311622 0.01395826
0000a0 0d 24 7e 3f a6 8a 85 3f bb 91 db 3f 64 90 21 3f
       0.9927376 1.0432937 1.7153848 0.6311095
0000b0 c6 2b af bd 2a 22 26 3f 98 0f 90 3d bc 8e 39 c0
       -0.08553271 0.6489588 0.07034224 -2.8993368
0000c0 a8 fb f7 3e 10 96 a2 3f e4 46 89 3d fa dc d5 3e
       0.48434186 1.2702045 0.067029744 0.41770154
0000d0 a4 7a 37 bd 2b 7e 4c 3e 0c 1c c2 3f 85 b1 54 bf
       -0.044794694 0.19970004 1.5164809 -0.83083373
0000e0 40 f4 e3 bf 09 22 5a 3f 23 f4 62 bf 1b 6c 77 3f
       -1.7808914 0.85208184 -0.88653773 0.9664933
0000f0 b9 00 f8 bd cc 9e 95 be 84 cf a6 3d e3 33 b6 3f
       -0.12109513 -0.29222715 0.08145049 1.4234585
000100 21 35 8a 3f 39 6c a2 3f 40 9b 20 3e 5b 37 02 bf
       1.0797464 1.2689277 0.15684223 -0.50865716
000110 13 31 6d 3f 26 c7 a5 bf 0b e4 6e 3d dd c3 91 be
       0.92653006 -1.29514 0.058322947 -0.28469744
000120 f7 55 85 bf 38 86 3b 3f 3a cf 4f bf 8b cd 55 3f
       -1.0416859 0.73251677 -0.8117558 0.8351676
000130 09 e0 a0 be 08 24 3d bf be 7b a8 be 2d f3 1a 3f
       -0.31420925 -0.73883104 -0.32906908 0.60527307
000140 44 ee 19 bf 3a 57 5d 3e bc 0e c8 3e 43 d0 7c 3f
       -0.6012919 0.21615306 0.3907374 0.9875528
000150 e0 db 9f 3d 2c 50 75 bf 3d c6 4b be 30 ad 37 3f
       0.0780561 -0.9582546 -0.1989984 0.7174864
000160 58 f7 44 bf cd fa 0c bf ef b0 73 3f 70 29 80 3f
       -0.76939917 -0.5507019 0.95191854 1.0012646
000170 2d 98 a4 3f 14 02 e8 be 1b c1 be bf bc fb 7f bf
       1.285894 -0.45314085 -1.4902681 -0.9999349
000180 0d 2e 5a bb 55 36 32 bf bc 8e fb 3e f8 ec 8c bf
       -0.0033291609 -0.69614154 0.49132335 -1.1009817
000190 53 8c ef 3f c6 f5 00 40 08 38 f9 3d fe e1 9b bf
       1.8714699 2.0150008 0.1216889 -1.2178342
0001a0 f0 45 e9 bf d4 49 9e 3f 9b 07 65 3f 58 2a 3c 3f
       -1.8224468 1.236628 0.8946473 0.7350211
0001b0 99 25 ad 3f 73 14 de be 37 03 83 bf 38 9f b3 bf
       1.3527099 -0.43374977 -1.0235356 -1.4032965
0001c0 62 52 87 3f 9d ef 53 bf 02 34 db 3f 82 eb 6d bf
       1.0572016 -0.82787496 1.7125247 -0.9293748
0001d0 e1 03 56 be 7a 1d 1c be d6 7a f1 3e f1 1a 31 bf
       -0.20899917 -0.1524562 0.4716403 -0.69181734
0001e0 a8 7e 42 3f 38 50 96 3f b7 f4 48 bf 23 4b 4e 3f
       0.7597451 1.1743231 -0.78498405 0.805834
0001f0 0e 23 6d bd 2b 83 cc be 3f 34 94 bf f2 54 a8 3e
       -0.05789476 -0.39943823 -1.1578444 0.32877308
000200 d6 68 d5 bf f5 99 44 bf 21 96 a9 3e c6 8c 5d 3f
       -1.6672618 -0.7679742 0.33122352 0.8654293
000210 9a 84 be bf dc d5 8a 3f b3 c6 31 3e d1 54 65 3f
       -1.4884217 1.0846515 0.17360954 0.89582545
000220 fa 2e 57 3f 64 aa 13 bf c6 7d 05 3f 0d 33 d8 3f
       0.84056056 -0.5768187 0.5214504 1.689058
000230 1c ea 90 3f 4a 54 9b 3f 1c e5 d6 3e 60 5c 42 bf
       1.1321445 1.2135098 0.41971672 -0.75922203
000240 0d 39 1e 3f 60 13 1d 3f 4b 61 fa 3e 70 f7 b5 bf
       0.618058 0.6135769 0.48902354 -1.4216137
000250 b1 5f b7 3e 1e 95 10 3b bd fe 1c 3f 48 b5 b8 3e
       0.35815194 0.0022061537 0.613262 0.36075807
000260 55 ee c5 3f 6c ef e0 3f 06 8d 15 bf 69 e3 1d c0
       1.5463358 1.7573066 -0.5841831 -2.467005
000270 b3 bb 24 be fb 69 76 3f f5 17 a9 3d 18 0b 45 bf
       -0.16087227 0.96255463 0.082565226 -0.7697005
000280 eb c3 94 3e 6d 8d 5d 3f 27 9d e7 be f9 9b c9 be
       0.29055724 0.86543924 -0.45237085 -0.3937681
000290 6a 50 5c 3a f2 db 68 bf 3f 2f a6 be d6 09 81 3d
       0.00084043166 -0.9096061 -0.3245792 0.06300704
0002a0 65 d4 19 bf bd a0 1e 40 32 34 4d 3f 76 9a c6 bf
       -0.60089713 2.4785607 0.8015777 -1.5515888
0002b0 8a a0 35 bf 04 c3 e9 3e 8f 67 d5 bf 18 83 d5 3f
       -0.7094809 0.45656598 -1.6672229 1.6680632
0002c0 8e e6 2f bf 17 ce a9 3f d0 a2 e9 3f d8 3c f2 3f
       -0.68711174 1.3266019 1.8252811 1.8924818
0002d0 9a 87 86 bf bf 7e 04 3c 5f be e3 be 5a 6d 23 be
       -1.0510132 0.008086859 -0.4448118 -0.15959683
0002e0 75 b9 78 bf ff f2 86 be f0 92 8c bf 15 5d a8 bf
       -0.97157985 -0.26357266 -1.0982342 -1.3153406
0002f0 d2 0c 62 be 21 62 62 3f d6 d7 80 bf cd c1 f4 3d
       -0.22075203 0.8843098 -1.0065868 0.11951027
000300 ad 14 15 c0 8a 26 c7 3e ac 78 52 3f b9 60 45 3f
       -2.329387 0.3889659 0.8221538 0.7710071
000310 c5 07 a1 3f b5 67 c0 bf 92 f8 6c 3e c6 e4 dc bf
       1.2580496 -1.5031649 0.23141697 -1.7257316
000320 f3 51 34 bf 71 e7 b2 be 1f 1d 67 3f 81 aa c2 3f
       -0.70437545 -0.349422 0.9027881 1.5208284
000330 2e 10 72 bd 95 f6 6d 3e 48 83 23 3f 92 c2 be 3f
       -0.05909746 0.23238595 0.63872194 1.4903128
000340 d1 9a ca 3e 4f 8f 9f 3f bd 5c 71 bf e3 63 56 bf
       0.3957124 1.2465609 -0.9428213 -0.83746165
000350 31 03 19 3f d2 04 d3 3e 11 0f ae 3d d4 df bd 3f
       0.59770495 0.41214615 0.084989674 1.4833932
000360 24 b4 ba 3e 0c ef df 3e 16 79 25 3f a2 4a b9 3d
       0.3646556 0.43737066 0.6463789 0.09047438
000370 ca ca 59 be 85 50 6e be 30 1b 81 bf cf 33 e3 be
       -0.21268764 -0.23272903 -1.0086422 -0.44375464
000380 16 f1 f7 bf 82 59 14 3e 66 0f ad bf 49 1b 55 3f
       -1.9370449 0.1448727 -1.3520324 0.8324476
000390 2b f2 8b 3f 3e 59 0d bf c5 6b 64 bf 49 8f cb 3e
       1.0933279 -0.552143 -0.89226943 0.39757755
0003a0 3d b9 0d c0 b6 f4 37 be 33 c0 6b bf 06 57 b7 3e
       -2.214431 -0.17964444 -0.9209015 0.3580858
0003b0 83 85 c9 bf 36 13 a1 bd 90 30 64 bf e4 25 1c 40
       -1.574387 -0.07864992 -0.891366 2.4398127
0003c0 c9 17 23 3e 20 4f cc bd 00 b3 35 bf 27 cf 18 bf
       0.15927042 -0.099760294 -0.7097626 -0.5969109
0003d0 12 36 f7 be a8 a4 26 3e c9 3c 89 3e 73 7a d0 3f
       -0.4828344 0.16273749 0.26804188 1.6287369
0003e0 e2 cf d6 bd e0 a3 e7 3e d4 0f ac be 90 67 3f bf
       -0.10488869 0.45242214 -0.33605826 -0.747674
0003f0 1f 7a cc be 1b 24 1c bf 33 2e 25 bf 35 6b 9e 3f
       -0.3993692 -0.6099259 -0.6452362 1.2376467

decoder_embedding.weight f4 [45, 32]
000000 c8 94 2f 3f 41 a8 26 3f 55 38 3e 3d d2 f2 1d bf
       0.685864 0.65100485 0.04644044 -0.6169864
000010 cd 03 e2 3e a2 77 db 3f 1e 5e 8c 3f 9a 8a a5 be
       0.44143525 1.7145884 1.0966222 -0.32332307
000020 75 b2 03 3e 4a 12 94 bf 6b 62 e4 3e 6a 99 a9 be
       0.12861045 -1.1568081 0.44606337 -0.33124858
000030 1f a6 36 be 87 fd 8c 3e 6a 2a 7f 3e 48 7d 0e 3e
       -0.17836808 0.27537176 0.24918523 0.13914979
000040 c0 85 3f 3e ed d5 1e bf 71 ae b0 3f 24 d9 37 bf
       0.18703365 -0.62045175 1.3803235 -0.71815705
000050 3c a5 13 bf 51 5f b2 bd 21 3d c2 3f aa 81 12 3f
       -0.57674 -0.087095864 1.5174905 0.572291
000060 2d ff 8c 3f f3 a6 7a bf e4 eb e6 be 9b f4 3b 3d
       1.1015373 -0.97910994 -0.45101845 0.04588757
000070 26 6b 07 bf c4 83 22 bf 95 1c 2e bf 50 7e df be
       -0.5289787 -0.6348231 -0.6801236 -0.43651056
000080 c6 43 3a 3e b1 0c 82 3f 25 79 09 40 b6 28 6d bd
       0.18189916 1.0160123 2.148019 -0.057900153
000090 29 5e f5 be c9 b4 de be 7d 9c 02 c0 1f 8a bd 3f
       -0.479234 -0.43497303 -2.0408013 1.4807776
0000a0 ef aa 16 c0 41 5f 84 be 5a 4c 8d bb e1 c7 ee be
       -2.354183 -0.25853923 -0.0043120803 -0.4663687
0000b0 8a 50 3e 3f 4c 56 b6 3c 83 44 f7 be 3a 59 c7 3e
       0.7434164 0.022257946 -0.48294458 0.38935262
0000c0 22 47 37 3f 94 64 fd be cf d5 81 3f 83 91 03 3e
       0.71592915 -0.49490798 1.0143374 0.12848477
0000d0 e9 91 15 be 98 fc 29 bf aa 64 81 bf f7 0a 3a 3f
       -0.14606442 -0.6640105 -1.0108845 0.7267298
0000e0 f9 8c 0a 3f a4 3a 96 3f 2a db 90 be 68 50 13 3e
       0.5412136 1.1736646 -0.2829221 0.14386141
0000f0 d2 a4 2e bf 26 10 68 be bd 83 45 3d 2a 77 d5 3f
       -0.68220246 -0.2266241 0.04822134 1.6676991
000100 d9 32 23 3f 68 33 22 40 ce cd ce 3f c5 80 69 bc
       0.6374946 2.5343876 1.6156557 -0.014251892
000110 9c 31 8c 3e bd db cc 3e a8 8a 7d be 2b 09 56 3f
       0.273816 0.40011397 -0.24759924 0.8360774
000120 8f 5f 5a bf 06 a9 87 bf ee 07 b0 be 32 82 82 bf
       -0.8530206 -1.0598457 -0.3438105 -1.0195982
000130 87 93 af 3f 87 c6 38 bf 19 b7 f7 ba 8f 0d 80 3f
       1.3716897 -0.7217793 -0.0018899172 1.0004138
000140 a8 2b f5 3e 99 6e 3c 3e 4e 8e 01 3f 3b e0 b4 3e
       0.4788487 0.18401565 0.50607765 0.35327324
000150 0e 78 89 bf 03 11 9f 3f 50 f0 af bd 35 cc 14 40
       -1.0739763 1.2427067 -0.08590758 2.3249638
000160 6b 00 83 3f b5 22 ae 3f 21 35 72 bf be 36 36 bf
       1.0234503 1.3604342 -0.9461232 -0.7117728
000170 f9 84 d3 be 69 df 26 bf 58 8c 87 bd 60 1f 96 bd
       -0.41312388 -0.65184647 -0.06618565 -0.07330203
000180 5f 68 f2 be 92 af 02 bd bb 8e 6f be 87 9d 39 3e
       -0.47345254 -0.03190572 -0.23394291 0.18126498
000190 36 0c bb bf 1e 50 eb 3c 2e dd 86 bf 65 1a 63 be
       -1.4613101 0.028724726 -1.0536249 -0.22178037
0001a0 5b 12 6b bf 60 ef 82 3e 1b 6a 22 bd 82 fb 74 3f
       -0.91824883 0.25573254 -0.03965197 0.9569627
0001b0 d8 27 10 bf 22 56 c7 3f 22 45 44 3f 3a 73 fe be
       -0.56310797 1.5573161 0.7666799 -0.49697286
0001c0 34 0e 85 3f fe 18 2a bf 5a a4 2a 3f 2a 3b 28 bf
       1.039496 -0.66444385 0.6665703 -0.6571528
0001d0 51 70 55 3f e5 e9 6a 3f 11 fb 33 bf 95 d9 86 bf
       0.83374506 0.91763145 -0.7030497 -1.0535151
0001e0 c4 25 33 3e 99 b8 b5 be 0f 39 ef 3d c6 5c be bf
       0.17494875 -0.354924 0.11680805 -1.4872062
0001f0 7e 4f 4e bf 05 88 bc 3f b2 ce 7e be cf 02 4c c0
       -0.80590045 1.472901 -0.24883536 -3.1876714
000200 1a 64 b5 be b8 8b 86 3f bf 0d fa 3e 71 f2 10 3f
       -0.35427934 1.0511389 0.48838612 0.56619936
000210 9f ef 94 bf a7 5f 55 3f 46 ba 47 3f 84 69 e6 3e
       -1.1635627 0.8334908 0.78018606 0.45002377
000220 ae 55 4f 3f 8b 14 91 be 90 1b 96 3f 49 90 13 bf
       0.8099011 -0.28335986 1.1727161 -0.57642037
000230 8f 45 a3 be 6d 8e e6 3f ca d3 b7 3e 1c 46 a6 be
       -0.31889006 1.8012215 0.3590377 -0.32475364
000240 c1 c0 3e bf 4e 3d 75 3d 7b bc 4d be 6f aa ce be
       -0.7451287 0.059872918 -0.20091431 -0.40364406
000250 f8 06 d4 3f f2 1b 85 3f 11 39 f4 3f d5 72 20 bf
       1.6564627 1.0399153 1.9079915 -0.6267522
000260 f6 18 ac be 01 de 24 3f f0 22 74 be 06 b6 5b 3f
       -0.33612794 0.6440125 -0.23841453 0.8582462
000270 09 f9 ff bf 4d 69 f9 3e aa 54 e0 bf bb 17 91 bf
       -1.9997874 0.4871315 -1.7525837 -1.1335367
000280 d5 d3 a5 3e d9 b6 bd 3f 05 45 24 3f 22 59 b2 be
       0.32388178 1.4821426 0.64167815 -0.34833628
000290 77 35 fb be 17 9f 00 bd 6f 57 93 3e 24 6d 91 3f
       -0.49064228 -0.03140172 0.28777644 1.1361432
0002a0 34 bb 14 bf 55 01 ee 3f b1 f9 ff be 2f e1 01 3e
       -0.5809815 1.8594157 -0.49995187 0.12683557
0002b0 d1 74 54 bf 89 6b 81 be 2c cb 3e bf 0b fc 9f 3e
       -0.8299075 -0.25277355 -0.74528766 0.3124698
0002c0 a7 c3 a9 3e 09 a7 7f 3f 12 c7 8d bf 1e 54 ff bf
       0.33157083 0.9986425 -1.1076376 -1.9947546
0002d0 8d 7c e3 be 7f ff fb bf 51 ab 5b 3f a8 4c ae 3f
       -0.44430962 -1.9687346 0.85808283 1.3617144
0002e0 22 8e 45 bf 96 6e 31 3f 02 e1 ca bf 46 98 85 3f
       -0.7717 0.69309366 -1.5849917 1.0437095
0002f0 a9 de 01 40 48 c8 98 3d 80 88 53 3e eb 3b 88 3e
       2.029215 0.074600756 0.2065754 0.26608214
000300 72 67 56 3f 7d bd c7 be a8 89 79 bf 28 92 0f be
       0.83751595 -0.39011756 -0.9747567 -0.14020598
000310 be 11 80 bf 35 e2 99 be ce f6 36 bf 9b a6 d0 3e
       -1.0005414 -0.30055395 -0.71470344 0.4075211
000320 3d e7 23 c0 a4 74 b0 bf 09 93 82 bf 37 a3 fd 3e
       -2.5609887 -1.3785596 -1.0201122 0.49538586
000330 81 4d 9d 3d cb f6 92 bf 67 e0 b0 3d 97 31 12 bf
       0.07680798 -1.1481565 0.08636551 -0.5710692
000340 93 e0 25 3f 35 47 5b be 94 16 b4 bd c5 6f fc 3d
       0.647958 -0.21413882 -0.08793369 0.12326006
000350 1d d6 09 3f d7 8f 84 bf 89 6c c6 be ac 83 22 3e
       0.53842336 -1.0356396 -0.3875468 0.15870541
000360 d2 3f f9 bf c0 f6 40 be 3c f8 16 3f a0 08 23 3f
       -1.9472601 -0.18844128 0.58972526 0.63685036
000370 19 28 a4 be 9a fe c9 3e 1b 2b 62 be 29 fc 11 3f
       -0.32061842 0.39452058 -0.22086756 0.5702539
000380 d5 0f 59 3f e5 db 9b 3f 73 ad 63 3e 34 06 d4 bf
       0.8478978 1.2176481 0.22234134 -1.6564393
000390 b4 51 7c 3f c9 53 36 3f 16 7a 72 3e 46 c3 72 3f
       0.9856217 0.71221596 0.23679385 0.94829214
0003a0 cb cb 47 3f b1 c7 8e 3d 80 08 80 3e 6f 50 a9 be
       0.7804534 0.06971682 0.25006485 -0.33069178
0003b0 b1 50 de be aa f9 69 3f b3 b8 65 bf ab ad 97 bd
       -0.43420938 0.9139658 -0.89734954 -0.074061714
0003c0 de 54 48 3f 2c b1 65 3f ca ae 01 40 36 d9 06 bf
       0.782545 0.8972347 2.0262933 -0.5267519
0003d0 91 e0 b4 bf 71 71 87 3e b5 87 80 bf a9 d8 45 bf
       -1.4131032 0.26453736 -1.0041414 -0.7728372
0003e0 02 30 dc 3e 72 ec b8 bf a5 31 89 bf ed ac b7 3e
       0.43005377 -1.4447157 -1.0718275 0.3587412
0003f0 48 47 6f 3e 12 05 d7 bc b9 de 50 3e 58 75 a5 3f
       0.23367035 -0.026247535 0.20397462 1.2926435

encoder_pos_embedding.weight f4 [8, 32]
000000 07 28 59 3f 27 5a 1b bf 39 be 35 3e 0b e5 a8 bd
       0.848267 -0.60684437 0.17748345 -0.082468115
000010 68 70 b0 3f c6 86 be be f7 b0 75 be c4 91 2f 3e
       1.3784304 -0.372122 -0.23993288 0.17145449
000020 25 28 6a 3d 13 cc c1 3d 99 8c 6f bd 2d e9 08 bf
       0.05716719 0.09462752 -0.058483694 -0.534808
000030 e5 9a b3 3f 53 d0 e7 3d d5 89 b6 bd da 0f 1c 3f
       1.4031645 0.113190316 -0.08913008 0.6096169
000040 f9 4c ca 3f 43 7a 0c bf 5a 9b db 3f 09 44 cc bd
       1.580474 -0.54874057 1.7156785 -0.09973914
000050 bd 10 a7 3f 96 96 73 bf 35 a5 5e bf 0c a7 f7 3f
       1.3051983 -0.9515165 -0.86970836 1.9347854
000060 0b b3 78 3e 70 1e 3e bf 87 11 3d be 12 31 c4 bf
       0.2428705 -0.74265194 -0.18463717 -1.5327475
000070 df 4b 54 bf 1c 49 b4 bd a1 20 7d 3f c0 cd 57 be
       -0.8292827 -0.08803007 0.9887791 -0.21074581
000080 e6 e6 f0 3e bf ef 70 bd bf fc 6c 3f b1 7c f9 bd
       0.47051162 -0.05882239 0.9257316 -0.12181986
000090 41 65 06 bf 50 0b 28 3f c6 3e 3a 3f 7f 9b 9a be
       -0.5249825 0.6564226 0.72752035 -0.3019676
0000a0 94 41 a6 3e 2c 83 8a be 59 ef a6 3d be 20 81 3f
       0.32471907 -0.270532 0.08151121 1.0088117
0000b0 75 60 75 3b 0a f0 90 bd d7 87 70 3e 5a 10 8d bf
       0.0037441526 -0.07077034 0.23489319 -1.1020615
0000c0 c4 51 14 bf 8d f1 f5 bc c3 45 f5 be a9 65 53 3f
       -0.57937264 -0.030022407 -0.47904786 0.82576996
0000d0 58 52 34 3f eb 18 6a bd f6 bf de be 59 ee 03 40
       0.70438147 -0.05715267 -0.4350583 2.0614226
0000e0 bc b5 27 3f 65 ed 49 3e 8f ff 6e bf 5b 9e b1 3e
       0.6551168 0.19719465 -0.933587 0.34691128
0000f0 8f 78 a8 be c5 ba 52 3e 88 7c 08 c0 4d f6 40 be
       -0.3290448 0.2057906 -2.1326008 -0.18843956
000100 ed 08 41 bd c2 4b 54 3e 68 49 79 3f cc ce 58 bf
       -0.047127653 0.20732024 0.97377634 -0.84690547
000110 39 bc 47 3e 4b 05 9c bf 64 b4 c9 3e 8d 25 8e 3e
       0.19505395 -1.2189115 0.3939544 0.27763024
000120 05 30 0f bd 16 16 7e be 6d 0c 96 bf 2e 25 f5 3f
       -0.034957904 -0.24813113 -1.1722542 1.9151971
000130 24 cd 44 bf 3a 9f 2e 3d dc 75 3e be d9 32 af be
       -0.7687552 0.04263232 -0.18599647 -0.3421848
000140 a2 41 8c 3f 68 0a 9a 3f 9e ff 8d 3e 78 94 03 bf
       1.095753 1.2034426 0.27734083 -0.5139842
000150 7d b8 91 3e 2b b5 38 3e 12 2f e6 3e 76 0f 2d 3e
       0.28461066 0.1803786 0.44957787 0.16900429
000160 3c 48 1b 3f 3e 76 78 bc 9c ae 49 bf 9f e8 31 bf
       0.60657096 -0.01516491 -0.7878206 -0.69495577
000170 d0 cf 00 bf 75 42 52 3f 13 36 90 3c 97 ef 40 c0
       -0.50317097 0.82132655 0.01760391 -3.0146234
000180 5c 16 12 bf 78 7f 80 3d 6f 10 c8 bf 1f 8d 11 3e
       -0.5706537 0.06274313 -1.5630015 0.1421399
000190 68 3a 92 3e e6 61 5d 3f 2d 40 05 bf b9 a1 ce be
       0.28560185 0.86477506 -0.5205105 -0.4035776
0001a0 14 8f 4d bf 1d b0 78 3f 6a 3d 10 40 a7 9a 9d 3b
       -0.80296445 0.9714373 2.2537484 0.0048096958
0001b0 27 30 e7 3c 1b 62 29 3f 71 18 54 3f 2e 30 3a be
       0.028221203 0.6616532 0.82849795 -0.18182442
0001c0 43 f3 92 be b7 23 72 3e 29 49 5d be a0 06 75 3e
       -0.2870122 0.23646437 -0.2160994 0.23928308
0001d0 8d fc 61 3e 19 67 a6 3f 96 c2 7c 3f c3 69 49 3f
       0.22068997 1.3000213 0.98734415 0.78677005
0001e0 21 57 b0 bd 05 3b d0 3e e7 de 0c 3f 3a ef 19 c0
       -0.086103685 0.40670028 0.5502762 -2.4052262
0001f0 07 33 6d bf dd ba 99 3e c9 69 04 3f 64 8e 8b be
       -0.92655987 0.30025378 0.51723915 -0.27257073
000200 77 ee 34 bf 24 7c 92 3f 28 ac c9 bd 94 61 c7 3d
       -0.7067637 1.1444135 -0.09847289 0.097354084
000210 00 5a 57 3f 38 8e cc be f4 17 79 bf 69 b8 2e 3e
       0.84121704 -0.39952254 -0.97302175 0.17062534
000220 93 0d 11 bf f3 ce 4c 3f 4b 0a d5 3f e6 db e1 bf
       -0.5666134 0.8000328 1.6643766 -1.7645233
000230 dd e3 53 3f 7d f0 8c bf 16 17 27 40 78 2a 7c bc
       0.82769567 -1.1010891 2.610784 -0.015390985
000240 a7 90 21 3f 73 8d 05 3f e1 77 cb 3e 21 de c4 bd
       0.63111347 0.5216896 0.39739898 -0.0961268
000250 2d eb 1c be e3 c6 de be 0c e7 bf 3f 08 e6 bb be
       -0.15324087 -0.43511114 1.4992385 -0.36698937
000260 f0 61 a7 bf bc 94 6e 3d 35 03 b0 be 44 bf 35 3f
       -1.3076763 0.058247313 -0.34377447 0.70994973
000270 2d 8c c1 3b 2d fc e4 3e b8 df 85 be b6 c6 29 bf
       0.005906603 0.44723645 -0.26147246 -0.66318834
000280 78 35 6c bf 45 54 8d be 04 02 87 bf fc 3f 6b be
       -0.92269087 -0.27603355 -1.054749 -0.22973627
000290 13 3d 9d 3f 23 fa fb 3f 26 d1 7b bf fc 35 0e bf
       1.2284263 1.9685711 -0.9836601 -0.55551124
0002a0 25 b0 a7 3c 1b 3c 6c 3f 09 1e 16 bd 31 be 82 be
       0.020469734 0.92279214 -0.036649738 -0.2553573
0002b0 3b 7d 95 3f e5 9e 45 3f 18 eb be 3e 51 95 7a 3f
       1.1678842 0.7719558 0.37288737 0.9788409
0002c0 74 50 63 3f aa 4c b1 be e5 5a fe be d0 b5 9a 3e
       0.88794637 -0.34628803 -0.49678722 0.30216837
0002d0 fd 23 70 3d 2a 89 84 bf 92 b2 29 bf f0 79 b4 be
       0.05862807 -1.0354359 -0.662881 -0.3524928
0002e0 63 ec 9b 3e 67 18 85 bb 7b b2 d2 be c3 1e 5e 3d
       0.30453786 -0.004061747 -0.41151795 0.054228555
0002f0 61 1a 6b bf 7e fb 08 bf b6 4e 34 bf c4 f6 43 3f
       -0.91837126 -0.53508747 -0.70432603 0.7654841
000300 26 fa 55 bd 08 36 4f 3e 21 2b e0 3e 04 f2 50 3f
       -0.052240513 0.20235455 0.43782905 0.81619287
000310 c6 be 70 bf 67 86 b5 3e df 7a 8a bf ea ab 92 3f
       -0.940411 0.35454103 -1.0818747 1.1458714
000320 d4 2d 83 3f 73 23 e4 bf 37 ad 4a bf fc ee 1c 40
       1.0248361 -1.7823318 -0.79170555 2.4520864
000330 b7 e4 08 bf 68 f2 bc 3f 62 98 32 3f 19 a7 cc 3e
       -0.5347399 1.4761477 0.6976377 0.39971235
000340 c6 f1 4f bf e6 4d 94 3f f8 b9 55 bf bb 93 ce be
       -0.8122829 1.1586273 -0.8348689 -0.40347084
000350 a6 85 e7 bd d9 c8 a9 3d 1f 2d 6d bf ec 26 03 be
       -0.11304788 0.08290262 -0.92646974 -0.12807816
000360 88 29 da bf 14 6f 97 3d 60 6b 24 bf b5 9e 27 3f
       -1.7043924 0.07394233 -0.6422634 0.6547654
000370 02 91 30 3f 81 ea ae bf 15 80 66 3e 1b 3b 47 3e
       0.68971264 -1.3665315 0.22509797 0.1945614
000380 61 5f e6 bf 2b d8 91 be 05 da 09 bf 84 e0 88 3f
       -1.7997857 -0.28485236 -0.53848296 1.0693517
000390 7f e0 77 3f 50 34 30 3e 10 3a cd 3e 3c ac c9 bf
       0.9682693 0.17207456 0.4008336 -1.5755687
0003a0 25 cf fa be b9 c7 ca bf 49 9f b2 be 2e 95 c4 bf
       -0.48986164 -1.58422 -0.3488715 -1.5358026
0003b0 47 e8 80 bf 06 cb 8e bf e0 87 ef bd d1 5c b8 be
       -1.0070885 -1.1155708 -0.11695838 -0.36008313
0003c0 06 cc b8 3e 37 7f 7c 3f ce d9 94 bf 2f 13 a6 3f
       0.36093158 0.98631614 -1.1628969 1.2974604
0003d0 a0 80 91 bf 4c 95 c1 3e 01 c6 65 bf 58 ed 40 3f
       -1.1367378 0.37809217 -0.89755255 0.7536216
0003e0 0b f2 61 3f 8d 06 c0 be 70 21 e2 3d bc da 80 3f
       0.88259953 -0.37504998 0.11041534 1.0066752
0003f0 52 ee b2 be 22 ff 5e 3f 08 f1 4b 3d ba fe 0b 3f
       -0.3494745 0.8710805 0.049790412 0.54685557

decoder_pos_embedding.weight f4 [8, 32]
000000 37 98 83 3e 4a ff e5 bf 63 b6 b8 3f 8c 5c c3 3f
       0.25702068 -1.7968533 1.443066 1.5262618
000010 08 f6 17 40 c3 45 8c bf 45 1a d4 bf 19 b6 2a bf
       2.3743916 -1.095879 -1.6570517 -0.6668411
000020 b4 ce 15 bf ef 4d 0a c0 46 cb ad bf ae 9a c0 3e
       -0.5851853 -2.1610067 -1.3577659 0.3761801
000030 b5 04 99 3f 1b 4c 5c 3d ad 73 7e 3a 7a e6 53 3e
       1.1954561 0.053783517 0.0009706568 0.20693389
000040 c4 b7 0b bf 8c af 84 3c 4b 28 d8 3e 8c c6 ee 3f
       -0.5457728 0.016196989 0.4221824 1.8654342
000050 07 86 e8 be 3d e1 b2 3f cb 97 aa 3f 98 a1 dd 3e
       -0.45414755 1.3974987 1.3327574 0.4328735
000060 d3 ec 22 be 5b 99 02 40 48 b8 30 be 8b bf a8 3f
       -0.15910654 2.04061 -0.17257798 1.3183454
000070 1f c8 84 be f2 bb a0 bf 18 a6 b1 3d 34 de 5a bf
       -0.2593393 -1.2557356 0.08674258 -0.85495305
000080 44 d4 66 bf e9 b6 97 3f c8 c4 05 be 01 56 b1 bf
       -0.9016764 1.1852695 -0.13063347 -1.3854371
000090 ae 6e b6 bf 39 7f df 3f 13 26 a7 3f 65 1b 34 bf
       -1.4252527 1.74607 1.3058494 -0.703543
0000a0 de c2 3a 3e df 09 2f 3e 84 6a 45 bf b1 d5 d4 bd
       0.18238398 0.1709361 -0.77115655 -0.10392321
0000b0 38 f4 d8 be 93 3c 3f bd 10 45 fc 3e 05 df 7c 3f
       -0.42373824 -0.046688627 0.4927144 0.987778
0000c0 c6 d2 5f be 96 4d 49 bf d3 40 4b 3f 2a 6c 02 40
       -0.21857747 -0.7863401 0.7939579 2.0378518
0000d0 fc fd 9c 3f 49 64 ec 3e 6c c2 2a 40 be 9a 45 3f
       1.226501 0.46170262 2.6681166 0.7718924
0000e0 ae 80 97 3d 5b 4a cb bf c3 fd d6 bf 68 f7 05 40
       0.073975906 -1.5882066 -1.6796192 2.0932255
0000f0 f6 38 b1 3f 1c e2 48 3f eb f6 0e 40 a4 18 ae be
       1.3845508 0.78470016 2.2338207 -0.34003174
000100 a2 2f 09 3e d9 5b b4 bf 63 18 0e 3f a1 c1 4a c0
       0.13397077 -1.409053 0.5550596 -3.1680682
000110 97 89 20 c0 03 7c bf 3d 6d a8 da 3f 99 57 7d 3f
       -2.5083978 0.09349825 1.708265 0.9896179
000120 a6 4f a0 bf 9e f1 37 3e 16 74 e1 3f 89 04 aa 3f
       -1.2524307 0.17963263 1.7613552 1.3282634
000130 8e 2f 0b bf b3 9b 73 3f 57 fb 90 bf 64 cf 8a 3d
       -0.5436944 0.95159453 -1.1326703 0.06777838
000140 04 a8 ca bf 53 60 2a c0 38 15 70 3c c6 8c 86 bf
       -1.5832524 -2.6621292 0.014653496 -1.0511711
000150 58 76 86 bf ba 90 84 bf 6c 3d 21 40 90 d2 04 be
       -1.0504866 -1.0356667 2.519374 -0.12970948
000160 de 48 58 3f fe f8 6d bf 6d 6d f2 bd 5e b1 1a 40
       0.84486187 -0.92958057 -0.118372776 2.4170756
000170 d9 e2 93 3f 92 6e 1c bf 1b 06 64 bf 9c 61 32 40
       1.1553603 -0.61106217 -0.89071816 2.7872076
000180 b7 0d 0c 3f f6 be 36 bf 58 92 1e 3e 64 f8 a4 3f
       0.5470843 -0.71385133 0.15485513 1.2888303
000190 df ed fe bd 50 93 0e bf 9c a2 db 3f a2 87 3f 3f
       -0.12447714 -0.5569353 1.7159 0.74816334
0001a0 84 5e 54 40 f1 f4 9e bd 6b 72 a0 3e e0 9c 1a bf
       3.3182688 -0.077615626 0.31337294 -0.6039562
0001b0 94 e0 98 3f f3 2e ca 3e 1a b2 c8 3f 5a e9 dd 3e
       1.1943536 0.39488944 1.5679352 0.43342096
0001c0 68 4c fc 3f c7 13 af 3e d6 39 6f 3f 1b da 02 c0
       1.9710817 0.34194776 0.93447626 -2.044562
0001d0 e9 b9 3b bf 93 6b 98 3e 24 0a 42 c0 93 16 93 3f
       -0.7333055 0.29769573 -3.031869 1.1491264
0001e0 ac bb 39 bf 06 e5 95 3f 1f 06 bc 3e 3c 55 06 c0
       -0.7255199 1.1710517 0.3672342 -2.0989523
0001f0 9b 39 05 3e ff dd 1e 3f 24 b7 f6 3d cd d3 b1 3d
       0.13010256 0.6205749 0.1204665 0.08682976
000200 f8 05 f3 3f 99 cd 26 3f de 1d 0f 3f af cf f7 bf
       1.8986197 0.6515747 0.5590495 -1.9360255
000210 78 55 c6 be ab 61 fa be f6 ec 9a 3f 24 2b 07 bf
       -0.38737082 -0.4890264 1.2103565 -0.528002
000220 56 fc 5f bf 62 c6 e0 3e 7a 9d fc 3e 59 3d 80 bf
       -0.8749441 0.43901354 0.49338895 -1.0018722
000230 ef e5 03 c0 e2 7c c3 3f 92 95 24 bf 96 bb 18 3e
       -2.060909 1.5272486 -0.64290726 0.14915308
000240 bd d4 c2 bd 71 9c 99 bc 66 1b 6b 3f 50 d0 94 bf
       -0.09513233 -0.018751355 0.9183868 -1.1626072
000250 45 7d ca 3f 2a ae 17 bf 44 a0 98 bf f1 e6 35 3f
       1.5819479 -0.5925013 -1.1923909 0.71055514
000260 13 a9 05 c0 f7 7f e9 be fa db c3 be 16 25 00 bf
       -2.0884445 -0.45605442 -0.38253766 -0.5005659
000270 df 85 ea be f0 e3 b3 bf 01 ad 48 3f a8 a7 67 bf
       -0.4580526 -1.4053936 0.78388983 -0.904902
000280 bb 58 65 bf 71 5a e6 3f c1 fc de be ac b6 a3 3f
       -0.89588517 1.799635 -0.4355221 1.2790122
000290 e4 94 e1 be 19 84 13 3f 36 f5 ed bf 65 ba 21 bf
       -0.44058907 0.5762344 -1.8590457 -0.6317504
0002a0 21 69 86 bf f6 77 b3 bf 12 fc f2 bf fa c3 f2 bf
       -1.0500833 -1.4020984 -1.8983176 -1.8966057
0002b0 0e 7d 53 3e c9 a4 fb be 5b 33 2f 3f 1c f2 97 3f
       0.20653173 -0.4914916 0.6843774 1.1870761
0002c0 74 16 81 bf 80 db d7 3e 01 c1 71 3e cb 74 c0 3e
       -1.0084977 0.42159653 0.23608781 0.37589106
0002d0 3a 9d a3 3f 01 32 a9 be 9a 9a 05 3c fc 6f 91 3f
       1.2782357 -0.33045962 0.008154536 1.13623
0002e0 92 96 51 bf 8b ac 05 bf 1e c3 87 bf 3b 98 7c be
       -0.8187038 -0.52216405 -1.060642 -0.24667446
0002f0 02 6a c2 be a3 1b 50 bf 71 ee db be fa 38 10 bf
       -0.37971503 -0.8129217 -0.42955354 -0.5633694
000300 6b 50 c5 bf ad fb 67 bf bf 5a 08 3f 2b 76 94 bf
       -1.5415167 -0.906184 0.5326347 -1.1598562
000310 f9 da 68 3f 52 9c 49 bf 9d c2 dc be 39 1e 06 3f
       0.90959126 -0.7875415 -0.43117228 0.52389866
000320 8f c7 e6 be 3e 69 ad be 37 d3 8b bf 29 da 39 3f
       -0.45074126 -0.33869356 -1.0923833 0.7259851
000330 0b e4 39 bf 1c c4 11 be b4 ff 8e 3e 47 80 99 3e
       -0.7261359 -0.14234966 0.2792946 0.2998068
000340 0c 67 f8 bf d0 4c 90 be eb 7c 52 3f 0d 72 96 3d
       -1.9406447 -0.28183603 0.8222186 0.07345972
000350 75 f4 2f bf 01 04 b5 bc ef 08 46 bf a7 d9 0f 3e
       -0.68732387 -0.022096636 -0.7735738 0.14047872
000360 c1 0a c3 bf 76 fa e8 3e cb 15 62 be 7d 32 0e be
       -1.5237657 0.45503587 -0.22078626 -0.13886447
000370 bc 90 ea bd bf 2d f5 be e6 36 6b 3f f8 4c 55 3d
       -0.11453387 -0.47886464 0.91880643 0.052075356
000380 c2 4b 83 bf 1a 39 97 3f be 91 e3 3e 8e 2a 88 3e
       -1.0257494 1.1814301 0.4444713 0.26594967
000390 e1 59 a5 be 0b 0e 85 bf e9 c8 83 bf 11 f7 83 bf
       -0.32295135 -1.039491 -1.0295688 -1.0309774
0003a0 74 cb 89 3e cd 12 a1 3f 44 58 6e be 94 d6 c9 3e
       0.26913035 1.2583863 -0.23275858 0.39421523
0003b0 92 c2 00 3f 5e 1c 10 3f 2a dc ce 3e 83 22 c8 3f
       0.5029689 0.56293285 0.40402347 1.5635532
0003c0 24 b0 85 bf ba 4f 45 bf 89 e9 40 bf d6 a7 75 bf
       -1.0444379 -0.7707478 -0.75356346 -0.9595922
0003d0 ba f1 3b 3f 57 4f 8e bf c6 e5 98 3f 60 89 54 bf
       0.7341572 -1.1117963 1.1945121 -0.8302212
0003e0 59 d8 6b 3f a9 ea 54 bf 8f 84 a8 3e 56 ef 01 be
       0.92126995 -0.83170563 0.32913634 -0.12688956
0003f0 fa d1 14 c0 cf ef 34 be b5 9c 0b be e7 ff 85 bf
       -2.325316 -0.17669605 -0.13633998 -1.046872

transformer.encoder.layers.0.self_attn.in_proj_weight f4 [96, 32]
000000 03 73 30 3b dc 5c 1f bd 51 61 28 be 7d ae 05 be
       0.002692402 -0.038906917 -0.16443373 -0.13054843
000010 a1 ae 8c be 27 be 25 bd f2 a5 22 3e 7e 39 48 be
       -0.2747698 -0.040464547 0.15883616 -0.19553182
000020 d7 c1 52 be 89 07 05 3e 99 e8 16 3e 62 38 eb 3d
       -0.20581757 0.12991156 0.14737166 0.114853635
000030 2f b8 a8 3c bb 92 12 3e 3b 12 fc bd ae 0d fb bc
       0.020595638 0.14313786 -0.12308165 -0.030646171
000040 7a e7 81 be eb 7c 85 bd 70 d9 71 bc a4 bf 74 bd
       -0.25371915 -0.06517967 -0.014761314 -0.059753075
000050 8d 85 00 3e a4 b6 1b be 79 5f fe bd 99 6b 32 3e
       0.12550946 -0.1520639 -0.12420554 0.17423858
000060 e0 55 ee bc fd 8b 8e bd 86 3e d0 bd 79 22 11 3c
       -0.029093683 -0.069602944 -0.101681754 0.008858317
000070 6c cd 4c be 1b 24 24 3d 14 e3 79 bc 39 a7 c3 3d
       -0.20000237 0.040073495 -0.015251894 0.095533796
000080 eb 33 f5 3c 1d 1b 41 be c4 0a 08 be 38 3c 18 3b
       0.029931983 -0.18857999 -0.13285357 0.0023229253
000090 01 93 eb bd e8 a7 96 be 8c 85 fe bd 12 61 f0 bd
       -0.11502648 -0.29424977 -0.12427816 -0.11737265
0000a0 75 54 2b bd 1e d4 13 3d 5c 17 10 3e 03 b0 c1 bd
       -0.04182859 0.036090963 0.14071411 -0.094574
0000b0 db 68 82 3e a0 f4 39 3d 72 12 59 bc de 6b 07 bd
       0.25470623 0.04539931 -0.013249027 -0.033061855
0000c0 29 72 e0 3d 5e 22 b7 3e b0 46 9c bd a7 fa de bd
       0.10959274 0.35768408 -0.0763067 -0.10887652
0000d0 e3 ff 43 3e 33 90 1c be 36 f4 a1 bd 9f 60 5d be
       0.19140582 -0.15289383 -0.07907908 -0.2161889
0000e0 a7 3a 66 3d 98 ed d8 3d 7c 6f 1a bd 22 f9 41 3c
       0.05620828 0.105921924 -0.037703976 0.011839183
0000f0 d7 5f 32 3e 2b 5e 65 be 71 51 35 bc e0 ef 4e 3d
       0.17419372 -0.22399203 -0.01106678 0.05052173
000100 9d bf ad be f1 23 bb 3b 0e 13 d6 bd e1 aa 9a bd
       -0.33935252 0.0057110717 -0.10452853 -0.07552124
000110 99 a3 56 be e0 ef 15 3d 64 93 64 bd e8 f8 95 3d
       -0.20960845 0.036605716 -0.055804625 0.07322866
000120 c1 6b a1 3b 2a 88 70 3e 7f 9f b1 3b ac 30 8b bd
       0.0049261753 0.23489442 0.0054206247 -0.06796393
000130 fe b3 82 be 31 96 85 3c 4c 46 ec bd 23 47 9e bd
       -0.25527948 0.016306968 -0.115368456 -0.07728412
000140 24 6e 16 bc 26 cc 9a 3e 62 ff 88 3d f3 9a 95 be
       -0.009181533 0.30233878 0.066893354 -0.2921978
000150 98 66 9e 3c 0b 74 1b be 24 0b ee bd b2 ef 46 3e
       0.01933603 -0.15180986 -0.11623219 0.19427374
000160 93 c5 81 3d de 6e 78 bb 13 44 ac 3d 30 13 56 3d
       0.063365124 -0.003790788 0.084114216 0.052264392
000170 1f b9 40 3e a1 8a e4 3c 80 f5 c8 3d 8b 03 d5 3d
       0.18820618 0.027898135 0.098124504 0.104010664
000180 ed 27 86 3d 1e 4c 02 bd b9 49 08 3d d5 49 5f be
       0.06550584 -0.031810872 0.033273432 -0.21805508
000190 64 6e 3a 3e ca 3a 53 3c 4b 1f 0e be 4a 2a 0a 3e
       0.18206173 0.012892434 -0.13879125 0.13492694
0001a0 e4 56 ef 3d be b8 72 3d fd 9e a9 3d 27 01 2a 3e
       0.11686495 0.059258215 0.08282278 0.16602002
0001b0 f8 06 f5 3d 45 54 6c 3e d3 b2 18 3e 60 b5 61 3e
       0.1196422 0.23079021 0.14911966 0.22041845
0001c0 5a 11 1b be f7 42 85 be 04 9e 2f be b4 7a 47 3e
       -0.15143338 -0.26027653 -0.17150122 0.19480401
0001d0 9e e0 e8 bd e4 36 a3 3e 75 ee 41 be 76 70 16 be
       -0.11370967 0.31877816 -0.1893862 -0.14691338
0001e0 b7 6d 74 3e d2 31 44 be 63 94 7f 3e 74 2d 69 be
       0.23869978 -0.1915963 0.24958949 -0.22771245
0001f0 13 e5 38 3e d8 59 89 3d 92 5c 55 be c5 3f cc bd
       0.18056135 0.067065895 -0.20836094 -0.099731006
000200 7a 48 ac 3d ad 8d ef bd dc 09 9b bc 57 b5 41 3e
       0.08412261 -0.116969444 -0.0189256 0.18916832
000210 34 66 d9 3d 6f bc 28 be 01 2b 2f be d9 0d 66 bd
       0.10615197 -0.16478132 -0.17106248 -0.05616555
000220 65 40 bf bc 64 b5 26 3e 4d 81 09 3e 78 62 d7 3d
       -0.023346135 0.16280133 0.1342823 0.10516828
000230 ad 20 8c bd 1a a9 a5 bd 3e e8 97 bd e3 f9 02 3e
       -0.0684217 -0.08088894 -0.074173436 0.12790637
000240 8b 17 51 3d 34 6d 20 3d 0c 4b 30 3e e5 fe 81 be
       0.051047843 0.039166644 0.17216128 -0.25389782
000250 1d fe 64 bd 91 4b 6c bc b3 49 12 be 97 18 31 3d
       -0.055906404 -0.014422313 -0.14285927 0.04323634
000260 78 d1 bb 3d 9c 2c 94 be 16 1a da 3d ea eb 60 3d
       0.09170812 -0.28940284 0.10649507 0.054912485
000270 d1 58 32 be 34 8b da 3c c9 00 fe 3d ca 21 2c be
       -0.17416693 0.026677705 0.124024935 -0.16809765
000280 c6 cd 9c 3e e2 f2 f3 bd a8 87 d5 3d ba 25 83 3d
       0.30625743 -0.119115606 0.10426265 0.0640368
000290 6a d6 8e 3e f0 2e 0a be ae de 85 3d cd ad 3e bd
       0.2789796 -0.13494468 0.065366134 -0.046552468
0002a0 be bc 4c bd d5 79 a7 be c3 0d d9 3c 4c 8c 49 be
       -0.049984686 -0.32710138 0.02649582 -0.19682425
0002b0 08 9f 1b bb cf 26 13 3e 15 bc 1f be 4b cf 8b be
       -0.0023745913 0.14370273 -0.15599091 -0.2730659
0002c0 2e 53 93 3e 3c 15 97 3d b1 36 15 bc 25 ec b5 3d
       0.287744 0.07377097 -0.009107278 0.088829316
0002d0 62 3d 3d 3e c7 59 71 3e ef f2 8d bd 94 c4 1a be
       0.18480447 0.23569404 -0.069311015 -0.15114051
0002e0 c9 c2 3e 3e 61 69 33 3e db c9 dd bd 97 d6 29 be
       0.18628992 0.17520668 -0.108295165 -0.16585766
0002f0 72 21 2e 3e 32 33 86 be ad 37 21 3e 26 33 49 3d
       0.17004946 -0.26210934 0.15743895 0.049121045
000300 d7 45 c4 be 28 a0 3b 3b ff 68 88 3b 02 f7 eb 3d
       -0.38334534 0.0028629396 0.004162907 0.115217224
000310 52 f3 29 3d 3d 3e 95 3e fc a4 e1 3d 78 c1 c2 3d
       0.041491814 0.29149047 0.110177964 0.095095575
000320 32 03 a8 3d c8 5e 42 3e f2 af 2f bd 15 64 4c bd
       0.082037345 0.18981469 -0.042892404 -0.049900133
000330 98 fc 69 3e fc 3f bd 3c 46 9d 68 3d 63 29 86 bc
       0.22850263 0.0231018 0.056790613 -0.016377157
000340 9c f5 a1 bd 0c 10 64 be c2 5a 09 3e 53 af d6 3d
       -0.079081744 -0.22271746 0.13413528 0.10482659
000350 8b c2 4d 3d 19 ca a3 bd ba 52 f9 3c 0f 21 80 3e
       0.05023436 -0.079975314 0.030434955 0.25025222
000360 99 d4 f9 3d 65 3d ff bd 31 bc 5d 3d e8 b9 2b be
       0.12198753 -0.12462882 0.05413455 -0.16770136
000370 4c 9c 2d be a3 2e 1b 3e ac ce 25 3d a5 aa 29 3c
       -0.16954154 0.15154509 0.0404803 0.010355626
000380 d3 83 37 be f9 3b 00 be 5d 00 65 3e c9 0f 9e bc
       -0.1792138 -0.12522878 0.2236342 -0.019294636
000390 6e 47 b2 bd 66 58 eb 3d a4 cc 8b bd 8c 78 03 be
       -0.087050304 0.1149147 -0.068261415 -0.12838954
0003a0 82 70 f4 3c 4a 79 e1 3d 56 18 41 3e ee d9 05 3e
       0.029838804 0.11009462 0.1885694 0.13071415
0003b0 43 80 0b be 5d ef 19 3e 45 94 aa 3d ba 69 80 3e
       -0.13623147 0.15032716 0.083290614 0.25080663
0003c0 95 95 2b be ad 5e c5 be 46 fb 1f be 0c 5a 54 3e
       -0.1675628 -0.38548794 -0.15623197 0.20737475
0003d0 22 f0 5f 3e cf 4f fa 3d 69 23 68 be 2c 70 aa 3e
       0.21868947 0.122222535 -0.22669758 0.33288705
0003e0 95 8c 04 be ff 05 71 be bb 4e 85 bd 4d d2 af bd
       -0.12944253 -0.23537444 -0.06509157 -0.085850336
0003f0 cc 22 20 be 93 0c 97 3e 1a 30 1a be f3 61 d9 bd
       -0.15638274 0.2950178 -0.15057412 -0.106143855

transformer.encoder.layers.0.self_attn.in_proj_bias f4 [96]
000000 b3 cd ba bc 3a d2 07 be 7f 0d 4f 3a 12 c0 44 3c
       -0.022803163 -0.13263789 0.00078984344 0.012008684
000010 02 59 3b bd b4 67 66 3d 9a 5e 18 3e 1b 1f 12 3e
       -0.04573918 0.056251243 0.14879838 0.14269678
000020 dd fa e0 3c a0 35 4d 3d 47 e8 2a be c4 f6 09 bd
       0.027463371 0.05009997 -0.1669017 -0.0336826
000030 b3 fa 08 bc 00 e1 19 3e 99 64 2e 3c f1 2f 04 bc
       -0.008360553 0.15027237 0.010644102 -0.008068071
000040 a9 dd 07 3d aa c2 2c 3b 83 0a 92 bb 91 5c b0 bc
       0.033170376 0.0026361146 -0.0044568195 -0.021528514
000050 f0 d1 db bd 59 75 f7 3c 77 04 6c 3d 86 04 fe bc
       -0.10733402 0.030207323 0.057621446 -0.031008016
000060 4c 0d b1 bd c9 6b 28 be e1 93 e4 bc ed 2e 4a 3c
       -0.08645114 -0.16447367 -0.027902545 0.01234029
000070 f6 e4 3c 3d 9d 6e 59 3d 1f 04 3c 3d 03 08 33 3d
       0.04611679 0.053084005 0.045902368 0.043708812
000080 2d ac 83 bd 28 17 30 3d ac d3 c9 3c 67 f1 25 3d
       -0.06429324 0.042990834 0.024637066 0.040513422
000090 36 dc 08 3d 21 6e 24 3c 99 05 eb 3a b2 ce a3 bd
       0.033413135 0.010036022 0.0017930745 -0.079984084
0000a0 e9 d2 5b bd 62 1b 85 bd 4d cc e8 bc c9 47 bf 3c
       -0.053667936 -0.064993635 -0.02841773 0.02334966
0000b0 73 d0 03 3d be 5f 18 bd e3 cd e4 bd 89 ee f2 3c
       0.032181215 -0.037200682 -0.11172082 0.029654758
0000c0 11 93 5b bd da 2f 11 3b 7b 95 e2 3c f0 f5 fd 3c
       -0.05360705 0.0022153766 0.027659168 0.031001061
0000d0 05 4c 89 3a ba 68 51 bd c5 b7 bd bc bb b5 de 3a
       0.0010474926 -0.051125266 -0.023158917 0.0016991416
0000e0 36 76 25 3d ec 60 ad 3d 7e bd b6 bc 05 61 8e 3d
       0.040395938 0.08465752 -0.022307154 0.06952099
0000f0 a0 2d 76 3d d5 20 44 3d 93 da 89 ba 9d 94 23 bd
       0.060102105 0.047882874 -0.0010517411 -0.03993665
000100 ed 9f 0d bb 4d 9a 03 3e 0e 71 8e bb bd 29 9e 3c
       -0.0021610216 0.1285183 -0.0043469733 0.019307012
000110 85 ab f8 3c 52 3b bc bd 27 08 d8 bd 4b 9b 05 3d
       0.030355224 -0.09191002 -0.1054843 0.032618802
000120 b1 1f 0f 3e 18 f2 f6 3d 90 90 30 bd f0 da 00 3e
       0.13976933 0.120578945 -0.043106616 0.12583518
000130 ca bf 18 bd a1 4c fc bc 34 60 c1 bc 48 f4 d0 bc
       -0.03729228 -0.030798258 -0.023605444 -0.025507107
000140 96 72 8f 3d f3 d8 61 bd 01 d3 1b be 28 77 b6 3b
       0.070042774 -0.05513854 -0.1521721 0.0055684038
000150 c2 34 d5 bd fa 93 96 bc bb c6 88 3c f5 ba 1b 3e
       -0.104104534 -0.018381108 0.016696325 0.15208037
000160 b4 12 ad bd fb d4 f7 3d 31 14 a2 bd 1e c5 ae bd
       -0.08450833 0.1210117 -0.079140075 -0.08533691
000170 fa 26 ff 3d 21 95 06 bc 2c 02 38 3d 23 b2 8d 3c
       0.12458606 -0.008214266 0.044923946 0.017296856

transformer.encoder.layers.0.self_attn.out_proj.weight f4 [32, 32]
000000 91 32 9d 3e b7 64 4d 3d c2 ce 51 be 52 68 2d 3e
       0.30702642 0.050144877 -0.20489028 0.16934326
000010 75 26 80 3e 6e 76 9a bd 34 51 0d 3d 48 bc c7 3e
       0.2502934 -0.0754212 0.03450127 0.39010835
000020 8b a6 94 be a1 7f 53 be 35 57 60 3e 82 9f 8d bd
       -0.29033312 -0.20654155 0.21908267 -0.06915189
000030 9d bd 8e bc 39 a5 86 3e 23 c3 77 be 3c eb 92 be
       -0.017424399 0.2629793 -0.24195533 -0.28695095
000040 67 fb cd bb b6 7b f0 be 26 78 c3 bd 38 51 1c be
       -0.006286073 -0.46969384 -0.09544401 -0.15265357
000050 b0 c8 9a bc 56 6d a9 bd dc 1a 81 3b d0 4b 8e bd
       -0.018894523 -0.08272807 0.0039399695 -0.06948054
000060 55 5b 57 3e 2d 3d 8b be a0 f4 a0 be 83 44 d1 bc
       0.21030934 -0.2719511 -0.31436634 -0.025545364
000070 2f 91 be bd 70 0f 99 3e 23 6d c2 3d 63 37 0b 3d
       -0.09305035 0.2989459 0.094934724 0.033988368
000080 5d 29 a3 bb 54 81 ac 3d 53 71 bd bd 27 e2 21 3e
       -0.004979296 0.08423105 -0.092501305 0.15808927
000090 f1 3a 73 be 1b c2 68 3e 1d 9c 14 3e ae 8b 26 3e
       -0.23752953 0.22730295 0.14512677 0.16264221
0000a0 7e f3 95 bd 39 10 75 3e 76 ad 0e bb 1f c6 80 be
       -0.07321833 0.2393197 -0.0021770871 -0.25151154
0000b0 e7 4a 9d bd c8 9f 8f 3e 43 19 10 be 4a 43 e3 3d
       -0.07680302 0.2805159 -0.14072137 0.11096819
0000c0 14 f0 5c 3e aa d6 2f be ae d9 9a be 18 26 8a be
       0.21575958 -0.17171732 -0.302442 -0.26982188
0000d0 40 36 09 3e 70 ee b9 3c 3f a3 39 3e ec d8 a2 bc
       0.13399601 0.022696704 0.1812868 -0.019878827
0000e0 ed 89 80 bd 81 b7 63 3e 21 d1 95 3d f3 e2 32 be
       -0.06276307 0.2223797 0.07315279 -0.17469387
0000f0 5c af ab bd f3 90 eb 3c db 24 e8 3d a3 77 6f 3d
       -0.083830565 0.02875564 0.113351546 0.058463704
000100 db dd 0d be d4 e7 85 3e 68 b9 6c 3d 35 38 a7 3d
       -0.13854162 0.26153433 0.057794005 0.081650175
000110 c4 96 13 3d 21 cb 2f 3e 43 1c bb 3d e2 e0 1e bd
       0.036032453 0.17167331 0.0913625 -0.038788684
000120 57 1e bd bd d7 e1 59 be 12 aa 3c bd 84 54 f9 bc
       -0.092343025 -0.21277557 -0.04606063 -0.030435808
000130 8d b1 59 be 65 3c 12 3d 0e 2b 49 3e e7 79 63 be
       -0.21259136 0.035702128 0.1964533 -0.22214471
000140 e6 ac 87 be 65 6c 16 3d f8 90 b7 bd 74 f6 c1 bd
       -0.264991 0.036724467 -0.089631975 -0.09470835
000150 99 c4 62 be c9 f1 2e 3e ab 27 49 be 30 ab 2c 3c
       -0.22145309 0.17084421 -0.19644038 0.010538861
000160 3c a6 47 3e 42 7d aa 3e 66 92 39 3e 5f 00 2d 3e
       0.19497007 0.3329869 0.18122253 0.16894673
000170 c3 90 66 3e 89 76 a1 3d 00 54 f2 bb 2f ef 44 bd
       0.2251616 0.07883937 -0.0073952675 -0.048079666
000180 69 e3 8e 3e 65 d2 c3 bc 00 ba c3 bd 8d 4f 24 3e
       0.27907875 -0.023904035 -0.09556961 0.16045971
000190 af 4e 54 be db d0 26 be 5a 58 40 bd 4b 72 bc 3d
       -0.2073314 -0.1629061 -0.04695926 0.09201487
0001a0 af 04 00 3d 59 15 23 be 1b 2b 15 be 93 32 4a 3e
       0.031254467 -0.15926112 -0.14567225 0.19745855
0001b0 4e 83 a1 3d 66 e7 0f 3e 9e c6 30 3e ed 4f d1 3d
       0.078863725 0.14053115 0.17263266 0.10220323
0001c0 94 34 5c bc 09 e2 a0 bd ab 89 03 be 7c 2d 07 be
       -0.01344027 -0.07855613 -0.12845485 -0.13200945
0001d0 78 44 67 3e ef 04 22 be d6 f0 0f be 83 61 d8 bd
       0.22584713 -0.15822195 -0.14056715 -0.10565474
0001e0 d8 36 8e 3e 1f c0 4a be 06 f2 b4 3d 63 db 6f be
       0.27776217 -0.19799851 0.08835225 -0.23423533
0001f0 80 e3 f5 bd 5b dc ad bd a9 e9 fb 3c 4e f8 64 be
       -0.12006283 -0.08489295 0.030751066 -0.22360346
000200 53 8f b7 bc 4d 4e 29 3e d3 d9 72 be 45 0b b0 3d
       -0.02240721 0.16533776 -0.23715906 0.085958995
000210 da 3e c9 3d 08 9b 45 3e 13 5c 46 be 00 35 2b 3e
       0.09826441 0.19297421 -0.19371061 0.16719437
000220 ce 9d 86 3e 2a ab 0c 3e 17 3c 87 be 33 78 96 3e
       0.2629227 0.13737169 -0.26413032 0.2938858
000230 1c 0b 2a 3e 38 1d 2a be b4 a3 47 be f2 d2 3d bb
       0.166058 -0.16612709 -0.19496042 -0.0028964845
000240 69 1d 06 bd 5a 86 94 3d e8 10 ed 3c fd 6c 0f 3e
       -0.03274289 0.07252188 0.028938726 0.1400642
000250 c5 d6 ec bd c2 a7 6a 3d 8a b6 34 3e b0 4a 00 be
       -0.115644015 0.057288893 0.17647758 -0.12528491
000260 80 76 e2 3d 69 d6 1c 3e b2 4f c5 bd d9 b9 86 3e
       0.11057758 0.15316166 -0.09634341 0.26313666
000270 32 4b 30 3e fb 7e 5d bd d6 01 4c bd 01 8b a9 bd
       0.17216185 -0.054076176 -0.04980644 -0.08278466
000280 bf df 1b be 76 3f d5 bd b6 98 75 3d 28 26 1c be
       -0.15222071 -0.10412495 0.05996009 -0.1524893
000290 4e 0d 50 3e 20 7d cf bc 00 73 62 be 62 7a 36 bd
       0.20317575 -0.025328219 -0.22114182 -0.044550307
0002a0 4c 59 21 3d 58 8d a7 bd 43 5a 1c 3d 4f fd 4e 3d
       0.0393918 -0.08181256 0.038172018 0.050534543
0002b0 76 20 de 3d d1 c8 5f be 78 da 8d 3d 8c 36 05 be
       0.10846035 -0.21853949 0.06926435 -0.13009089
0002c0 14 43 33 3e 7b 65 7d 3b f5 a1 b6 be c1 33 8c 3e
       0.17506057 0.0038665223 -0.35670438 0.27383235
0002d0 af 8f 71 bc 18 97 0c bd 43 90 b3 bc b5 5d 0a 3e
       -0.0147437295 -0.03432378 -0.021919375 0.13512309
0002e0 4e cf 2c 3e fc 7c 50 bd dc d3 89 3d 28 63 26 3d
       0.16875955 -0.050900444 0.06729862 0.040621907
0002f0 0d 65 26 3b 3f 37 f2 3d 6d 99 ff bd d6 53 ea 3c
       0.002538982 0.118269436 -0.124804355 0.02860443
000300 0c 7b c1 be 82 99 b7 bd ac 3d f3 bd 21 b5 6f 3e
       -0.3778919 -0.08964826 -0.11876997 0.23408939
000310 a0 ce 29 be bd 11 f6 bd fd 64 7f be 52 0e fd bd
       -0.16582727 -0.12015102 -0.24940868 -0.12356247
000320 6f 09 04 3e da 7a 9f be 51 08 f8 3d d8 81 d3 be
       0.12894224 -0.31148416 0.12110961 -0.4131
000330 14 14 82 3e 6e 34 06 be 68 57 f6 bc c7 d1 2f be
       0.25405943 -0.13105938 -0.030070975 -0.17169867
000340 0b 45 30 be c7 ab d7 bd 1c d5 6f be 86 fa af bd
       -0.17213838 -0.10530811 -0.23421139 -0.085927054
000350 a3 39 48 3e 04 6f 95 3d 7f ca 63 3e 3f 35 ca bd
       0.19553237 0.07296565 0.22245215 -0.09873437
000360 06 9b 18 be 48 3e 74 be 0c 3b a9 be 9c 94 64 3e
       -0.14902887 -0.23851883 -0.33052862 0.22322315
000370 29 f2 79 3e a1 0f 49 bc 5b c5 39 be dc ba 49 be
       0.24408783 -0.012271793 -0.18141691 -0.19700187
000380 22 70 99 bd e4 e2 8b 3d 55 a7 9c 3e 0e 62 13 3e
       -0.07492091 0.06830385 0.30596414 0.14392874
000390 a2 ed 95 3e 4a 01 7a 3e f0 8e d3 bd cd 04 88 bd
       0.29282862 0.24414554 -0.103299975 -0.06641541
0003a0 e3 f0 e9 bc 52 66 c3 bc b8 1d 41 3d b2 8e 93 bd
       -0.028557247 -0.023852501 0.047147483 -0.07204951
0003b0 45 fe 77 3d e4 d2 b3 3d 77 c3 f4 bd 4a 4f f3 bc
       0.060545225 0.087804586 -0.119513445 -0.029700894
0003c0 46 60 80 bd 85 70 40 3e 10 1c 99 bd 33 e2 3a be
       -0.06268363 0.18792923 -0.074760556 -0.1825035
0003d0 7b c3 7c 3e 92 88 89 bc 2b 75 1e be 75 9e b3 bd
       0.24683945 -0.016788755 -0.15474384 -0.08770458
0003e0 8b 83 18 bd e6 3e 76 be 32 44 15 3e e1 54 11 3e
       -0.037234824 -0.24047431 0.14576796 0.14192535
0003f0 bf 11 8b bd b6 29 cc 3d 04 27 3a 3e d4 ac 77 3d
       -0.06790494 0.09968893 0.18178946 0.060467556

transformer.encoder.layers.0.self_attn.out_proj.bias f4 [32]
000000 b9 37 f7 bc a1 b3 3f be 5e 9f dd bd de 94 e7 bc
       -0.030177938 -0.18720867 -0.108214125 -0.028269228
000010 29 0a 50 3e 94 72 91 bd 37 d9 0f 3d a8 c5 3e 3e
       0.20316376 -0.07101932 0.03511926 0.18630087
000020 95 ce c0 3e 5d 48 d0 bd e0 08 b9 3c 76 be f1 bc
       0.3765761 -0.10170052 0.02258724 -0.029509764
000030 3b 02 87 bd ec c3 28 be bd 00 17 bd 52 b2 07 3e
       -0.06592222 -0.16480988 -0.03686594 0.13251618
000040 f3 31 1f 3e 46 17 7f be 28 df ca 3c 05 8e 09 3e
       0.15546398 -0.24911222 0.024764612 0.13433082
000050 83 f2 fb bc b9 05 56 be 8e c2 e1 3d 72 11 02 3d
       -0.030755287 -0.2090062 0.110234365 0.03175492
000060 05 51 ae bc 38 1b 68 3d 61 b7 0c be 7f e3 59 3d
       -0.021278867 0.056666583 -0.13741829 0.053195473
000070 a3 6a 56 3d 41 c9 9a 3d 12 39 68 bd 95 e3 cc bb
       0.05234779 0.075579174 -0.05669505 -0.006252716
