GRU_1000epochs_firstAndLast10Examples.pth (torch, 72933 bytes, 12 tensors)

encoder.embedding.weight f4 [47, 32]
0.33751917 0.3206182 -0.90444386 1.6656493 -0.49573982 -1.1673439 0.83549976 0.42088372
0.34645826 0.0006659429 1.2237297 -0.14004372 -0.48636144 -0.47946244 1.2385957 0.35729527
0.10714082 -0.72189486 -1.0050676 -0.2248935 0.9100001 -1.7350831 1.1647091 1.6415247
1.001157 -1.179964 -0.40532082 0.7779362 0.63379645 -0.66698855 0.19738916 -1.0127696
0.8032482 0.50803626 -2.8551567 -2.747251 0.75741255 1.0603226 -0.9121229 0.33417618
1.6783024 -1.0229496 -1.3945593 0.97081786 0.61979204 0.57915914 2.464144 0.2580929
1.0146363 -2.4895508 2.011623 -0.24465097 0.70707196 0.30369923 -0.3206357 0.11382504
-1.1413904 -0.8815548 0.48682436 -0.39341235 -0.782334 -1.4510111 0.9899162 -1.498726
1.4393765 -0.93929344 -0.1319011 1.1615676 0.98645633 0.0071890457 0.4494701 1.7073587
-0.0037472178 -0.6176647 -1.3329811 -1.2897617 1.6513339 0.8719389 0.6700835 -1.4351295
0.86750937 0.5784385 -1.2815286 0.89132285 -0.063127175 0.12146208 0.5777702 0.07246523
0.75971156 0.69540316 0.028485203 -0.6398902 0.2786275 0.51895744 -0.075327896 1.5148839
1.4570906 0.69879633 -0.26725346 -0.75129855 -1.550057 0.61524475 1.5179518 -0.30655733
-1.6279452 -0.24365352 -0.5474898 0.8209741 -0.453551 0.05709896 -0.57149106 -0.1662858
-0.4926477 0.28048518 -1.1032757 1.2241198 -0.816445 0.78330356 -0.5424918 -0.810021
0.87547976 -0.71780485 -1.2459724 -0.6423225 0.69813037 -0.34812623 0.79869765 -0.3747733
-0.65843046 0.4556452 -0.5195408 1.1119566 -1.5654321 0.7960393 -0.73465574 -0.33800012
-0.7385501 -0.33555222 0.39344323 -0.26540753 -0.99284637 -0.18314491 -0.6110345 -0.93847716
0.5274066 -0.1684824 0.031624317 0.1410796 1.1871936 -0.18573914 -0.21426281 -0.09089895
-0.9343877 -0.80906785 0.727677 0.50409764 1.1402862 -0.58841383 -1.6623939 -0.4552471
0.28863633 0.09030238 0.7416019 0.3376421 0.31547248 -0.13978358 -0.5803348 0.15574075
-0.6087355 -0.8415236 1.463689 -0.6814906 -0.513339 0.31637055 0.69242096 0.027810352
-0.39708984 -1.9238535 1.3554133 -2.3931334 -0.2845673 -0.5722451 -2.1424246 -0.26910973
-0.50108814 0.3878907 -0.558073 -1.1824161 1.1460545 -1.315876 -0.6768113 1.3727095
-1.693821 0.5158932 2.0013244 -0.3017018 0.5326469 0.56637573 1.3607785 1.9949526
0.6324271 0.9939391 0.7768528 -0.066466674 0.08861536 0.12863833 0.07817355 -0.0389847
-0.15726027 0.8382389 -2.0640223 1.7344335 -1.1654054 -0.27654526 -1.3009356 -1.1422672
-0.26387808 -0.5190096 0.79342884 1.1083672 2.0457487 0.24117267 -1.1805956 -0.8053159
0.93556577 -0.359955 -0.18094794 -1.1654773 0.44838488 -0.6328114 0.38996255 -0.14976075
1.0207227 -0.99386716 -0.3739288 1.3473384 0.6369475 1.1170548 0.7565069 0.25470063
0.6928545 -0.57812893 -0.6069074 -1.2684692 0.8405824 -1.3139874 1.2627486 -1.4527453
-0.920356 1.5565735 -0.015435712 1.3103827 -0.082587875 -0.58620596 -0.18479028 0.41604552
00000000: 50cf ac3e 1228 a43e a289 67bf ff33 d53f
00000010: 9cd1 fdbe 866b 95bf 50e3 553f 127e d73e
00000020: fa62 b13e ac92 2e3a 2da3 9c3f 9f67 0fbe
00000030: 5e04 f9be 1a7c f5be 4e8a 9e3f 68ef b63e
00000040: a56c db3d 1ace 38bf 0ea6 80bf 7b4a 66be
00000050: c4f5 683f 3417 debf 3015 953f 7b1d d23f
00000060: ea25 803f 0f09 97bf 3686 cfbe d426 473f
00000070: 7c40 223f c3bf 2abf 6220 4a3e 6fa2 81bf
00000080: ada1 4d3f aa0e 023f e3ba 36c0 f6d2 2fc0
00000090: cae5 413f a7b8 873f e380 69bf 2419 ab3e
000000a0: 9dd2 d63f 03f0 82bf eb80 b2bf 8587 783f
000000b0: b1aa 1e3f c643 143f 89b4 1d40 c124 843e
000000c0: 9adf 813f cd54 1fc0 6ebe 0040 c985 7abe
000000d0: ab02 353f 777e 9b3e 5d2a a4be 1a1d e93d
000000e0: 1519 92bf 93ad 61bf 0b41 f93e 586d c9be
000000f0: 0b47 48bf bbba b9bf 266b 7d3f 41d6 bfbf
00000100: 7d3d b83f 8975 70bf 1511 07be 3fae 943f
00000110: 6788 7c3f 1692 eb3b f220 e63e bb8a da3f
00000120: e293 75bb 461f 1ebf 209f aabf e916 a5bf
00000130: e95e d33f 6337 5f3f 988a 2b3f 53b2 b7bf
00000140: 1815 5e3f 8c14 143f 2109 a4bf bc2d 643f
00000150: d248 81bd 1cc1 f83d bfe8 133f a768 943d
00000160: 757c 423f f105 323f cd59 e93c d8cf 23bf
00000170: 44a8 8e3e 65da 043f 8345 9abd b7e7 c13f
00000180: f281 ba3f 51e4 323f 72d5 88be 1a55 40bf
00000190: 4568 c6bf ae80 1d3f 3f4c c23f 15f5 9cbe
000001a0: 8260 d0bf 4f80 79be 4b28 0cbf 5c2b 523f
000001b0: d637 e8be 99e0 693d 3d4d 12bf d346 2abe
000001c0: 523c fcbe c19b 8f3e 2338 8dbf f5af 9c3f
000001d0: 8a02 51bf 9586 483f bee0 0abf 895d 4fbf
000001e0: 711f 603f 0fc2 37bf 067c 9fbf 3f6f 24bf
000001f0: acb8 323f 9a3d b2be 7377 4c3f 49e2 bfbe
00000200: e68e 28bf 544a e93e a000 05bf 9854 8e3f
00000210: 1460 c8bf 3bc9 4b3f 6612 3cbf 5a0e adbe
00000220: 9f11 3dbf 80cd abbe 6471 c93e 7fe3 87be
00000230: 2e2b 7ebf 578a 3bbe c26c 1cbf 0a40 70bf
00000240: 1e04 073f a686 2cbe 8088 013d 2c77 103e
00000250: f6f5 973f 6732 3ebe b667 5bbe 3b29 babd
00000260: 0834 6fbf 121f 4fbf 0a49 3a3f 8b0c 013f
00000270: e6f4 913f 4aa2 16bf 53c9 d4bf 2616 e9be
00000280: 24c8 933e 74f0 b83d 9fd9 3d3f 6ddf ac3e
00000290: 9c85 a13e 6d23 0fbe d290 14bf 817a 1f3e
000002a0: 17d6 1bbf 176e 57bf 295a bb3f 2b76 2ebf
000002b0: 2f6a 03bf 52fb a13e 8042 313f 89d2 e33c
000002c0: 5c4f cbbe d540 f6bf 2f7e ad3f 1929 19c0
000002d0: ceb2 91be a87e 12bf 7c1d 09c0 c0c8 89be
000002e0: 5047 00bf 9c99 c63e dfdd 0ebf 6959 97bf
000002f0: eab1 923f a06e a8bf 8143 2dbf f2b4 af3f
00000300: 20cf d8bf 9411 043f b315 0040 a978 9abe
00000310: 8c5b 083f 00fe 103f fd2d ae3f 9b5a ff3f
00000320: bee6 213f cb72 7e3f d3df 463f ae1f 88bd
00000330: f87b b53d c4b9 033e 7419 a03d 6cae 1fbd
00000340: d608 21be d396 563f f118 04c0 eb01 de3f
00000350: 012c 95bf 5797 8dbe 0f85 a6bf d035 92bf
00000360: 071b 87be d0dd 04bf 271e 4b3f fade 8d3f
00000370: 8ced 0240 f8f5 763e c21d 97bf 2f29 4ebf
00000380: 3d81 6f3f 064c b8be 6b4a 39be 5c2e 95bf
00000390: b492 e53e eeff 21bf 2ca9 c73e e25a 19be
000003a0: 0ba7 823f 146e 7ebf 9873 bfbe 9675 ac3f
000003b0: fe0e 233f a7fb 8e3f 70aa 413f 1f68 823e
000003c0: ea5e 313f 4200 14bf 495e 1bbf 335d a2bf
000003d0: 6830 573f bd30 a8bf bfa1 a13f 8ff3 b9bf
000003e0: 739c 6bbf cd3d c73f 12e6 7cbc 9fba a73f
000003f0: d523 a9bd 9811 16bf aa39 3dbe eb03 d53e

encoder.gru.weight_ih_l0 f4 [96, 32]
0.12905774 -0.18855864 -0.23473409 0.052697536 -0.13103008 -0.05067891 0.17370282 -0.052303076
0.27997568 0.041831303 -0.18689796 0.11022711 0.039447404 -0.102188945 0.040099856 -0.16019519
-0.36008972 -0.26284176 -0.054577496 0.10348889 0.38817757 -0.24196687 -0.03799081 0.025187962
0.029485092 0.0035244909 -0.22536515 -0.0041582435 0.23044729 0.12883596 -0.062947154 -0.24256258
-0.02686587 -0.15199383 0.25371796 0.2733316 -0.077064015 -0.049300525 0.09775713 -0.18622546
0.024610508 0.14470008 0.017173275 -0.2137821 -0.13246764 -0.14729513 0.1336236 -0.2240956
-0.11802405 -0.25880408 0.053064954 0.20663375 0.43050036 -0.3919562 -0.35953748 0.12331905
0.04469879 -0.08408113 0.1147727 0.00860102 0.30279368 -0.3023018 0.030090585 -0.08788948
-0.27598065 -0.10683008 -0.20059846 -0.41699496 0.3736134 -0.16637234 -0.22211915 0.23126437
-0.08561202 0.03963148 -0.0062770857 -0.030211683 0.0925181 -0.27272832 -0.13310081 0.26617053
-0.0053263213 -0.44993013 0.28053555 -0.19661981 -0.40451637 -0.053364165 -0.0033068534 0.046542164
-0.39796495 -0.20566246 -0.26391667 -0.21504867 -0.15397722 0.00393727 0.033342116 0.32896292
-0.40643406 -0.48708144 0.12477486 -0.088403784 0.19633736 -0.2170234 -0.08963123 0.26238483
-0.020212915 -0.1751705 0.116346195 0.079602435 -0.06770991 -0.39367265 -0.21499139 0.015876072
-0.34616077 -0.22744687 0.29514447 0.077109545 -0.40310824 0.26992208 -0.11863051 0.32748246
0.0703385 0.3025676 -0.12222948 0.0059463815 -0.08482263 0.24757558 0.11600952 -0.07462011
-0.10872697 0.04021108 -0.19447261 0.12359603 -0.25047812 -0.18713799 0.19881631 0.08836606
0.0050373287 0.03592518 -0.05536462 -0.110696234 0.15616512 -0.07213609 0.2581777 0.25887585
-0.15597834 -0.16805896 -0.11899446 0.027600665 0.16981018 -0.25738412 0.2488923 0.0207328
0.09230139 -0.048857264 -0.13393965 0.03498855 0.19393927 0.014987264 -0.11371399 -0.043966446
0.07802718 -0.052232917 0.14826521 0.046746626 -0.108782 -0.02610132 0.062000718 0.2536864
-0.024815887 0.09669538 0.2462266 0.07074919 -0.038858496 -0.12491595 0.14562805 0.1814806
-0.10307683 -0.20094836 -0.32314003 -0.36182407 -0.24308357 -0.3087262 -0.053783562 0.34247023
-0.1402915 -0.032666624 -0.18371658 -0.053224005 -0.11067682 -0.10458623 0.18362813 0.1916063
-0.17833966 -0.13440572 -0.36864296 -0.00444278 0.060005065 -0.09437816 0.17454295 0.14402606
-0.26938212 0.100383565 0.2838628 0.15070713 0.06578326 0.21559735 0.052379217 0.0965434
-0.17557377 -0.3187522 0.32376993 0.041410185 -0.005612389 -0.24728356 0.09588487 0.27614242
-0.17031658 -0.25984272 0.045303866 0.061950486 0.101215 -0.20831935 -0.132326 -0.42214295
-0.048066374 -0.10303053 -0.046221144 0.23067003 -0.2306725 -0.034049686 -0.0038955489 -0.11922076
0.22115761 -0.056134332 0.042563744 -0.01215281 -0.041723307 -0.13234515 0.081647545 -0.17849962
-0.16843945 0.06827367 -0.19260365 -0.0034331144 0.14762798 -0.12608336 -0.30178297 0.2751891
-0.27743825 0.114624195 -0.26128706 0.1336954 0.19424994 0.35924086 0.20610088 0.0024963827
00000000: b627 043e 8415 41be 225e 70be 5fd9 573d
00000010: c02c 06be b094 4fbd 27df 313e c03b 56bd
00000020: f958 8f3e 4d57 2b3d 2e62 3fbe c0be e13d
00000030: 9a93 213d 7048 d1bd bf3f 243d 350a 24be
00000040: ae5d b8be 3293 86be a78c 5fbd fcf1 d33d
00000050: 36bf c63e 2ac6 77be 409c 1bbd fc56 ce3c
00000060: b88a f13c 25fb 663b 1fc6 66be e041 88bb
00000070: 60fa 6b3e 93ed 033e 70ea 80bd 5362 78be
00000080: d015 dcbc 45a4 1bbe 52e7 813e 1ff2 8b3e
00000090: bdd3 9dbd 59ef 49bd e434 c83d e3b1 3ebe
000000a0: fa9b c93c 422c 143e f8ae 8c3c b2e9 5abe
000000b0: 99a5 07be 89d4 16be a0d4 083e 5179 65be
000000c0: 98b6 f1bd f881 84be a35a 593d cc97 533e
000000d0: 8b6a dc3e 7cae c8be 4c15 b8be b38e fc3d
000000e0: 1416 373d ba32 acbd f30d eb3d 4beb 0c3c
000000f0: c607 9b3e 4dc7 9abe 8880 f63c 66ff b3bd
00000100: 564d 8dbe bbc9 dabd af69 4dbe 5d80 d5be
00000110: 414a bf3e 835d 2abe 3473 63be 91d0 6c3e
00000120: 5b55 afbd 9e54 223d 03b0 cdbb 7e7e f7bc
00000130: 217a bd3d 0ca3 8bbe 944b 08be 8147 883e
00000140: 6c88 aebb 3e5d e6be 5ba2 8f3e b456 49be
00000150: c51c cfbe 6294 5abd cbb7 58bb ffa2 3e3d
00000160: 10c2 cbbe 2e99 52be 1620 87be b835 5cbe
00000170: 34ac 1dbe 3704 813b be91 083d d46d a83e
00000180: 2018 d0be bd62 f9be f689 ff3d 0b0d b5bd
00000190: a90c 493e 623b 5ebe 9490 b7bd 4e57 863e
000001a0: 8e95 a5bc e55f 33be ea46 ee3d 9a06 a33d
000001b0: 7eab 8abd 768f c9be b426 5cbe 890e 823c
000001c0: fc3b b1be d5e7 68be 2d1d 973e 9ceb 9d3d
000001d0: 3464 cebe 3a33 8a3e 8ef4 f2bd c8ab a73e
000001e0: a20d 903d 24ea 9a3e 7353 fabd ddd9 c23b
000001f0: 7db7 adbd 7484 7d3e 6696 ed3d 6ed2 98bd
00000200: 3fac debd 60b4 243d d423 47be ea1f fd3d
00000210: ab3e 80be 1aa1 3fbe 8196 4b3e 44f9 b43d
00000220: 2d10 a53b 4826 133d 03c6 62bd b5b4 e2bd
00000230: c0e9 1f3e 16bc 93bd de2f 843e 608b 843e
00000240: c9b8 1fbe a617 2cbe 5eb3 f3bd ca1a e23c
00000250: b8e2 2d3e dac7 83be a0dd 7e3e d5d7 a93c
00000260: 8308 bd3d 8e1e 48bd 7a27 09be 2750 0f3d
00000270: 0498 463e 248d 753c e1e2 e8bd 2916 34bd
00000280: b7cc 9f3d 2ff2 55bd d6d2 173e 6479 3f3d
00000290: 19c9 debd 6fd2 d5bc 77f4 7d3d 2fe3 813e
000002a0: b04a cbbc 3a08 c63d d322 7c3e f4e4 903d
000002b0: 162a 1fbd efd3 ffbd 851f 153e 0dd6 393e
000002c0: f219 d3bd 68c5 4dbe 9c72 a5be 0141 b9be
000002d0: e6ea 78be 5c11 9ebe 274c 5cbd 4258 af3e
000002e0: 93a8 0fbe 70cd 05bd 3320 3cbe 6a01 5abd
000002f0: 87aa e2bd 4e31 d6bd 0309 3c3e 7134 443e
00000300: ac9e 36be a7a1 09be c5be bcbe bd94 91bb
00000310: dfc7 753d 5649 c1bd 63bb 323e 917b 133e
00000320: 74ec 89be e695 cd3d 7756 913e f852 1a3e
00000330: 60b9 863d 8dc5 5c3e 978b 563d 8cb8 c53d
00000340: 9cc9 33be 7d33 a3be 2cc5 a53e ba9d 293d
00000350: 22e8 b7bb e737 7dbe 495f c43d 8a62 8d3e
00000360: 7867 2ebe 1b0a 85be 8c90 393d cbbf 7d3d
00000370: cf49 cf3d ab51 55be 7880 07be 1f23 d8be
00000380: 3fe1 44bd ac01 d3bd 6252 3dbd c434 6c3e
00000390: 6935 6cbe af77 0bbd 774c 7fbb 042a f4bd
000003a0: 2477 623e 1ded 65bd 5257 2e3d 941c 47bc
000003b0: 0fe6 2abd 7d85 07be d436 a73d 9bc8 36be
000003c0: 647b 2cbe 11d3 8b3d e439 45be 1afe 60bb
000003d0: ca2b 173e ff1b 01be 4c83 9abe 96e5 8c3e
000003e0: 630c 8ebe 17c0 ea3d 6bc7 85be 72e7 083e
000003f0: 75e9 463e 6bee b73e 1c0c 533e 5a9a 233b

encoder.gru.weight_hh_l0 f4 [96, 32]
-0.03307021 -0.058377974 0.0362325 -0.2822053 0.17146648 -0.006078798 0.0941604 0.0607683
0.10395801 0.17509453 0.10160443 -0.14951763 -0.105814315 -0.05891554 -0.266611 0.17561488
-0.2070424 -0.0839632 -0.15988775 -0.08841201 0.123292424 -0.18536612 0.20418715 0.29446295
0.10441505 0.14743061 0.050929267 -0.0024918967 -0.12574275 -0.04943857 0.041956812 -0.16307007
-0.27659822 0.050925385 0.07678305 0.13659064 0.19948742 -0.0857287 0.18760079 0.31679344
-0.027082182 -0.026956303 0.010026385 -0.17310528 0.01749079 0.060587488 -0.2012794 0.0716445
-0.07882337 -0.049896937 -0.329909 -0.01245131 -0.07512314 -0.15142761 0.099834524 0.30973902
-0.14307542 0.033040114 0.25428545 0.30976197 0.05348287 -0.05638491 0.12086973 0.18160197
0.06931019 0.01416178 -0.111966565 -0.0011801535 -0.096404664 -0.18969305 -0.04959075 -0.058179583
0.17419836 0.07690938 0.060382284 0.09134442 0.07875318 -0.030343642 -0.13716863 0.16371034
-0.20546697 -0.12621893 -0.08630901 0.0330442 -0.13017619 -0.0082938485 -0.06605487 0.13142443
-0.11170272 -0.2938001 -0.1461176 -0.09501495 0.20773576 -0.04571898 -0.06833994 0.13758826
0.04051175 -0.16654474 0.0005519048 0.091784306 0.01387223 -0.225308 0.050132502 -0.031950433
-0.24825406 -0.030986898 -0.12314135 0.034268003 0.02999735 -0.083504684 0.017046543 -0.04257669
-0.1697563 -0.10202093 -0.10037568 -0.15074936 0.07136357 -0.15424812 0.19782253 0.1302825
-0.25131676 -0.0313271 -0.16465311 0.06022042 -0.12003883 0.04614023 -0.2220938 0.020860039
-0.045897532 -0.07935379 0.15572935 0.27045837 -0.007833781 -0.23158646 0.34720293 -0.18457197
0.05173875 0.32422444 -0.11182998 -0.1070795 -0.25448942 -0.123993166 0.07647704 0.05506249
-0.02198717 0.022647759 -0.041104194 -0.29779658 -0.12720881 -0.056945227 0.25538757 0.026555998
-0.12826604 -0.0050720703 0.0005624361 0.15595531 0.027944656 -0.03287263 0.0021191386 -0.097618274
-0.0055487608 -0.18233214 -0.049925093 -0.027913455 0.055175062 -0.193436 0.24894033 -0.06814411
-0.049565334 0.12247625 -0.20207036 -0.11754916 -0.24267927 0.032427482 -0.07867321 0.14726238
-0.0029256216 0.22847933 -0.038099125 -0.1217974 0.051208094 -0.16707958 0.19123541 0.14778487
-0.11806311 -0.018242123 0.0929462 0.15138291 -0.18080588 0.08487926 0.26082215 -0.2496916
-0.00017387245 0.05003997 0.15087007 -0.030186025 0.06747068 0.008126696 -0.028990699 0.0279808
-0.15410243 0.28806287 0.0525176 0.066395015 -0.30362102 -0.08812897 -0.31202808 0.011601036
-0.0030236559 -0.09076142 -0.16230609 -0.27605635 -0.17126414 0.072062045 0.24599214 -0.03242639
-0.105844475 0.111544065 0.10034018 0.030603778 -0.1847021 0.058072355 -0.09667715 -0.25430202
0.1648152 0.021095939 0.03597834 -0.27091318 -0.021897469 -0.26488048 0.350468 0.13837337
-0.2992402 0.076320335 -0.12889269 -0.21793036 -0.11330933 -0.28117186 -0.21443768 0.37745863
0.096089065 0.05488252 -0.04998779 -0.068946965 -0.34275302 -0.2523254 0.08726867 0.035812393
-0.28181714 0.03349388 -0.0072155334 0.27606127 -0.005548847 0.3694236 0.14583263 -0.0729982
00000000: a174 07bd be1d 6fbd 8868 143d 377d 90be
00000010: e994 2f3e a730 c7bb 2bd7 c03d 2ee8 783d
00000020: f0e7 d43d fb4b 333e fc15 d03d 261b 19be
00000030: 2db5 d8bd 6c51 71bd 3d81 88be 63d4 333e
00000040: ec02 54be e6f4 abbd 9db9 23be 5b11 b5bd
00000050: bd80 fc3d 9ed0 3dbe 7016 513e d9c3 963e
00000060: 8fd7 d53d 0df8 163e 359b 503d 174f 23bb
00000070: b5c2 00be 1980 4abd e8da 2b3d d7fb 26be
00000080: 489e 8dbe 2397 503d 6f40 9d3d 6bde 0b3e
00000090: 6e46 4c3e 8792 afbd 6c1a 403e c032 a23e
000000a0: 74db ddbc 77d3 dcbc b545 243c 8342 31be
000000b0: d848 8f3c 962a 783d 301c 4ebe 5aba 923d
000000c0: 266e a1bd bb60 4cbd d5e9 a8be 9400 4cbc
000000d0: 29da 99bd d70f 1bbe 0b76 cc3d 1d96 9e3e
000000e0: 5d82 12be 1255 073d b431 823e 1f99 9e3e
000000f0: db10 5b3d ddf3 66bd 8d8a f73d def5 393e
00000100: 80f2 8d3d cf06 683c ba4e e5bd 61af 9aba
00000110: cf6f c5bd e53e 42be ac1f 4bbd b74d 6ebd
00000120: 0e61 323e aa82 9d3d 6a53 773d c912 bb3d
00000130: 5949 a13d 3b93 f8bc ef75 0cbe afa3 273e
00000140: ef65 52be 893f 01be c7c2 b0bd 5b59 073d
00000150: e84c 05be ece2 07bc c747 87bd 2094 063e
00000160: 65c4 e4bd f76c 96be da9f 15be 3397 c2bd
00000170: afb8 543e d343 3bbd cff5 8bbd f0e3 0c3e
00000180: a6ef 253d b48a 2abe b4ad 103a 69f9 bb3d
00000190: 5a48 633c 24b7 66be bd57 4d3d 75de 02bd
000001a0: 5036 7ebe 3cd8 fdbc 8831 fcbd 9b5c 0c3d
000001b0: 01bd f53c 8104 abbd 31a5 8b3c e564 2ebd
000001c0: 98d4 2dbe 59f0 d0bd c491 cdbd 0a5e 1abe
000001d0: 1027 923d 38f3 1dbe fd91 4a3e c768 053e
000001e0: 97ac 80be d850 00bd d39a 28be b0a9 763d
000001f0: ebd6 f5bd 8afd 3c3d 8f6c 63be ace2 aa3c
00000200: 0dff 3bbd 3d84 a2bd 8477 1f3e 8579 8a3e
00000210: 4259 00bc 0025 6dbe 95c4 b13e 6f00 3dbe
00000220: 03ec 533d bf00 a63e 1e07 e5bd 7f4c dbbd
00000230: 704c 82be 21f0 fdbd ff9f 9c3d 3589 613d
00000240: 701e b4bc cb87 b93c df5c 28bd cb78 98be
00000250: 0743 02be 663f 69bd 29c2 823e f78b d93c
00000260: 2c58 03be 9c33 a6bb 7370 133a c0b2 1f3e
00000270: 31ec e43c 73a5 06bd 3fe1 0a3b 17ec c7bd
00000280: 61d2 b5bb 47b5 3abe 417e 4cbd c2aa e4bc
00000290: 3fff 613d 1614 46be 37ea 7e3e 248f 8bbd
000002a0: 0505 4bbd d4d4 fa3d 88eb 4ebe 9dbd f0bd
000002b0: ea80 78be aed2 043d 6c1f a1bd f3cb 163e
000002c0: c9bb 3fbb 7cf6 693e d40d 1cbd ea70 f9bd
000002d0: 94bf 513d e916 2bbe 37d3 433e eb54 173e
000002e0: 12cb f1bd 8170 95bc 945a be3d 1f04 1b3e
000002f0: 2d25 39be 2dd5 ad3d 7b8a 853e 28af 7fbe
00000300: 8851 36b9 b6f6 4c3d af7d 1a3e af48 f7bc
00000310: 112e 8a3d d525 053c e77d edbc fe37 e53c
00000320: 07cd 1dbe fa7c 933e b21c 573d 1cfa 873d
00000330: 3774 9bbe f67c b4bd 25c2 9fbe 4612 3e3c
00000340: 8728 46bb 20e1 b9bd 9133 26be 4257 8dbe
00000350: de5f 2fbe 4495 933d 5de5 7b3e 89d1 04bd
00000360: fdc4 d8bd 3771 e43d 277f cd3d c6b4 fa3c
00000370: 8c22 3dbe 47dd 6d3d abfe c5bd e033 82be
00000380: 51c5 283e 64d1 ac3c 065e 133d 22b5 8abe
00000390: 5262 b3bc 6a9e 87be 8b70 b33e c0b1 0d3e
000003a0: 0336 99be d64d 9c3d 72fc 03be 2329 5fbe
000003b0: b90e e8bd c2f5 8fbe 8d95 5bbe 4242 c13e
000003c0: 58ca c43d 7ecc 603d ffbf 4cbd 1134 8dbd
000003d0: 537d afbe cb30 81be ebb9 b23d 04b0 123d
000003e0: 564a 90be e130 093d 4870 ecbb e757 8d3e
000003f0: 1ad3 b5bb 1725 bd3e 2655 153e 1580 95bd

encoder.gru.bias_ih_l0 f4 [96]
0.17582902 -0.04737262 0.05090482 0.008778893 0.20703502 0.2684977 0.10520242 0.32315364
-0.024151437 -0.0060746446 0.12838809 -0.01871157 0.07376354 0.060204618 -0.02350471 0.19055337
0.03958006 0.1521102 0.03362614 0.140715 0.16015449 0.18924573 0.12605125 -0.06382604
0.07200538 0.2326562 0.14860618 -0.17909479 0.062191777 0.098283194 -0.047431465 0.21965346
0.027677368 -0.25284353 -0.14034641 -0.08289449 -0.28515524 -0.16963416 -0.1698067 -0.06921253
-0.10235586 0.12924844 -0.13196172 -0.124826305 -0.18552035 -0.17432995 -0.040144444 -0.4163481
-0.11635466 -0.10785898 0.027868476 -0.08312907 -0.10441029 0.12236223 -0.018156312 -0.20303723
-0.10416562 -0.054440774 -0.030184867 -0.2652267 -0.32193106 -0.05417518 -0.048409175 -0.007484044
-0.10874626 -0.14817227 0.11178408 0.14352585 0.12601908 -0.2411046 0.16750187 -0.09232793
0.07830393 -0.069348015 -0.09664507 -0.13811706 0.05832109 0.014597302 -0.039161105 0.0419442
0.16993597 -0.07228379 0.110518865 0.032666042 -0.13575952 -0.12595573 0.05064473 -0.1587885
-0.23724678 -0.11416732 0.16204892 -0.15382175 -0.097123966 -0.14608079 0.045569517 0.06715105
00000000: 860c 343e cb09 42bd 9381 503d 59d5 0f3c
00000010: fd00 543e 8878 893e 5e74 d73d 6574 a53e
00000020: 3cd9 c5bc d00d c7bb 2b78 033e 0249 99bc
00000030: 5711 973d 1e99 763d f38c c0bc 6c20 433e
00000040: b31e 223d c7c2 1b3e 90bb 093d 9817 103e
00000050: 8aff 233e a2c9 413e 9413 013e 3ab7 82bd
00000060: 8f77 933d 6d3d 6e3e 382c 183e a064 37be
00000070: cebc 7e3d b348 c93d 7f47 42bd d6ec 603e
00000080: a6bb e23c b574 81be f8b6 0fbe 96c4 a9bd
00000090: deff 91be 94b4 2dbe cfe1 2dbe 4dbf 8dbd
000000a0: f39f d1bd b459 043e f920 07be efa4 ffbd
000000b0: 0cf9 3dbe 8d83 32be 806e 24bd 942b d5be
000000c0: 5a4b eebd 2be5 dcbd 6e4c e43c 933f aabd
000000d0: 10d5 d5bd 0d99 fa3d 8cbc 94bc fee8 4fbe
000000e0: c954 d5bd 4afd 5ebd 4146 f7bc cbcb 87be
000000f0: 26d4 a4be cbe6 5dbd b348 46bd b63c f5bb
00000100: 5cb6 debd 79ba 17be 0def e43d 71f8 123e
00000110: 250b 013e 20e4 76be 9c85 2b3e 6d16 bdbd
00000120: d05d a03d 5506 8ebd daed c5bd 8f6e 0dbe
00000130: 18e2 6e3d 8629 6f3c 6567 20bd aecd 2b3d
00000140: b203 2e3e 8609 94bd b757 e23d d4cc 053d
00000150: 8b04 0bbe 8afa 00be d970 4f3d 7499 22be
00000160: d2f0 72be 8ed0 e9bd 27f0 253e 7383 1dbe
00000170: eee8 c6bd 3496 15be 1aa7 3a3d 7d86 893d

encoder.gru.bias_hh_l0 f4 [96]
0.22656927 0.21727516 -0.107063584 -0.005373455 0.22062893 -0.010083357 -0.05362798 0.32381824
0.0004151732 0.21983443 0.089853175 0.027222592 0.19157661 -0.058314957 0.005971084 0.12996495
0.18322092 0.1781744 0.2375493 0.02190244 0.07191644 -0.080436766 -0.028931009 -0.14421155
0.22993948 -0.03024725 0.050089467 -0.08788536 -0.047282625 0.30239156 -0.046794087 -0.04572874
-0.287659 -0.28256634 -0.27329358 -0.03883229 -0.13659446 0.018351385 0.019164382 -0.35455894
-0.14450596 -0.10126803 0.028486189 0.061924 0.05278861 -0.10049456 -0.08940861 -0.18801124
-0.13562441 -0.25045425 -0.07365109 -0.16256396 -0.10149727 -0.01861459 -0.062090974 -0.26064235
-0.117747374 -0.22955911 -0.19833939 0.03134043 -0.27034315 -0.10122381 -0.13385637 -0.09757286
0.12752151 -0.19473928 0.26924133 -0.06146376 0.21769685 0.07305103 0.16713685 -0.005487121
-0.23318163 0.096831724 -0.18463588 -0.1224226 -0.23899172 -0.27745584 -0.24302173 0.05181814
-0.018916188 -0.17667244 -0.030757753 -0.18947528 -0.22519423 -0.09249661 0.17261483 0.16804476
-0.23756981 0.17033315 0.095584966 -0.07093151 -0.1400498 0.16306467 0.13886327 -0.28181887
00000000: c601 683e 617d 5e3e 2744 dbbd cf13 b0bb
00000010: 8dec 613e aa34 25bc 03a9 5bbd 81cb a53e
00000020: 9bab d939 471c 613e f104 b83d ea01 df3c
00000030: a92c 443e aadb 6ebd 15a9 c33b 8815 053e
00000040: 449e 3b3e 5a73 363e 2040 733e bf6c b33c
00000050: ed48 933d 08bc a4bd b900 edbc 31ac 13be
00000060: 4175 6b3e 15c9 f7bc 9d2a 4d3d 3dfd b3bd
00000070: 6dab 41bd 11d3 9a3e 28ab 3fbd 0f4e 3bbd
00000080: 0a48 93be 89ac 90be 23ed 8bbe 9b0e 1fbd
00000090: 6bdf 0bbe a555 963c 9ffe 9c3c c088 b5be
000000a0: 5ff9 13be 9d65 cfbd de5b e93c 05a4 7d3d
000000b0: df38 583d 18d0 cdbd dc1b b7bd 0586 40be
000000c0: 20e1 0abe 8a3b 80be 62d6 96bd 2b77 26be
000000d0: cddd cfbd a07d 98bc 1b53 7ebd ea72 85be
000000e0: 8925 f1bd 8b11 6bbe 7b19 4bbe d35e 003d
000000f0: 6b6a 8abe 6e4e cfbd a511 09be 48d4 c7bd
00000100: 0095 023e bc69 47be 00da 893e 6cc1 7bbd
00000110: eceb 5e3e c79b 953d ec25 2b3e 4fcd b3bb
00000120: 2ac7 6ebe b64f c63d 3011 3dbe b3b8 fabd
00000130: 3fba 74be b10e 8ebe b0da 78be 423f 543d
00000140: 1ff6 9abc 9fe9 34be aff7 fbbc cf05 42be
00000150: 5199 66be dd6e bdbd f1c1 303e ed13 2c3e
00000160: 8045 73be d06b 2e3e 0dc2 c33d 8a44 91bd
00000170: 3769 0fbe 6dfa 263e 2c32 0e3e 904a 90be

decoder.embedding.weight f4 [45, 32]
-0.9212455 2.0369544 -0.6062371 0.6560746 0.3221963 -1.2841282 -0.7550834 1.6488861
0.69396746 0.95882165 0.8208926 -0.18537259 1.1551342 1.0692943 0.45579785 -0.078144565
0.49405852 0.052250125 1.0403528 0.87946767 -0.8329144 1.8395376 -0.5339758 0.31204587
0.10478091 -1.145823 -0.010006534 -0.15494786 -1.4464549 1.2192175 -2.0700116 0.6723813
-0.32488665 0.529299 -0.06306523 -1.763333 0.7995181 0.6482105 1.2147725 -0.7258401
1.098625 -2.3545964 -0.7164915 0.710083 0.20181486 1.7552352 1.0821514 0.41805524
0.6572002 1.1598457 -0.034012947 -1.9749556 1.1691096 0.26773146 0.5336241 -0.117749795
-0.98084724 -0.23486112 1.5039598 1.7899694 1.5617622 0.50606114 -0.24424167 -1.7561818
-0.76005226 -0.977641 -1.269799 0.06933752 1.3014439 -0.24531011 -0.63750625 -1.3818719
-0.40097114 -0.25815156 1.5739655 1.3512561 -1.2331544 0.26769298 0.6373953 0.96452874
-0.66163266 0.3898858 0.18716657 1.2094847 -0.49608204 0.5650091 -0.87656444 1.2147876
0.07304777 0.8473469 -0.014619313 -0.4964187 -0.48116565 -0.24863864 -1.2179824 -0.43632928
0.936139 -0.094417706 -0.28310257 3.4202397 -0.7798753 -1.5447564 -0.4606605 -0.45427847
-1.9803559 0.09835737 -0.41891187 -0.80027515 -1.5602709 0.84840816 -0.75135285 1.8191922
0.8074718 1.483345 0.30372056 2.2468615 1.2180641 0.95011324 -0.6774528 2.1911597
0.36449382 2.6567268 0.30907756 0.110521644 -2.2195082 -0.5377785 -0.35795787 -0.44787198
0.5554266 -0.6669477 -0.5131325 1.651423 0.18555307 1.4159805 0.7066338 0.19619857
-0.83605444 0.6816757 -0.33714232 1.2290874 -0.5984935 1.3256863 -1.2003934 -2.225824
-1.2872671 0.31113225 0.6609128 -1.5997231 0.8859016 0.7197749 1.1230203 -0.89097863
1.2461722 1.5658225 0.4574451 -0.5819467 -0.16853371 0.23802999 0.045435943 0.05420444
-0.05703011 1.3492817 -0.18167023 0.077734806 -0.7117174 -1.5420004 0.16926336 0.2395508
-0.83975625 0.11886402 0.5839336 -0.96506023 0.09001919 -0.274596 -1.0129789 0.48283002
1.5165871 0.553962 -2.1039364 -0.17259106 0.28894922 1.5542524 -0.09774292 -0.76594406
-0.13161498 0.9047626 1.6987352 -0.27632675 0.68465066 0.026391704 -1.2906213 0.3552288
0.642979 1.254206 -0.6433318 -0.6309059 -0.8007943 0.27010942 -1.1433195 -1.2916893
-0.7813159 0.88741666 2.0230415 -0.4573731 -1.1035554 0.42339802 -0.8382768 -2.6149254
2.5824401 0.88934463 -1.6496663 0.703503 1.0689737 1.0284573 2.2017543 1.0744784
1.4715943 -1.12339 0.3720149 -2.8586395 -0.23669703 0.41549852 0.4605825 0.8626798
-0.03920333 -0.82303524 -1.6344025 1.2204057 -0.48888662 -0.03634192 0.928733 -0.026374374
0.76245534 1.0923382 2.3411875 1.1531028 0.17050308 -0.08809966 0.5113549 -0.33709496
1.0799451 0.3125848 -0.26200843 0.6806677 -0.67995876 0.06140983 1.0698134 -0.32803228
-2.1045735 0.49798405 -0.57090986 -0.48749292 0.48422268 0.50388485 1.1997926 2.8265913
00000000: bfd6 6bbf 765d 0240 5b32 1bbf 81f4 273f
00000010: eaf6 a43e 505e a4bf 254d 41bf b30e d33f
00000020: daa7 313f 5675 753f 0426 523f 50d2 3dbe
00000030: 70db 933f a3de 883f 565e e93e 420a a0bd
00000040: 3df5 fc3e 3a04 563d 482a 853f cb24 613f
00000050: e139 55bf f875 eb3f a3b2 08bf 7ac4 9f3e
00000060: 6097 d63d 54aa 92bf 72f2 23bc a7aa 1ebe
00000070: 6f25 b9bf 520f 9c3f 127b 04c0 2e21 2c3f
00000080: 8b57 a6be 2480 073f 5828 81bd e5b4 e1bf
00000090: 38ad 4c3f 20f1 253f aa7d 9b3f a8d0 39bf
000000a0: be9f 8c3f b5b1 16c0 fd6b 37bf 00c8 353f
000000b0: 8ea8 4e3e 8cab e03f f083 8a3f 560b d63e
000000c0: 463e 283f d375 943f 2951 0bbd 58cb fcbf
000000d0: 62a5 953f 1914 893e 979b 083f ce26 f1bd
000000e0: ce18 7bbf 6f7f 70be c181 c03f b81d e53f
000000f0: d3e7 c73f 398d 013f 7d1a 7abe 91ca e0bf
00000100: c992 42bf ae46 7abf c688 a2bf d400 8e3d
00000110: b795 a63f 9332 7bbe 9c33 23bf 2ee1 b0bf
00000120: 174c cdbe 712c 84be b477 c93f f6f5 ac3f
00000130: 01d8 9dbf 0e0f 893e 572c 233f 5beb 763f
00000140: c260 29bf 1d9f c73e 98a8 3f3e 65d0 9a3f
00000150: 77fe fdbe 70a4 103f 8766 60bf 297e 9b3f
00000160: 129a 953d baeb 583f d885 6fbc 982a febe
00000170: 585b f6be 219b 7ebe d9e6 9bbf 8d66 dfbe
00000180: cea6 6f3f 125e c1bd d2f2 90be 35e5 5a40
00000190: e8a5 47bf 94ba c5bf b1db ebbe 3097 e8be
000001a0: 4d7c fdbf 976f c93d 9e7b d6be d5de 4cbf
000001b0: f5b6 c7bf 4731 593f a958 40bf 4adb e83f
000001c0: 79b6 4e3f 40de bd3f 4381 9b3e 94cc 0f40
000001d0: 86e9 9b3f 9f3a 733f 8c6d 2dbf f63b 0c40
000001e0: ef9e ba3e d007 2a40 6a3f 9e3e 2c59 e23d
000001f0: 6c0c 0ec0 daab 09bf 4146 b7be 7a4f e5be
00000200: 7030 0e3f 16bd 2abf a75c 03bf d461 d33f
00000210: a001 3e3e d93e b53f f4e5 343f 47e8 483e
00000220: aa07 56bf 4c82 2e3f eb9d acbe bc52 9d3f
00000230: df36 19bf 17b0 a93f 7ea6 99bf e773 0ec0
00000240: 2bc5 a4bf ba4c 9f3e 9531 293f bac3 ccbf
00000250: 72ca 623f 2b43 383f 21bf 8f3f 2d17 64bf
00000260: 9282 9f3f df6c c83f 3f36 ea3e 75fa 14bf
00000270: 1a94 2cbe 22be 733e 0a1b 3a3d 7a05 5e3d
00000280: 6898 69bd 43b5 ac3f c307 3abe 6d33 9f3d
00000290: 1d33 36bf 4560 c5bf 6053 2d3e ce4c 753e
000002a0: 44fa 56bf fb6e f33d ac7c 153f 300e 77bf
000002b0: fb5b b83d d997 8cbe 4ba9 81bf 7f35 f73e
000002c0: 871f c23f 74d0 0d3f e5a6 06c0 b6bb 30be
000002d0: 27f1 933e bef1 c63f 712d c8bd e914 44bf
000002e0: 14c6 06be 869e 673f 2870 d93f b37a 8dbe
000002f0: 4445 2f3f 6a33 d83c 1433 a5bf 8de0 b53e
00000300: 469a 243f d289 a03f 65b1 24bf 0d83 21bf
00000310: db00 4dbf c84b 8a3e 4b58 92bf 1356 a5bf
00000320: 5204 48bf bd2d 633f 8379 0140 cf2c eabe
00000330: 4e41 8dbf a0c7 d83e 4f99 56bf f05a 27c0
00000340: b346 2540 17ac 633f 4428 d3bf c618 343f
00000350: 21d4 883f 7da4 833f 8be9 0c40 8288 893f
00000360: 345d bc3f 3ecb 8fbf bd78 be3e f3f3 36c0
00000370: b560 72be 39bc d43e 78d1 eb3e 95d8 5c3f
00000380: ac93 20bd 70b2 52bf 1a34 d1bf 4136 9c3f
00000390: 594f fabe 44db 14bd 72c1 6d3f 120f d8bc
000003a0: 4630 433f bdd1 8b3f 04d6 1540 df98 933f
000003b0: 5c98 2e3e 986d b4bd 28e8 023f b697 acbe
000003c0: a43b 8a3f 1d0b a03e f825 86be 3d40 2e3f
000003d0: c711 2ebf e088 7b3d a5ef 883f d9f3 a7be
000003e0: 55b1 06c0 c4f7 fe3e 2627 12bf ac98 f9be
000003f0: 09ec f73e 99fe 003f ce92 993f dfe6 3440

decoder.gru.weight_ih_l0 f4 [96, 32]
-0.12792176 0.11710544 -0.013208536 0.13232127 0.026227394 -0.066351205 -0.0639918 0.0018755611
0.014160901 0.1563374 0.06679148 -0.17052774 0.095241405 -0.12388069 0.14199041 0.14348726
0.21072015 0.21329662 -0.13816553 0.13617066 -0.14543796 -0.053645704 -0.02356987 -0.11674711
-0.005000589 0.2407785 0.23773172 -0.1630119 0.061582502 -0.23994626 -0.21883795 0.036694247
0.024194034 0.29007503 -0.17048396 -0.047643177 0.010342389 0.21918952 -0.0060787457 -0.07836385
0.021722045 -0.34387657 -0.19856526 0.02743171 0.07118982 0.17257282 0.18912445 -0.090972856
0.22744668 0.33896792 -0.1698742 -0.27093095 0.4005179 -0.027705213 0.13604787 0.010974984
0.040462192 -0.06554432 0.1642519 0.31833607 -0.0008157605 -0.057726927 -0.045682006 -0.017042061
-0.14556448 -0.029162856 -0.17776124 -0.0098019745 0.038411904 -0.17813252 0.052266303 -0.28656322
-0.06983671 0.10256667 -0.13033918 0.03503799 0.04343301 0.17011863 0.24338514 0.2381616
-0.1055715 0.02239363 -0.106856264 -0.061638176 0.16940472 0.1781299 -0.20410948 0.06946542
-0.06583905 0.15124334 0.19648382 0.14543904 -0.24092036 -0.25374433 -0.22078104 -0.17521599
0.0231319 -0.05426688 -0.21376453 0.17031814 -0.08711773 -0.023936486 -0.14760265 -0.1609981
0.001284196 -0.064897746 0.14000267 0.120439805 0.022259807 0.14018165 -0.022964526 0.22740567
0.115360275 0.17237926 0.013833494 -0.07205671 -0.10903953 0.12384873 -0.1918756 0.0429087
0.035719927 -0.108982414 0.24597253 -0.038907953 0.09528306 -0.18983573 -0.15155283 -0.11786355
-0.071816444 0.044795714 0.017803734 0.1314714 0.0025780168 -0.16293217 0.02481364 -0.04938488
-0.15268579 -0.13356338 0.00085056404 -0.049710814 0.073049724 0.14993471 0.16856998 0.11776929
0.042256407 0.18363117 -0.06778869 0.062295713 0.073523514 0.097735606 -0.08308301 -0.052920274
0.10952827 0.23025937 -0.0659562 0.0035813793 0.25266424 -0.20704222 -0.12157276 -0.07136881
0.096817486 0.16030234 -0.09326203 -0.09585257 0.10075965 -0.0003640664 -0.07070402 -0.0018632942
-0.13751009 -0.0856851 0.05299778 0.123575956 -0.055218514 0.20863764 0.0038078073 0.060743257
0.23798579 0.10287923 -0.15056159 0.12367194 0.0048390715 0.018660568 -0.22745936 0.21130219
-0.0011565702 -0.014468297 0.08690857 -0.21989705 0.26693133 -0.053691734 -0.2501328 -0.15852375
0.14707309 -0.037856694 -0.20637448 0.11128441 -0.078518786 -0.2149429 -0.22751954 0.22638708
-0.047357403 0.28185752 0.113070294 -0.2131941 0.20291732 -0.11806054 0.13252544 0.069901735
0.16127929 0.05335122 -0.13325328 0.19201037 -0.09244061 -0.08183284 0.037764136 -0.10906092
0.10969421 0.03541754 0.027102854 0.0039526247 -0.24577731 -0.122620136 -0.29042706 0.11674586
0.024501342 0.17129448 -0.028893933 0.019155368 -0.04191912 -0.2636615 0.32416224 0.0027153492
-0.032080937 0.1045434 -0.18834525 -0.12326644 -0.017222067 -0.12341732 0.1411836 -0.060950045
0.1473845 -0.11494277 -0.08818282 -0.08217001 -0.06642169 -0.0709326 -0.2113346 -0.2047029
-0.117984176 0.17830154 -0.08537256 0.0748729 0.14609183 -0.0785302 0.056696247 -0.13330737
00000000: ecfd 02be fad4 ef3d 9e68 58bc 3a7f 073e
00000010: d5da d63c 24e3 87bd 220e 83bd 63d5 f53a
00000020: 2003 683c e916 203e f9c9 883d d39e 2ebe
00000030: ed0d c33d 29b5 fdbd ef65 113e 53ee 123e
00000040: 06c7 573e 6e6a 5a3e 447b 0dbe 5270 0b3e
00000050: b0ed 14be 99bb 5bbd 9a15 c1bc 1c19 efbd
00000060: fbdb a3bb a48e 763e f26f 733e 97ec 26be
00000070: ef3d 7c3d 79b4 75be 0e17 60be b54c 163d
00000080: 9132 c63c b784 943e 5993 2ebe 7e25 43bd
00000090: 2073 293c 3873 603e 3730 c7bb 3a7d a0bd
000000a0: 6ef2 b13c 9710 b0be b154 4bbe 77b8 e03c
000000b0: f8cb 913d eeb6 303e d7a9 413e fa4f babd
000000c0: c8e7 683e 348d ad3e 81f3 2dbe 76b7 8abe
000000d0: af10 cd3e 0bf6 e2bc 2250 0b3e 6bd0 333c
000000e0: afbb 253d 1a3c 86bd a631 283e f2fc a23e
000000f0: c3d8 55ba 1273 6cbd 0e1d 3bbd cb9b 8bbc
00000100: db0e 15be f1e6 eebc 0b07 36be 7698 20bc
00000110: cd55 1d3d 5f68 36be 3115 563d 6ab8 92be
00000120: 8d06 8fbd 790e d23d a277 05be ff83 0f3d
00000130: d0e6 313d 9433 2e3e f439 793e a2e0 733e
00000140: df35 d8bd d972 b73c 75d7 dabd 5078 7cbd
00000150: 6e78 2d3e af67 363e 1302 51be e343 8e3d
00000160: a0d6 86bd 89df 1a3e 0e33 493e f9ed 143e
00000170: d4b3 76be c7ea 81be 6d14 62be d26b 33be
00000180: 1c7f bd3c f346 5ebd 17e5 5abe e167 2e3e
00000190: c86a b2bd 7316 c4bc 2625 17be b0dc 24be
000001a0: 7852 a83a 1ce9 84bd dc5c 0f3e 25a9 f63d
000001b0: 335a b63c c78b 0f3e 1a20 bcbc 08dd 683e
000001c0: 0242 ec3d 3084 303e e1a5 623c 7892 93bd
000001d0: 1e50 dfbd 67a4 fd3d 0a7b 44be 08c1 2f3d
000001e0: 0f4f 123d 2c32 dfbd 39e0 7b3e f25d 1fbd
000001f0: c423 c33d 4c64 42be aa30 1bbe 7262 f1bd
00000200: 8014 93bd b67b 373d 23d9 913c 70a0 063e
00000210: f2f3 283b b1d7 26be fa45 cb3c cd47 4abd
00000220: aa59 1cbe d7c4 08be 63f8 5e3a 919d 4bbd
00000230: 189b 953d 7c88 193e 9c9d 2c3e 0731 f13d
00000240: 0e15 2d3d cf09 3c3e ccd4 8abd ca29 7f3d
00000250: 7f93 963d 9b29 c83d 6d27 aabd eec2 58bd
00000260: 5c50 e03d 1dc9 6b3e 0b14 87bd 93b5 6a3b
00000270: 355d 813e e002 54be 24fb f8bd d029 92bd
00000280: 3f48 c63d 4c26 243e 2a00 bfbd 5a4e c4bd
00000290: 135b ce3d 2ae0 beb9 45cd 90bd c739 f4ba
000002a0: 72cf 0cbe ab7b afbd 3314 593d 6415 fd3d
000002b0: cf2c 62bd 1ba5 553e 688c 793b eccd 783d
000002c0: 8cb2 733e 59b2 d23d d12c 1abe b747 fd3d
000002d0: 1391 9e3b 0cde 983c 1beb 68be 9a5f 583e
000002e0: 0e98 97ba 700c 6dbc 1ffd b13d b12c 61be
000002f0: 39ab 883e ddeb 5bbd 6811 80be 0d54 22be
00000300: 549a 163e 9f0f 1bbd d553 53be 15e9 e33d
00000310: 75ce a0bd fe19 5cbe e2fa 68be 04d2 673e
00000320: d6f9 41bd a14f 903e 6691 e73d 8e4f 5abe
00000330: 8fc9 4f3e b9c9 f1bd c0b4 073e a428 8f3d
00000340: 6626 253e cf86 5a3d 8c73 08be 5e9e 443e
00000350: 8151 bdbd fa97 a7bd 91ae 1a3d 555b dfbd
00000360: 5ca7 e03d fc11 113d ce06 de3c 0585 813b
00000370: 0cad 7bbe 4420 fbbd dbb2 94be 7418 ef3d
00000380: 0ab7 c83c d267 2f3e f8b2 ecbc b8eb 9c3c
00000390: 62b3 2bbd a4fe 86be 98f8 a53e 00f4 313b
000003a0: 4d67 03bd da1a d63d 94dd 40be 1e73 fcbd
000003b0: 4b15 8dbc 38c2 fcbd 6f92 103e c1a6 79bd
000003c0: f6eb 163e 1d67 ebbd 3299 b4bd c048 a8bd
000003d0: 1808 88bd 1c45 91bd 1968 58be a39d 51be
000003e0: b0a1 f1bd ae94 363e cfd7 aebd f756 993d
000003f0: 1999 153e 71d4 a0bd 533a 683d ba81 08be

decoder.gru.weight_hh_l0 f4 [96, 32]
-0.08224967 0.06698483 0.06391827 -0.14454429 0.27640235 -0.042248122 -0.022689896 -0.012276946
-0.10358331 0.30548605 0.042979967 -0.0039534164 0.04922826 -0.063344814 -0.00042511543 0.047551267
-0.067086674 -0.17524754 0.069653645 -0.011352868 0.18583375 -0.22719702 0.24135055 0.04547571
0.15258206 0.042714372 0.15363266 0.069116645 -0.030884605 0.13512433 -0.30580956 0.02020547
-0.32147813 -0.27707925 0.109371305 0.008871975 0.1130794 0.23495874 -0.072505824 -0.39411387
0.091474175 0.10061918 -0.10645567 -0.17731832 0.114793316 0.35555276 0.46502772 0.28306693
-0.037593465 -0.014069655 0.34628436 0.40799457 -0.25380984 0.15339442 0.24294153 0.042013377
0.2832573 -0.054455407 -0.15641676 0.028283717 -0.32411027 -0.39484128 -0.008608903 -0.08778029
0.025244692 0.06848779 0.0725766 -0.0522945 0.008652804 0.09414403 0.1742371 0.044854645
-0.26403055 0.3235191 -0.031290963 0.10795689 0.30341408 0.06698614 -0.18750358 0.066749744
-0.31057972 -0.077487476 0.21109165 -0.13841675 0.17365652 -0.19172126 0.046667285 0.008508918
-0.00585854 0.25621662 0.13211332 0.088196374 0.00062243623 0.24997832 -0.27043322 0.08385782
-0.011362794 0.11657562 0.28455985 -0.09597257 0.19003874 -0.07661243 0.032526236 -0.08504324
-0.26821017 0.11564076 -0.043508694 -0.038705762 0.013105478 -0.1273944 0.11800153 0.09002898
-0.113809064 -0.079628184 0.17080683 -0.025312612 0.13743278 -0.1993779 0.1293065 0.18792027
-0.15482867 0.3040141 0.07855495 0.12815824 -0.13261984 0.013164914 -0.1781308 -0.016430998
0.029362617 0.124982975 0.2034189 -0.23534183 -0.03859911 -0.028054614 0.09886274 0.130103
-0.14985517 -0.017646851 -0.060891178 -0.022932354 0.15807514 -0.19492494 0.06024294 0.025076477
0.057983283 -0.016371015 0.31233552 0.0012787255 0.11161326 -0.2791051 -0.0060869385 0.04192717
-0.057204954 0.24946657 0.08476802 0.13742022 -0.2416513 0.017565357 -0.24162857 0.1111952
0.15816145 -0.021231085 0.31014445 0.04762141 0.092100404 -0.0052045416 0.08633608 0.18267636
-0.2513459 0.066960804 -0.10522911 -0.012943743 -0.12981178 -0.27115965 0.020362161 0.2229807
0.13611539 -0.1473376 0.28100178 0.020519577 0.04627542 0.01300351 0.01952586 0.04655506
-0.15982571 0.11813838 0.14084165 0.047962084 -0.18716888 0.14373602 -0.2039474 -0.22109349
-0.035073254 0.20633806 0.30683494 -0.056141935 -0.034922805 0.24371456 0.14680715 0.17661193
-0.03643128 0.013445208 -0.21399254 -0.01229029 -0.10973266 0.03650187 0.14133787 0.4539979
-0.037625417 -0.09236374 0.30970207 -0.006094642 0.27869153 -0.09100995 0.38036117 -0.008180908
0.1129725 0.2651759 0.1228226 0.25605568 -0.14834872 0.034269225 -0.4011833 0.07501565
-0.054568116 0.0838298 -0.02337269 -0.32214126 0.057501756 -0.06659073 0.29159614 0.02977976
-0.1318 0.18845664 -0.03597083 0.12872389 -0.2490909 -0.08238411 -0.13516009 0.025487237
-0.1373388 -0.14060454 0.10937411 -0.20703101 0.05393627 -0.07368165 0.23504506 -0.033231538
-0.061845843 -0.03079494 -0.09357618 0.24969335 -0.15371895 0.07493724 0.01863744 -0.13040352
00000000: 8472 a8bd 582f 893d 95e7 823d 6b03 14be
00000010: 9c84 8d3e 5e0c 2dbd 29e0 b9bc 3e25 49bc
00000020: 7d23 d4bd ab68 9c3e c30b 303d a98b 81bb
00000030: 92a3 493d edba 81bd 07e2 deb9 1ec5 423d
00000040: bd64 89bd 1774 33be 92a6 8e3d 6101 3abc
00000050: 344b 3e3e 56a6 68be 9924 773e bd44 3a3d
00000060: 793e 1c3e 44f5 2e3d e151 1d3e 078d 8d3d
00000070: b601 fdbc 085e 0a3e 1293 9cbe f185 a53c
00000080: c898 a4be 55dd 8dbe 10fe df3d c35b 113c
00000090: 2c96 e73d 0699 703e ef7d 94bd 4bc9 c9be
000000a0: d056 bb3d 6e11 ce3d 6e05 dabd ef92 35be
000000b0: c218 eb3d 030b b63e 1d18 ee3e 26ee 903e
000000c0: 9bfb 19bd 6984 66bc 2f4c b13e aae4 d03e
000000d0: 5df3 81be 6d13 1d3e aac5 783e 3816 2c3d
000000e0: 1a07 913e a20c 5fbd b72b 20be 41b3 e73c
000000f0: c8f1 a5be a328 cabe 5b0c 0dbc 27c6 b3bd
00000100: f5cd ce3c 5443 8c3d 0aa3 943d c232 56bd
00000110: 7ec4 0d3c 96ce c03d 366b 323e 81b9 373d
00000120: 032f 87be 4ca4 a53e f42a 00bd 8018 dd3d
00000130: 1759 9b3e 0830 893d f000 40be 17b4 883d
00000140: 4e04 9fbe c1b1 9ebd 6928 583e 1fbd 0dbe
00000150: 04d3 313e 9452 44be 3226 3f3d fd68 0b3c
00000160: fff8 bfbb d32e 833e b748 073e 4da0 b43d
00000170: fd2a 233a 51fa 7f3e 3976 8abe a6bd ab3d
00000180: 032b 3abc 33bf ee3d d4b1 913e 448d c4bd
00000190: 8499 423e fae6 9cbd 3b3a 053d 262b aebd
000001a0: d852 89be 10d5 ec3d 2c36 32bd ef89 1ebd
000001b0: 5cb8 563c ad73 02be c9aa f13d 1d61 b83d
000001c0: ba14 e9bd 1a14 a3bd fce7 2e3e 655c cfbc
000001d0: 2ebb 0c3e b829 4cbe ec68 043e 2c6e 403e
000001e0: 688b 1ebe bca7 9b3e 6be1 a03d ea3b 033e
000001f0: 7fcd 07be a7b1 573c ec67 36be 4d9a 86bc
00000200: df89 f03c 13f7 ff3d 0b4d 503e 73fd 70be
00000210: 1a1a 1ebd cad2 e5bc 8c78 ca3d b939 053e
00000220: a273 19be 2190 90bc 0769 79bd a2dc bbbc
00000230: 73de 213e 679a 47be 4dc1 763d 2f6d cd3c
00000240: e17f 6d3d 821c 86bc 71ea 9f3e e89a a73a
00000250: 7e95 e43d dde6 8ebe f174 c7bb d3bb 2b3d
00000260: be4f 6abd 2a74 7f3e db9a ad3d e3b7 0c3e
00000270: 7073 77be 39e5 8f3c 7b6d 77be 4fba e33d
00000280: 13f5 213e d0ec adbc 41cb 9e3e ab0e 433d
00000290: 239f bc3d dc8a aabb f9d0 b03d 830f 3b3e
000002a0: 69b0 80be bf22 893d 5c82 d7bd fe11 54bc
000002b0: 61ed 04be 70d5 8abe 8cce a63c 0d55 643e
000002c0: d561 0b3e abdf 16be 77df 8f3e ac18 a83c
000002d0: 4b8b 3d3d ad0c 553c b2f4 9f3c 85b0 3e3d
000002e0: 5aa9 23be 89f2 f13d cb38 103e e473 443d
000002f0: 33a9 3fbe 892f 133e 96d7 50be 5566 62be
00000300: f9a8 0fbd 494a 533e 7819 9d3e 16f5 65bd
00000310: 370b 0fbd 4f90 793e 9d54 163e c2d9 343e
00000320: f738 15bd 4a49 5c3c dc20 5bbe 365d 49bc
00000330: 84bb e0bd fc82 153d e0ba 103e 6a72 e83e
00000340: 1c1d 1abd 3329 bdbd 4591 9e3e 90b5 c7bb
00000350: a8b0 8e3e 6d63 babd b3be c23e 3709 06bc
00000360: 205e e73d 23c5 873e 6a8a fb3d bb19 833e
00000370: bae8 17be e35d 0c3d e667 cdbe cea1 993d
00000380: d182 5fbd f5ae ab3d 1578 bfbc b3ef a4be
00000390: f686 6b3d b860 88bd 174c 953e aff4 f33c
000003a0: 94f6 06be c7fa 403e 2656 13bd 32d0 033e
000003b0: af11 7fbe 00b9 a8bd 6867 0abe 9cca d03c
000003c0: 8ba2 0cbe a3fa 0fbe 89ff df3d f0ff 53be
000003d0: 47ec 5c3d 68e6 96bd a7af 703e cb1d 08bd
000003e0: 1152 7dbd ac45 fcbc dea4 bfbd 9daf 7f3e
000003f0: 8068 1dbe b278 993d 8bad 983c 8088 05be

decoder.gru.bias_ih_l0 f4 [96]
0.042852435 0.17146242 -0.028302455 0.2282704 0.08709995 0.35419914 0.03566633 0.07300093
0.24113086 0.22743213 -0.17496352 0.09251055 0.071107104 0.33213487 0.026561694 0.36053073
0.18651904 0.1452605 0.101921774 0.25787303 0.06190902 0.056096595 0.18996511 0.06975751
0.15211494 0.00061276567 0.028918397 0.01944787 0.022053273 0.13592844 0.056852806 0.119653724
-0.1825665 -0.20058759 -0.14107347 -0.034746498 0.1473441 -0.2533949 -0.23765501 -0.13113736
0.21995437 -0.024962135 0.19754568 -0.23428187 0.012606727 -0.19360545 0.04455593 0.006683024
-0.013480296 -0.12104857 0.1894164 -0.041689623 -0.37539044 0.12413533 0.1940282 0.22798826
-0.01046583 0.04282752 0.034043115 -0.32932487 0.05608566 -0.22322431 -0.089402206 -0.28979808
0.11569819 0.14646383 -0.025865369 -0.08682887 0.08743429 0.09795167 0.023023324 -0.1490948
0.096078545 0.08175366 0.1039689 0.13388777 0.14692529 0.021548992 -0.18020347 0.26606163
-0.04430041 -0.094282016 0.24882047 -0.10660047 -0.17942043 -0.11189123 0.028686734 -0.032928802
0.052413937 -0.01464411 -0.14464751 -0.1799221 0.049247805 0.20257477 -0.09560731 0.0060170563
00000000: 0986 2f3d d893 2f3e 8dda e7bc b7bf 693e
00000010: 7561 b23d 9759 b53e dc16 123d 8381 953d
00000020: 02eb 763e f8e3 683e a329 33be 2c76 bd3d
00000030: 9aa0 913d 950d aa3e e997 d93c 7c97 b83e
00000040: d9fe 3e3e 2bbf 143e 5dbc d03d ef07 843e
00000050: 5094 7d3d 8bc5 653d 3786 423e 07dd 8e3d
00000060: 05c4 1b3e 02a2 203a 46e6 ec3c 2451 9f3c
00000070: 11a9 b43c d330 0b3e 7dde 683d 030d f53d
00000080: b6f2 3abe d566 4dbe 9075 10be 5852 0ebd
00000090: 5fe1 163e fabc 81be d65b 73be df48 06be
000000a0: b83b 613e 647d ccbc 6a49 4a3e 96e7 6fbe
000000b0: 728c 4e3c 8240 46be 4780 363d 45fd da3b
000000c0: 76dc 5cbc 50e8 f7bd 5ff6 413e bdc2 2abd
000000d0: 2d33 c0be aa3a fe3d 54af 463e c175 693e
000000e0: df78 2bbc e96b 2f3d cb70 0b3d 459d a8be
000000f0: 14ba 653d ea94 64be 8118 b7bd 6a60 94be
00000100: 2cf3 ec3d 9dfa 153e 9ce3 d3bc 56d3 b1bd
00000110: c010 b33d e39a c83d 699b bc3c 4fac 18be
00000120: d4c4 c43d 776e a73d a6ed d43d e019 093e
00000130: 9573 163e 8387 b03c 4287 38be 3b39 883e
00000140: 5974 35bd ee16 c1bd cbca 7e3e 5951 dabd
00000150: fdb9 37be 3b27 e5bd 7100 eb3c 5ae0 06bd
00000160: ffaf 563d d9ed 6fbc 7a1e 14be 803d 38be
00000170: 11b8 493d c36f 4f3e c4cd c3bd ba2a c53b

decoder.gru.bias_hh_l0 f4 [96]
0.20970215 0.070039876 0.123398654 0.07542016 0.26451078 0.3196009 0.0635936 0.09604478
0.17186102 0.21723154 -0.039234135 0.121271886 0.22008495 0.057534143 0.09609502 0.25127152
0.2021751 0.20508648 0.3147995 0.012922536 0.16153893 -0.03640756 -0.004430403 0.14296709
0.42800853 -0.08123275 0.05375791 0.2612349 0.06198742 0.1961502 0.14061676 0.009293361
-0.13659762 -0.08161319 -0.01827479 0.22973198 0.07618365 -0.024117472 -0.2642922 -0.17682616
0.20983578 -0.19279009 0.064078085 -0.33109856 -0.2631595 -0.22498474 -0.089583956 -0.19128132
0.25874582 0.21337314 0.17905106 0.029356882 -0.1770254 0.33698308 0.27474096 -0.022642976
-0.059386775 -0.058822963 -0.027754422 -0.30628428 -0.016049005 0.07579212 -0.03781062 -0.07069568
-0.1309218 0.14441457 0.14522532 0.010769378 0.10468988 0.10482657 -0.051875606 -0.06380688
-0.22399795 -0.06449583 -0.11259923 0.10300204 0.11602914 0.17928427 -0.059725076 0.103377335
-0.11770995 0.039647907 -0.007648015 -0.09207579 -0.22642763 -0.14335252 0.12061902 -0.0027226573
-0.0007616889 -0.0612882 0.040773608 -0.30381262 0.03096406 0.13774303 -0.16121955 0.20766594
00000000: 29bc 563e 1171 8f3d 6fb8 fc3d e375 9a3d
00000010: f56d 873e bba2 a33e 5d3d 823d 20b3 c43d
00000020: 56fc 2f3e f271 5e3e f9b3 20bd 655d f83d
00000030: f35d 613e eca8 6b3d 77cd c43d a9a6 803e
00000040: fd06 4f3e 3102 523e 662d a13e 0bb9 533c
00000050: 766a 253e 1820 15bd ea2c 91bb f765 123e
00000060: ef23 db3e 5b5d a6bd 4131 5c3d 95c0 853e
00000070: 85e6 7d3d 99db 483e d7fd 0f3e 2e43 183c
00000080: 3fe0 0bbe d124 a7bd 03b5 95bc dc3e 6b3e
00000090: 2c06 9c3d 0192 c5bc 4f51 87be eb11 35be
000000a0: 31df 563e c46a 45be 5f3b 833d c085 a9be
000000b0: d8bc 86be 6662 66be cb77 b7bd 40df 43be
000000c0: 557a 843e 7d7e 5a3e 2959 373e d87d f03c
000000d0: 2546 35be 0c89 ac3e d9aa 8c3e c37d b9bc
000000e0: 8c3f 73bd 59f0 70bd 3e5d e3bc 4bd1 9cbe
000000f0: 3479 83bc e638 9b3d 4fdf 1abd e6c8 90bd
00000100: 5d10 06be 6ae1 133e f2b5 143e 0c72 303c
00000110: a667 d63d 50af d63d 847b 54bd 2ead 82bd
00000120: b85f 65be 6416 84bd 6d9a e6bd bcf2 d23d
00000130: b0a0 ed3d 4c96 373e 48a2 74bd 7fb7 d33d
00000140: ea11 f1bd d865 223d 339c fabb 3b92 bcbd
00000150: a5dc 67be 01cb 12be 1b07 f73d 9c6e 32bb
00000160: 14ac 47ba 5609 7bbd 3a02 273d 548d 9bbe
00000170: 57a8 fd3c 820c 0d3e bd16 25be 61a6 543e
