GRU_100epochs_fulldata.pth (torch, 72723 bytes, 12 tensors)

encoder.embedding.weight f4 [47, 32]
0	0xbe6710c6	-0.22564992
1	0xbfb4f9a5	-1.4138685
2	0x3f88af6d	1.0678536
3	0xbf7f642c	-0.99762225
4	0x3db5a758	0.08869809
5	0x3f13c6da	0.577253
6	0x3e2b4ec3	0.16729264
7	0x3f05b41d	0.52227956
8	0x3ef53d01	0.47898105
9	0xbf50f9a4	-0.8163092
10	0x3e25e611	0.16201045
11	0xbe4f6e4b	-0.20256917
12	0x3e2424b5	0.16029628
13	0xbedf4b5b	-0.4361218
14	0x3f1ff798	0.62487173
15	0x3e652784	0.22378355
16	0xbfbce53a	-1.4757454
17	0x3fbafe4a	1.4608853
18	0xbf3f2c8a	-0.74677336
19	0xbd03f120	-0.032212377
20	0xc05f31e7	-3.4874208
21	0x3f75371c	0.95787215
22	0xbfde487b	-1.7365869
23	0xbf372fdf	-0.7155742
24	0xbd337a79	-0.04381797
25	0x3fe58428	1.7930956
26	0x3f984786	1.1896827
27	0x4013f745	2.3119671
28	0xc00e2b97	-2.2214105
29	0xbc0432a8	-0.008068718
30	0xbf15d36b	-0.58525723
31	0xbf3da46a	-0.74079
32	0x3fc7b542	1.560219
33	0x403aed36	2.9207282
34	0xbfbb2e64	-1.4623532
35	0xbe67406d	-0.2258317
36	0x3fe35d08	1.7762766
37	0x400b1d6f	2.1736715
38	0x3dfd7b9c	0.12377092
39	0xbf31bd79	-0.6942974
40	0x3ffda60a	1.9816296
41	0xc028939d	-2.6340096
42	0xc02fa6f0	-2.744564
43	0xbf9d7545	-1.2301413
44	0x3ff1a99c	1.8879886
45	0xc00fff49	-2.2499564
46	0x3e56fa86	0.20994005
47	0xbdc3cf05	-0.0956097
48	0xc01429c5	-2.3150494
49	0x3f11f9f3	0.5702202
50	0xc0186ea1	-2.3817523
51	0xbfc0b4fa	-1.505523
52	0x4010f1a7	2.2647493
53	0xbfde0b8f	-1.7347277
54	0x3fabc28e	1.3418748
55	0xbef462d4	-0.4773165
56	0xbf91dd9d	-1.1395756
57	0x3f8a19d4	1.0789132
58	0x3fa5dd90	1.295824
59	0xbff4887c	-1.9104152
60	0x3f91a077	1.1377095
61	0x3fc60560	1.547039
62	0x3edd98f7	0.43280765
63	0x3fbdad74	1.4818559
64	0x3fc3d824	1.5300336
65	0x3ecc0910	0.39850664
66	0xbfa9ec53	-1.3275245
67	0xbd3f9128	-0.04676929
68	0xbe431e7f	-0.19054602
69	0x3f59d49c	0.8509004
70	0xbe848a03	-0.25886545
71	0x3ed8b3a6	0.4232456
72	0x3d997722	0.07493426
73	0x3efa41ee	0.48878425
74	0xbe2b876a	-0.16750875
75	0x3e124739	0.14284982
76	0x3fc1d09b	1.5141786
77	0x3dd16115	0.10223595
78	0xbdeb199f	-0.11479496
79	0xbf32a216	-0.69778574
80	0x3f40d3fe	0.75323474
81	0xbf3be929	-0.7340265
82	0xc00dcef0	-2.2157555
83	0xbec50b3d	-0.38485137
84	0x400da998	2.2134762
85	0xbea213f7	-0.31655857
86	0xbe97a6d9	-0.29619482
87	0xbeb4bd7c	-0.35300815
88	0x3eafa2ad	0.343038
89	0xbf0efc3c	-0.5585363
90	0xbef377be	-0.47552294
91	0xbe9c7a0a	-0.30561858
92	0x3f6b8d79	0.92012745
93	0xbd478aa4	-0.048716202
94	0xbee9ac65	-0.4563934
95	0xbf19afc0	-0.600338
96	0x3e29561a	0.16536751
97	0x3f684300	0.90727234
98	0x3fbc014d	1.4687897
99	0x3fc21530	1.5162716
100	0x3f66dca0	0.901804
101	0xbfac6b1a	-1.3470185
102	0x3fe17d92	1.7616446
103	0xbe84063a	-0.25786
104	0xbdec9f0e	-0.11553775
105	0xbe84716e	-0.2586779
106	0xbf9a1030	-1.203619
107	0x3f22d982	0.6361314
108	0x3fdd201e	1.7275426
109	0x3f306aa9	0.6891275
110	0xbed15e75	-0.40892377
111	0xbf2a5560	-0.6653652
112	0xbeb7e485	-0.35916534
113	0x3f441791	0.7659846
114	0x3ea6a590	0.3254819
115	0xbfe8f9ef	-1.8201274
116	0x3eecdf7f	0.46264264
117	0x3f4d85bd	0.80282193
118	0xbf966d26	-1.175206
119	0xbdc6f4d6	-0.097146675
120	0x3f98d89d	1.1941105
121	0x3f940133	1.1562866
122	0x3f145524	0.57942414
123	0x3f0d86f5	0.55284053
124	0x3fa85466	1.3150756
125	0xbd114b16	-0.035472
126	0xbfd9fa83	-1.7029575
127	0x3f7101d2	0.941434
128	0xbfe1e5e3	-1.7648281
129	0x3f630d0b	0.88691777
130	0x3ebb1c53	0.36545047
131	0xbea2f31a	-0.31826097
132	0x3f59407a	0.8486401
133	0x3e8efa7b	0.27925476
134	0x3e65a080	0.22424507
135	0x3f0c2e5f	0.54758257
136	0xbf8031a0	-1.0015144
137	0x3fac89ee	1.3479593
138	0x3ef4ad86	0.47788638
139	0x3f477334	0.7791016
140	0x3f6a72d4	0.91581464
141	0x3f3556ca	0.70835555
142	0x3b843f17	0.004035841
143	0xbf134fa0	-0.57543373
144	0x3e3c9e3e	0.1841974
145	0xbf3ff3c3	-0.74981326
146	0x3e2b5245	0.16730602
147	0xbee68853	-0.45025882
148	0xbfbdf9e5	-1.4841887
149	0xbf9a02bf	-1.2032088
150	0x3fef493d	1.8694226
151	0xbfeb815c	-1.8398852
152	0x3e918776	0.2842366
153	0xbfb468ed	-1.4094521
154	0x3f0c69a8	0.5484872
155	0xbfa5a8fc	-1.2942195
156	0xbf64498e	-0.89174736
157	0xbe4b316f	-0.19843076
158	0xbe9947d6	-0.2993762
159	0x3f09ae0e	0.5378121
160	0xbefbadaf	-0.49155948
161	0x3fa3af41	1.2787858
162	0x3f1c4848	0.6104779
163	0x3e77312f	0.24139856
164	0x3f549155	0.8303426
165	0x3f821ce5	1.0165068
166	0x3edc59f2	0.43037373
167	0xbc7adbd1	-0.015311197
168	0xbf3e3c56	-0.74310815
169	0x3f4c7b51	0.79875666
170	0x3ee42272	0.4455753
171	0xbf81c5de	-1.0138509
172	0x3fb984df	1.4493674
173	0x3f676758	0.90392065
174	0x3f1bd0e5	0.6086562
175	0x3faa25b1	1.3292753
176	0x40142e80	2.3153381
177	0x4049ec18	3.155035
178	0x3f84c417	1.0372342
179	0x3e54bd24	0.20775276
180	0xbf5ea902	-0.86976635
181	0x400364a9	2.0530188
182	0x3ef7c16a	0.4838975
183	0x3e4d8ed7	0.2007402
184	0x3f8e4d7b	1.1117395
185	0xbf5de6cf	-0.8668031
186	0x3fa7a3de	1.3096883
187	0x3f8be03b	1.0927805
188	0x3ec93b8a	0.39303237
189	0x3dabae02	0.08382799
190	0xc004798d	-2.0699189
191	0x3f3649ff	0.7120666
192	0xbf8866bc	-1.0656352
193	0x3f861d60	1.0477715
194	0xbfca0cea	-1.5785191
195	0xbf025898	-0.50916433
196	0x3e820297	0.253926
197	0xbf0ca1ee	-0.54934585
198	0x3f56ae97	0.8386015
199	0xbe8bfa25	-0.27339283
200	0x3ef816e6	0.4845497
201	0x3f873699	1.0563537
202	0x3f75ba81	0.9598771
203	0xbf70ece2	-0.94111454
204	0x3fab65ee	1.3390481
205	0x3fad0054	1.3515725
206	0x3ff8c7db	1.9435991
207	0x3ef37ac6	0.47554606
208	0xbf4782ae	-0.77933776
209	0x3e2c7ef7	0.16845308
210	0x3fab9c0d	1.3406998
211	0xbf9ee88a	-1.2414715
212	0x3c939e53	0.01801983
213	0x3d44740c	0.047962233
214	0x3f6b8a8d	0.92008287
215	0x3f494e6f	0.78635305
216	0xbf5be6ea	-0.8589922
217	0x3fae42ed	1.3614174
218	0x3e81ef97	0.25378105
219	0x3fb6676d	1.4250313
220	0x3f707ce1	0.9394055
221	0x3f1a2a63	0.60220927
222	0xc0175c26	-2.3649993
223	0x3fb88bdb	1.441768
224	0x3f003f88	0.5009694
225	0x3d1a5406	0.037677787
226	0xbf8fcc22	-1.1234171
227	0xbf3b4652	-0.73154175
228	0xbebb0332	-0.36525875
229	0x3e4f8ad8	0.20267808
230	0xbf758677	-0.959083
231	0xbf6ceff3	-0.92553633
232	0xbf162f47	-0.5866589
233	0xbe309855	-0.1724561
234	0xbf00e758	-0.50353
235	0xbfbb50bc	-1.4634013
236	0xbfe5069d	-1.7892643
237	0x3eae65e2	0.34062105
238	0xbf8989ea	-1.0745213
239	0x3fce846c	1.6134162
240	0x3f4b7ecc	0.7949035
241	0xbeae0c63	-0.33993825
242	0xbff3da68	-1.9051027
243	0x3f63d434	0.8899567
244	0xbdba51b3	-0.09097614
245	0xbf4c3dde	-0.797819
246	0x3f29a225	0.6626304
247	0xbf97ac72	-1.1849501
248	0x3ff9edc9	1.9525691
249	0xbff31035	-1.8989321
250	0xbe06cf83	-0.13165097
251	0x3f9f1a9b	1.2429994
252	0xbf952125	-1.165074
253	0xbe0b0b36	-0.13578495
254	0xbf557c99	-0.83393246
255	0x3f3f52bd	0.74735624

encoder.gru.weight_ih_l0 f4 [96, 32]
0	0xbe6383e3	-0.2221828
1	0xbd19a01d	-0.03750621
2	0x3e58a61d	0.21157117
3	0x3d6a50d1	0.05720598
4	0x3e1f2c14	0.15544158
5	0x3f4c0335	0.79692394
6	0x3e682a6b	0.22672431
7	0x3e7a318e	0.24432966
8	0x3ed09867	0.40741274
9	0xbe1e17a1	-0.15438701
10	0x3dad1bf4	0.08452597
11	0x3e2fca9f	0.17167138
12	0xbe0b0df3	-0.1357954
13	0x3d529940	0.05141568
14	0x3eb4adea	0.35288936
15	0x3d8116f4	0.06303206
16	0xbf2147a0	-0.62999916
17	0x3e940309	0.28908566
18	0xbe698967	-0.22806321
19	0x3ea9cd59	0.3316448
20	0xbc497f09	-0.012298354
21	0x3e2bf7c2	0.16793731
22	0x3dfa4941	0.12221003
23	0xbe3605ea	-0.17775694
24	0xbebb6721	-0.3660212
25	0xbd27cc0c	-0.04096608
26	0x3e9bb854	0.3041407
27	0x3eb80c64	0.35946953
28	0x3e1fea82	0.15616801
29	0xbc518a57	-0.01278933
30	0xbd8bd72a	-0.06828149
31	0xbe6b73f8	-0.22993457
32	0x3e749b74	0.23887426
33	0x3eb12486	0.34598178
34	0x3d4f8ebe	0.05067324
35	0x3d7c07c0	0.06153083
36	0xbe252f9b	-0.16131441
37	0x3e52f0db	0.20599692
38	0xbdbfb2eb	-0.09360298
39	0x3ca66b37	0.020314796
40	0xbdc6d370	-0.09708297
41	0x3ed1e313	0.40993556
42	0x3d928581	0.0715437
43	0xbe927c92	-0.28610665
44	0x3dd2abd2	0.102866784
45	0x3d460054	0.048340157
46	0xbe23694e	-0.1595814
47	0x3ea6d660	0.3258543
48	0xbde308b3	-0.110856436
49	0x3e06fab2	0.1318157
50	0x3dd242d6	0.10266654
51	0xbe2bc34a	-0.16773716
52	0xbd6b780b	-0.05748753
53	0x3e09ab74	0.1344431
54	0x3dc31700	0.09525871
55	0xbe1c5bf8	-0.15269458
56	0xbd547ce9	-0.051876936
57	0xbe5347c0	-0.20632839
58	0x3d8e28a0	0.06941342
59	0xbe039ddd	-0.12853189
60	0xbef78d6f	-0.48350093
61	0x3d821d9b	0.06353303
62	0x3da3fbbd	0.08007
63	0x3eb955db	0.36198315
64	0x3e5631ea	0.20917478
65	0x3e799e80	0.24376869
66	0xbc80bef2	-0.01571605
67	0xbeeea048	-0.4660666
68	0x3e8230d3	0.25427875
69	0xbdcd45aa	-0.10023053
70	0xbe823bc3	-0.2543622
71	0x3e2738bd	0.16330238
72	0x3e90b958	0.28266406
73	0xbc199375	-0.009373535
74	0x3e418114	0.18896896
75	0x3e6ed530	0.23323512
76	0x3e0d2357	0.13783012
77	0xbe6a42f3	-0.22877102
78	0xbec3e23e	-0.38258547
79	0xbd17805d	-0.03698765
80	0xbe94a29d	-0.29030314
81	0xbda40b07	-0.08009916
82	0xbe67a35c	-0.2262091
83	0xbea2e021	-0.31811622
84	0xbe1edd93	-0.15514211
85	0xbe3663b1	-0.17811467
86	0xbdb46aeb	-0.088094555
87	0xbd4e66cc	-0.050391003
88	0x3da4d560	0.080485106
89	0x3d358adf	0.04432189
90	0x3e525e90	0.20543885
91	0xbec5c98b	-0.38630328
92	0x3d65e5db	0.05612741
93	0x3e4b56c6	0.1985732
94	0xbe2a454d	-0.16627999
95	0xbe63e4eb	-0.22255294
96	0xbeac3e19	-0.33641127
97	0x3e6f9686	0.23397264
98	0xbe229eed	-0.15880938
99	0x3e291549	0.16512026
100	0x3e8ee897	0.27911827
101	0x3ced1b0b	0.02894356
102	0x3e6e9bc3	0.23301606
103	0x3e0d1991	0.13779284
104	0x3ed2d48f	0.41177794
105	0x3ef4ee77	0.47838184
106	0xbd25c7fa	-0.040473916
107	0xbe4db771	-0.20089509
108	0xbeaf98ec	-0.34296358
109	0xbd07d4a7	-0.033161785
110	0xbe3b4144	-0.18286616
111	0xbecbd0c2	-0.39807707
112	0xbde6b7ec	-0.11265549
113	0x3eaadc59	0.33371237
114	0xbd01d197	-0.03169402
115	0xbd235b43	-0.039881956
116	0x3d74cf9c	0.059768304
117	0xbdd503ed	-0.104011394
118	0xbe59ebdf	-0.21281384
119	0xbe338526	-0.17531261
120	0xbcb20261	-0.02172965
121	0xbcb44bf0	-0.022008866
122	0x3d1eb53f	0.03874707
123	0x3ce2e2f5	0.027696112
124	0x3e0e95ea	0.13924375
125	0x3c9087f6	0.017642956
126	0xbe46e972	-0.1942499
127	0x3e74b858	0.23898447
128	0xbdd752c7	-0.105138354
129	0xbe816888	-0.25275064
130	0xbd225fd0	-0.039642155
131	0xbe80edbc	-0.25181377
132	0x3e2a0632	0.16603926
133	0x3df8729d	0.12131236
134	0x3e6af270	0.22944045
135	0xbcdf07ad	-0.02722534
136	0x3e492be4	0.19645649
137	0xbe7587e7	-0.23977624
138	0x3caaf8cc	0.020870589
139	0x3d8a8e1b	0.06765386
140	0xbd8ef5d6	-0.06980483
141	0xbe989d71	-0.29807618
142	0x3cea73a8	0.028619602
143	0xbc080c83	-0.008303764
144	0xbe7bc684	-0.24587446
145	0x3e040d48	0.12895691
146	0xbe26a7a8	-0.16274893
147	0x3d019c91	0.031643454
148	0xbd0640b9	-0.032776568
149	0xbb22cf8d	-0.0024842948
150	0xbe1d5305	-0.153637
151	0xbe54c08b	-0.20776574
152	0xbe9cd9e5	-0.3063499
153	0xbbe38b18	-0.0069440715
154	0x3ccddd18	0.02512984
155	0xbcea1c5b	-0.028577974
156	0xbde90212	-0.11377348
157	0xbd64800f	-0.05578619
158	0xbe6d9c76	-0.23204216
159	0x3d009a19	0.03139696
160	0xbe820b83	-0.25399408
161	0xbe822a89	-0.25423077
162	0x3e852213	0.2600256
163	0x3f40c12c	0.75294757
164	0xbe167411	-0.14692713
165	0x3e0b9c1a	0.13633767
166	0xbecb8318	-0.39748454
167	0x3e132744	0.14370447
168	0xbec426f1	-0.3831096
169	0xbdc3cb36	-0.09560244
170	0xbdfd4d57	-0.12368267
171	0xbddd0706	-0.10792355
172	0x3de752d9	0.11295099
173	0x3db2f8a0	0.08738828
174	0x3ea96859	0.33087423
175	0xbe247bfc	-0.16062921
176	0xbda9ef16	-0.08297555
177	0x3e7ad916	0.24496874
178	0xbe82fa98	-0.25581813
179	0x3dceccde	0.10097669
180	0x3e09edf0	0.13469672
181	0x3df9b821	0.12193323
182	0xbe003e48	-0.12523758
183	0xbe9ad0e7	-0.30237505
184	0xbe43d979	-0.19125928
185	0x3d7ca7e7	0.06168356
186	0x3edb27d7	0.42803833
187	0x3dedef21	0.11617876
188	0xbf29aebd	-0.66282254
189	0xbe909721	-0.28240302
190	0x3e433f60	0.19067144
191	0xbe1682c5	-0.14698322
192	0x3e97a942	0.2962132
193	0x3ddac12a	0.10681374
194	0xbd641c88	-0.055691272
195	0xbdeb55b5	-0.11490957
196	0xbce6c7c2	-0.028171424
197	0xbdd9e257	-0.10638874
198	0xbd6fe96c	-0.058572218
199	0xbc9e267d	-0.019305462
200	0xbc96b713	-0.018397843
201	0x3ec6cb2d	0.38826886
202	0xbc589b64	-0.013220642
203	0x3d8ba34b	0.06818255
204	0x3e465eb4	0.19372064
205	0x3d8ae499	0.06781883
206	0xbd00871b	-0.031378847
207	0x3e49f89e	0.19723746
208	0xbc816ef7	-0.015799982
209	0x3e39a3c0	0.18128872
210	0xbea3fbbe	-0.32028002
211	0xbea18e61	-0.3155394
212	0x3e7f7155	0.24945576
213	0xbecdbb0b	-0.40181765
214	0xbe252e3f	-0.16130923
215	0x3e032c41	0.1280985
216	0xbe17c2aa	-0.14820352
217	0xbe1b4437	-0.1516274
218	0x3d002061	0.03128088
219	0xbd306175	-0.043061692
220	0xbdb0f8b4	-0.08641186
221	0xbe895272	-0.26820713
222	0xbe54766b	-0.20748298
223	0xbeaa0974	-0.33210337
224	0xbc5b6f4f	-0.013393237
225	0x3e28de44	0.16491038
226	0xbea87bd8	-0.32906985
227	0xb9638b37	-0.00021700269
228	0xbdf5fb48	-0.12010819
229	0xbed68cfb	-0.41904435
230	0x3e87cdd6	0.26524228
231	0xbe048b04	-0.12943655
232	0xbdc03a2e	-0.09386097
233	0x3d9bbe4c	0.076046556
234	0x3d81fd41	0.063471325
235	0x3df0cf3a	0.11758275
236	0xbeadb67c	-0.33928287
237	0xbda9b5c0	-0.08286619
238	0xbe0adf24	-0.13561684
239	0x3e024570	0.12721801
240	0xbe8a0635	-0.2695786
241	0x3df07f84	0.11743072
242	0xbdda3782	-0.106551185
243	0x3d7b1a1b	0.061304193
244	0x3e64286b	0.22281043
245	0xbcd154f5	-0.025553206
246	0xbe3d432d	-0.18482657
247	0x3f02b3b7	0.51055473
248	0x3e0ccb47	0.13749419
249	0xbe93968d	-0.288258
250	0xbf296f14	-0.66185117
251	0xbea4d8a3	-0.3219653
252	0x3ecfcdf4	0.40586817
253	0xbe351282	-0.17682841
254	0xbe8eba5a	-0.2787655
255	0xbd9fb17a	-0.07797523

encoder.gru.weight_hh_l0 f4 [96, 32]
0	0xbe903364	-0.28164208
1	0x3db73249	0.08945138
2	0x3e92457a	0.2856863
3	0x3d6113c5	0.054950494
4	0x3cb13557	0.02163188
5	0xbe1d1997	-0.15341793
6	0xbd8089b0	-0.06276262
7	0x3e322387	0.17396365
8	0xbe01ddd7	-0.12682281
9	0xbc72d012	-0.014820116
10	0x3e1045ec	0.14089173
11	0xbe02940e	-0.12751791
12	0xbe4670ba	-0.1937894
13	0x3eac2a81	0.33626178
14	0x3db4462e	0.08802448
15	0xbd8e7e2f	-0.06957661
16	0xbda4620c	-0.080265135
17	0xbdf23a96	-0.11827581
18	0xbd8578cf	-0.06517183
19	0x3eadce5f	0.3394651
20	0xbe8c8a1a	-0.27449113
21	0x3e6652c9	0.22492518
22	0x3e2d5c69	0.16929783
23	0x3e06dbf2	0.1316984
24	0xbe075cb4	-0.13218957
25	0xbd36460a	-0.04450039
26	0x3db63379	0.088965364
27	0x3ba645fd	0.005074261
28	0xbe60970b	-0.21932618
29	0x3df02c79	0.117272325
30	0x3e472ee2	0.19451478
31	0xbe90901d	-0.2823495
32	0xbdc29027	-0.09500151
33	0xbd2b1c22	-0.041774876
34	0xbe5f1a1e	-0.21787307
35	0x3db882c7	0.09009319
36	0xbec35194	-0.38148177
37	0x3e8c0c69	0.27353218
38	0xbc659738	-0.014013104
39	0x3e024c1f	0.1272435
40	0xbe324b13	-0.17411451
41	0x3d13a321	0.036044244
42	0x3e2a7796	0.16647181
43	0xbe22bc79	-0.15892209
44	0xbe24d0cb	-0.16095273
45	0x3d9a115c	0.07522842
46	0x3e8d0308	0.27541375
47	0x3d97970b	0.07401856
48	0xbdde980c	-0.108688444
49	0x3e34f9fc	0.17673486
50	0x3dbcc41d	0.09217093
51	0x3d69340f	0.056934413
52	0xbdad15d0	-0.08451426
53	0x3e7a9907	0.24472438
54	0x3e70baed	0.23508807
55	0x3e102e44	0.14080149
56	0xbe969af8	-0.29415107
57	0xbca82d2e	-0.020529356
58	0xbe1ba38b	-0.15199105
59	0xbe9d2df9	-0.30699137
60	0xbc180ffa	-0.009281153
61	0x3de09dd9	0.10967607
62	0xbf4baf5f	-0.7956447
63	0xbe82a554	-0.2551676
64	0xbecc1edd	-0.39867297
65	0x3cf3c1f6	0.029755574
66	0x3e184136	0.14868626
67	0x3f0049e0	0.50112724
68	0x3ed12992	0.40852028
69	0x3e841dd4	0.25804007
70	0xbd2eb82d	-0.042656112
71	0x3e608c35	0.21928485
72	0x3e38a701	0.18032457
73	0xbe86784f	-0.26263663
74	0xbe1b47db	-0.1516413
75	0x3ebe2b9c	0.37142646
76	0xbefe9ccc	-0.49729002
77	0x3ed909e0	0.42390347
78	0x3e4e758d	0.2016203
79	0xbe634888	-0.22195637
80	0x3e36c9b4	0.17850381
81	0xbf0e7d61	-0.55660063
82	0x3c17524c	0.00923593
83	0xbdf52d7f	-0.11971568
84	0xbe5a49d9	-0.21317233
85	0x3eabd38b	0.33559832
86	0x3e25806c	0.1616227
87	0xbdfd5c32	-0.123711005
88	0x3d3e0070	0.046387136
89	0xbd983741	-0.07432414
90	0x3e267d2b	0.16258685
91	0x3cc2125b	0.023690393
92	0xbdd1020e	-0.1020547
93	0xbc5c7929	-0.013456621
94	0x3dd3c347	0.103399806
95	0xbeabd715	-0.33562532
96	0x3d1542c5	0.03644063
97	0xbe46744f	-0.19380306
98	0x3c1edf92	0.009696858
99	0xbf55ae52	-0.83469117
100	0x3d9d0225	0.07666425
101	0x3e07f9bc	0.1327886
102	0x3e47fefd	0.19530864
103	0xbf0a4768	-0.5401521
104	0xbd53d22d	-0.05171411
105	0xbed795e6	-0.4210655
106	0xbdda5f28	-0.10662681
107	0x3c862897	0.016376777
108	0xbd4282ec	-0.047488138
109	0x3e125cc5	0.14293201
110	0x3d55d12f	0.052201446
111	0xbe857cae	-0.26071686
112	0xbd8090d4	-0.06277624
113	0x3e4d2585	0.20033844
114	0xbf083b7d	-0.5321577
115	0x3e503dcf	0.20336078
116	0x3d4fe0ef	0.050751623
117	0x3ead81c8	0.33888078
118	0x3f1c0b1d	0.6095446
119	0x3e5bfb5c	0.21482605
120	0x3e2d9fd7	0.16955505
121	0xbeca3907	-0.39496633
122	0x3dedd444	0.11612752
123	0xbee63c1d	-0.44967738
124	0xbdcd9200	-0.10037613
125	0x3e56ca7b	0.20975678
126	0xbc9fc5c4	-0.019503482
127	0x3dfe876a	0.12428172
128	0xbe66ad85	-0.2252713
129	0xbe34027c	-0.17579073
130	0xbe0bfeea	-0.13671461
131	0x3e7609b1	0.24027134
132	0x3ebd8bc2	0.3702069
133	0xbe9077e2	-0.28216463
134	0xbdf70144	-0.12060788
135	0xbe2777fb	-0.16354363
136	0xbe76a060	-0.24084616
137	0xbd4cf4c8	-0.05003813
138	0x3db9b85b	0.09068366
139	0x3e40b965	0.18820722
140	0xbe30480b	-0.17214982
141	0x3e6b08fe	0.22952649
142	0x3ec0f3eb	0.37686095
143	0xbd9383ea	-0.07202895
144	0x3f22e78a	0.6363455
145	0x3eda08d8	0.42584872
146	0x3e5a9aaf	0.2134807
147	0xbee0ec06	-0.43930072
148	0xbe09574f	-0.13412212
149	0xbe66b174	-0.2252863
150	0x3dac46bd	0.0841193
151	0xbdd8204b	-0.105530344
152	0xbe652f85	-0.22381409
153	0xbe152083	-0.14563183
154	0xbeb45cdf	-0.35227105
155	0xbeaa0e0d	-0.33213845
156	0x3d9899af	0.07451188
157	0xbe24ab86	-0.16081056
158	0x3e3f404c	0.18676871
159	0x3bbe54ce	0.0058084494
160	0xbcbea431	-0.023271652
161	0xbdd03c7e	-0.10167788
162	0xbd6b2d1d	-0.05741607
163	0x3e6dffa1	0.23242046
164	0x3e8ef3c4	0.27920353
165	0xbeb30f63	-0.34972677
166	0xbc91a9ba	-0.017781127
167	0x3eb97c27	0.36227533
168	0x3e586531	0.21132351
169	0xbd501356	-0.05079969
170	0x3e27fdfa	0.16405478
171	0x3e049754	0.12948352
172	0x3d8dacc2	0.069177166
173	0x3d09b372	0.033618398
174	0xbc305b16	-0.010763904
175	0x3ea308a4	0.3184253
176	0x3e9a46e1	0.301322
177	0x3e18c0eb	0.14917342
178	0x3d1c318a	0.03813318
179	0xbeb9a2b3	-0.36256942
180	0x3d5c9835	0.053856093
181	0x3e964401	0.29348758
182	0x3cdb8961	0.026798906
183	0x3e84499f	0.25837418
184	0xbde89448	-0.113564074
185	0x3e6295e6	0.22127494
186	0xbc7917ad	-0.015203399
187	0xbd1d5c2c	-0.03841798
188	0xbdfe863b	-0.12427946
189	0x3e8023bb	0.2502726
190	0xbe623234	-0.22089463
191	0xbeb92082	-0.36157614
192	0xbdaf8a3b	-0.08571287
193	0xbdf2468b	-0.11829861
194	0xbf0ca266	-0.549353
195	0x3df7f53b	0.12107321
196	0x3e3319f7	0.17490374
197	0x3e2a2d81	0.16618921
198	0xbe1c19c2	-0.15244201
199	0xbc9e58f7	-0.019329531
200	0xbb9f2b5a	-0.004857463
201	0xbeb4dac4	-0.35323155
202	0x3c1dbf8e	0.00962819
203	0x3cdfa43b	0.02729999
204	0xbe055aa6	-0.13022861
205	0xbe39ec33	-0.18156509
206	0xbe976f7a	-0.29577237
207	0xbced9bd1	-0.029004963
208	0xbf821336	-1.0162113
209	0xbedf331d	-0.43593684
210	0x3e2c1a8c	0.16807002
211	0x3ccbaaf4	0.02486179
212	0x3d1f8815	0.038948137
213	0xbd17fc01	-0.037105564
214	0x3db00694	0.08595005
215	0x3cf6bccc	0.030119322
216	0x3c3bccaa	0.01146237
217	0x3e10e571	0.14150025
218	0xbe02ff9b	-0.12792818
219	0xbefc95a8	-0.4933293
220	0xbd46b189	-0.048509154
221	0x3a2e18f8	0.0006641294
222	0x3d43d516	0.047810636
223	0xbe907983	-0.28217706
224	0xbd0c93f9	-0.034320805
225	0xbef0811a	-0.46973497
226	0xbec8f156	-0.39246625
227	0x3e3ae498	0.18251264
228	0xbe2c9a4c	-0.16855735
229	0x3e3e6388	0.18592656
230	0xbe8e9906	-0.27851123
231	0xbeef363c	-0.46721065
232	0x3de1e9d4	0.11030927
233	0xbdba0099	-0.09082145
234	0x3e0a491a	0.13504449
235	0xbd729ed3	-0.059233498
236	0xbc29b57f	-0.010358213
237	0x3e2d41c0	0.16919613
238	0x3f032d54	0.5124104
239	0xbea11c56	-0.3146693
240	0xbec540dc	-0.38526046
241	0x3e42a688	0.19008839
242	0xbdf364b5	-0.11884443
243	0x3eddf058	0.4334743
244	0x3d654d65	0.055982012
245	0x3dc60383	0.096686386
246	0xbd629ab1	-0.055323306
247	0xbda53a11	-0.08067716
248	0x3e97c565	0.29642788
249	0x3dd26c47	0.102745585
250	0xbef96ee0	-0.48717403
251	0xbf16b51e	-0.5887011
252	0xbf09aa56	-0.53775537
253	0x3e114e14	0.1418994
254	0x3e03a43a	0.12855616
255	0x3cdf5dd2	0.027266417

encoder.gru.bias_ih_l0 f4 [96]
0	0x3e3b912e	0.183171
1	0x3e0376a4	0.12838227
2	0x3ecdf801	0.40228274
3	0x3ed18187	0.40919134
4	0x3ea7b14f	0.32752463
5	0xbd3a447c	-0.045475468
6	0x3ebc939a	0.3683136
7	0xbc592714	-0.013253946
8	0x3e3a3ab6	0.18186459
9	0x3ed012fa	0.40639478
10	0x3e8237f2	0.25433308
11	0x3ee44cf9	0.44589975
12	0x3ea81ab2	0.32832867
13	0x3ddf104a	0.10891779
14	0x3e33e149	0.17566408
15	0xbca0fa48	-0.019650593
16	0x3e0cf089	0.13763632
17	0x3e9779d4	0.29585135
18	0x3e95dd09	0.292702
19	0x3e1789b3	0.14798622
20	0x3e06c54b	0.13161199
21	0x3e653308	0.22382748
22	0x3e98b372	0.29824406
23	0x3d9db2eb	0.077001415
24	0x3e4072a6	0.18793735
25	0x3d10b07e	0.035324566
26	0x3de6510b	0.112459265
27	0x3e2b91ea	0.1675488
28	0x3f2b63f1	0.66949373
29	0x3ee56ee0	0.44811153
30	0x3e48ceab	0.19610088
31	0x3ea465b1	0.32108834
32	0xbe09dc84	-0.13463026
33	0x3e4b4fbf	0.1985464
34	0x3e0d2533	0.13783722
35	0xbf3cea71	-0.7379523
36	0xbaf8ecb9	-0.0018991447
37	0xbd067148	-0.032822877
38	0xbe072f2f	-0.13201593
39	0xbf196dcb	-0.59933156
40	0x3e2b6253	0.16736726
41	0x3c2d233a	0.010567481
42	0xbdf8a291	-0.12140382
43	0x3d0fd9b9	0.035119746
44	0x3ef8a81a	0.4856575
45	0xbee9d567	-0.45670626
46	0xbe9025b5	-0.28153768
47	0x3d4d909d	0.050186742
48	0xbf187a78	-0.5956187
49	0xbea51ca8	-0.32248425
50	0xbee82911	-0.4534383
51	0x39c0607e	0.00036692986
52	0xbe3fec7c	-0.18742555
53	0x3e37d020	0.17950487
54	0x3ea0a837	0.31378338
55	0xbe8802f3	-0.2656475
56	0xbee868c8	-0.45392442
57	0x3d8c6c90	0.06856644
58	0x3cb9fa38	0.022702321
59	0xbe4911d0	-0.19635701
60	0xbda869da	-0.082233146
61	0xbe0dfff5	-0.13867171
62	0xbeb8d7f3	-0.36102256
63	0x3db9d9df	0.09074759
64	0x3d24a8ac	0.04019992
65	0xbe368ced	-0.17827196
66	0x3de6a226	0.11261396
67	0xbda07944	-0.078356296
68	0x3e2a1197	0.16608272
69	0x3e90fc90	0.2831769
70	0x3e3e614b	0.18591802
71	0xbdc1a516	-0.09455316
72	0xbe0d7ae5	-0.13816412
73	0x3df27409	0.11838538
74	0x3ad56b1b	0.001628253
75	0x3e7d7208	0.2475053
76	0x3e159cbe	0.14610574
77	0x3e9d08c5	0.30670753
78	0x3e3feddb	0.18743078
79	0xbd6ea397	-0.05826148
80	0x3b8f4c78	0.0043731295
81	0x3d4fbc78	0.050716847
82	0xbd2d6983	-0.042336952
83	0x3e1f3126	0.15546092
84	0x3d824b73	0.06362047
85	0x3e16ba6e	0.14719555
86	0xbc8e1bc5	-0.017347226
87	0x3cfacd0c	0.030615352
88	0x3cd19a2f	0.025586216
89	0xbd1e819c	-0.038697824
90	0xbcdbc485	-0.026827106
91	0xbe460267	-0.19336854
92	0xbd39bd35	-0.045346458
93	0xbd8ac9ff	-0.06776809
94	0xbe0d03f3	-0.13771038
95	0xbd88bf73	-0.06677141

encoder.gru.bias_hh_l0 f4 [96]
0	0x3dda51a6	0.106601045
1	0x3eda59de	0.42646688
2	0x3f0c7f8a	0.5488211
3	0x3e7bed68	0.24602282
4	0x3eb8a9e8	0.36067128
5	0x3dceb5a4	0.10093239
6	0x3ed6d16f	0.4195666
7	0x3e36a830	0.17837596
8	0x3ea1db27	0.31612512
9	0x3e91b164	0.2845565
10	0x3ed64b6a	0.4185441
11	0x3ed5139d	0.41616526
12	0x3e9d3c15	0.307099
13	0x3d8f019a	0.06982727
14	0x3e37df0b	0.17956178
15	0xbccda9cf	-0.025105385
16	0x3d9793ad	0.07401214
17	0x3f03731e	0.5134753
18	0x3e55938e	0.20857069
19	0x3ebc150e	0.36734813
20	0x3ec117fb	0.37713608
21	0x3e1a0c61	0.15043785
22	0x3da8e80e	0.08247386
23	0x3e2dc0f5	0.16968139
24	0x3e80bd28	0.25144315
25	0x3e11e41f	0.14247178
26	0x3e187d72	0.14891604
27	0x3e86bde8	0.26316762
28	0x3f223fa2	0.63378346
29	0x3ea3019b	0.31837162
30	0x3e3a4a1f	0.18192337
31	0x3ddad562	0.10685231
32	0xbe87793e	-0.26459688
33	0x3e550b4c	0.2080509
34	0x3e3c7875	0.18405326
35	0xbf4b63c7	-0.79449123
36	0xbe06b922	-0.1315656
37	0xbe32c59b	-0.17458193
38	0xbd6f9ca6	-0.058499
39	0xbf10d1c8	-0.565701
40	0x3da7ddcd	0.08196602
41	0x3e02fa5f	0.12790821
42	0x3d5471a2	0.05186618
43	0xbd891418	-0.06693286
44	0x3f05a415	0.52203494
45	0xbe9083cb	-0.2822555
46	0xbe83d44f	-0.25747916
47	0x3ddc9f52	0.107725754
48	0xbf1615e2	-0.5862714
49	0xbe999fac	-0.30004632
50	0xbea367df	-0.31915185
51	0x3e10a6f8	0.14126194
52	0xbe3af79a	-0.18258515
53	0x3ca636ec	0.02028986
54	0x3eebbcf1	0.46042588
55	0xbdd509d3	-0.104022644
56	0xbf1541f0	-0.5830374
57	0x3e8303ca	0.25588828
58	0x3c6cc642	0.014451565
59	0xbe03f4fa	-0.1288642
60	0xbea728df	-0.3264837
61	0xbde7fe52	-0.113278046
62	0xbd87703b	-0.06613203
63	0xbdc26d9d	-0.09493563
64	0xbe01dfee	-0.12683079
65	0xbdee991d	-0.11650298
66	0xbe596bcd	-0.21232529
67	0xbbc7c9ee	-0.00609707
68	0x3e03396f	0.12814878
69	0x3e4007dc	0.18752998
70	0x3e130603	0.14357762
71	0x3e143ce8	0.14476359
72	0xbdd3a6b2	-0.10334529
73	0xbeb5b91c	-0.3549279
74	0x3dad9af9	0.08476824
75	0x3e94a186	0.29029483
76	0x3d254310	0.04034716
77	0xbd6f26d0	-0.058386624
78	0x3d5a5d3e	0.05331158
79	0xbcf2003f	-0.029541133
80	0x3e2c49cd	0.16825028
81	0x3ed4e08d	0.4157757
82	0x3e452eb0	0.19256091
83	0xbef73687	-0.4828379
84	0xbd0309ed	-0.031991888
85	0x3e72a46f	0.23695539
86	0x3ec31e19	0.381089
87	0x3dd15c88	0.10222727
88	0xbe9e9c0b	-0.30978426
89	0xbea4164b	-0.32048258
90	0xbe7ffb63	-0.2499824
91	0xbecf04ca	-0.4043334
92	0xbe852fca	-0.26013023
93	0xbf0098ab	-0.5023295
94	0x3e14109c	0.14459461
95	0xbea825f5	-0.3284146

decoder.embedding.weight f4 [45, 32]
0	0x3e99ddbd	0.30051985
1	0xbe63f805	-0.2226258
2	0x3eea79b9	0.45795992
3	0xbfe2a38f	-1.7706164
4	0xc025d5a1	-2.5911639
5	0xbf84a950	-1.036417
6	0xbf3f36fe	-0.74693286
7	0xbf817aa7	-1.0115556
8	0x3fa3a73d	1.2785412
9	0x3f04ec5e	0.5192317
10	0x40096d73	2.1473053
11	0xbfac095b	-1.3440355
12	0x3cbbd3b7	0.022928102
13	0x3fc637bd	1.548576
14	0xbf36ba36	-0.71377885
15	0xbf10aeec	-0.5651691
16	0x3ed08d2d	0.4073271
17	0x3ef17b19	0.4716423
18	0xbfb49d92	-1.4110587
19	0x40020215	2.031377
20	0xbf0c3192	-0.5476314
21	0xbf1ce28f	-0.612832
22	0x3e2ea97c	0.1705684
23	0xbfe64d61	-1.7992364
24	0x3e859d9c	0.2609681
25	0xbf9e2f0f	-1.2358111
26	0x3ebf9ae8	0.37422872
27	0xc0062b2d	-2.0963852
28	0x3fca91a3	1.5825695
29	0xbed9fa78	-0.42573905
30	0x3ebbc0fd	0.36670676
31	0x3f3472ed	0.7048786
32	0xc02b8a0b	-2.6803005
33	0x3faa7987	1.3318337
34	0x3ec8836d	0.3916277
35	0x40179e86	2.3690505
36	0x3f591791	0.84801584
37	0x3fa22b42	1.2669451
38	0x3fa2057e	1.2657926
39	0xbf8bbc3c	-1.091682
40	0x3fad733f	1.3550795
41	0xbf7e82cc	-0.9941833
42	0x3f54cc36	0.831241
43	0xbf98c3f9	-1.1934806
44	0xc0228a28	-2.5396824
45	0x3fb3eec1	1.4057237
46	0x3fdb91ef	1.715391
47	0xbf0b5a92	-0.54435074
48	0x3f211943	0.6292917
49	0x40022dc5	2.0340436
50	0xbfc75169	-1.557172
51	0x3f5b7bb1	0.85735613
52	0xc01c27a9	-2.4399207
53	0xc030ca2a	-2.762339
54	0xbfb7b979	-1.4353477
55	0x4034d48f	2.8254735
56	0x3e0b9b5d	0.13633485
57	0x3f0eff21	0.55858046
58	0x3e665b44	0.22495753
59	0xbe6f0047	-0.2333995
60	0xbf7f682d	-0.99768335
61	0x3fa05e6b	1.2528814
62	0x40016695	2.021886
63	0xbf0f14bb	-0.5589101
64	0xbf310ad7	-0.69157165
65	0xbfdc9d4e	-1.7235506
66	0xbdd78697	-0.10523718
67	0x3f32cbce	0.6984223
68	0xbf0e9439	-0.5569492
69	0xbc3faede	-0.011699406
70	0x3f3d9878	0.74060774
71	0xbe716bd6	-0.23576292
72	0xbe0b964d	-0.13631554
73	0x3e8158fe	0.25263208
74	0xc031757d	-2.772796
75	0xbfc36847	-1.5266198
76	0x3f58619e	0.8452395
77	0x3e083ac5	0.13303669
78	0x3d745a47	0.059656408
79	0x3f251499	0.64484555
80	0xbe28c6bc	-0.16482061
81	0xbe608afd	-0.2192802
82	0xbee01f03	-0.4377366
83	0x400e91d3	2.2276504
84	0x3f68501a	0.90747225
85	0xbf16dd6b	-0.58931607
86	0x3f300c3b	0.6876866
87	0xbe5a2e41	-0.21306707
88	0xbf3dd808	-0.7415776
89	0xbfc2250c	-1.5167556
90	0x3e9e5ec9	0.3093169
91	0xbf9022b0	-1.1260586
92	0x3f49055e	0.78523815
93	0x3f237228	0.63846064
94	0xbfc43ec3	-1.5331653
95	0xbefaad6b	-0.48960432
96	0xbeba1679	-0.3634527
97	0x3f8983ad	1.0743309
98	0x3f2cf51e	0.6756152
99	0xbf17b244	-0.59256387
100	0xbf9b1259	-1.2114974
101	0x3f352755	0.7076314
102	0x3e084c90	0.13310456
103	0xbf8111de	-1.0083578
104	0x3f26eb16	0.6520246
105	0x3e62e115	0.22156174
106	0x3d89d424	0.06729916
107	0xbf157fe5	-0.58398277
108	0x3fea65c7	1.831231
109	0xbf9cd813	-1.2253441
110	0x3ed419af	0.41425845
111	0x40054757	2.0824792
112	0xbfa44af9	-1.283538
113	0xbe4a68f0	-0.19766593
114	0x3f3acdcd	0.7297028
115	0x3e57c077	0.21069513
116	0xbfebe2b8	-1.8428564
117	0x3f20b8cd	0.62781984
118	0xbe455aad	-0.19272871
119	0xbf04293b	-0.5162541
120	0x3f99a260	1.2002678
121	0xbdb6e0bf	-0.08929586
122	0x3f8274ea	1.0191929
123	0xc02ec7ce	-2.730945
124	0x3fc5b330	1.5445309
125	0x3fc3622b	1.5264333
126	0xbfd3be92	-1.6542532
127	0x3ff3d8b5	1.9050509
128	0x3fb42faa	1.4077046
129	0x3e28a13c	0.16467756
130	0x3f0fb5a2	0.56136525
131	0xc00d3548	-2.206377
132	0xbe25461b	-0.16140024
133	0xbdcb4d62	-0.09926869
134	0x3ffa384d	1.9548432
135	0xbeabc60d	-0.33549538
136	0xbfa2836c	-1.2696357
137	0xbca14639	-0.019686805
138	0xbf46e12e	-0.77687347
139	0xbeaecfd5	-0.34142938
140	0xbfdf84f7	-1.7462453
141	0xbf8aa375	-1.0831133
142	0xbcfe2a32	-0.03102598
143	0xbee9ad2f	-0.4563994
144	0x3fde7010	1.7377949
145	0xbfa703da	-1.304805
146	0x401f0ba3	2.4850852
147	0x3d9f5e7e	0.07781695
148	0xbf943043	-1.1577228
149	0x3eae77bc	0.34075725
150	0xc01c3450	-2.440693
151	0xbf30f86c	-0.6912906
152	0x3fbfb4f6	1.49771
153	0x3e7f235e	0.24915835
154	0x3f0ef709	0.55845696
155	0x3dcdbde4	0.100459844
156	0x3f61e66a	0.8824221
157	0x3ec63455	0.387118
158	0x3e27747c	0.16353029
159	0xbf1fdec5	-0.62449294
160	0x3f97abb2	1.1849272
161	0x3f69e2c6	0.91361654
162	0xc032dfe6	-2.7949157
163	0x3f11108e	0.56665885
164	0xc00ff9d4	-2.2496233
165	0xbf0d2bf7	-0.5514521
166	0x3f03da15	0.5150464
167	0x4005c222	2.089974
168	0xbef8c5d9	-0.48588446
169	0xbde44a59	-0.11146993
170	0xbfaa5a3f	-1.3308791
171	0xbe53d2bf	-0.20685862
172	0x4003a1a7	2.0567415
173	0xbf7ff025	-0.99975806
174	0x3fde5c3a	1.7371895
175	0xbfc52711	-1.5402547
176	0xbed3f1d3	-0.41395435
177	0xbedcbd85	-0.43113342
178	0x3fba394e	1.4548738
179	0xbe3695a5	-0.17830522
180	0xbfae8e44	-1.3637166
181	0xbf2d6d1d	-0.6774462
182	0xbdf0c77e	-0.117568
183	0xbf090ec3	-0.5353815
184	0xbfa4a026	-1.2861373
185	0xbf252c8e	-0.6452111
186	0xbf1e22f3	-0.6177208
187	0xbf35f3a2	-0.7107488
188	0xbd01e0a1	-0.031708363
189	0xbf2139a2	-0.62978566
190	0xbe161c38	-0.14659202
191	0x3fe2d012	1.7719748
192	0x3f1d8008	0.61523485
193	0xbeae6ab3	-0.3406578
194	0xbed6bddf	-0.41941735
195	0xbd11c78e	-0.0355907
196	0xbf10fb1d	-0.5663317
197	0x3ee5791d	0.44818965
198	0xbfcb17ac	-1.5866599
199	0x3fc7974b	1.5593046
200	0x3f96a6a1	1.1769601
201	0x3eacc6a0	0.3374529
202	0x3de0ae29	0.109707184
203	0x3e45f4ac	0.19331616
204	0x3f94c3dc	1.1622272
205	0xbe483e91	-0.19555117
206	0x3eb09881	0.3449135
207	0x3f30c182	0.6904527
208	0xbd189fdb	-0.037261825
209	0xbf804051	-1.0019628
210	0x401c4999	2.441992
211	0x3f2ee94f	0.6832475
212	0xc0045a0c	-2.067996
213	0x3ee6d77f	0.45086285
214	0xbf7b3269	-0.98123795
215	0xbea2c0e5	-0.31787792
216	0xbf9c5c6a	-1.2215703
217	0x3fdd200f	1.7275409
218	0x3fafaa50	1.372385
219	0x3f80f184	1.0073705
220	0x3f85af52	1.0444129
221	0xbf7e49a9	-0.99331146
222	0x3f03bee6	0.5146316
223	0xbed2ad43	-0.41147813
224	0x3eaa1806	0.33221453
225	0x3feb7b48	1.8396997
226	0x3fc3553c	1.5260386
227	0x3f23cccb	0.63984364
228	0xbfd40aab	-1.6565756
229	0xc035b335	-2.839063
230	0xbf3694f3	-0.7132103
231	0x3ed57771	0.4169269
232	0xbf185c4c	-0.59515834
233	0xbee0aeb9	-0.43883303
234	0x3eac0eee	0.3360514
235	0x402ba0cc	2.6816893
236	0x3f5d7166	0.8650116
237	0x3f1bdd7c	0.60884833
238	0xbfdf8c7b	-1.7464746
239	0x3f035f06	0.5131687
240	0x3da32d04	0.079675704
241	0xbe2a3441	-0.16621496
242	0x3dfa75cc	0.12229499
243	0x403b8fe7	2.930658
244	0xbf83da30	-1.030096
245	0x3fb6c4a9	1.4278766
246	0xc009977f	-2.1498716
247	0x3fa70301	1.3047792
248	0x3fbedba6	1.4910781
249	0xbf8e9fae	-1.114248
250	0xc01d13a1	-2.454323
251	0xc00efdce	-2.234241
252	0xbfc9e228	-1.5772142
253	0x3fe95275	1.8228289
254	0x3fcb71dd	1.5894123
255	0x3f4b692c	0.79457355

decoder.gru.weight_ih_l0 f4 [96, 32]
0	0x3e7d63a4	0.24745041
1	0x3ef301cb	0.47462305
2	0xbe1529c8	-0.1456672
3	0x3d2a1a20	0.04152882
4	0xbeab97ea	-0.3351434
5	0x3ee122f9	0.43971995
6	0x3cdc5d1d	0.026899869
7	0x3e0e6857	0.1390699
8	0x3e0cf4a2	0.13765195
9	0xbf007bb8	-0.5018878
10	0x3e85c432	0.26126248
11	0x3d9b0cdd	0.07570813
12	0x3dffee5b	0.124966346
13	0x3ea493c0	0.32143974
14	0xbcc89102	-0.024483208
15	0xbde5fe04	-0.1123009
16	0xbea8f640	-0.33000374
17	0x3e758c28	0.23979247
18	0x3e66ebe7	0.22550927
19	0xbdd3325e	-0.10312341
20	0xbda84a61	-0.08217312
21	0x3ee0e0d3	0.43921527
22	0xbeae32e5	-0.34023204
23	0x3ece04ad	0.40237942
24	0x3ee7f6b9	0.45305422
25	0xbc088a5a	-0.008333767
26	0x3e0cefea	0.13763395
27	0xbeba79c8	-0.36421037
28	0xbe00f908	-0.12594998
29	0xbc2e1e78	-0.0106273815
30	0x3d80c801	0.06288148
31	0xbe4e1f04	-0.20129019
32	0x3e4c8860	0.19973898
33	0x3e0014ad	0.12507887
34	0xbd579d13	-0.052640032
35	0xbdb112d6	-0.08646171
36	0xbde5b0ea	-0.11215384
37	0x3d4e15c3	0.050313722
38	0x3ce91c6d	0.028455937
39	0xbea1b2b8	-0.31581664
40	0x3d19d87b	0.037559967
41	0xbe79f69a	-0.24410477
42	0x3dce5caa	0.10076268
43	0x3e185847	0.14877425
44	0x3e4d4463	0.20045619
45	0x3c64180c	0.013921749
46	0xbe5df2a6	-0.21674594
47	0x3da441fd	0.08020399
48	0xbe9a61fe	-0.30152887
49	0x3f1e9f3f	0.6196174
50	0x3c92d15b	0.017922094
51	0x3ca37266	0.01995201
52	0xbe1a5e36	-0.15075001
53	0xbcedff3f	-0.029052375
54	0xbe8361a9	-0.25660446
55	0x3ec72c78	0.38901114
56	0x3ec2295c	0.3792218
57	0x3e1f581f	0.1556096
58	0x3ee4adc1	0.44663814
59	0x3db0d3d5	0.08634154
60	0x3eafb295	0.34315935
61	0x3e1b637c	0.15174669
62	0xbe91952f	-0.2843413
63	0xbe091717	-0.13387714
64	0x3e27ab04	0.16373831
65	0xbd68fa13	-0.056879114
66	0x3e08373a	0.13302317
67	0xbee6cec1	-0.45079616
68	0xbdb47f38	-0.088133276
69	0xbf08c6e6	-0.53428495
70	0xbeb16961	-0.3465071
71	0xbe57e3be	-0.2108297
72	0xbdfbd2b3	-0.12296047
73	0xbecfbfca	-0.4057601
74	0xbc37f244	-0.011227194
75	0xbe2e9de8	-0.17052424
76	0xbeab7834	-0.33490145
77	0x3f425784	0.7591479
78	0xbe8c7f77	-0.27440998
79	0xbea47d9c	-0.32127082
80	0x3e7c4fb5	0.24639781
81	0x3d523227	0.05131736
82	0x3d79b2b7	0.06096145
83	0x3eccc71e	0.39995664
84	0x3dd6c7fc	0.10487363
85	0x3efdb064	0.49548638
86	0xbe49bc4d	-0.19700737
87	0xbc899c9d	-0.016798312
88	0x3ded48fd	0.11586187
89	0xbeefc6f9	-0.46831492
90	0xbae99a08	-0.0017822394
91	0xbeabe74e	-0.3357491
92	0x3ecf06ad	0.4043478
93	0x3f02ae27	0.51046985
94	0xbeea4a2a	-0.45759708
95	0xbdf697e5	-0.1204069
96	0x3eebc72f	0.46050403
97	0x3ec3cc98	0.3824203
98	0xbea773f4	-0.32705653
99	0xbb9d7662	-0.004805372
100	0x3b56665b	0.0032714817
101	0x3c9d4eff	0.019202707
102	0x3e7767af	0.24160646
103	0x3c81c9f0	0.015843362
104	0x3e99e327	0.30056116
105	0x3e17e181	0.14832117
106	0x3df8811c	0.12134001
107	0xbe60c6a2	-0.21950772
108	0xbe019257	-0.1265348
109	0x3d78cb1f	0.060740586
110	0xbe055ef2	-0.130245
111	0x3da882be	0.08228062
112	0x3e88a66e	0.26689476
113	0x3e853602	0.26017767
114	0x3df151e9	0.11783201
115	0x3f29cf57	0.66332
116	0xbefacb92	-0.48983437
117	0xbe40ad72	-0.18816164
118	0xbf4264ad	-0.7593487
119	0x3e4eac3a	0.20182887
120	0x3e57d39a	0.21076813
121	0x3e16c71e	0.14724395
122	0xbc69299e	-0.014231114
123	0x3cf65bf2	0.03007314
124	0x3e8f52a0	0.27992725
125	0xbe4a1338	-0.19733894
126	0xbe9680c9	-0.2939513
127	0xbdc633fe	-0.096778855
128	0x3e294fae	0.16534302
129	0xbe98554d	-0.2975258
130	0xbe133246	-0.14374647
131	0xbeb8ae67	-0.36070558
132	0xbdaf20ea	-0.085512
133	0xbdb4e120	-0.08832002
134	0xbddaa0fb	-0.10675236
135	0xbec6e297	-0.3884475
136	0xbe8cfc36	-0.27536172
137	0xbe61ee45	-0.22063549
138	0xbe05934c	-0.1304447
139	0xbe84fd9a	-0.25974733
140	0x3d00529b	0.03132878
141	0x3d729379	0.059222672
142	0x3e19a659	0.15004863
143	0xbdcfae61	-0.10140682
144	0xbeb84323	-0.3598872
145	0x3ed16e4e	0.40904468
146	0x3e881789	0.26580456
147	0xbe3b0ff8	-0.1826781
148	0x3ed30d36	0.41221017
149	0x3d81adf8	0.0633201
150	0xbe2c3eb4	-0.16820794
151	0xbb8aead1	-0.004239418
152	0xbc90d2b4	-0.017678596
153	0xbe4284f3	-0.18996029
154	0x3ca16ec3	0.019706136
155	0xbe689f18	-0.2271694
156	0xbc942dd5	-0.01808826
157	0xbd79cd5d	-0.060986865
158	0xbd289a1e	-0.041162603
159	0xbce26170	-0.027634352
160	0x3dfbff86	0.123045966
161	0x3e76bb41	0.24094869
162	0xbc212414	-0.009835262
163	0xbe214f31	-0.15752865
164	0xbeede528	-0.46463895
165	0x3e3b2026	0.18273982
166	0xbddb6dad	-0.10714278
167	0x3c31a4d6	0.010842523
168	0xbc7653fe	-0.015034674
169	0xbeb4e441	-0.35330394
170	0x3db8bab0	0.09019983
171	0xbe368eb2	-0.17827871
172	0x3d9cc742	0.07655193
173	0x3cbdceef	0.023169963
174	0x3c55a445	0.013039653
175	0x3df35b09	0.11882598
176	0xbead419b	-0.33839116
177	0x3e2d9ca2	0.16954282
178	0x3dc497d8	0.095992744
179	0x3ec401a4	0.38282502
180	0xbc9c764a	-0.019099373
181	0xbd49f8bf	-0.04930949
182	0xbeeb2fc8	-0.45934892
183	0xbcbb3e3f	-0.02285683
184	0x3e677b64	0.22605664
185	0x3df6802a	0.12036164
186	0x3e55d56d	0.20882197
187	0xbe153f83	-0.14575009
188	0x3da06794	0.07832256
189	0x3d3d7cd8	0.04626164
190	0xbe11de9e	-0.14245078
191	0xbdd8cf18	-0.10586375
192	0x3ec83561	0.39103225
193	0xbd3dcf34	-0.046340182
194	0x3dbaa99b	0.09114381
195	0xbda637ef	-0.08116137
196	0xbda11f04	-0.07867244
197	0xbdf39f22	-0.118955866
198	0xbed51ae2	-0.41622072
199	0xbe47baf9	-0.19504918
200	0xbdfe3c2a	-0.12413819
201	0x3e9b2819	0.3030403
202	0x3ba5f2c7	0.0050643417
203	0x3dc3b38a	0.09555729
204	0x3dd27d36	0.10277788
205	0x3e8cc724	0.27495682
206	0xbc7b12ec	-0.015324336
207	0xbe970aa5	-0.2950031
208	0xbb9a8b41	-0.0047163074
209	0x3e47ae28	0.19500029
210	0x3e41e759	0.18935908
211	0x3eb17822	0.34661967
212	0xbceed5b0	-0.029154629
213	0x3e6ac478	0.2292651
214	0xbeb993b0	-0.3624549
215	0xbb91007b	-0.004425106
216	0x3e08693c	0.13321394
217	0x3e4fd73f	0.20296954
218	0x3ed43f4e	0.41454548
219	0xbf01f924	-0.50770783
220	0x3d9774fa	0.073953584
221	0x3e857d82	0.26072317
222	0xbea8ad5a	-0.32944757
223	0x3d19b03f	0.037521597
224	0x3ee5d4ee	0.44889015
225	0x3d474439	0.048649047
226	0xbed3a7f1	-0.41339067
227	0xbf002dd8	-0.5006995
228	0xbd933c25	-0.07189206
229	0xbe1608ac	-0.14651746
230	0xbf0f015f	-0.5586147
231	0x3e704c4f	0.2346661
232	0x3e9d9452	0.30777222
233	0xbd5f1b77	-0.054469552
234	0xbedfc167	-0.43702242
235	0xbe8d2b6e	-0.27572197
236	0x3d845143	0.06460812
237	0xbc86b557	-0.016443891
238	0x3dd146dc	0.102185935
239	0xbdc1a618	-0.09455508
240	0x3b219303	0.0024654276
241	0x3e37c0ea	0.17944685
242	0x3d16619c	0.03671418
243	0x3e56d088	0.20977986
244	0xbd57e893	-0.052712034
245	0x3ee91fe0	0.4553213
246	0x3df0f02e	0.11764561
247	0x3c2a11e8	0.010380246
248	0x3cf8516a	0.030312259
249	0xbd151ef5	-0.036406476
250	0x3cf4f6c4	0.029902823
251	0xbdf30805	-0.11866764
252	0x3e4eef04	0.20208365
253	0xbeac3a21	-0.336381
254	0xbed467f4	-0.4148556
255	0x3e7ecb48	0.24882233

decoder.gru.weight_hh_l0 f4 [96, 32]
0	0xbf3c6150	-0.7358599
1	0xbef8c532	-0.48587948
2	0xbc9f74c4	-0.019464858
3	0xbeedc50d	-0.464394
4	0x3dd3ef78	0.103484094
5	0x3e27a790	0.16372514
6	0xbe81b081	-0.25329974
7	0xbe82f570	-0.2557788
8	0xbce8ce75	-0.028418759
9	0xbe64c3b5	-0.22340281
10	0x3f319558	0.69368505
11	0x3e5c5836	0.21518025
12	0x3e018148	0.12646973
13	0x3eeecee1	0.4664221
14	0xbed05d65	-0.40696254
15	0x3f126835	0.5719026
16	0xbe987b69	-0.29781654
17	0xbeea91af	-0.45814273
18	0xbe4df810	-0.2011416
19	0xbe90ef9c	-0.28307807
20	0xbe3999b3	-0.18125038
21	0xbeeeb8d3	-0.46625385
22	0x3f15e680	0.5855484
23	0xbe2aa276	-0.16663536
24	0xbcee002a	-0.029052813
25	0x3ed09c96	0.40744466
26	0xbde51461	-0.111855276
27	0x3e2091dd	0.15680642
28	0x3ec7146d	0.3888277
29	0x3e2ede66	0.17077026
30	0xbd9ce59b	-0.07660981
31	0xbed5889c	-0.41705787
32	0x3d9c4abd	0.07631443
33	0xbf18498b	-0.5948722
34	0xbe19af1d	-0.15008207
35	0x3db731ca	0.089450434
36	0x3df327b8	0.1187281
37	0xbdd4df14	-0.10394111
38	0x3bf84616	0.0075767143
39	0xbe6957ff	-0.22787474
40	0xbe54bfc3	-0.20776276
41	0xbe7d3d44	-0.24730402
42	0x3e349e0a	0.17638412
43	0x3e9a8291	0.3017774
44	0x3a61ab88	0.0008608629
45	0x3eebf0f3	0.46082267
46	0xbe4b0af7	-0.19828402
47	0x3e705dd5	0.23473294
48	0xbea653aa	-0.32485706
49	0xbee3bb62	-0.444789
50	0x3da66e21	0.08126474
51	0x3d29a1af	0.04141396
52	0xbcda3612	-0.02663711
53	0xbe632e2d	-0.22185583
54	0x3e91b250	0.28456354
55	0xbd5aeb5c	-0.053447112
56	0x3e25e347	0.1619998
57	0x3d6f04d5	0.058354218
58	0x3e738035	0.23779376
59	0x3ccab5fb	0.024744978
60	0xbe56ab82	-0.20963863
61	0x3dd969c1	0.10615874
62	0x3db84a7d	0.089985825
63	0xbd0f5c3e	-0.03500008
64	0xbf9bba5a	-1.2166245
65	0xbe0ec2d5	-0.1394151
66	0xbd9b6241	-0.075871
67	0x3e81614d	0.25269547
68	0x3e24e9bc	0.16104788
69	0xbecc3e7d	-0.39891425
70	0xbe121681	-0.14266397
71	0x3f1e11d8	0.6174598
72	0xbf366f23	-0.7126333
73	0xbd3213d5	-0.043475945
74	0x3ead8483	0.3389016
75	0x3eb3a0b8	0.35083556
76	0xbd2f059b	-0.042729955
77	0x3f093b30	0.5360594
78	0x3e897cfe	0.26853174
79	0xbf06b9a6	-0.5262703
80	0x3e2150a5	0.1575342
81	0x3d500cc7	0.050793435
82	0xbd852885	-0.06501869
83	0xbd59e123	-0.053193223
84	0xbe939379	-0.2882345
85	0x3e0dac82	0.13835338
86	0x3f5a195d	0.8519495
87	0xbef9cbfb	-0.48788437
88	0xbe9bde2d	-0.30442944
89	0x3f8a124c	1.0786834
90	0xbe4f6d06	-0.20256433
91	0xbd02bedd	-0.031920303
92	0x3e0f1c23	0.13975577
93	0xbf457b4b	-0.77141255
94	0x3e96fd44	0.294901
95	0xbe512eb3	-0.2042797
96	0xbf14b0d1	-0.580823
97	0xbec14784	-0.37749875
98	0x3c4b06cf	0.01239176
99	0x3f22d369	0.63603836
100	0x3eecc4e2	0.4624396
101	0x3e128ac1	0.14310743
102	0xbf05066e	-0.51962936
103	0xbeb75c2f	-0.35812518
104	0xbf5adf79	-0.8549724
105	0xbebc935c	-0.36831176
106	0x3ed1043d	0.40823546
107	0x3f0a2e66	0.5397705
108	0xbe9e59ab	-0.30927786
109	0x3ecd8ee9	0.40148094
110	0xbeefcb29	-0.46834686
111	0x3e4b42d1	0.19849707
112	0xbe95674a	-0.29180366
113	0xbda80745	-0.082045116
114	0xbed6daf1	-0.41963914
115	0xbb6f36c6	-0.0036501153
116	0x3e3d2b9e	0.1847367
117	0xbf0f79aa	-0.5604502
118	0xbed245cb	-0.41068873
119	0xbdc469c4	-0.09590486
120	0x3d1363c3	0.035983812
121	0x3e71d73b	0.2361726
122	0x3e480fda	0.19537297
123	0xbe66dd86	-0.22545442
124	0x3e4bc4e6	0.1989933
125	0xbf1a9611	-0.60385233
126	0xbf170559	-0.58992535
127	0xbf0686d2	-0.5254947
128	0xbee79e4c	-0.45237958
129	0xbe6284d9	-0.2212099
130	0xbd6056a4	-0.054770127
131	0xbef696e7	-0.48162004
132	0x3ed68a73	0.41902503
133	0xbf31dd4b	-0.6947829
134	0xbde5732d	-0.11203609
135	0x3ff092b3	1.8794769
136	0x3f2843e8	0.65728617
137	0xbd5f8b94	-0.05457647
138	0x3f155f30	0.5834837
139	0xbf2b9f3a	-0.67039835
140	0xbe2cc89a	-0.16873398
141	0x3e6b714f	0.22992443
142	0x3f28b551	0.65901667
143	0xbedc65d8	-0.4304645
144	0x3f3a3b60	0.7274685
145	0x3e8778ab	0.2645925
146	0x3f8ca74c	1.0988555
147	0xbe9f87be	-0.3115825
148	0xbefe3147	-0.4964697
149	0x3f29836d	0.66216165
150	0x3f6c0284	0.9219134
151	0xbf30e959	-0.6910606
152	0xbf469ad1	-0.7757998
153	0xbeace978	-0.33771873
154	0x3e8f1aa9	0.27950028
155	0xbee39aba	-0.44453984
156	0x3b5bbf3e	0.0033530737
157	0x3fa0556c	1.2526069
158	0x3e8a5b51	0.27022794
159	0x3c960241	0.018311622
160	0x3e4b1295	0.19831307
161	0xbf279170	-0.65456295
162	0xbda1f717	-0.07908457
163	0xbc655c6a	-0.013999084
164	0xbe2476df	-0.1606097
165	0x3ed0a8cc	0.40753782
166	0x3dcd6a53	0.10030045
167	0xbea9510d	-0.3306965
168	0xbeeb55da	-0.45963937
169	0xbde3c7dd	-0.11122105
170	0x3f0f0ea3	0.5588171
171	0xbeb973a9	-0.36221054
172	0xbe11f0ab	-0.14251964
173	0x3e9ae0b3	0.30249557
174	0xbebcb2bf	-0.36855122
175	0x3e1b2305	0.15150078
176	0xbe39d37f	-0.18147086
177	0xbe564e65	-0.20928343
178	0x3db3cd3a	0.08779378
179	0x3dabe701	0.0839367
180	0xbf0e865a	-0.55673754
181	0xbe6b187b	-0.22958557
182	0x3ea27081	0.3172646
183	0xbeb2f9ab	-0.34956107
184	0x3ea286b0	0.31743383
185	0x3e49ae39	0.19695367
186	0x3ebfc804	0.37457287
187	0x3e8ddbd1	0.2770677
188	0x3fa36839	1.2766181
189	0xbe81acfd	-0.25327292
190	0xbeda94e9	-0.42691734
191	0xbe613fcf	-0.21996997
192	0xbea182fa	-0.3154524
193	0xbeb3ce70	-0.35118437
194	0xbe1aaba7	-0.15104543
195	0xbdbb0564	-0.091318876
196	0xbbccb036	-0.006246592
197	0xbedce0f3	-0.43140373
198	0xbeaac24d	-0.33351365
199	0x3d9042b7	0.07043975
200	0xbee131b0	-0.4398322
201	0x3d121c67	0.035671618
202	0x3e31ff1e	0.17382476
203	0x3e77811d	0.24170347
204	0x3ebde0d8	0.37085605
205	0x3edacc93	0.42734203
206	0xbe3cd072	-0.1843889
207	0x3e2dfd78	0.16991222
208	0xbc475756	-0.012166819
209	0xbf0e02fd	-0.5547331
210	0xbd952a15	-0.07283417
211	0xbe38d748	-0.18050873
212	0xbe503828	-0.20333922
213	0xbb81b076	-0.0039578034
214	0x3de8b403	0.113624595
215	0xbe098e78	-0.13433254
216	0xbe32edbb	-0.174735
217	0x3eb35862	0.35028368
218	0xbe25f51b	-0.16206782
219	0xbdfa922b	-0.122349106
220	0x3e32496e	0.17410824
221	0xbf2b8351	-0.6699725
222	0xbe9f59dd	-0.31123248
223	0xbe963157	-0.29334518
224	0xbeff4204	-0.49855053
225	0xbe8fbe8b	-0.2807506
226	0xbed700b9	-0.4199274
227	0x3cfdbf24	0.030974932
228	0x3d5b5d00	0.05355549
229	0x3d2f094e	0.042733483
230	0xbe4d1655	-0.2002805
231	0xbcbfcd42	-0.023413304
232	0xbf008f09	-0.50218254
233	0x3ba9ac99	0.005178046
234	0xbd2f0d93	-0.042737555
235	0xbdf2ff2b	-0.11865076
236	0x3e0b1498	0.13582075
237	0x3eec4eba	0.46153814
238	0x3dcbb26e	0.09946142
239	0x3da0c7d3	0.078506134
240	0x3e79f503	0.24409871
241	0xbd58c7b2	-0.05292482
242	0xbcd2b682	-0.025721792
243	0xbe713bc2	-0.23557952
244	0xbbacf146	-0.0052777855
245	0x3e9dda91	0.30830815
246	0x3dda487c	0.106583565
247	0xbed00406	-0.4062807
248	0xbec1ddd3	-0.3786455
249	0x3d18bf68	0.037291914
250	0xbde6829c	-0.112553805
251	0xbe069d75	-0.13146003
252	0x3ed24f5b	0.41076168
253	0xbd59e696	-0.05319842
254	0x3e916123	0.28394422
255	0xbdb070ff	-0.08615302

decoder.gru.bias_ih_l0 f4 [96]
0	0x3f38b0f5	0.72145015
1	0x3e6632bb	0.2248029
2	0x3f1aaeb9	0.60422856
3	0x3f289eb2	0.6586715
4	0x3ea62648	0.3245108
5	0x3ef591c0	0.4796276
6	0x3ee1563d	0.44011107
7	0x3e8fa59f	0.28056046
8	0x3ee61182	0.44935232
9	0x3efce7e6	0.49395674
10	0x3ef38a60	0.4756651
11	0x3f1a65c0	0.6031151
12	0x3f286b70	0.65788937
13	0x3e95aba9	0.2923253
14	0x3e81c440	0.2534504
15	0x3e7e5735	0.24837954
16	0x3ee8dda5	0.454816
17	0x3f2312a7	0.63700336
18	0x3ecf67a3	0.40508756
19	0x3d84a478	0.064766824
20	0x3f116b03	0.5680391
21	0x3ece24b7	0.40262386
22	0x3ecca538	0.39969802
23	0x3efd5dff	0.49485776
24	0x3ed336ca	0.41252738
25	0x3e82f95b	0.25580868
26	0x3ee39476	0.44449204
27	0x3ebf753b	0.37394127
28	0x3efcd7c0	0.49383354
29	0x3ee5b3fd	0.44863883
30	0x3f1d2805	0.6138919
31	0x3f763fef	0.96191305
32	0xbe82baaf	-0.25533053
33	0x3f0e64b7	0.5562243
34	0xbf82792e	-1.0193231
35	0xbf250c3b	-0.6447179
36	0xbf956ce5	-1.1673857
37	0xbdebb7c7	-0.11509662
38	0x3e574bf9	0.21025075
39	0xbf38071a	-0.71885836
40	0x3f26e105	0.651871
41	0xbf4c2364	-0.797415
42	0xbf2a1e86	-0.66452825
43	0xbef53cc5	-0.47897926
44	0xbf5c49ef	-0.86050314
45	0xbf95f82a	-1.1716359
46	0xbe9b05b4	-0.3027779
47	0xbd9232ed	-0.071386196
48	0xbf5f6e06	-0.8727726
49	0xbf44de5a	-0.7690178
50	0xbef1e799	-0.47247007
51	0xbe7ef0f4	-0.24896604
52	0x3c87d39b	0.016580394
53	0xbf07f155	-0.5310262
54	0xbf0667c3	-0.5250208
55	0xbf6d9302	-0.9280244
56	0xbf2175d7	-0.63070434
57	0x3cd3b8b1	0.025844904
58	0xbf16ce0c	-0.5890815
59	0xbe9246fc	-0.28569782
60	0xbe4950aa	-0.19659677
61	0xbec809c4	-0.3906995
62	0xbecf752e	-0.40519089
63	0xbfa1c96a	-1.2639592
64	0x3ecbca16	0.39802617
65	0xbe37d0e9	-0.17950787
66	0x3e0ef950	0.13962293
67	0x3bc01509	0.0058618826
68	0x3f2518a0	0.644907
69	0xbe90f05c	-0.2830838
70	0xbe3752f0	-0.17902732
71	0xbe973c5f	-0.29538247
72	0xbd107678	-0.03526923
73	0xbed3c1eb	-0.41358885
74	0x3e207149	0.15668215
75	0x3eb64cb4	0.35605395
76	0xbdd40afc	-0.103536576
77	0xbee05dc6	-0.43821543
78	0xbe54c94d	-0.20779915
79	0x3ea62920	0.3245325
80	0xbde93ca7	-0.11388522
81	0xbe2c9f83	-0.16857724
82	0x3eb6da38	0.35713363
83	0x3dbf8d5d	0.09353135
84	0x3d1b1076	0.037857495
85	0xbe92a3d0	-0.28640604
86	0x3e16da79	0.14731778
87	0xbdef0cf2	-0.11672391
88	0x3ed049e8	0.40681386
89	0x3daf4a7b	0.08559128
90	0x3f0444b2	0.5166732
91	0xbdb695fd	-0.08915327
92	0x3d4e4e15	0.050367434
93	0x3e690f7b	0.22759812
94	0xbbe733a2	-0.0070557157
95	0x3d6c964b	0.057760518

decoder.gru.bias_hh_l0 f4 [96]
0	0x3f02faae	0.51163757
1	0x3e10403d	0.14087005
2	0x3f0afbd5	0.54290515
3	0x3ee342d2	0.44386917
4	0x3eb0e456	0.34549206
5	0x3f0ad626	0.54233015
6	0x3efea5d5	0.49735895
7	0x3ea8f797	0.33001396
8	0x3ed458c2	0.41473967
9	0x3efbacf3	0.49155387
10	0x3f298f92	0.66234696
11	0x3f060754	0.5235493
12	0x3ed3da36	0.4137742
13	0x3f0807e9	0.5313707
14	0x3e7bd9dd	0.24594827
15	0x3eec4f3f	0.4615421
16	0x3e8c30ee	0.2738108
17	0x3f5f81b9	0.87307316
18	0x3ed60f77	0.41808674
19	0x3ebc81bc	0.3681773
20	0x3f0851f9	0.5325008
21	0x3f13c116	0.577165
22	0x3f0887e2	0.5333234
23	0x3f2aa641	0.66659933
24	0x3ea075c2	0.31339842
25	0x3eeb33b2	0.45937878
26	0x3ed6de22	0.4196635
27	0x3ef3126b	0.4747499
28	0x3f31c086	0.6943439
29	0x3ed3c581	0.4136162
30	0x3f01febc	0.5077932
31	0x3f3b2e77	0.73117775
32	0xbead844c	-0.33889997
33	0x3ec668f0	0.38751936
34	0xbf407a6d	-0.75186807
35	0xbec07b27	-0.37593958
36	0xbfac8287	-1.3477334
37	0x3e52e8d0	0.20596623
38	0x3dd59df5	0.104305185
39	0xbf165f80	-0.5873947
40	0x3f051b3b	0.51994675
41	0xbf561c1e	-0.83636653
42	0xbf3ea202	-0.74465954
43	0xbeac4b11	-0.3365102
44	0xbf0576ee	-0.521346
45	0xbf989ad0	-1.1922245
46	0xbec61617	-0.38688728
47	0xbd5700d1	-0.052491013
48	0xbf46f254	-0.77713513
49	0xbf44add2	-0.7682773
50	0xbf335111	-0.7004557
51	0xbceefb34	-0.029172517
52	0x3ced348e	0.028955724
53	0xbf1b510a	-0.6067053
54	0xbeb41ea8	-0.3517964
55	0xbf84bd50	-1.0370274
56	0xbef500da	-0.47852212
57	0xbe011362	-0.1260505
58	0xbf4b90b3	-0.7951767
59	0xbf10cf2f	-0.5656614
60	0xbebcadd6	-0.36851376
61	0xbef08766	-0.469783
62	0xbe9c1115	-0.30481783
63	0xbfa59186	-1.2935035
64	0x3dc4315c	0.09579727
65	0xbe953211	-0.2913976
66	0x3d5bf99d	0.053704847
67	0x3dd754b7	0.10514205
68	0xbf50042d	-0.8125637
69	0x3cf86171	0.030319901
70	0xbd99babd	-0.075063206
71	0xbe591388	-0.21198857
72	0xbdf7e12e	-0.121034965
73	0xbdeb1dc7	-0.11480289
74	0x3eb8b14d	0.3607277
75	0x3e17801f	0.14794968
76	0x3cec39fc	0.028836243
77	0x3e8a4714	0.27007353
78	0xbf199c70	-0.6000433
79	0x3d4dc737	0.050238814
80	0xbea2e349	-0.3181403
81	0x3c391d59	0.011298501
82	0x3e798159	0.24365748
83	0x3da9b6e8	0.0828684
84	0x3e6906a2	0.22756436
85	0xbeec6c53	-0.46176395
86	0xbe0e7abe	-0.1391401
87	0xbe310d37	-0.17290197
88	0x3ebdeb5c	0.37093627
89	0x3eeeac7a	0.46615964
90	0x3e51ffd3	0.20507745
91	0x3e1f82e3	0.15577273
92	0x3e0167e4	0.12637287
93	0x3c26cd28	0.010180749
94	0xbe2dc274	-0.16968709
95	0xbe73ae20	-0.23796892
