Transformer_50epochs_fulldata.pth (torch, 154377 bytes, 40 tensors)

encoder_embedding.weight f4 [47, 32]
-1.5140295 0.69652444 -0.28837973 1.6028681 1.8143265 -1.485745 -0.9344114 -0.72931063
-0.2687856 0.86944556 1.274707 -0.5015481 -0.39585376 0.81755054 -0.7693748 0.99469966
1.477373 0.028946716 -2.0062604 -0.77949506 -0.8957926 0.10883198 1.9003048 0.114014834
0.36642036 0.25679144 -1.0572426 -1.0864094 1.2189761 -1.1840742 -0.04829338 -0.6052324
-0.9650562 0.28935125 1.1899134 -0.41638687 1.4301448 -0.3572842 -0.45092463 -0.31938982
-0.86465645 -0.91948104 -1.293682 1.2754272 -1.0429149 2.956619 -1.025315 -0.58398765
1.082559 -1.755407 0.41822547 0.628888 -1.1784261 -0.91744506 -0.31315964 -0.5486156
0.6693381 1.3417999 0.46826363 -0.53304434 0.09934309 0.87962747 -0.06257624 0.49889913
1.1965287 1.0451638 0.2906809 -2.207464 -1.3973155 -1.25767 -1.045061 -0.7248337
1.072163 0.777602 -0.7676134 0.4575983 1.0679498 -1.9250617 2.6481006 -0.33233145
-1.6411698 1.5894127 -1.5482503 0.5091119 0.53542274 0.17743483 -0.058136687 0.7090614
1.295936 0.6537034 1.5733445 -0.59380114 -1.2327554 -0.37420404 0.8522901 -0.2544161
1.1802067 0.033567924 0.28542852 0.62413514 -1.0123596 0.23968734 -1.1614187 0.67324346
-0.7394672 -1.0204408 -0.04251105 0.030147042 0.042487755 -0.18633243 -0.30646464 1.1175063
0.2702314 1.2063996 -0.4102793 0.3971768 0.09276518 -1.3266032 0.26643622 0.17695746
0.72766006 1.4574974 -0.2020664 -0.24511793 -0.40852588 -0.13865392 -0.6450694 -0.97364604
0.41459224 0.14320324 0.2044262 -0.21247464 1.2288595 1.5090346 -1.0339713 -1.7619463
-0.033939585 0.7144801 0.08716277 -1.6428608 0.8459149 -1.0342326 -1.64995 0.07158973
0.0999583 -0.37258255 0.7477141 -1.0200174 -0.46589246 0.87170994 0.5329849 -1.441272
0.78021973 0.5287893 -1.5195937 0.8714128 -0.91180617 1.5385878 -0.12593433 -0.54721624
0.94074875 1.063845 -1.1406372 -0.82727265 -1.1005486 -0.9643483 1.3067929 -0.46219817
-0.4245562 -0.6437214 -1.2433858 0.70401984 0.4897148 1.024692 0.041029084 1.1224043
0.13076484 -0.2898943 1.2737198 -0.26261184 -0.7723518 0.517314 -0.7440826 -0.93636876
-0.28936747 1.9005592 1.123742 -2.0016088 0.0103692645 -0.0020695792 1.2235742 -0.34225962
2.3270137 0.024236036 -1.0449983 0.7691901 0.56769466 -0.5545952 -0.7292881 0.36288038
0.70108616 0.25156194 -0.62252694 0.5817073 -0.9921642 -1.1405549 -1.4594463 1.0758637
0.0935561 -1.8063031 0.8633063 0.19891565 0.80529267 -1.873295 -0.42436036 -0.42840818
-1.3259492 -0.7665008 1.4854121 -0.0052751848 -1.6315173 -0.5937328 -1.1150571 0.3698403
1.1443597 0.21060516 -1.241221 -1.6784098 0.27736843 0.25251517 -1.0664816 -2.1113799
0.3032879 -0.3831194 -0.28934875 -0.28514373 0.21802962 -0.022148663 0.79815996 1.6834433
-1.5823869 -0.07640798 -0.70018667 0.90840715 -1.0416884 0.1396513 -0.49626118 -1.9276701
-0.5382712 -0.08484962 -0.15278496 1.4993186 -0.13047178 0.23667552 0.51370525 -0.24801569
00000000: b8cb c1bf 6d4f 323f 82a6 93be c82a cd3f
00000010: da3b e83f e42c bebf 9635 6fbf 1ab4 3abf
00000020: 449e 89be fc93 5e3f 9929 a33f 7565 00bf
00000030: 58ad cabe fe4a 513f bff5 44bf a3a4 7e3f
00000040: 8f1a bd3f aa21 ed3c 9266 00c0 fd8c 47bf
00000050: aa52 65bf 4de3 de3d 303d f33f 9c80 e93d
00000060: 739b bb3e 2b7a 833e ba53 87bf 770f 8bbf
00000070: 6907 9c3f be8f 97bf 47cf 45bd 83f0 1abf
00000080: ec0d 77bf d925 943e 154f 983f a930 d5be
00000090: fc0e b73f f4ed b6be 98df e6be 1087 a3be
000000a0: 205a 5dbf 1c63 6bbf 5f97 a5bf 3341 a33f
000000b0: 3c7e 85bf 3f39 3d40 863d 83bf 3780 15bf
000000c0: 4b91 8a3f 2db1 e0bf a621 d63e cefe 203f
000000d0: abd6 96bf aedd 6abf 7656 a0be 1272 0cbf
000000e0: be59 2b3f 19c0 ab3f 40c0 ef3e 9875 08bf
000000f0: 6474 cb3d 442f 613f f927 80bd b56f ff3e
00000100: da27 993f edc7 853f 20d4 943e 1747 0dc0
00000110: 3cdb b2bf 55fb a0bf 8fc4 85bf b48e 39bf
00000120: a33c 893f ed10 473f 5082 44bf 534a ea3e
00000130: 94b2 883f 6c68 f6bf 7b7a 2940 5927 aabe
00000140: da11 d2bf e071 cb3f 112d c6bf 2855 023f
00000150: 7711 093f 7ab1 353e bc20 6ebd 0c85 353f
00000160: 3be1 a53f 1b59 273f 5a63 c93f 5a03 18bf
00000170: eeca 9dbf ac97 bfbe af2f 5a3f d442 82be
00000180: 0311 973f 857e 093d b023 923e 52c7 1f3f
00000190: 0095 81bf 9970 753e 5ea9 94bf af59 2c3f
000001a0: b94d 3dbf ce9d 82bf 1120 2ebd eef6 f63c
000001b0: a407 2e3d eecd 3ebe efe8 9cbe 720a 8f3f
000001c0: c55b 8a3e 4d6b 9a3f 2110 d2be c25a cb3e
000001d0: acfb bd3d 22ce a9bf 546a 883e 5634 353e
000001e0: ee47 3a3f 468f ba3f 7fea 4ebe 3200 7bbe
000001f0: 4e2a d1be 4bfb 0dbe 4523 25bf de40 79bf
00000200: 6f45 d43e dfa3 123e 1a55 513e f492 59be
00000210: 454b 9d3f 0c28 c13f 2c59 84bf 7587 e1bf
00000220: 3c04 0bbd 2be8 363f 6582 b23d 4349 d2bf
00000230: e18d 583f bc61 84bf 9031 d3bf a39d 923d
00000240: f0b6 cc3d 24c3 bebe 316a 3f3f ee8f 82bf
00000250: 7589 eebe 6228 5f3f b371 083f 9a7b b8bf
00000260: 7bbc 473f bc5e 073f 0c82 c2bf e914 5f3f
00000270: 216c 69bf 72f0 c43f eef4 00be 5d16 0cbf
00000280: e9d4 703f 132c 883f 6600 92bf 24c8 53bf
00000290: c7de 8cbf 88df 76bf fd44 a73f 3da5 ecbe
000002a0: 6e5f d9be edca 24bf 4427 9fbf a53a 343f
000002b0: e6bb fa3e 1c29 833f 1d0e 283d f2aa 8f3f
000002c0: 38e7 053e 076d 94be 4009 a33f 0f75 86be
000002d0: d9b8 45bf b16e 043f 337c 3ebf ddb5 6fbf
000002e0: f927 94be 8645 f33f c7d6 8f3f 5c1a 00c0
000002f0: d9e3 293c c7a1 07bb 149e 9c3f a73c afbe
00000300: cbed 1440 a78a c63c 81c2 85bf a4e9 443f
00000310: 7054 113f f3f9 0dbf a0b2 3abf 75cb b93e
00000320: 627a 333f bacc 803e ed5d 1fbf c5ea 143f
00000330: 79fe 7dbf b4fd 91bf 23cf babf e7b5 893f
00000340: 579a bf3d f134 e7bf a401 5d3f 8bb0 4b3e
00000350: a927 4e3f 21c8 efbf c345 d9be 5158 dbbe
00000360: b4b8 a9bf 6539 44bf fc21 be3f 75db acbb
00000370: 8fd5 d0bf dffe 17bf 31ba 8ebf b55b bd3e
00000380: 617a 923f e1a8 573e 54e0 9ebf 22d6 d6bf
00000390: 3c03 8e3e ab49 813e 7882 88bf d920 07c0
000003a0: 8d48 9b3e 3a28 c4be 8525 94be 5cfe 91be
000003b0: 2843 5f3e 1d71 b5bc 3654 4c3f 127b d73f
000003c0: a78b cabf c97b 9cbd 6f3f 33bf 5f8d 683f
000003d0: 0c56 85bf c000 0f3e f215 febe e5bd f6bf
000003e0: 24cc 09bf a3c5 adbd a973 1cbe ace9 bf3f
000003f0: 659a 05be 115b 723e 3082 033f d3f7 7dbe

decoder_embedding.weight f4 [45, 32]
0.27924383 0.56019104 -0.17734173 1.0940702 0.56905925 -0.80183333 -0.33120704 0.1252962
-0.5494228 0.012370712 3.5202045 -1.2592499 -1.525837 -2.0924263 0.30066046 0.50662714
-0.3869746 -0.7724331 1.2455938 -1.9471774 0.6432791 0.2208932 -1.2628819 -0.16509527
0.27110282 0.47340834 -0.29562345 2.7242246 1.187817 -1.5433122 0.4980165 -0.17557892
0.5777276 0.8065325 -0.26966897 1.0414172 1.8432002 1.8472536 0.7411376 0.83353764
-1.174619 0.986901 0.55744773 -1.1126063 0.8641457 0.2585183 1.7039387 1.5836899
-2.0123184 -0.74380434 0.4372127 0.67233735 0.22598849 2.7728207 0.2719018 0.84630024
0.62437516 -0.48223472 0.4141439 -0.7886238 -0.3292174 1.4619201 1.7622184 1.8338875
1.3463063 1.1392055 0.43680492 -0.09288959 0.51157415 -0.885234 1.4478441 1.0841647
0.7376816 0.5470152 1.4314592 -1.1395482 1.2671392 0.60344374 -0.7898968 0.12891646
-0.7021284 0.31054202 -1.1038861 1.3868939 -0.04442287 0.088903636 0.4586998 0.818117
-1.1500887 0.7813834 -0.7217837 -0.74277467 -1.2788434 -0.49391305 0.3887267 -0.849066
0.533635 1.0719146 -1.6767195 -0.61484754 0.2734084 -0.5926983 -1.2061478 -0.7161634
-0.52235454 -0.18080369 0.4546509 -2.2021585 0.6335386 -0.14489062 0.04441644 -1.1230919
-0.05611379 -1.0438925 -0.10552498 1.0273597 -0.43133417 0.04756231 -1.4801425 -1.3001294
0.6432893 -0.68596476 0.037175804 -0.13531582 -0.5566547 0.53502816 -0.6740895 1.0786834
-1.1082551 0.19219758 -1.0285381 -2.0614448 -0.52749807 0.55532867 0.5700106 2.5891213
0.61023104 0.588516 -0.17766647 -0.9299398 -1.3313316 -0.0817733 -1.8993711 -1.8402799
0.46170992 0.48051098 -1.1425362 -0.018844603 0.8391252 -0.86267173 0.47556183 -0.7183663
0.823425 -0.7790568 -0.26858392 1.5229628 0.57094705 2.6165483 0.45300213 0.17628512
-0.33007815 -0.9419991 1.8946109 0.4722229 -2.2677052 -0.08491762 -0.4797429 0.21423155
0.5253034 -0.6489316 -0.8237334 0.11084628 1.5129275 0.004072727 1.2391622 0.15614884
-0.93279386 0.50797975 0.01646517 0.71459717 1.891379 -0.67262834 -0.052809168 -1.3365034
-1.3136058 -0.7237856 -0.48766375 1.5840098 -0.38459244 -0.8300773 -1.2238244 -0.12968932
1.9556835 0.8464323 0.40742832 -0.20140003 -0.7601305 -0.40350345 1.1219795 -0.24391934
0.3708267 -1.1249778 0.8031439 1.0920345 1.6233215 -2.0230873 0.5243337 0.08530852
0.13451593 1.0823988 0.45727396 1.0697616 0.9800326 0.12749602 -0.11179927 1.395755
0.42993468 2.0525234 0.21521086 0.20294605 0.49221495 -1.34161 0.5825232 -0.16542779
-0.40092653 -0.91211534 0.06295885 0.31434655 -0.0014678439 0.17296113 -0.046268906 0.63125235
1.0746009 1.5888584 -1.4684007 0.6583882 -0.23247917 0.47574648 -1.527563 1.1911582
0.68182164 0.6496132 -0.43950963 0.75937384 0.36435595 -0.44032452 -1.0269667 -0.16915484
1.4283208 1.210583 -0.42493507 0.5554204 0.32270753 -0.631899 0.24244533 0.6262944
00000000: 0cf9 8e3e ae68 0f3f 1299 35be 7e0a 8c3f
00000010: dead 113f f344 4dbf f893 a9be a64d 003e
00000020: f9a6 0cbf 87ae 4a3c 084b 6140 1a2f a1bf
00000030: a04e c3bf 50ea 05c0 2bf0 993e 51b2 013f
00000040: 8921 c6be 2dbe 45bf 9e6f 9f3f 1c3d f9bf
00000050: f0ad 243f d431 623e 1da6 a1bf bc0e 29be
00000060: fdcd 8a3e 9462 f23e f55b 97be b259 2e40
00000070: 630a 983f 418b c5bf 05fc fe3e f6ca 33be
00000080: f5e5 133f ea78 4e3f 0d12 8abe 294d 853f
00000090: fced eb3f ce72 ec3f 32bb 3d3f b962 553f
000000a0: ea59 96bf 8ba5 7c3f e5b4 0e3f e269 8ebf
000000b0: a738 5d3f 835c 843e aa1a da3f 5ab6 ca3f
000000c0: d3c9 00c0 f669 3ebf 58da df3e 4d1e 2c3f
000000d0: 8769 673e e575 3140 b636 8b3e 22a7 583f
000000e0: 0dd7 1f3f 78e7 f6be ab0a d43e 40e3 49bf
000000f0: 2f8f a8be 3320 bb3f 5f90 e13f d3bc ea3f
00000100: c453 ac3f 7cd1 913f e5a4 df3e e63c bebd
00000110: 86f6 023f b29e 62bf f552 b93f e9c5 8a3f
00000120: b4d8 3c3f 3009 0c3f 0e3a b73f b7dc 91bf
00000130: 9e31 a23f 4a7b 1a3f ad36 4abf ad02 043e
00000140: b0be 33bf 5dff 9e3e 244c 8dbf bd85 b13f
00000150: c1f4 35bd 1c13 b63d b3da ea3e 1e70 513f
00000160: 1b36 93bf be08 483f d1c6 38bf 7b26 3ebf
00000170: 24b1 a3bf 2ce2 fcbe 3007 c73e 645c 59bf
00000180: 4e9c 083f 7f34 893f bf9e d6bf a666 1dbf
00000190: 30fc 8b3e 13bb 17bf 0d63 9abf 7c56 37bf
000001a0: 07b9 05bf 9a24 39be 01c8 e83e 2af0 0cc0
000001b0: 962f 223f 355e 14be 03ee 353d 7ac1 8fbf
000001c0: 93d7 65bd 459e 85bf 7b1d d8bd 8680 833f
000001d0: d5d7 dcbe b2d0 423d 4f75 bdbf a46a a6bf
000001e0: 9cae 243f 639b 2fbf a845 183d 3b90 0abe
000001f0: ec80 0ebf 9bf7 083f 2191 2cbf 4c12 8a3f
00000200: 4edb 8dbf 71cf 443e 23a7 83bf b6ee 03c0
00000210: 1d0a 07bf 052a 0e3f 37ec 113f 2ab4 2540
00000220: 1a38 1c3f fca8 163f 33ee 35be 8910 6ebf
00000230: 1369 aabf c378 a7bd 981e f3bf 4b8e ebbf
00000240: 3e65 ec3e 8905 f63e a03e 92bf ff5f 9abc
00000250: e9d0 563f 0ed8 5cbf d77c f33e dbe6 37bf
00000260: fbcb 523f 4470 47bf d583 89be 72f0 c23f
00000270: 9629 123f 8775 2740 e5ef e73e 1684 343e
00000280: 0100 a9be da26 71bf 9c82 f23f 33c7 f13e
00000290: 1522 11c0 4ae9 adbd dda0 f5be 845f 5b3e
000002a0: 497a 063f 6220 26bf 31e0 52bf 6003 e33d
000002b0: 9ca7 c13f 8374 853b de9c 9e3f 7be5 1f3e
000002c0: 94cb 6ebf f60a 023f f7e1 863c d7ef 363f
000002d0: b518 f23f 5f31 2cbf 6d4e 58bd 8b12 abbf
000002e0: 3c24 a8bf 034a 39bf 10af f9be d5c0 ca3f
000002f0: 4de9 c4be f27f 54bf 47a6 9cbf 47cd 04be
00000300: d653 fa3f caaf 583f 729a d03e cf3b 4ebe
00000310: ea97 42bf 0198 cebe 069d 8f3f fec5 79be
00000320: ffdc bd3e 46ff 8fbf d79a 4d3f c9c7 8b3f
00000330: 00c9 cf3f 437a 01c0 bc3a 063f 3cb6 ae3d
00000340: 8bbe 093e 0b8c 8a3f d01f ea3e f3ed 883f
00000350: 6be3 7a3f 518e 023e 04f7 e4bd 1aa8 b23f
00000360: 6620 dc3e 8b5c 0340 3c60 5c3e 17d1 4f3e
00000370: 9903 fc3e e0b9 abbf 3e20 153f e765 29be
00000380: 3e46 cdbe 6480 69bf 92f0 803d 08f2 a03e
00000390: ab64 c0ba b91c 313e 7784 3dbd c199 213f
000003a0: 868c 893f b65f cb3f 8ef4 bbbf 218c 283f
000003b0: 050f 6ebe 0b95 f33e 2f87 c3bf df77 983f
000003c0: dd8b 2e3f 0d4d 263f 6807 e1be 5366 423f
000003d0: dd8c ba3e 3772 e1be a573 83bf ed36 2dbe
000003e0: 37d3 b63f 62f4 9a3f 1791 d9be 0830 0e3f
000003f0: ec39 a53e 22c4 21bf 9743 783e d454 203f

encoder_pos_embedding.weight f4 [8, 32]
1.6483219 0.5600088 0.83448297 1.8765081 -1.4295367 0.031481225 -0.5136811 0.37866887
1.8736334 -0.93214536 -1.0386767 -0.011392065 -0.94511986 -0.6298419 0.7909753 0.011892515
-0.12998143 0.6373379 0.72141784 0.454577 0.30536127 -0.7931216 -1.3492966 0.48264897
-0.843636 -0.37756234 -0.5468623 1.6408901 -1.5769626 -0.32955965 -0.99335283 -0.28729564
-0.2882336 -0.98534703 1.3068726 -0.29741174 2.121436 -2.3303683 -0.3463384 1.0263163
-0.40715024 -1.0038378 -0.5593941 -0.16767742 0.25148624 -1.0267714 -0.04422421 0.1197633
-0.28368896 -1.239001 -0.07449894 -1.8195442 0.9932439 -1.8245953 0.32179874 -0.33903572
-0.17508131 -0.2520679 1.1772819 0.43890265 0.075405285 0.9788418 1.3135145 0.045794554
-0.21481271 0.70665073 -2.394876 0.77056473 -0.17433791 -0.58556956 0.9915167 0.23683281
1.7326355 -2.67379 -0.48274523 0.48960328 -0.9080369 -0.42143536 0.60777247 0.75687766
1.2316897 -0.5823257 0.6083181 1.8398296 -0.70531505 -0.85552967 0.93502915 0.24710701
-1.1780832 0.9560117 -0.9116194 1.5940264 -0.45410678 1.9534289 0.50315124 -0.8983833
0.21286133 0.4548608 -0.36201668 -1.2488697 0.80421555 1.0498866 0.3264474 -0.35608727
0.14972143 -0.26401535 -0.7307801 0.13005753 0.5419242 0.9397477 -0.21383472 -0.6691413
0.8229282 -0.8536589 0.77384 -0.09227293 1.3367181 0.55056155 0.7235036 -0.033745013
-0.6024908 0.48305675 0.36960986 -1.5159299 -1.7548969 -0.5980274 -0.6028557 -1.2690161
-0.5129399 1.4935677 -0.29664367 -0.45272413 -0.5645202 1.6930022 1.1509606 0.36668426
-0.55447596 -2.1960971 2.455549 1.0261148 0.39402622 0.16181488 0.45187256 -0.030367734
-0.97729677 1.5323092 0.56705743 1.5689126 -0.47711816 -0.59180266 0.3100202 -0.015917486
1.767369 0.9412993 0.9001032 -0.28080317 -2.5202324 -0.8793575 -0.33264226 0.51698
0.731969 0.7314655 1.8938713 -1.7774225 1.2340553 1.1870537 0.5351498 -0.3972592
1.124815 -0.6759588 -0.35552043 -1.9307188 0.71594 -0.69215006 -1.3080859 1.1315852
0.38658205 0.69481826 0.28231016 0.7864355 -0.28416714 -1.3844821 -0.22258072 -0.6591989
0.33759925 0.93128484 -0.47557908 -0.5553051 0.39479342 -0.71844006 0.62268436 0.92263615
-0.74922335 -0.7236117 -0.03955416 -0.92275107 0.81335175 -1.8851415 -0.92826074 1.1043876
0.04969677 -1.7655375 0.81694764 0.60730535 1.7579557 -1.5661424 -1.2881836 1.2681262
-1.223488 -0.23924321 -0.2512649 -1.1233829 -0.40907875 0.626499 -0.26231375 -1.083602
2.2927935 0.9703078 -0.94971526 0.015180129 1.4831935 0.45966455 0.10314949 0.9569443
-1.0876034 1.2553488 -0.94580543 0.2654631 0.054372635 0.809513 0.19258617 0.5266516
-0.5312786 1.159282 0.27569547 -2.614586 0.62084746 -0.7686282 0.6073355 -1.8282702
-0.075892754 -0.19203228 0.9177482 -1.0578679 -0.78006023 0.18194817 1.0175996 0.7411663
0.3568832 -1.047545 -0.36433196 0.8100074 0.032740608 -1.463536 -1.0924662 -0.021504527
00000000: 36fc d23f bd5c 0f3f ada0 553f 6b31 f03f
00000010: 0ffb b6bf 75f2 003d 9b80 03bf e3e0 c13e
00000020: 38d3 ef3f 14a1 6ebf 5cf3 84bf c9a5 3abc
00000030: 60f3 71bf 523d 21bf 5b7d 4a3f d3d8 423c
00000040: da19 05be 9428 233f d7ae 383f 51be e83e
00000050: 5058 9c3e 040a 4bbf c0b5 acbf c41d f73e
00000060: 87f8 57bf da4f c1be 2bff 0bbf b008 d23f
00000070: e9d9 c9bf 0bbc a8be 5f4c 7ebf 6a18 93be
00000080: 5b93 93be b43f 7cbf 9a47 a73f 5a46 98be
00000090: 9cc5 0740 c124 15c0 4453 b1be 555e 833f
000000a0: ff75 d0be c27d 80bf 7434 0fbf a1b3 2bbe
000000b0: cec2 803e 3f6d 83bf 7224 35bd 7646 f53d
000000c0: ae3f 91be 9697 9ebf e692 98bd d3e6 e8bf
000000d0: 3b45 7e3f 578c e9bf cec2 a43e 1796 adbe
000000e0: 8448 33be 0b0f 81be 2cb1 963f d9b7 e03e
000000f0: 166e 9a3d 6095 7a3f 3e21 a83f 1293 3b3d
00000100: ddf7 5bbe 10e7 343f a645 19c0 bb43 453f
00000110: a385 32be e3e7 15bf 0ad4 7d3f 4d84 723e
00000120: 00c7 dd3f 601f 2bc0 622a f7be 48ad fa3e
00000130: 1b75 68bf 60c6 d7be fa96 1b3f bcc2 413f
00000140: 02a8 9d3f 4c13 15bf bcba 1b3f 897f eb3f
00000150: 878f 34bf fe03 5bbf 125e 6f3f 9f09 7d3e
00000160: 6ecb 96bf 2fbd 743f e45f 69bf 0f09 cc3f
00000170: af80 e8be f509 fa3f 85ce 003f 73fc 65bf
00000180: 52f8 593e 84e3 e83e 405a b9be f6da 9fbf
00000190: 12e1 4d3f af62 863f 1d24 a73e 1251 b6be
000001a0: 9350 193e 052d 87be 6814 3bbf cd2d 053e
000001b0: 8bbb 0a3f 4e93 703f 7df7 5abe d84c 2bbf
000001c0: 6cab 523f 6489 5abf 611a 463f 97f9 bcbd
000001d0: 9419 ab3f 9af1 0c3f 8837 393f 3638 0abd
000001e0: d63c 1abf 3753 f73e 813d bd3e fe09 c2bf
000001f0: 76a0 e0bf 5318 19bf c054 1abf 1f6f a2bf
00000200: 0750 03bf 3a2d bf3f aee1 97be 75cb e7be
00000210: 6584 10bf 4cb4 d83f ad52 933f 0abe bb3e
00000220: 23f2 0dbf db8c 0cc0 b727 1d40 bb57 833f
00000230: cebd c93e cdb2 253e d75b e73e c1c5 f8bc
00000240: 1f30 7abf b522 c43f ad2a 113f 21d2 c83f
00000250: d548 f4be 6180 17bf f8ba 9e3e 6365 82bc
00000260: 2639 e23f fef8 703f 2a6d 663f 6fc5 8fbe
00000270: 7d4b 21c0 931d 61bf 1650 aabe cd58 043f
00000280: 5262 3b3f 5341 3b3f 606a f23f 9582 e3bf
00000290: 86f5 9d3f 60f1 973f 94ff 083f 8f65 cbbe
000002a0: f0f9 8f3f a30b 2dbf c606 b6be cb21 f7bf
000002b0: d847 373f bf30 31bf 5c6f a7bf c9d7 903f
000002c0: 15ee c53e 9cdf 313f f58a 903e d653 493f
000002d0: 5b7e 91be b636 b1bf 33ec 63be 42c1 28bf
000002e0: cfd9 ac3e af68 6e3f 1a7f f3be 7a28 0ebf
000002f0: 5d22 ca3e b0eb 37bf 3e68 1f3f e231 6c3f
00000300: 1acd 3fbf 9e3e 39bf 8b03 22bd 6a39 6cbf
00000310: d237 503f 514c f1bf 7fa2 6dbf 935c 8d3f
00000320: d78e 4b3d 22fd e1bf 7b23 513f 5d78 1b3f
00000330: b104 e13f 5b77 c8bf 33e3 a4bf f651 a23f
00000340: 419b 9cbf 2cfc 74be cba5 80be 03cb 8fbf
00000350: c572 d1be 3d62 203f fd4d 86be 78b3 8abf
00000360: 21bd 1240 1866 783f 8a20 73bf 13b6 783c
00000370: 49d9 bd3f 2759 eb3e 0a40 d33d 4dfa 743f
00000380: 9736 8bbf 45af a03f 4e20 72bf c8ea 873e
00000390: d7b5 5e3d 3e3c 4f3f 4f35 453e a4d2 063f
000003a0: e001 08bf 5a63 943f f527 8d3e 6155 27c0
000003b0: dcef 1e3f d1c4 44bf 577a 1b3f c204 eabf
000003c0: a96d 9bbd 1ca4 44be 8cf1 6a3f 3768 87bf
000003d0: 07b2 47bf 9f50 3a3e b440 823f 13bd 3d3f
000003e0: 65b9 b63e f415 86bf b889 babe a55c 4f3f
000003f0: 041b 063d 2655 bbbf efd5 8bbf 432a b0bc

decoder_pos_embedding.weight f4 [8, 32]
0.7428705 0.47198758 0.02731045 1.5055763 -0.6517042 0.15794675 -0.8743265 0.048121933
-0.09662067 2.0084298 0.02684085 0.19025575 -0.11668357 1.1306034 -0.013597595 -1.8316386
-1.6565106 1.6964421 -1.5085852 0.1981816 1.5815465 0.25448555 -1.3973157 -1.3477819
0.039149065 -0.4825408 -2.5105972 0.0015890729 0.16888773 -0.17727666 0.65424806 -0.13369212
-0.03168646 0.8798461 -1.2058449 0.22236763 -1.0387344 0.5813569 1.2757784 -1.5600989
1.2334142 -1.652233 -0.6412862 1.0208536 0.9637914 -0.9400646 -1.2896875 -0.2750029
1.3217841 0.4792289 -0.23186813 0.012684383 0.44070336 1.6551204 0.090659335 -1.2766773
-1.3027439 0.4561425 -1.9234407 0.90662175 0.44226974 0.9239431 0.59269655 1.4959757
-0.31888604 -0.4774549 -0.22252911 -0.24844684 -0.10252608 -0.3488865 0.09700343 0.14992543
-1.1360388 1.4210204 -1.66881 0.81473583 -0.69911206 -0.5015199 -1.4798427 -0.10356164
-0.41413358 0.043051474 0.032719985 1.0934528 -0.8960384 0.6442289 -1.8425993 -0.40463075
-0.5827616 -0.49093735 -2.1057134 2.2593534 -0.14228284 -0.20638143 2.2747636 -1.5796788
0.6260108 0.54365796 -0.25236955 -0.26204875 0.71104383 -0.34641275 -0.61965585 1.6728938
1.2340753 -0.7208939 1.4240171 -1.9664896 2.0129619 -0.21625324 0.47202703 2.1408563
-0.80861807 -0.011959667 0.70164424 0.22492118 1.6339875 -1.0329287 0.71511257 -1.84206
0.6918727 -2.283646 -0.6926511 -1.296678 -3.2090096 0.26461282 -0.41669044 -1.5515687
0.2040067 -0.27224624 -0.74114 2.2740853 0.88848937 -2.11966 0.61939853 0.10686394
-0.95424926 0.057173632 1.1129514 1.8399383 1.426735 -1.9840727 0.6461169 1.8297393
0.5873213 1.1563566 -2.5210726 0.89523304 1.3309366 -2.0389674 -0.6062823 -0.53809524
1.1882141 0.3873505 -1.3985114 0.05120738 2.012324 -0.86067796 0.03602744 1.2841281
-0.19964425 -0.5221709 0.22525732 0.6018888 1.1754702 -0.37323698 0.38549536 -0.9862809
0.50231355 -0.0057351496 -0.7982953 -0.68668324 -0.75758904 -1.2434473 -2.402283 -1.2900281
1.3706591 -0.13600585 -1.1602981 1.3830554 -0.9008527 -1.5178998 1.582943 -0.98574513
1.4764259 -1.176204 -0.7725122 0.9564763 1.1381832 0.20229314 -0.09963557 -0.008101642
-1.0553387 1.325709 -0.70207936 -0.685443 -0.7527267 -0.016231405 1.6644981 -0.23768762
1.7610147 0.13843852 0.17051344 0.4788544 0.38393253 -0.7047778 -0.4318106 0.16715693
-0.49217892 0.53871024 0.22577128 0.45307186 0.5374712 0.5183833 -0.83565307 -1.7276491
-0.2279606 1.449703 0.18659264 0.7616323 -1.9450588 -1.1503427 1.4573126 1.0764346
-0.03502128 -1.4333673 2.15641 1.3152937 -1.0284762 -0.40512252 1.4150497 0.44354016
1.9834338 -1.9002731 -1.1016759 -1.1079082 0.16603129 -0.06820048 0.49530706 -2.116557
-1.6169416 -0.08276926 -0.98906815 0.23796476 -0.5113253 0.9761387 0.8872867 -0.5301435
-0.67358875 0.054164216 1.1076252 -0.13068175 -0.6136753 -0.5690726 1.3757039 0.5626574
00000000: c32c 3e3f 5ba8 f13e 2aba df3c b9b6 c03f
00000010: 16d6 26bf cbbc 213e ddd3 5fbf 811b 453d
00000020: 0fe1 c5bd 1d8a 0040 58e1 db3c 67d2 423e
00000030: ccf7 eebd 9db7 903f 72c8 5ebc 2273 eabf
00000040: 8a08 d4bf 0425 d93f 5219 c1bf 1ef0 4a3e
00000050: 1e70 ca3f ee4b 823e 3edb b2bf 1e84 acbf
00000060: c55a 203d 960f f7be a0ad 20c0 7048 d03a
00000070: e8f0 2c3e 0388 35be cd7c 273f 96e6 08be
00000080: a9c9 01bd 983d 613f 2059 9abf 57b4 633e
00000090: 40f5 84bf ced3 143f b54c a33f 52b1 c7bf
000000a0: 84e0 9d3f 5f7c d3bf 552b 24bf 55ab 823f
000000b0: 08bb 763f 13a8 70bf 7b14 a5bf 2ecd 8cbe
000000c0: 3930 a93f 7e5d f53e d76e 6dbe 29d2 4f3c
000000d0: dfa3 e13e fcda d33f 9aab b93d 296a a3bf
000000e0: 50c0 a6bf 828b e93e 4e33 f6bf 5d18 683f
000000f0: 2e71 e23e 8987 6c3f f6ba 173f 227c bf3f
00000100: 0845 a3be f874 f4be acde 63be d968 7ebe
00000110: 32f9 d1bd 40a1 b2be bca9 c63d 0d86 193e
00000120: b869 91bf ffe3 b53f 919b d5bf 8792 503f
00000130: 02f9 32bf 9c63 00bf 7c6b bdbf 2018 d4bd
00000140: 5109 d4be be56 303d 6405 063d 43f6 8b3f
00000150: c662 65bf 2fec 243f 4bda ebbf c32b cfbe
00000160: dd2f 15bf 245c fbbe 02c4 06c0 3f99 1040
00000170: 98b2 11be a755 53be ba95 1140 ea32 cabf
00000180: 3e42 203f 2b2d 0b3f 9536 81be 412b 86be
00000190: f806 363f 035d b1be c4a1 1ebf 6221 d63f
000001a0: 2ef6 9d3f 818c 38bf 3146 b63f eeb5 fbbf
000001b0: 5ed4 0040 7d71 5dbe 87ad f13e ca03 0940
000001c0: 9801 4fbf 7bf2 43bc f59e 333f bd51 663e
000001d0: 8126 d13f 0237 84bf 9e11 373f 9fc8 ebbf
000001e0: 921e 313f 4227 12c0 9551 31bf 8bf9 a5bf
000001f0: 6a60 4dc0 557b 873e 7358 d5be ce99 c6bf
00000200: 22e7 503e dc63 8bbe 5abb 3dbf 9d8a 1140
00000210: 0a74 633f 82a8 07c0 e790 1e3f 7bdb da3d
00000220: ae49 74bf e62e 6a3d 3175 8e3f 1983 eb3f
00000230: 419f b63f 18f6 fdbf eb67 253f e634 ea3f
00000240: b05a 163f 7e03 943f 4159 21c0 fe2d 653f
00000250: 215c aa3f 717e 02c0 5135 1bbf 9cc0 09bf
00000260: 6617 983f ce52 c63e 6c02 b3bf d4be 513d
00000270: ebc9 0040 6455 5cbf 8291 133d 4f5e a43f
00000280: 8b6f 4cbe feac 05bf dba9 663e 6215 1a3f
00000290: cf75 963f eb18 bfbe a65f c53e e87c 7cbf
000002a0: 9f97 003f eced bbbb 155d 4cbf 79ca 2fbf
000002b0: 5bf1 41bf 4829 9fbf 01bf 19c0 a41f a5bf
000002c0: c271 af3f 1e45 0bbe a684 94bf f607 b13f
000002d0: 489e 66bf 8a4a c2bf e09d ca3f cb59 7cbf
000002e0: 86fb bc3f da8d 96bf 5cc3 45bf a1db 743f
000002f0: fdaf 913f ef25 4f3e bc0d ccbd c0bc 04bc
00000300: 5715 87bf d5b0 a93f 79bb 33bf 3179 2fbf
00000310: b2b2 40bf b9f7 84bc 460e d53f 6264 73be
00000320: ee68 e13f d4c2 0d3e 139b 2e3e 672c f53e
00000330: ce92 c43e 516c 34bf 4716 ddbe 302b 2b3e
00000340: e0fe fbbe eae8 093f 9630 673e 09f9 e73e
00000350: b697 093f c5b4 043f 5ced 55bf 9b23 ddbf
00000360: 816e 69be de8f b93f 2412 3f3e 56fa 423f
00000370: b0f7 f8bf 6e3e 93bf 3889 ba3f 9cc8 893f
00000380: 7972 0fbd 9478 b7bf 9f02 0a40 8b5b a83f
00000390: 1ca5 83bf 386c cfbe 5920 b53f b217 e33e
000003a0: 29e1 fd3f 263c f3bf b703 8dbf f0cf 8dbf
000003b0: 1b04 2a3e b1ac 8bbd e398 fd3e ab75 07c0
000003c0: f1f7 cebf ee82 a9bd 9233 7dbf 09ad 733e
000003d0: 37e6 02bf 3ae4 793f 3925 633f 7cb7 07bf
000003e0: 5070 2cbf 4cdb 5d3d aac6 8d3f 70d1 05be
000003f0: d319 1dbf beae 11bf 1117 b03f 510a 103f

transformer.encoder.layers.0.self_attn.in_proj_weight f4 [96, 32]
-0.000898916 -0.071487844 0.10377382 -0.022868555 0.14965615 0.10054666 0.019052131 -0.11621249
-0.107446045 -0.06303876 0.027195234 -0.09778046 0.11517536 0.017934693 -0.05508114 -0.012520474
-0.1473164 -0.11781781 -0.08372303 -0.089889966 -0.08521879 -0.040175892 0.020913586 0.032759894
-0.08970624 -0.11142051 0.12104812 -0.1894958 -0.030015638 0.111341506 -0.036155872 0.28449026
-0.022418352 -0.10858026 0.0628514 0.04582443 -0.1569529 -0.03162778 0.13378718 0.062480126
0.24567254 -0.056531224 -0.18897925 0.06972917 0.101965636 -0.16382357 0.23681422 0.18151593
0.15000859 -0.14694272 0.17997955 0.043549895 0.09557517 0.16652165 0.07629692 -0.029016482
0.11100545 -0.10837583 -0.24408999 0.21444897 0.1304463 -0.08410886 0.035434633 -0.31066018
-0.03904658 0.1696659 0.0749245 -0.023076389 0.20054549 -0.06918631 0.03917717 0.050775234
0.108058274 -0.04313839 0.19841273 -0.11363155 -0.06445977 -0.142355 0.056625467 -0.08456323
-0.13450436 0.13751967 -0.16050744 -0.017965622 0.15152751 -0.15535514 -0.21688046 0.008762494
0.21842948 -0.21456495 -0.16064785 0.03724425 0.108584724 0.011949865 0.26506534 -0.23826762
0.07454936 0.03862557 0.10926617 -0.012298037 0.044203676 -0.040650144 -0.12251593 -0.16285166
-0.17625144 0.0019656806 -0.024104055 -0.133898 -0.21170533 -0.0078060664 -0.24119802 0.041157633
-0.043900996 -0.061916865 0.015320693 0.029719595 -0.084439024 0.0032861368 0.0007513227 -0.30941308
0.15078065 0.21836914 0.13776192 -0.023141174 0.1488694 -0.1533432 0.02462541 0.26468736
-0.15244651 -0.16629244 -0.15058073 0.010109931 -0.02246401 -0.18041869 0.25214323 -0.021607196
-0.06235629 0.074251615 0.011459943 -0.10054959 0.050002523 -0.22438325 -0.08117587 0.08010907
0.03766123 0.07999919 -0.09669669 -0.02827146 -0.03793729 0.20927349 0.086792484 0.02683192
0.09845941 0.13826577 -0.077478394 0.25133875 0.33345705 0.21495871 0.17239588 -0.20078199
0.07218184 -0.16917583 0.12862346 0.10300131 0.15879503 0.13285497 -0.108337164 -0.15492147
0.014763844 -0.2384562 0.049056873 0.012199961 -0.012669472 0.07897419 -0.20191294 -0.059821337
-0.14509648 0.114066355 -0.18743536 0.06484196 0.11257296 -0.15946588 -0.05504453 0.034871098
0.18721363 0.19048923 0.13658741 -0.059331793 -0.09595812 0.03863764 0.023227919 0.005295957
0.005255198 -0.05590064 0.11995267 0.06537598 0.044381022 -0.037991762 0.09803767 0.014530209
0.12692046 -0.010517899 -0.10037081 -0.014197195 0.021348843 -0.0768439 0.02607286 -0.07276178
0.015643677 -0.072577134 -0.07505948 -0.04293932 -0.04693675 0.051300585 0.16921055 -0.13708414
0.10029409 0.09210351 0.034359377 0.2801363 0.1399425 -0.047164984 -0.15270144 -0.21487868
-0.11743293 0.061587118 -0.08734676 0.07532697 -0.18835783 0.017618643 -0.21671465 0.20369945
0.16953395 0.13366854 0.08595979 -0.06046006 0.014812738 -0.14039284 -0.0662877 -0.07869939
0.14982744 0.11990643 0.15371531 -0.045825828 0.12110515 0.027767863 -0.13591072 -0.16873838
-0.12532498 0.10764781 -0.02870506 0.17316473 0.06535386 0.026662355 -0.027425217 -0.037698247
00000000: 3ba5 6bba 3868 92bd 5e87 d43d d656 bbbc
00000010: 763f 193e 68eb cd3d 3713 9c3c d000 eebd
00000020: ac0c dcbd 771a 81bd 8ac8 de3c 1f41 c8bd
00000030: 0fe1 eb3d c7eb 923c c39c 61bd ad22 4dbc
00000040: 1cda 16be 774a f1bd fb76 abbd 3b18 b8bd
00000050: 3087 aebd 7a8f 24bd f852 ab3c 3d2f 063d
00000060: e8b7 b7bd 7030 e4bd 14e8 f73d 300b 42be
00000070: 5be3 f5bc 0407 e43d 2e18 14bd b5a8 913e
00000080: b1a6 b7bc 545f debd 3cb8 803d 66b2 3b3d
00000090: 43b8 20be 228c 01bd 82ff 083e 29eb 7f3d
000000a0: 9591 7b3e 498d 67bd c783 41be 2bce 8e3d
000000b0: 5cd3 d03d 5ec1 27be 6d7f 723e 50df 393e
000000c0: da9b 193e 2778 16be 8f4c 383e 6061 323d
000000d0: eabc c33d a784 2a3e 8f41 9c3d f9b3 edbc
000000e0: d356 e33d 26f4 ddbd baf2 79be 8398 5b3e
000000f0: b793 053e 4441 acbd e823 113d da0e 9fbe
00000100: 4fef 1fbd e6bc 2d3e 0472 993d b20a bdbc
00000110: cc5b 4d3e 8db1 8dbd 3d78 203d b1f9 4f3d
00000120: a84d dd3d e1b1 30bd b52c 4b3e a8b7 e8bd
00000130: 7c03 84bd 82c5 11be 1bf0 673d 7d2f adbd
00000140: 83bb 09be f5d1 0c3e 105c 24be a42c 93bc
00000150: 072a 1b3e 6b15 1fbe e915 5ebe 9090 0f3c
00000160: faab 5f3e eab6 5bbe df80 24be 6d8d 183d
00000170: ab61 de3d 5ec9 433c a5b6 873e 6dfc 73be
00000180: 56ad 983d d835 1e3d f1c6 df3d b57d 49bc
00000190: ea0e 353d c480 26bd a2e9 fabd 96c2 26be
000001a0: 427b 34be a6d2 003b de75 c5bc 8f1c 09be
000001b0: 48c9 58be 08ca ffbb 9dfc 76be e894 283d
000001c0: 88d1 33bd 8a9c 7dbd a503 7b3c 8276 f33c
000001d0: 5eee acbd 3a5c 573b 6af4 443a 646b 9ebe
000001e0: 3e66 1a3e 299c 5f3e 7611 0d3e 8f92 bdbc
000001f0: 3871 183e 0006 1dbe 3abb c93c 1a85 873e
00000200: f01a 1cbe 9148 2abe d631 1abe 20a4 253c
00000210: 7206 b8bc adbf 38be eb18 813e 9301 b1bc
00000220: 4f69 7fbd 3b11 983d 7cc2 3b3c f2ec cdbd
00000230: 72cf 4c3d b9c4 65be 893f a6bd 3910 a43d
00000240: a942 1a3d 9ed6 a33d ea08 c6bd 8d99 e7bc
00000250: 2264 1bbd ca4b 563e 42c0 b13d 9dce db3c
00000260: 16a5 c93d 8b95 0d3e feac 9ebd 79af 803e
00000270: e2ba aa3e 231e 5c3e 8c88 303e cb99 4dbe
00000280: 13d4 933d 6e3c 2dbe deb5 033e 5af2 d23d
00000290: 2a9b 223e 220b 083e e0df ddbd bca3 1ebe
000002a0: 0de4 713c dd2d 74be dcef 483d 58e2 473c
000002b0: 9e93 4fbc 38bd a13d 44c2 4ebe 3807 75bd
000002c0: 2c94 14be 9f9b e93d 0eef 3fbe ddcb 843d
000002d0: a78c e63d 064b 23be 6076 61bd ffd4 0e3d
000002e0: eeb4 3f3e 9c0f 433e 92dd 0b3e e505 73bd
000002f0: b185 c4bd 8142 1e3d 7a48 be3c b589 ad3b
00000300: cc33 ac3b 12f8 64bd bfa9 f53d d8e3 853d
00000310: e0c8 353d 409d 1bbd f9c7 c83d 1d10 6e3c
00000320: 70f7 013e 4453 2cbc 368f cdbd 5a9b 68bc
00000330: c5e3 ae3c 5660 9dbd c096 d53c 2104 95bd
00000340: 2b27 803c 52a3 94bd c9b8 99bd 24e1 2fbd
00000350: c040 40bd 9020 523d 8845 2d3e c95f 0cbe
00000360: fd66 cd3d c4a0 bc3d 6bbc 0c3d 066e 8f3e
00000370: 164d 0f3e 1230 41bd c45d 1cbe 2809 5cbe
00000380: ad80 f0bd c642 7c3d dce2 b2bd 0745 9a3d
00000390: e0e0 40be f954 903c 72ea 5dbe 9796 503e
000003a0: 4f9a 2d3e 68e0 083e b00b b03d f8a4 77bd
000003b0: 20b1 723c 24c3 0fbe d8c1 87bd 252d a1bd
000003c0: 5d6c 193e 8191 f53d 8c67 1d3e ddb3 3bbd
000003d0: fa05 f83d 6e79 e33c 2e2c 0bbe c1c9 2cbe
000003e0: 3155 00be 7476 dc3d e026 ebbc 1852 313e
000003f0: 3fd8 853d 036b da3c d9aa e0bc 7a69 1abd

transformer.encoder.layers.0.self_attn.in_proj_bias f4 [96]
-0.054748204 -0.0003221599 -0.0097708795 0.07300584 0.03694814 0.17896788 -0.02722343 -0.043025088
0.018299408 0.085346855 0.0058784503 0.0008576165 -0.054751404 0.025789592 0.055663466 -0.015885193
-0.046399757 -0.028679216 0.0011120301 0.043634005 0.052219488 0.031709056 0.019563423 0.06472151
0.055538088 -0.118699394 0.06328997 0.0055659553 0.04619978 0.049798455 0.11183605 -0.025965873
-0.003913392 0.0017763373 -0.0019713505 -0.0047487845 0.00060751685 -0.003509684 0.0013135317 0.0004087066
-0.00023487784 -0.00022271251 -0.0012568217 0.0016526147 -0.00064870354 0.0030174186 0.00045112663 -0.006180152
0.00027832133 0.002937518 0.0009660437 6.918217e-06 -0.001082035 0.0034490116 -0.0003658272 -0.0002896053
0.0050593475 -0.0022286954 0.0039588567 -0.0054184143 0.00046397772 0.0017384 0.0009026874 -0.001768687
0.0071967063 -0.091116786 -0.011681517 -0.12618726 -0.038362764 0.090309255 0.07987275 -0.08013567
-0.025325213 0.05620581 -0.055535518 -0.038669143 -0.022058487 -0.030301064 -0.010694269 0.02617705
0.0062371828 -0.06791536 -0.071331404 0.101001196 -0.002440756 -0.025256407 0.0059796646 -0.07847287
-0.011941913 0.068268314 -0.05636308 -0.07075998 -0.04410287 -0.09688972 -0.054904785 0.004142942
00000000: a73f 60bd 92e7 a8b9 0a16 20bc 1684 953d
00000010: ef56 173d 5b43 373e ac03 dfbc 133b 30bd
00000020: a4e8 953c 55ca ae3d 04a0 c03b abd1 603a
00000030: 0243 60bd b244 d33c 60ff 633d aa21 82bc
00000040: ac0d 3ebd adf0 eabc 8ac1 913a 92b9 323d
00000050: 1ae4 553d 5be1 013d 7943 a03c b68c 843d
00000060: e87b 633d ab18 f3bd 2c9e 813d 9e62 b63b
00000070: fb3b 3d3d 77f9 4b3d 4d0a e53d 62b6 d4bc
00000080: e93b 80bb fdd3 e83a c631 01bb b19b 9bbb
00000090: c441 1f3a ba02 66bb cf2a ac3a ac47 d639
000000a0: 8a49 76b9 ef87 69b9 f0bb a4ba 8c9c d83a
000000b0: c20d 2aba e2bf 453b 3185 ec39 df82 cabb
000000c0: a8eb 9139 6083 403b 183e 7d3a 0823 e836
000000d0: 12d3 8dba d008 623b 7fcc bfb9 2ad6 97b9
000000e0: e2c8 a53b 4e0f 12bb 4cb9 813b f48c b1bb
000000f0: 0942 f339 06db e33a 53a2 6c3a 4ad3 e7ba
00000100: 59d2 eb3b 709b babd d563 3fbc 3c37 01be
00000110: 4622 1dbd 0ff4 b83d 5394 a33d 2c1e a4bd
00000120: d276 cfbc 1038 663d 3679 63bd 8963 1ebd
00000130: 00b4 b4bc f039 f8bc 0437 2fbc 4171 d63c
00000140: 4861 cc3b 3517 8bbd 3316 92bd b7d9 ce3d
00000150: 17f5 1fbb 86e6 cebc 10f1 c33b 62b6 a0bd
00000160: 03a8 43bc 42d0 8b3d f9dc 66bd 9cea 90bd
00000170: 36a5 34bd 1e6e c6bd d7e3 60bd 84c1 873b

transformer.encoder.layers.0.self_attn.out_proj.weight f4 [32, 32]
-0.17925027 0.117492326 -0.1350278 0.11039041 0.11789689 -0.10316447 0.2352284 0.2734872
0.29544747 -0.16787456 0.1003669 0.022228694 0.11649459 0.023155551 0.16768296 -0.11143234
-0.17812857 0.19490418 0.104068324 -0.09696037 -0.1861551 0.32509786 -0.069972225 -0.18168119
0.023832994 0.012398555 0.16048364 -0.027668763 0.040327113 0.30155414 0.020567967 0.028070567
0.09985312 -0.099879794 0.26972246 -0.026531482 0.015681703 0.28551275 0.3820533 0.10068256
0.34047207 0.069001175 0.12228975 -0.24926336 -0.18863477 -0.13238092 -0.23841089 0.18448229
0.008349899 0.007059738 -0.29179364 0.031371318 0.07575524 -0.057945713 -0.1844422 -0.2649083
-0.20256938 0.18176703 -0.23425792 -0.0146534005 0.038271375 -0.13880357 0.1929659 0.24304311
0.027326876 0.26070684 0.0395764 -0.09105185 0.0834376 0.018150272 0.033753194 -0.14537638
-0.2634807 -0.28774953 -0.20754272 -0.13315704 0.0808234 0.03982806 -0.23648141 0.2624858
-0.12641142 0.07016406 0.0022553606 -0.16310386 0.15233064 -0.20705187 -0.2119268 -0.1307127
-0.09629285 -0.006336557 0.054335132 0.15152012 0.33226848 0.032368332 -0.16016057 -0.25732768
0.03672804 -0.18860817 0.20782514 -0.19005983 -0.4148609 -0.14140514 0.16198806 0.22711502
-0.023286907 -0.04100931 0.24450953 0.18095306 0.10632945 0.3270729 0.11736057 0.020635463
-0.24079125 0.25415635 0.07368345 0.15820947 0.04865154 -0.08937723 0.22154832 0.08113143
-0.049407206 -0.17272317 -0.1805386 0.14890371 -0.08571824 -0.18047608 -0.0044343644 0.18145214
0.099055365 0.065262884 0.07576455 -0.14567974 0.22446851 -0.2518002 -0.08661908 0.19923197
-0.055606287 0.094851196 0.07662913 -0.26015043 -0.0008986107 -0.14371881 -0.06116707 -0.22356172
-0.1366699 0.005951404 0.07593198 -0.050793417 -0.12248469 0.067469984 0.1913804 0.041593343
-0.08346722 0.19575718 -0.036917143 0.00056739687 0.09233778 -0.23369059 -0.3922571 0.028278
0.10919638 0.11074011 -0.06321834 0.086309075 0.28814504 0.123585895 -0.15003194 0.0046330085
0.18013518 0.30571005 -0.020133205 -0.09772752 -0.18903941 0.21287371 -0.13468504 0.17848212
0.15101351 -0.103785895 0.021268561 0.025517263 -0.16366658 -0.29520762 0.12649009 0.3149728
0.12493117 0.2023896 -0.09804683 -0.008951991 -0.22606097 0.29757863 -0.021281198 0.14527655
0.2802556 0.2063673 0.13260657 0.022824062 0.06679654 0.0024170615 0.11514395 -0.22064254
-0.15532881 0.0008437581 0.20912182 0.039250426 -0.21153942 0.042197604 0.22196212 -0.080685586
0.08701693 -0.04233684 -0.07995168 -0.0012524845 -0.22256202 0.1984998 -0.08544188 -0.033378445
-0.041261803 0.016492154 -0.030880356 0.13370484 0.12628603 -0.13322456 0.050417736 0.26067376
0.15842971 0.025326064 0.26067084 0.15311761 -0.11872492 0.105040655 0.061257027 0.20762458
-0.14275235 -0.063884355 -0.037556317 0.12783921 -0.19552852 -0.19055736 0.25613302 -0.0641547
-0.07576623 -0.16506553 0.084701896 0.036777638 -0.016700123 0.033486906 -0.47150746 0.18752716
-0.0024933585 -0.18049206 -0.06605015 0.054712676 -0.02503382 -0.0740493 0.16770251 -0.13848117
00000000: 628d 37be d19f f03d ba44 0abe 5e14 e23d
00000010: ed73 f13d e547 d3bd b7df 703e 8406 8c3e
00000020: e444 973e 4fe7 2bbe 298d cd3d f318 b63c
00000030: b794 ee3d b6b0 bd3c 15b5 2b3e a436 e4bd
00000040: 5667 36be f694 473e c621 d53d 2993 c6bd
00000050: 719f 3ebe 3a73 a63e 994d 8fbd a20a 3abe
00000060: 693d c33c 4f23 4b3c d355 243e 9aa9 e2bc
00000070: 0b2e 253d 4e65 9a3e 277e a83c 3ff4 e53c
00000080: cb7f cc3d c78d ccbd 1019 8a3e 8d58 d9bc
00000090: ea76 803c ba2e 923e 7d9c c33e a832 ce3d
000000a0: 5b52 ae3e 7d50 8d3d 0c73 fa3d e53e 7fbe
000000b0: 7929 41be dd8e 07be fc21 74be ede8 3c3e
000000c0: 04ce 083c 6055 e73b fa65 95be 367f 003d
000000d0: 9025 9b3d 7c58 6dbd 6bde 3cbe 10a2 87be
000000e0: 596e 4fbe 2321 3a3e 4fe1 6fbe d114 70bc
000000f0: 72c2 1c3d 8622 0ebe da98 453e 4be0 783e
00000100: 9ddc df3c 5e7b 853e dd1a 223d 6479 babd
00000110: 55e1 aa3d e1af 943c ca40 0a3d 8cdd 14be
00000120: f1e6 86be e853 93be 1486 54be 525a 08be
00000130: bd86 a53d bf22 233d 2f28 72be 8a64 863e
00000140: ff71 01be 2db2 8f3d acce 133b b304 27be
00000150: 90fc 1b3e 6805 54be 5703 59be 8dd9 05be
00000160: 3035 c5bd e5a2 cfbb 848e 5e3d 1728 1b3e
00000170: 181f aa3e a894 043d 2201 24be 74c0 83be
00000180: 2470 163d 8022 41be 1dd0 543e 0b9f 42be
00000190: a668 d4be 82cc 10be 33e0 253e d790 683e
000001a0: 2fc4 bebc 61f9 27bd b560 7a3e c24b 393e
000001b0: 41c3 d93d 1976 a73e bd5a f03d b40b a93c
000001c0: fb91 76be c820 823e 59e7 963d aa01 223e
000001d0: d646 473d 690b b7bd 90dd 623e 3c28 a63d
000001e0: 365f 4abd 58de 30be 1cdf 38be 377a 183e
000001f0: 0b8d afbd b9ce 38be 254e 91bb 97ce 393e
00000200: 8add ca3d 8ca8 853d 722a 9b3d 122d 15be
00000210: 13db 653e f5eb 80be 5865 b1bd 7703 4c3e
00000220: 6bc3 63bd 5841 c23d bcef 9c3d 7032 85be
00000230: be90 6bba 062b 13be 528a 7abd 5ded 64be
00000240: 32f3 0bbe ff03 c33b 3a82 9b3d c20c 50bd
00000250: 41d9 fabd b42d 8a3d 39f9 433e c85d 2a3d
00000260: ddf0 aabd 9274 483e 6e36 17bd 5cbd 143a
00000270: 971b bd3d 964c 6fbe ecd5 c8be 44a7 e73c
00000280: 5aa2 df3d b6cb e23d 9e78 81bd d0c2 b03d
00000290: bf87 933e 9a1a fd3d f9a1 19be 7ed0 973b
000002a0: 5b75 383e 0786 9c3e 64ee a4bc 5e25 c8bd
000002b0: 8c93 41be 91fb 593e e0ea 09be 04c4 363e
000002c0: 49a3 1a3e b38d d4bd 683b ae3c 9409 d13c
000002d0: 3698 27be 7425 97be 9e86 013e 1d44 a13e
000002e0: eadb ff3d 383f 4f3e c7cc c8bd 5fab 12bc
000002f0: 877c 67be 3a5c 983e e855 aebc 60c3 143e
00000300: a97d 8f3e f351 533e 04ca 073e 87f9 ba3c
00000310: a0cc 883d 9067 1e3b 97d0 eb3d 1ef0 61be
00000320: 840e 1fbe a62f 5d3a 0824 563e 0ec5 203d
00000330: ca9d 58be 65d7 2c3d 0a4a 633e 7c3e a5bd
00000340: ef35 b23d 6569 2dbd b5bd a3bd 682a a4ba
00000350: 4ce7 63be 8843 4b3e 27fc aebd d6b7 08bd
00000360: 2302 29bd 8e1a 873c cdf8 fcbc ece9 083e
00000370: 2051 013e 056c 08be d482 4e3d 0877 853e
00000380: 663b 223e 9b78 cf3c a676 853e ddca 1c3e
00000390: 0d26 f3bd 8e1f d73d a6e8 7a3d 8a9b 543e
000003a0: ac2d 12be cdd5 82bd a7d4 19bd 48e8 023e
000003b0: a138 48be 7821 43be de23 833e 8a63 83bd
000003c0: 532b 9bbd f006 29be 3078 ad3d 26a4 163d
000003d0: b2ce 88bc 9129 093d 6d69 f1be 1f07 403e
000003e0: 9d67 23bb e9d2 38be 4d45 87bd 661a 603d
000003f0: ba13 cdbc 29a7 97bd 35ba 2b3e 02ce 0dbe

transformer.encoder.layers.0.self_attn.out_proj.bias f4 [32]
-0.08214836 0.21094207 0.14192948 -0.06655342 -0.06378467 -0.0027804913 -0.11369634 0.016795423
0.09676813 0.108051 -0.09802052 0.17296703 -0.034228433 0.0752444 0.16946423 -0.051194817
-0.0758708 0.0070360405 -0.09057427 0.088372245 -0.105081774 0.02024839 -0.20413508 0.21054369
-0.09911844 -0.073192 0.057630856 0.043832675 -0.022692606 -0.083245024 -0.051756877 0.010638053
00000000: 663d a8bd 3301 583e f655 113e 294d 88bd
00000010: 89a1 82bd e738 36bb a0d9 e8bd 8e96 893c
00000020: 5f2e c63d d849 dd3d fbbe c8bd 451e 313e
00000030: 1d33 0cbd bc19 9a3d 0888 2d3e a8b1 51bd
00000040: 2662 9bbd 968e e63b 017f b9bd 82fc b43d
00000050: 1d35 d7bd f4df a53c c908 51be c498 573e
00000060: 9cfe cabd b0e5 95bd 550e 6c3d e489 333d
00000070: d8e5 b9bc 5e7c aabd 05ff 53bd 3a4b 2e3c

transformer.encoder.layers.0.linear1.weight f4 [128, 32]
0.09795778 0.07328107 -0.049371473 0.14481327 -0.00095327245 0.11333187 0.03298446 0.15392557
-0.0013193758 0.22694902 0.1272757 -0.008389302 0.10955848 0.067300156 0.22120532 -0.109404884
-0.14647563 -0.01871207 0.044691432 0.023774778 -0.062152166 -0.0029952666 -0.14776827 -0.06902267
0.19326107 -0.009497102 0.10736988 -0.21122967 0.058525894 0.026201062 0.015344641 -0.2642699
-0.020699242 -0.05439616 -0.08345267 -0.11361852 -0.0028719553 0.120219156 -0.33938405 -0.032237317
-0.016169488 -0.00213312 0.18341456 -0.03505657 -0.12100811 0.21279806 -0.04487881 0.0038118407
-0.07756168 -0.07786399 0.027914222 -0.13869375 0.11157481 -0.05649007 -0.057853665 0.14504445
-0.023123307 -0.061338086 -0.004217055 -0.15614927 0.128025 -0.25208864 0.21079959 -0.15586829
0.111959934 0.08552311 -0.06542556 0.08277154 -0.15194328 0.09047221 -0.07769994 -0.007233517
-0.027188791 -0.10254379 0.1318116 -0.11876158 0.018875416 -0.17298064 -0.1615545 -0.14923821
-0.230266 0.047510684 -0.04052417 -0.15283301 0.049878437 -0.09762955 -0.015320028 0.013713278
-0.15888682 -0.19560489 -0.15518719 0.10844404 -0.21291433 -0.20153281 -0.16392118 -0.22661015
-0.067977175 -0.007983991 -0.19039051 -0.10103598 -0.09806569 -0.033925954 -0.10785887 -0.011166691
0.04504185 0.26707214 0.13160647 -0.27238154 -0.03605616 -0.093089685 0.014567619 -0.07277833
-0.363191 -0.050259 -0.0631252 -0.07597668 0.21466535 -0.025525523 -0.19365825 0.2531665
0.29247156 0.04340133 -0.03942631 -0.19556682 0.31744373 -0.07682163 -0.023137009 0.15224998
0.011939159 0.035685923 -0.055441402 -0.14105082 -0.29953405 0.14940754 0.0071636024 -0.010618184
-0.06682841 0.013086335 -0.11346782 0.08616099 0.103400454 -0.13431017 -0.10641627 -0.0054350295
-0.0015463771 0.17265119 0.08895266 -0.23738456 0.12381159 0.040598605 0.01627359 0.24700588
-0.040325873 -0.068763636 0.041264374 0.08329022 0.15349849 -0.17408542 0.06867339 -0.087847434
0.13219781 -0.043200668 0.17972983 0.098913364 -0.186948 0.17747784 0.19203755 -0.04644214
-0.09541523 0.078353666 -0.11977342 0.05665864 -0.034439474 -0.10372723 0.3641181 -0.17507786
-0.06622251 0.06964492 -0.032638647 -0.11674722 -0.02754711 0.15583707 -0.09021304 -0.060069606
-0.08960135 0.07645943 0.09088563 0.03779059 0.03498407 -0.08606251 0.014986165 0.04512558
-0.1447524 -0.12637961 0.044832483 -0.13855602 -0.25786132 0.13785444 0.15551132 -0.021957621
-0.104809575 0.041506216 -0.17273119 -0.14313444 0.007902625 -0.010223832 -0.05715744 0.20685802
-0.035819296 0.03454657 -0.032169633 -0.14180887 -0.15194395 0.17340387 -0.07610606 0.028858617
0.006442433 0.20637573 0.021879239 -0.0055610957 0.12222208 -0.0833857 -0.042527806 0.055117786
-0.16943763 -0.15963773 -0.15277584 0.02736622 -0.26801565 0.08863006 0.10278262 -0.18336731
0.066679455 0.22121345 -0.06648443 -0.118907064 -0.018354792 0.17068936 0.19192287 0.0013423443
-0.21031214 -0.019566035 -0.21174967 -0.2616955 0.102269806 -0.057221796 0.06732788 0.2564047
0.16432895 0.07281694 -0.027821548 0.074886754 -0.0077854116 -0.19579722 0.02601067 0.08974569
00000000: 179e c83d 6314 963d be39 4abd ee49 143e
00000010: 08e5 79ba 8a1a e83d b71a 073d aa9e 1d3e
00000020: e8ee acba 5365 683e 9054 023e 4873 09bc
00000030: 3260 e03d aad4 893d a683 623e ab0f e0bd
00000040: b5fd 15be 0e4a 99bc 5d0e 373d 53c3 c23c
00000050: 4593 7ebd 3c4c 44bb 9150 17be c25b 8dbd
00000060: 3be6 453e bc99 1bbc bde4 db3d 974c 58be
00000070: d9b8 6f3d 9ca3 d63c 1768 7b3c 624e 87be
00000080: 7591 a9bc 82ce 5ebd 3ce9 aabd d4b0 e8bd
00000090: 6a37 3cbb 7635 f63d bfc3 adbe 470b 04bd
000000a0: e075 84bc d1cb 0bbb 07d1 3b3e 7a97 0fbd
000000b0: 1ad3 f7bd bce7 593e d8d2 37bd 13d0 793b
000000c0: a8d8 9ebd 2877 9fbd 5eac e43c bc05 0ebe
000000d0: 5681 e43d 2262 67bd f7f7 6cbd 8886 143e
000000e0: 176d bdbc a53d 7bbd 392f 8abb 98e5 1fbe
000000f0: fc18 033e c311 81be d9db 573e f09b 1fbe
00000100: 404b e53d be26 af3d d6fd 85bd 2084 a93d
00000110: 0597 1bbe 7e49 b93d 2521 9fbd 2307 edbb
00000120: 07bb debc 7b02 d2bd 9ff9 063e 4539 f3bd
00000130: 9ea0 9a3c d621 31be 8b6e 25be e7d1 18be
00000140: daca 6bbe 909a 423d acfc 25bd 4280 1cbe
00000150: 554d 4c3d 00f2 c7bd db00 7bbc a8ad 603c
00000160: 3ab3 22be a64c 48be 64e9 1ebe e917 de3d
00000170: 3706 5abe 9e5e 4ebe f4da 27be 7e0c 68be
00000180: 9e37 8bbd 49cf 02bc bbf5 42be f4eb cebd
00000190: aad6 c8bd f1f5 0abd 1ce5 dcbd 7ff4 36bc
000001a0: ce7d 383d aebd 883e d9c3 063e 9875 8bbe
000001b0: a0af 13bd cea5 bebd 06ad 6e3c ce0c 95bd
000001c0: 2cf4 b9be 62dc 4dbd c947 81bd a999 9bbd
000001d0: 3cd1 5b3e e71a d1bc 594e 46be 0a9f 813e
000001e0: d5be 953e 98c5 313d 7c7d 21bd ab42 48be
000001f0: fc87 a23e a954 9dbd d389 bdbc 6be7 1b3e
00000200: 769c 433c 672b 123d 8616 63bd a06f 10be
00000210: 875c 99be 4afe 183e a7bc ea3b e4f7 2dbc
00000220: 55dd 88bd 1168 563c d161 e8bd 2c75 b03d
00000230: 9ec3 d33d 9b88 09be c6f0 d9bd 5518 b2bb
00000240: ceaf caba 79cb 303e d02c b63d f014 73be
00000250: ee90 fd3d b94a 263d 3150 853c 1cef 7c3e
00000260: be2c 25bd f3d3 8cbd d504 293d 1094 aa3d
00000270: b52e 1d3e 7343 32be a2a4 8c3d 5be9 b3bd
00000280: dd5e 073e 2ff3 30bd 190b 383e 1793 ca3d
00000290: 4c6f 3fbe c0bc 353e 7ea5 443e 1d3a 3ebd
000002a0: 0f69 c3bd e377 a03d c44b f5bd e412 683d
000002b0: 6810 0dbd f16e d4bd b06d ba3e 9c47 33be
000002c0: ab9f 87bd ffa1 8e3d 1ab0 05bd 2b19 efbd
000002d0: 7aaa e1bc c193 1f3e 9dc1 b8bd 8c0b 76bd
000002e0: ea80 b7bd c396 9c3d 3f22 ba3d 4eca 1a3d
000002f0: 754b 0f3d 8b41 b0bd 8888 753c 9ad5 383d
00000300: f939 14be a869 01be 44a2 373d a1e1 0dbe
00000310: 6606 84be b729 0d3e 5c3e 1f3e 78e0 b3bc
00000320: 67a6 d6bd 6c02 2a3d 72e0 30be d691 12be
00000330: 037a 013c dc81 27bc eb1d 6abd 97d2 533e
00000340: 41b7 12bd b480 0d3d 4ec4 03bd 5836 11be
00000350: 3297 1bbe c990 313e 7edd 9bbd e868 ec3c
00000360: 0c1b d33b 2954 533e 173c b33c da39 b6bb
00000370: 924f fa3d 1fc6 aabd a331 2ebd 30c3 613d
00000380: 0f81 2dbe 1378 23be 4571 1cbe 1f2f e03c
00000390: 5939 89be ad83 b53d b27f d23d a4c4 3bbe
000003a0: 3d8f 883d c785 623e fd28 88bd 8c85 f3bd
000003b0: ca5c 96bc 31c9 2e3e 6e87 443e 9af1 af3a
000003c0: 115c 57be f348 a0bc e8d4 58be f4fc 85be
000003d0: d572 d13d 6761 6abd 33e3 893d 7a47 833e
000003e0: d945 283e 0c21 953d 04ea e3bc 3a5e 993d
000003f0: c41c ffbb 117f 48be 5414 d53c 97cc b73d

transformer.encoder.layers.0.linear1.bias f4 [128]
0.009497837 -0.17889254 -0.29875302 -0.08846634 -0.07061336 -0.095594615 -0.25303057 -0.15565707
-0.24134596 -0.27039197 -0.15236062 -0.19396415 -0.08067478 -0.21405193 -0.088909104 -0.089038655
-0.27984324 -0.12574846 -0.21688642 -0.24072628 -0.33060533 -0.29381755 -0.2263496 -0.08733695
-0.16406392 0.012569557 -0.22574809 -0.22393826 -0.17141461 -0.22399364 -0.1520154 -0.18578655
-0.3358792 -0.22644831 -0.25444698 -0.05311535 -0.040022705 -0.041415013 0.03547628 -0.28168517
-0.13171591 -0.25897136 -0.21041839 -0.294496 -0.036177423 -0.063325055 -0.21959661 -0.08452268
-0.06200275 -0.08502324 -0.2595363 -0.11910202 -0.18732437 -0.21287172 -0.05990785 -0.12425845
-0.16897474 -0.10865882 -0.20781349 -0.017081272 -0.08856654 -0.2001079 0.07630807 -0.044889223
-0.08637122 -0.1648074 -0.23901474 -0.1247573 -0.116180144 -0.08167333 -0.20623809 -0.19400841
0.065081194 0.0286925 -0.25410724 -0.16266325 -0.25164327 -0.07137991 -0.23727477 -0.04815047
-0.24661823 -0.14190522 -0.068821006 -0.2863952 -0.07122023 -0.010108621 -0.0059951404 -0.24005102
0.02233139 0.10703124 -0.031867184 -0.33296713 -0.08924492 -0.37554342 -0.15213111 -0.24857031
-0.31734574 -0.2567987 -0.28049636 -0.16835019 -0.24314071 -0.19563954 -0.20767698 -0.27238476
-0.19601934 -0.23909506 -0.14799081 -0.21025464 -0.18645595 -0.20725857 -0.31017643 -0.34173268
0.045545205 -0.15790763 -0.11410331 -0.4076747 0.0144825075 -0.14174978 -0.13966069 -0.3281344
-0.19807464 -0.21872824 -0.08394039 -0.17057966 -0.08896648 -0.051728114 -0.18395606 -0.1946617
00000000: d19c 1b3c 9b2f 37be 28f6 98be d72d b5bd
00000010: bd9d 90bd 1cc7 c3bd 398d 81be 9164 1fbe
00000020: 6523 77be d170 8abe 6c04 1cbe 8a9e 46be
00000030: d238 a5bd 6e30 5bbe fa15 b6bd e659 b6bd
00000040: 9d47 8fbe 34c4 00be 7917 5ebe f380 76be
00000050: 1a45 a9be 416f 96be 31c8 67be b7dd b2bd
00000060: 5f00 28be 8bf0 4d3c 822a 67be 1250 65be
00000070: 5087 2fbe 975e 65be eda9 1bbe d43e 3ebe
00000080: 5cf8 abbe 11e2 67be e046 82be 7b8f 59bd
00000090: d9ee 23bd caa2 29bd 934f 113d 0a39 90be
000000a0: 89e0 06be e597 84be eb77 57be 2ec8 96be
000000b0: c72e 14bd 91b0 81bd efdd 60be 3a1a adbd
000000c0: 98f6 7dbd aa20 aebd f1e1 84be c3eb f3bd
000000d0: f6d1 3fbe 0bfb 59be ef61 75bd 377b febd
000000e0: b707 2dbe 8488 debd 0fcd 54be 06ee 8bbc
000000f0: 6062 b5bd 16e9 4cbe 6847 9c3d c3dd 37bd
00000100: 65e3 b0bd 45c3 28be 48c0 74be c180 ffbd
00000110: dbef edbd 5944 a7bd 1430 53be 24aa 46be
00000120: 4a49 853d 890c eb3c 581a 82be 3291 26be
00000130: 63d7 80be a12f 92bd 28f8 72be 6d39 45bd
00000140: 7d89 7cbe 9a4f 11be 07f2 8cbd 64a2 92be
00000150: e9db 91bd a19e 25bc e272 c4bb efcf 75be
00000160: 52f0 b63c 3233 db3d 2a87 02bd ab7a aabe
00000170: 0ac6 b6bd 3a47 c0be 42c8 1bbe 3789 7ebe
00000180: 247b a2be 1f7b 83be 389d 8fbe fe63 2cbe
00000190: e1f9 78be bb55 48be 46a9 54be 0476 8bbe
000001a0: 4bb9 48be 56d5 74be e78a 17be fe4c 57be
000001b0: 4fee 3ebe 973b 54be 72cf 9ebe 96f7 aebe
000001c0: 9c8d 3a3d 8ab2 21be ffae e9bd bdba d0be
000001d0: 0a48 6d3c db26 11be 3603 0fbe 3b01 a8be
000001e0: 14d4 4abe 4cfa 5fbe f0e8 abbd 6fac 2ebe
000001f0: 0f34 b6bd dce0 53bd fa5e 3cbe 6655 47be
