Transformer_100epochs_fulldata.pth (torch, 154419 bytes, 40 tensors)

encoder_embedding.weight f4 [47, 32]
-0.9649797 -1.161157 -0.50819904 -0.42218444 0.6030522 -0.9750028 1.4387393 0.19774093
0.121402554 0.3160741 -0.8628061 -0.12327785 0.20487279 1.1769413 0.34799865 -0.29749164
-1.4038273 -1.1197718 -0.10452385 0.010588382 0.5942285 0.50411487 -1.7107902 -0.31785187
0.81654924 -0.24042761 -1.0369099 -0.3752939 -1.6900798 0.37895954 -0.12491565 -0.13720523
-0.7597438 1.4329232 -1.0640401 -0.4047408 -0.49965602 -0.17649892 -1.0646148 1.003423
0.64925116 0.9743628 0.21365744 -0.61306745 0.64385325 -0.36015597 -0.7077341 1.8365293
-0.4653034 0.4201486 0.16205348 0.4683812 -0.93198305 -0.51515645 -1.483568 -0.0005402704
-0.02270492 1.0909104 -0.6673899 -1.313656 -0.45548376 0.3525019 -0.73327035 -0.12116827
-0.0018547296 -0.41490638 0.7386846 0.23839585 0.44550008 -1.3455744 0.2673406 0.25513023
1.8609943 1.4053079 -1.7623267 -0.05118516 0.009301341 -0.32413107 0.046186082 -0.6457702
1.0624396 -1.5457364 0.9108166 -1.4399081 -1.6208891 -1.1607319 -1.0505751 -1.2365617
0.5259279 0.7260145 0.06563999 -1.0574824 0.36799043 1.8938081 -1.3658344 0.6932065
1.5262333 -1.7885375 -0.75034636 -0.79517335 0.061347906 -0.9673633 0.43788022 -1.2700799
1.3784003 0.46226504 -0.63493156 -0.09884059 -0.72806025 -0.024458855 1.1728554 0.41940016
0.5184761 -0.6311339 -1.2001525 0.795656 1.6750321 1.4458214 0.23624969 -1.0374491
1.3841183 -0.7565386 1.928511 -0.20017667 0.5337667 -0.9096243 1.1764276 0.044796817
0.94774306 0.5938899 0.19425379 1.2270474 -0.9369161 -1.4285101 0.39924705 -0.29558185
0.072389446 0.9978693 0.24122351 -0.27536535 1.6286025 0.74574983 0.64606804 -0.057703905
0.6514762 -1.0713415 -0.13330568 -1.8273981 -1.8119056 0.06862796 0.47263247 -0.45658967
-0.13641867 -1.1855352 1.1844772 -0.7461495 -0.025744086 -0.3069533 -1.258715 0.8839175
2.3842893 -1.705122 -1.2475766 -0.3632597 1.0144635 -0.54613507 -0.26274687 -0.5414877
-0.75069284 0.66867584 1.657064 -1.5230463 -0.7728104 0.22636981 1.4089789 -0.9721478
-0.50232625 0.48590773 0.56116384 -0.97998935 0.6585548 0.5887364 -0.5013479 -0.12577598
0.83740324 -0.3096931 0.9056769 0.17797616 -0.3570851 -0.11054225 -0.5165164 -0.30062315
-0.14015895 1.899809 0.7055482 0.05715878 2.0182078 1.8158296 0.1345042 0.52931124
-0.29213795 -0.1186283 0.9197906 0.45761248 1.3930087 0.8691486 0.26258576 -1.3003769
-0.43162927 -1.6405225 1.5569311 -0.64076763 -2.075128 -0.013888277 1.79112 -0.2779734
-0.07232154 0.11745087 0.726819 0.20954017 -0.04211139 -0.034778852 0.2435443 -0.6016451
-0.7665528 -1.3709285 0.86958385 -0.2070063 -0.6826314 -0.32423788 -0.28388152 -2.0004811
-1.2387617 0.1703719 0.54396 1.2852551 0.5513822 -0.71689034 0.27325994 -0.0023837355
1.8690954 -0.46690473 0.7874334 -0.77316403 -0.11205337 0.7073141 -1.5004716 -0.023403926
-0.82277775 -0.7600615 -0.4265449 -1.4671315 -1.4417781 0.18157367 0.50605303 0.06390657
00000000: e908 77bf cba0 94bf 5519 02bf 8f28 d8be
00000010: a161 1a3f c999 79bf 9c28 b83f 997c 4a3e
00000020: e7a1 f83d 77d4 a13e dce0 5cbf 1979 fcbd
00000030: 2cca 513e 03a6 963f e12c b23e d350 98be
00000040: 9db0 b3bf af54 8fbf 9a10 d6bd e57a 2d3c
00000050: 5c1f 183f ac0d 013f 2cfb dabf 7bbd a2be
00000060: 5f09 513f a832 76be 77b9 84bf 8626 c0be
00000070: 8954 d8bf fc06 c23e c7d3 ffbd 877f 0cbe
00000080: 927e 42bf 076a b73f 7732 88bf 303a cfbe
00000090: ead2 ffbe 22bc 34be 4c45 88bf 2a70 803f
000000a0: 5335 263f d76f 793f 04c9 5a3e fdf1 1cbf
000000b0: 91d3 243f 5d66 b8be 102e 35bf 6413 eb3f
000000c0: 3f3c eebe b81d d73e 59f1 253e a9cf ef3e
000000d0: 7196 6ebf 4be1 03bf 8ee5 bdbf efa0 0dba
000000e0: abff b9bc f4a2 8b3f 11da 2abf e125 a8bf
000000f0: 2b35 e9be 217b b43e 9bb7 3bbf 1227 f8bd
00000100: 661a f3ba 9c6e d4be 6f1a 3d3f 0b1e 743e
00000110: 9618 e43e c83b acbf dee0 883e 6ea0 823e
00000120: 1035 ee3f 21e1 b33f ec93 e1bf 88a7 51bd
00000130: a764 183c 82f4 a5be 9e2d 3d3d 3251 25bf
00000140: 05fe 873f b1da c5bf 472b 693f e94e b8bf
00000150: 4b79 cfbf dd92 94bf 3f79 86bf a747 9ebf
00000160: 36a3 063f 16dc 393f 426e 863d 955b 87bf
00000170: 3e69 bc3e 4e68 f23f a9d3 aebf fb75 313f
00000180: 9d5b c33f ccee e4bf b316 40bf 7b90 4bbf
00000190: f147 7b3d 1fa5 77bf d631 e03e fa91 a2bf
000001a0: 6c6f b03f 01ae ec3e e08a 22bf ef6c cabd
000001b0: 2862 3abf f05d c8bc 2020 963f 9ebb d63e
000001c0: daba 043f fe91 21bf 999e 99bf 1db0 4b3f
000001d0: 7467 d63f ad10 b93f 70eb 713e 22cb 84bf
000001e0: ca2a b13f 84ac 41bf 73d9 f63f 1dfb 4cbe
000001f0: efa4 083f 23dd 68bf 2e95 963f de7c 373d
00000200: 4a9f 723f 2b09 183f 77ea 463e e40f 9d3f
00000210: bcd9 6fbf 6bd9 b6bf 1c6a cc3e 8156 97be
00000220: eb40 943d 5d74 7f3f 4c03 773e b0fc 8cbe
00000230: 0c76 d03f 76e9 3e3f b764 253f ee5a 6cbd
00000240: 25c7 263f b821 89bf 4981 08be 2ee8 e9bf
00000250: 86ec e7bf d18c 8c3d e2fc f13e 1fc6 e9be
00000260: 56b1 0bbe 9ebf 97bf f39c 973f a703 3fbf
00000270: 43e5 d2bc fc28 9dbe 931d a1bf 6b48 623f
00000280: 3298 1840 7041 dabf 97b0 9fbf 2dfd b9be
00000290: f1d9 813f 82cf 0bbf c286 86be f09e 0abf
000002a0: 682d 40bf 572e 2b3f ac1a d43f 2ef3 c2bf
000002b0: e7d6 45bf 7dcd 673e 6c59 b43f aede 78bf
000002c0: 7498 00bf e6c8 f83e 6fa8 0f3f 95e0 7abf
000002d0: 0c97 283f 6eb7 163f 5658 00bf 6bcb 00be
000002e0: 0f60 563f 1890 9ebe 71da 673f 623f 363e
000002f0: dcd3 b6be fa63 e2bd 6b3a 04bf 47eb 99be
00000300: d485 0fbe f12c f33f cf9e 343f 531f 6a3d
00000310: 512a 0140 1b6d e83f 78bb 093e f180 073f
00000320: 1b93 95be 65f3 f2bd 6677 6b3f 2f4c ea3e
00000330: 1c4e b23f 8680 5e3f a471 863e c072 a6bf
00000340: 83fe dcbe a4fc d1bf 8549 c73f 5909 24bf
00000350: e6ce 04c0 a88b 63bc 6c43 e53f 8852 8ebe
00000360: 511d 94bd 158a f03d cf10 3a3f b391 563e
00000370: fe7c 2cbd 4574 0ebd ad63 793e 6a05 1abf
00000380: ce3c 44bf 967a afbf 0c9d 5e3f 76f9 53be
00000390: eec0 2ebf 8202 a6be eb58 91be e207 00c0
000003a0: be8f 9ebf f975 2e3e f640 0b3f 3d83 a43f
000003b0: 6227 0d3f 2086 37bf bae8 8b3e 7238 1cbb
000003c0: 853e ef3f 230e efbe 3c95 493f 14ee 45bf
000003d0: 3d7c e5bd 8912 353f 740f c0bf 97b9 bfbc
000003e0: 90a1 52bf 6493 42bf 1864 dabe f7ca bbbf
000003f0: 2f8c b8bf 73ee 393e b18c 013f 73e1 823d

decoder_embedding.weight f4 [45, 32]
-0.059194624 -2.1367154 1.4205198 2.0874658 -0.5674375 -1.2459381 -0.8106871 2.0269585
-0.3812178 -0.47664967 0.4540124 -0.26449275 1.0979837 -0.93008024 -0.20739247 0.63459283
-1.5988678 0.089940205 1.3948008 -0.3117378 -0.88571805 -0.91683656 1.5159737 0.44433537
-0.21497701 0.36456066 -0.025679233 -0.9622002 -1.030202 1.2852459 -0.14813188 -1.0390075
-0.016859416 -1.4561708 -1.4025842 0.5786916 1.3198687 -1.0221393 1.3233061 1.698949
-0.5001557 -0.6128599 1.0099398 -1.1146977 -1.8340669 -0.8061691 1.6194569 -1.6300839
1.2861646 -2.6804514 -0.71512896 0.028872978 -1.4164101 1.5074925 -0.30566424 -1.0933353
0.18177906 0.0045340112 -0.6948039 0.6231044 -0.94204396 -2.2138958 -0.011556257 0.95202845
-0.13338572 1.4653121 -0.84922177 -0.098072164 -0.10273059 1.3812586 -1.2810293 0.6244673
-0.7428886 0.1620951 -0.16200395 -0.9867296 0.5002685 0.7208218 -0.3442543 -0.38229573
-0.59015185 0.64041424 0.21682428 0.9430049 0.51723427 0.41925582 -0.22678404 -0.145186
-0.69713295 -1.7939061 -1.0033822 -0.56912065 -0.34509143 -1.4310498 -1.8583431 0.99379635
-0.73787904 -1.5280433 0.46706334 -0.2296686 0.07593469 0.070480816 1.0573786 0.5361214
0.3358137 -0.0143408645 0.11439206 1.144125 0.9189543 1.1423264 -0.23895435 1.0252774
1.323116 0.69266295 -0.25005236 -0.9375864 -0.20112588 -0.68806463 1.1164513 -0.4415926
-0.4502325 1.6751454 0.3823545 -0.40751332 1.416923 -0.38964567 -0.89710486 0.25030383
0.899985 0.3977717 0.09216533 0.40048954 -1.5583428 0.9193493 -1.0807815 -0.08643481
1.4585074 -1.806213 -0.6599506 0.021698628 -0.16727142 0.9565569 1.3137374 -1.2534509
-0.8681743 -0.06698661 0.528718 1.1023844 0.6667936 0.19754186 0.33587638 0.1635008
0.373455 -0.14865892 -0.35816205 1.0870825 -0.6307153 0.15507138 -0.9264727 0.8364955
-1.2866209 -0.5402975 0.8904174 0.55776536 0.35473356 0.15010798 1.0647486 2.0867727
0.96633816 0.125344 -0.063964434 -0.3349275 0.3719872 -0.32795635 1.5797547 -0.8733069
-0.53283125 -0.26186433 0.1995843 0.051308766 0.41105986 -0.34429118 0.99208176 -0.6529232
-0.8560868 -0.130598 -0.22098157 0.6542076 0.34361348 1.0079248 -1.0789198 2.3081028
-0.7737264 1.2205786 0.35793403 0.65087575 0.23599124 -1.3820224 -1.3679309 -1.7005694
-0.11821751 -0.09122442 0.3359939 -0.7237108 0.3073001 -0.3867399 1.9371736 -0.75338346
0.2513402 0.44805023 -0.8399742 0.25854003 0.3507882 0.91841304 0.8691912 -0.13719155
0.024567287 0.9738936 1.0082598 1.198793 -1.8256772 0.12501307 -0.7913926 0.99411994
-0.9642603 1.5006613 0.3375059 -0.9161027 -0.3214644 0.44152275 -1.3063812 1.1612188
-0.5574968 -0.18576457 -0.50995004 1.2930722 -0.44871047 0.6775086 -0.65938705 -1.4054636
0.23964751 -0.024791216 -1.7219719 -0.69819325 -0.6276721 0.15220799 -0.64656484 -1.271388
0.44544023 -1.210257 1.4367696 0.39184585 0.76242125 -1.4765301 -0.65138966 0.0313128
00000000: 1076 72bd f2bf 08c0 98d3 b53f 0a99 0540
00000010: 9643 11bf e67a 9fbf 3189 4fbf b0b9 0140
00000020: fb2e c3be 6d0b f4be 5074 e83e 986b 87be
00000030: bb8a 8c3f bd19 6ebf b15e 54be ad74 223f
00000040: b3a7 ccbf 9232 b83d d588 b23f 199c 9fbe
00000050: 6bbe 62bf cdb5 6abf 6d0b c23f ed7f e33e
00000060: ef22 5cbe b2a7 ba3e 415d d2bc c152 76bf
00000070: a9dd 83bf f082 a43f e2af 17be 33fe 84bf
00000080: c21c 8abc ce63 babf e187 b3bf 2225 143f
00000090: 75f1 a83f 76d5 82bf 1862 a93f 2977 d93f
000000a0: 340a 00bf 63e4 1cbf b545 813f 6aae 8ebf
000000b0: b4c2 eabf 1961 4ebf 5d4a cf3f 97a6 d0bf
000000c0: 0ba1 a43f 848c 2bc0 b112 37bf 0687 ec3c
000000d0: ed4c b5bf 84f5 c03f 0680 9cbe 69f2 8bbf
000000e0: 4a24 3a3e 0b92 943b abde 31bf c583 1f3f
000000f0: cb29 71bf 78b0 0dc0 7456 3dbc 23b8 733f
00000100: 4496 08be 598f bb3f 9966 59bf 0fda c8bd
00000110: 6a64 d2bd 15cd b03f c5f8 a3bf 17dd 1f3f
00000120: f32d 3ebf 42fc 253e 5de4 25be 509a 7cbf
00000130: 9911 003f c787 383f 1a42 b0be 44bc c3be
00000140: 3114 17bf 30f2 233f 2f07 5e3e c568 713f
00000150: 7769 043f b3a8 d63e 133a 68be a4ab 14be
00000160: 4e77 32bf b79e e5bf d46e 80bf e4b1 11bf
00000170: d3af b0be a42c b7bf 30de edbf 7069 7e3f
00000180: a4e5 3cbf ec96 c3bf ed22 ef3e 3f2e 6bbe
00000190: a683 9b3d 3f58 903d 2f58 873f 413f 093f
000001a0: c6ef ab3e f2f5 6abc 6246 ea3d b072 923f
000001b0: 9740 6b3f c037 923f 73b0 74be 4a3c 833f
000001c0: dd5b a93f 5c52 313f dd06 80be aa05 70bf
000001d0: f1f3 4dbe 0125 30bf e0e7 8e3f 6d18 e2be
000001e0: e084 e6be 2a6b d63f f8c3 c33e 96a5 d0be
000001f0: bc5d b53f a37f c7be aaa8 65bf d327 803e
00000200: 6b65 663f bba8 cb3e 2dc1 bc3d f70c cd3e
00000210: c777 c7bf 7a5a 6b3f 0c57 8abf bc04 b1bd
00000220: 5fb0 ba3f fd31 e7bf 86f2 28bf 52c1 b13c
00000230: 3349 2bbe eae0 743f 8c28 a83f 1471 a0bf
00000240: ac40 5ebf 4730 89bd 105a 073f ef1a 8d3f
00000250: fcb2 2a3f 6a48 4a3e fdf7 ab3e c16c 273e
00000260: 7e35 bf3e 0b3a 18be 0461 b7be 8525 8b3f
00000270: 8f76 21bf 08cb 1e3e 512d 6dbf 9224 563f
00000280: feaf a4bf f050 0abf 65f2 633f b6c9 0e3f
00000290: a39f b53e e8b5 193e af49 883f af8d 0540
000002a0: f061 773f 2d5a 003e c9ff 82bd 9e7b abbe
000002b0: 1b75 be3e e5e9 a7be 6735 ca3f 0a91 5fbf
000002c0: a167 08bf 1513 86be d45f 4c3e 2429 523d
000002d0: 7076 d23e ef46 b0be 12f9 7d3f fa25 27bf
000002e0: 8128 5bbf 7bbb 05be fe48 62be 267a 273f
000002f0: 1bee af3e ae03 813f 0b1a 8abf f5b7 1340
00000300: ef12 46bf eb3b 9c3f 2143 b73e cb9f 263f
00000310: b0a7 713e 1ce6 b0bf 5c18 afbf 42ac d9bf
00000320: 061c f2bd ded3 babd 6407 ac3e 1c45 39bf
00000330: 7056 9d3e c602 c6be 4ef5 f73f bddd 40bf
00000340: aaaf 803e d766 e53e 8d08 57bf 5c5f 843e
00000350: 839a b33e 1e1d 6b3f 5183 5e3f f17b 0cbe
00000360: 5641 c93c 1751 793f a80e 813f 0d72 993f
00000370: caaf e9bf 6d03 003e b598 4abf a57e 7e3f
00000380: c3d9 76bf ab15 c03f 93cd ac3e b585 6abf
00000390: fb96 a4be 450f e23e 8037 a7bf d1a2 943f
000003a0: 1cb8 0ebf 1139 3ebe 168c 02bf 6483 a53f
000003b0: 61bd e5be 3471 2d3f 97cd 28bf 3be6 b3bf
000003c0: 2866 753e f316 cbbc 9369 dcbf cbbc 32bf
000003d0: 1eaf 20bf 69dc 1b3e 4685 25bf d8bc a2bf
000003e0: be10 e43e b4e9 9abf 11e8 b73f 05a0 c83e
000003f0: 0a2e 433f f0fe bcbf 79c1 26bf da41 003d

encoder_pos_embedding.weight f4 [8, 32]
0.5815007 0.97336483 0.3291598 0.9619641 -0.22897163 -0.089609765 0.35110945 0.047313876
0.15177836 -0.20556831 -0.065015115 -0.4838885 -0.027577389 -1.310084 -0.3530527 0.6427959
-1.9742688 -0.14058043 -0.5821968 -0.6148176 -0.0026217073 0.52271897 -0.68202186 -0.423105
1.0380608 -0.016696235 1.455185 0.92117107 1.612137 -1.0444163 1.077542 0.1632142
0.046343 0.7459122 -1.9905093 -0.7316611 -0.13464688 0.26112464 2.629381 -0.04539461
1.1575785 0.8769791 -0.31834906 0.56719154 -0.31506217 -0.98719126 0.6395274 0.71532476
1.23857 -0.8732906 0.36611018 0.17748687 -1.49491 -0.6942338 0.070531264 0.6315595
0.1988092 0.11247982 -1.2832559 1.1596552 -1.160091 1.5670642 -0.17826763 0.094712175
-0.16978152 0.4370134 2.2304354 0.76556504 -0.68961847 0.59021485 -1.0321174 0.39349166
0.7004782 0.15247962 -0.037320428 -0.6801779 1.2295107 -2.316556 -0.2564754 -0.23443489
-1.6221546 -0.74911517 -1.0753751 -0.1458454 0.033611376 0.16562721 0.38294697 0.7010813
0.8619543 2.3622067 -0.47623464 -0.22566862 -0.16199414 0.94340014 -0.13748434 0.277595
0.15853794 0.726426 0.037194986 0.09754867 1.7214397 -0.46011943 -0.617395 -0.7095468
0.43428347 -0.65539074 -0.5730869 -0.8382833 -0.31087562 0.083084464 -1.1922029 0.9757788
-0.04927523 0.23751359 0.3932353 0.72503424 -1.1135981 0.24797837 0.026537744 2.2109573
-0.6256472 -1.3051395 -0.57547605 0.3584999 0.9802743 -0.38567796 0.21620616 1.3759108
1.8301624 -0.2082959 -0.6233247 2.027013 -0.75783646 0.52330524 -2.1646202 1.2605026
1.0609522 -1.3263663 -0.4166202 1.8965569 0.14809638 -1.1325997 -1.5223912 -0.8657607
2.870391 -0.07072628 0.62342936 -0.407528 -1.0033783 0.860654 -0.22354376 -0.82882065
1.049445 0.6757101 -1.4466532 0.011378579 0.13387391 1.2312897 0.8860604 0.20216762
0.03448255 0.26018134 -0.082284786 0.07994691 -1.2559164 0.7037105 0.5705443 -1.0028789
-0.70956933 1.7033457 -1.1158383 0.52873445 0.9186167 -1.6904033 0.6486187 -1.0566639
-2.4611983 -0.9991643 -1.358951 1.5631477 1.4470681 0.7164305 -1.0060089 0.47167718
-0.4362184 -1.0694478 -0.6820615 1.5148137 -0.33934233 -0.02197639 -0.46969086 -1.2652521
-0.055685773 -1.1064944 -1.2553006 0.48000684 -0.23905163 0.96689194 1.0007523 -0.5458113
0.88418573 -0.8403379 1.240109 1.8076009 -0.030828381 -0.41390157 1.5202626 -0.8378403
0.39356992 -0.77607197 -0.736547 -0.81442267 0.51220196 1.18868 -1.5335363 0.20682317
1.6942301 0.9648131 1.547774 0.0448256 -0.42340225 1.1068692 -2.019044 -0.8158819
-0.8491359 -0.31649336 0.83549 1.1116592 0.054266147 0.030813724 -0.08987082 0.56521267
1.1005989 -1.2707845 0.33327615 -0.39877284 0.7792575 0.6773669 -0.9092133 1.4295694
0.32305574 1.606982 0.66767275 0.3695524 -0.7626711 0.8839046 -1.6460202 -1.0838363
0.042083725 1.1854746 0.6315366 -1.2809485 1.995779 -0.6150775 0.77839094 -0.4126687
00000000: 3bdd 143f 702e 793f a287 a83e 4743 763f
00000010: 8a77 6abe 5385 b7bd 9ec4 b33e 32cc 413d
00000020: c96b 1b3e 8080 52be a526 85bd 3cc0 f7be
00000030: fae9 e1bc d5b0 a7bf 53c3 b4be 468e 243f
00000040: d7b4 fcbf 51f4 0fbe d90a 15bf b064 1dbf
00000050: f3d0 2bbb e9d0 053f fc98 2ebf 38a1 d8be
00000060: 2ddf 843f 8bc6 88bc 8143 ba3f ded1 6b3f
00000070: 815a ce3f 6faf 85bf e5ec 893f a021 273e
00000080: 28d2 3d3d 1af4 3e3f 02c9 febf 244e 3bbf
00000090: dfe0 09be 21b2 853e c747 2840 b3ef 39bd
000000a0: 882b 943f b481 603f a6fe a2be 7733 113f
000000b0: d44f a1be 91b8 7cbf 11b8 233f 861f 373f
000000c0: 7689 9e3f f98f 5fbf cb72 bb3e 1ebf 353e
000000d0: 3659 bfbf 4eb9 31bf b272 903d e2ad 213f
000000e0: a494 4b3e d25b e63d bb41 a4bf 956f 943f
000000f0: dd7d 94bf 8f95 c83f ca8b 36be 75f8 c13d
00000100: 35db 2dbe 38c0 df3e 74bf 0e40 12fc 433f
00000110: d68a 30bf 5218 173f 6c1c 84bf bd77 c93e
00000120: 8a52 333f 9e23 1c3e 4edd 18bd 2420 2ebf
00000130: 9b60 9d3f 7442 14c0 be50 83be b30f 70be
00000140: c3a2 cfbf 03c6 3fbf e4a5 89bf 7f58 15be
00000150: 15ac 093d 2e9a 293e a011 c43e 107a 333f
00000160: 09a9 5c3f 652e 1740 07d5 f3be ad15 67be
00000170: cbe1 25be ac82 713f b2c8 0cbe ef20 8e3e
00000180: c557 223e 0ef7 393f c559 183d 99c7 c73d
00000190: 2358 dc3f c694 ebbe 990d 1ebf dca4 35bf
000001a0: 675a de3e b0c7 27bf d3b5 12bf bc99 56bf
000001b0: 172b 9fbe 3028 aa3d 1b9a 98bf a4cc 793f
000001c0: d3d4 49bd c336 733e 2356 c93e d89b 393f
000001d0: 628a 8ebf 0bee 7d3e af65 d93c 5380 0d40
000001e0: 6a2a 20bf d00e a7bf 6652 13bf 4d8d b73e
000001f0: 42f3 7a3f 9577 c5be 2665 5d3e d81d b03f
00000200: c342 ea3f 854b 55be 3592 1fbf 95ba 0140
00000210: 9201 42bf 55f7 053f 2389 0ac0 2658 a13f
00000220: 48cd 873f 5fc6 a9bf 3e4f d5be 60c2 f23f
00000230: 94a6 173e 07f9 90bf b7dd c2bf 7ea2 5dbf
00000240: 7cb4 3740 f1d8 90bd 1199 1f3f 83a7 d0be
00000250: b36e 80bf d253 5c3f a8e8 64be 972d 54bf
00000260: 3754 863f 56fb 2c3f ef2b b9bf 386d 3a3c
00000270: 3e16 093e e79a 9d3f dbd4 623f 0705 4f3e
00000280: 933d 0d3d 7d36 853e ed84 a8bd 35bb a33d
00000290: dec1 a0bf 5f26 343f 310f 123f 565e 80bf
000002a0: 56a6 35bf 3b07 da3f cad3 8ebf 245b 073f
000002b0: 772a 6b3f 235f d8bf e00b 263f c340 87bf
000002c0: 4684 1dc0 3bc9 7fbf 1bf2 adbf 3915 c83f
000002d0: 8739 b93f fd67 373f e6c4 80bf ac7f f13e
000002e0: 0558 dfbe aae3 88bf 959b 2ebf 6ae5 c13f
000002f0: 47be adbe d507 b4bc 527b f0be c8f3 a1bf
00000300: c416 64bd 9ca1 8dbf b1ad a0bf 75c3 f53e
00000310: f3c9 74be 3b86 773f a718 803f 4aba 0bbf
00000320: ff59 623f 6220 57bf e4bb 9e3f 775f e73f
00000330: cd8b fcbc e8ea d3be f797 c23f b47c 56bf
00000340: ff81 c93e a7ac 46bf 588e 3cbf 017e 50bf
00000350: ab1f 033f ab26 983f eb4a c4bf 74c9 533e
00000360: 88dc d83f fefd 763f 751d c63f 0c9b 373d
00000370: 2ec8 d8be e4ad 8d3f 0438 01c0 a3dd 50bf
00000380: f860 59bf 6b0b a2be ace2 553f d94a 8e3f
00000390: 2e46 5e3d 106d fc3c 310e b8bd c7b1 103f
000003a0: 6de0 8c3f 11a9 a2bf 2ca3 aa3e f42b ccbe
000003b0: 6b7d 473f eb67 2d3f 34c2 68bf 21fc b63f
000003c0: 9067 a53e 96b1 cd3f 9aec 2a3f f935 bd3e
000003d0: 6a3e 43bf 9247 623f cab0 d2bf 26bb 8abf
000003e0: fc5f 2c3d a2bd 973f 62ac 213f 1ff6 a3bf
000003f0: b075 ff3f b875 1dbf a144 473f 5049 d3be

decoder_pos_embedding.weight f4 [8, 32]
-0.3234677 -0.014274842 -1.0823715 -0.51897776 -1.7592171 2.7606921 -0.48356146 1.576702
0.95327514 -1.3139873 0.12792976 -0.29108864 0.5170841 1.1427323 -0.39532116 -0.8271894
-0.95841604 -2.156485 0.4863847 0.50347525 -0.8360817 1.0145581 0.09056685 -0.24104184
0.29695895 -0.58204025 -1.0048395 -0.1484275 1.5733793 0.639016 -0.7759409 -0.19224447
0.27761632 0.16182311 0.80415046 -0.47485015 -0.44392797 -0.19430767 -1.4009392 1.5680828
-0.2085156 1.2709798 -0.4690683 0.92401683 -0.7072226 -2.7300427 1.0552143 0.6152582
-1.3920985 -0.3298026 -0.5869587 0.047404055 0.73337114 -0.94171965 0.4241355 0.5855027
-1.6309202 -2.1821935 -0.6957809 2.0404224 -1.3177621 0.74749774 1.0497788 -2.408625
-1.9734342 0.5028997 0.0073109567 -1.3159457 -0.061523113 -1.3274282 -1.0170597 -0.23384652
0.9054261 -1.418158 -2.6774483 0.9801026 -1.0417721 -1.0103908 2.6601882 1.4708688
-0.34381425 0.10920071 1.4138831 2.2953513 -1.3385638 -1.0123199 -0.59540284 -0.12384635
0.45060137 -0.15768546 1.2173555 2.301462 1.6480601 -0.5622325 -1.9441082 -1.917633
-0.6121653 -0.28675783 1.3649414 1.4382285 0.8151578 -1.4473585 -1.9353598 -1.6657319
1.4335086 -0.72293836 1.4614481 0.039721075 3.2115335 1.2507086 0.28493577 -0.6375749
2.172228 0.43017113 -0.16395016 1.100852 0.4181669 0.645747 -0.56364715 2.8859673
-1.2552142 -1.6978214 -0.7289439 -2.1149576 -1.3912975 -0.99524784 1.5280207 2.480146
0.1395786 -0.35923088 0.05485118 0.075080186 -0.68675697 -0.42180106 0.48281804 -0.090814345
1.3594215 1.5786976 0.18895583 -1.0672157 -2.9030306 -0.3002315 -0.23777722 0.07117777
-1.1221609 0.16419211 -0.70451736 0.8386238 0.012403081 0.646267 0.16988605 -0.14262594
0.32196587 -1.1397072 0.9559796 -0.40327337 -0.016282167 -1.0217056 0.026252605 -0.07287736
-0.26834813 -0.3670935 -1.5646256 -0.5377318 0.8165841 -0.06538633 -0.77506167 1.0252067
-0.48941648 -0.9408356 0.65076774 -0.04171011 -1.7146447 0.32335395 1.1600865 -1.3439796
0.43560758 1.478498 0.7526947 2.3657448 1.3577478 -0.4700955 0.11298985 -1.825966
0.888283 1.0833046 0.026148714 0.83500636 0.27167487 -0.43643218 -1.0603083 -1.8045052
0.50743675 -0.4274962 0.07379765 1.4788436 -0.5002298 -0.38408852 0.3155404 -1.033954
-0.9308137 0.33266783 1.3413452 -0.32030252 -0.16574042 -0.3677566 -0.8002172 1.2033447
1.163063 0.20415045 0.21795695 3.1252024 -0.6252766 0.050641518 -0.3881739 -1.4736632
0.6023942 -0.6196862 -0.2944945 2.2658615 -0.6117741 -0.3639993 -0.16557385 0.20390674
-0.20961376 0.35722324 -0.18673103 0.47287175 -1.2276936 1.2386022 0.14626601 -1.680771
0.86091715 -1.2435814 -0.18055238 0.2583537 1.3860079 -0.19537063 0.0865635 -0.29473934
0.6163294 -1.1301671 0.8017955 1.0224319 -1.2282012 0.02430954 -0.48635957 2.7143986
-0.10989485 1.8329332 -2.1705043 0.56925625 0.15512958 -1.0005643 0.86393505 -0.6363799
00000000: 8f9d a5be 07e1 69bc 268b 8abf badb 04bf
00000010: 072e e1bf 2eaf 3040 5e95 f7be 5fd1 c93f
00000020: d709 743f bc30 a8bf 0500 033e 9209 95be
00000030: a05f 043f 0d45 923f 8967 cabe afc2 53bf
00000040: c15a 75bf da03 0ac0 6a07 f93e c1e3 003f
00000050: 7309 56bf 0add 813f 1d7b b93d acd3 76be
00000060: 010b 983e 9700 15bf 959e 80bf 61fd 17be
00000070: 7e64 c93f 8d96 233f 10a4 46bf bcdb 44be
00000080: ba23 8e3e f5b4 253e cedc 4d3f 8f1f f3be
00000090: 874a e3be 97f8 46be fa51 b3bf f0b6 c83f
000000a0: 1d85 55be 77af a23f b829 f0be 5e8c 6c3f
000000b0: 8a0c 35bf 05b9 2ec0 4311 873f 9081 1d3f
000000c0: 4930 b2bf e3db a8be ed42 16bf c12a 423d
000000d0: 36be 3b3f 8a14 71bf 4a28 d93e 81e3 153f
000000e0: fec1 d0bf 0fa9 0bc0 b21e 32bf 4896 0240
000000f0: 6eac a8bf 035c 3f3f 275f 863f e926 1ac0
00000100: 7e99 fcbf 09be 003f c090 ef3b e970 a8bf
00000110: a9ff 7bbd 2be9 a9bf 032f 82bf 7675 6fbe
00000120: 01ca 673f 3486 b5bf 505b 2bc0 01e8 7a3f
00000130: ca58 85bf 7c54 81bf 8640 2a40 6e45 bc3f
00000140: 6c08 b0be 9fa4 df3d 1ffa b43f 09e7 1240
00000150: 0f56 abbf b393 81bf 526c 18bf 28a3 fdbd
00000160: 39b5 e63e 4c78 21be 4ed2 9b3f 274b 1340
00000170: a2f3 d23f 78ee 0fbf 8ad8 f8bf 0075 f5bf
00000180: ddb6 1cbf ecd1 92be 66b6 ae3f df17 b83f
00000190: 2eae 503f 0b43 b9bf dfb9 f7bf b436 d5bf
000001a0: 367d b73f 7d12 39bf bb10 bb3f 91b2 223d
000001b0: c489 4d40 3817 a03f 1ae3 913e 1c38 23bf
000001c0: c905 0b40 643f dc3e 8de2 27be b8e8 8c3f
000001d0: f919 d63e ad4f 253f 2e4b 10bf b0b3 3840
000001e0: dcaa a0bf 3652 d9bf 119c 3abf 775b 07c0
000001f0: 0916 b2bf 90c8 7ebf 2f96 c33f b6ba 1e40
00000200: b1ed 0e3e 1ced b7be a2ab 603d a4c3 993d
00000210: 4ecf 2fbf 4ff6 d7be ed33 f73e dffc b9bd
00000220: 8601 ae3f c312 ca3f a37d 413e 869a 88bf
00000230: 41cb 39c0 f1b7 99be df7b 73be a7c5 913d
00000240: f8a2 8fbf fa21 283e 405b 34bf 0db0 563f
00000250: 4b36 4b3c c171 253f 9cf6 2d3e 890c 12be
00000260: b6d8 a43e ede1 91bf 14bb 743f d979 cebe
00000270: 2e62 85bc 40c7 82bf b40f d73c ba40 95bd
00000280: ed64 89be aef3 bbbe a745 c8bf cba8 09bf
00000290: a80b 513f 45e9 85bd 716a 46bf f939 833f
000002a0: cc94 fabe 9ada 70bf b798 263f 38d8 2abd
000002b0: 7a79 dbbf a68e a53e b77d 943f 8607 acbf
000002c0: f507 df3e 6c3f bd3f 9ab0 403f 5d68 1740
000002d0: aeca ad3f 5bb0 f0be 3967 e73d 41b9 e9bf
000002e0: 8466 633f baa9 8a3f d435 d63c fac2 553f
000002f0: f818 8b3e 0a74 dfbe 2fb8 87bf 07fa e6bf
00000300: 60e7 013f c8e0 dabe 3923 973d bf4a bd3f
00000310: 0f0f 00bf 40a7 c4be 838e a13e 9b58 84bf
00000320: cf49 6ebf 7053 aa3e 33b1 ab3f b1fe a3be
00000330: dbb7 29be 984a bcbe 09db 4cbf 3307 9a3f
00000340: 40df 943f d10c 513e 1b30 5f3e 5103 4840
00000350: 2112 20bf 7b6d 4f3d bbbe c6be ffa0 bcbf
00000360: 8236 1a3f c1a3 1ebf fcc7 96be e003 1140
00000370: 3a9d 1cbf 1e5e babe 318c 29be eecc 503e
00000380: fda4 56be f7e5 b63e 6b36 3fbe 3f1c f23e
00000390: 1025 9dbf 848a 9e3f c2c6 153e 8123 d7bf
000003a0: 1165 5c3f ad2d 9fbf b9e2 38be f046 843e
000003b0: b568 b13f 3d0f 48be 3448 b13d 13e8 96be
000003c0: c3c7 1d3f 51a9 90bf 7842 4d3f 0cdf 823f
000003d0: b235 9dbf cd24 c73c 1f04 f9be b5b8 2d40
000003e0: 8d10 e1bd 8e9d ea3f 8be9 0ac0 c7ba 113f
000003f0: 4ada 1e3e 7e12 80bf d92a 5d3f cbe9 22bf

transformer.encoder.layers.0.self_attn.in_proj_weight f4 [96, 32]
0.093403816 -0.1409833 -0.062105775 0.09165673 -0.11631806 0.07864984 0.01531231 0.13228811
-0.07225158 0.081244245 -0.17934802 -0.022218747 0.048498005 0.11391005 -0.0053338706 0.041425567
-0.145761 -0.19062355 -0.15320183 -0.053252723 -0.07602348 0.053312264 0.18084762 -0.01287574
0.046912868 0.012277013 0.020256234 -0.17609285 -0.105619594 0.1459978 -0.0989253 -0.042675328
-0.0040638135 -0.07507037 0.01658547 -0.16005936 0.18151979 -0.037720196 0.16433832 -0.101921536
0.03519491 -0.07824571 0.06870265 -0.23560242 0.018520454 -0.0339445 -0.06979399 0.10607728
-0.033096913 -0.014177525 -0.025060263 -0.011648447 0.1611483 -0.12315605 0.07215892 -0.09290704
0.049401984 -0.10029583 -0.009510044 0.0743066 0.2007806 -0.2449752 0.106292374 0.15011315
-0.066885866 0.08757799 -0.31895024 0.1715257 -0.1852951 0.1805188 -0.04925536 0.17026497
0.10974784 -0.1699883 0.22415861 0.084845 -0.00849592 0.07262308 -0.03916263 -0.15446281
0.17897621 0.08488228 -0.0723844 -0.08422935 -0.120651804 -0.14236929 -0.023539046 0.04163336
-0.04546554 0.22696324 -0.006017346 -0.032661103 -0.16525717 -1.4000008e-05 -0.117556326 -0.12897189
0.1748182 -0.05166116 0.07797814 0.22551036 0.1182262 -0.21133772 -0.05569588 0.027593553
0.08781712 0.075931974 0.08010778 0.028624123 -0.07703952 0.046403117 -0.014710263 -0.07578754
-0.091847286 -0.1507109 -0.123759136 0.22651134 0.12320929 -0.13489367 0.077167876 0.19150658
0.09778568 -0.11885073 -0.043304365 0.107685894 0.23343146 -0.051090274 0.12928328 -0.08198056
0.04499248 0.06993629 -0.029508838 0.045446835 0.117897995 -0.0337243 -0.076317765 0.27796116
-0.21740511 -0.27060667 0.008558321 0.020150127 -0.3183288 -0.12159924 -0.18273096 0.17035535
0.33356184 -0.03193966 0.38409603 -0.12890983 -0.19036 -0.32655293 0.053879425 -0.09741447
-0.20463382 0.052670218 -0.12315684 0.08360593 0.058997978 0.10044184 0.18134664 -0.13997974
-0.08172076 0.16335875 0.033425055 0.050998963 0.051457554 0.1303554 -0.0010824145 -0.07684747
0.10573232 -0.22958368 0.09152461 -0.13386634 0.03414703 -0.0016486302 -0.09397118 0.13733386
0.033582173 -0.11935497 -0.107644565 0.13572499 0.14512381 -0.041897494 -0.026364455 -0.118812464
0.14590234 0.09958402 0.15751334 -0.12502211 0.252895 -0.028952476 0.22939911 0.03514694
0.092160195 -0.0013444157 0.0031194526 -0.116995975 -0.026450112 0.0685323 0.052407864 -0.062896125
0.2229511 0.025771184 -0.33973452 -0.26198995 0.1998922 0.044279397 -0.041021626 0.02845285
-0.07701569 -0.10778202 -0.15995044 0.042921316 0.2826304 0.22541541 -0.07898605 0.12397732
-0.058019392 -0.1252242 0.16584069 0.13580419 0.00090322876 0.09085666 0.14056073 -0.17916209
-0.20177202 -0.11322066 -0.015773516 0.06316527 0.06417262 0.25880125 -0.13519415 -0.008823521
-0.014924521 -0.040218186 0.07664826 -0.04972966 0.024604911 -0.2179623 -0.082714446 0.11419231
0.117995396 -0.044302877 -0.05678838 0.09154976 0.08862102 -0.12615044 -0.0005383528 0.032629352
0.1547629 0.1711754 -0.022453234 -0.111761235 -0.23612186 -0.031170754 -0.1486403 -0.086125076
00000000: 804a bf3d ed5d 10be a062 7ebd 86b6 bb3d
00000010: 2a38 eebd 2b13 a13d 7ce0 7a3c 8976 073e
00000020: a3f8 93bd 6263 a63d 02a7 37be 1704 b6bc
00000030: d8a5 463d ac49 e93d c0c7 aebb dbad 293d
00000040: 5f42 15be d232 43be f1e0 1cbe 871f 5abd
00000050: 33b2 9bbd f65d 5a3d 1e30 393e c5f4 52bc
00000060: b527 403d 8625 493c 67f0 a53c af51 34be
00000070: 164f d8bd 7380 153e 5999 cabd 53cc 2ebd
00000080: bd29 85bb 7fbe 99bd 40de 873c 9ae6 23be
00000090: 53e0 393e 7e80 1abd 4e48 283e 3dbc d0bd
000000a0: 8a28 103d 493f a0bd fab3 8c3d c341 71be
000000b0: 35b8 973c 6309 0bbd 27f0 8ebd 0c3f d93d
000000c0: a190 07bd da48 68bc 2e4b cdbc 21d9 3ebc
000000d0: 0f04 253e 3d39 fcbd 0ec8 933d 0c46 bebd
000000e0: bc59 4a3d e667 cdbd 04d0 1bbc 0f2e 983d
000000f0: 6e99 4d3e c7da 7abe d1af d93d 43b7 193e
00000100: 75fb 88bd 175c b33d 724d a3be 6fa4 2f3e
00000110: 00be 3dbe ecd9 383e fdbf 49bd f159 2e3e
00000120: 7ac3 e03d 6a11 2ebe d689 653e 37c3 ad3d
00000130: 7932 0bbc 69bb 943d fe68 20bd 802b 1ebe
00000140: 8a45 373e c3d6 ad3d 463e 94bd 7080 acbd
00000150: 4b18 f7bd 41c9 11be f5d4 c0bc be87 2a3d
00000160: 133a 3abd 0d69 683e 282d c5bb a6c7 05bd
00000170: 2d39 29be 94e1 6ab7 5fc1 f0bd 3511 04be
00000180: 8b03 333e a79a 53bd 01b3 9f3d 30ec 663e
00000190: 9420 f23d ea68 58be 5d21 64bd e00b e23c
000001a0: 76d9 b33d 3982 9b3d 8c0f a43d 237d ea3c
000001b0: e5c6 9dbd 3211 3e3d 5103 71bc 7f36 9bbd
000001c0: 6e1a bcbd f553 1abe 6e75 fdbd 97f2 673e
000001d0: 2755 fc3d 9121 0abe 310a 9e3d 4d1a 443e
000001e0: dc43 c83d 0368 f3bd eb5f 31bd 6c8a dc3d
000001f0: a808 6f3e 0944 51bd d662 043e 6de5 a7bd
00000200: 094a 383d c23a 8f3d 85bc f1bc 7626 3a3d
00000210: 8174 f13d 7e22 0abd 7d4c 9cbd ed50 8e3e
00000220: 729f 5ebe f58c 8abe 3338 0c3c e111 a53c
00000230: fefb a2be 0609 f9bd d31d 3bbe a271 2e3e
00000240: 9ec8 aa3e 29d3 02bd 3ca8 c43e f000 04be
00000250: bbed 42be f231 a7be acb0 5c3d 3d81 c7bd
00000260: 878b 51be babc 573d a739 fcbd 9639 ab3d
00000270: dda7 713d 74b4 cd3d efb2 393e d956 0fbe
00000280: 375d a7bd 8447 273e b6e8 083d 4ae4 503d
00000290: 28c5 523d e37b 053e cedf 8dba 3562 9dbd
000002a0: 308a d83d fc17 6bbe 4171 bb3d 4214 09be
000002b0: c2dd 0b3d da16 d8ba f673 c0bd 3fa1 0c3e
000002c0: 768d 093d 6170 f4bd c174 dcbd 7efb 0a3e
000002d0: 569b 143e b59c 2bbd 45fa d7bc f353 f3bd
000002e0: 6c67 153e b5f2 cb3d 2d4b 213e cc05 00be
000002f0: 747b 813e be2d edbc 9ae7 6a3e 3df6 0f3d
00000300: 7cbe bc3d 1b37 b0ba bb6f 4c3b 969b efbd
00000310: e8ad d8bc aa5a 8c3d a1a9 563d afcf 80bd
00000320: 4b4d 643e 171e d33c aff1 adbe 8c23 86be
00000330: 8ab0 4c3e 505e 353d 4b06 28bd f415 e93c
00000340: 67ba 9dbd d2bc dcbd 0cca 23be 43ce 2f3d
00000350: efb4 903e 4cd3 663e 70c3 a1bd d2e7 fd3d
00000360: bea5 6dbd c63a 00be 24d2 293e 4110 0b3e
00000370: a8c6 6c3a 0e13 ba3d 27ef 0f3e 4476 37be
00000380: 539d 4ebe 3ce0 e7bd 7637 81bc cb5c 813d
00000390: ef6c 833d 9981 843e 5670 0abe 8890 10bc
000003a0: fa85 74bc d3bb 24bd c3f9 9c3d 54b1 4bbd
000003b0: 3d90 c93c 8231 5fbe 3166 a9bd a8dd e93d
000003c0: 92a7 f13d ef76 35bd ef9a 68bd 717e bb3d
000003d0: f07e b53d 952d 01be 3f20 0dba 5ba6 053d
000003e0: 2a7a 1e3e 9b48 2f3e d8ef b7bc 13e3 e4bd
000003f0: eec9 71be cf59 ffbc 2a35 18be 5862 b0bd

transformer.encoder.layers.0.self_attn.in_proj_bias f4 [96]
0.11471317 -0.002089578 -0.08355271 0.047517575 -0.09692538 -0.07393166 0.14314869 0.030615684
-0.074551105 0.18627863 0.09424043 -0.023444002 -0.103881575 -0.090825066 -0.015070964 0.06678369
-0.015193678 -0.016326237 0.11150111 -0.109627254 0.020876056 -0.095768094 -0.09063262 -0.06474032
-0.100815296 -0.17196956 -0.080988154 0.096141614 -0.0214333 -0.11480615 -0.13427787 0.028603848
-0.0050654616 0.002384426 0.00030661863 -0.003713111 -0.00044466896 -0.005290417 -0.005289896 0.003936928
-0.0014978736 0.0046503837 -0.0024703715 0.0015434421 -0.0010962405 -0.00015280927 -0.003313978 -0.0003284609
0.0027776721 0.0040161205 -0.00022372884 0.009197389 -0.0039078025 0.0039612697 -0.004960752 0.001170932
-0.006551419 0.002833216 0.00061377144 -0.00018320477 0.0043232343 -0.003027562 0.001176005 0.004609792
-0.02028054 -0.026558682 0.026684279 0.018779885 -0.03212306 -0.020119667 -0.03200724 0.0052672615
0.14973131 0.037152342 0.04665848 -0.015265819 0.062236737 0.0019390745 -0.024054898 0.07290966
-0.108507864 -0.05142849 0.12406335 0.0039241198 -0.124348134 0.113217235 -0.034287065 0.023519129
0.010405272 -0.04923437 -0.13048308 0.092209764 0.1727619 -0.014015961 -0.03540495 -0.021042638
00000000: bdee ea3d 4df1 08bb af1d abbd caa1 423d
00000010: d080 c6bd 7b69 97bd 9295 123e becd fa3c
00000020: 40ae 98bd d3bf 3e3e 2001 c13d a30d c0bc
00000030: ddbf d4bd 7e02 babd 34ec 76bc e3c5 883d
00000040: e8ee 78bc 9abe 85bc b25a e43d 4184 e0bd
00000050: 4304 ab3c 1022 c4bd 989d b9bd 9396 84bd
00000060: 4078 cebd ca18 30be 1edd a5bd e5e5 c43d
00000070: e394 afbc 7d1f ebbd 2380 09be 9e52 ea3c
00000080: 2cfc a5bb 0844 1c3b a8c1 a039 aa57 73bb
00000090: 7522 e9b9 3c5b adbb dd56 adbb 5901 813b
000000a0: 4c54 c4ba 3f62 983b f5e5 21bb 534d ca3a
000000b0: baaf 8fba 6d3b 20b9 532f 59bb 4735 acb9
000000c0: 9b09 363b a999 833b c198 6ab9 a5b0 163c
000000d0: 060d 80bb 8acd 813b ce8d a2bb f579 993a
000000e0: 49ad d6bb 7aad 393b 81e5 203a a81a 40b9
000000f0: eba9 8d3b 106a 46bb 2e24 9a3a bd0d 973b
00000100: 6023 a6bc 9891 d9bc fd98 da3c 46d8 993c
00000110: 7893 03bd 00d2 a4bc 061a 03bd fe98 ac3b
00000120: 2a53 193e 0e2d 183d f61c 3f3d 7c1d 7abc
00000130: f3eb 7e3d 8b28 fe3a c70e c5bc a951 953d
00000140: 5f39 debd aea6 52bd ed14 fe3d e795 803b
00000150: 3caa febd 70de e73d 9870 0cbd 30ab c03c
00000160: e07a 2a3c fba9 49bd 5b9d 05be 79d8 bc3d
00000170: 7fe8 303e 34a3 65bc c804 11bd 9c61 acbc

transformer.encoder.layers.0.self_attn.out_proj.weight f4 [32, 32]
-0.1485587 0.08651194 -0.18992878 -0.15760563 -0.15826415 0.14709274 0.06742017 0.4556158
-0.0070084347 0.049647108 -0.37881407 -0.026263734 0.025278676 0.071285136 -0.1362701 0.03174985
-0.028526478 0.08029371 -0.1996809 -0.040576827 0.20265788 -0.027843269 -0.05066921 -0.012701658
0.09793447 -0.032451365 -0.15694454 -0.37634468 0.24338354 -0.1631629 -0.15296765 0.020677611
-0.2838382 0.08510886 0.11788695 -0.22519803 0.020575011 0.15512156 -0.1029246 -0.08378931
0.11225716 -0.100099206 -0.07433621 0.10249163 0.14356719 0.017521126 -0.089885324 0.14742048
0.26103535 -0.3507437 0.13506104 0.15761855 -0.13915344 0.11561307 0.23444416 -0.24935323
0.04796476 0.15703033 -0.096081965 0.2742003 -0.0784415 -0.16028121 -0.0035566587 0.07561524
-0.20470321 -0.23111 -0.23847896 -0.26430595 -0.09119299 -0.0159106 0.08650005 0.008859438
0.10989936 -0.03321962 0.23112482 -0.32910046 0.2453296 -0.060151573 -0.013636198 -0.115521446
-0.0026060906 -0.1980451 -0.07159054 -0.0781229 -0.08080973 0.098748595 -0.29356313 -0.2559026
-0.050739948 -0.1583533 0.06806928 0.24487498 0.055307582 0.12081014 -0.3832926 -0.2397524
-0.2116316 0.25622442 -0.11911693 -0.21393111 -0.065464 -0.09098422 0.18891887 -0.2632238
-0.18573074 -0.12807503 -0.037741855 0.0011855015 -0.14201257 -0.11774277 0.07194807 -0.10237722
-0.1290061 -0.0066423486 -0.15319303 -0.12082623 0.31433013 0.22683266 0.20788446 0.08786642
0.00095904636 -0.13280755 0.13088848 -0.10710951 -0.3648018 0.278309 0.1662621 0.15249088
-0.113894165 -0.028652348 0.09411315 -0.0115813445 -0.19159321 0.06869062 -0.09376474 0.024691584
0.035630573 -0.1369626 0.32034767 0.06052057 0.159392 0.0723948 0.10667941 -0.17744671
-0.08411211 0.112167165 0.20656264 -0.1510679 -0.38141462 -0.25455678 0.016209727 0.11319148
0.27834073 -0.2877819 -0.106774874 0.09888123 -0.06764614 -0.03501359 0.21383579 0.09771862
0.27684367 -0.1473738 0.058149535 -0.10595333 -0.122346826 -0.023665138 -0.07780731 0.08728508
0.06311431 0.022191321 -0.18696548 -0.31140307 -0.1902906 -0.15844628 0.13488029 0.09512283
-0.04445507 -0.17979267 0.13655016 -0.13580307 0.038546026 0.016050287 0.013279638 0.33028436
-0.005012638 0.059294093 0.2994418 0.019930493 0.12942904 0.27954608 -0.18311419 0.37219542
0.28266436 0.046788827 -0.20576641 0.30438134 -0.20211485 -0.15489875 0.22790918 -0.13680366
-0.31902036 0.09489445 -0.1918307 -0.20181926 0.21492374 -0.32138932 0.20563814 0.16452245
0.08245611 0.23042372 0.27423367 0.3346201 -0.12334614 -0.15424953 0.079492055 -0.20109408
-0.112565756 -0.08733009 0.23830605 0.045280647 -0.1202749 0.24101517 -0.25272086 0.04651054
-0.06180349 -0.038271636 -0.0059884936 -0.04693321 0.27516964 -0.20790465 -0.24036038 0.15515548
-0.05234559 0.24805042 0.001647442 0.08903372 -0.14090039 0.002234565 -0.20612818 -0.25379494
-0.06484168 0.16063254 0.12577373 -0.09626983 0.14890197 0.038240753 0.010161154 0.04326054
-0.08065518 -0.0450515 0.13242792 -0.11152799 -0.08953767 0.08048076 -0.086342305 0.30660287
00000000: c61f 18be 2c2d b13d b17c 42be 5f63 21be
00000010: ff0f 22be 7b9f 163e 9613 8a3d 7946 e93e
00000020: 03a7 e5bb c45a 4b3d ebf3 c1be 0b27 d7bc
00000030: 3a15 cf3c f1fd 913d 648a 0bbe 210c 023d
00000040: 5cb0 e9bc 0771 a43d 2679 4cbe e333 26bd
00000050: 8c85 4f3e 9117 e4bc 848a 4fbd 9d1a 50bc
00000060: de91 c83d b9eb 04bd 12b6 20be 40b0 c0be
00000070: 8939 793e 2d14 27be 8da3 1cbe 1864 a93c
00000080: 3e53 91be 8e4d ae3d b76e f13d 509a 66be
00000090: ed8c a83c 30d8 1e3e 22ca d2bd bb99 abbd
000000a0: 15e7 e53d d000 cdbd 953d 98bd 22e7 d13d
000000b0: 4703 133e 7788 8f3c cc15 b8bd 65f5 163e
000000c0: 6da6 853e ae94 b3be 714d 0a3e c266 213e
000000d0: 3d7e 0ebe 8cc6 ec3d 2112 703e 7456 7fbe
000000e0: b276 443d 8fcc 203e 9fc6 c4bd fb63 8c3e
000000f0: f0a5 a0bd c220 24be d516 69bb 2adc 9a3d
00000100: b89d 51be 1aa8 6cbe d433 74be 1c53 87be
00000110: 64c3 babd f256 82bc f026 b13d 2d27 113c
00000120: ea12 e13d 4c11 08bd fcab 6c3e db7f a8be
00000130: af37 7b3e 7f61 76bd 5c6a 5fbc 8296 ecbd
00000140: f2ca 2abb 56cc 4abe 109e 92bd e6fe 9fbd
00000150: 927f a5bd b43c ca3d e84d 96be aa05 83be
00000160: b1d4 4fbd 5e27 22be e867 8b3d 82c0 7a3e
00000170: 348a 623d 4f6b f73d ed3e c4be a781 75be
00000180: f4b5 58be d92f 833e 94f3 f3bd c210 5bbe
00000190: fd11 86bd ef55 babd f373 413e 45c5 86be
000001a0: 3330 3ebe 1a26 03be 3497 1abd d462 9b3a
000001b0: be6b 11be 1f23 f1bd 8259 933d 26ab d1bd
000001c0: 2d1a 04be 0fa8 d9bb a2de 1cbe be73 f7bd
000001d0: e1ef a03e d246 683e aadf 543e 4ff3 b33d
000001e0: 8368 7b3a b4fe 07be a107 063e 3b5c dbbd
000001f0: 4dc7 babe 847e 8e3e 9d40 2a3e 9226 1c3e
00000200: 5841 e9bd 54b8 eabc 65be c03d aebf 3dbc
00000210: 0331 44be abad 8c3d ba07 c0bd 0146 ca3c
00000220: 5df1 113d ec3f 0cbe 9c04 a43e 6be4 773d
00000230: a837 233e ba43 943d bc7a da3d 97b4 35be
00000240: f842 acbd e6b7 e53d 2885 533e 8bb1 1abe
00000250: c748 c3be 4455 82be 43ca 843c efd0 e73d
00000260: ad82 8e3e 2658 93be c9ac dabd 3e82 ca3d
00000270: 0f8a 8abd 696a 0fbd c5f7 5a3e b320 c83d
00000280: 74be 8d3e 28e9 16be 352e 6e3d 0ffe d8bd
00000290: f990 fabd 64dd c1bc 7059 9fbd 85c2 b23d
000002a0: 1342 813d 93ca b53c e173 3fbe 3970 9fbe
000002b0: 8adb 42be be3f 22be 0f1e 0a3e c2cf c23d
000002c0: 8516 36bd 921b 38be ced3 0b3e f60f 0bbe
000002d0: 70e2 1d3d e47b 833c d792 593c 081b a93e
000002e0: 0e41 a4bb 5dde 723d 7050 993e 4645 a33c
000002f0: 0c89 043e aa20 8f3e 4982 3bbe 6690 be3e
00000300: 62b9 903e a4a5 3f3d 6eb4 52be dfd7 9b3e
00000310: 32f7 4ebe c79d 1ebe 0661 693e 4216 0cbe
00000320: a356 a3be 0558 c23d 446f 44be b5a9 4ebe
00000330: f814 5c3e 248d a4be ce92 523e 9378 283e
00000340: c0de a83d 32f4 6b3e 5b68 8c3e 5353 ab3e
00000350: e79c fcbd 97f3 1dbe bbcc a23d 9beb 4dbe
00000360: e088 e6bd 1eda b2bd 8006 743e 3378 393d
00000370: b052 f6bd aecc 763e a164 81be d681 3e3d
00000380: a825 7dbd b8c2 1cbd 203b c4bb 0a3d 40bd
00000390: 09e3 8c3e f5e4 54be 0821 76be 14e1 1e3e
000003a0: 5468 56bd ee00 7e3e fbee d73a 5057 b63d
000003b0: 3148 10be c871 123b 4413 53be 69f1 81be
000003c0: b7cb 84bd db7c 243e d4ca 003e 1e29 c5bd
000003d0: c279 183e 56a2 1c3d f87a 263c f731 313d
000003e0: 8b2e a5bd ec87 38bd 2f9b 073e c968 e4bd
000003f0: 875f b7bd 19d3 a43d 3cd4 b0bd 0dfb 9c3e

transformer.encoder.layers.0.self_attn.out_proj.bias f4 [32]
0.10791978 -0.06567889 -0.018493447 0.15097149 -0.2665459 0.29375947 0.014934353 0.17892142
-0.09918842 -0.13821656 0.056163628 -0.14556904 0.275404 -0.11871143 -0.25785476 -0.032881808
-0.07400333 0.14287238 0.25980338 0.058791056 -0.074783996 0.047161773 -0.13044937 0.07803031
-0.1527413 -0.033909883 0.12734921 0.20512009 0.09783419 -0.18756399 0.06629649 0.021449452
00000000: 0c05 dd3d a782 86bd 927f 97bc 4598 1a3e
00000010: b478 88be a467 963e 37af 743c 2d37 373e
00000020: 4c23 cbbd a488 0dbe d50b 663d 0d10 15be
00000030: c101 8d3e fa1e f3bd 8a05 84be 13af 06bd
00000040: 0f8f 97bd 234d 123e f304 853e e4ce 703d
00000050: 5a28 99bd b42c 413d 8594 05be 5bce 9f3d
00000060: 3768 1cbe 17e5 0abd d567 023e 000b 523e
00000070: 4b5d c83d c610 40be 74c6 873d c3b6 af3c

transformer.encoder.layers.0.linear1.weight f4 [128, 32]
0.11840668 0.10587644 -0.02717329 0.08020092 0.1251986 -0.080116294 -0.24655512 0.061017204
-0.114208765 -0.10927792 0.24880663 -0.0039169528 0.045776445 0.11850338 -0.039503895 -0.07932115
0.024810035 0.11639128 0.117957965 0.079465605 0.06433388 -0.0937543 0.15657118 -0.120977886
-0.097222105 0.049173024 0.06806966 -0.055225242 0.10852365 0.017403446 -0.0021132792 -0.08598221
-0.15785104 -0.13037618 -0.072095744 0.21338496 -0.080281295 0.048048478 -0.1045969 -0.20346637
0.16318807 0.14629598 0.18640071 -0.06634312 -0.056631174 0.047321416 0.09576286 -0.013292226
0.07405352 0.32654956 0.059592474 0.14810812 0.10115423 -0.095713384 -0.03402751 0.008688854
-0.20802471 -0.11001788 0.15887766 0.035666674 -0.053472407 -0.05174445 0.10331431 -0.07307759
-0.13179946 0.013743694 -0.08108848 0.18828796 0.08279075 -0.0016132501 -0.011613306 0.23799692
0.043197654 -0.071477026 0.04628027 -0.00413082 0.053944852 0.24795856 0.027438674 -0.018795177
0.0706872 0.13761684 0.22387792 0.058266137 0.19692671 0.12266256 0.056408197 -0.07486848
0.1335722 0.05816 -0.016019907 -0.07314782 -0.11660787 -0.14036871 0.11986153 -0.12792124
0.0880195 -0.20640934 0.007733786 0.08804185 -0.1258506 0.053878672 0.15569648 -0.21491864
-0.12461822 0.12784387 0.19066136 -0.10644579 0.02698331 0.1463942 0.19942288 -0.29291213
0.20605235 0.17275043 0.13480721 0.0545779 0.07697815 0.12891789 -0.023436965 -0.007100385
-0.107798316 0.12764022 -0.14886446 -0.12607574 -0.043328255 0.09218122 -0.02870135 0.121716306
0.1723015 -0.0022720706 -0.08579459 0.13606192 -0.043378495 0.18939202 0.19826058 0.06528971
-0.012111119 0.27243295 0.112397335 -0.019564712 0.018618403 0.09020681 -0.090785414 -0.20283931
0.10526801 0.13324061 0.20279117 0.10466986 -0.024039714 0.21677157 -0.01320956 0.16606274
0.029039606 0.036604635 -0.25851387 0.08989194 -0.040287394 -0.13507354 0.061525486 -0.16941518
-0.06819483 0.04690792 -0.0772217 0.12779994 -0.24725217 0.021065153 -0.06011414 -0.13390036
-0.14712362 0.07904721 -0.053866345 -0.1748771 -0.20978184 0.29257363 -0.073843986 -0.16314663
0.03650975 -0.040995963 0.16042207 0.05722314 0.294994 0.037683286 -0.120704755 -0.0068959557
0.068346046 -0.13801502 0.06411025 0.099371456 0.057363123 0.085084766 -0.08278395 -0.1041956
0.10665075 -0.2897352 -0.24354962 0.069361635 -0.18235904 0.24312072 -0.06341145 -0.027951991
-0.1444366 0.12167802 0.1675385 0.18401434 0.18297707 -0.016293578 0.0393012 -0.107578106
-0.033609957 0.16200879 -0.05986989 -0.09322509 0.20817041 0.08986701 -0.010242479 0.016324544
-0.060086023 -0.1468417 0.0092993 0.11013422 0.030397804 -0.14206867 0.001493062 0.11234094
0.03632 -0.06900926 -0.05493669 0.06569833 -0.2676561 0.3881366 -0.09266168 0.015017049
0.08708386 -0.032057147 0.07070732 -0.021673614 0.2115583 0.011278351 -0.02733796 -0.15476191
-0.06036463 0.19289432 -0.07706495 0.040032808 0.14310543 0.07331708 0.062615655 0.03365117
-0.025480079 -0.1114214 0.024549149 -0.09843148 -0.1108482 0.06923912 -0.124554515 0.03005167
00000000: 347f f23d bfd5 d83d 859a debc 6140 a43d
00000010: 1034 003e 0314 a4bd f278 7cbe 2ded 793d
00000020: 49e6 e9bd 1acd dfbd 2ac7 7e3e c859 80bb
00000030: 1580 3b3d e6b1 f23d d6ce 21bd 2173 a2bd
00000040: 6a3e cb3c 8d5e ee3d f293 f13d ddbe a23d
00000050: 7bc1 833d 4102 c0bd 3254 203e 41c3 f7bd
00000060: 621c c7bd a769 493d 1b68 8b3d dd33 62bd
00000070: a641 de3d ac91 8e3c f17e 0abb 7117 b0bd
00000080: b4a3 21be 5581 05be efa6 93bd 9681 5a3e
00000090: 856a a4bd 7bce 443d e636 d6bd 7d59 50be
000000a0: c61a 273e 9dce 153e d4df 3e3e e7de 87bd
000000b0: 17f6 67bd 1ad4 413d 511f c43d a3c7 59bc
000000c0: 5fa9 973d 8131 a73e 3d17 743d a8a9 173e
000000d0: f329 cf3d 6105 c4bd 6e60 0bbd b25b 0e3c
000000e0: 6e04 55be 0e51 e1bd d3b0 223e 3817 123d
000000f0: e205 5bbd fdf1 53bd 7496 d33d b4a9 95bd
00000100: 70f6 06be 3b2d 613c b811 a6bd 8fce 403e
00000110: 328e a93d b173 d3ba bc45 3ebc 77b5 733e
00000120: 06f0 303d 8c62 92bd 6190 3d3d d45b 87bb
00000130: 47f5 5c3d d9e8 7d3e 12c7 e03c 58f8 99bc
00000140: 73c4 903d 6eeb 0c3e 4140 653e 79a8 6e3d
00000150: 28a7 493e 8236 fb3d 480c 673d a554 99bd
00000160: 27c7 083e 2e39 6e3d 2e3c 83bc 86ce 95bd
00000170: 1bd0 eebd d1bc 0fbe f679 f53d c9fd 02be
00000180: 9143 b43d f85c 53be b36b fd3b 494f b43d
00000190: fbde 00be e2af 5c3d e66e 1f3e a213 5cbe
000001a0: d637 ffbd 81e9 023e bb3c 433e 4000 dabd
000001b0: 1a0c dd3c 5ce8 153e 8335 4c3e 94f8 95be
000001c0: 63ff 523e 7de5 303e e70a 0a3e 138d 5f3d
000001d0: b8a6 9d3d 0d03 043e e1fe bfbc 59aa e8bb
000001e0: 5dc5 dcbd 1eb4 023e ed6f 18be 001a 01be
000001f0: f878 31bd 82c9 bc3d 181f ebbc 6646 f93d
00000200: ce6f 303e 05e7 14bb 13b5 afbd d153 0b3e
00000210: a6ad 31bd fbef 413e d204 4b3e 9db6 853d
00000220: b76d 46bc 557c 8b3e 9330 e63d 2d46 a0bc
00000230: 9f85 983c 59be b83d b4ed b9bd 1cb5 4fbe
00000240: c196 d73d 3a70 083e 7da8 4f3e 275d d63d
00000250: efee c4bc 5ef9 5d3e e96c 58bc 5a0c 2a3e
00000260: 78e4 ed3c beee 153d ee5b 84be 4419 b83d
00000270: 6504 25bd b850 0abe 2602 7c3d 2c7b 2dbe
00000280: bba9 8bbd 8522 403d 6926 9ebd fddd 023e
00000290: ac2f 7dbe d490 ac3c 3f3a 76bd 2d1d 09be
000002a0: 93a7 16be 81e3 a13d f5a2 5cbd fc12 33be
000002b0: 0dd1 56be 36cc 953e 843b 97bd e90f 27be
000002c0: 3f8b 153d 62eb 27bd af45 243e d062 6a3d
000002d0: 7409 973e ca59 1a3d 0e34 f7bd 78f7 e1bb
000002e0: 03f9 8b3d cf53 0dbe 3c4c 833d 4383 cb3d
000002f0: 98f5 6a3d ec40 ae3d a28a a9bd 8164 d5bd
00000300: b56b da3d 2c58 94be 1265 79be 790d 8e3d
00000310: 54bc 3abe a3f4 783e dddd 81bd 93fb e4bc
00000320: 30e7 13be 5332 f93d 368f 2b3e 416e 3c3e
00000330: 575e 3b3e 1c7a 85bc 4cfa 203d e951 dcbd
00000340: 98aa 09bd a2e5 253e 213a 75bd ccec bebd
00000350: a02a 553e 320c b83d 12d0 27bc 0dbb 853c
00000360: c31c 76bd ac5d 16be 175c 183c 0d8e e13d
00000370: d104 f93c 737a 11be d9b2 c33a 0213 e63d
00000380: 48c4 143d ba54 8dbd 4b05 61bd d98c 863d
00000390: 380a 89be d7b9 c63e 68c5 bdbd 120a 763c
000003a0: 0659 b23d 5b4e 03bd 00cf 903d dd8c b1bc
000003b0: bda2 583e d5c8 383c dcf3 dfbc e879 1ebe
000003c0: e740 77bd 1786 453e 3ad4 9dbd 71f9 233d
000003d0: 3b8a 123e 4427 963d a33c 803d cfd5 093d
000003e0: 99bb d0bc e730 e4bd 4c1b c93c 7296 c9bd
000003f0: 6204 e3bd 3dcd 8d3d 7016 ffbd eb2e f63c

transformer.encoder.layers.0.linear1.bias f4 [128]
-0.31271508 -0.39036095 -0.18276367 -0.27815896 -0.2294349 -0.16055562 -0.26976934 -0.2622917
-0.1282285 -0.22435918 -0.14238353 -0.29586077 -0.21702111 -0.24180906 -0.2605339 -0.19966005
-0.0467921 -0.22042656 -0.22821492 -0.22615834 -0.4188481 -0.17832875 -0.44952238 -0.18940312
-0.25000736 -0.26878092 -0.2904153 -0.45340842 -0.2982271 -0.35309237 -0.25303754 -0.23378254
-0.2385106 -0.054892555 -0.0696606 -0.023535104 -0.25856787 -0.33962727 -0.35378307 -0.20115592
-0.29839337 -0.31299928 -0.11939364 -0.3561463 -0.3680488 -0.17193635 -0.33800685 -0.14817762
-0.3492376 -0.2271083 -0.13648106 -0.35684472 -0.27674618 -0.16268393 -0.17434257 -0.15875442
-0.33046025 -0.47438955 -0.1994528 -0.17465895 -0.33019117 -0.30726483 -0.15317261 -0.1973008
-0.23936611 -0.1879825 -0.25321054 -0.0979297 -0.1750038 -0.4230619 -0.3311933 -0.39320973
-0.18955281 -0.41568145 -0.32910413 -0.013774011 -0.3035821 -0.28677496 -0.111021556 -0.40632161
-0.11219925 -0.27513024 -0.31163576 -0.2693413 -0.12186355 -0.23343217 -0.3175443 -0.13713466
-0.23429707 -0.23403512 -0.36918592 -0.35866982 -0.19471364 -0.2739018 -0.08022323 -0.12009641
-0.34050822 -0.24433647 -0.19996819 -0.109600335 -0.16493791 -0.29152447 -0.14700994 -0.30902323
-0.298317 -0.12164418 -0.40959933 -0.22438656 -0.35080266 -0.3635735 -0.3058991 -0.08806442
-0.2842194 -0.41152596 -0.13571616 -0.15757231 -0.12045635 -0.24028385 -0.10642857 -0.11594094
-0.29279262 -0.24662979 -0.12443729 -0.2185916 -0.20574296 -0.23789153 -0.22265588 -0.1955471
00000000: 311c a0be 64dd c7be 6626 3bbe da6a 8ebe
00000010: fcf0 6abe b168 24be 351f 8abe 194b 86be
00000020: 554e 03be 6abe 65be fdcc 11be 107b 97be
00000030: c83a 5ebe cb9c 77be b364 85be af73 4cbe
00000040: 13a9 3fbd 80b7 61be 2cb1 69be 0d96 67be
00000050: 4273 d6be d09b 36be cc27 e6be e4f2 41be
00000060: f700 80be a79d 89be 50b1 94be 2625 e8be
00000070: 39b1 98be 86c8 b4be 238e 81be b164 6fbe
00000080: 1f3c 74be 04d7 60bd 37aa 8ebd b1cc c0bc
00000090: 0263 84be a0e3 adbe 0e23 b5be d1fb 4dbe
000000a0: 04c7 98be 7141 a0be a784 f4bd cf58 b6be
000000b0: e470 bcbe 1510 30be 3c0f adbe e0bb 17be
000000c0: 45cf b2be 148f 68be b1c1 0bbe 5ab4 b6be
000000d0: adb1 8dbe 9e96 26be dc86 32be 8590 22be
000000e0: 1632 a9be 30e3 f2be 5b3d 4cbe ccd9 32be
000000f0: d10e a9be d151 9dbe 48d9 1cbe 3909 4abe
00000100: 641c 75be 7c7e 40be d0a4 81be 5e8f c8bd
00000110: 3234 33be 929b d8be 2b92 a9be c952 c9be
00000120: 221a 42be 33d4 d4be 5680 a8be 64ac 61bc
00000130: 1d6f 9bbe 2bd4 92be 455f e3bd 6309 d0be
00000140: b8c8 e5bd dfdd 8cbe b98e 9fbe 1ae7 89be
00000150: 9993 f9bd d808 6fbe 2b95 a2be 076d 0cbe
00000160: 92eb 6fbe e7a6 6fbe f005 bdbe 92a3 b7be
00000170: 0363 47be db3c 8cbe 144c a4bd 1bf5 f5bd
00000180: 1857 aebe 5733 7abe 76c4 4cbe 2476 e0bd
00000190: 7ce5 28be b242 95be c689 16be 4b38 9ebe
000001a0: 01bd 98be 9520 f9bd 01b7 d1be 97c5 65be
000001b0: 689c b3be 4e26 babe cf9e 9cbe 1e5b b4bd
000001c0: 3585 91be 88b3 d2be 2df9 0abe a35a 21be
000001d0: d2b1 f6bd f80c 76be 39f7 d9bd 7272 edbd
000001e0: eae8 95be 858c 7cbe fad8 febd 7ad6 5fbe
000001f0: 48ae 52be d699 73be e7ff 63be 803d 48be
