Models/EDTransformers/transformer_1head_32hidden_100epochs_minus5females_model3.pth (torch, 156129 bytes, 40 tensors)

encoder_embedding.weight f4 [47, 32]
-0.32300678 0.06268705 -0.69014424 1.0437654 1.5390345 -0.6465188 0.2613816 -0.6107171
-0.40251732 0.97962725 -1.5287423 -1.391512 -2.9394755 -0.48216718 -0.50850624 -0.93832374
-1.334705 -0.7956551 -0.675904 -0.761236 0.93260145 -0.70516616 1.132622 -2.0393686
0.6690215 -0.17224155 1.0609583 1.0851307 1.4432694 -0.16272661 1.557785 -0.157658
0.5582662 -1.4824988 -2.2550242 1.2281686 -0.7274715 1.7785637 -1.3894701 -1.218032
1.2613711 -0.27283126 -0.108831435 -0.2838332 -2.0293295 0.16700883 -1.6641378 -0.4971556
-1.3684973 0.43462625 0.14370751 -0.64038086 -0.2414297 -1.5957227 -1.1352029 -0.44091815
-0.6692094 1.3536305 1.1207256 1.8200533 -1.9397937 -1.1418737 -1.4356989 1.2930485
0.3993118 -2.1690378 1.1683912 -0.11258338 -0.4107644 -0.20752877 1.6212356 0.29172304
0.7378794 -0.17554261 0.1397412 1.2180693 -0.6229515 -0.8045255 0.015139471 0.06190277
1.0009351 0.2934113 0.8107943 0.2125213 0.2876005 1.1054649 1.4714338 -0.30118912
-0.6847628 0.1693867 -0.02350385 -1.0229708 0.42495632 -2.5773766 0.035659607 0.47059804
-0.2947224 -0.69747764 0.36546114 -0.7540551 -0.8431859 1.7145058 0.79110163 0.6556487
1.7272135 0.123044744 0.7364841 0.81206137 0.88373053 -0.2566616 -0.35792294 -0.8002228
0.20526569 1.0453044 -2.7662737 0.7216833 0.1823016 -0.24911521 -0.5325625 1.4261396
-1.2098708 0.3654478 -0.62619764 0.087360345 -1.3782148 -0.8557096 0.48850653 -0.5802623
-0.7428541 -0.75170976 -0.97085005 -0.78878176 -0.65376794 -1.2263668 0.2332646 -0.61085594
-1.2284958 -0.08162554 1.7682693 0.69794387 0.13606676 -1.357024 1.6476332 0.74618924
-0.83557546 -1.3438125 -0.8388689 -1.5185677 0.46306518 0.46484232 -0.4803307 -0.6387003
-0.09018856 2.1664567 -0.048487008 -0.11399249 0.55564946 -0.043797884 -2.4630256 1.2466536
-0.61565936 1.0040852 -0.15677656 -0.9914135 0.5226588 -0.00020396728 -1.06347 0.50647974
0.9809727 -1.1240556 -1.3786724 -0.073154785 -0.56200564 -2.4136505 1.0781158 -0.92803925
-0.95006925 0.57031816 2.187787 -0.37766537 0.14265728 -0.73101395 1.046844 -0.49906567
0.04649833 -1.4957242 -0.53261155 -1.2556239 0.7201502 0.10248794 -0.6513681 -0.5243121
2.1554787 -0.85593957 -0.879206 0.29632834 0.4060567 -0.9503012 0.79321986 -1.3112007
-0.8923895 1.6511998 2.2758374 -0.72122496 -0.7650796 -0.11370589 -1.3931435 1.451684
0.3044336 1.3151231 -2.3500445 1.7025805 0.3127023 0.13820714 -0.6492839 -0.104730316
0.6867541 1.5605379 -0.6528487 0.7804402 -0.016164491 1.0302995 0.39091483 -0.70802623
-2.1973789 0.41248527 0.2939721 0.23168151 -0.152226 -1.1638983 -1.6391186 0.2725216
-1.1830249 1.0701268 0.3918616 0.33937117 0.21054667 0.12924905 -1.6356232 1.4505429
2.0399897 -0.45636576 0.74194044 0.26840198 0.15012439 -0.24493246 -0.80216885 -0.9652077
-0.5877117 0.42604277 -1.0944974 -0.9839922 -0.8993525 -1.210929 0.5582155 2.0474434
00000000: 2561 a5be 1162 803d 4bad 30bf 1b9a 853f
00000010: 15ff c43f 4282 25bf cfd3 853e f557 1cbf
00000020: c016 cebe dac8 7a3f d4ad c3bf 111d b2bf
00000030: 5e20 3cc0 9ede f6be 772d 02bf fc35 70bf
00000040: 9dd7 aabf 0db0 4bbf 0b08 2dbf 5de0 42bf
00000050: f8be 6e3f c585 34bf c2f9 903f 0485 02c0
00000060: fe44 2b3f 1760 30be 7bcd 873f 90e5 8a3f
00000070: 0dbd b83f cea1 26be 8065 c73f 1971 21be
00000080: 89ea 0e3f 85c2 bdbf 5152 10c0 a134 9d3f
00000090: 923b 3abf faa7 e33f 28da b1bf 79e8 9bbf
000000a0: 9c74 a13f 8ab0 8bbe 04e3 debd 9652 91be
000000b0: 89e0 01c0 5d04 2b3e 7802 d5bf 2e8b febe
000000c0: eb2a afbf 5587 de3e 1028 133e 00f0 23bf
000000d0: 5939 77be a440 ccbf 544e 91bf 06c0 e1be
000000e0: 4f51 2bbf c443 ad3f f073 8f3f 82f7 e83f
000000f0: 294b f8bf eb28 92bf fbc4 b7bf 9d82 a53f
00000100: 9972 cc3e 84d1 0ac0 d88d 953f 1d92 e6bd
00000110: b64f d2be 6c82 54be a684 cf3f b95c 953e
00000120: aae5 3c3f 71c1 33be 5118 0f3e b2e9 9b3f
00000130: c079 1fbf 62f5 4dbf 8b0b 783c c28d 7d3d
00000140: a41e 803f 023a 963e 3790 4f3f 2f9f 593e
00000150: 5f40 933e e07f 8d3f f157 bc3f 7635 9abe
00000160: 9d4c 2fbf b573 2d3e 258b c0bc b5f0 82bf
00000170: e093 d93e bdf3 24c0 cf0f 123d 3af2 f03e
00000180: dbe5 96be e58d 32bf b91d bb3e c109 41bf
00000190: 08db 57bf ed74 db3f a385 4a3f 98d8 273f
000001a0: 5515 dd3f e2fe fb3d 398a 3c3f 41e3 4f3f
000001b0: 2a3c 623f 2669 83be ad41 b7be 67db 4cbf
000001c0: 2b31 523e 89cc 853f a10a 31c0 3dc0 383f
000001d0: 45ad 3a3e 0f18 7fbe 0456 08bf be8b b63f
000001e0: 0cdd 9abf f91b bb3e 7d4e 20bf fbe9 b23d
000001f0: 5869 b0bf c90f 5bbf 871d fa3e 128c 14bf
00000200: b02b 3ebf 0d70 40bf a189 78bf 9aed 49bf
00000210: 565d 27bf 96f9 9cbf eadc 6e3e 0e61 1cbf
00000220: 5a3f 9dbf 4b2b a7bd a656 e23f 73ac 323f
00000230: 1655 0b3e f6b2 adbf a5e5 d23f 4206 3f3f
00000240: 46e8 55bf 0c02 acbf 1dc0 56bf 6d60 c2bf
00000250: e116 ed3e d0ff ed3e e8ed f5be dd81 23bf
00000260: c8b4 b8bd 3aa7 0a40 509a 46bd e574 e9bd
00000270: 0b3f 0e3f 6965 33bd 36a2 1dc0 5892 9f3f
00000280: da9b 1dbf dd85 803f 098a 20be 46cd 7dbf
00000290: f8cc 053f 0de0 55b9 c91f 88bf a8a8 013f
000002a0: 0721 7b3f 0ee1 8fbf 5678 b0bf 2dd2 95bd
000002b0: 9adf 0fbf 4079 1ac0 b3ff 893f fb93 6dbf
000002c0: bd37 73bf 5f00 123f b404 0c40 5b5d c1be
000002d0: c014 123e bb23 3bbf fcfe 853f 8985 ffbe
000002e0: 0875 3e3d e473 bfbf 3b59 08bf 49b8 a0bf
000002f0: c35b 383f 32e5 d13d 0fc0 26bf 5139 06bf
00000300: 5df3 0940 db1e 5bbf a513 61bf 59b8 973e
00000310: aae6 cf3e f046 73bf 7510 4b3f 6dd5 a7bf
00000320: a373 64bf 845a d33f 52a7 1140 33a2 38bf
00000330: 42dc 43bf a2de e8bd 8752 b2bf c8d0 b93f
00000340: b9de 9b3e f455 a83f 2167 16c0 28ee d93f
00000350: 841a a03e 2c86 0d3e 7837 26bf d97c d6bd
00000360: 1ecf 2f3f b5bf c73f 1821 27bf eeca 473f
00000370: 656b 84bc dbe0 833f fd25 c83e 3541 35bf
00000380: dba1 0cc0 4531 d33e 8383 963e eb3d 6d3e
00000390: 22e1 1bbe 9ffa 94bf a3ce d1bf f387 8b3e
000003a0: 5c6d 97bf eaf9 883f 15a2 c83e 0fc2 ad3e
000003b0: 8c99 573e dd59 043e 1a5c d1bf 64ab b93f
000003c0: 318f 0240 c6a8 e9be cfef 3d3f fc6b 893e
000003d0: 35ba 193e 93cf 7abe f05a 4dbf da17 77bf
000003e0: 4674 16bf 4722 da3e 7e18 8cbf eae6 7bbf
000003f0: f73b 66bf b9ff 9abf 36e7 0e3f 5009 0340

decoder_embedding.weight f4 [45, 32]
-0.029472655 -0.2846767 0.89514434 0.819411 -0.7163127 -0.23387581 -1.1920705 0.046607226
-0.5896694 -0.20369528 -0.4927837 1.6478612 1.4188504 -1.315199 -0.01383587 0.7285623
-1.4240612 2.2809203 -1.6338993 1.6721002 0.13635817 -0.44760773 -0.56263244 1.0848668
0.18898031 -1.2330204 1.4573548 -0.6656327 -0.4365403 0.1918462 -1.4774082 0.97151035
0.18725571 -0.8319441 -0.2721748 1.3517145 0.38333008 0.47041586 -1.1209677 0.80991036
-1.1879543 1.5121933 -0.68695587 1.2335904 0.2070328 1.4205313 -0.90925664 -1.6041224
-1.1228446 0.85487705 -0.3876863 -2.0256164 0.8374301 0.080688566 -0.55468106 0.99141747
1.0474122 0.6718979 -0.1955913 -0.4364939 0.98458636 1.8456068 -0.24013199 -0.10329661
-0.37261215 1.3117851 -0.28230676 0.14080691 -0.36677146 -1.0366143 1.0250437 0.28660783
0.25678316 0.092597604 -0.009119749 1.9787376 -0.4950653 1.0775601 0.9090626 1.7774483
-0.12883003 -0.26537573 -0.047410313 1.084537 -0.6400391 1.0475776 2.4409673 0.71621436
-0.9177805 -0.11708359 -0.44884357 0.56260586 0.06674802 0.011027884 -0.7441156 0.30027658
-0.32539466 -0.9411933 0.3200282 -0.0861371 -0.2801572 1.351798 -1.6387744 0.09764738
0.94004846 0.35616732 1.8067187 -0.27396855 1.5740838 0.5976231 -0.6545417 0.76061326
-0.6153526 0.529004 0.06184319 0.39758506 -0.7673727 -0.1406168 -1.2382132 0.83625066
0.18733554 -1.0025188 -0.6115546 0.21174358 -0.7578183 0.5352513 -1.3808795 0.68527144
0.3755027 -0.27435717 0.964096 -1.0507426 2.0099835 -0.5184194 1.6339533 -1.4848377
1.1891572 0.23257793 -1.3048494 0.36728305 1.3673922 -0.7067445 0.69858813 0.00034250747
1.4139385 -0.3998812 0.13145941 -0.30382225 0.92215514 0.5386333 1.332636 0.7284484
0.8957301 -0.48908323 -1.2846453 -0.3485358 0.5094287 -2.1287534 -0.35798213 -0.16334492
0.07387062 -0.24958494 -0.5824393 -1.1336589 0.8373754 1.1650524 0.74324656 -0.5436733
-0.12452591 0.78246063 -0.47969913 -1.8173673 -0.19625321 0.47274524 -0.63075477 1.6565804
0.07789583 0.5346398 -1.4038976 -1.0540522 0.31528082 -0.11980354 -0.05683062 0.09339315
-0.7951664 -0.5022264 -0.2846959 0.69303244 -0.87747306 0.15400013 0.114818595 -0.2547585
0.30134666 0.1452593 0.8157425 1.0438439 2.1579235 0.4329614 -1.6864253 -1.7256076
-0.12896964 0.35608935 2.258881 0.2781729 -0.8101343 -0.44256094 0.809388 -0.67296726
0.46039614 -2.304473 -1.4930514 0.47448817 -0.6286406 -0.9512628 -0.8188059 -0.75593007
0.48432612 -0.5294105 0.0025991644 0.48421237 0.26319575 0.0010757522 0.7283028 0.87462586
-0.6715118 0.33819097 0.1493337 -0.40157276 1.0235274 -1.5247829 -1.1261295 0.78836334
1.4785051 -0.72423124 0.98628753 -1.3890768 1.2549075 -0.1818776 -0.5496139 0.27166405
-1.795265 -0.02453472 1.0368917 0.4177071 -0.28287634 0.82950586 -1.0783381 -2.3261542
-0.7751157 1.5246505 0.5531285 0.19219233 0.35635397 -1.2879678 0.008009962 -0.41677457
00000000: a370 f1bc 25c1 91be 2e28 653f ebc4 513f
00000010: 4560 37bf 247d 6fbe c495 98bf 38e7 3e3d
00000020: 93f4 16bf 7f95 50be 254e fcbe 1eed d23f
00000030: e49c b53f 7158 a8bf d8af 62bc 0f83 3a3f
00000040: a347 b6bf 99fa 1140 9d23 d1bf 6107 d63f
00000050: 7aa1 0b3e d72c e5be ae08 10bf eadc 8a3f
00000060: 0e84 413e 9dd3 9dbf 9a8a ba3f e866 2abf
00000070: 3682 dfbe 5573 443e b61b bdbf e7b4 783f
00000080: f6bf 3f3e 4afa 54bf 7f5a 8bbe fb04 ad3f
00000090: d743 c43e 59da f03e df7b 8fbf 4956 4f3f
000000a0: e30e 98bf 8d8f c13f 57dc 2fbf 4ae6 9d3f
000000b0: 6800 543e f8d3 b53f 0bc5 68bf e253 cdbf
000000c0: 5fb9 8fbf 39d9 5a3f d27e c6be b3a3 01c0
000000d0: d261 563f 0c40 a53d 94ff 0dbf 89cd 7d3f
000000e0: 9a11 863f 8001 2c3f 1649 48be 217c dfbe
000000f0: da0d 7c3f d83c ec3f 29e5 75be 2c8d d3bd
00000100: 05c7 bebe 93e8 a73f 838a 90be b02f 103e
00000110: 78c9 bbbe c7af 84bf a234 833f 43be 923e
00000120: 1579 833e d0a3 bd3d 006b 15bc 4647 fd3f
00000130: 3379 fdbe 7ded 893f 54b8 683f 6d83 e33f
00000140: 05ec 03be 54df 87be 5131 42bd 1cd2 8a3f
00000150: 9ad9 23bf 0617 863f cf38 1c40 d359 373f
00000160: aaf3 6abf 85c9 efbd d3ce e5be f006 103f
00000170: 30b3 883d 4cae 343c 5c7e 3ebf dabd 993e
00000180: 219a a6be 0bf2 70bf bcda a33e a668 b0bd
00000190: c470 8fbe b807 ad3f 5cc3 d1bf 59fb c73d
000001a0: 04a7 703f 905b b63e 8f42 e73f 9b45 8cbe
000001b0: 947b c93f d4fd 183f 0b90 27bf 8db7 423f
000001c0: bf87 1dbf ce6c 073f 494f 7d3d 4590 cb3e
000001d0: 8a72 44bf dafd 0fbe c57d 9ebf 8614 563f
000001e0: e3d4 3f3e 8952 80bf d88e 1cbf 4fd3 583e
000001f0: 6100 42bf 3b06 093f a9c0 b0bf f36d 2f3f
00000200: e441 c03e 8b78 8cbe ffce 763f bc7e 86bf
00000210: 92a3 0040 22b7 04bf 6225 d13f 290f bebf
00000220: 4e36 983f e928 6e3e 4e05 a7bf 860c bc3e
00000230: b506 af3f 35ed 34bf acd6 323f 9392 b339
00000240: f0fb b43f 3bbd ccbe 4c9d 063e 978e 9bbe
00000250: 5c12 6c3f dfe3 093f d193 aa3f 987b 3a3f
00000260: 914e 653f 1e69 fabe 426f a4bf 4973 b2be
00000270: eb69 023f 7f3d 08c0 6f49 b7be e443 27be
00000280: 7b49 973d 3293 7fbe be1a 15bf bc1b 91bf
00000290: 3c5e 563f 7020 953f 6845 3e3f 2c2e 0bbf
000002a0: 7107 ffbd 574f 483f 209b f5be 7e9f e8bf
000002b0: 9af6 48be aa0b f23e 2579 21bf d40a d43f
000002c0: d987 9f3d 27de 083f ebb2 b3bf 2feb 86bf
000002d0: 7d6c a13e 8f5b f5bd 39c7 68bd e844 bf3d
000002e0: 0690 4bbf e991 00bf a9c3 91be 936a 313f
000002f0: 13a2 60bf 36b2 1d3e 0326 eb3d b56f 82be
00000300: 1c4a 9a3e dbbe 143e 80d4 503f ad9c 853f
00000310: 6b1b 0a40 1ead dd3e c9dc d7bf b6e0 dcbf
00000320: 9e10 04be 5851 b63e 8291 1040 ae6c 8e3e
00000330: f664 4fbf 5997 e2be 0d34 4f3f 9547 2cbf
00000340: 0bb9 eb3e 7c7c 13c0 4f1c bfbf 1df0 f23e
00000350: 97ee 20bf f585 73bf 439d 51bf a284 41bf
00000360: 98f9 f73e 7287 07bf be56 2a3b afea f73e
00000370: 98c1 863e 4100 8d3a 0d72 3a3f 7be7 5f3f
00000380: 33e8 2bbf 5e27 ad3e efea 183e f29a cdbe
00000390: f202 833f 162c c3bf 0325 90bf 2ed2 493f
000003a0: a83f bd3f 3867 39bf 577d 7c3f 45cd b1bf
000003b0: cfa0 a03f 1f3e 3abe 7fb3 0cbf 8d17 8b3e
000003c0: 3ecb e5bf 0afd c8bc deb8 843f b4dd d53e
000003d0: 2bd5 90be 7f5a 543f fc06 8abf b6df 14c0
000003e0: fc6d 46bf bf27 c33f d499 0d3f 11ce 443e
000003f0: 0774 b63e 21dc a4bf 373c 033c 7a63 d5be

encoder_pos_embedding.weight f4 [8, 32]
1.2710091 1.0445083 1.1157078 0.3185393 0.72452575 -1.097512 0.013813558 -0.2632028
-0.51354456 1.02471 -0.6657617 0.39463353 -0.7053594 -1.1373123 -0.06050692 0.7205971
-0.13606246 0.68096197 -0.8484879 -3.4897516 0.99907786 -0.16314468 0.4690704 1.4292746
-0.99170613 0.27504763 0.37343544 0.21057406 0.003125651 -0.7802269 0.77548 0.2079374
0.40146562 0.8036845 -0.25798288 0.34356657 1.6412681 -0.2736866 0.30270863 -2.4950278
0.4672484 -0.9143918 0.19743098 1.2569214 -0.14618745 -1.1787897 0.81964904 -0.31281647
-1.0144722 -2.1204367 1.5796862 0.12579913 0.036811065 0.26189744 -0.045805614 2.4085536
-0.12060753 0.7059067 -0.28245822 0.66315395 0.16839743 0.62774587 0.9308949 -0.35868838
0.78676724 0.03619955 -0.46418205 0.98689646 -1.3247167 -0.23523878 -0.854911 0.7159377
0.1771402 -0.7347989 -0.22501917 -1.61748 -1.7248962 -0.7869591 -0.94518936 0.2343831
-0.7881795 0.052454304 -1.2788012 0.69988984 -0.3862831 0.32521418 0.20172772 0.6568672
-0.71819115 -0.72126096 0.3787861 1.1539575 -0.8466856 0.68284833 0.7524142 1.3895696
1.785837 0.14963204 -0.0878383 -0.6823095 1.0149902 -0.3257989 0.7464685 1.084002
2.785258 0.8928708 0.8083266 -0.40528455 0.41540888 -0.83274406 0.77826613 0.48935553
-0.3497717 1.4221218 -2.66965 -0.8327129 -0.6182148 1.3176322 -0.09550034 0.1275057
-2.229441 -0.1924542 0.013213814 -1.1905875 0.1045238 0.57927555 -0.282401 1.8361447
-0.11024125 0.19569921 0.090785 -0.3864666 0.6879988 -2.606547 -1.4566505 -0.30633548
-0.58153915 -0.09945657 0.85764116 -1.1232816 0.86300224 0.33103746 1.386781 0.124474436
1.8867102 -0.99529785 0.11947881 0.24378003 0.108888745 -2.1388917 1.3415741 1.0098892
0.7243749 0.378231 0.0052482784 -0.7681665 -0.43684593 0.57874733 0.54149395 2.0464842
0.23170668 0.34517118 -0.3681311 -0.22969027 -0.09212446 -0.4088258 2.1700892 0.5318368
0.20853196 -0.030047083 -0.8004292 -0.26660106 0.4970044 1.013141 0.17416157 1.3601323
-0.26434672 1.0892503 1.9421656 -0.79600614 1.5018618 -0.09048085 -1.148775 0.35928178
-1.3664021 -0.17910077 -1.1933886 -0.87882376 1.4972433 0.64547247 1.453864 -0.19873133
-0.68148285 -0.32988548 0.82314104 -0.21851481 -1.6535436 0.6374546 0.3759159 -0.80322677
1.0006642 0.31412938 0.12196251 0.31071532 -1.3732653 1.2128106 -0.4276946 0.6574556
-2.2534418 -0.3579237 -0.8938317 0.5388784 -0.050771687 -0.8630343 0.034705747 0.76849824
0.95837563 -0.951127 -1.7361447 -0.33024105 0.12762943 -0.21720806 1.0595481 -1.0788559
-1.2324317 1.0235053 -1.1947339 2.1753578 -0.12872097 -1.0702155 0.574458 1.1017616
0.9667587 1.39832 0.49756664 -0.83083993 0.3317189 -1.2594593 -0.13992731 0.18745081
-1.381221 -0.9164508 -0.07571395 0.44313973 -0.23851635 -0.638787 0.38841107 -0.2710719
0.8651815 -0.57780516 -1.0839695 0.06268596 -0.9112721 1.2100586 -0.85579497 1.0692683
00000000: 6db0 a23f 73b2 853f 83cf 8e3f 9517 a33e
00000010: 857a 393f 467b 8cbf 4352 623c 84c2 86be
00000020: a877 03bf b329 833f 5c6f 2abf 680d ca3e
00000030: 6f92 34bf 7393 91bf 1bd6 77bd 0d79 383f
00000040: f553 0bbe 8653 2e3f 8136 59bf 1758 5fc0
00000050: 91c3 7f3f 660f 27be ff29 f03e 78f2 b63f
00000060: 74e0 7dbf 0bd3 8c3e ee32 bf3e baa0 573e
00000070: b9d7 4c3b f3bc 47bf db85 463f 8bed 543e
00000080: e78c cd3e 44be 4d3f 5516 84be f5e7 af3e
00000090: 1315 d23f a620 8cbe a0fc 9a3e 89ae 1fc0
000000a0: 2f3b ef3e 9515 6abf 592b 4a3e cde2 a03f
000000b0: 2ab2 15be 95e2 96bf 85d4 513f 7b29 a0be
000000c0: 3ada 81bf 3cb5 07c0 2833 ca3f 7dd1 003e
000000d0: 33c7 163d 6c17 863e ab9e 3bbd be25 1a40
000000e0: 1501 f7bd 4db6 343f 5d9e 90be 75c4 293f
000000f0: 6070 2c3e f4b3 203f 214f 6e3f 01a6 b7be
00000100: 9469 493f fb45 143d 45a9 edbe 3fa5 7c3f
00000110: 5190 a9bf 6fe2 70be 73db 5abf b147 373f
00000120: 3e64 353e c81b 3cbf 6d6b 66be 9609 cfbf
00000130: 66c9 dcbf 2776 49bf eef7 71bf 2002 703e
00000140: 22c6 49bf 53da 563d c2af a3bf fb2b 333f
00000150: e6c6 c5be 7982 a63e b691 4e3e 7328 283f
00000160: 60db 37bf 8fa4 38bf 40f0 c13e e1b4 933f
00000170: 63c0 58bf 26cf 2e3f 389e 403f 6bdd b13f
00000180: 4f96 e43f 2439 193e 91e4 b3bd d6ab 2ebf
00000190: 33eb 813f 1dcf a6be 8f18 3f3f 94c0 8a3f
000001a0: ab41 3240 2e93 643f 7eee 4e3f 7581 cfbe
000001b0: 79b0 d43e b72e 55bf 733c 473f cf8c fa3e
000001c0: 4715 b3be 1608 b63f 8cdb 2ac0 ac2c 55bf
000001d0: 5343 1ebf 2ca8 a83f af95 c3bd db90 023e
000001e0: 29af 0ec0 b712 45be c17e 583c 2c65 98bf
000001f0: 9310 d63d 674b 143f dd96 90be ca06 eb3f
00000200: 2ac6 e1bd 6065 483e 7ced b93d f3de c5be
00000210: b020 303f abd1 26c0 8673 babf 01d8 9cbe
00000220: c0df 14bf e3af cbbd 5f8e 5b3f b1c7 8fbf
00000230: b7ed 5c3f be7d a93e 0a82 b13f 74ec fe3d
00000240: b87f f13f d7cb 7ebf 4eb1 f43d 79a1 793e
00000250: 1001 df3d 9ae3 08c0 b3b8 ab3f 0d44 813f
00000260: a270 393f 7ea7 c13e c0f9 ab3b 8fa6 44bf
00000270: 45aa dfbe c928 143f 599f 0a3f 99f9 0240
00000280: 8444 6d3e 47ba b03e ae7b bcbe ed33 6bbe
00000290: c0ab bcbd 9e51 d1be bee2 0a40 7526 083f
000002a0: 6789 553e 4d25 f6bc eee8 4cbf ef7f 88be
000002b0: 5c77 fe3e 9bae 813f 6957 323e d118 ae3f
000002c0: 7458 87be 8e6c 8b3f e298 f83f 0fc7 4bbf
000002d0: 023d c03f 064e b9bd 0f0b 93bf c8f3 b73e
000002e0: 44e6 aebf 3166 37be f5c0 98bf 98fa 60bf
000002f0: aba5 bf3f af3d 253f 3718 ba3f 3a80 4bbe
00000300: a975 2ebf c0e6 a8be 5fb9 523f 59c2 5fbe
00000310: 51a7 d3bf 3a30 233f 0d78 c03e 45a0 4dbf
00000320: c415 803f 91d5 a03e 7bc7 f93d 1416 9f3e
00000330: 28c7 afbf 613d 9b3f c9fa dabe 034f 283f
00000340: 6438 10c0 c641 b7be 27d2 64bf eff3 093f
00000350: f9f5 4fbd d1ef 5cbf 9d27 0e3d 4dbc 443f
00000360: 1b58 753f 0f7d 73bf fd39 debf 5b15 a9be
00000370: 4ab1 023e ca6b 5ebe 469f 873f f317 8abf
00000380: 52c0 9dbf 3902 833f 0aed 98bf 1039 0b40
00000390: 6ecf 03be d2fc 88bf ae0f 133f 8606 8d3f
000003a0: 807d 773f 26fc b23f 0ec1 fe3e edb1 54bf
000003b0: 0fd7 a93e f635 a1bf 1b49 0fbe 1bf3 3f3e
000003c0: dacb b0bf 859c 6abf ea0f 9bbd 36e3 e23e
000003d0: a13d 74be 8b87 23bf d1dd c63e f0c9 8abe
000003e0: 897c 5d3f 0aeb 13bf 83bf 8abf 7f61 803d
000003f0: 2149 69bf 33e3 9a3f 6115 5bbf c9dd 883f

decoder_pos_embedding.weight f4 [8, 32]
-2.9443576 -1.1283808 -0.070489116 -0.5210487 0.027192999 -0.18621877 2.6173074 -0.744655
0.2857558 1.1728239 0.92504895 1.360916 0.14604983 -1.3677346 -0.40858507 -0.857982
-0.407857 -0.91300756 0.82635957 0.53019446 -1.2818111 1.6200529 0.7207297 -1.6279179
-0.4841713 -0.53078794 -0.033279892 0.068147056 0.7759193 1.2807281 0.71726286 -0.45434764
0.7168566 0.65410995 0.7629758 -1.7863014 2.3616138 -0.7858437 0.625758 -0.5288159
0.9075766 -1.5077256 -0.9316794 0.08077889 -0.8659308 -1.7124348 -1.107959 1.8956633
-0.5526544 -0.09982879 0.7591733 1.8197228 0.8066316 -1.9679811 0.6658243 0.10349275
-1.1000644 0.36613098 0.6997621 -2.799311 -1.6129392 -1.1181202 -1.6185608 -0.65605175
1.6633546 -1.1170286 1.784558 -0.70555353 2.0656545 -0.83678347 0.6756583 0.3150297
-1.5204028 -0.43366444 1.5670627 -2.9782922 0.103622064 -0.32124513 -1.8600879 2.1930287
-0.24796253 -2.683141 -1.1354008 -0.53152233 -1.7993062 1.4054103 1.3478619 1.0980865
-1.076528 0.2566255 -1.9525219 0.6117179 0.81446594 -1.8703277 -3.3974247 2.0115783
2.0529068 -2.2923095 -1.7791712 -0.811477 -0.5089158 0.68599015 2.1525476 0.04141002
-0.56120265 -0.28067237 -1.0295773 -1.8902097 -0.063008435 -0.82693523 0.25736594 -0.7325295
-0.13586205 -0.11929232 -1.3416268 0.7372471 -0.22968653 -0.94661313 -1.3086969 -3.015404
3.4679756 -2.2547896 -1.1532631 -0.30619264 0.58184177 0.24125691 0.14028127 -0.019804394
0.988184 0.68194294 -0.85210866 -0.8400361 0.8216275 0.35494992 0.12303748 0.86786896
0.39931282 1.0000956 -0.2727169 0.07361665 -0.3650677 -2.5621088 0.35612944 0.3211481
0.27489796 0.028582074 -2.4134667 0.9007773 0.723906 -1.8922721 1.0525434 0.73005635
0.6033575 -1.2395098 0.3493275 -0.2933566 -0.22114404 0.6142356 2.875119 0.85591227
-2.001822 2.0517347 -1.5802828 1.2206314 -1.4497741 0.29603523 1.4019809 1.1160583
-1.4932811 -0.13204752 -0.9462034 -1.3643482 0.94432014 -0.6693843 1.4254401 0.19868596
-1.400342 1.9831508 0.036775563 -0.37143138 -0.22245254 -1.185073 -0.03940621 -0.29030383
-0.93065256 0.4402219 0.453832 -1.7135662 2.138582 1.1221782 -0.9521216 -0.1665298
0.33101228 0.71960026 -0.74336237 0.81105244 2.9569912 0.2606943 1.6052566 0.31642222
0.012206305 0.3681624 1.2024133 -1.8899105 0.1099648 0.5515807 -0.96877974 0.8738903
-0.4835526 0.47596604 1.202141 0.7596279 -1.1256201 -0.46119 0.8468641 -1.1010699
-2.3672678 1.269204 -1.2761328 0.22160123 -0.62374926 -1.6826982 0.3522486 1.1430393
0.29736274 0.98960316 0.71344644 -1.2229774 -3.1212404 -0.43740615 0.4386609 0.1931989
0.20855184 -0.20981115 -0.23940672 -0.06382341 -1.3732191 1.1916271 -0.35150963 1.1624796
-0.2853095 1.2416084 -0.96968925 1.4198501 -1.935406 -0.7627243 0.6950328 -0.0057648197
-0.76018643 1.3566362 1.079355 0.62363404 0.5640037 -0.2643021 -0.25843832 -0.44597486
00000000: 5b70 3cc0 c86e 90bf 995c 90bd 7363 05bf
00000010: dac3 de3c 22b0 3ebe f781 2740 b6a1 3ebf
00000020: 964e 923e 181f 963f 02d0 6c3f 7f32 ae3f
00000030: 168e 153e ed11 afbf 1032 d1be b5a4 5bbf
00000040: a2d2 d0be ddba 69bf 4d8c 533f d3ba 073f
00000050: 6312 a4bf e55d cf3f be81 383f 9d5f d0bf
00000060: 4de5 f7be b8e1 07bf 7f50 08bd af90 8b3d
00000070: a6a2 463f e6ee a33f 8a9e 373f 41a0 e8be
00000080: ea83 373f c073 273f 6252 433f 86a5 e4bf
00000090: ae24 1740 0d2d 49bf ad31 203f 7b60 07bf
000000a0: f156 683f 27fd c0bf 8b82 6ebf 676f a53d
000000b0: a4ad 5dbf 1031 dbbf 9ad1 8dbf 18a5 f23f
000000c0: c27a 0dbf 0973 ccbd 2e59 423f adec e83f
000000d0: 697f 4e3f cee6 fbbf 7673 2a3f 02f4 d33d
000000e0: e9ce 8cbf 8575 bb3e 9c23 333f e927 33c0
000000f0: cb74 cebf 901e 8fbf 002d cfbf 02f3 27bf
00000100: cee8 d43f cbfa 8ebf 666c e43f 289f 34bf
00000110: af33 0440 7137 56bf f1f7 2c3f 934b a13e
00000120: 8f9c c2bf 4409 debe 8395 c83f 579c 3ec0
00000130: ce37 d43d 3e7a a4be 5c17 eebf 955a 0c40
00000140: e4e9 7dbe 95b8 2bc0 d054 91bf d911 08bf
00000150: aa4f e6bf 7ce4 b33f bd86 ac3f 198e 8c3f
00000160: abcb 89bf 6b64 833e 3dec f9bf 8b99 1c3f
00000170: d780 503f e666 efbf 686f 59c0 b3bd 0040
00000180: d362 0340 33b5 12c0 e2bb e3bf f5bc 4fbf
00000190: 4e48 02bf 0d9d 2f3f 57c3 0940 8e9d 293d
000001a0: faaa 0fbf 4ab4 8fbe 30c9 83bf 64f2 f1bf
000001b0: 910a 81bd 07b2 53bf 78c5 833e 0e87 3bbf
000001c0: 6c1f 0bbe 884f f4bd 6dba abbf 3abc 3c3f
000001d0: f232 6bbe 3d55 72bf 6183 a7bf 61fc 40c0
000001e0: 50f3 5d40 794e 10c0 209e 93bf 48c5 9cbe
000001f0: 95f3 143f 0d0c 773e e5a5 0f3e d33c a2bc
00000200: a0f9 7c3f d093 2e3f cb23 5abf 9b0c 57bf
00000210: 2e56 523f ffbb b53e 13fb fb3d a92c 5e3f
00000220: bb72 cc3e 2203 803f 8da1 8bbe 54c4 963d
00000230: 27ea babe 97f9 23c0 9956 b63e 866d a43e
00000240: 6dbf 8c3e f424 ea3c 3d76 1ac0 5799 663f
00000250: e751 393f f935 f2bf beb9 863f f9e4 3a3f
00000260: a375 1a3f 42a8 9ebf 0edb b23e d632 96be
00000270: 9573 62be 8b3e 1d3f f301 3840 111d 5b3f
00000280: da1d 00c0 9f4f 0340 b546 cabf a63d 9c3f
00000290: 3392 b9bf ee91 973e 1c74 b33f 00db 8e3f
000002a0: d623 bfbf 7737 07be 633a 72bf f6a2 aebf
000002b0: f7be 713f c55c 2bbf d274 b63f 5574 4b3e
000002c0: 683e b3bf e3d7 fd3f f9a1 163d 412c bebe
000002d0: 99ca 63be 79b0 97bf 6868 21bd b4a2 94be
000002e0: 3f3f 6ebf c464 e13e ab5c e83e 2356 dbbf
000002f0: 87de 0840 89a3 8f3f 3ebe 73bf ca86 2abe
00000300: 717a a93e b937 383f ff4c 3ebf 22a1 4f3f
00000310: 583f 3d40 b979 853e 0c79 cd3f 1802 a23e
00000320: f4fc 473c c87f bc3e aee8 993f 96e8 f1bf
00000330: 3a35 e13d 6534 0d3f f301 78bf 46b7 5f3f
00000340: 3594 f7be d2b1 f33e c2df 993f f976 423f
00000350: 5214 90bf 1821 ecbe 16cc 583f dcef 8cbf
00000360: 5181 17c0 4775 a23f 5258 a3bf 6feb 623e
00000370: 08ae 1fbf a862 d7bf ee59 b43e 1d4f 923f
00000380: ee3f 983e a256 7d3f 6da4 363f 868a 9cbf
00000390: 67c2 47c0 b3f3 dfbe 2998 e03e efd5 453e
000003a0: 9d8e 553e bcd8 56be 0927 75be d9b5 82bd
000003b0: a5c5 afbf 3d87 983f 12f9 b3be 22cc 943f
000003c0: 1614 92be 06ed 9e3f 8e3d 78bf a6bd b53f
000003d0: 62bb f7bf e641 43bf abed 313f d0e6 bcbb
000003e0: 949b 42bf 41a6 ad3f 4e28 8a3f 7ba6 1f3f
000003f0: 8c62 103f 9b52 87be 0752 84be d156 e4be

transformer.encoder.layers.0.self_attn.in_proj_weight f4 [96, 32]
-0.15119469 -0.12116067 0.09889431 0.117791645 -0.18703073 0.23694177 -0.083144136 0.07059213
-0.19838022 0.044011172 0.039210416 -0.17346166 -0.040487196 -0.01690115 -0.17194888 0.00063977554
-0.14223443 0.07369396 -0.09125769 0.08173146 -0.21906911 0.29941988 -0.13977101 0.10852165
-0.13492571 0.108710915 0.1507663 -0.12950629 -0.01597876 -0.16028628 -0.32348308 -0.16711894
0.0588052 0.13640696 0.08917456 -0.110558785 -0.2775413 0.08943245 0.08993266 0.17125434
0.10356489 -0.06708662 -0.08278193 0.07203748 0.09325497 -0.04624932 0.06810047 0.04153789
0.05498892 0.08180035 -0.14146274 -0.1664121 -0.036995478 -0.022367924 0.15085419 -0.04848068
0.09149639 0.055773627 0.028727725 0.110274054 0.042363334 -0.039933868 -0.1635055 0.059171587
-0.07940465 0.14399654 0.17495999 -0.18327974 -0.18023509 -0.15979354 0.074490376 -0.054169104
-0.10486089 0.33808348 -0.055371515 -0.028254053 0.0073467833 0.056119118 0.049176935 -0.090903975
0.2801074 0.08795243 -0.3024453 -0.008160402 -0.0376398 0.1926536 -0.12047597 -0.17600915
0.118345305 -0.039200325 0.08652178 -0.06974284 -0.08474768 -0.14166082 -0.0051063593 0.23163006
0.10378811 0.32702267 0.06464234 0.06188759 0.31015068 -0.29090282 0.14833778 -0.0055367146
-0.08832657 -0.10531715 -0.10853457 0.18350641 -0.14491859 0.115645945 0.24334793 -0.16016857
0.07542884 -0.18736254 -0.07465543 0.094453245 -0.018831244 -0.30030516 0.23088795 -0.13301685
0.04805353 0.11260685 -0.03216236 0.06609595 0.20177668 0.054605577 0.16641167 -0.060501117
-0.18396026 1.1258959e-05 0.13784695 -0.09623758 -0.0593058 0.20379375 0.10384637 0.046779335
-0.07209486 0.03313984 0.055781957 -0.16078186 0.10191786 -0.04647344 0.0137495 0.020868788
0.26715213 0.14739418 -0.10131672 -0.04193449 0.09244441 -0.07943202 0.0015559134 -0.035093874
-0.12890615 0.0075323484 -0.15705709 0.10871787 -0.038904585 -0.13548417 -0.012470091 -0.11731942
0.049776368 0.2711046 -0.16241963 0.0012715056 0.44905522 -0.31997642 0.17557748 -0.12946077
0.1426765 0.23012087 0.18788955 0.17122799 0.15421306 0.102200516 0.22717465 -0.1650855
-0.14240488 -0.026030788 -0.029598542 0.27075562 -0.18510666 0.09323031 0.31600776 0.24557835
0.12421186 -0.26330405 0.06943364 0.07487406 0.1432068 0.12055749 -0.08481352 0.055233665
0.033541724 -0.1659328 0.017034514 0.2264141 -0.23881184 0.14096789 -0.08082141 -0.1438473
0.15417244 0.05273599 -0.16664915 -0.13415718 -0.100554004 0.102294475 -0.07800867 -0.00079746963
0.0527996 -0.01596073 0.11081001 -0.17404106 0.023695821 0.015170569 0.18759581 -0.015423447
0.08522455 0.21023773 0.0635231 -0.008243548 -0.18585789 0.074197575 -0.0021940982 -0.045151275
0.100198396 0.15116571 0.07336989 -0.066024736 -0.16811986 0.1733327 -0.2919685 -0.009809499
0.140053 -0.11424891 0.106621824 0.07396533 0.060709987 0.036227208 -0.017267954 -0.20839168
0.120602794 0.104400426 0.029138453 -0.21700402 0.07255427 0.12716366 0.011817498 -0.09128097
-0.14174768 0.24822527 0.015961142 0.16383615 -0.058695395 -0.085482866 0.07140732 0.1346104
00000000: c8d2 1abe 1623 f8bd 1a89 ca3d bf3c f13d
00000010: fc84 3fbe dda0 723e 7947 aabd 9b92 903d
00000020: 2f24 4bbe 0f45 343d 1a9b 203d ef9f 31be
00000030: e7d5 25bd 4874 8abc 5e13 30be 9cb6 273a
00000040: e7a5 11be dcec 963d 50e5 babd d362 a73d
00000050: a753 60be 904d 993e 2220 0fbe 9940 de3d
00000060: f729 0abe d4a3 de3d 7b62 1a3e 4c9d 04be
00000070: e3e5 82bc 1622 24be 939f a5be 3a21 2bbe
00000080: b9dd 703d 44ae 0b3e 27a1 b63d a56c e2bd
00000090: e519 8ebe 5c28 b73d 9d2e b83d 4c5d 2f3e
000000a0: d419 d43d b664 89bd 9389 a9bd 6388 933d
000000b0: 76fc be3d ed6f 3dbd 4278 8b3d a223 2a3d
000000c0: 103c 613d f186 a73d 9cdb 10be ef67 2abe
000000d0: 9288 17bd f03c b7bc 8579 1a3e ad93 46bd
000000e0: 7662 bb3d e372 643d 6856 eb3c 5dd7 e13d
000000f0: 2d85 2d3d b291 23bd fc6d 27be e85d 723d
00000100: e89e a2bd d473 133e b628 333e afad 3bbe
00000110: 8c8f 38be eba0 23be 698e 983d 6ce0 5dbd
00000120: 4ec1 d6bd 4719 ad3e 3ecd 62bd 0b75 e7bc
00000130: 49bd f03b 29dd 653d c16d 493d dd2b babd
00000140: 3d6a 8f3e 6720 b43d 1cda 9abe 35b3 05bc
00000150: 312c 1abd fc46 453e 1bbc f6bd be3b 34be
00000160: 065f f23d 8590 20bd 5532 b13d 56d5 8ebd
00000170: 3190 adbd 890f 11be 3f53 a7bb 6e30 6d3e
00000180: dc8e d43d 846f a73e 3463 843d d77d 7d3d
00000190: 12cc 9e3e 37f1 94be dce5 173e 546d b5bb
000001a0: 90e4 b4bd 85b0 d7bd 5f47 debd 1be9 3b3e
000001b0: 8a65 14be c8d7 ec3d 3330 793e 3b03 24be
000001c0: 707a 9a3d f7db 3fbe f2e4 98bd b470 c13d
000001d0: fb43 9abc 99c1 99be e46d 6c3e 9235 08be
000001e0: c7d3 443d 6c9e e63d aebc 03bd 505d 873d
000001f0: 8c9e 4e3e 19aa 5f3d d267 2a3e 05d0 77bd
00000200: 1460 3cbe dce4 3c37 c027 0d3e 3518 c5bd
00000210: a3ea 72bd 4faf 503e 68ad d43d b09b 3f3d
00000220: 78a6 93bd a4bd 073d 9f7b 643d 00a4 24be
00000230: 50ba d03d ef5a 3ebd 9545 613c 05f5 aa3c
00000240: 2ac8 883e 80ee 163e 247f cfbd 80c3 2bbd
00000250: 7f53 bd3d 41ad a2bd caef cb3a 98be 0fbd
00000260: f9ff 03be ebd1 f63b 93d3 20be 7aa7 de3d
00000270: 6a5a 1fbd 5dbc 0abe 5a4f 4cbc 2a45 f0bd
00000280: 4ee2 4b3d 39ce 8a3e 5551 26be a6a8 a63a
00000290: 91ea e53e f3d3 a3be 95ca 333e 5d91 04be
000002a0: ca19 123e cea4 6b3e 1e66 403e 6456 2f3e
000002b0: 07ea 1d3e 814e d13d 79a0 683e 2c0c 29be
000002c0: 96d2 11be 853e d5bc a478 f2bc 7ba0 8a3e
000002d0: 9a8c 3dbe 88ef be3d c5cb a13e e478 7b3e
000002e0: ca62 fe3d cacf 86be 3933 8e3d 9257 993d
000002f0: cea4 123e d8e6 f63d b6b2 adbd b23c 623d
00000300: 0c63 093d 4aea 29be f78b 8b3c 19d9 673e
00000310: 178b 74be e359 103e b285 a5bd b54c 13be
00000320: 61df 1d3e b201 583d 13a6 2abe 8060 09be
00000330: 42ef cdbd c47f d13d 02c3 9fbd 480d 51ba
00000340: 6544 583d 14c0 82bc 5cf0 e23d d237 32be
00000350: bd1d c23c fa8d 783c 1e19 403e a0b2 7cbc
00000360: 358a ae3d 8f48 573e 6618 823d f20f 07bc
00000370: 8851 3ebe e6f4 973d dcca 0fbb 8bf0 38bd
00000380: d134 cd3d 2fcb 1a3e f442 963d fa37 87bd
00000390: 9d27 2cbe 217e 313e e57c 95be 05b8 20bc
000003a0: 0e6a 0f3e 55fb e9bd 8b5c da3d 237b 973d
000003b0: 09ab 783d fb62 143d 8675 8dbc a164 55be
000003c0: 99fe f63d e4cf d53d c4b3 ee3c 4d36 5ebe
000003d0: 5597 943d 3137 023e 2e9e 413c 84f1 babd
000003e0: 4e26 11be c42e 7e3e f1c0 823c aac4 273e
000003f0: 956a 70bd a411 afbd 003e 923d 4fd7 093e

transformer.encoder.layers.0.self_attn.in_proj_bias f4 [96]
-0.09468827 -0.121685944 -0.005660692 0.08262167 -0.12749165 0.22746961 -0.055036202 -0.051697314
-0.088046946 -0.04945439 -0.08970785 0.015175087 -0.06730881 -0.2448329 0.054567534 -0.013534064
-0.07229558 -0.21107242 0.039179295 -0.12164573 -0.030515356 -0.10320149 -0.13597006 -0.09973054
0.13313407 0.068646155 0.055366963 0.10808872 -0.019494694 0.0046650036 0.02126283 0.14517544
0.012568974 0.064971976 -0.11487355 -0.049435437 0.0028640518 -0.056602553 0.05381312 0.14265984
-0.036990125 0.031848982 -0.026971776 -0.015154761 -0.018194016 0.08502227 0.0029672491 -0.100616306
0.010809037 0.03792054 0.04641552 0.068622746 -0.059653003 -0.11047018 0.0920324 -0.05270497
-0.12879078 -0.1565615 0.038564965 -0.016582942 -0.012991701 -0.023486253 0.004217002 -0.031037802
-0.06683238 0.09347049 -0.09608184 -0.012282332 0.058928628 0.039330702 -0.014373151 0.084952585
-0.00078735896 -0.0012742418 -0.024452621 -0.00430024 0.073088355 -0.07376634 0.060444675 -0.050763644
-0.14300276 -0.061404996 0.050110523 0.1509969 -0.022003582 -0.060878176 -0.02601646 -0.045329988
0.10018469 -0.09566453 0.018511493 0.029366696 0.03852368 0.023968898 0.025046047 0.006063023
00000000: eceb c1bd 7b36 f9bd 547d b9bb 8d35 a93d
00000010: 2c8d 02be cbed 683e a46d 61bd 90c0 53bd
00000020: f551 b4bd b090 4abd c0b8 b7bd eea0 783c
00000030: 34d9 89bd 7ab5 7abe 3582 5f3d fbbd 5dbc
00000040: b40f 94bd 5e23 58be 787a 203d 6621 f9bd
00000050: 57fb f9bc 4e5b d3bd bc3b 0bbe 863f ccbd
00000060: 4c54 083e 5b96 8c3d 78c8 623d 9e5d dd3d
00000070: 56b3 9fbc e3dc 983b 632f ae3c dfa8 143e
00000080: 19ee 4d3c 0710 853d d342 ebbd d07c 4abd
00000090: d1b2 3b3b 14d8 67bd 256b 5c3d 6c15 123e
000000a0: f582 17bd 1474 023d eaf3 dcbc ad4b 78bc
000000b0: 9e0b 95bc 2820 ae3d 2e76 423b ec0f cebd
000000c0: 6318 313c 9152 1b3d 331e 3e3d 158a 8c3d
000000d0: b556 74bd 313e e2bd 7c7b bc3d 2be1 57bd
000000e0: bbe1 03be a851 20be 4cf6 1d3d f3d8 87bc
000000f0: 25db 54bc 3e66 c0bc c72e 8a3b fd42 febc
00000100: 6adf 88bd 756d bf3d 8ec6 c4bd d63b 49bc
00000110: 255f 713d 3b19 213d 5d7d 6bbc 9ffb ad3d
00000120: c466 4eba 7604 a7ba dd50 c8bc 07e9 8cbb
00000130: 59af 953d cf12 97bd d694 773d 8aed 4fbd
00000140: 516f 12be ce83 7bbd b140 4d3d ee9e 1a3e
00000150: db40 b4bc 655b 79bd 7920 d5bc f0ab 39bd
00000160: a12d cd3d c4eb c3bd 6aa5 973c 6d92 f03c
00000170: 02cb 1d3d 6c5a c43c 5e2d cd3c 53ac c63b

transformer.encoder.layers.0.self_attn.out_proj.weight f4 [32, 32]
0.10735841 -0.1137635 0.22942948 -0.01793354 -0.034163903 0.19745027 0.13057934 0.013142931
0.08981805 0.117158525 0.3381312 0.20243213 -0.13837309 -0.13762675 0.022962587 -0.07479089
-0.16672145 0.27806094 -0.041512992 -0.023768738 0.18977807 0.14674716 -0.16935368 -0.26866192
-0.03736115 -0.17152035 0.13307227 0.22722231 -0.4352924 0.040030673 -0.22489843 -0.23203127
-0.08736245 0.11963278 -0.10335233 0.15369838 -0.15559576 0.018693294 -0.1950491 0.26342627
0.08242858 -0.1802169 0.1489476 -0.17406902 -0.08664802 -0.03929445 -0.13573593 0.13726701
-0.020075591 0.08361927 0.19879474 0.06116173 -0.32399318 0.06835358 -0.074668735 0.028191047
0.10342906 -0.04779361 0.025066465 0.09137541 -0.15606584 0.18429646 0.07599858 0.15105069
0.06835437 0.1907252 -0.15681183 0.065504625 -0.09119387 -0.30877852 -0.19381565 -0.038703922
-0.07960154 -0.15249048 -0.10471956 0.2359475 0.04440141 -0.059486393 -0.111908555 -0.052521784
-0.29725826 -0.026183493 -0.16073011 0.2998002 0.124623135 -0.35299024 -0.08714244 -0.086818844
-0.3312023 -0.039078727 0.19360718 -0.051734425 0.030173652 -0.09809743 0.25147995 0.1603406
-0.27651203 0.051230915 -0.14173871 0.25663212 0.030003795 0.08393989 0.06798521 -0.019589279
0.06466168 -0.08482086 0.16879505 0.087704524 -0.0012718411 0.26530063 -0.1954238 -0.26783568
0.15011512 -0.19606896 0.15558143 -0.02653803 -0.082190536 -0.22453775 0.051125877 -0.2715638
-0.12284209 -0.3403979 -0.11217775 -0.04171042 0.13831316 -0.048706464 -0.080155015 -0.2057637
-0.071586736 -0.039061766 -0.07050279 -0.23687771 -0.0753979 -0.16261369 0.009017718 0.18989079
-0.083810836 0.08102387 0.08414896 0.13449459 0.044788603 0.19177963 0.15938033 -0.16399784
-0.202961 -0.10711998 0.042817537 0.11357665 0.0810871 -0.09751345 -0.22734493 -0.21551533
0.16823459 0.06852251 -0.006013973 -0.08556347 -0.035684157 0.14648886 -0.42928815 0.16032597
0.0016040199 -0.11992281 0.043377504 -0.21599065 0.19115852 -0.24515909 0.23706813 0.17267525
-0.09890529 0.065792456 0.06825875 -0.09617541 0.056449834 0.3273664 0.077856466 0.096999474
0.26834995 0.020405967 -0.16198319 -0.01909307 0.15290996 -0.018597502 -0.08126331 0.15272874
-0.33973366 0.021600408 -0.29906964 -0.058420487 0.1823501 -0.097420536 0.18943293 -0.2902577
0.06334904 -0.04910267 -0.28303766 0.13515674 0.008250799 -0.039083496 -0.27402443 0.25441715
0.3757934 -0.21306105 -0.06556385 0.2724554 -0.34085014 -0.18292983 0.066480525 -0.028800447
0.064340256 -0.26179478 -0.17672494 0.0009589165 -0.093196705 -0.240639 -0.27508458 0.32490605
0.142901 0.014957859 0.102524355 -0.10757463 -0.09525312 -0.20426306 0.009458982 -0.04065538
-0.038295127 0.0026217843 -0.057418857 -0.08468596 -0.054645818 0.06983932 -0.3238868 -0.2187991
0.053192902 0.11714416 -0.3132941 0.12597582 0.13043495 0.1955495 0.12112782 0.09640122
0.23108476 0.11994523 0.06292143 0.07143325 -0.13734926 -0.1606137 -0.02002743 -0.1065574
0.30714616 -0.15421316 -0.26016527 -0.02603 0.0014002281 0.065403566 -0.09361884 0.06524245
00000000: bade db3d d6fc e8bd 90ef 6a3e 5ce9 92bc
00000010: 73ef 0bbd 6730 4a3e 97b6 053e 7355 573c
00000020: 87f2 b73d cff0 ef3d 881f ad3e 5e4a 4f3e
00000030: adb1 0dbe 07ee 0cbe 091c bc3c f72b 99bd
00000040: 07b9 2abe 015e 8e3e 8709 2abd a8b6 c2bc
00000050: 2f55 423e e344 163e 0d6b 2dbe 0e8e 89be
00000060: 0108 19bd 08a3 2fbe 1944 083e f7ac 683e
00000070: a5de debe 34f7 233d c64b 66be 9b99 6dbe
00000080: 16eb b2bd 0802 f53d 63aa d3bd 1c63 1d3e
00000090: 7f54 1fbe ae22 993c f4ba 47be cfdf 863e
000000a0: 51d0 a83d c78a 38be b885 183e 263f 32be
000000b0: 8474 b1bd 38f3 20bd 5cfe 0abe b98f 0c3e
000000c0: 9175 a4bc 9440 ab3d d990 4b3e b984 7a3d
000000d0: 6fe2 a5be f6fc 8b3d eceb 98bd e9f0 e63c
000000e0: 9dd2 d33d 3bc3 43bd 3058 cd3c 0823 bb3d
000000f0: b9cf 1fbe 36b8 3c3e 25a5 9b3d 08ad 1a3e
00000100: 60fd 8b3d 784d 433e 4893 20be 4a27 863d
00000110: dac3 babd 3818 9ebe 9c77 46be 0188 1ebd
00000120: 2206 a3bd 7726 1cbe 3577 d6bd 399c 713e
00000130: 41de 353d 01a8 73bd 5030 e5bd 1521 57bd
00000140: 3c32 98be c47e d6bc 6f96 24be 697f 993e
00000150: 6a3a ff3d 23bb b4be bc77 b2bd 14ce b1bd
00000160: 5993 a9be 0411 20bd f640 463e 7ae7 53bd
00000170: bc2e f73c 4ee7 c8bd fbc1 803e 5430 243e
00000180: fc92 8dbe 82d7 513d f423 11be 4965 833e
00000190: 85ca f53c ade8 ab3d d43b 8b3d b279 a0bc
000001a0: 586d 843d 8fb6 adbd 9cd8 2c3e 6e9e b33d
000001b0: e8b3 a6ba 7cd5 873e 2d1d 48be c221 89be
000001c0: c7b7 193e 4dc6 48be bd50 1f3e 4866 d9bc
000001d0: 8353 a8bd 39ed 65be 5e69 513d 690a 8bbe
000001e0: a294 fbbd a248 aebe 73bd e5bd 8cd8 2abd
000001f0: f7a1 0d3e 6e80 47bd 5028 a4bd b8b3 52be
00000200: 119c 92bd 3bff 1fbd c463 90bd 1290 72be
00000210: 376a 9abd 3484 26be 0dbf 133c bb72 423e
00000220: 04a5 abbd d8ef a53d 4a56 ac3d f3b8 093e
00000230: 4174 373d e161 443e 9934 233e 0def 27be
00000240: 02d5 4fbe b861 dbbd 7161 2f3d e09a e83d
00000250: fe10 a63d 22b5 c7bd 1ccd 68be 0db0 5cbe
00000260: b045 2c3e 8855 8c3d dd10 c5bb e73b afbd
00000270: 8d29 12bd 2d01 163e a8cb dbbe 7e2c 243e
00000280: fa3d d23a 179a f5bd 9cac 313d a72c 5dbe
00000290: 0fbf 433e fc0a 7bbe fdc1 723e c8d1 303e
000002a0: db8e cabd 32be 863d 3ecb 8b3d 9df7 c4bd
000002b0: f137 673d 929c a73e 3673 9f3d a9a7 c63d
000002c0: 2a65 893e 6a2a a73c ecde 25be 1269 9cbc
000002d0: 6e94 1c3e ca59 98bc 616d a6bd ec64 1c3e
000002e0: 92f1 adbe 57f3 b03c a81f 99be 524a 6fbd
000002f0: fcb9 3a3e 6b84 c7bd b5fa 413e a89c 94be
00000300: 24bd 813d e21f 49bd 50ea 90be 8766 0a3e
00000310: 5c2e 073c 0416 20bd ee4c 8cbe f742 823e
00000320: fe67 c03e ad2c 5abe 5746 86bd 467f 8b3e
00000330: e983 aebe f551 3bbe f126 883d eaee ebbc
00000340: d3c4 833d f709 86be 62f7 34be cc5f 7b3a
00000350: eadd bebd 126a 76be e3d7 8cbe 165a a63e
00000360: a454 123e cf11 753c 4af8 d13d 1650 dcbd
00000370: 1114 c3bd 562a 51be d9f9 1a3c 4186 26bd
00000380: 5adb 1cbd 3ed2 2b3b 0930 6bbd d56f adbd
00000390: 4bd4 5fbd eb07 8f3d 7ed4 a5be df0c 60be
000003a0: cde0 593d 47e9 ef3d 1668 a0be ceff 003e
000003b0: bd90 053e 213e 483e dd11 f83d 016e c53d
000003c0: 7ca1 6c3e d8a5 f53d f3dc 803d 994b 923d
000003d0: 49a5 0cbe eb77 24be 9110 a4bc c43a dabd
000003e0: 4342 9d3e 0eea 1dbe 6234 85be de3c d5bc
000003f0: dc87 b73a 4ef2 853d 3cbb bfbd d59d 853d

transformer.encoder.layers.0.self_attn.out_proj.bias f4 [32]
-0.106787175 -0.20074075 -0.046225183 0.05693288 -0.08423986 0.37022653 -0.12450298 -0.0838286
0.038660362 0.22983287 0.26008996 -0.019474288 -0.09012477 -0.16095614 -0.19265115 -0.12533435
0.046624508 -0.015247799 0.1520542 -0.14606193 0.12662694 -0.043283813 -0.052245174 -0.061319582
-0.20108822 0.0554992 -0.088149086 -0.07413914 -0.019269062 0.11679986 0.07813991 0.31108233
00000000: 3cb3 dabd fc8e 4dbe 9e56 3dbd 7432 693d
00000010: f385 acbd 558e bd3e 6bfb febd 54ae abbd
00000020: 545a 1e3d 4f59 6b3e 832a 853e 8b88 9fbc
00000030: 5693 b8bd b0d1 24be 5846 45be a657 00be
00000040: 57f9 3e3d e8d1 79bc 19b4 1b3e 4291 15be
00000050: 7eaa 013e 5e4a 31bd 09ff 55bd 3e2a 7bbd
00000060: 12ea 4dbe 2153 633d 8287 b4bd 43d6 97bd
00000070: 27da 9dbc c434 ef3d d107 a03d 2f46 9f3e

transformer.encoder.layers.0.linear1.weight f4 [128, 32]
-0.07438782 -0.07556394 0.11952443 -0.14106636 -0.23190543 0.20051013 0.04624051 -0.0059012813
-0.06486617 -0.16417004 -0.0318848 -0.03758646 0.18955906 0.14941898 -0.25891942 0.08814634
0.11061661 -0.01961047 -0.09192617 -0.0130819855 -0.08265542 -0.08142063 -0.19325146 0.103174746
0.25963902 -0.20195915 0.060326163 0.13740532 -0.0069475234 0.17424406 -0.11911869 -0.037675537
0.012496397 0.09587554 -0.032593776 -0.049123514 -0.0798834 0.037280727 -0.27652395 -0.1341087
-0.11067325 0.12518424 0.1237263 -0.006304669 0.041616328 0.07507749 0.28387675 -0.12335322
-0.031423397 -0.16240901 0.2784795 0.099036954 0.06260276 -0.011303051 0.093739405 -0.16991463
-0.04939482 -0.12585813 -0.0758851 0.04249794 0.03335885 0.094231956 -0.011806791 -0.11691175
-0.02995414 -0.20179363 0.12876362 0.032226503 -0.00020605254 0.0697165 -0.19114614 -0.123923115
-0.089189835 0.0006176988 0.083914705 -0.005329217 0.08943708 0.04947004 0.12157359 -0.020635644
0.04884093 -0.20861557 -0.056288075 -0.0075327954 0.09907059 -0.13542485 0.21214184 -0.20640388
-0.055677354 -0.100674294 -0.08859032 0.16951647 0.10514877 0.08257023 -0.00025887208 -0.009463479
0.12207077 -0.17790937 -0.048669547 -0.08681414 -0.054151926 0.2030807 -0.2520362 0.057311613
0.0706544 -0.06257644 -0.15264967 0.045819137 0.119495295 0.08227234 0.14454624 0.06554569
0.06864432 -0.08862953 -0.13678634 -0.1640381 0.29209587 0.045304924 0.05997662 -0.2345957
-0.032686677 0.040677313 -0.1271356 0.029818714 0.1858231 -0.07664122 -0.013286009 -0.23748119
0.052717384 0.053479653 0.05171596 -0.0006362168 -0.027133305 0.0753007 0.0003747534 0.062009525
-0.2722659 -0.035020303 0.080495305 0.09121545 0.19091935 -0.0113087995 0.0527025 0.042640265
0.08792687 0.11819285 -0.10557542 0.10726979 0.11920806 0.16655207 0.23763807 -0.086952396
-0.05952761 0.24794824 -0.08330194 0.083838284 0.35489345 -0.029072026 -0.042391956 -0.051059905
0.05808177 0.08867211 0.006474981 0.0715271 -0.045821115 0.0072303456 -0.057829335 0.09337132
0.014242799 -0.12497873 -0.09652213 0.2149925 0.054502193 -0.08714915 0.0075233723 -0.15189387
0.12088005 0.15056941 -0.13894838 -0.06631329 -0.05165497 0.114443615 0.07889714 -0.17706633
0.28895995 0.034163013 0.01535667 -0.19168364 0.17441446 -0.24824047 -0.031202275 -0.07636651
-0.17143819 -0.26051694 0.10427046 0.023079006 -0.14407572 0.07053509 0.0889383 0.20583272
-0.17824113 0.18236835 0.12371405 -0.0544889 0.27128616 0.27438352 0.17174108 -0.19193164
-0.07960031 -0.043525707 0.025869437 -0.26622075 0.2606452 0.009715472 0.09012696 0.082793266
-0.055894043 0.015180294 -0.24772221 -0.10314824 0.025457932 0.12892137 0.03100851 -0.014735853
-0.098165885 -0.013748357 0.04443684 -0.06009197 0.04282106 0.17816399 0.037019584 -0.12735815
0.21229133 0.06645525 -0.009561815 0.10521479 0.14848009 -0.07066554 -0.024908002 -0.22731845
0.06592532 -0.1606496 0.23633291 -0.2215415 0.05828296 -0.09888473 0.011509983 -0.082538955
-0.13390423 -0.29933342 -0.033222802 -0.30041826 0.18625374 -0.13188219 -0.14640997 0.1338025
00000000: a458 98bd 44c1 9abd 39c9 f43d b373 10be
00000010: 9e78 6dbe 8752 4d3e b066 3d3d 895f c1bb
00000020: 8ed8 84bd 311c 28be a399 02bd 43f4 19bd
00000030: c51b 423e 4a01 193e 1691 84be 1186 b43d
00000040: f68a e23d 23a6 a0bc ca43 bcbd d355 56bc
00000050: 3f47 a9bd dcbf a6bd b6e3 45be 484d d33d
00000060: 68ef 843e 61ce 4ebe 9118 773d fbb3 0c3e
00000070: 0da8 e3bb 096d 323e 80f4 f3bd aa51 1abd
00000080: b0bd 4c3c 655a c43d 0d81 05bd bd35 49bd
00000090: e899 a3bd adb3 183d 8c94 8dbe cb53 09be
000000a0: a8a8 e2bd 4c30 003e 3764 fd3d 6697 cebb
000000b0: e275 2a3d 3ac2 993d 4b58 913e 9da0 fcbd
000000c0: d2b5 00bd 8c4e 26be dd94 8e3e e3d3 ca3d
000000d0: e035 803d 6f30 39bc 72fa bf3d 1afe 2dbe
000000e0: 3952 4abd f4e0 00be a669 9bbd 5212 2e3d
000000f0: 4aa3 083d affc c03d 4571 41bc 6d6f efbd
00000100: 6262 f5bc fda2 4ebe 9cda 033e f0ff 033d
00000110: cf0f 58b9 86c7 8e3d d0bb 43be 67cb fdbd
00000120: 29a9 b6bd 11ed 213a 79db ab3d b6a0 aebb
00000130: ca2a b73d 19a1 4a3d 93fb f83d 150c a9bc
00000140: 6d0d 483d 529f 55be 538e 66bd abd5 f6bb
00000150: 86e5 ca3d d0ac 0abe b63b 593e 8a5b 53be
00000160: f00d 64bd 532e cebd d76e b5bd ba95 2d3e
00000170: 3d58 d73d 951a a93d 39b9 87b9 b50c 1bbc
00000180: 3d00 fa3d e02d 36be b859 47bd 9dcb b1bd
00000190: 69ce 5dbd 63f4 4f3e e40a 81be 95bf 6a3d
000001a0: 41b3 903d 1428 80bd 3250 1cbe d9ac 3b3d
000001b0: f3b9 f43d 677e a83d ee03 143e d23c 863d
000001c0: 6595 8c3d 6683 b5bd b811 0cbe 9bf9 27be
000001d0: 978d 953e a891 393d 0baa 753d db39 70be
000001e0: 77e2 05bd 419d 263d d62f 02be 6046 f43c
000001f0: 6948 3e3e 12f6 9cbd 90ad 59bc 452e 73be
00000200: 2fee 573d 7b0d 5b3d 1dd4 533d c9c7 26ba
00000210: aa46 debc 4137 9a3d 8d7a c439 b3fd 7d3d
00000220: 7066 8bbe 7371 0fbd b9da a43d 2acf ba3d
00000230: 5d80 433e 8b48 39bc 94de 573d 8fa7 2e3d
00000240: 0113 b43d 180f f23d ed37 d8bd 43b0 db3d
00000250: 5b23 f43d a08c 2a3e 6557 733e 1914 b2bd
00000260: 39d3 73bd 25e6 7d3e 359a aabd 68b3 ab3d
00000270: 98b4 b53e 7528 eebc 30a3 2dbd 3124 51bd
00000280: 26e7 6d3d b999 b53d 142c d43b cd7c 923d
00000290: ecae 3bbd 89ec ec3b 74de 6cbd 7639 bf3d
000002a0: a15a 693c d9f4 ffbd 65ad c5bd fe26 5c3e
000002b0: b13d 5f3d 417b b2bd 9f86 f63b 118a 1bbe
000002c0: f68f f73d de2e 1a3e 7c48 0ebe 43cf 87bd
000002d0: 2994 53bd 6a61 ea3d d394 a13d e050 35be
000002e0: 8ff2 933e 84ee 0b3d 8b9a 7b3c b748 44be
000002f0: b499 323e c032 7ebe ea9b ffbc 0b66 9cbd
00000300: 7e8d 2fbe 7a62 85be c08b d53d 2f10 bd3c
00000310: 9688 13be b474 903d 4925 b63d d0c5 523e
00000320: d884 36be c5be 3a3e cb5d fd3d c12f 5fbd
00000330: 05e6 8a3e ff7b 8c3e e5dc 2f3e ba89 44be
00000340: 7d05 a3bd 0348 32bd 24ec d33c 164e 88be
00000350: 4a73 853e a52d 1f3c 7c94 b83d 848f a93d
00000360: 27f1 64bd c5b6 783c e4aa 7dbe 623f d3bd
00000370: 278d d03c f703 043e 8f05 fe3c a66e 71bc
00000380: 320b c9bd ca40 61bc 6703 363d ff22 76bd
00000390: 2365 2f3d 9f70 363e d9a1 173d 2d6a 02be
000003a0: e662 593e b119 883d 29a9 1cbc da7a d73d
000003b0: 2a0b 183e 18b9 90bd de0b ccbc 2bc6 68be
000003c0: db03 873d 5481 24be 4101 723e c6db 62be
000003d0: 1dba 6e3d 1484 cabd 5e94 3c3c 2f0a a9bd
000003e0: 311e 09be 3b42 99be a214 08bd 6cd0 99be
000003f0: 4db9 3e3e 200c 07be 7fec 15be 8603 093e

transformer.encoder.layers.0.linear1.bias f4 [128]
-0.15204714 -0.33323476 -0.17624652 -0.24827759 -0.17874928 -0.3209632 -0.29692322 -0.21322255
-0.2792637 -0.078902334 -0.30519798 -0.100943916 -0.16462088 -0.122058205 -0.11164685 -0.22999282
-0.34546447 -0.31107146 -0.14485669 -0.21464877 -0.31457376 -0.154777 -0.1112814 -0.293721
-0.08727968 -0.07657962 -0.12922747 -0.1309569 -0.316348 -0.10879833 -0.28658912 -0.03860527
-0.19694899 -0.19240128 -0.2141592 -0.2615481 -0.2992306 -0.046295747 -0.13824072 -0.26075926
-0.27549267 -0.0791134 -0.09778836 -0.13263245 -0.06673666 -0.28410345 -0.29642698 -0.018584063
-0.29347795 -0.29754397 -0.2265821 -0.16166973 -0.3005598 -0.17694764 0.015714813 -0.09854626
-0.30527386 -0.028517723 -0.10291641 -0.34587383 -0.105703905 -0.18392006 -0.16671675 -0.36333185
-0.31943056 -0.12851177 -0.20109725 -0.27777052 -0.17434123 -0.23662846 -0.106179036 -0.24000226
-0.15941599 -0.16607594 -0.3724571 -0.32922286 -0.23164664 -0.18690409 -0.36217707 -0.26288122
-0.12406199 -0.30097094 -0.33853048 -0.11275802 -0.1204306 -0.07386264 -0.1106361 -0.17828117
-0.14066173 -0.08499318 -0.094584525 -0.035330728 -0.18727809 -0.21690701 -0.20025133 -0.26054016
-0.30523464 -0.29967245 -0.1839297 -0.16913077 -0.104854666 -0.2125611 -0.3937034 -0.19003928
-0.24954912 -0.08191614 -0.2571741 -0.14967608 -0.41837162 -0.0150043275 -0.26319167 -0.18557276
-0.10707715 -0.08678044 -0.3567203 -0.3629007 -0.23383184 -0.24999323 -0.08590132 -0.117476135
-0.22608246 -0.21771984 -0.3268677 -0.27505147 -0.11714772 -0.19806269 -0.1846269 -0.3284201
00000000: 3fb2 1bbe bf9d aabe f879 34be 7b3c 7ebe
00000010: 0d0a 37be 4a55 a4be 5206 98be 0357 5abe
00000020: a7fb 8ebe 8c97 a1bd e942 9cbe afbb cebd
00000030: 6092 28be a7f9 f9bd 1ba7 e4bd 3d83 6bbe
00000040: b8e0 b0be c244 9fbe 5055 14be e3cc 5bbe
00000050: d00f a1be dd7d 1ebe 81e7 e3bd 9962 96be
00000060: b0bf b2bd c7d5 9cbd 3554 04be 9119 06be
00000070: 5df8 a1be a9d1 debd cfbb 92be 8f20 1ebd
00000080: ffac 49be d704 45be 8d4c 5bbe a2e9 85be
00000090: c134 99be 9ca0 3dbd fa8e 0dbe 3d82 85be
000000a0: 600d 8dbe 3506 a2bd 4445 c8bd cdd0 07be
000000b0: 3bad 88bd 0276 91be 47c5 97be 9b3d 98bc
000000c0: be42 96be af57 98be 2305 68be c08c 25be
000000d0: f9e2 99be c331 35be 5abc 803c 9fd2 c9bd
000000e0: db4c 9cbe 009e e9bc d7c5 d2bd 6016 b1be
000000f0: 4a7b d8bd 8a55 3cbe ccb7 2abe a206 babe
00000100: 678c a3be 9798 03be 70ec 4dbe f037 8ebe
00000110: 8286 32be bb4e 72be 6574 d9bd 27c3 75be
00000120: f23d 23be d00f 2abe b2b2 bebe e68f a8be
00000130: c734 6dbe c963 3fbe 466f b9be 5e98 86be
00000140: 3614 febd dd18 9abe de53 adbe aded e6bd
00000150: 52a4 f6bd 4c45 97bd 2e95 e2bd 578f 36be
00000160: a109 10be e810 aebd 88b5 c1bd f4b6 10bd
00000170: d4c5 3fbe df1c 5ebe af0e 4dbe 8565 85be
00000180: b747 9cbe ab6e 99be 1158 3cbe 9e30 2dbe
00000190: 0bbe d6bd 9ea9 59be 7e93 c9be a899 42be
000001a0: ce89 7fbe a6c3 a7bd 53ac 83be b044 19be
000001b0: ce34 d6be b6d4 75bc 0fc1 86be c906 3ebe
000001c0: 444b dbbd f1b9 b1bd 0ba4 b6be 1fce b9be
000001d0: 9d71 6fbe 3afe 7fbe 08ed afbd 5497 f0bd
000001e0: 2982 67be f3f1 5ebe 345b a7be 8cd3 8cbe
000001f0: 25eb efbd f2d0 4abe d60e 3dbe ae26 a8be
