Models/EDTransformers/Transformer_1000epochs_firstAndLast10Examples.pth (torch, 155071 bytes, 40 tensors)

encoder_embedding.weight f4 [47, 32]
-0.24951084 -0.7607877 -0.34850764 0.5479238 0.16413166 -0.68828803 -0.47095507 0.5703118
-0.32122794 0.9544796 -0.2902795 0.57594764 1.0256833 0.3098026 -0.4886968 0.45009723
0.36217225 1.6287813 0.1919538 -0.09450589 -2.1361754 0.52123475 -0.5480219 0.43809056
-1.8401196 0.23929337 -0.79426867 -0.8746493 -0.27357784 -0.7485132 0.5784956 -0.06213067
-1.1306417 0.28553972 -1.5052971 0.62009007 2.35747 -0.31554532 -0.5517242 -0.28420097
0.9561644 0.57029426 -0.01997776 -0.40768453 -0.3762065 -0.7024711 0.23983724 0.69589895
0.37923905 0.44456127 -0.58785 -0.036363464 1.2170635 -2.3009942 1.0810732 -1.2634002
0.87135565 -1.2488462 0.3561258 -1.7823765 0.6550774 0.15577221 0.4147629 1.417007
-1.2255979 0.049391616 1.1714115 0.18756357 0.4479767 1.3985828 0.114944234 0.5866744
1.6236908 0.24865058 -0.68223697 0.04285197 -2.0076795 -0.42114943 1.1933552 0.40840933
1.5580357 -0.32074532 -0.26319975 0.5461068 -0.5271653 -0.17927408 0.73579895 -1.0914223
0.21856958 -0.6361856 0.8539106 0.65991175 1.1043115 -2.0024426 0.018819744 0.10287516
0.10612124 -0.34306937 1.900447 -2.1104038 1.1468526 -0.28281567 -0.594332 2.1353092
-1.5433917 -0.45307055 0.2744181 0.85845333 -0.2703835 0.6112507 -0.7284188 -0.15078685
1.0641106 -0.40924117 -0.35048676 -0.93224615 0.85226953 0.010645685 0.46465898 0.40366402
0.62317425 -1.2867677 0.8437746 1.2009329 0.030663464 -0.3004124 -0.54661596 -0.5550565
0.40985784 -0.5775419 -0.8904617 -1.3651574 0.6519659 -0.077636555 1.8845018 2.9143078
0.8439688 -1.2520324 -0.065609954 -0.5812077 0.43211132 -0.11054714 1.0999169 -0.64061266
0.8331671 -1.0283113 0.16313875 -0.15924901 0.35259587 0.16270411 0.23121539 0.0837606
1.004384 1.0643544 0.36624947 -3.0221808 -0.3582499 1.2656615 -1.2233518 0.4650337
-2.0048332 0.9090409 1.4965502 -0.0093249045 0.43764028 1.2133316 -1.1244256 1.1420201
-0.7907193 0.96409637 -1.4508541 0.040226355 1.9493191 1.0375165 -0.07086697 -1.0181698
1.4776866 -0.14968592 -0.17704861 -0.6466691 -1.1919159 1.5201312 0.59416306 -0.39874777
-0.9825713 -1.1872106 1.3850875 1.8919086 0.9020489 0.05761849 0.9501371 -1.356474
-0.6378574 -0.8911171 -0.04320641 -1.3099089 1.3130296 0.3594161 -0.8335608 -0.36786434
1.4238794 0.09418178 1.8295135 0.6939231 -1.3733506 -0.72304696 0.14933725 0.76695406
-0.8448595 -0.060835667 -0.41485766 -0.4384434 -0.32830656 0.4441654 -0.2874325 -1.5832503
0.37350854 1.1440732 1.9551009 -0.25772047 1.3736072 1.768966 -0.5069523 -0.89136654
1.8148023 -0.52168643 1.7585918 0.17142186 0.07674377 -1.1423469 -1.7263983 -1.7228061
0.6600449 -1.147438 0.37990996 -0.325234 -1.1461378 0.5865435 0.49428537 0.758419
0.5621449 1.1151929 -0.004187718 1.1819766 -1.0974029 1.6606897 0.68331707 -0.27123237
-0.2756107 0.27633873 1.3879849 0.33709902 1.6277428 -0.4592237 0.91424114 0.48074546
00000000: c57f 7fbe fcc2 42bf 986f b2be bc44 0c3f
00000010: 2112 283e a533 30bf 0621 f1be f4ff 113f
00000020: fd77 a4be c658 743f 849f 94be 4e71 133f
00000030: 9749 833f 729e 9e3e 7836 fabe 2573 e63e
00000040: a46e b93e e87b d03f 898f 443e 4e8c c1bd
00000050: 19b7 08c0 a46f 053f 2a4b 0cbf 684d e03e
00000060: 0a89 ebbf 5209 753e 3155 4bbf 04e9 5fbf
00000070: 6512 8cbe 909e 3fbf 4a18 143f bb7c 7ebd
00000080: deb8 90bf 4332 923e 93ad c0bf 39be 1e3f
00000090: cae0 1640 288f a1be cc3d 0dbf ca82 91be
000000a0: 31c7 743f cefe 113f 66a8 a3bc 07bc d0be
000000b0: 239e c0be 25d5 33bf e597 753e 6f26 323f
000000c0: 9f2b c23e 899d e33e 567d 16bf dbf1 14bd
000000d0: bdc8 9b3f 7d43 13c0 9b60 8a3f 19b7 a1bf
000000e0: 2a11 5f3f 31da 9fbf 1f56 b63e ea24 e4bf
000000f0: 27b3 273f c082 1f3e ce5b d43e 7c60 b53f
00000100: 64e0 9cbf dd4e 4a3d d0f0 953f aa10 403e
00000110: 345d e53e c304 b33f e267 eb3d 4b30 163f
00000120: 1ad5 cf3f 429e 7e3e 15a7 2ebf 8c85 2f3d
00000130: d27d 00c0 e6a0 d7be ddbf 983f 071b d13e
00000140: b76d c73f bb38 a4be 1ec2 86be a8cd 0b3f
00000150: 4ef4 06bf a093 37be 525d 3c3f bab3 8bbf
00000160: b4d0 5f3e 0fdd 22bf e399 5a3f faef 283f
00000170: 145a 8d3f 0528 00c0 dd2b 9a3c 36b0 d23d
00000180: 1856 d93d caa6 afbe d941 f33f db10 07c0
00000190: 11cc 923f 37cd 90be 2426 18bf e8a8 0840
000001a0: dc8d c5bf ddf8 e7be 8780 8c3e 99c3 5b3f
000001b0: b56f 8abe ed7a 1c3f a879 3abf de67 1abe
000001c0: c734 883f 0f88 d1be 0073 b3be afa7 6ebf
000001d0: 562e 5a3f 3d6b 2e3c c8e7 ed3e 0dad ce3e
000001e0: 5988 1f3f ceb4 a4bf 9d01 583f 2bb8 993f
000001f0: f231 fb3c a7cf 99be 06ef 0bbf 2f18 0ebf
00000200: e3d8 d13e c9d9 13bf 4cf5 63bf 7abd aebf
00000210: 3de7 263f eaff 9ebd 5b37 f13f 0584 3a40
00000220: 570e 583f 9942 a0bf 835e 86bd 07ca 14bf
00000230: b23d dd3e 8a66 e2bd 14ca 8c3f 31ff 23bf
00000240: 704a 553f b49f 83bf d80d 273e 2c12 23be
00000250: 7287 b43e e89b 263e bac3 6c3e ad8a ab3d
00000260: a88f 803f c43c 883f 0d85 bb3e 696b 41c0
00000270: 886c b7be 3201 a23f cb96 9cbf e618 ee3e
00000280: 304f 00c0 e8b6 683f f58e bf3f 7cc7 18bc
00000290: 6312 e03e 734e 9b3f 2eed 8fbf b72d 923f
000002a0: 946c 4abf 05cf 763f 96b5 b9bf 64c4 243d
000002b0: 4a83 f93f 57cd 843f b422 91bd 6353 82bf
000002c0: d624 bd3f 4447 19be 3b4c 35be 1b8c 25bf
000002d0: b390 98bf a993 c23f 121b 183f ab28 ccbe
000002e0: cb89 7bbf 84f6 97bf 8c4a b13f 102a f23f
000002f0: adec 663f 5e01 6c3d 2f3c 733f f1a0 adbf
00000300: 9f4a 23bf 4020 64bf 34f9 30bd 18ab a7bf
00000310: 5b11 a83f 6305 b83e 3e64 55bf b758 bcbe
00000320: ae41 b63f 61e2 c03d 802d ea3f f2a4 313f
00000330: f4c9 afbf 9b19 39bf ddeb 183e 1a57 443f
00000340: b648 58bf d22e 79bd 3968 d4be a77b e0be
00000350: cc17 a8be a669 e33e 5a2a 93be f2a7 cabf
00000360: 833c bf3e fe70 923f bf40 fa3f f0f3 83be
00000370: 5cd2 af3f 7a6d e23f a0c7 01bf 9930 64bf
00000380: 714b e83f 3e8d 05bf 8919 e13f 3689 2f3e
00000390: d62b 9d3d 6c38 92bf 9ffa dcbf e984 dcbf
000003a0: b4f8 283f 40df 92bf 8f83 c23e 1285 a6be
000003b0: a5b4 92bf b727 163f f912 fd3e bf27 423f
000003c0: bae8 0f3f a4be 8e3f 2039 89bb 024b 973f
000003d0: b377 8cbf 7b91 d43f deed 2e3f f8de 8abe
000003e0: d81c 8dbe 457c 8d3e 7da9 b13f 3e98 ac3e
000003f0: e059 d03f 5e1f ebbe b50b 6a3f 4524 f63e

decoder_embedding.weight f4 [45, 32]
-1.1647215 -0.008546074 -1.1642501 -0.47294447 0.5850681 -0.96559286 0.55140436 -1.0262958
0.39876097 1.4088566 -0.940962 0.40862817 0.82665426 -0.13670617 -0.1810526 0.90378916
-0.39106 1.5757308 -0.27160412 0.0009450812 -0.75002104 1.377116 1.2367862 0.18847992
1.3266153 -0.5052375 -0.09728484 -0.28427488 -0.05302715 0.00258128 -1.8525596 0.89247364
1.3353368 0.89679694 -0.9833877 0.19407393 -1.4627491 0.021194533 0.262745 -0.15273139
-0.7799728 -0.57138985 -1.1778774 -0.6083915 1.2490753 -1.8910078 0.17512497 -0.30924305
0.120846175 -1.2360487 -2.2908096 0.2015775 -0.09805535 -0.6114184 1.3774341 0.14637671
-0.42504916 -0.091861285 -0.35228783 -0.0548696 -0.49658352 0.13117285 0.60005665 -1.8424022
-0.4583059 1.324662 1.2077134 -0.25628632 0.7681205 -0.49961358 0.88459134 -0.1377884
-1.0583024 0.33100563 -0.16784774 -0.6799012 0.7168859 0.11152355 -0.6083333 -1.4553452
1.38447 0.48745427 -1.9432842 -2.535683 0.27033886 0.9389184 1.2535864 0.52719384
-0.4723363 0.08254203 -0.10856569 -1.6949507 -0.21677774 1.0925205 -1.2159731 -0.4123984
1.268335 -0.940824 -0.6202128 1.4021589 0.41270396 1.1382793 -1.4479221 1.724045
-0.03880609 -0.014914802 1.2394543 0.54145944 1.241898 -0.98159015 1.1283988 0.6119425
-1.4514426 1.0452256 2.3186545 0.05733055 0.31151602 0.56426424 0.83087415 -0.4460847
0.44400355 -0.5236911 0.8711686 0.12578705 -2.4189866 1.3221456 0.051925495 1.2166802
-0.018212032 0.6150279 1.8611128 0.44920853 -2.2911966 0.3931968 -0.6384339 0.19850296
-1.2116678 1.0835707 1.4684266 0.26664323 1.5966914 1.1061637 -0.79439646 1.1193377
-0.039232086 1.2766179 0.7825733 -1.7911925 -1.0144665 0.2324057 -0.5149537 1.8845215
0.676945 -0.45094377 -0.2003639 -1.6809945 -0.8069637 -0.98575747 2.2300246 2.6159587
-0.6665817 0.4118695 -1.7585772 -0.23928392 0.68541175 -1.6114397 -0.30154768 0.7335404
-0.75456685 1.6322004 0.93076843 1.2389094 0.031012276 -0.30801567 -0.90145636 -0.34616363
0.90192664 -0.48290232 -0.87844193 -1.0855397 2.269385 0.6266711 -0.5110544 0.74511546
-0.8630468 0.9922554 0.9984542 0.15882225 0.27301994 0.08556441 -0.4420919 -0.4198855
-1.4135883 0.15281919 -0.7479007 -0.22181344 -1.3851502 1.4182333 0.6571941 -0.41772237
0.6110711 0.6534702 0.4200542 0.4589164 0.22732304 0.21469134 -1.0827266 -1.0581697
-0.8225056 1.6343045 0.77566683 -1.1078496 0.20450878 1.1622686 -1.0875397 0.40520805
1.3132699 -1.1267737 -1.338879 1.0912362 -0.48540682 0.69817567 -0.4940631 -0.6727561
1.2888129 0.6095365 0.17478156 -1.1580247 -0.6305093 0.21721792 0.59678835 -0.049228866
1.0041285 1.4431658 0.063831784 -0.08891238 -0.23702024 -0.6420031 -0.8119558 0.009824507
0.5657962 -0.72648615 -0.6926172 -1.2423108 0.47560182 1.4234775 -0.75324696 1.3864076
-0.5618174 -0.92224634 -0.22994046 -0.112123676 -0.69487965 2.4354842 -0.2639598 0.25167042
00000000: 9815 95bf d504 0cbc 2606 95bf c725 f2be
00000010: 06c7 153f 1831 77bf d628 0d3f a95d 83bf
00000020: 662a cc3e 6a55 b43f e3e2 70bf b637 d13e
00000030: 9d9f 533f b4fc 0bbe da65 39be ba5e 673f
00000040: 0439 c8be 8cb1 c93f b20f 8bbe 53bf 773a
00000050: 6101 40bf 5645 b03f 034f 9e3f e100 413e
00000060: 88ce a93f 3f57 01bf 463d c7bd 7a8c 91be
00000070: ff32 59bd b12a 293b ac20 edbf 2779 643f
00000080: 51ec aa3f 7c94 653f 4cbf 7bbf 51bb 463e
00000090: 5d3b bbbf 28a0 ad3c 8386 863e 9e65 1cbe
000000a0: 4cac 47bf 9b46 12bf b0c4 96bf 8cbf 1bbf
000000b0: b3e1 9f3f 8b0c f2bf f653 333e 1b55 9ebe
000000c0: 337e f73d d836 9ebf a09c 12c0 556a 4e3e
000000d0: 3ed1 c8bd eb85 1cbf c34f b03f c7e3 153e
000000e0: 0ba0 d9be c521 bcbd 125f b4be f2be 60bd
000000f0: 3240 febe 2d52 063e 509d 193f d6d3 ebbf
00000100: 12a7 eabe 868e a93f 5a96 9a3f f637 83be
00000110: 8ca3 443f 5acd ffbe 9474 623f 6718 0dbe
00000120: 7476 87bf 9279 a93e 47e0 2bbe 010e 2ebf
00000130: d685 373f 7566 e43d bbbb 1bbf c048 babf
00000140: 5036 b13f 9b93 f93e 89bd f8bf a148 22c0
00000150: db69 8a3e f55c 703f 8575 a03f 2df6 063f
00000160: 10d6 f1be cc0b a93d b057 debd 25f4 d8bf
00000170: fcfa 5dbe b6d7 8b3f 02a5 9bbf e225 d3be
00000180: cd58 a23f d7d9 70bf 44c6 1ebf f179 b33f
00000190: ef4d d33e 23b3 913f 8355 b9bf 82ad dc3f
000001a0: 22f3 1ebd 375d 74bc 70a6 9e3f 169d 0a3f
000001b0: 83f6 9e3f 7e49 7bbf 5f6f 903f 44a8 1c3f
000001c0: dfc8 b9bf f4c9 853f d664 1440 70d3 6a3d
000001d0: 077f 9f3e 9f73 103f 2bb4 543f 3765 e4be
000001e0: 6f54 e33e 9f10 06bf e804 5f3f 52ce 003e
000001f0: add0 1ac0 113c a93f d4af 543d 2dbc 9b3f
00000200: 6631 95bc 7872 1d3f f238 ee3f a9fe e53e
00000210: f7a2 12c0 1751 c93e 6770 23bf 5c44 4b3e
00000220: ee17 9bbf 72b2 8a3f 67f5 bb3f 7685 883e
00000230: 6260 cc3f c696 8d3f 915d 4bbf 7546 8f3f
00000240: d3b1 20bd 3768 a33f b956 483f cc45 e5bf
00000250: 0ada 81bf c3fb 6d3e 01d4 03bf 0038 f13f
00000260: 444c 2d3f 1ae2 e6be 322c 4dbe d42a d7bf
00000270: 2c95 4ebf 9a5a 7cbf b9b8 0e40 de6b 2740
00000280: 19a5 2abf 8fe0 d23e 0f19 e1bf d806 75be
00000290: 2577 2f3f a843 cebf 7564 9abe 4ec9 3b3f
000002a0: 4b2b 41bf f1eb d03f d746 6e3f 9594 9e3f
000002b0: 750d fe3c 3bb4 9dbe d8c5 66bf 5c3c b1be
000002c0: aae4 663f f93e f7be 92e1 60bf f7f2 8abf
000002d0: 9b3d 1140 846d 203f 76d4 02bf e3bf 3e3f
000002e0: a3f0 5cbf 7304 7e3f b29a 7f3f 4da2 223e
000002f0: 45c9 8b3e 653c af3d df59 e2be 3bfb d6be
00000300: 76f0 b4bf a27c 1c3e 6c76 3fbf 1023 63be
00000310: 9a4c b1bf ab88 b53f df3d 283f b5df d5be
00000320: 286f 1c3f d349 273f 5811 d73e 17f7 ea3e
00000330: 5fc7 683e 0cd8 5b3e c996 8abf 1b72 87bf
00000340: ba8f 52bf e430 d13f 1a92 463f 04ce 8dbf
00000350: c06a 513e 38c5 943f 8034 8bbf 6e77 cf3e
00000360: 3a19 a83f 1f3a 90bf 6360 abbf a1ad 8b3f
00000370: 3e87 f8be a4bb 323f d7f5 fcbe be39 2cbf
00000380: d2f7 a43f 960a 1c3f f0f9 323e 273a 94bf
00000390: 0f69 21bf 606e 5e3e 1fc7 183f 35a4 49bd
000003a0: 4887 803f a8b9 b83f 3dba 823d b217 b6bd
000003b0: 6fb5 72be 515a 24bf 56dc 4fbf f8f6 203c
000003c0: 05d8 103f fffa 39bf 5c4f 31bf 0a04 9fbf
000003d0: 1582 f33e 8334 b63f cbd4 40bf ce75 b13f
000003e0: 44d3 0fbf 5618 6cbf 8375 6bbe 19a1 e5bd
000003f0: a2e3 31bf f9de 1b40 bd25 87be f2da 803e

encoder_pos_embedding.weight f4 [8, 32]
-1.3137232 -0.23452412 -1.3576593 -0.17782079 -0.1493576 1.1444154 -0.03691281 0.5879104
-1.5170459 0.2511528 -2.1723504 0.7999778 0.13000444 0.19420326 -0.5270911 -1.9638046
3.0918024 -1.1038573 0.10304225 -0.7705 -1.9755137 -1.6260128 2.2941337 -0.402618
1.6525588 1.0383544 0.2998088 0.69373196 0.11070105 0.45998967 -1.9330996 -1.5932593
-0.6079012 -0.18886621 -0.80207354 -0.8177101 0.2451866 0.20795797 0.4941134 0.70105124
0.069529936 0.85785687 0.31029755 0.12802581 -0.50216925 1.1167659 0.08108952 -1.2594494
0.44509754 -1.5512813 1.1634221 -0.3733272 1.776487 1.4790137 1.3788431 -0.14310513
1.2290561 1.0046283 0.06597328 0.16433111 -0.57532144 -0.8582263 0.27624997 -0.052778855
0.7313965 -0.3266047 -0.4153531 0.6336062 1.4649612 1.4007472 0.6292854 0.52328235
-0.1425682 -0.47045907 -1.0742661 1.0483385 -0.3666897 1.4738029 0.42310336 1.2587801
0.7917281 0.42655128 0.95470136 0.15134433 0.63023347 -2.2221916 -1.5811272 0.6961996
-1.6248393 0.31817314 1.473118 -0.003300024 -1.0816549 -0.74611247 -0.120809115 2.6012733
0.25763565 0.81344754 -0.7358773 -0.21234928 -0.71223736 -0.24286285 -1.5868024 -0.46013826
-0.039353747 0.3637985 -0.18053797 -0.74106205 -0.13109936 -0.6186519 0.75201184 2.6719851
1.0720176 2.5361252 0.65434146 -0.40808487 -0.26318488 0.4726463 1.3833033 -0.16780876
0.18878332 1.2440218 -0.52846295 -0.9560046 0.17156214 -0.5078471 -0.66348684 -0.18919279
-1.2783284 -1.4578115 0.9755358 2.0440016 -0.3680894 -0.21782511 -1.1837128 0.27179325
-0.40880844 -0.03581253 -0.076323144 -1.8271772 -0.8295896 1.0102452 -0.60746205 -1.9570043
-1.3813103 -0.7596989 1.2470384 1.6212308 1.0059388 0.20578946 1.0591952 0.35145557
-0.44713956 -0.5042568 -8.362538e-05 -1.4800768 1.9041107 2.3127048 2.0882626 2.0795722
0.062246572 2.3645124 0.38449776 -0.070043124 0.7532631 0.2011591 -1.644893 0.7476339
0.044305433 -1.1079612 -0.1548961 -0.33791617 -1.5868411 0.1306206 -0.998207 1.5888357
-0.7148964 0.76648474 0.66988105 -0.5873025 1.3549469 1.6641835 1.2077469 -0.73242825
-1.0885355 1.2529238 -0.3322716 -0.08053802 0.29694334 -1.7584549 -0.51936954 -0.91696525
-0.18829541 0.59727967 1.4184003 -0.6606149 -0.86521137 -0.10945253 1.109897 -1.4167491
-0.03245109 0.80119693 0.6039935 0.6717312 -0.5453645 0.08946641 0.21438357 -0.33266976
0.59192055 -1.1713947 -0.11923611 0.559114 2.2034526 -0.23304066 0.9621813 -0.11153436
-1.5100625 0.3325128 0.74207515 -1.253043 0.8196963 0.033474684 -0.7962014 -0.2852595
0.17178187 -0.09855006 -0.47474682 0.016197467 0.3810208 -0.41816604 -1.7002578 0.5516599
-0.9788601 1.0884482 1.7606666 0.11767972 -1.0503513 -0.9319522 -0.25895476 -0.3952068
-0.024212139 -0.5278013 -0.58431655 1.5010971 1.1717695 -0.650005 -0.19504397 0.008687334
1.6019601 -0.15648347 -1.0904052 -0.116052456 -1.0975653 0.13217913 0.7231643 0.36505526
00000000: 1528 a8bf 1727 70be c8c7 adbf a716 36be
00000010: 33f1 18be 347c 923f e331 17bd 4c81 163f
00000020: 8f2e c2bf 1a97 803e ca07 0bc0 58cb 4c3f
00000030: e21f 053e 38dd 463e 71ef 06bf f35d fbbf
00000040: 17e0 4540 324b 8dbf d107 d33d 7d3f 45bf
00000050: a2dd fcbf 3021 d0bf 16d3 1240 f223 cebe
00000060: 0c87 d33f cce8 843f 8a80 993e 6b98 313f
00000070: 3bb7 e23d c483 eb3e cf6f f7bf ecef cbbf
00000080: 6a9f 1bbf 2566 41be b154 4dbf 7355 51bf
00000090: 3212 7b3e eff2 543e 6efc fc3e 1878 333f
000000a0: b665 8e3d 829c 5b3f 52df 9e3e 3319 033e
000000b0: 2a8e 00bf 2ff2 8e3f 4312 a63d a335 a1bf
000000c0: d3e3 e33e 6390 c6bf 04eb 943f be24 bfbe
000000d0: ed63 e33f 5250 bd3f ee7d b03f 278a 12be
000000e0: b651 9d3f a997 803f 001d 873d 6a46 283e
000000f0: 4448 13bf b8b4 5bbf a370 8d3e a42e 58bd
00000100: cd3c 3b3f bb38 a7be 29a9 d4be 0434 223f
00000110: d983 bb3f af4b b33f d918 213f d5f5 053f
00000120: 66fd 11be 03e0 f0be 8d81 89bf f52f 863f
00000130: c1be bbbe 93a5 bc3f 01a1 d83e b51f a13f
00000140: b1ae 4a3f ee64 da3e 4f67 743f 02fa 1a3e
00000150: fb56 213f 6338 0ec0 6062 cabf 233a 323f
00000160: bcfa cfbf 97e7 a23e 218f bc3f 3745 58bb
00000170: ab73 8abf 3a01 3fbf c56a f7bd 437b 2640
00000180: d2e8 833e 193e 503f 7462 3cbf 1772 59be
00000190: 3055 36bf 0ab1 78be 571c cbbf 3e97 ebbe
000001a0: 6531 21bd cc43 ba3e f2de 38be 3eb6 3dbf
000001b0: e93e 06be f95f 1ebf d983 403f ce01 2b40
000001c0: df37 893f e04f 2240 ec82 273f 80f0 d0be
000001d0: 2bc0 86be b2fe f13e 1510 b13f 0fd6 2bbe
000001e0: 6a50 413e 1b3c 9f3f 5949 07bf b8bc 74bf
000001f0: fcad 2f3e 4402 02bf 46da 29bf c1bb 41be
00000200: 44a0 a3bf 9199 babf b7bc 793f ecd0 0240
00000210: 3776 bcbe 8c0d 5fbe e783 97bf 7c28 8b3e
00000220: 574f d1be 29b0 12bd 4f4f 9cbd f1e0 e9bf
00000230: fc5f 54bf b74f 813f a282 1bbf 1e7f fabf
00000240: c7ce b0bf a17b 42bf f49e 9f3f 7e84 cf3f
00000250: 9ac2 803f 79ba 523e b593 873f fcf1 b33e
00000260: 7aef e4be f916 01bf 0960 afb8 2873 bdbf
00000270: e6b9 f33f 5b03 1440 18a6 0540 b617 0540
00000280: 43f6 7e3d 2c54 1740 e4dc c43e c572 8fbd
00000290: dad5 403f a7fc 4d3e db8b d2bf ef64 3f3f
000002a0: 9d79 353d acd1 8dbf 159d 1ebe 5903 adbe
000002b0: 9c1d cbbf 68c1 053e 7e8a 7fbf f85e cb3f
000002c0: 7303 37bf 5838 443f 537d 2b3f 7559 16bf
000002d0: e66e ad3f f703 d53f 7397 9a3f 6b80 3bbf
000002e0: 2255 8bbf cf5f a03f 811f aabe 1ef1 a4bd
000002f0: f508 983e 0d15 e1bf 67f5 04bf 3cbe 6abf
00000300: 83d0 40be 52e7 183f 248e b53f 0f1e 29bf
00000310: 7e7e 5dbf a628 e0bd 1b11 8e3f 0958 b5bf
00000320: 6feb 04bd 3e1b 4d3f 519f 1a3f 93f6 2b3f
00000330: 029d 0bbf 2a3a b73d 5e87 5b3e b153 aabe
00000340: 1b88 173f 43f0 95bf 1032 f4bd 1822 0f3f
00000350: 5e05 0d40 36a2 6ebe 8451 763f 206c e4bd
00000360: ba49 c1bf 1e3f aa3e a3f8 3d3f b763 a0bf
00000370: 9ed7 513f c01c 093d dbd3 4bbf 880d 92be
00000380: 96e7 2f3e 9dd4 c9bd 0412 f3be 8db0 843c
00000390: 2915 c33e dc19 d6be 0ca2 d9bf 9539 0d3f
000003a0: 9396 7abf 4552 8b3f 865d e13f 1102 f13d
000003b0: e971 86bf 6b94 6ebf b895 84be 8c58 cabe
000003c0: 8958 c6bc fc1d 07bf c595 15bf f323 c03f
000003d0: 8bfc 953f ba66 26bf 9bb9 47be 5255 0e3c
000003e0: 070d cd3f 343d 20be 6692 8bbf e9ac edbd
000003f0: 057d 8cbf f759 073e 4c21 393f 86e8 ba3e

decoder_pos_embedding.weight f4 [8, 32]
-0.3442237 0.20688179 1.1849179 2.0682263 -1.8867412 -0.4346038 0.08975915 0.8729934
1.045221 1.204281 2.0248168 1.9438107 -0.16563818 -0.5188411 1.4393058 -0.33633015
1.0553112 1.5362781 0.7841166 -1.0036751 -1.3513795 -0.3672315 0.48063555 1.0582153
0.0037748879 1.8447405 -0.7332691 1.0592202 -0.27898544 -0.67091966 -0.5931242 -0.6486481
-0.6574753 -1.6997795 -0.1884585 -0.053203847 -0.6306332 0.2859689 -1.3604696 0.83182603
0.54216415 0.8427874 -0.394457 -1.0195625 0.5044044 0.18662694 -0.6756788 1.814302
0.33879295 -0.89365816 -0.014754335 -0.31773058 -0.15533616 0.3782288 -2.2984097 -0.3374707
0.36154437 -0.77650887 -0.69299257 1.2311766 -0.9427558 1.5587032 -0.14657559 -1.8227371
0.3571636 -0.6830062 0.29722473 0.7253452 0.50535285 0.3868042 0.25194946 0.8171465
-1.7035278 0.25046816 0.26463342 0.72064734 1.847908 0.8183759 -0.20163037 1.6004041
-1.5984484 0.53509456 1.2927158 0.119889535 -1.000278 1.1762539 0.21489093 0.20484553
-0.17100929 -1.2928873 -1.0839897 0.7230859 0.27067083 -1.5695841 1.0578406 -0.3421116
-3.12989 0.44955185 1.1382222 -0.22625564 -0.61969596 1.1221342 -1.183181 -0.48006654
-0.96506447 -0.023654392 -1.3411819 1.5060477 -1.0016028 0.6346717 -0.9231194 -0.9716906
1.6020925 0.24610983 -0.8110853 2.89877 0.11645932 -1.1583085 -1.5358609 0.2927031
-0.78704923 0.27198997 -0.4013935 -0.06462112 -0.13561766 0.79640317 -0.7575398 0.2500892
0.7219711 -1.715076 -0.42575368 -0.048342958 -0.97295356 -0.03733883 -0.1670837 -1.6049321
0.27788574 -1.2211343 -0.22990987 1.2508113 0.061614964 0.35126004 0.66237515 -0.7535013
0.44102684 -0.9082446 0.043733675 -1.2036355 2.9658864 0.48347652 0.10011431 -1.3288705
0.8584664 -0.13144599 -0.45163643 -0.60148245 0.35316828 -1.5579042 -0.41437188 -1.2369455
1.0160805 1.2595282 0.8679121 -0.4358426 0.3111811 -0.8912279 0.6028483 0.1723195
0.35399634 -0.47936258 -0.65835893 -0.058257245 -2.2355483 0.27634704 -1.3587455 0.110931285
-1.3215319 -0.27075982 0.3463933 -0.85565066 0.23205645 1.393384 0.4925506 0.4069024
-0.36082888 -1.0964092 0.31860018 1.1669184 -1.0100496 1.4894505 -0.033551134 1.5760162
1.1177588 0.56875235 0.79687047 -0.62619936 -0.1774322 0.1501349 0.5574 -0.7805415
-0.14688845 0.0014354218 0.55230385 0.14554283 1.8471216 -0.12713519 -1.3158549 -1.3096488
1.1329198 1.1677754 -0.24493888 -0.3595629 0.014396208 -0.08566121 0.7010169 -0.48304588
-2.3780525 1.6295984 1.8797067 -0.7546127 0.52286774 -0.5304046 -1.5430256 -0.6932588
-1.5691366 -0.4081365 0.9024516 0.31063876 0.40837905 1.6081583 1.1013921 1.0113893
-0.244679 0.77777773 0.7600819 1.071089 -0.6800648 -0.39141458 0.8602094 0.16346298
-1.5735134 -1.3208153 -0.00083470694 0.013276401 -0.40165856 -0.05568906 -0.6605941 -0.012488519
0.71656203 1.0394287 -1.3708234 0.3212777 0.734278 -0.019879919 -0.7005961 1.5262448
00000000: 173e b0be d2d8 533e 64ab 973f d25d 0440
00000010: bc80 f1bf 6484 debe a5d3 b73d 7f7c 5f3f
00000020: cdc9 853f e125 9a3f 9996 0140 cace f83f
00000030: 0e9d 29be c5d2 04bf 2c3b b83f 7733 acbe
00000040: 7014 873f c3a4 c43f debb 483f 6d78 80bf
00000050: 01fa acbf c405 bcbe dd15 f63e 9973 873f
00000060: 1c64 773b 7520 ec3f 86b7 3bbf 8794 873f
00000070: 2ed7 8ebe 64c1 2bbf fdd6 17bf cd0d 26bf
00000080: 4d50 28bf 6092 d9bf 44fb 40be 47ec 59bd
00000090: 2d71 21bf 846a 923e de23 aebf 8df2 543f
000000a0: 45cb 0a3f eac0 573f 45f6 c9be 0681 82bf
000000b0: a620 013f 221b 3f3e 49f9 2cbf 0c3b e83f
000000c0: 4576 ad3e c8c6 64bf 2bbc 71bc 95ad a2be
000000d0: 7110 1fbe 35a7 c13e 2519 13c0 f6c8 acbe
000000e0: 581c b93e 49c9 46bf f667 31bf 3297 9d3f
000000f0: 7258 71bf 9683 c73f e917 16be 734f e9bf
00000100: 26de b63e 7fd9 2ebf d72d 983e 39b0 393f
00000110: ce5e 013f 330b c63e 85ff 803e 8330 513f
00000120: 330d dabf 5d3d 803e 087e 873e 587c 383f
00000130: 4088 ec3f 1581 513f 3178 4ebe 0bda cc3f
00000140: f599 ccbf f5fb 083f b677 a53f a588 f53d
00000150: 1c09 80bf 7d8f 963f 5e0c 5c3e 07c3 513e
00000160: 0f1d 2fbe 557d a5bf 2dc0 8abf 281c 393f
00000170: 5e95 8a3e 22e8 c8bf 5267 873f 4029 afbe
00000180: 1e50 48c0 a92b e63e 44b1 913f 8faf 67be
00000190: 65a4 1ebf 18a2 8f3f 7a72 97bf 48cb f5be
000001a0: 770e 77bf dbc6 c1bc d9ab abbf 2cc6 c03f
000001b0: 8534 80bf d879 223f 8e51 6cbf b7c0 78bf
000001c0: 5e11 cd3f 3704 7c3e 49a3 4fbf 7385 3940
000001d0: 3982 ee3d 7443 94bf 1797 c4bf 2edd 953e
000001e0: 0f7c 49bf 4542 8b3e 7383 cdbe 1458 84bd
000001f0: 5bdf 0abe 14e1 4b3f 21ee 41bf b10b 803e
00000200: 19d3 383f 9c87 dbbf 63fc d9be 4403 46bd
00000210: 7c13 79bf 9af0 18bd fd17 2bbe 6a6e cdbf
00000220: 0a47 8e3e 214e 9cbf 7e6d 6bbe 961a a03f
00000230: f95f 7c3d 5bd8 b33e 6b91 293f 76e5 40bf
00000240: 45ce e13e b882 68bf 1522 333d ba10 9abf
00000250: 15d1 3d40 3c8a f73e bb08 cd3d 6e18 aabf
00000260: 74c4 5b3f c799 06be e43c e7be c1fa 19bf
00000270: 79d2 b43e 6869 c7bf 8d28 d4be 3b54 9ebf
00000280: ed0e 823f 3838 a13f 7d2f 5e3f c326 dfbe
00000290: 2153 9f3e 8327 64bf 4454 1a3f 8674 303e
000002a0: 023f b53e 036f f5be 368a 28bf 269f 6ebd
000002b0: 3913 0fc0 5c7d 8d3e 5feb adbf f12f e33d
000002c0: f527 a9bf 08a1 8abe 765a b13e ec0b 5bbf
000002d0: 35a0 6d3e 685a b23f 982f fc3e 8355 d03e
000002e0: 90be b8be 2357 8cbf 901f a33e 955d 953f
000002f0: 4e49 81bf 50a6 be3f ea6c 09bd e6ba c93f
00000300: b812 8f3f c199 113f b4ff 4b3f 9a4e 20bf
00000310: c9b0 35be f7bc 193e c4b1 0e3f 91d1 47bf
00000320: ed69 16be c324 bc3a c963 0d3f 2e09 153e
00000330: 7b6e ec3f ba2f 02be ef6d a8bf 92a2 a7bf
00000340: 8403 913f aa79 953f 42d1 7abe a118 b8be
00000350: 13de 6b3c 256f afbd d875 333f ca51 f7be
00000360: 0332 18c0 ae96 d03f 3b9a f03f 4c2e 41bf
00000370: a9da 053f 99c8 07bf dd81 c5bf 6979 31bf
00000380: 78d9 c8bf 44f7 d0be 1107 673f 0b0c 9f3e
00000390: 0f17 d13e 22d8 cd3f 6bfa 8c3f 3475 813f
000003a0: 228d 7abe 711c 473f ba94 423f 7219 893f
000003b0: ba18 2ebf 7e67 c8be af36 5c3f d762 273e
000003c0: e368 c9bf 7a10 a9bf 3cd0 5aba 4385 593c
000003d0: 31a6 cdbe 361a 64bd b21c 29bf a59c 4cbc
000003e0: 9c70 373f 000c 853f 2477 afbf 837e a43e
000003f0: a5f9 3b3f 36db a2bc 445a 33bf fd5b c33f

transformer.encoder.layers.0.self_attn.in_proj_weight f4 [96, 32]
0.106150314 -0.11940098 -0.15338667 0.13226695 -0.11193517 0.010275929 -0.006235762 0.020864341
0.067931294 -0.0864973 -0.14726311 0.12583533 0.16083829 -0.058989245 0.003017687 0.15140831
0.21864584 0.04413267 0.09152455 -0.1759462 -0.16703045 -0.12876776 0.07682308 -0.19578086
-0.19701871 0.19431141 0.17605329 -0.051222898 0.13142365 -0.11150375 0.0795261 0.011506407
-0.066168696 0.13567507 -0.12578428 -0.021305675 0.16730887 0.0042524445 0.1551943 -0.10946343
-0.07394105 0.022340255 -0.0021139896 0.030787198 -0.028756458 -0.088650666 -0.015832368 -0.014102712
-0.22710219 -0.04214456 -0.04181637 0.18766221 -0.022050586 0.1253037 -0.018039541 0.09688195
-0.18289185 0.060380854 -0.12179255 -0.06868783 -0.14119752 -0.13688916 -0.18768187 0.15297388
-0.23696902 0.2119971 -0.010468282 -0.18785301 0.015673675 0.01651301 0.07024732 0.13869342
0.0037579671 -0.045099974 -0.1372951 0.15717998 -0.13216218 0.15368089 0.14136872 0.18853462
-0.028970784 0.12844 0.11260355 0.13722688 0.20725743 0.07498648 -0.09136104 -0.15837039
0.10834203 0.2824099 -0.008309146 0.08559885 0.061875634 0.014041372 0.05946254 0.07589161
-0.08147748 0.013603412 -0.20341823 0.18076126 0.04415622 -0.11179711 0.17967805 -0.014470804
0.22215986 -0.17825715 -0.0004939981 -0.18158723 0.02612666 -0.012209736 0.19147459 0.14838745
-0.103804074 -0.08850166 0.1790287 0.009960342 0.063074745 0.07660185 0.034390327 0.16970928
0.03396333 0.18020606 -0.10677168 0.0046157986 -0.06391921 -0.013384854 0.14972296 -0.07066758
0.06859862 0.02141778 -0.0689776 0.1736988 0.07545392 0.21280245 -0.110241696 -0.19744168
-0.07632379 0.12391353 -0.19348504 0.11862989 -0.039285384 -0.06470587 -0.18500257 0.23014437
-0.09944766 -0.099750146 -0.1952909 0.16275781 -0.1510544 0.0077316905 -0.017699605 -0.053043824
0.029671144 -0.07605404 0.10306984 -0.014245448 -0.10190085 0.14384145 0.0061440384 0.16009595
0.17866452 -0.041301396 -0.14048046 0.16410276 0.01127462 -0.15078518 -0.11536069 0.036903687
-0.12269021 0.0030955493 0.08625595 -0.116878524 -0.011275417 0.1832916 -0.05001927 -0.033510514
-0.0053852033 -0.2195665 0.041198477 0.16787538 0.17695087 -0.23359549 0.06957536 0.13401662
-0.08025362 0.05514022 0.12602103 0.14266016 0.1850333 0.1807232 -0.048069835 -0.02311491
-0.083106905 0.037929688 0.10548886 -0.0111006275 0.1666873 -0.13718775 -0.026052827 0.19804218
-0.14200161 0.038054198 -0.05135151 -0.02826958 0.21145952 0.20057128 0.1550843 -0.18040973
0.16340585 0.010391175 -0.1132984 0.13557962 -0.08591812 0.17476548 -0.18005851 -0.10150402
-0.006751353 0.08790862 0.047260854 0.18841548 0.12438476 -0.033837166 -0.01990813 0.06351164
-0.13027546 0.058112424 -0.051657625 -0.02008259 -0.14883694 0.0071870596 -0.2136298 -0.115054436
-0.13542245 -0.112526216 0.014732825 -0.08376816 0.09452041 -0.17165115 -0.15096454 0.13040188
0.13681386 0.13332076 0.036372345 0.08528962 -0.026752243 -0.04320506 -0.111270525 -0.16184995
0.13238338 0.14473572 -0.12582205 0.03999284 0.18814963 0.16221407 0.07516366 -0.18071301
00000000: 5665 d93d 8088 f4bd 6511 1dbe fd70 073e
00000010: 443e e5bd 5f5c 283c 5d55 ccbb b2eb aa3c
00000020: 901f 8b3d 7f25 b1bd 24cc 16be fada 003e
00000030: cbb2 243e b59e 71bd 63c4 453b c80a 1b3e
00000040: b2e4 5f3e 75c4 343d 3971 bb3d 3e2b 34be
00000050: 080a 2bbe b2db 03be 6b55 9d3d c77a 48be
00000060: 46bf 49be 92f9 463e 5047 343e 1acf 51bd
00000070: ec93 063e 145c e4bd 94de a23d 5e85 3c3c
00000080: 7483 87bd 68ee 0a3e 98cd 00be 3d89 aebc
00000090: 0453 2b3e 1758 8b3b 41eb 1e3e 5d2e e0bd
000000a0: 686e 97bd e902 b73c dc8a 0abb 6f35 fc3c
000000b0: aa92 ebbc 7b8e b5bd e2b2 81bc 100f 67bc
000000c0: 7a8d 68be c69f 2cbd a447 2bbd 862a 403e
000000d0: 6ea3 b4bc 9d4f 003e a9c7 93bc 0b6a c63d
000000e0: 0048 3bbe ea51 773d 5f6e f9bd 34ac 8cbd
000000f0: 1596 10be ac2c 0cbe ad2f 40be 2fa5 1c3e
00000100: 02a8 72be c515 593e 2883 2bbc 8a5c 40be
00000110: 1466 803c 4b46 873c d4dd 8f3d a605 0e3e
00000120: 3a48 763b c0ba 38bd 1697 0cbe caf3 203e
00000130: 8655 07be 865e 1d3e f6c2 103e 380f 413e
00000140: 2354 edbc c685 033e b19c e63d 3485 0c3e
00000150: 4b3b 543e 8392 993d 7f1b bbbd d92b 22be
00000160: 6de2 dd3d 0898 903e 1623 08bc 734e af3d
00000170: 4e71 7d3d c80d 663c fe8e 733d 0f6d 9b3d
00000180: aadd a6bd d8e0 5e3c de4c 50be 7b19 393e
00000190: 27dd 343d e2f5 e4bd 86fd 373e f316 6dbc
000001a0: e07d 633e 0b89 36be a77f 01ba 01f2 39be
000001b0: 9407 d63c 580b 48bc ea11 443e e1f2 173e
000001c0: 3b97 d4bd 5c40 b5bd 4d53 373e b430 233c
000001d0: 552d 813d 6ee1 9c3d dfdc 0c3d 45c8 2d3e
000001e0: 221d 0b3d f087 383e 1cab dabd 2040 973b
000001f0: 13e8 82bd 264c 5bbc fa50 193e 2aba 90bd
00000200: 6f7d 8c3d 5774 af3c 2144 8dbd 19de 313e
00000210: 9687 9a3d e3e8 593e 66c6 e1bd 272e 4abe
00000220: a64f 9cbd 60c6 fd3d f120 46be 3af4 f23d
00000230: b6e9 20bd 8384 84bd 5071 3dbe f7aa 6b3e
00000240: 37ab cbbd ce49 ccbd 56fa 47be fca9 263e
00000250: 01ae 1abe 1f5a fd3b c3fe 90bc 7b44 59bd
00000260: e610 f33c 38c2 9bbd 4816 d33d bd65 69bc
00000270: 65b1 d0bd 2c4b 133e ee53 c93b 31f0 233e
00000280: d5f3 363e a72b 29bd 1cda 0fbe 8e0a 283e
00000290: 2fb9 383c 6e67 1abe 3a42 ecbd 5228 173d
000002a0: 0145 fbbd b3de 4a3b f6a6 b03d 025e efbd
000002b0: 87bc 38bc cbb0 3b3e 02e1 4cbd 5242 09bd
000002c0: 5c76 b0bb 0ad6 60be bcbf 283d 86e7 2b3e
000002d0: 9c32 353e a833 6fbe 877d 8e3d a73b 093e
000002e0: 035c a4bd b6da 613d a80b 013e 8115 123e
000002f0: 5f79 3d3e 810f 393e e0e4 44bd 7b5b bdbc
00000300: f433 aabd 295c 1b3d 8b0a d83d 68df 35bc
00000310: 13b0 2a3e f27a 0cbe bd6c d5bc 92cb 4a3e
00000320: df68 11be b8de 1b3d f655 52bd 9b95 e7bc
00000330: d888 583e 8f62 4d3e 6bce 1e3e 54bd 38be
00000340: dd53 273e bf3f 2a3c fe08 e8bd 62d5 0a3e
00000350: d7f5 afbd b9f5 323e 4261 38be 57e1 cfbd
00000360: 743a ddbb 6f09 b43d 9994 413d fdef 403e
00000370: 70bd fe3d d798 0abd 6016 a3bc 6412 823d
00000380: ee66 05be 4b07 6e3d f296 53bd 3e84 a4bc
00000390: b668 18be 6d81 eb3b c5c1 5abe a9a1 ebbd
000003a0: 2fac 0abe 2574 e6bd f261 713c a48e abbd
000003b0: eb93 c13d 52c5 2fbe 7396 1abe 1288 053e
000003c0: ef18 0c3e 3d85 083e 2bfb 143d 53ac ae3d
000003d0: 8527 dbbc caf7 30bd cde1 e3bd febb 25be
000003e0: 828f 073e 9a35 143e 7fd7 00be 88cf 233d
000003f0: 4caa 403e 721b 263e 68ef 993d d50c 39be

transformer.encoder.layers.0.self_attn.in_proj_bias f4 [96]
0.09626387 -0.028975705 0.050944943 0.06567469 0.0009314982 0.02160255 0.0046848506 0.0076907645
0.005694596 0.03077222 -0.04499599 0.08634627 -0.10864272 0.12081658 0.07441235 -0.044842735
0.037361566 -0.04035434 -0.0019138295 0.04408703 -0.011295751 0.07133809 -0.08445256 -0.03576568
-0.07106441 -0.0725968 0.048524067 -0.12331526 0.036248222 -0.049696 -0.06603559 0.03493448
8.1036604e-05 -0.00013323572 7.784246e-05 -0.0005869588 0.0005396413 0.0004445351 -0.00024865544 -0.00026963282
6.9797214e-05 0.0006495935 -0.00067668787 0.00043288965 -0.0003393002 -0.00025616583 -6.3867104e-05 -0.0004862809
-0.0003711756 2.2924754e-05 -0.00015222219 -3.0469007e-05 -0.00039280098 -0.00032609722 -0.00039866072 -7.112287e-05
-7.229004e-05 -0.00072396075 0.00011077712 -0.0009451701 0.00063697697 -0.00021929601 -0.00025073419 -0.00014912931
0.01145219 0.04597261 -0.069600776 0.012414904 0.026809385 0.058717906 0.018395972 -0.02528517
0.006510157 -0.023718303 0.003564193 -0.018421073 0.022439497 -0.008525405 0.010765768 0.006960076
-0.015016582 0.008321187 0.043760736 0.048610177 -0.058512673 -0.026276661 0.07539777 -0.0011731329
0.048630428 -0.03059927 -0.01917914 -0.025560131 -0.0040011825 -0.026828103 0.047380805 0.032465894
00000000: fe25 c53d 755e edbc a5ab 503d 7480 863d
00000010: c92f 743a d5f7 b03c 6083 993b cf02 fc3b
00000020: bc99 ba3b 0616 fc3c b74d 38bd 50d6 b03d
00000030: 1380 debd af6e f73d 8165 983d 04ad 37bd
00000040: 7108 193d 984a 25bd 76d9 faba 9a94 343d
00000050: d011 39bc b419 923d 77f5 acbd 097f 12bd
00000060: 388a 91bd a2ad 94bd 2cc1 463d b68c fcbd
00000070: 0479 143d 088e 4bbd ab3d 87bd 7517 0f3d
00000080: 32f2 a938 31b5 0bb9 5a3f a338 23de 19ba
00000090: b776 0d3a 7e10 e939 f85d 82b9 815d 8db9
000000a0: 1860 9238 7b49 2a3a c163 31ba 77f5 e239
000000b0: 1ae4 b1b9 ff4d 86b9 64f0 85b8 84f3 feb9
000000c0: 599a c2b9 894e c037 d59d 1fb9 b297 ffb7
000000d0: dbf0 cdb9 07f8 aab9 5603 d1b9 cd27 95b8
000000e0: 6b9a 97b8 2fc8 3dba 0351 e838 4bc5 77ba
000000f0: cdfa 263a d3f2 65b9 f974 83b9 985f 1cb9
00000100: f7a1 3b3c c74d 3c3d da8a 8ebd e267 4b3c
00000110: 5b9f db3c 3082 703d 26b3 963c d822 cfbc
00000120: 2853 d53b e34c c2bc 3c95 693b cae7 96bc
00000130: 09d3 b73c 24ae 0bbc e762 303c 5911 e43b
00000140: 1c08 76bc 9755 083c 753e 333d 771b 473d
00000150: fcaa 6fbd 2742 d7bc 256a 9a3d cfc3 99ba
00000160: b330 473d 52ab fabc 921d 9dbc 7b63 d1bc
00000170: 5a1c 83bb 9cc6 dbbc 6012 423d f5fa 043d

transformer.encoder.layers.0.self_attn.out_proj.weight f4 [32, 32]
0.2745571 0.14049181 -0.11226225 0.17748708 0.099615775 0.08082677 0.28125265 -0.17030053
0.030091792 0.20828518 0.1823177 -0.16855818 -0.22083876 0.002764974 -0.2346367 -0.24392346
-0.13432455 0.049421288 0.15202506 0.20046075 0.091724984 -0.19382714 0.12104856 0.13842553
0.073783636 -0.32601464 -0.111470625 -0.16998467 -0.18943453 -0.09333473 0.12480353 -0.07293099
-0.10782726 -0.11483795 0.28523603 0.10960358 0.13512973 0.017416492 0.1945489 -0.23322171
-0.18209109 0.15215941 -0.101483546 -0.048514027 0.019022824 0.26297852 -0.15683812 -0.08505684
-0.038872596 -0.15544714 0.33524475 0.30030608 0.12544125 -0.078440964 0.02504412 0.17715321
0.32677594 -0.18943958 -0.07771683 0.13932127 -0.2821461 -0.076290905 0.2532274 -0.14996992
-0.058584798 -0.15520327 -0.13614239 -0.22403325 0.14083028 -0.08758626 -0.10449225 -0.07137317
0.329904 0.105389245 0.06599427 -0.1705376 0.0034662897 0.10103158 -0.19506031 -0.35301432
0.12300722 -0.24879952 0.28857595 0.3149507 -0.23767741 0.09335174 0.002578465 0.16033399
-0.10178098 0.29733402 -0.096344784 0.25602657 0.20786248 0.19252695 0.005620508 0.035492294
0.13900247 0.07049699 0.082890876 -0.102499686 0.35136503 -0.27140766 0.21905155 0.04815683
0.10956496 0.11284724 -0.18325149 0.24742989 -0.08991795 0.1181209 0.17957877 -0.32860166
-0.101890855 -0.07970983 0.004064422 -0.35490164 0.080916256 0.022687934 0.3274793 -0.286151
-0.32914895 -0.12337682 0.21751404 -0.24550822 -0.0980617 -0.18244985 0.1743619 -0.018828303
-0.1631035 0.087505564 0.10257846 -0.00014500409 0.00045433256 -0.04596024 -0.18734273 0.13719955
-0.08512241 0.35474798 -0.15029347 -0.076456405 -0.1370093 -0.29499114 -0.17002378 0.23632617
-0.19911689 -0.10717866 0.24760501 -0.13861421 0.001223909 0.31089014 0.23739448 -0.011877969
-0.18135001 0.18795036 -0.19303498 -0.070425145 -0.039966777 0.19122033 -0.18961552 -0.040050242
-0.28066534 -0.20085943 0.28532496 -0.19237302 -0.025427237 -0.3032663 -0.073694095 0.30044773
-0.11690246 0.060787845 -0.07976152 -0.27039498 -0.21880142 0.15630889 -0.14300898 -0.21046697
0.26508287 -0.3145331 -0.06282096 0.1839122 -0.09744927 0.391089 0.023746239 0.15627016
-0.15122426 -0.19332835 0.074006304 -0.083669595 0.30040023 -0.0024236848 0.09254171 0.1989424
-0.056468613 0.13375789 -0.102460586 0.05610678 0.27899075 0.15537427 -0.0019009156 0.19088636
0.044613868 -0.27030435 -0.19853729 0.023181913 0.19827025 0.055067934 0.119579464 -0.26778018
0.11114655 0.11811017 -0.004894643 -0.029767495 -0.25964275 0.08087283 0.09659675 0.12570706
0.046261925 0.21723032 -0.01933166 0.13584252 -0.25753757 0.10899745 0.20884866 0.06405078
-0.25941208 -0.029618688 -0.3623794 0.21222064 -0.09223313 0.17134798 -0.06728614 -0.31189716
-0.144655 0.16569702 0.08440307 0.2392847 -0.074670754 0.055956956 0.1586173 -0.17401165
0.16323029 0.114770934 0.09565482 -0.30254462 -0.3184643 0.4116361 -0.06524964 0.3032054
-0.18470232 -0.047005974 0.30760136 -0.0013155839 0.2784686 0.01919452 -0.19094744 0.23834562
00000000: c092 8c3e 16dd 0f3e c0e9 e5bd 2cbf 353e
00000010: 5b03 cc3d 8188 a53d 5900 903e 4363 2ebe
00000020: 1083 f63c b648 553e 7eb1 3a3e 849a 2cbe
00000030: 8e23 62be 9134 353b 9a44 70be 12c7 79be
00000040: 608c 09be fa6d 4a3d 75ac 1b3e 9545 4d3e
00000050: 4fda bb3d 9f7a 46be 4fe8 f73d 6cbf 0d3e
00000060: e01b 973d 64eb a6be b64a e4bd 7610 2ebe
00000070: 20fb 41be 4726 bfbd fe98 ff3d d85c 95bd
00000080: 8ad4 dcbd 2930 ebbd 750a 923e d777 e03d
00000090: 735f 0a3e 08ad 8e3c d437 473e acd1 6ebe
000000a0: 1676 3abe adcf 1b3e 9bd6 cfbd a5b6 46bd
000000b0: c1d5 9b3c 1fa5 863e 2c9a 20be 4832 aebd
000000c0: df38 1fbd 892d 1fbe 33a5 ab3e b8c1 993e
000000d0: ac73 003e a8a5 a0bd 5429 cd3c a767 353e
000000e0: 2d4f a73e 73fc 41be 002a 9fbd 3caa 0e3e
000000f0: 7475 90be 683e 9cbd 06a7 813e b791 19be
00000100: 9df6 6fbd 9bed 1ebe e968 0bbe f968 65be
00000110: d035 103e 6d60 b3bd 0800 d6bd 192c 92bd
00000120: 2de9 a83e 51d6 d73d 0128 873d 69a1 2ebe
00000130: b12a 633b a5e9 ce3d e4bd 47be 4bbe b4be
00000140: 36eb fb3d 4dc5 7ebe 3ac0 933e 3841 a13e
00000150: b561 73be 322f bf3d 77fb 283b 982e 243e
00000160: 8c72 d0bd 2a3c 983e 6a50 c5bd ea15 833e
00000170: e7d9 543e c925 453e 3d2c b83b 5e60 113d
00000180: aa56 0e3e ba60 903d b1c2 a93d 5beb d1bd
00000190: 1ee6 b33e f2f5 8abe 0d4f 603e 1940 453d
000001a0: 9863 e03d 741c e73d 47a6 3bbe 435e 7d3e
000001b0: e726 b8bd 5fe9 f13d 7fe3 373e 7a3e a8be
000001c0: 27ac d0bd e83e a3bd d82e 853b abb5 b5be
000001d0: 6cb7 a53d 0cdc b93c 5eab a73e 6282 92be
000001e0: 3686 a8be fcac fcbd 00bc 5e3e 8266 7bbe
000001f0: 93d4 c8bd 22d4 3abe ed8b 323e d03d 9abc
00000200: 9b04 27be 1e36 b33d a814 d23d 3d0c 18b9
00000210: 7c33 ee39 ce40 3cbd c6d6 3fbe 0a7e 0c3e
00000220: a854 aebd 87a1 b53e 88e6 19be 2d95 9cbd
00000230: 2a4c 0cbe 1409 97be b71a 2ebe 7dff 713e
00000240: 4ce5 4bbe 7c80 dbbd 2b8c 7d3e e2f0 0dbe
00000250: 926b a03a fe2c 9f3e 8a17 733e d09b 42bc
00000260: d1b3 39be 0f76 403e f6aa 45be 0f3b 90bd
00000270: 34b4 23bd 43cf 433e 922a 42be b90b 24bd
00000280: 5eb3 8fbe 18ae 4dbe 1d16 923e 6ffd 44be
00000290: c84c d0bc b845 9bbe eeec 96bd 49d4 993e
000002a0: 8f6a efbd adfc 783d 025a a3bd 3671 8abe
000002b0: 7b0d 60be 700f 203e f270 12be a784 57be
000002c0: f1b8 873e 7c0a a1be 47a8 80bd 7b53 3c3e
000002d0: 7c93 c7bd d13c c83e 7987 c23c 4905 203e
000002e0: 88da 1abe def7 45be 9e90 973d f75a abbd
000002f0: 0fce 993e afd6 1ebb 8286 bd3d 8eb7 4b3e
00000300: a24b 67bd d4f7 083e dbd6 d1bd 39d0 653d
00000310: e0d7 8e3e 6f1a 1f3e 2528 f9ba b777 433e
00000320: 08bd 363d 5565 8abe 5c4d 4bbe ffe7 bd3c
00000330: 5b07 4b3e ea8e 613d 14e6 f43d 7c1a 89be
00000340: cda0 e33d bfe3 f13d 3e63 a0bb f6da f3bc
00000350: e5ef 84be a7a0 a53d 84d4 c53d 5ab9 003e
00000360: 257d 3d3d a071 5e3e 6e5d 9ebc 4d1a 0b3e
00000370: f7db 83be 0e3a df3d 6cdc 553e 0e2d 833d
00000380: a9d1 84be e4a2 f2bc cb89 b9be 5e50 593e
00000390: b9e4 bcbd d875 2f3e 51cd 89bd fcb0 9fbe
000003a0: 7120 14be 7bac 293e 84db ac3d 0c07 753e
000003b0: fbec 98bd 1f33 653d 936c 223e 1c30 32be
000003c0: d725 273e 060d eb3d ade6 c33d 21e7 9abe
000003d0: c10d a3be f8c1 d23e 9aa1 85bd bd3d 9b3e
000003e0: 9b22 3dbe 5689 40bd ed7d 9d3e ac6f acba
000003f0: 7093 8e3e d33d 9d3c ba87 43be e010 743e

transformer.encoder.layers.0.self_attn.out_proj.bias f4 [32]
0.009774231 0.015545874 0.0023138868 -0.03903903 0.0042936057 -0.00042101258 0.033653654 -0.022075022
0.023913315 0.005461019 0.010205057 -0.012943596 -0.006461068 0.021956379 -0.0049048187 -0.0026856868
-0.0534419 -0.036637384 -0.015897278 0.012723089 0.029101782 0.022603633 -0.014210885 -0.037311114
0.04135404 -0.007231685 -0.029415458 0.03010512 -0.02069927 0.009527717 0.020375062 -0.047971062
00000000: 1924 203c 1fb4 7e3c 94a4 173b 64e7 1fbd
00000010: 60b1 8c3b 5abb dcb9 6ad8 093d add6 b4bc
00000020: dbe5 c33c 59f2 b23b 1d33 273c 6011 54bc
00000030: 5eb7 d3bb dddd b33c 9ab8 a0bb 5902 30bb
00000040: e5e5 5abd 1511 16bd 023b 82bc 8174 503c
00000050: dc66 ee3c 412b b93c c6d4 68bc 8ad3 18bd
00000060: db62 293d c5f7 ecbb b0f8 f0bc 039f f63c
00000070: 8491 a9bc 241a 1c3c 9ae9 a63c 4e7d 44bd

transformer.encoder.layers.0.linear1.weight f4 [128, 32]
-0.21564059 0.09955759 0.047292847 0.0076938625 0.13804127 0.14937392 0.031637017 -0.1400461
0.043942 -0.06264829 -0.08843594 -0.22322536 0.08119615 -0.061564554 -0.09005954 0.065085486
-0.12869185 0.060257826 -0.20007361 0.0889691 -0.11064948 -0.094898924 0.03483028 -0.1077658
-0.1939894 0.08410315 -0.02031712 -0.029387051 0.08382523 0.028170764 0.08614603 0.05776458
0.111649044 -0.035996422 0.03176596 -0.10137458 0.012501874 0.12602012 0.1097611 -0.06947144
0.23073436 0.12249197 0.0018404576 -0.13464914 -0.2333878 -0.15599088 0.021246156 0.05208666
-0.02274491 0.14297877 -0.193004 -0.13632816 0.15038724 -0.094813034 -0.19715488 -0.16520597
0.011191474 -0.09133274 0.18794344 -0.016080884 -0.12603794 0.09949871 -0.11576375 0.16281788
0.15365711 -0.000506184 -0.076487385 0.10469143 -0.084287226 -0.08257597 0.036228627 0.1424668
0.06402197 -0.052733134 0.19852844 -0.22430597 0.10860172 -0.08282834 0.030988723 -0.001073914
-0.22820157 -0.018690139 -0.24958827 -0.17382097 0.060847327 -0.0602326 0.06444115 0.20754084
-0.061795514 -0.052936226 0.028021837 0.05376334 -0.1469895 -0.14979859 -0.16715562 -0.1505309
-0.0589005 -0.07387469 -0.06782173 -0.079587586 -0.15326275 0.13505271 0.06994937 -0.220305
0.06421208 0.040310144 -0.10181468 -0.14178246 -0.058825135 -0.13500562 -0.06315527 -0.14368375
0.066167265 0.11604115 0.18762259 0.043625727 -0.19024737 -0.033876996 -0.18364592 0.031794038
-0.13861741 0.088125944 0.09432224 -0.13499208 0.22083619 0.0902201 0.044231705 -0.24343681
-0.07100429 -0.0077918414 0.009171498 0.18834786 0.010980003 -0.06666671 -0.19104822 0.02736122
0.07577074 0.036581673 0.11488665 0.17625126 -0.12602474 -0.20660086 -0.004405494 0.11031718
-0.14522722 -0.17598742 0.0009492401 0.1643378 0.028738758 0.18891136 0.1504922 -0.023442736
0.033430766 0.009006684 0.14268443 -0.06144043 -0.026068535 -0.09031161 -0.12321605 -0.10197615
0.0049282564 -0.13880597 -0.14089453 -0.032853298 -0.16183299 -0.12300004 0.06143208 0.09533134
-0.15892202 0.07655635 -0.009883434 0.03694518 -0.17549421 0.067837685 0.04607308 -0.12457017
-0.080346316 -0.116016686 -0.17581551 -0.11638308 -0.040564112 -0.09418187 0.12948765 0.025013065
0.13207039 0.08818828 0.14433523 0.060746405 0.04783701 0.0965555 -0.087881 -0.015210893
-0.13273843 0.037298985 0.068566196 0.041135155 0.004035299 0.10329321 -0.112177804 -0.16110273
-0.053811908 -0.12917094 0.20804308 0.16356827 -0.03788438 -0.19882269 0.16024794 -0.115387864
0.052398305 0.18388513 -0.15310267 0.16294995 0.10990946 0.15536149 0.14191875 -0.030839829
-0.056178227 -0.07770895 0.09093803 0.21103966 0.15855509 -0.19273296 0.07247255 0.14853455
0.011981738 -0.10511899 -0.21252246 -0.009155532 0.15943396 -0.020337557 0.08943942 -0.14405191
0.07801348 0.028244562 -0.08458374 0.1850655 -0.08284908 0.110773176 0.03687976 0.11778546
-0.22306545 -0.08541706 -0.08121647 -0.09896202 0.2420206 -0.003705279 -0.044431854 0.04283214
0.074599266 0.019115815 -0.13335754 0.06894207 0.14354621 -0.015066186 0.14909545 -0.06676511
00000000: e3d0 5cbe dae4 cb3d 25b6 413d cc1c fc3b
00000010: b15a 0d3e 7af5 183e d195 013d 3f68 0fbe
00000020: 87fc 333d bf4d 80bd e71d b5bd 3095 64be
00000030: 2b4a a63d 1d2b 7cbd 2371 b8bd 8a4b 853d
00000040: ccc7 03be e9d0 763d 19e0 4cbe 6e35 b63d
00000050: 329c e2bd 5e5a c2bd 32aa 0e3d 51b4 dcbd
00000060: 28a5 46be 463e ac3d 1770 a6bc 1dbd f0bc
00000070: 90ac ab3d 60c6 e63c 546d b03d 8d9a 6c3d
00000080: 41a8 e43d fc70 13bd 061d 023d 7a9d cfbd
00000090: a9d4 4c3c 6b0b 013e 6dca e03d 0b47 8ebd
000000a0: a145 6c3e 12dd fa3d 823b f13a 77e1 09be
000000b0: 36fd 6ebe 13bc 1fbe 6b0c ae3c d258 553d
000000c0: 8953 babc 0769 123e d7a2 45be 9c99 0bbe
000000d0: 1dff 193e 562d c2bd f8e2 49be c12b 29be
000000e0: 725c 373c a90c bbbd 3f74 403e 0fbc 83bc
000000f0: 1710 01be fbc5 cb3d 8c15 edbd bbb9 263e
00000100: 4a58 1d3e 6fb1 04ba 6ba5 9cbd 7668 d63d
00000110: c89e acbd 971d a9bd 7864 143d d1e2 113e
00000120: f31d 833d b3fe 57bd 0a4b 4b3e 77b0 65be
00000130: 946a de3d e8a1 a9bd 10dc fd3c 93c2 8cba
00000140: acad 69be 101c 99bc 1194 7fbe 20fe 31be
00000150: 0c3b 793d 75b6 76bd b9f9 833d 9685 543e
00000160: 4b1d 7dbd a8d3 58bd 0d8e e53c f336 5c3d
00000170: 6a84 16be cd64 19be d82a 2bbe c624 1abe
00000180: a741 71bd 9d4b 97bd 1fe6 8abd d1fe a2bd
00000190: e9f0 1cbe 424b 0a3e 9e41 8f3d a297 61be
000001a0: 9f81 833d 401c 253d 3784 d0bd 6c2f 11be
000001b0: a0f2 70bd ea3e 0abe 8d57 81bd d521 13be
000001c0: b482 873d fca6 ed3d 2320 403e e4b0 323d
000001d0: 35d0 42be 9bc2 0abd ad0d 3cbe 773a 023d
000001e0: b9f1 0dbe 607b b43d 052c c13d 5d3b 0abe
000001f0: e222 623e 51c5 b83d 4e2c 353d 8047 79be
00000200: b26a 91bd b452 ffbb 0d44 163c 43de 403e
00000210: 78e5 333c 8e88 88bd 25a2 43be a324 e03c
00000220: b12d 9b3d aad6 153d b149 eb3d 367b 343e
00000230: a10c 01be 2d8f 53be f65b 90bb f9ed e13d
00000240: 72b6 14be 0c36 34be 6dd6 783a 2b48 283e
00000250: 8b6d eb3c fb71 413e a11a 1a3e fb0a c0bc
00000260: b3ee 083d c590 133c de1b 123e f6a8 7bbd
00000270: ae8d d5bc 4bf5 b8bd b258 fcbd dfd8 d0bd
00000280: 367d a13b 2723 0ebe a846 10be 2e91 06bd
00000290: 8cb7 25be 72e7 fbbd 34a0 7b3d 143d c33d
000002a0: 74bc 22be 93c9 9c3d 20ee 21bc d453 173d
000002b0: c1b4 33be 7cee 8a3d 20b7 3c3d a51e ffbd
000002c0: 9c8c a4bd 289a edbd fb08 34be 415a eebd
000002d0: 8e26 26bd 6de2 c0bd 6998 043e 33e8 cc3c
000002e0: 763d 073e 0f9c b43d 9dcc 133e 39d1 783d
000002f0: bef0 433d e4be c53d f4fa b3bd 1c37 79bc
00000300: 95ec 07be d2c6 183d 6f6c 8c3d 567d 283d
00000310: 8b3a 843b 648b d33d 7abd e5bd 1df8 24be
00000320: e069 5cbd 6345 04be 3f09 553e 717e 273e
00000330: a72c 1bbd 2d98 4bbe 0918 243e 7950 ecbd
00000340: 9b9f 563d 624c 3c3e f2c6 1cbe 5adc 263e
00000350: 3618 e13d 1517 1f3e 2653 113e cfa3 fcbc
00000360: 241b 66bd df25 9fbd b83d ba3d c81a 583e
00000370: 445c 223e ca5b 45be 7d6c 943d 7119 183e
00000380: 0d4f 443c a048 d7bd 7d9f 59be 1601 16bc
00000390: a842 233e f39a a6bc 042c b73d 5882 13be
000003a0: 88c5 9f3d 2461 e73c 3d3a adbd cf81 3d3e
000003b0: c7ac a9bd 0cdd e23d 3b0f 173d 8139 f13d
000003c0: 456b 64be 24ef aebd d254 a6bd 99ac cabd
000003d0: 40d4 773e 44d4 72bb 2dfe 35bd c170 2f3d
000003e0: 80c7 983d c598 9c3c e18e 08be 8031 8d3d
000003f0: c7fd 123e 2ad8 76bc 7aac 183e 25bc 88bd

transformer.encoder.layers.0.linear1.bias f4 [128]
0.01746634 -0.21128249 0.1399897 0.003611899 -0.030062882 0.049251284 0.024577212 -0.06701514
-0.014756231 0.022357058 -0.16126604 0.16370335 -0.20712018 0.099767946 -0.17104451 -0.10393137
-0.16940755 -0.2025167 0.14877526 0.05264805 -0.114946336 -0.18380913 -0.11221388 0.029940134
0.113724776 -0.12447307 0.11418912 0.02076721 -0.00048394618 -0.1489942 -0.012076806 -0.02301832
-0.07201926 -0.03277791 -0.08742501 -0.14802839 -0.0028627778 -0.010520133 -0.15121204 0.10737223
-0.15276605 -0.10473486 -0.088980295 0.13201647 -0.22599089 0.09804014 -0.030469114 -0.060143374
-0.004452935 -0.1827108 -0.008143192 0.025466068 -0.10682096 0.101782694 0.105341986 -0.10758932
0.09887821 -0.17712688 -0.0492157 -0.16505396 -0.085014686 -0.052178062 -0.10834108 -0.026377847
-0.06541277 0.071353674 -0.050854187 0.12357161 0.09814903 -0.19838333 -0.01751262 -0.0881339
-0.05837509 -0.010303405 -0.16765226 0.028500304 -0.11303592 -0.020924933 -0.10739859 0.029299749
-0.09461486 0.00039027492 0.011999368 0.11812202 -0.13814846 0.13774002 -0.037032682 -0.12112777
-0.11625144 -0.201301 -0.13225351 0.058621015 0.03047975 0.14769377 -0.102207705 -0.0727478
-0.124304906 -0.037795186 -0.13416079 -0.14739661 0.1097035 -6.0983093e-05 -0.18020013 -0.047352932
-0.22602671 0.12910877 -0.18848027 -0.14812115 -0.07316482 -0.08580306 -0.089564964 -0.09362015
0.089857414 0.060620088 0.07250066 -0.08449314 -0.0624831 -0.05848581 -0.16058935 -0.070472226
-0.01834461 -0.07790336 -0.03857698 0.14453532 -0.2427018 0.060947113 -0.055340383 -0.09686797
00000000: 9215 8f3c 705a 58be 7659 0f3e 9cb5 6c3b
00000010: 6f46 f6bc b7bb 493d 2656 c93c 3c3f 89bd
00000020: 1ec4 71bc 2626 b73c ed22 25be daa1 273e
00000030: 5017 54be 2353 cc3d 4b26 2fbe f8d9 d4bd
00000040: 2c79 2dbe 8a60 4fbe 8b58 183e 7ba5 573d
00000050: fc68 ebbd 7638 3cbe 64d0 e5bd 0345 f53c
00000060: 89e8 e83d bdeb febd fcdb e93d ff1f aa3c
00000070: 28ba fdb9 f091 18be ccdd 45bc ea90 bcbc
00000080: d57e 93bd 2142 06bd e20b b3bd c194 17be
00000090: 719d 3bbb a35c 2cbc 54d7 1abe f9e5 db3d
000000a0: b46e 1cbe 3b7f d6bd 4d3b b6bd 532f 073e
000000b0: 286a 67be 45c9 c83d 5d9a f9bc e658 76bd
000000c0: ede9 91bb 8a18 3bbe 066b 05bc 379e d03c
000000d0: f3c4 dabd 7273 d03d 8abd d73d ca57 dcbd
000000e0: a980 ca3d c060 35be 6796 49bd e803 29be
000000f0: 2e1c aebd aab8 55bd eee1 ddbd 5b16 d8bc
00000100: 21f7 85bd e021 923d 7b4c 50bd 1d13 fd3d
00000110: 5c02 c93d 0025 4bbe a076 8fbc 8c7f b4bd
00000120: b81a 6fbd 9dcf 28bc 09ad 2bbe 7879 e93c
00000130: 607f e7bd c46a abbc cbf3 dbbd 0706 f03c
00000140: 70c5 c1bd d09d cc39 ff98 443c f5e9 f13d
00000150: ca76 0dbe b80b 0d3e 95af 17bd d611 f8bd
00000160: 3c15 eebd d921 4ebe 776d 07be 971c 703d
00000170: abb0 f93c 093d 173e 4652 d1bd ccfc 94bd
00000180: 9293 febd 20cf 1abd 7261 09be 23ef 16be
00000190: 3bac e03d 19c8 7fb8 6286 38be 26f5 41bd
000001a0: 8c73 67be 1735 043e f900 41be 12ad 17be
000001b0: 70d7 95bd 84b9 afbd d66d b7bd ecbb bfbd
000001c0: 2a07 b83d c54c 783d 3a7b 943d bd0a adbd
000001d0: 47ee 7fbd d18e 6fbd 8971 24be be53 90bd
000001e0: 7047 96bc cc8b 9fbd e502 1ebd 1101 143e
000001f0: d286 78be aea3 793d 99ac 62bd b762 c6bd
