Models/Decoder_Only_Transformers/dec_only_100epochs_5fexcluded_SEMIGENERALIZING.pth (torch, 196747 bytes, 54 tensors)

embedding.weight f4 [88, 32]
00000000: 4c8e 0180 d323 0280 370c 0200 1f69 0000
00000010: 2f1c 0200 28e6 0100 a052 0080 f0a7 0080
00000020: a0d8 0100 8842 0100 e6cc 0180 1c5a 0180
00000030: 1d48 0180 752b 0380 c709 0100 e609 0000
00000040: 572e 0000 f764 0280 d608 0100 f999 0100
00000050: 8e26 0280 5a8b 0380 491d 0180 087a 0080
00000060: 64d1 0380 b097 0000 8190 0200 5fc0 0280
00000070: ab87 0180 1968 0080 d960 0180 3024 0100
00000080: 77df 1e3f a0fe 8abe 149a 4a3f 94b8 4dbf
00000090: f5bc 033f b998 14be e983 73be 2c0e 043e
000000a0: 09f2 0e3f 7dbc bd3e ce37 81be e74d c23e
000000b0: 81a7 67bf fb88 1f3d 58bf 073e e494 4ebd
000000c0: bd5a b4bd 8b5b ea3d db3f e13d c81f 94bd
000000d0: a87f 03bf 6f56 f43e 4d0e adbe 5f26 dcbe
000000e0: ba3f 1f3d 3248 9bbc 4842 533e 71c1 263e
000000f0: d5d5 a2be ddef c13d cfcb 083e 04b9 92be
00000100: c73c d13d 17cb 80be 179a f43f 6ff1 5cbf
00000110: d574 73be 8ad2 00be 9c08 13be 6461 a13e
00000120: d2e7 c8bf 7e1e b53c 50ea bd3e a819 263f
00000130: 1e5a 93bf 8862 c23e 8d64 2e3f 0957 543e
00000140: de07 cfbe 2dea ca3e 0cc7 043f 3ba6 94be
00000150: 44b9 d93d 7ed3 05bf 660f f6be df2f ddbe
00000160: 27b4 3abe 88fa 71bf 8d40 853e a8e2 133f
00000170: cd32 eabe f946 523f f1e9 3b3f 8c13 893f
00000180: f0af 8dbd 59f8 5f3e 46af 023f 7f55 9cbc
00000190: 3494 2ebe bc68 de3d 6797 9b3d 2584 e33d
000001a0: d129 853e c45f 89be fe03 09be 65ce 683e
000001b0: b265 b93d 2bff 50be b3bd 4ebb 9c87 3e3d
000001c0: db13 fc3d 657e 9ebc 8865 ddbd 5d75 bebc
000001d0: 5c70 adbc c7e3 0dbe d70e a53d b56e 6d3d
000001e0: 4515 28be cd7c 78bd 46c4 1f3e 1f75 833d
000001f0: 9df1 843d def0 8e3d df5e 01bf 48f5 d9be
00000200: bd6e 043e 1449 e63c c8d2 663c 3a93 c7bc
00000210: fe1c e3bc b0ab 113d 449e 893c 3406 cebc
00000220: 040e ebbd 36fc c4bd a8f9 003d a1a1 de3c
00000230: c76f 1a3c 237f a3bc 5d1c 863d 391f d5bc
00000240: 2e67 4b3d f0a6 913c 4757 d53b e61f b6bc
00000250: 0b26 33bc 7534 d6bc c998 183d 80bd a13c
00000260: 7980 6abd b81b 7abd e127 80bd a123 46bd
00000270: f7df 173d 98da 213d bad2 debd b52c 6b3a
00000280: b460 5c3b 564c 1abd 03b7 b93d 9380 76bd
00000290: bab0 d4bd fa96 073e 4b40 35bd 8d9d f2bb
000002a0: def7 c03c cee3 203d cb1a 25bd d36f e8bc
000002b0: a08f 79bc f2a2 05bd f158 393c dce9 ad3d
000002c0: 631b a63d 9807 283e 3d96 3d3c c15d b1bc
000002d0: 2870 d6bc f9b8 5d3d 21e5 403d 1563 23bc
000002e0: c6bb 5cbd 070c 7dbd b57c 6bbd bdb5 8fbd
000002f0: 9851 07bd 8b0e 4b3d c482 d83c 458f e0bd
00000300: 41ad af3c b7e3 723d a093 77bd 0116 a2bd
00000310: 4f41 1dbd 8f04 5e3d b8cd 95bd dbb8 46bc
00000320: 6af8 993d ffef f6bc 26c8 573d 2868 d03c
00000330: c897 5a3d 4d24 34bc a2ea 603d 3efa 803d
00000340: 692f 153c 9bfd d73d 6fec b73c 5869 c4bb
00000350: 32d1 73bd 2c8d b0bd 77b0 f13c b2e4 f43c
00000360: 189a 863b 13d1 a63c 2e02 4d3b 5035 1bbd
00000370: 2f62 4a3d f3bc 56bc d0e7 083d 9785 00bc
00000380: 73f8 e23b 5343 5d3d b2a8 f03c f24e 93bc
00000390: 1d80 f9bc 1ab5 76bd ec20 2bbe 63ba 17bd
000003a0: fb9b 83bd 598c 0b3d cd42 6a3b 2c13 3d3e
000003b0: 00ac 1a3e a7b7 2abd 6b66 463d 39dd 653d
000003c0: 5514 cebd a0e4 953e 6c56 b83c a614 023c
000003d0: 12e4 ee3d d47a 85bd 4eb4 613d eefa b5bd
000003e0: 8c9f 95bc 59d7 ecbc 3fec 33bd bfa5 08bd
000003f0: 1ead 5bbc 7fb9 483e ddaa 213d 0216 c4bb
-1.42882e-40 -1.96522e-40 1.88053e-40 3.771e-41 1.93781e-40 1.744e-40 -2.964e-41 -6.0245e-41
1.69546e-40 1.15702e-40 -1.65339e-40 -1.2416e-40 -1.17705e-40 -2.91096e-40 9.5343e-41 3.551e-42
1.6624e-41 -2.1989e-40 9.5005e-41 1.4707e-40 -1.97502e-40 -3.25496e-40 -1.02341e-40 -4.3777e-41
-3.50622e-40 5.4415e-41 2.35509e-40 -2.52681e-40 -1.40504e-40 -3.7343e-41 -1.26578e-40 1.04817e-40
0.6205973 -0.27147388 0.79141355 -0.8035977 0.514602 -0.14511384 -0.23780788 0.12896031
0.55838066 0.37057868 -0.25237888 0.3795006 -0.90489966 0.038948994 0.13256586 -0.050434962
-0.088063695 0.11443242 0.109985076 -0.07232624 -0.5136666 0.47722194 -0.33799973 -0.42998025
0.038879134 -0.018955324 0.20630753 0.1628473 -0.31803766 0.094695784 0.13358997 -0.2865678
0.102166705 -0.25154945 1.9109524 -0.863059 -0.23775037 -0.12580314 -0.14358753 0.31519616
-1.5695746 0.022109266 0.3709283 0.648829 -1.1511877 0.37965798 0.6812218 0.20736326
-0.4043569 0.39631787 0.5186622 -0.29033074 0.1063104 -0.52275836 -0.48058623 -0.43200585
-0.18232785 -0.94522905 0.2602581 0.57767725 -0.45741883 0.82139546 0.7340384 1.070909
-0.06918323 0.21872081 0.51048696 -0.019083736 -0.17048723 0.1085982 0.07597237 0.11109189
0.26008466 -0.26830876 -0.13380429 0.22734983 0.090526 -0.20409839 -0.0031546175 0.046516046
0.12308475 -0.019347379 -0.10810381 -0.023249323 -0.021171741 -0.13856421 0.08059471 0.057966907
-0.16414364 -0.060665894 0.15602216 0.064188235 0.064913966 0.069795355 -0.50535387 -0.42569947
0.12932868 0.028111018 0.01408834 -0.024362195 -0.027723785 0.035564125 0.0167991 -0.025149442
-0.11477283 -0.09618418 0.03148809 0.02717668 0.009426064 -0.019958084 0.065483786 -0.026015865
0.049658947 0.017779797 0.0065106484 -0.022232007 -0.010934363 -0.02614806 0.037255082 0.019743681
-0.057251427 -0.06106159 -0.06257606 -0.048373822 0.037078824 0.039515108 -0.10880037 0.00089712004
0.0033626975 -0.037670456 0.0906811 -0.06018121 -0.103852704 0.13241187 -0.044250768 -0.0074040354
0.023555692 0.03927975 -0.040308755 -0.028373634 -0.015231997 -0.0326261 0.011312709 0.08491871
0.08110692 0.16409147 0.011571464 -0.02165115 -0.026176527 0.05413148 0.047093514 -0.0099723535
-0.053890012 -0.06177905 -0.057491977 -0.07017086 -0.0330368 0.049574416 0.026429541 -0.109648265
0.021444919 0.059299197 -0.06044352 -0.07914353 -0.03839236 0.054203566 -0.07314628 -0.012129034
0.07518084 -0.030143736 0.05268111 0.02544029 0.053367406 -0.010994983 0.054911263 0.0629773
0.009105542 0.10546418 0.022451608 -0.0059940033 -0.059525676 -0.086206764 0.02950309 0.029894207
0.004107725 0.020363366 0.0031281817 -0.03789264 0.04941004 -0.013106572 0.0334242 -0.00784435
0.00692659 0.054019284 0.029377315 -0.01798198 -0.030456597 -0.060231306 -0.16711777 -0.037042987
-0.06426235 0.034069393 0.0035745383 0.18464345 0.15104675 -0.04167905 0.048437517 0.056119177
-0.10062472 0.2927599 0.022502147 0.007939493 0.11664595 -0.06517568 0.055103593 -0.08885752
-0.018264554 -0.02891128 -0.043926474 -0.033361193 -0.013407974 0.19602011 0.03946959 -0.005984069

pos_embedding.weight f4 [9, 32]
00000000: 2d5d 16bf 1ae0 ccbe a97f 08bf 9800 b0be
00000010: aee8 b1be 9d74 2abf 946d 8e3e 7553 e1be
00000020: a403 e13c a8de dc3d f591 0c3f 542e b93d
00000030: 8f60 bcbe 2b32 d53e bf7e 4e3f 78b0 9b3e
00000040: 4202 693f 54db 6cbe 0c1d c93d 684b 22be
00000050: 0183 20be 8ffe b13e 0411 a93e 9ec2 133f
00000060: 586f 643e d248 573d 63b6 92bd 43f5 d1be
00000070: 53e0 8ebe 8a2d b43e c9ad 09bf 2d64 043f
00000080: 8241 dfbd ed4a 933e 5fe6 9f3e 2285 7fbf
00000090: 7b83 283f ef0c cabd 7263 7a3a 805e 52be
000000a0: 77f7 1e3d aa5d a7be b5c4 e43e 831b 733d
000000b0: 6a5d af3e 1d73 41bf d58a 823f a246 e63d
000000c0: c667 9cbe 2ca8 b2bd a9b2 a5bc e323 623d
000000d0: ea32 4a3f 680e c43d 40b6 a73d 4c94 e9bd
000000e0: 8fa7 f0bb 3f83 3e3e a91d 1a3c 8b07 56bd
000000f0: 98c0 65bf f779 f4bd ef1e 95be 5a41 433e
00000100: 8e82 97bd 021e 883f 1148 863e 82d1 743a
00000110: 9b57 29bf 3793 8fbe 97e7 00be 064c f9bd
00000120: 085b 713e 23ca 843d 65f8 bebe e411 113e
00000130: c76d 99be 807e 833f cdea 96be 424e abbe
00000140: fd21 8c3e bb85 0ebd 6771 303f b118 36bd
00000150: 791e 903e 5d6c 02bf 4c56 653d baac 343b
00000160: d4f1 3ebd dea0 953e d546 a7be 8853 113c
00000170: 9aea 1d3e 1756 6b3e d9e2 c23e 1838 dabe
00000180: 1a52 dd3c 74db 10be 8a31 78be 435b 20be
00000190: 3940 2abf a1b0 10be 9053 cc3b c1ae 1a3f
000001a0: 2ce5 57be d50b 7fbe 7a40 013e c09c 99bc
000001b0: 8dad 8a3e 29f4 763e d348 52be b1e8 eb3d
000001c0: 582d f13d d666 f0bc 0295 143c d8a0 abbd
000001d0: 9004 f4be 54d2 ae3d b2bc f53e b04e d1bd
000001e0: 7cb1 a53d d693 8abe 3e03 89bd 96ac 45bd
000001f0: 4368 513d 6d3d fdbd 540a b6be f52a d23e
00000200: f8d0 6fbe 697a e1bd adc2 c2bf 2f4d 5d3e
00000210: 8ab8 9d3f ca5b c43d 29b5 0abf 42d1 2fbe
00000220: 2f45 bc3e dc4a 4a3f 6b51 af3e b4a5 06bc
00000230: 3d7a d6be 7a95 3e3e f850 83be eac2 c03d
00000240: 94fb 1bbf cc1c f43e f907 dfbe 6b02 973f
00000250: a05e 293f 81a9 53be 5ac7 e33d 081a 86bf
00000260: c47f ba3e 3098 ad3d 3b55 053d a026 f6be
00000270: dea6 01be 51d0 febe c41b 073e 89d5 bebe
00000280: 1be0 e7be 675b ae3e 7b85 c63b 9e77 a0bc
00000290: 99fb 233f 73a3 a63e 1535 083e b4c2 31be
000002a0: 776d 7b3f 5a95 c83d 2090 fa3d 18fb 1d3f
000002b0: ff94 e1be fc97 67bf 50c5 75bf 59f4 dbbe
000002c0: 835e d1be 8357 9f3d 15d0 00bf d543 87be
000002d0: 5685 0abf 35f7 e2bc 04b7 bd3e d617 fa3e
000002e0: fbc2 21bf 39f7 663f eee4 613f bde9 813d
000002f0: 66ba 0b3f 6b47 a3be 66c1 1fbf 3330 37be
00000300: 6e09 cf3e 23b9 9ebe 3cca b1be 37a0 0b3f
00000310: cd8a 8cbe 7cd3 8c3e 4a04 e63e 2f25 d0be
00000320: e12f d1be 0871 0d3d 3844 ecbe 95f9 d5bd
00000330: 48b4 08bf a014 4bbf ada2 793c 588f 3abd
00000340: f0ed 473d 8698 f0be db09 dc3e 18f0 34bf
00000350: 37a5 4bbd 753a d53e 3f8f 7ebc c1b6 743f
00000360: 15cb 8f3f 8d34 903f 1644 2bbf ea7c c83e
00000370: de94 03be 5892 ccbd 51dd 4f3f 9528 9c3e
00000380: 08f7 9c3e 392d b03e e17c 383f f465 853d
00000390: d93a 04bf 34ab 1b3e c691 36bf 136e b33e
000003a0: 6a83 a0be 2b08 dfbe bf0e 5cbe 3e9c 173f
000003b0: f4b4 493e 556d a6bd 16ee 923d f403 823c
000003c0: ad17 643f bf78 b8be c7df 36bc 4bb7 b43e
000003d0: 39d0 a53e 068f e0be f1c2 33bd b638 8a3d
000003e0: cc29 c8be b861 223e 466f 45bf 9684 55be
000003f0: 93b5 0b3f def1 893e 3135 fbbe 6191 a7be
-0.58735925 -0.40014726 -0.53319794 -0.34375453 -0.34747833 -0.6658419 0.27817976 -0.44008985
0.027467556 0.10784656 0.5491021 0.090420395 -0.36792418 0.41639838 0.8066215 0.30408072
0.9101907 -0.23130542 0.098199934 -0.15849078 -0.15674974 0.34764525 0.33020794 0.5771884
0.223081 0.05255968 -0.07163694 -0.41007432 -0.2790552 0.35190994 -0.537808 0.51715356
-0.109011665 0.287681 0.31230447 -0.9981252 0.65825623 -0.09865748 0.00095515617 -0.20543861
0.03881022 -0.32688648 0.44681326 0.05935241 0.34250957 -0.75566274 1.0198618 0.11243941
-0.30547923 -0.087234825 -0.020226793 0.055210005 0.7898394 0.0957306 0.08189058 -0.114052385
-0.0073441933 0.18604754 0.009406486 -0.052253287 -0.89747 -0.119373254 -0.29125163 0.19067898
-0.07397948 1.0634158 0.26226857 0.00093390804 -0.661493 -0.28042004 -0.12588345 -0.121727034
0.23569882 0.06483867 -0.37298885 0.14166981 -0.29966566 1.027298 -0.29476014 -0.33458143
0.2736968 -0.034795504 0.6892304 -0.04445714 0.2814825 -0.509466 0.055990502 0.0027568773
-0.046617344 0.29224294 -0.32671228 0.008870013 0.15421525 0.2298206 0.38063696 -0.4262092
0.027016688 -0.14146215 -0.24237648 -0.15659814 -0.66504246 -0.14129879 0.0062355474 0.60422903
-0.21083516 -0.24906857 0.12622252 -0.018751502 0.27085534 0.24116577 -0.20535593 0.11518992
0.11776227 -0.029345911 0.009068729 -0.08380288 -0.4765973 0.08536211 0.47995526 -0.102200866
0.08090493 -0.27065915 -0.066900715 -0.048260294 0.051124822 -0.12365232 -0.35554755 0.410484
-0.23419559 -0.11009676 -1.521566 0.21611474 1.2321942 0.0958782 -0.5418268 -0.1716967
0.36771533 0.79020476 0.34241804 -0.008218218 -0.41890135 0.18611708 -0.25647712 0.09412177
-0.6093075 0.4767822 -0.4356077 1.1797613 0.6616001 -0.2067013 0.11122008 -1.0476694
0.36425602 0.08476293 0.032551985 -0.48076344 -0.12661311 -0.49768308 0.13194185 -0.3727229
-0.45288166 0.3405411 0.0060583926 -0.019588288 0.6405578 0.32546577 0.13301499 -0.1735943
0.98213905 0.097941115 0.12234521 0.61711264 -0.44058987 -0.90466285 -0.960042 -0.4295986
-0.4089242 0.077803634 -0.5031751 -0.2641894 -0.54109704 -0.027705768 0.37053692 0.4884631
-0.6318814 0.9022098 0.88239944 0.0634341 0.54581296 -0.31890425 -0.6240448 -0.1788948
0.40436882 -0.31000623 -0.34724605 0.54541343 -0.27449647 0.275051 0.44925147 -0.4065337
-0.4085684 0.034531623 -0.46145797 -0.104479946 -0.5340009 -0.79328346 0.015236539 -0.04554686
0.0488109 -0.46991366 0.4297627 -0.70678854 -0.049718108 0.41646162 -0.015537082 0.9559136
1.1233851 1.1266037 -0.66900766 0.39157802 -0.12849757 -0.0998885 0.8119708 0.30499712
0.3065722 0.34409502 0.7206555 0.06513587 -0.51652294 0.15202028 -0.7131618 0.35044917
-0.3135026 -0.4356092 -0.2149 0.5922278 0.19697934 -0.08126322 0.071743175 0.015871026
0.89098626 -0.36029622 -0.011161751 0.3529609 0.32385424 -0.43859118 -0.043887082 0.06749098
-0.39094388 0.15857589 -0.77122915 -0.20851359 0.54573935 0.26942343 -0.4906402 -0.32728103

blocks.0.ln1.w f4 [32]
00000000: 0c65 3a3f 59b1 cc3e 822c 453f a7a3 053f
00000010: 1663 303f 8e39 333f 26f8 533f 6aab 253f
00000020: 088a 443f f468 533f 0141 2e3f 1f03 223f
00000030: f6d5 113f 5b37 0d3f 0040 e13e 3058 383f
00000040: c0f5 383f d99b 493f 23a4 0a3f 5095 3e3f
00000050: 3910 033f 6f2a 1d3f ea37 173f df5f 333f
00000060: caff 523f 1d51 3d3f 459a 443f 0c30 723f
00000070: b1fd f23e ec64 3e3f 0261 373f ae98 3b3f
0.72810435 0.39979056 0.7702104 0.5220284 0.68901193 0.70009696 0.8280052 0.6471468
0.7677312 0.8258202 0.6806794 0.6328601 0.56967103 0.5516259 0.4399414 0.72009563
0.72249985 0.7875343 0.541567 0.7444658 0.5119663 0.61392874 0.59069693 0.7006816
0.82421553 0.73951894 0.76797897 0.94604564 0.47459176 0.74372745 0.716324 0.73279846

blocks.0.ln1.b f4 [32]
00000000: 55b6 2e3e 258d 9dbe 3b28 cc3e 3b51 153e
00000010: f15b f7bc 18d8 803d 6a76 67bd 6c78 163e
00000020: 4ffa cd3d 4a53 4d3d 9ad1 4e3d 6c1f c53d
00000030: fc77 46bd 818e 03bc ec34 1cbe 990a 5e3d
00000040: 0ba6 d0bd 65b8 943e 6275 f43d b59a 62be
00000050: ceaa afbe dd51 8dbe 26ba a3bd 4e0a 8b3d
00000060: 190f edbd f50d 3abd 089d f73d b6f1 543e
00000070: ce30 17be 5f85 b6bd d5c8 9cbe 9c11 773e
0.17061742 -0.30771747 0.39874443 0.14581768 -0.030195208 0.062912166 -0.056509413 0.14694375
0.10057508 0.05012826 0.05049286 0.09625134 -0.04845427 -0.008029581 -0.15254563 0.054209325
-0.1018792 0.29046932 0.119364515 -0.22129329 -0.3431 -0.2760152 -0.07994489 0.06789075
-0.11575145 -0.045423467 0.12090498 0.2079533 -0.14764711 -0.08912157 -0.30621973 0.24127811

blocks.0.attn.W_Q f4 [4, 32, 8]
00000000: 9119 083d 54c9 243e c6c5 0abe dd4e 943d
00000010: 137f 3cbd a636 363e b4d3 b33d a370 d13d
00000020: 9cb9 debc 00ea 63be 2f86 61be 7280 40bd
00000030: 6522 df3c 1b1c a23d 2264 f5bd 4540 e93d
00000040: 5431 f2bd 9f01 dcbe 9181 8bbd c4ce aabd
00000050: 43d1 76bb ddfa cf3d 5135 293e 9e4d 763e
00000060: 2a1c 13bc 27a7 babc 415e 7fbd f0dc c13d
00000070: 5f21 ce3c 5f68 6d3d 39ca 05bb 8d30 0dbd
00000080: 3a7b 26bd bdfe 88be 3d2d e93d e920 d3be
00000090: d88a f73d f167 efbe d93d da3e 3933 93be
000000a0: c2f9 d5ba 57b8 bb3d ba28 a93e f98f 2d3d
000000b0: 6e2f 6abb 98ff b8bd 8c98 8e3e ba8c 7cbe
000000c0: c36f 84bc 06ad 9a3e ceee f23d ad38 83bc
000000d0: d240 12bc b5ac 6fbd 41a7 c5bd 3477 58be
000000e0: b344 d33b da56 a43e a019 6e3e d1e5 fa3d
000000f0: 4f50 96bb 3b1b 863e e7bf babc 12d9 cf3d
00000100: 0357 8ebc c2f4 a4bd 5ebd 923e 00b7 3ebe
00000110: 9c82 113c 6067 91be e3f3 213e 483e 433e
00000120: 0984 e8bb 2561 e7bd 7f32 a83c 4e56 afbd
00000130: d318 b43c 95bd ac3c 7969 c43d 2204 e23a
00000140: d1bf a63c 4977 433e 3446 8e3e 7ade 9ebd
00000150: b367 05bd d6af 0dbe d7a2 ce3c 6c88 2bbd
00000160: b4ab 94bc 4b21 ffbe b579 1c3e 1aef 8e3c
00000170: 6bce a73c 1c1e 09be d2bd 833d b316 023e
00000180: e4a3 263d 1549 c4bd 01eb e6bd aad9 983c
00000190: 145f 46bd ebff 2cbc fe1b 2cbd e8e3 6bbd
000001a0: b579 c6bc b32b 53be 8f41 583e c323 293d
000001b0: 97d9 7bbb 16c3 b73e abe9 e5be 2010 423e
000001c0: 0d4d b43c 2354 2b3d 723b 1d3d 2fa4 70bd
000001d0: f31f 17bd c511 9a3c 7730 483e 04c5 243d
000001e0: 93dd 8f3c aee9 913e 219c d0bc 35c3 223d
000001f0: b9f2 0cbd 766e 933d 5282 62be f485 ae3d
00000200: 6f78 f43c 842b 113e 511b eebd 3c0b b03d
00000210: d341 cbbc 9d13 a23e 6d52 5fbe 80ad 613e
00000220: 876e fdbc 53ae e8bd 533c 063e 09b6 29bd
00000230: c841 ef3c 1621 35bd 59fe 8a3e 466b b23c
00000240: 9e7b 2abb bc31 383e 58c3 14be 2ec5 0a3b
00000250: d7ed 28bc 1123 2c3d 959f 84be 16ae 16bd
00000260: 90fb b23b 74fd 2abf 671b cebd 7809 013d
00000270: 2dac 9a3c c865 9ebd d6d9 be3d d621 983b
00000280: 4f4a 7eba faeb f2be 4e1b 8cbe 4a26 95bd
00000290: 0e64 8c3a 7b49 83bd 9559 9cbd cb2c 043e
000002a0: 2b08 a2bb af66 1ebd 3939 9c3e 34dd a6bd
000002b0: 79f5 74bc 7604 2dbe d356 01be 7501 55be
000002c0: e3d0 0c3d 707e 23bd 92d0 57be 2fe7 d03c
000002d0: 8fd2 c2bc 41e5 9cbd 2918 aa3e 5b6b 1fbe
000002e0: 34c7 96bd af86 883e 1b4d f93d d440 fa3d
000002f0: 345d 4c3d a6fe 24bd 1593 ad3d 249f 123e
00000300: ddb8 7d3c 33e3 f03e 222d 2d3d 911b 073e
00000310: aea6 8eb8 8d13 8e3e 94cb 14be 919d adbe
00000320: c03a 533d 3a4e 7fbd 4148 acbe aad4 863d
00000330: c66d 313d 1394 2a3d eca7 063f 23a1 aabe
00000340: 5028 e9bd bd25 48be 6809 3d3e df7f 02bd
00000350: 1b26 763d 5d6d d1be ae11 8b3d 22d6 39be
00000360: ce6f 48bb 6b2d 433e 626d dabb cef1 073c
00000370: b3e1 993c 80cc a03d 8fb2 773e 10f4 76be
00000380: 4be4 9fbc c23d 45bc 1fe5 d1bb 46e3 dd3c
00000390: f49c f43c c3fa 5d3e f86c 17bb 4d68 cc3d
000003a0: 3cc7 9cbc 8b42 9bbb 2e42 9f3b bc09 d53b
000003b0: 2a10 893a b944 533e 2763 99be d4cf ac3d
000003c0: 8b48 4dbc 4be9 a73e 2f5c 82bd 81ef c8bd
000003d0: bc37 a93d 705f 7d3e 3641 78be e4f1 febe
000003e0: b345 113d b35f 383f fa04 153e 915c f93c
000003f0: 7698 28bc d02d 92bd 21b1 8d3d 373d 3fbd
0.033227507 0.16092426 -0.13552007 0.072416045 -0.046019625 0.17794284 0.087806135 0.10226562
-0.027188115 -0.22257233 -0.22023843 -0.046997495 0.02723808 0.07915517 -0.119819894 0.113892116
-0.11825815 -0.42969987 -0.06811822 -0.08340219 -0.003766135 0.1015527 0.16524245 0.24053046
-0.008978883 -0.022784783 -0.062345747 0.094659686 0.025162397 0.057960864 -0.0020414724 -0.03447013
-0.04064486 -0.2675685 0.11385582 -0.41236046 0.12087029 -0.46758988 0.4262531 -0.28750017
-0.0016325044 0.091660194 0.33038884 0.04237363 -0.0035733837 -0.09033126 0.2785076 -0.24663058
-0.016166573 0.3021013 0.11861955 -0.016018236 -0.008926587 -0.058514316 -0.09651042 -0.21139222
0.0064473986 0.32097512 0.23251963 0.12250865 -0.0045872102 0.2619265 -0.022796584 0.10148825
-0.017375475 -0.08054496 0.286601 -0.18624496 0.008881237 -0.2839918 0.15815692 0.19066727
-0.007095818 -0.11297826 0.02053189 -0.08561383 0.021984493 0.021086494 0.0959043 0.0017243663
0.020355137 0.19088472 0.27787936 -0.07757278 -0.0325696 -0.13836607 0.025224132 -0.04187815
-0.01814828 -0.49830088 0.15280803 0.017447997 0.02048417 -0.13390392 0.0643269 0.12703972
0.040683642 -0.09584252 -0.11275292 0.018658478 -0.048430517 -0.0105590625 -0.042018883 -0.057590395
-0.024227956 -0.20622139 0.21118759 0.04129387 -0.0038429254 0.35891026 -0.44904837 0.18951464
0.022009397 0.041828286 0.03838677 -0.058750328 -0.036895704 0.018807301 0.19549738 0.04022695
0.01756171 0.28498596 -0.025465073 0.039736945 -0.034411166 0.07198803 -0.22120026 0.08521643
0.029842583 0.14176756 -0.11626304 0.08595893 -0.02481166 0.3165559 -0.21808787 0.22038841
-0.030936493 -0.11361375 0.1310895 -0.041433368 0.029206172 -0.044221006 0.27147177 0.021779668
-0.0026013623 0.17987722 -0.14527643 0.0021174657 -0.010310612 0.04202563 -0.25903 -0.036787115
0.0054621175 -0.6679299 -0.1006382 0.03150317 0.018880928 -0.07734257 0.09318893 0.0046427054
-0.0009700404 -0.4744566 -0.27364582 -0.07282694 0.0010710971 -0.064105 -0.07634274 0.12907712
-0.0049448214 -0.038672145 0.30512407 -0.0814766 -0.014951103 -0.16896233 -0.12630777 -0.20801337
0.034378897 -0.039915502 -0.21075657 0.025500862 -0.023782043 -0.07660914 0.33221558 -0.15568297
-0.07362214 0.26665255 0.1217291 0.12219396 0.049893573 -0.040281914 0.08475319 0.1431852
0.015485969 0.4704834 0.04227937 0.1319411 -6.802134e-05 0.2774929 -0.14530784 -0.33909276
0.0515697 -0.062330462 -0.33648875 0.06583531 0.04331758 0.04164512 0.5259998 -0.33326063
-0.11384642 -0.19545646 0.1846062 -0.03186023 0.060094934 -0.4090375 0.067904815 -0.18148091
-0.003058422 0.19060294 -0.0066658715 0.008297397 0.01878438 0.07851505 0.24189208 -0.2411654
-0.019518038 -0.01203865 -0.006405487 0.027085911 0.029859997 0.21677689 -0.0023105722 0.09980831
-0.019137971 -0.004738157 0.004860184 0.0065014046 0.0010457088 0.20631684 -0.2995846 0.084380776
-0.012529503 0.32795176 -0.06365239 -0.09811307 0.082625836 0.24743438 -0.24243626 -0.49793923
0.03546686 0.72021025 0.1455268 0.030439647 -0.010290256 -0.07137644 0.0691855 -0.04668924

blocks.0.attn.b_Q f4 [4, 8]
00000000: 5829 a23c 4038 7f3e 353c b33d 5fed ae3d
00000010: aea6 5cbd 529b cfbd 5f0a 6c3e 94dc 95bd
00000020: 0fbe c1bc d9c6 7d3d 869f 13ba ce16 17bb
00000030: bc68 8dbc 1343 373e e116 25bd f191 263e
00000040: a1b9 1a3e 6b83 a7be e8a1 573d 25e2 c6bd
00000050: cbd7 3d3d 7098 2dbe 4533 533e 7e2a 9f3e
00000060: 0869 863d c685 9b3d 9ae0 ba3d eac2 b7bc
00000070: 6e66 febc ec18 9f3d af7d c0bd 706c d83d
0.019795105 0.24923801 0.08751718 0.08541369 -0.053869896 -0.10137047 0.23050831 -0.073174626
-0.023650197 0.061957214 -0.0005631376 -0.0023054364 -0.017261855 0.1789668 -0.040305022 0.1626661
0.15109874 -0.3271745 0.05264464 -0.097111024 0.046348374 -0.16952682 0.20625027 0.31087106
0.06563002 0.07593875 0.091248706 -0.02243181 -0.031054702 0.07768425 -0.09398972 0.10567558

blocks.0.attn.W_K f4 [4, 32, 8]
00000000: 7b48 823c b4de b73d e062 a4bd 53ea 9ebc
00000010: 8b70 263b 26bf 833c 620a 11bd e54f ebbd
00000020: d89c 51bc 4a00 0bbe 67d5 193e 09f5 f3bc
00000030: 7059 8cbc 9d55 29be 8b7a d63d 0f25 e53d
00000040: 98db 70bd 412e 3abf 3f09 8a3d 03ab 88bd
00000050: da2a 02bb fa6c a2bd bd09 623e 8983 b7be
00000060: 0f71 7d3d 8da7 05be b204 28be 6854 24bd
00000070: 77be d1bc d656 923e d66a 4ebe 7dba 193e
00000080: 6444 e03d d2e4 11bf 1df3 043e 4737 d83d
00000090: 1ef9 e53d 8360 94bd 748d 9a3e f685 7c3e
000000a0: e84e 293d 9945 e93d 11fc bdbd 4d32 04bd
000000b0: 107c 73bd a64e b6bd 80fc df3d fcb9 a7bd
000000c0: 3fee 77bc 520b 9ebd fdf3 323e 4260 f53c
000000d0: aa37 a53c a729 1ebd 857e eb3d ad99 11bd
000000e0: 7d27 e63b f3af e43e be74 2e3d c534 223e
000000f0: a86f 4fbd 4997 9f3e 43ba 97be 80c3 34bd
00000100: a076 c8bc 8558 f2be f343 833c 1c79 913d
00000110: 3213 c33c 2135 e63e 2ec1 7abe 1c96 d5bd
00000120: 35e5 34bb a80c b4be bc91 07be f07e a23d
00000130: 2a42 dfbb f2d6 213e bfcf 62be 2fae 9f3d
00000140: 4e52 213d 5d74 d53e 536a 5f3e e377 843d
00000150: 73df 4abd ead9 903b b504 ab3e 958a 5fbe
00000160: 7234 6abc a690 dfbe 63a3 2a3e 08d6 ad3d
00000170: eb0e d4bc 042e 583e 01d0 ccbd dba4 c73c
00000180: fdd5 803d 83dc fb3e c0be 4e3e 1ca8 7c3d
00000190: e664 63bd 6686 88be 5f17 f93e bc76 c0be
000001a0: 1c9a ef3c 0a4e a73e 7a4e a7be 953f d6bc
000001b0: 83d2 b83c 1515 c03e b1b8 83be 97b8 14be
000001c0: b5b2 93bd 1b43 40bf 2f49 9f3e 2c92 0c3c
000001d0: 9705 4e3d 94cf 82be 14f6 0a3e 4fd5 b1be
000001e0: 74af e3bd 095d 313e 3957 f93c 7b83 8fbd
000001f0: 4e13 3b3c a8aa af3d 7342 b23d 0c11 4bbe
00000200: e596 d1bc 4665 163e fe7c 38be b01e 773d
00000210: 6b35 483d c7de e0bd ccec 0bbe 1f70 753e
00000220: 924e 193b 7ace f73d f5c6 ff3c 40a5 c63c
00000230: 1953 bf3b dd56 cf3d aab0 3fbd 3718 2f3c
00000240: 9489 5ebc 89a0 bebc 2c2d 04bd 43e8 b1bd
00000250: ee68 c83c 0558 44be 81c5 143c 903a 91bd
00000260: 5334 30ba 01ea f9be b6da 213e 1583 a33c
00000270: 24f3 0bbd ce86 163e 7e67 cebe cb2e ecbe
00000280: f42f 5a3c 5256 1abe bb93 69bd ecc7 26be
00000290: f95f 09bd 9ac2 dfbe c3b5 163e cbc4 c2bd
000002a0: d501 29bc 61ef 3c3d 7da9 00be c3fc 573c
000002b0: 94e5 073c 8b09 453c 2de8 283e 5d11 75be
000002c0: 4e28 0e3d c933 563e ce6c 7bbe 5244 8d3d
000002d0: 991b 39bd 3a15 403e 66c7 da3d a18b fcbd
000002e0: abc3 b83b 3f55 a3bd b9fe e2bd 7113 eabc
000002f0: f22a 2e3d 9277 363e 3cc8 433e 98f5 603c
00000300: e4e3 5c3d 385c 2b3e 65f2 fbbd 3ada 9dbe
00000310: 35f7 ae3c dbf8 e6bd 1a9e 18bd 6deb 4fbe
00000320: fed3 683b 99fe 95be 860e 2b3e 15b5 29bd
00000330: a22e d33c 9bb8 2abe 13f5 053d 1622 033e
00000340: d089 80bc 178c 79bd 8314 453d 48e2 6b3e
00000350: e49c 57bd 4916 ae3e c8ad 07bd 3b24 e3bd
00000360: f326 673b ad5f 943d cafe 623a f4e8 713e
00000370: 0cde c4bc 151a 37bc 571a d63e 58c5 583e
00000380: 0516 37bc eb9c cb3d 25db 66be 1758 ea3d
00000390: 2785 febc 2078 283e 29e5 b3be 9e61 d73d
000003a0: b68c 8dbc 7c43 40bb 354e bd3e 7b0e c53c
000003b0: 8ff5 323c 139c 6a3e 6671 8ebe 578d 09bd
000003c0: e450 ddbd be1b 84be 4721 8fbd bf17 54be
000003d0: a551 233d 096c 5d3d 277e 4cbe 6eb6 183e
000003e0: 5662 803d 65a7 cd3e adca ec3c bcf3 173e
000003f0: f6f9 0ebd 5c74 cebd 1545 f6bd bf0f c3be
0.015903702 0.08978024 -0.080266714 -0.019398844 0.002539667 0.016082358 -0.035410292 -0.11489848
-0.012793742 -0.13574329 0.15022813 -0.029779928 -0.01713249 -0.16536565 0.10472592 0.11188709
-0.05880317 -0.7272683 0.06740045 -0.06673243 -0.0019861967 -0.07930942 0.22074027 -0.3584254
0.0618754 -0.13052197 -0.16408041 -0.04011956 -0.025603516 0.28581876 -0.20157942 0.15012546
0.109505445 -0.5698978 0.12983365 0.10557418 0.11229156 -0.07244971 0.30186045 0.24660477
0.041335016 0.11390228 -0.092765935 -0.032274533 -0.059444487 -0.0890172 0.109368324 -0.081897706
-0.015132486 -0.07717003 0.17475887 0.029953126 0.020168144 -0.03861394 0.11498741 -0.035546947
0.0070237503 0.4466549 0.042591803 0.15840442 -0.050643593 0.3117011 -0.29634294 -0.044131756
-0.024470627 -0.4733316 0.016023612 0.07103178 0.023812864 0.4496241 -0.24487755 -0.10429022
-0.0027602438 -0.35165906 -0.13239187 0.07934368 -0.0068133073 0.15804651 -0.22149561 0.07796895
0.039385132 0.4169034 0.21817903 0.06468179 -0.049529504 0.0044205086 0.3340203 -0.21830209
-0.0142947305 -0.43665045 0.1666389 0.08488089 -0.02588602 0.21111304 -0.10000611 0.024370601
0.06290815 0.49191675 0.20189953 0.06168376 -0.055516146 -0.26665038 0.48650643 -0.37590587
0.02924829 0.32676727 -0.3267706 -0.026153365 0.022561317 0.37516084 -0.25726846 -0.1452354
-0.0721182 -0.75102395 0.31110522 0.008579772 0.0502983 -0.25548995 0.13570434 -0.34733054
-0.111174494 0.17320646 0.030437099 -0.070075 0.011418177 0.08577472 0.087040804 -0.19830722
-0.025584647 0.1468707 -0.1801643 0.060332 0.04887907 -0.109799914 -0.1366455 0.23968552
0.0023392779 0.12099929 0.0312228 0.02424872 0.0058387634 0.1012399 -0.04679934 0.010686926
-0.013582606 -0.023269909 -0.03226964 -0.086868785 0.024464097 -0.19174202 0.009080292 -0.07091248
-0.0006721664 -0.48811343 0.15806088 0.019959966 -0.034167424 0.14699861 -0.40313333 -0.4612945
0.013317097 -0.15071991 -0.057025652 -0.16287202 -0.033538792 -0.43703157 0.14717774 -0.095101915
-0.010315378 0.046126727 -0.12564655 0.013182822 0.008294482 0.012026201 0.16494818 -0.23932405
0.034706406 0.20918192 -0.24553224 0.06897797 -0.045192335 0.18758097 0.106825635 -0.123313196
0.00563856 -0.07975244 -0.11083741 -0.028573724 0.042521425 0.1781905 0.19119352 0.013730429
0.05392827 0.16734397 -0.123020925 -0.30830556 0.021358112 -0.11277934 -0.037260152 -0.20304652
0.0035526748 -0.29295805 0.16704759 -0.04143246 0.025779072 -0.16671984 0.032704424 0.12805972
-0.015690714 -0.060924616 0.048115265 0.23035538 -0.052639857 0.34001377 -0.033124715 -0.11090895
0.0035271018 0.07244811 0.00086591823 0.23624021 -0.024031661 -0.011175652 0.4181697 0.2116903
-0.011174683 0.09942039 -0.22544535 0.11442583 -0.031069351 0.16452074 -0.35135773 0.10516666
-0.01727901 -0.0029337099 0.3697373 0.024054756 0.010922804 0.229111 -0.2782089 -0.033582058
-0.10806444 -0.25802416 -0.06988769 -0.20712183 0.039872784 0.05405811 -0.19969998 0.14913341
0.06268756 0.40166774 0.028905237 0.14839071 -0.03490635 -0.100807875 -0.12024895 -0.3809795

blocks.0.attn.b_K f4 [4, 8]
00000000: 2e2f ae34 a0d3 5d36 27ba b9b5 a05c f635
00000010: addb 14b4 6a30 e235 f8fb b435 cb50 0cb5
00000020: 8527 2935 3ed4 bb33 0054 8f35 70a4 cb35
00000030: d6d4 bd35 898b e6b5 139b a634 b261 dbb5
00000040: 3a45 c1b4 bde8 6eb6 2f04 9fb5 f4f7 3836
00000050: a971 0cb6 59fc ac35 b083 8bb5 9b2a 0db6
00000060: 4307 0336 e67e b7b5 c555 1836 df94 f435
00000070: 4b94 d1b5 be70 ab35 855f 82b6 d001 5436
3.2444353e-07 3.3054748e-06 -1.3837752e-06 1.8355386e-06 -1.3863492e-07 1.6852402e-06 1.3484378e-06 -5.2271633e-07
6.3014915e-07 8.746473e-08 1.0678777e-06 1.5172536e-06 1.4143541e-06 -1.7176945e-06 3.103274e-07 -1.6345205e-06
-3.599942e-07 -3.5600235e-06 -1.1847641e-06 2.7562464e-06 -2.0927785e-06 1.2888441e-06 -1.0394633e-06 -2.1035437e-06
1.9524748e-06 -1.3671495e-06 2.269969e-06 1.8222744e-06 -1.5614872e-06 1.2773305e-06 -3.885422e-06 3.1591517e-06

blocks.0.attn.W_V f4 [4, 32, 8]
00000000: 57cb 513e 83ac 8f3e 0bb3 b3bd 4a0a 9f3d
00000010: f998 0abe d51b c0be 7845 56be e222 01be
00000020: 8905 72bd 2daf 5fbd 08c3 253f 0da7 55bd
00000030: ab92 ecbd d831 a7bd fe12 6cbd 97a5 663e
00000040: 3daa 2e3c 148a 5fbe 90cf c83d d1f0 553e
00000050: 26bd c83d d06d 17bc 9a49 c3bc 9f14 933d
00000060: a744 12be e995 2dbe 1550 673d f867 ae3d
00000070: 65a4 063e e905 0b3e 0f7d 163e a009 d43d
00000080: 8fbc f6bd 6c67 a3bd a894 cd3d 9d1e a2bc
00000090: 2c32 38be 0397 f23d c4fe 5abd d814 e13d
000000a0: b690 82be 0d78 e43c 656d 53be c762 96be
000000b0: dd54 1dbe b001 883e c2ea 0a3d aa2f a0be
000000c0: 68c7 7ebe ebd9 813e 3c0d fa3c 55fd 4d3d
000000d0: d2a2 e4bd f79f 2a3f 52ac 703c 7fdb dbbe
000000e0: 79c6 96be 981c 053c b2c5 323e 73c1 823e
000000f0: 48b3 cc3c 7498 e4bc f1ff a03e 95bb ed3d
00000100: 3b02 283e 4222 19bf 8444 d1bd 65f5 1ebe
00000110: e361 db3c cfc9 cebd 5c62 cd3e 6100 153c
00000120: 2b43 9bbd 86f2 2a3e ca1d e5bd 7066 3f3d
00000130: 84b5 babe 1276 053e 2ebd 0dbd 702b 23bd
00000140: ee5e 253e 6ae9 d33d d84a 363d 0b17 f3bd
00000150: 9113 043e 0976 4cbe 1acf db3d 1eb4 863e
00000160: 0197 e93e 6a78 293d 3af7 8a3d c1c8 0fbe
00000170: fb12 35bd 5c9d d73e 5217 413d cf0b b03e
00000180: 206a debd c382 773e 224f 8f3e 96a1 5d3e
00000190: 2ec5 4f3e 2c01 95be 8834 95bd c72d 0d3f
000001a0: b4cb 493e 8f53 d7be 63a8 10be 3c04 1a3d
000001b0: 7c41 d2be 53fd a13e 9ef5 7dbe 31c0 a6be
000001c0: 7686 c3bc 36ef 1dbe 7774 393d 2fa6 bc3d
000001d0: d6f1 223d 36ba 623c 7b2d ef3d 5356 323e
000001e0: 6c84 9f3e 5080 c7be 31d1 a73e 4a65 96be
000001f0: 9f6a 073f c9c2 243e 375e 97bb 2521 9cbd
00000200: c941 853e c67a 8b3e ac22 253e 1558 7ebd
00000210: d447 81be 5c96 3fbe 1cfa 8cbd 418f 36bd
00000220: 5030 773c 9095 10be 2551 23be 3010 753e
00000230: 2ca0 c23e 5224 7bbe 8316 583f a234 a73d
00000240: 14ad 09bf deb7 96bc b5c0 32be ffc0 183e
00000250: 4363 013e b24a 49be 3077 c9bd 7bed 603e
00000260: b6c5 943e 234f 08bf 2bc5 bfbe f0e4 83be
00000270: a8db e93e 4626 30be 3490 0cbe 8214 4f3e
00000280: b6ff fc3d 371a 0fbe 6615 063d 2a89 d03b
00000290: fe0f e3bd bcc1 1bbd b50c a93c 5fbc 9f3d
000002a0: 18ea 77be 3a94 11be 6c85 95be 4ef3 103c
000002b0: e0da 80be 7a66 4ebe 3cb1 503e ef45 683e
000002c0: ff3a 393e 8c4d 6fbe 06fc 1e3d 9e2d cb3d
000002d0: 62bc 25bd 5071 ecba 0505 dfbd bf9a 823c
000002e0: e846 4a3e 9c1c a2bc 5fe7 943d 8947 a03e
000002f0: 25e1 533d a625 423e 8a07 27bd 3bc3 023f
00000300: f05b ff3e 86d3 8e3d e813 373c d796 90be
00000310: c2ca 8abe 7c46 7ebe 9ecd 053e f739 e43e
00000320: df4d 83be 6fb3 3d3e f970 5b3e d4e1 0c3e
00000330: a790 acbd 1f74 bc3d 73d0 c43e f8e7 773c
00000340: 2160 a4be 8616 cabc 3812 d93e 4b10 1d3f
00000350: c122 0e3e 04a4 873d 4f8a c23e cbae d03d
00000360: aa97 39be eaa6 bcbe 3831 073e d346 b2be
00000370: 2191 d5be cbb5 9bbc d441 4b3e b00f 7f3e
00000380: db9a b93c a1f1 f4be 4499 1abd d5b6 e63b
00000390: 2d61 d0bd e413 0b3e bb2d 663e b4dd b63d
000003a0: b672 7ebe fe14 79be 2b13 25be dc18 6f3d
000003b0: 47f8 433e f48c 973e 1168 493c a528 af3e
000003c0: fb2d 4e3e 6aaa b6bd ca2a 873e 04b3 473d
000003d0: 2680 94bd 5bdd 6bbe 7135 c6be 2a1d 263c
000003e0: ee72 463e f381 a0be 21b8 5d3e 3602 abbc
000003f0: 3216 98be 8aec c1bd e9a8 d0be 78dd 94bd
0.20487724 0.28061303 -0.08774384 0.07765634 -0.13534917 -0.37521234 -0.20924938 -0.12610963
-0.05908731 -0.05461042 0.6475072 -0.052161265 -0.11551412 -0.08163804 -0.0576353 0.22524105
0.010660705 -0.21830016 0.098052144 0.20892645 0.09801702 -0.00924249 -0.023838807 0.071816675
-0.14284001 -0.16951717 0.056472857 0.08515924 0.13148649 0.13576473 0.14696144 0.10353398
-0.120476834 -0.079787105 0.100381196 -0.019789988 -0.17987889 0.118452094 -0.05346562 0.10990304
-0.2550103 0.027889276 -0.206472 -0.29372236 -0.15364404 0.26563787 0.03391529 -0.31286365
-0.24880755 0.2536157 0.030523889 0.050290424 -0.11163868 0.66650337 0.014689522 -0.429409
-0.29448298 0.008124493 0.17458227 0.25538215 0.024987832 -0.027904727 0.31445268 0.11608044
0.16407101 -0.598179 -0.102181464 -0.15523298 0.026780074 -0.10097086 0.40114105 0.009094329
-0.07581171 0.16694078 -0.111873224 0.04672855 -0.3646661 0.13033321 -0.034604244 -0.039836347
0.16149494 0.103472546 0.04450497 -0.118696295 0.12898089 -0.19966902 0.10732861 0.26309294
0.4562302 0.0413746 0.06785436 -0.14041425 -0.044207554 0.42112243 0.04714138 0.3438401
-0.108600855 0.24170975 0.2799006 0.21643671 0.20290062 -0.29102457 -0.0728541 0.55147976
0.19706613 -0.42055938 -0.14126734 0.037601694 -0.41065586 0.31638584 -0.24800727 -0.32568505
-0.023867827 -0.15423283 0.045277085 0.092113845 0.039781414 0.013838341 0.116785966 0.17415743
0.31155717 -0.38965082 0.32776788 -0.29374152 0.52897066 0.1608993 -0.0046193856 -0.07623509
0.26026753 0.27242106 0.16126508 -0.06209572 -0.25250113 -0.18709701 -0.06883642 -0.04457021
0.015087202 -0.14119554 -0.15948923 0.23931956 0.38012826 -0.24525574 0.8440935 0.08164336
-0.5377972 -0.018398222 -0.17456324 0.14917372 0.12635522 -0.196574 -0.09837186 0.21965592
0.2905709 -0.53245753 -0.37455115 -0.25760603 0.45675397 -0.172021 -0.13726884 0.20222667
0.123534605 -0.13974844 0.03273525 0.0063640075 -0.11087035 -0.038026556 0.020635942 0.07799601
-0.24210393 -0.142167 -0.29203355 0.008847071 -0.25166988 -0.20156279 0.2038011 0.22682928
0.18088911 -0.23369426 0.038814567 0.0992081 -0.04046286 -0.0018039141 -0.10889629 0.01594293
0.19753611 -0.019789033 0.07270693 0.31304577 0.051728386 0.18959674 -0.040778674 0.5107915
0.4987483 0.06973939 0.01117418 -0.28240082 -0.27107817 -0.24831575 0.13066718 0.44575474
-0.25645348 0.1852548 0.21429814 0.13758022 -0.08426028 0.09201836 0.38440284 0.015130989
-0.3210459 -0.024668943 0.42396712 0.61352986 0.13880445 0.066230804 0.37996146 0.10189589
-0.18124261 -0.36846095 0.13202369 -0.3481966 -0.41712287 -0.019007584 0.1984933 0.24908328
0.022656849 -0.47840598 -0.03774382 0.0070408382 -0.10174785 0.13581806 0.22478382 0.08929005
-0.24848446 -0.24324414 -0.16120593 0.058373317 0.19137679 0.29599726 0.012292878 0.34210697
0.20134728 -0.08919223 0.26399833 0.048754707 -0.07251005 -0.23033659 -0.38712648 0.010138789
0.1937978 -0.31349143 0.21652271 -0.020875078 -0.29704434 -0.09468944 -0.40753868 -0.07268804

blocks.0.attn.b_V f4 [4, 8]
00000000: 7ac0 b0bd 90ac 263d 1f17 3b3e d081 bdbe
00000010: 47f0 aabd c35e e53d 1bf1 f8bd c58f 013e
00000020: 33f9 a83e 8eb0 03be 063e 9f3d 0236 f83d
00000030: 9066 25be 226e ca3d 0f27 f53d bc2d 783d
00000040: 7a46 523e 6c50 d7be c5ad 9a3d 1b9c 6b3d
00000050: 6dc2 23bc 7e42 0bbe 498b f5bd e886 363d
00000060: 6d7e 3dbe 5cb9 16be f3e7 753d 3ca5 a8bd
00000070: d17b 8fbc 2e9d 013d 9f74 203e dc0a 70bd
-0.08630462 0.040691912 0.18270539 -0.37013102 -0.083466105 0.11199715 -0.12155362 0.126525
0.33002624 -0.12860319 0.07775502 0.12119676 -0.16152406 0.098842874 0.119703405 0.06059049
0.20534697 -0.42053545 0.07552675 0.05752192 -0.009995085 -0.13599584 -0.11989457 0.04456225
-0.18505259 -0.14719146 0.060035657 -0.08234641 -0.017515095 0.03164404 0.15669487 -0.058604106

blocks.0.attn.W_O f4 [4, 8, 32]
00000000: d186 d83a 879f 95be cf30 91be cadb 0b3e
00000010: 1b43 da3e b880 3f3e 9fc8 4cbe 27b4 ddbd
00000020: b5fa 033e 1ee0 d0bb 19bd 443d bd57 233e
00000030: 7652 01bf 6727 ab3e 268d cebd afc7 0fbd
00000040: d356 c0bd 2479 e4bd c9d5 213e d032 eabd
00000050: 43a7 c1be 7f8d 293e b7cf 59be cca1 933e
00000060: 6d59 11be bdc2 523e f5ef 9abd abe1 49bc
00000070: 21c5 823d 182f e43d 2d3a 16bf 627a 363e
00000080: a04c ad3d 06e1 1fbf 6502 1dbe 8f68 2c3d
00000090: 190d f13b 4b4a 1c3f 997c eb3d afbb c0bb
000000a0: 6370 ff3c 7b22 b73c bb2d 543e 8bc9 d4bd
000000b0: 7840 a9be 1257 1ebe faf4 ddbd 72a7 373d
000000c0: 8bb5 843e 65b0 833c f7a0 f73d 1bdc 58bc
000000d0: eb47 633d b7b4 88bc 5ba1 acbd f667 e4bd
000000e0: 5e60 71be db71 b3bd fd43 9e3d 29b9 6b3e
000000f0: ea6b babd 53a2 273e 0c14 8b3d 2681 a2be
00000100: 643a 97b9 83d3 9a3e fe74 6abc a878 023e
00000110: b55a 3c3d e3f8 c6bc 9c84 33be ebab e0bd
00000120: b5b4 20bd dadf 98be 46b1 12be 6e60 46be
00000130: 1a14 9f3e 8b1d c6bd c43d ad3e cd18 0f3f
00000140: de4b d6be 9960 563d 0cbc c1be df50 8fbd
00000150: 6220 cebd 3929 1f3c 1c95 a13d 3ce9 efbd
00000160: d559 b13c 95dd 183e add6 bdbe 4608 9a3c
00000170: dfcf 49bb 63af a83e 920a 8dbe 4c33 bc3e
00000180: d73d ebbd 25c5 9e3e 7081 00bf ebbb d93d
00000190: 4005 9d3e 74df 463d e78f dd3e c2be b2bc
000001a0: 1e11 363b e12c 98be b873 d03e d10a 973d
000001b0: e589 783d bf40 873e 6535 a3bd 256d 18be
000001c0: f3e3 f4bd 976c 07be 1d38 123e 419c 9bbd
000001d0: a776 b3be 9459 10be 2e21 b93d 2ca5 093e
000001e0: 8631 923d e13d b83d bf35 ccbd 41a2 663e
000001f0: d203 543e 39cc 8ebe 8952 8bbd 196f d8bc
00000200: 0712 063e 8639 3dbe 9444 fd3c e96e 12bf
00000210: 3e20 e8bd 54da d13e 35fb efbe fadb cbbe
00000220: a76b 943e 699e c83d e754 563e 7b22 a03d
00000230: 0239 46be c9ab 9bbd 50d0 96bd c1c7 2b3e
00000240: dd13 79be d501 f4bc a9b3 963e 55b1 3f3d
00000250: 7094 38bd bd8c 883d b43f 6e3d 2a32 3d3d
00000260: 9c4e ae3d 1353 f0bd d366 25be 0983 233e
00000270: ee68 8cbd 148f 11bd 768a fabd cbd1 19be
00000280: 0267 563e 1d4a 35bd 1a20 4a3e 0184 9fbd
00000290: 0786 133e 9ed3 ef3d 9ac0 94bd 685c 983e
000002a0: ab1b 843e 14fa 92be 6583 003c 501e d43d
000002b0: 4237 91be a3fd fd3d 5be5 c5bd e517 66be
000002c0: bf6f 0cbe 9806 a43e c729 c8be 170d 88ba
000002d0: d10a 8a3e 9063 19be 39e2 813c 475e e13e
000002e0: f443 33be 73ca c53d 24d3 b3be a52e adbc
000002f0: 94b4 86be b1b6 b03d e946 01be 1c3f 3b3e
00000300: 60cd b5be 23b5 5bbd 33ca 0e3e 3f9e 8f3d
00000310: 36ad 583e b73f ef3d f9e8 3a3e 4434 3fbd
00000320: f0b9 b5bd 89c4 923d 17b9 63be 9b0d d2bd
00000330: 7e4b 3cbd 3842 963e c0a7 adbc d7ff a03d
00000340: f0a1 c33d 7ace b73e 06f8 89be 7773 ed3d
00000350: f6dd c3be 7d3a 7a3d c55d 0bbe 97a2 c33d
00000360: ffe7 bfbd d38e 733e ac2b 8bbe 2381 91be
00000370: 29ec e0bd e657 3f3e 69ed 0abe 904c 11be
00000380: 4236 0e3e 9280 2c3e 4f8d 983d c86a 1f3d
00000390: 7ccb f53e ab90 c5be 74e1 c03b 63f4 a63b
000003a0: 1f04 d5be 00ba febe 4ee5 893d d420 643e
000003b0: 57ee bcbd b54b b2bd f1ad 6a3d 878d efbe
000003c0: bac0 f23e 02fb fa3b 26bc 2bbc 1770 723e
000003d0: ee13 b13e 4beb 703d 5fa8 bdbc fd1a f63d
000003e0: d71d f23d a662 e23d a656 9d3e 1226 03be
000003f0: 7843 e0bd 0d02 acbe 7e92 9c3d 90f4 cb3e
0.0016519671 -0.29223272 -0.2835755 0.13658062 0.42629322 0.18701446 -0.19998406 -0.10825377
0.12888606 -0.006374373 0.0480319 0.15951438 -0.5051645 0.334285 -0.10085516 -0.035102542
-0.093915604 -0.11155918 0.15804209 -0.11435473 -0.37822923 0.16557883 -0.21270643 0.2883438
-0.1419427 0.205821 -0.075652994 -0.01232187 0.063852556 0.11141795 -0.5868252 0.17820123
0.08461881 -0.62452734 -0.15332945 0.042091902 0.0073562977 0.6105086 0.114983745 -0.0058817486
0.03118152 0.022355309 0.2072057 -0.10390004 -0.33056998 -0.15462902 -0.10837741 0.044837423
0.25919756 0.016075322 0.120912485 -0.013236071 0.05548851 -0.016687734 -0.084292136 -0.111526415
-0.23571917 -0.087619506 0.077278115 0.23019852 -0.09102614 0.16370516 0.06790933 -0.31739157
-0.0002884447 0.30239496 -0.01431012 0.12741339 0.045984942 -0.0242886 -0.17531055 -0.10970291
-0.039234836 -0.29858285 -0.14325437 -0.19372723 0.31070024 -0.096736036 0.33836186 0.5589722
-0.41854757 0.052338216 -0.3783878 -0.06997847 -0.1006477 0.009714418 0.078897685 -0.11714408
0.02164928 0.14928277 -0.37077847 0.018802773 -0.0030794067 0.3294631 -0.27547127 0.36757886
-0.114864044 0.31009784 -0.50197506 0.10631546 0.30668068 0.048552945 0.4327385 -0.021819476
0.0027781199 -0.2972174 0.40713286 0.0737511 0.06067838 0.26416585 -0.079691686 -0.14885385
-0.1195754 -0.13225017 0.14279218 -0.075981624 -0.35051462 -0.14096671 0.09039532 0.13441914
0.07138352 0.089961775 -0.09971189 0.22522832 0.20704582 -0.27890185 -0.06802852 -0.026420163
0.13092814 -0.18478975 0.03091649 -0.57200485 -0.11334275 0.40986884 -0.46871343 -0.39816266
0.28988382 0.09795839 0.20930825 0.07819077 -0.19357684 -0.07601125 -0.07363951 0.16775419
-0.24323983 -0.02978603 0.29433945 0.046799976 -0.045063436 0.06667469 0.05816622 0.04619042
0.08511087 -0.11734595 -0.16152506 0.15967955 -0.06855951 -0.03553684 -0.122334406 -0.15021436
0.20937732 -0.044260133 0.19738808 -0.077888496 0.14406596 0.11710285 -0.07263298 0.29758
0.2580236 -0.2870642 0.007843827 0.10357344 -0.2836247 0.12401893 -0.09662887 -0.22470053
-0.13714503 0.3203628 -0.39094374 -0.0010379878 0.26961377 -0.14979386 0.015854942 0.4401724
-0.17506391 0.09657755 -0.35122025 -0.021140406 -0.26309645 0.086285956 -0.12624706 0.18285793
-0.3550825 -0.053639542 0.1394432 0.07012605 0.21159825 0.116820745 0.18252935 -0.046680704
-0.088733554 0.07166392 -0.22238575 -0.10256501 -0.045970432 0.29347396 -0.021198153 0.078612976
0.095523715 0.35899717 -0.2694704 0.11594289 -0.3825528 0.061090935 -0.13609989 0.09552496
-0.093704216 0.23784952 -0.27181756 -0.28418836 -0.10982544 0.18685874 -0.13567127 -0.14189363
0.13887885 0.1684592 0.074488275 0.038920194 0.4800681 -0.38586935 0.005886251 0.005095051
-0.41604707 -0.49751282 0.067331895 0.22278148 -0.09225147 -0.08705846 0.05729479 -0.46787664
0.47412664 0.007659317 -0.01048187 0.23675571 0.34585518 0.058818143 -0.023151575 0.12016866
0.11822098 0.11053972 0.3073017 -0.12807491 -0.10950369 -0.33595315 0.07645129 0.39835024

blocks.0.attn.b_O f4 [32]
00000000: fc4e 4abd 02e1 433e e0de 083e 8539 bf3d
00000010: 6119 97bc 38b0 11bd d061 a33d 122d 8cbd
00000020: fb49 c3bb 9eb6 19be 6d43 2cbe 3517 cd3c
00000030: c5b3 b13d b7dd fabd e784 c2bc 2253 583d
00000040: 9897 7d3e 3c01 b2bc a0aa d03c 3d7f 4bbe
00000050: 78af 183d c856 1cbe 070a 01bb d2c0 913d
00000060: cee0 4ebd e463 6a3d f236 07be 8770 0fbe
00000070: a4de 983d 92da 243c 0b02 18be 56cb 07be
-0.04939173 0.19128802 0.1336627 0.09337143 -0.018444719 -0.035568446 0.07977641 -0.06844534
-0.005959747 -0.15011069 -0.16822596 0.02503548 0.086768664 -0.1224932 -0.023745013 0.052813657
0.2476486 -0.021729104 0.025471985 -0.19872756 0.037276715 -0.1526748 -0.0019689815 0.07116856
-0.05050736 0.05722417 -0.13204554 -0.1400777 0.0746434 0.010061877 -0.1484453 -0.1326116

blocks.0.linear_expand.weight f4 [128, 32]
00000000: 2f8a cf38 003a 291f dcb8 0b39 4733 1338
00000010: d003 b0b9 5db5 8cb8 13ce acb9 1ea4 6ab9
00000020: ed6d 96b9 f2fd abb9 8c36 c039 abd1 e4b8
00000030: e753 8ab9 6e2e 3438 de49 8b38 234f 2d39
00000040: ce96 8bb8 0927 fc39 60de 6fb8 6dce 12b9
00000050: db3a c8b9 540b 91b9 e5a5 0b3a d171 78b1
00000060: e93f 6236 3ea8 a6ba 5838 5db9 558b 7239
00000070: f5d8 9b39 0424 85b9 8971 fdb9 8625 1238
00000080: 0a15 a9b9 66a3 d81d f370 89b8 909f 86b8
00000090: 9c6b e538 e067 22b7 1fea ba38 9932 4eb8
000000a0: f120 d1b7 e09b 7238 5646 31b9 ee85 0eb7
000000b0: 8ef5 1ab9 a348 1eb9 6824 88b8 c8fc cab9
000000c0: b495 bb38 f9ab 7738 4cff d138 772f f535
000000d0: 287e 50b8 f5e1 2b37 f51f 60b9 723a 6baf
000000e0: 3aeb 6136 5c06 cfb7 8285 8cb9 8137 3bb8
000000f0: 49ab e0b8 e40d 52b8 5a6d a4b8 f978 b0b8
00000100: d2d7 9639 35c1 051e d15c 98b8 f3c3 63b9
00000110: 2936 343a 74d5 ccb8 dd5a 7a39 543c 83b8
00000120: ab31 03b9 4f5a a238 788e 8639 6b02 9938
00000130: eb6c d6b8 0278 13b9 7abb 5938 495c 0a3a
00000140: 1404 fd39 e9e5 ad39 a049 2d39 2713 ad39
00000150: 474a cdb9 1d95 f438 3cea 3138 f7b4 b22f
00000160: 478b feb5 a818 0239 46a8 2f38 b7ae 9ab9
00000170: 354c 07ba 0dc3 b637 3a73 0139 0d4d 13ba
00000180: df89 21b9 aad8 c29f 20cb d9b9 cf63 86b9
00000190: 8ad5 dc39 a6e0 1c3a ea0e 143a b970 d8b9
000001a0: 4369 8fb8 aa59 ec39 d0c6 91b9 ca38 ba38
000001b0: 7e7e a0b9 ae91 b5b9 5539 0138 4f7f cab9
000001c0: 5b28 9a39 eaee 2939 ff91 ee39 f1c2 3439
000001d0: 4c22 1db9 239f f739 c594 83b9 380e f330
000001e0: fe14 c0b7 bfde 433a 7a43 a138 8f65 1bba
000001f0: 7442 12ba d750 52b9 3a9d 343a 9443 dab9
00000200: 550f 6338 5d23 b69c 282c 2539 91db 2c39
00000210: 0a7c 9bb9 9f34 e4b8 fb1a 7ab9 c86b 6cb9
00000220: 7d10 45b8 f0d0 8eb9 176e ce38 3cb8 05b8
00000230: 794b 01ba 1767 0db9 8a55 fdb7 5297 8d39
00000240: aed0 97b8 6ee5 0ab9 bebd 75b8 83c8 71b8
00000250: d5a2 c638 aaf8 35b9 74dc fa39 2b94 91af
00000260: 2d4b e535 c7f3 deb8 fd65 52b9 ec89 6e39
00000270: b87b 8939 8a87 eeb7 0c3d 3bb9 c846 5639
00000280: 5af8 8f37 ae6b 9f9d 040f e8b8 c028 efb8
00000290: bd88 7339 7e1d 0e39 af5f 2a39 78bf 2c39
000002a0: 6111 e837 779a 4139 cba8 64b8 0533 ac37
000002b0: 19a5 b039 8f57 cf38 5ed7 6c38 c787 3eb9
000002c0: 6c80 b638 5f64 0539 99cd bd38 7335 9538
000002d0: 212b b8b8 a0f5 f638 3884 cdb9 f70e 402f
000002e0: 263f dd34 03e2 6137 d703 3339 2ffe 23b9
000002f0: 3d20 42b9 257e 84b6 0e86 0b39 6e08 12b9
00000300: 5d19 a037 fd0f ac9d 2492 a133 ecc0 4137
00000310: 933b 4038 b30c d3b7 83f4 43b7 05eb 3838
00000320: e1ac 2b32 e425 9eb7 2c4a 8238 589a 0837
00000330: 5c0a 8837 4e71 bb37 4ce8 6738 c48b 8738
00000340: cffd d937 3e92 f636 efd2 4e38 558c 4738
00000350: 8af3 49b7 28fe 3d36 ea51 2c35 09c3 262f
00000360: 36d0 fdb5 af16 2a38 8a82 0c39 53d4 6937
00000370: 0cb4 fc36 a2a4 eeb7 cc1d d037 1aa5 9337
00000380: d5d2 93b9 647a 839d feb5 0839 3abf 0139
00000390: 5c7d 38b9 c9f9 75b8 ac7e 4ab9 f495 edb8
000003a0: d6e1 d3b7 15b2 7cb9 a1ed 3039 94d8 10b7
000003b0: 5109 e9b9 f0ba 23b9 1355 8cb8 330e 8739
000003c0: e96f 2db8 3274 b2b8 383e 4eb6 1887 abb7
000003d0: 0b77 8738 bc6a 2bb9 2dd4 9f39 ef3f d4ad
000003e0: 969b 8535 fa92 0fb8 b703 1bb9 99ba 5f39
000003f0: 9fd3 5a39 859d cdb7 61f9 e9b8 ecbf 3739
9.896268e-05 3.583512e-20 0.00013324938 3.5095287e-05 -0.00033572176 -6.709502e-05 -0.00032959934 -0.00022377117
-0.0002869213 -0.00032804866 0.00036661734 -0.00010910941 -0.00026383923 4.2958585e-05 6.641795e-05 0.00016528046
-6.656126e-05 0.0004809427 -5.7189143e-05 -0.00014000545 -0.00038190823 -0.00027664995 0.00053271494 -3.6153447e-09
3.3713825e-06 -0.0012714935 -0.00021097192 0.00023130824 0.0002972555 -0.0002539457 -0.0004834051 3.484406e-05
-0.00032249867 5.7343674e-21 -6.5537075e-05 -6.419339e-05 0.00010939615 -9.680138e-06 8.9127796e-05 -4.916135e-05
-2.4930081e-05 5.7842466e-05 -0.00016906238 -8.4950425e-06 -0.0001477806 -0.00015095113 -6.4917665e-05 -0.0003871678
8.944739e-05 5.904955e-05 0.00010013449 1.8267737e-06 -4.9708557e-05 1.0245004e-05 -0.0002137421 -2.139389e-10
3.3664533e-06 -2.4679284e-05 -0.00026802352 -4.4635966e-05 -0.00010713057 -5.008084e-05 -7.840498e-05 -8.414867e-05
0.00028771028 7.080916e-21 -7.265213e-05 -0.00021721404 0.00068745256 -9.767237e-05 0.00023875707 -6.257804e-05
-0.00012511636 7.741583e-05 0.0002566462 7.296059e-05 -0.00010224603 -0.00014063719 5.1911433e-05 0.0005278034
0.0004825896 0.00033168428 0.00016525993 0.000330114 -0.00039155988 0.00011662601 4.2418236e-05 3.2506595e-10
-1.896501e-06 0.00012406951 4.187997e-05 -0.00029503342 -0.0005161197 2.1786918e-05 0.00012345324 -0.00056190864
-0.00015405517 -8.2520637e-20 -0.00041540805 -0.00025632835 0.0004212077 0.0005984403 0.00056479743 -0.00041282715
-6.838378e-05 0.00045080233 -0.00027804682 8.879749e-05 -0.00030611822 -0.0003463155 3.080939e-05 -0.00038623295
0.00029403236 0.00016206098 0.00045503673 0.00017238759 -0.00014985463 0.00047230077 -0.0002509711 1.7684618e-09
-2.2897959e-05 0.00074718514 7.689647e-05 -0.0005927914 -0.00055793603 -0.00020057276 0.00068898837 -0.0004163055
5.4135297e-05 -1.2052891e-21 0.00015752076 0.00016484993 -0.0002965632 -0.00010881689 -0.00023851909 -0.00022546866
-4.6983816e-05 -0.0002724002 9.843351e-05 -3.1881253e-05 -0.0004932206 -0.00013485212 -3.0199782e-05 0.00027006358
-7.239111e-05 -0.00013246175 -5.8589263e-05 -5.764562e-05 9.4717056e-05 -0.0001735414 0.00047847966 -2.6480626e-10
1.7083709e-06 -0.00010631192 -0.00020065154 0.00022748829 0.00026222854 -2.8434926e-05 -0.00017856451 0.00020434998
1.7162576e-05 -4.2198288e-21 -0.00011065419 -0.00011403998 0.00023225225 0.00013553162 0.00016248108 0.00016474526
2.7664648e-05 0.00018463457 -5.4516637e-05 2.0527756e-05 0.00033692343 9.886838e-05 5.646736e-05 -0.00018170393
8.702357e-05 0.0001272126 9.050518e-05 7.114829e-05 -8.781837e-05 0.00011775945 -0.00039199158 1.7467615e-10
4.1210404e-07 1.34636675e-05 0.000170722 -0.00015639582 -0.00018513291 -3.9485917e-06 0.00013306012 -0.00013926785
1.9085297e-05 -4.5544552e-21 7.5237296e-08 1.1548615e-05 4.583185e-05 -2.5159074e-05 -1.1679836e-05 4.4087898e-05
9.992818e-09 -1.8852712e-05 6.212699e-05 8.142168e-06 1.6217287e-05 2.2344899e-05 5.5291035e-05 6.463335e-05
2.5986605e-05 7.348396e-06 4.9310675e-05 4.757599e-05 -1.2037237e-05 2.8311133e-06 6.4194194e-07 1.5166902e-10
-1.8910566e-06 4.0552284e-05 0.0001340007 1.3937318e-05 7.5311455e-06 -2.8448474e-05 2.4809407e-05 1.7600647e-05
-0.00028195107 -3.480196e-21 0.00013037768 0.00012373636 -0.00017594307 -5.8645182e-05 -0.0001931141 -0.000113289716
-2.5258323e-05 -0.00024098933 0.00016873192 -8.633495e-06 -0.00044448164 -0.00015614531 -6.6915665e-05 0.00025759786
-4.135064e-05 -8.5093445e-05 -3.0732608e-06 -2.0447696e-05 6.459475e-05 -0.00016347592 0.00030484927 -2.4130002e-11
9.954554e-07 -3.423074e-05 -0.00014783336 0.0002133645 0.00020868935 -2.4511255e-05 -0.00011156756 0.00017523736
