Encoder_Decoder_Files/Decoder_Only_Models/EDGRUs/GRU_50epochs_fulldata.pth (torch, 72645 bytes, 12 tensors)

encoder.embedding.weight f4 [47, 32]
00000000: 6972 34c0 f2b0 48bf ebab 2cbf 7e1e 5bbf
00000010: 46ed a53f 06c8 7dbf 1c90 233d 4165 5ebf
00000020: 3ad3 1bbf 76b9 1fc0 2ee8 a83f ebc5 763f
00000030: 4fdf d53f a2f4 85bf 3211 c93f 8191 18be
00000040: ea8d aabf e58e d33f cb01 36bf a1f1 38bf
00000050: bb1a 9dbf c1c1 bcbf 79b3 16bf a85f 0fbf
00000060: 38a7 1540 a237 d3be 524c 8a3e c901 3c3f
00000070: 7b40 c6bf 7b1e 1440 4043 25bf a258 08c0
00000080: 85cd 563d 89ba 1140 aea1 b7bf 0820 663f
00000090: 3ee9 23bf 6bc1 18c0 480c 18c0 1053 173f
000000a0: ceba 51ba dea5 a63f 165e e23f 4e1a 41c0
000000b0: 8d5c e33f 194c 953f c15f cdbe 661b 76bd
000000c0: 21de b0bd 87fd 363f b7fe a8bf 3432 27bf
000000d0: 0765 9dbf 1207 9ebd edcd e63f 0768 0440
000000e0: 3442 f63f 839b 843f 084b 5b3d 247c d63f
000000f0: 9737 533f fb4a 0b3e 4e6f 8e3e 382e f13e
00000100: 1e1a 36bf d5db da3f 1ff7 59bf b5f8 7bbe
00000110: 0b44 cd3e dfdf 3fbd d315 433f a26b 803d
00000120: ed49 a43f c992 d93f 90e8 0e40 25c4 e63e
00000130: 3af3 683e 4a26 bfbf afe8 503f 3723 7cbf
00000140: f4f6 0fbb a128 da3f 82e9 2340 5f50 99bf
00000150: 9a68 ac3f ea44 f0be 5090 b0be f5e0 4dbf
00000160: 84b2 20bf ea62 893d 2ad8 793e 3469 bf3e
00000170: 3582 a8be b13e 903e ada0 693e 7706 74bf
00000180: 2a2b 15bf f01f 123f 8bbf 52bf d9e6 a1bf
00000190: 6295 b1bf e5b0 61be 567d 03bf 00f8 a73f
000001a0: 146b 7bbf 7c32 b0bd 9bc9 963d a32d 9abd
000001b0: 8cf5 82bf 700c 703f 7e67 92bf 1973 d63f
000001c0: 7d0a c43e d30b 87be 9956 14bd 6e70 78bf
000001d0: 5cd6 8c3e 5987 7dbf 8033 993f e726 22bf
000001e0: 3821 9d3f a31e c93d 4d06 723e 321a 2dbf
000001f0: d791 873e 09f1 0d3e 1ba0 0840 8038 933e
00000200: 255e 2440 b9ba 58bf aabe 4d3f a568 ac3f
00000210: 1218 e9bf 897d 863f d1eb 783f bf87 303e
00000220: 8bbd 80be 57e1 f13e 74cc 30bf 4962 903f
00000230: f441 a8be 5fa5 d13e 42f2 b83f 9b32 b1bd
00000240: d65a 2bbf 7673 2c3f b675 d2bf 4220 5abe
00000250: 8e1d 68bd cc5b bebf e210 a83f fc11 543f
00000260: 0911 f8bf 2226 96bf 3228 1a3f 8c4f d2bf
00000270: 80bb ccbf 855d 2840 a070 833f 5d9b 613f
00000280: 17a2 54c0 b604 08c0 a1c0 f7be 8205 33c0
00000290: f7e2 21be d545 623d acb6 3ebf ccd8 95bf
000002a0: 7ca9 f1bf f7ca 313f 3cfd bb3f 001d 8abf
000002b0: 4677 0f3f 0ce0 9a3f d360 973f c27f cc3e
000002c0: 2088 87bd bd3d 91be 3cc3 dcbd 61a9 ddbd
000002d0: 13a4 ec3f 0fd2 17bf b74c 353f 91a7 28bf
000002e0: 5525 5c3c 14db c63f 77a0 03bf c19d 913d
000002f0: 1fa4 22bf 88cc 27bf afec e23e ea1e 1d3f
00000300: 6bd9 543d a7ef b3bf a801 343e 991c c7bf
00000310: b2b7 69be fe40 afbe 3d42 50bf d0b4 7cbf
00000320: 575d 4cbf be1a 8fbf 15dd 6cbe e4ed 0140
00000330: 2251 d73f 71ef 373e c8be 31be 36ce cebf
00000340: 18de 0e3f 42b7 66bf f5d9 8f3f c6ec 1e3e
00000350: 1b81 43bf e113 0abe fdb8 083e 29b9 b53f
00000360: 7375 23c0 78d4 f53e d674 c93e 153c 023e
00000370: 343e 643e eda3 0abd d458 debf cd7d 07bf
00000380: efb2 35bf 797b d5bd bccd 37bf 4b5c 31bf
00000390: 4765 cdbf 28d0 763f 80e6 33bf b18b 0cbf
000003a0: dd4a 3bbe fbce 91bf 873f 59bf f4da a0bf
000003b0: 7945 623f 4950 ef3e f7f6 643f d17b e7bf
000003c0: 6e87 7abd 5e5a 4a3f 1678 e5bf 3e2d 883f
000003d0: 29b6 bbbf c983 383f ad61 e43f 74e9 a43f
000003e0: bea8 883f a174 1a3f 1b8f 82bd b230 8bbf
000003f0: 0770 bc3e ed63 1ec0 fa6d 4f3f b953 303f
-2.819483 -0.78395 -0.67449826 -0.855934 1.2963035 -0.99133337 0.039932355 -0.8687325
-0.6086918 -2.4956946 1.3195856 0.9639575 1.6708773 -1.0465281 1.5708373 -0.14899255
-1.3324559 1.6527983 -0.71096486 -0.72243696 -1.2273782 -1.4746629 -0.58867604 -0.56005335
2.3383312 -0.41253382 0.27011353 0.73440224 -1.5488428 2.3143604 -0.6455574 -2.1304097
0.052442092 2.2770102 -1.4346216 0.89892626 -0.64027774 -2.3868053 -2.3757496 0.5911112
-0.00080005534 1.3019369 1.7684963 -3.0172305 1.7762619 1.1663848 -0.40112117 -0.060084723
-0.08636118 0.714806 -1.3202733 -0.6531098 -1.2296456 -0.07716192 1.8031594 2.0688493
1.9238954 1.0359958 0.053538352 1.6756635 0.825067 0.13602822 0.27819294 0.47105575
-0.711336 1.7098337 -0.851427 -0.24606593 0.40090975 -0.04684436 0.76205176 0.06270529
1.283506 1.699792 2.2329445 0.4507152 0.22749034 -1.493356 0.81605047 -0.98491234
-0.0021967264 1.7043649 2.5611272 -1.1977652 1.3469422 -0.46927577 -0.34485102 -0.8042138
-0.62772393 0.067083195 0.24398866 0.3738495 -0.3291184 0.2817283 0.22815199 -0.95322365
-0.5826899 0.5707998 -0.8232352 -1.2648574 -1.3873713 -0.22040136 -0.5136312 1.3122559
-0.98210263 -0.08603379 0.07362672 -0.07528236 -1.0231185 0.9376898 -1.1437833 1.6753875
0.38289252 -0.2637621 -0.0362154 -0.97046554 0.27507293 -0.9903465 1.1968842 -0.6334061
1.2275763 0.098202966 0.23635216 -0.67618096 0.26478454 0.13861479 2.134772 0.28754044
2.5682461 -0.84659916 0.80369055 1.3469435 -1.8210471 1.050706 0.9723483 0.17239283
-0.2514461 0.47242233 -0.6906197 1.1279994 -0.32862818 0.4094648 1.4448931 -0.0865223
-0.6693548 0.6736368 -1.6442173 -0.21301368 -0.05666881 -1.4871764 1.3130152 0.8283994
-1.9380199 -1.1730387 0.60217583 -1.6430526 -1.599472 2.630708 1.0268745 0.8812769
-3.3223932 -2.1252875 -0.48389152 -2.7972112 -0.15809236 0.05524238 -0.74497485 -1.1706786
-1.8879848 0.69450325 1.4686656 -1.07901 0.5604137 1.2099624 1.1826423 0.3994122
-0.06617761 -0.28367415 -0.107794255 -0.10823322 1.8487571 -0.593049 0.7082018 -0.65880686
0.013436635 1.5535607 -0.51416725 0.07110167 -0.6353168 -0.65546465 0.443212 0.61375296
0.05196516 -1.4057511 0.17578757 -1.5555602 -0.2282398 -0.34229273 -0.8135107 -0.987134
-0.79829925 -1.1180036 -0.23131211 2.0301447 1.6821635 0.17962433 -0.17357934 -1.615668
0.5580764 -0.9012338 1.123839 0.1552001 -0.76368874 -0.13484146 0.13351817 1.4197131
-2.5540435 0.48013663 0.3934695 0.12718232 0.22289354 -0.033847738 -1.7370858 -0.5292633
-0.70976156 -0.10423941 -0.717983 -0.6928145 -1.6046532 0.9641137 -0.7027359 -0.5490065
-0.18290277 -1.139129 -0.8486256 -1.2566819 0.88387257 0.4674094 0.8943934 -1.8084661
-0.061164312 0.7904414 -1.7927272 1.0638807 -1.4664966 0.7207609 1.7842308 1.2883744
1.0676496 0.6033421 -0.063749515 -1.0874236 0.3680422 -2.474849 0.81027186 0.6887775

encoder.gru.weight_ih_l0 f4 [96, 32]
00000000: 99c0 22be 1d8d 3c3c 19c0 85bd f6c8 693e
00000010: 6a2f 7abd 988d 46be b9ae 2e3e bdf4 25bd
00000020: dd80 963c 6c93 113e 30b0 8dbd 28a9 0cbe
00000030: 30fa d1bc 1615 aebd 0c82 6c3e 3c60 c6bd
00000040: 93d2 81be 9f75 c7bd 6226 a33e 5527 1c3d
00000050: 4ae4 f6be 2aaf 75be 52ba 2ebc 82a6 033e
00000060: ddbd 21bc 6cc2 823d ef10 d1be cad8 89be
00000070: cc53 2cbd e095 853e 3fa6 643e dbdc 12be
00000080: 7e46 d63e 5551 dcbe 47fb 903e 6949 9a3d
00000090: 133f 9dbe 6683 52be df4f 1b3d 86e5 58bd
000000a0: 82a7 673d b6c8 13bd fb01 f33c abd4 49be
000000b0: 84af 87bd 0c17 ab3d ae3f 553e b540 bf3e
000000c0: 1018 933e d770 b2bd c9bb b23e fe3d 93bd
000000d0: a979 3c3d 7746 12be e997 fb3d 932c ea3b
000000e0: 3965 19be 45ed 873e fd79 203e 3a87 0bbf
000000f0: ee7e 6fbe 03b2 7c3e 2214 76be 56d9 8cbe
00000100: 5ff6 97be 3d6f 11be 8abf 55bd 51e4 8a3e
00000110: 451f c9be f592 1ebe 5a83 593e d6ca ca3d
00000120: cf23 bcbe 011a cbbd 4d3f ddbe f1a6 b6be
00000130: b050 ac3d e5f4 8bbe 6c62 dc3d edd3 54bd
00000140: beb3 f83e 08df 1dbe ac9f 6bbe a134 1abf
00000150: 3fc0 13bc 2134 dfbe 6a4d 623d 7815 453d
00000160: b38f 9ebe 1ab6 123f 7233 8cbe f5da 88be
00000170: 019b 3f3c d47c 52be ab07 bd3e b1fd b43e
00000180: 4454 2b3e df1a 5dbe 4a9b 3dbd ec12 48be
00000190: 1a44 d8be dedb 76be 2677 dfbe 3445 c63e
000001a0: cbea 51be bfe0 523e 1316 bd3e 53f7 e53e
000001b0: f006 a1bd 1e6a a83e c6de a3bd e138 f3bc
000001c0: 7871 e9bc d37b 013e 806e 333e 6699 e0be
000001d0: e56b fc3c 1df9 f7bd 1ce7 0ebe 3766 fcbd
000001e0: e0ed 5ebd d6ef 0cbe 85a5 0ebe bc2a 66be
000001f0: 6ede d53e 12c6 9b3e f0cc cbbe 05f1 33be
00000200: 77b2 c33e a829 633d 88af 04be 3880 28bd
00000210: 8391 43be 446b 8b3e 3be1 8b3e 1bd8 c73d
00000220: e1fe 323e b792 3b3f 8112 f0be e91f 97bd
00000230: 6e6d 9cbc d27c f9bd aeed b8be 746a 1cbb
00000240: 4bd4 05be 8bc7 56ba 658b ab3e 292b 2dbe
00000250: 0687 b1bc 041c 883e dc4e fd3e 36f5 4f3d
00000260: 0267 c9bd 2a6b 383e 36cc 2cbe a86d c33d
00000270: 306e 4a3e ec96 8fbe 23ef 783e 6be3 8c3e
00000280: 3b43 aebe 9a54 2b3e db57 c33e 6c32 94bc
00000290: 203a 2a3d 3f78 463e ae06 dbbd f181 a6be
000002a0: 57f6 bfbc eb9e e83e f203 093f cd38 a7be
000002b0: 9403 173e 0a05 563e 91ad 673e d0c7 75be
000002c0: 025c 8abe 44df 83be a6c6 75bc 771d 0b3d
000002d0: e2c9 eabc 71c2 82be efc3 ab3d f808 f4bd
000002e0: edad 0fbf f663 24bd 8fac 82bd 8e82 313e
000002f0: e45a 373d 15c5 d0bc 7aaf a1bd f59a c9bd
00000300: 22e3 7fbd 89ad e9be a95a 4b3e ffe6 cd3d
00000310: ccd8 573d 11aa 6c3e 2680 cbbd 3ef6 a1be
00000320: 4b2c 7e3e 6675 febd 9588 b13d f284 5b3d
00000330: e0c6 033f 3373 573e 324f 5ebe b18d a93c
00000340: 10b7 c0be 3ad9 9b3e 5cbd 82be d2a1 6a3e
00000350: 63a7 a3be de36 113e 4306 8fbd e67f d43e
00000360: dc38 7e3e c69a 103f d8ae 673e 46da 043e
00000370: c3ee b0bd 71e5 573c dc1c 67bd e7f8 b53e
00000380: 3536 b73c 9240 b8bd 5d97 5c3e 4e4d 03bf
00000390: 667a 0c3d 191b a93b 0caa 51be dae8 c23d
000003a0: 5926 a03e 47e4 aa3e eca1 a53d 5711 f9bc
000003b0: af5c df3e d545 6fbd 9218 cf3d 080d 633e
000003c0: 202e 6dbc c3d4 7d3e a0f7 d23c 4366 8cbe
000003d0: 3b4a 8cbe c0cd 473d f225 863e 819a 863e
000003e0: 7a85 7a3e 65ad 2cbe 39a5 aabe 499e 4d3d
000003f0: add4 113e 6965 d3bd 1072 063e f35f 6fbe
-0.15893783 0.011508253 -0.0653078 0.22830567 -0.061080374 -0.19389951 0.17058839 -0.040516604
0.018371994 0.14216393 -0.06918371 -0.13736403 -0.025631994 -0.085001156 0.23096484 -0.09686324
-0.25355968 -0.09739231 0.3186522 0.038123447 -0.48221046 -0.23992601 -0.010664539 0.12856486
-0.009871927 0.06384739 -0.40833232 -0.2692321 -0.042072102 0.26090908 0.22329043 -0.14342062
0.41850656 -0.430308 0.2831671 0.07533533 -0.30712184 -0.20557937 0.037917968 -0.052953266
0.056556232 -0.036080085 0.02966403 -0.19710033 -0.06625274 0.08354005 0.20825073 0.37354055
0.28729296 -0.08712929 0.34908894 -0.071895584 0.04601446 -0.14284693 0.12284834 0.007146427
-0.1498002 0.2654821 0.15671535 -0.54503214 -0.23388264 0.24677281 -0.24031118 -0.27509564
-0.29680154 -0.1420259 -0.05218462 0.27127317 -0.3928167 -0.15485747 0.21241513 0.09901969
-0.3674607 -0.09917069 -0.43212357 -0.3567424 0.084138274 -0.27335277 0.1076096 -0.05195992
0.48574632 -0.15417111 -0.23010129 -0.60236555 -0.009018003 -0.4359446 0.05524961 0.048116177
-0.3096901 0.57309115 -0.27383 -0.2672955 0.011694671 -0.2055543 0.36919913 0.353498
0.16731364 -0.21592282 -0.046290673 -0.19538468 -0.42239457 -0.2410731 -0.4364559 0.38724673
-0.20499723 0.20593546 0.36930904 0.44915256 -0.07862651 0.3289346 -0.08001475 -0.029690208
-0.028496489 0.12644891 0.17522621 -0.43867034 0.030813167 -0.121080615 -0.13955349 -0.123241834
-0.054426074 -0.13763365 -0.13930328 -0.2247724 0.41771263 0.30424553 -0.39804792 -0.1757241
0.38222095 0.05545965 -0.12957585 -0.041137904 -0.19098477 0.27230275 0.27320275 0.09758016
0.17480041 0.73270744 -0.46889117 -0.07379133 -0.019095149 -0.12182011 -0.36118835 -0.0023867162
-0.13069265 -0.00081931864 0.33504787 -0.16910996 -0.02167083 0.26583874 0.49474227 0.05077096
-0.098341 0.1800963 -0.16874775 0.095424 0.19768596 -0.28044832 0.24309973 0.27517256
-0.34035668 0.16731492 0.38152966 -0.01809045 0.04155934 0.19381808 -0.106946334 -0.32521012
-0.023432894 0.45433745 0.53521645 -0.32660523 0.14747459 0.2090036 0.22624804 -0.24002004
-0.2702332 -0.25756276 -0.015000975 0.033963647 -0.028660718 -0.25538972 0.08386981 -0.11915773
-0.56124765 -0.040134393 -0.06380569 0.17334959 0.044764414 -0.025484601 -0.078947976 -0.09844009
-0.06247247 -0.4564021 0.19858803 0.10053825 0.052696988 0.2311175 -0.09936552 -0.3163318
0.24821584 -0.12424736 0.08668629 0.053593583 0.51475334 0.21040039 -0.21709898 0.020697447
-0.37639666 0.30439168 -0.25535095 0.22913292 -0.31963643 0.14181086 -0.06983616 0.4150383
0.24826378 0.56486166 0.22625291 0.1297389 -0.0863929 0.013177262 -0.056424007 0.3554146
0.022364715 -0.08996691 0.21542116 -0.5128983 0.034296416 0.005160701 -0.20475024 0.09517069
0.31279257 0.33377287 0.08087525 -0.030403776 0.436254 -0.058416206 0.10112108 0.2217294
-0.014476329 0.24788193 0.025752842 -0.2742177 -0.27400383 0.048780203 0.26200825 0.26289752
0.2446498 -0.1686302 -0.3332918 0.05019978 0.14241286 -0.10322077 0.13129449 -0.23376445

encoder.gru.weight_hh_l0 f4 [96, 32]
00000000: 0bd9 b93e c387 63bf c278 5bbf e0bd 153e
00000010: e602 04be 20ce cb3a 6548 9a3e 5c13 0b3e
00000020: 089a 813e 51d1 c7be 5929 59be b1d7 e33c
00000030: 3399 473c a650 963e 577e 293e 7414 c13e
00000040: 010f 383e deb3 7c3c 5fd3 043f 32b3 873d
00000050: b4a1 8e3d 0191 eabb b024 fd3d 0e58 82be
00000060: 009a 05be 8f56 293e f014 43bf d640 003e
00000070: e590 14be f895 953e bb55 86bd 3c55 6fbd
00000080: d4f9 71bd 471c debe 1bc1 40be c4f7 9fbd
00000090: b12f 243d a86a 223d d1bb 7bbd 3cde b9be
000000a0: 5bfd 58be b645 113d 8dd4 0abe 0dea b53d
000000b0: 798f 903d 8197 813e 26aa 75bd b82f bbbd
000000c0: a271 37bd ee6a 173d 364c 7a3e e59b 973d
000000d0: 0cbb 3dbe 99e7 043c 0738 b13d 7b3f 82bd
000000e0: e1a5 623d 78b4 883c 14b4 803e 3ec1 fb3d
000000f0: 5c98 e43d b449 16be ad80 373e e1ea 0e3e
00000100: f35d dd3d fdab 5dbe 5bac 1cbe 5361 dd3d
00000110: c490 5b3e b0ae afba 94af 4e3e 6307 97bd
00000120: 1e54 26be f710 93bd ed4a 11be 0edb 983c
00000130: b6d8 9ebe 506a 32be 0422 113e a7d4 67bb
00000140: 11b5 0fbe 2190 1abe d349 11be f77c 95bd
00000150: a6d9 413e a3c3 58be 860e 8f3e efd3 27be
00000160: b756 743d 5f87 c13d 7467 43bc 9092 3fbd
00000170: 488a c33d dc83 0e3e e749 f7be a788 8bbe
00000180: 3cac ad3d 36cf 1a3d f6cd c3bd d1ed 4e3e
00000190: cd36 94bd 00aa 553e 44fc eb3e b99c e13e
000001a0: dbd2 d53d 7d33 0fbe a6e8 c9be 50bd b73b
000001b0: adc4 2d3e 6e07 69be 301e ac3e c983 023c
000001c0: 80c0 a8bd 6dc3 81bc 63e5 793e e303 15be
000001d0: 3374 b33e d69b 0a3e ad7b 8bbe 0f89 29be
000001e0: 911b 86bd d519 903e a22d 0cbf 1605 62be
000001f0: 179a 65bd 7a9d 59bd c61e 2ebe 3cc1 8c3e
00000200: c8ce 19be 1b93 1e3d 5faa a0bd 1bf8 36bd
00000210: eea1 023c 0ace 2c3e f4a9 d6bc b6ce 82bd
00000220: 362d ebbd 6631 a4be b26b 12be e855 323e
00000230: 6dbd 0abd bcf6 3dbd 13ff a83d 48c1 e93e
00000240: ae19 98be ec6d 053e 51a4 64be cd69 04be
00000250: 8a3e a4be 8298 34be 2847 f33c 4a7b a13d
00000260: 21af c03d 38a7 6d3e 5eb7 b3bc b124 a53d
00000270: bbad 933d e14f 5c3e 4388 6a3e e281 b6bd
00000280: e2ab fa3d 3e78 87be 2e9e 5fbe 2462 77be
00000290: 4f44 12bd 7f33 0d3f a50e d53e dd83 6fbc
000002a0: 3185 bb3c 4eb1 8fbe 1c14 2abe 4cc5 af3d
000002b0: 8e78 353d ce8c 1abe 60a7 783e 1403 0dbd
000002c0: c924 e13e dd34 1cbf f4e0 07be 3b3b a73e
000002d0: c04a 453f b85d d5bd 2ebb d2be 12e7 e23d
000002e0: eba7 0f3d 334f 9e3d 140f 38be 5259 2abe
000002f0: 139c 21bf e09a cdbc 8309 92be 220f 12bd
00000300: 0f23 ccbd 7807 bf3e 9aa1 89bc 7f11 f9bd
00000310: bfad 18bc 3746 4a3e f04e 1a3d f2b1 6c3e
00000320: eec3 943d 7a3f f73c 506f 0ebd 850e d63a
00000330: 0e6f 9abe 2676 e93d 3a45 1c3e 034c 71be
00000340: 3b40 073e aa39 253e 653d c53d 8892 093e
00000350: b887 a53e cf00 d5bd 3d46 753d 097d 99be
00000360: 1e51 9abe d827 b73c 00ed a8bd 2b7a f1bd
00000370: 3e6f 97be af3b 713e 2b7b 313d 6ff7 13bd
00000380: c9a9 573d d8ac 23be 70eb a2be 711c ae3d
00000390: e849 afbe ee6d ef3d 852e fcbd 46d7 193e
000003a0: 5923 933e 0766 9e3c c300 b3be ad1a d8bd
000003b0: dbd3 cb3d 0ae9 12bd 25e1 3b3e 965c fdbc
000003c0: 7c97 713d ec66 35be f2c0 073e 0f54 c43b
000003d0: aa55 8b3e 3464 b03c 8805 95bd 682d 84be
000003e0: a299 5abe 8bdf c13e 9e18 8ebe 083d 36be
000003f0: 8f6c 21be 94dc 933e 38a7 253c 395e 9b3d
0.36298403 -0.8887903 -0.85731137 0.14623213 -0.1289173 0.0015549101 0.30133358 0.13581604
0.2531283 -0.39026883 -0.21207179 0.02781281 0.012182522 0.29358405 0.16552101 0.37710917
0.17974474 0.015423743 0.51885027 0.06625976 0.06964436 -0.007158399 0.12360513 -0.25457805
-0.13047028 0.16536926 -0.76203823 0.12524733 -0.14508398 0.2921598 -0.065593205 -0.058430895
-0.059076145 -0.4338095 -0.18823664 -0.078109294 0.040084545 0.039652497 -0.061458413 -0.36302364
-0.21190397 0.035466872 -0.13557644 0.08882532 0.07058615 0.253109 -0.05997672 -0.09139961
-0.044786103 0.03696721 0.24443135 0.074027814 -0.18528384 0.008111858 0.086532645 -0.06359764
0.055333976 0.016687617 0.2513739 0.122927174 0.11161873 -0.14676553 0.1792018 0.13956787
0.10808935 -0.2164764 -0.15300123 0.10809579 0.21441942 -0.0013403501 0.20184165 -0.07374456
-0.16243026 -0.0718097 -0.14188738 0.01865914 -0.31024712 -0.17423368 0.14173132 -0.0035374553
-0.14033915 -0.15094043 -0.14188318 -0.07299226 0.18930683 -0.2116838 0.27940768 -0.1638944
0.05965301 0.09449648 -0.011926521 -0.046770632 0.095478594 0.13917488 -0.4829857 -0.27252695
0.08480117 0.037795268 -0.09560768 0.20207907 -0.07237015 0.20865631 0.460909 0.44064882
0.10440608 -0.13984485 -0.3943531 0.0056072846 0.16969557 -0.2275674 0.3361678 0.00796599
-0.082398415 -0.015840257 0.2440391 -0.14552264 0.3504959 0.13536009 -0.27242795 -0.1655619
-0.065482266 0.28144708 -0.5475713 -0.22072253 -0.056055155 -0.053128697 -0.17003927 0.27491176
-0.15020287 0.03871451 -0.07844996 -0.044670206 0.007973177 0.16875473 -0.026204087 -0.06387083
-0.11483233 -0.32068938 -0.14298895 0.17415583 -0.033872057 -0.046377882 0.082517765 0.45655274
-0.29707092 0.13030213 -0.22328307 -0.12930985 -0.32078964 -0.17636302 0.029697016 0.07884844
0.09408403 0.2320832 -0.021938022 0.08063639 0.07210871 0.21514846 0.22903542 -0.08911492
0.12239815 -0.26458925 -0.21837685 -0.24158531 -0.035709675 0.551567 0.41612735 -0.014618841
0.022890659 -0.2806496 -0.16609234 0.08582553 0.044304423 -0.15092775 0.24282598 -0.034426764
0.43973377 -0.6101816 -0.13269407 0.32662377 0.77067184 -0.10418266 -0.41158432 0.110792294
0.03507225 0.0772995 -0.17974502 -0.16635635 -0.63128775 -0.025098264 -0.28522882 -0.035658963
-0.099676244 0.37310386 -0.01680069 -0.1216154 -0.009318768 0.19753347 0.037672937 0.23114756
0.07263933 0.030181635 -0.034774125 0.0016331231 -0.30162853 0.11399488 0.15260783 -0.23564152
0.13208096 0.16135278 0.09630851 0.13434803 0.32330108 -0.10400545 0.059881438 -0.29978207
-0.30140013 0.022357866 -0.08248329 -0.1179088 -0.2957706 0.23557924 0.043330353 -0.036124643
0.052652154 -0.15983903 -0.3182025 0.085015185 -0.34236073 0.11690889 -0.123135604 0.15023527
0.28737906 0.01933576 -0.3496152 -0.10551963 0.099525176 -0.035866775 0.18347605 -0.030927937
0.058982357 -0.17715043 0.13257197 0.005991466 0.27213794 0.021532156 -0.072764456 -0.25815892
-0.21347669 0.37865862 -0.27753156 -0.17796719 -0.15764068 0.28879225 0.010110669 0.07586331

encoder.gru.bias_ih_l0 f4 [96]
00000000: 125c 083e 0b99 8bbd c053 513e dd93 cd3e
00000010: 7dde 153d 9b6b a53d 1854 3b3e 3c4c a63d
00000020: 845d e53e 2e58 ab3e d82e ff3c f3c2 333e
00000030: 8a68 053e 6b8a 603e 0cce 563e 2f58 a43e
00000040: e787 293e fd93 3c3e bb08 663e 9256 323e
00000050: 2faa 1c3e 038e 143f 016e 513e c494 583e
00000060: 7f29 9b3d 5efa 6bbe 3851 a33e 6905 823e
00000070: b91e 983e 8087 b53e 8cab 963d 5fca c2bd
00000080: e78e 56be c43c 40be 3891 7cbe 44ef f7bc
00000090: 84b2 49bf 5430 e0be 7cbc a83b 20b7 a9be
000000a0: d74c 5fbe 7d81 493c ffb4 84be d8fa 873e
000000b0: 91fc f2bd 50e4 163e 10b4 92bd 2d31 f6bd
000000c0: f407 d8be 4530 a6be 997c c7bd 11f6 773e
000000d0: 527b f7be 3947 f1ba e5da d4be f95b 9abe
000000e0: 0b28 3cbc 53e8 5ebe 3cca 95bd 21c0 d6be
000000f0: 14b7 c7be d2dd e13d ca8b cfbe 3ba0 fbbe
00000100: 3137 0c3e cd86 2dbc 7458 65bb 0ff5 843e
00000110: ac32 7bbd 18cf 503e 649a 933e 3e19 e13d
00000120: dbc2 c93d 11b4 81bc f93e 40be d5a7 813e
00000130: cdc9 583d ce9d b4be 84d7 fc3b f7b7 723c
00000140: f638 363e 13bd fcbc acfe 4b3e c9e1 053e
00000150: e825 c43d dbdb 09be cd97 bd3d ffd4 97bd
00000160: 35ec aebe fe20 67bd da2b 98be 9350 7cbe
00000170: 7483 7ebe 6a53 b53d 1dbf cb3d a15a c2bd
0.13316372 -0.068163 0.20442104 0.40151873 0.036589134 0.08077165 0.18293798 0.08120009
0.4479791 0.33465713 0.031150267 0.17554836 0.1302816 0.21927802 0.20977038 0.3209853
0.16555749 0.18415828 0.22464268 0.17415836 0.15299295 0.5802919 0.2045212 0.211505
0.07576274 -0.23044726 0.31897902 0.25394753 0.2971094 0.3545494 0.07356939 -0.095112555
-0.2095295 -0.1877318 -0.24664772 -0.030265458 -0.7878802 -0.4378687 0.005149422 -0.33147526
-0.21806656 0.012298939 -0.2591934 0.26558566 -0.118645795 0.14735532 -0.071632504 -0.12021098
-0.42193568 -0.32458702 -0.09740562 0.2421496 -0.48336273 -0.0018408067 -0.41573253 -0.30148295
-0.011484156 -0.21768312 -0.07313964 -0.41943458 -0.39006865 0.11028637 -0.40536338 -0.49145684
0.13692929 -0.010591221 -0.003499535 0.25968215 -0.06132762 0.203915 0.28828728 0.10991143
0.09851619 -0.015832933 -0.18774022 0.25323358 0.052926827 -0.35276645 0.007716121 0.014814368
0.17795166 -0.030851876 0.19921368 0.13074411 0.095775425 -0.13462774 0.09257469 -0.07413673
-0.34164587 -0.05642795 -0.29720956 -0.24640112 -0.24854833 0.088538006 0.09948561 -0.09489942

encoder.gru.bias_hh_l0 f4 [96]
00000000: bcba 873e 84d9 85be b2d3 6d3e 5d90 4b3e
00000010: 51aa 93bd 31e2 263e 8acc a23e 5511 a73e
00000020: 5198 8c3e 354d 693e 914a 983d 566a f03d
00000030: 3c6f 503e 871f bd3e ce69 143e aa2d fa3d
00000040: c9e8 cc3d cff2 6c3e 6a8f b73d 1eba e03e
00000050: 1c58 843e e180 b63e fa1c 503d 6c93 1d3e
00000060: 50ef 793e 51f1 1bbe 3f76 4f3e c79d 833e
00000070: 1d5e ba3e aa64 5a3e 4858 0b3e 9eaf b33c
00000080: 4eea 76be fb59 6dbe bd68 52be d45d 0f3e
00000090: 8e72 45bf 5dc0 9ebe 0fdb 36be eb3c cdbe
000000a0: e9f4 74be 1803 34be 1348 44be 8338 8e3e
000000b0: af0e 8bbd 7710 eb3e 5018 25be 599f b2be
000000c0: 2bc1 a5be 0707 3bbe dcf8 4cbe 3cf6 0a3e
000000d0: ccec dabe b5b8 243e b1da 1abf 4f4c dfbe
000000e0: f4f6 57bd 7b08 95be b869 89be 4da5 3bbe
000000f0: 6997 c0be 79e8 423e fe13 00be 1b94 9cbe
00000100: 558d 06bd e575 85bd 54cc bcbe 6dc7 b63e
00000110: 4341 b0be c165 cb3d d7b7 803e b4ac b93e
00000120: 52ba ad3e b535 003d 446a aabe 0e99 693c
00000130: 50a1 ea3d c785 88bd 4a36 533e 9b21 74bd
00000140: 7ef7 c03d 0165 50be 7b7d 023d 3b99 ba3d
00000150: edb6 3c3e 5ece 27be 9117 03be f490 dfbd
00000160: f58b cdbe e51d 0b3e 8f32 aebd 49f2 91be
00000170: 4a9e 7fbe 1dbf 003e 8c00 03bf 2e21 583e
0.26509655 -0.26142514 0.23225287 0.19879289 -0.0721022 0.16297223 0.31796676 0.3263041
0.27459958 0.22783358 0.074360974 0.11739032 0.20354933 0.36938116 0.14493486 0.12215741
0.10005338 0.23139499 0.08962901 0.43891996 0.25848472 0.35645202 0.050808884 0.15388268
0.24407697 -0.15228774 0.20259951 0.25706312 0.36399928 0.21327463 0.13607895 0.021934327
-0.24112818 -0.23178856 -0.20547767 0.14000636 -0.7712792 -0.31006137 -0.17857002 -0.4008554
-0.23921551 -0.17579305 -0.19168119 0.2777749 -0.0678991 0.45911 -0.16122556 -0.34887198
-0.32373938 -0.182644 -0.20016807 0.13570493 -0.42758787 0.16086085 -0.60489947 -0.43612906
-0.052725747 -0.29108033 -0.2683847 -0.18324776 -0.37615517 0.19033994 -0.12507626 -0.30581746
-0.03284963 -0.06516627 -0.3687464 0.35699025 -0.3442479 0.099315174 0.2514026 0.36264575
0.33931214 0.03130122 -0.332842 0.0142576825 0.11456549 -0.06666141 0.20626178 -0.05960236
0.094222054 -0.2035103 0.03185795 0.09111258 0.18429156 -0.16387317 -0.12801959 -0.109163195
-0.4014584 0.13585623 -0.08505737 -0.2850516 -0.24962726 0.12572904 -0.5117271 0.21106407

decoder.embedding.weight f4 [45, 32]
00000000: 6fd9 47be ce9b 593e 30dc cd3f d6ff a03e
00000010: 832a 9bbf aac9 753f a2c7 3b3f 732e 1cc0
00000020: 2249 c13e 7289 903f 1807 373f 5777 1a40
00000030: f02b 4e3f e273 e2be 119b ddbf 225e 9fbe
00000040: d1ae 38be 9c37 0b3f 32cf 103f 163e b1bf
00000050: bc3f a83f 50a3 a0bf 6032 ba3e 5d5d 91bf
00000060: f9c6 b53f 28d6 13bf 5257 25bf d133 d33e
00000070: ef59 c9be 0770 a03e 7e5e 953e a394 67bf
00000080: 04a8 c53e 72d8 4a3b 7b35 3d3f 95d8 803f
00000090: 80a1 13be a23b f33e 2efd eabe 136f 83be
000000a0: 22a8 3cbf 9448 73bf 44df 0f3f 909b 02c0
000000b0: 2661 73bf c53a 1940 a659 3ebf ddce 11bf
000000c0: 2ebb 963f 6a98 aebe 5ff5 ccbf 8b45 913f
000000d0: ef9e 00c0 d770 2540 5f0c 92bf 5942 88bf
000000e0: 08bf a2bf 0224 983f 08eb 7cbf 6206 6a3f
000000f0: 99f0 69bf 2086 78bf 71ee f73e 2105 2fbf
00000100: ed2e 433e f5df d7bf 3773 e23f 8666 1f40
00000110: c9d5 ed3f eb13 51bf d28a cabe 1613 2e3e
00000120: f82e 4d3f 59f2 5f3e ea71 043f 6f4d b1bf
00000130: 7e03 9f3f 9413 2fbe c79f 033e f8ee 753e
00000140: f266 02bf 7627 383f 8ef2 eabf 1e88 cabe
00000150: 9ff7 3dbe 075f aabe 5535 773f f6d2 34be
00000160: bff8 5f3e d44c 66bf abea 983d 264e 44be
00000170: 981c 2e3f baf6 963e fe0d 5f3d 8d70 7d3e
00000180: 0351 36bc 33a6 293f c7b4 983e 24a8 3f3e
00000190: e2af a13e 8458 223f 32c5 833e 80a5 12c0
000001a0: 91ed 10bf 955b ed3f a06f a6bd b926 533f
000001b0: e00e b9bf f11d ba3f af24 babf 0aab d73f
000001c0: 9255 e93e 46d5 be3f f0d1 3b3d df40 8abe
000001d0: e594 0cbf 4784 8dbf 8fe5 883f 71fa 86bf
000001e0: eb5c efbf e430 fd3d 657c 9dbe 510b c83e
000001f0: 1c8b 583f b91d ffbe ed79 97bf 9a87 89bd
00000200: f530 2b3f e07d 873f 8d33 803d f492 98bf
00000210: a4c9 e3be 3612 1640 5496 1fc0 800d 693e
00000220: 7af5 873e fdd4 9a3f 35d2 b3bd abcb c1bf
00000230: 4351 0e3f d7af 10be 1e7b 95be ce91 5f3f
00000240: 2680 dcbf 2390 ff3e 71ce e93e 7ebe 543f
00000250: 003b 863f 9e58 2b3f 5d47 7b3e 4187 643f
00000260: 62d7 c5bf 9c01 8c3f 7d4d 22c0 34bb 883e
00000270: 0616 47bf 19e2 d43f 8cd5 9f3f 7125 0f3f
00000280: 1d11 7b3e 66b3 8b3f 7269 58bf 3c6b 0f40
00000290: 7c8b e43f cc39 8bbf ee53 17bf af83 0b3c
000002a0: b162 1dbf 657c e0bf 1473 d1bc 76a7 ac3f
000002b0: 0c42 f6bd d8c5 833f bd9c 203d 8f57 ff3f
000002c0: 17a2 e2be 5aad 5bbd 75db 9bbf b04e 6a3f
000002d0: 08b2 95be c931 413e 2cfb aabe 39a4 1c3f
000002e0: abfd aa3e a1c2 a4be 42f6 95bf aeb6 323f
000002f0: a9aa 1740 04d3 00bf b309 8abf 930e 0f3f
00000300: 2652 333f 89db 973f 1a43 7b3f 1d7b aabf
00000310: e1dd 73be 388a 18bf 0d69 5ebf d996 93bf
00000320: 041c febd 0f6f 50bf fbf1 bd3e 6677 43bf
00000330: da1f fe3e ca1f 97be 4dcd b5be dc54 753f
00000340: ceb0 ba3f 5a2b 8d3f d631 3ebe faf2 713f
00000350: 58f2 a6bd 2de5 223e ca7e 04bf b239 343e
00000360: 7300 71bd e154 343f da57 a7bf f885 bcbe
00000370: 2c7d 96bf 61df 793f 671c 7c3f 2772 f9be
00000380: 0bfb c23f 6e0b 573f 36aa cdbe 91e8 1b3f
00000390: 1eca 2ebf 591b ed3f 5cde a43f 5012 c13f
000003a0: ff80 523f 60f2 493f 778f d03d 7a6a 4dbe
000003b0: 68b5 de3f b162 a33f ec44 9c3e 6643 23bc
000003c0: 7090 08c0 5674 b93f 1c1c 143e 4a87 153f
000003d0: 8df5 b8bf 94d6 f53f fd67 90bf 35de e13f
000003e0: 6b0b 743e 58bd cc3e 33b7 acbf 15ef 933e
000003f0: 6943 8dbf 27f0 2640 1b71 00be 20a2 f33f
-0.19516538 0.21250841 1.6082821 0.31445187 -1.2122349 0.9601084 0.7335149 -2.440335
0.37751108 1.1291945 0.714952 2.413534 0.80535793 -0.44229037 -1.7312948 -0.31126505
-0.18035437 0.5438173 0.56566155 -1.3847072 1.314445 -1.2549839 0.36366558 -1.1356617
1.4201347 -0.5774865 -0.64586365 0.4125047 -0.39326426 0.3133547 0.29173654 -0.90461177
0.38604748 0.0030951765 0.7390973 1.0066096 -0.14417076 0.47506434 -0.45896286 -0.2567068
-0.7369405 -0.9503262 0.5620005 -2.0407448 -0.9507011 2.394212 -0.7435554 -0.56956273
1.1775873 -0.34100658 -1.6012381 1.1349348 -2.0097005 2.5850122 -1.1410025 -1.0645248
-1.2714548 1.1885989 -0.9879613 0.9141599 -0.9138275 -0.9707966 0.48424104 -0.683672
0.1906087 -1.6865221 1.7691411 2.4906325 1.8580867 -0.8167102 -0.39559036 0.16999468
0.80149794 0.21869792 0.5173632 -1.3851756 1.2422941 -0.17097312 0.12853919 0.2401694
-0.5093833 0.7193521 -1.8355272 -0.39556974 -0.18551491 -0.33275625 0.96565753 -0.176586
0.21872233 -0.8996098 0.07466634 -0.19170436 0.6801238 0.29485112 0.054456703 0.24749966
-0.011127713 0.66269225 0.29825422 0.18716484 0.315795 0.63416314 0.25736386 -2.2913513
-0.566125 1.8543574 -0.081267595 0.8248096 -1.4457664 1.4540387 -1.4542445 1.6849072
0.45573097 1.4908836 0.04585451 -0.27002618 -0.54914695 -1.1055993 1.0695056 -1.0545179
-1.8700231 0.12362841 -0.30758968 0.39071134 0.84587264 -0.49827364 -1.1834084 -0.06715317
0.6687158 1.0585289 0.062598325 -1.1919847 -0.44489777 2.3448615 -2.4935503 0.22759056
0.2655447 1.2096249 -0.08780328 -1.514028 0.55592746 -0.14129578 -0.29195493 0.87331855
-1.7226608 0.49914655 0.45665315 0.8310317 1.0486755 0.66932094 0.24538942 0.8926888
-1.5456355 1.0937991 -2.5359795 0.26705325 -0.7776798 1.66315 1.2487044 0.55916506
0.24518247 1.0914123 -0.84535897 2.24092 1.7855067 -1.0877013 -0.5911244 0.0085152825
-0.61478716 -1.7537962 -0.025567569 1.3488605 -0.12024316 1.0294752 0.039211977 1.9948596
-0.4426429 -0.053632118 -1.2176348 0.9152632 -0.2923739 0.18866648 -0.33394754 0.61188084
0.33396658 -0.3217974 -1.1715777 0.6981 2.3697913 -0.50321984 -1.078421 0.55881613
0.70047224 1.1863872 0.98149264 -1.3318821 -0.23815109 -0.59585905 -0.86879045 -1.153041
-0.12407687 -0.8141946 0.3709868 -0.7635406 0.49633676 -0.2951644 -0.35508195 0.9583261
1.4585207 1.1028855 -0.18573698 0.9451138 -0.08151692 0.15907736 -0.51755965 0.17600134
-0.05883832 0.70442015 -1.3073685 -0.3682096 -1.175695 0.97606474 0.9848084 -0.48719904
1.5232862 0.84001815 -0.40168923 0.60901743 -0.68277156 1.8523971 1.2880359 1.5083714
0.8222808 0.7888546 0.10183614 -0.20060149 1.7399111 1.2764493 0.30521333 -0.0099647995
-2.1338158 1.4488628 0.14463848 0.5840956 -1.4449936 1.9206109 -1.1281735 1.7645937
0.2383248 0.39988208 -1.3493408 0.28893343 -1.1036197 2.6084077 -0.12543146 1.9033852

decoder.gru.weight_ih_l0 f4 [96, 32]
00000000: 8767 1abd a9c5 6cbd 384c e83d 244b 183e
00000010: e032 1d3e 8574 bd3c 6e0d 89be 95c2 4abe
00000020: 4113 4c3e a6d0 01be 20e3 abbd 65ee 28bd
00000030: 086c 77bd a558 9f3e 053c 13bd e379 a8bd
00000040: 9e6a 013d 2c71 6cbd 8fad 69be ae6f 9f3d
00000050: 3413 18be 6a35 bd3d e578 463d d527 cdbd
00000060: 2d50 76be d774 543e f7d9 ecbd 41e4 8a3e
00000070: 6297 2ebc 202a 463e 6b87 b43e abe6 c7bc
00000080: 9ffc 9ebc b43e b03d 3a2f 31be bc3a 5a3d
00000090: 0a02 413e 1f1b e73d 448f 513e 124c 46be
000000a0: 2336 93bd 50cd 8fbc d65a e93d 4c99 993d
000000b0: d11e 313c 8bf3 9fbd 336f 223c 6c8c 893e
000000c0: 0c57 1d3d dd41 493d c1cf 213e 2ae2 0f3e
000000d0: 19ee 8fbd 1921 72bd 4537 9f3b 54cf 3abd
000000e0: 7db8 603d 32e3 6ebc 15fe 513e 266f 3fbe
000000f0: 73fc 623e 122a 4bbd e743 06bb fa91 86bd
00000100: 2ce6 373e 170c 043d ee27 183e 2f52 933e
00000110: d64b 093e 2a2e 673d adab 4fbe 9f66 06be
00000120: 9a41 14bc c501 f5bd 1de8 61bd e448 c9bd
00000130: 79dc 02be aa47 2a3e 4b9f 633d 0f5b b5bd
00000140: c58f cc3d cca0 a93d ecd5 b8be 1e77 efba
00000150: 820f c5bd 6141 d13d 40a2 b1bd 1e85 59be
00000160: d048 aabe de48 623d 61fe e6be 6bda 8f3e
00000170: 4b58 f43d 5fea 1a3e bd69 b83d 5577 533e
00000180: 1df3 2e3d bbb6 3cbe 4ae7 bc3e 3694 103f
00000190: a4d9 1a3e 45dd 373d be56 debe 6849 80bc
000001a0: e62b 353c 85a8 d3bd d793 00bd c85b b6bd
000001b0: 37ec b1be 00d4 153e 8cfd 32bc fe81 fcbd
000001c0: 0dc9 703e 1296 e4bb 91f3 9cbe a7ef 913c
000001d0: 885f 2bbe 042f 9e3e dcce 4bbd 2c84 8ebc
000001e0: 7b2c b6be acfd 4a3e 8a4c a3be 00ab 433e
000001f0: 144b 353e 0bb3 cc3c 7217 853e 248a 02be
00000200: b8d6 a4bd ff32 05be 1333 253c 32dd 293e
00000210: 4ca7 323e 3af7 783e 55bc 0cbd 2e4c 83bd
00000220: d962 be3d 8385 6d3d 87db 38be 88d2 8e3d
00000230: e1df ed3c 1132 863e 6f3c febd e493 9f3d
00000240: 3a3e a23d 45ac 893c 2946 b2bd ba15 d53d
00000250: cd11 32bd fe7a acbd d665 543d 6b6e aabd
00000260: e73b 2bbe 0629 9c3c 185a 473c f7e8 843e
00000270: 257e 963d 9940 1d3e 09a9 e53d c2b4 0c3d
00000280: b3e5 903d 19d8 c63b a3b7 e83b 37d9 383e
00000290: f387 253e e766 313e 16d6 cdbc 41cd f83c
000002a0: 8104 813e 3758 03be c473 b8bd cdf8 c63d
000002b0: dc0e 0bbe 540b 5d3d cfb4 87bd 11ed 17be
000002c0: b378 df3d e6d3 c43b 2242 13be e8a2 293d
000002d0: c17c 5abe 03d5 9fbd cbee ec3d efd2 78be
000002e0: 163f 26be 1bcd ae3c c410 cfbd 78c6 3c3e
000002f0: 7be2 8d3d 3e50 873d cbd0 2a3e b7cd ad3d
00000300: 01c8 993e dcc0 c4bd f9fe f2bd 930b 233d
00000310: 9c9d 323d d77c fb3c e074 86be cec4 12be
00000320: efe6 bf3c 85bd acbb a75f 46be 62f4 363d
00000330: 10ee 68be d13b 433e da87 5dbe 0c57 c5bd
00000340: 759b 2cbb 7c6f c53c 646e 9fbb 0bee b53d
00000350: 2623 13bd 755b 583e 1dad 103e fabd 19bd
00000360: 5dcd 8ebe 5218 ed3d 5776 36be 2a32 03bd
00000370: 2063 623e f18b 083e c9a1 003e 0925 96bc
00000380: d54e d83e f60c 7d3d 393a c33d 2fda 753e
00000390: fe94 4fbd ccf2 d43d 3522 98be 9b2a 92bd
000003a0: d34d 7d3d 27e6 07be aad9 1e3e f0f8 183e
000003b0: 82e9 03bc 7d9c cb3e 1562 e9bd a1aa 8fbd
000003c0: da70 b83e 893d ae3d 4b52 9ebe a0b4 e23c
000003d0: 7ce2 30be ca62 703e f938 993d 036a 313d
000003e0: 3313 24be dc91 ca3d 8de9 d0be 77b0 043e
000003f0: 98c9 063e 1407 16be c0dc 8d3e 6570 5bbd
-0.037696388 -0.05780569 0.113426626 0.14872414 0.15351439 0.02312685 -0.2676806 -0.1980079
0.1992922 -0.1267725 -0.0839293 -0.041242976 -0.06040576 0.31122318 -0.03594591 -0.08226373
0.03159582 -0.057725117 -0.22820114 0.07784973 -0.14851075 0.092387035 0.048455138 -0.10017363
-0.24054022 0.20747696 -0.11565011 0.2712727 -0.01065621 0.19352007 0.35259566 -0.024401983
-0.019407568 0.0860571 -0.17303172 0.05327867 0.18848434 0.1128447 0.20464808 -0.19364956
-0.0718806 -0.017553955 0.11394279 0.07499942 0.01081057 -0.07810124 0.009914207 0.26864946
0.038413092 0.049135078 0.15801908 0.14051118 -0.070278354 -0.059113596 0.0048588836 -0.04560788
0.05486344 -0.014580535 0.20507081 -0.18694744 0.22166614 -0.04960067 -0.002048725 -0.065708116
0.17958897 0.032238092 0.14858982 0.2877364 0.13407835 0.05644051 -0.20280333 -0.13125084
-0.009048844 -0.11963228 -0.055153 -0.09828356 -0.12779416 0.166289 0.055571835 -0.08855259
0.09988359 0.08282623 -0.3610071 -0.0018269753 -0.096220985 0.10217548 -0.08673525 -0.21242186
-0.33258677 0.055245273 -0.4511595 0.28096327 0.11930903 0.15128468 0.09004543 0.2065099
0.04271232 -0.18429081 0.3689521 0.5647615 0.15122086 0.044888753 -0.43425554 -0.015660003
0.0110578295 -0.10334877 -0.03139099 -0.08904225 -0.3475053 0.14631653 -0.010924708 -0.123294815
0.23514195 -0.0069758976 -0.30654576 0.01781447 -0.16735661 0.30895245 -0.049757823 -0.017397009
-0.3558081 0.1982333 -0.31894332 0.191082 0.17704421 0.024987718 0.2599445 -0.12748009
-0.08048767 -0.13007735 0.010082978 0.16588286 0.17446631 0.2431306 -0.034359295 -0.064110145
0.092961974 0.057988655 -0.18052493 0.069737494 0.029037418 0.26210073 -0.124138705 0.0779188
0.07922025 0.016805777 -0.08704788 0.10404535 -0.043474007 -0.084218964 0.05185493 -0.08321842
-0.1672207 0.01906253 0.012167476 0.25958988 0.07348279 0.15356673 0.112138815 0.03435207
0.07075062 0.0060682413 0.0071019693 0.18051611 0.16165142 0.1732441 -0.025126498 0.03037131
0.2519875 -0.1282662 -0.090064555 0.09715424 -0.13579887 0.05396588 -0.066262834 -0.14836527
0.109116934 0.0060067056 -0.14380696 0.041415125 -0.21336652 -0.07804301 0.11568984 -0.24299215
-0.16235003 0.021338036 -0.1011062 0.18435085 0.06927963 0.06607102 0.1668121 0.084865026
0.30035403 -0.096070975 -0.118650384 0.03980596 0.04360734 0.030699177 -0.26261044 -0.14332888
0.023425547 -0.005271616 -0.19372426 0.044666655 -0.22747064 0.19065787 -0.21633855 -0.096357435
-0.0026337777 0.024101011 -0.0048654545 0.08883294 -0.035922192 0.21128638 0.14128537 -0.03753469
-0.27891055 0.11576904 -0.1781858 -0.032030262 0.22108126 0.13334633 0.12561716 -0.018328207
0.42247644 0.06177994 0.095325895 0.24009012 -0.0506792 0.10397872 -0.29713598 -0.071370326
0.061841797 -0.1327139 0.1551272 0.14938712 -0.008051278 0.3976783 -0.11395661 -0.07014967
0.360236 0.08507831 -0.3092216 0.02767402 -0.17273897 0.23475185 0.0748157 0.04331399
-0.16022949 0.09891102 -0.40803185 0.12957941 0.1316284 -0.14651138 0.2770748 -0.053573985

decoder.gru.weight_hh_l0 f4 [96, 32]
00000000: 85fd e33d 82b9 403e 3dc2 b3be 488a 19bf
00000010: 130f 8abd 9c51 dfbe bbdb 2cbe 09de ef3d
00000020: 1faa b8be a80a 6f3e 2900 c83e 639f 18be
00000030: 9cc2 c4bd 40d4 083e 9119 31bf a845 cfbd
00000040: 872f 1ebf f325 febd c748 86be a738 8c3e
00000050: d89e dfbe 90d1 983e 847b 66be 2e15 f43d
00000060: 762b ba3e 5c04 033c 5fb2 383e b737 b13e
00000070: b914 be3d d040 fd3c 021f aebe 32eb 823d
00000080: cf41 a2be 68e4 c2be 520e 19be cfd9 7fbe
00000090: d20e 753e 1e61 093d 1483 b9bd bb29 0abe
000000a0: c0d2 45bd c40c 013e 7408 7f3d abea 3f3d
000000b0: b34e 68be 09fd c23e 7bad 41be f8ca cabc
000000c0: 78dc 1dbd 50ee 813d 27d5 663e 5ec8 85bb
000000d0: 5b60 90bd a28d 1e3d 6a36 783d 0ec5 a53e
000000e0: 3035 b93e f52c f33d 316e de3e 7813 e73d
000000f0: 6687 0c3e 90f9 a4bd d8d2 2dbd 1a51 303e
00000100: 5bae 3c3c 21e9 5e3d 20f1 73bd 4854 81be
00000110: 6675 2a3e 1d2a 09be dc3a 9dbe 422c 9dbd
00000120: 3651 3bbe 8957 0c3e f6b2 563d 3c30 69be
00000130: b29f ce3d 3b33 d7bd 00a8 54be d987 b4be
00000140: 231e b1be eec5 12be 3945 c8bd 70b2 c93d
00000150: baa6 cebe 75d5 9b3d b2a5 1abe 806e 013e
00000160: dd3a 153f cc38 76bd 3656 7c3d 7232 d13e
00000170: 8586 453e 0900 89bd 1785 a4be 9baa 23be
00000180: 626c d3bd 0c85 0e3e 71fb 5cbc de83 643e
00000190: a923 f6bd 597d cfbd 2247 34be d769 b43d
000001a0: 8ae8 15be 6509 143d 3d31 abbd 0169 6fbe
000001b0: 2f03 073c 2074 993b c90b babe a557 cfbd
000001c0: 56f5 a1be df68 3dbe 9daf 42be d5e5 4dbd
000001d0: 5c14 e6be b2d9 01be 7b81 f6bd 35f9 05be
000001e0: 93f8 ba3e 8266 643d fe8c 48be 108f c5bd
000001f0: 2e64 4f3e 70e1 a23d 1c69 8dbe 2f1d 0d3d
00000200: 4a9c 7fbd e1fc fd3d 8a37 4ebe d279 93be
00000210: b89d c13e 8984 cdbe ca56 ccbe 2abf 09be
00000220: 54cb d3be 3a26 d53e e196 0d3e 9b78 03be
00000230: ad8b d2be 6054 1fbc dcc8 74be 72ba 92bd
00000240: 909f 25be 3bcb ff3b 94bb d0bd 01bf 8e3d
00000250: b5ff f0be 2871 d9bd 1451 a7be 7450 893d
00000260: 10c3 c83e f352 0dbe 7bdf 593e acc0 9a3e
00000270: 82ed d23e bc5c 98bd 422f cebd e9f5 463d
00000280: 4f09 203e 155a 273e 576b 89bd e963 ae3d
00000290: e1e9 e13d ab7a 89bc f59f 35be 1121 eabd
000002a0: eb34 8439 1e44 ed3d 4e54 2a3d 0cdd a2be
000002b0: dda4 013c fc64 183d e93d 0abf cc8b f83b
000002c0: d72d a1be 65f7 1fbe 6255 84be baa3 cdbd
000002d0: 6c37 b7be b3eb 23be 7f8b d0be 8bfb 533d
000002e0: c085 5c3e c509 a0bd 35ff 19be d650 d23e
000002f0: 53f6 223b a9d6 91be a5b0 cbbe 8524 1d3d
00000300: a9ce bdbe 8dd4 c8be 26ad 27be a1b6 ebbe
00000310: 822b 37bf e0c7 fcbe 5692 f9bd abb1 e5bd
00000320: 5c75 7ebe 10b6 463f 7b41 8c3e a636 d0be
00000330: 59e8 97be 3e1e cf3e a98e 9cbe ca8b 0d3e
00000340: 0201 d9be ead9 2d3e 9f8e 6abe ae4f d5bd
00000350: a0f9 f1be 76e5 3e3e 4428 06bf 8adf d43e
00000360: 3b1a 0d3f 4fce 303e 1a6e 993e a23d 653f
00000370: 865b 3dbe bff4 c8bd ae72 7c3e 8d79 093f
00000380: cfec 1c3d 69e7 7fbe 82f9 3cbf cfbf d73e
00000390: 6590 ad3e 3b53 83be 290e c5bd 2dff 0b3f
000003a0: 4430 adbd 6a0a 223e 07da c1bd 8f46 c3bd
000003b0: 37cc e3bc 9f93 1cbc 4ea6 cebe a456 efbe
000003c0: 00c2 5ebe fda3 c8be 19c5 ce3d e12f 5bbd
000003d0: 258e c3bd 781b 653e 0ee2 b8be c88e 28bf
000003e0: 87ea 82be dac2 423f d1e3 6bbe a467 f3be
000003f0: dda7 113f e849 7abe 9ccd 8cbe 0c6b df3e
0.111323394 0.18820766 -0.3510913 -0.59976625 -0.067411564 -0.4361695 -0.16880696 0.11712272
-0.36067292 0.23343909 0.39062622 -0.14904551 -0.09607431 0.13362217 -0.69179636 -0.10120708
-0.6179127 -0.12409582 -0.262274 0.27386972 -0.43675876 0.29847383 -0.22508055 0.11918102
0.36361283 0.007996645 0.18036793 0.3461282 0.09281296 0.030914694 -0.34008032 0.06392516
-0.31690833 -0.38064885 -0.14946869 -0.24985431 0.23931435 0.033539884 -0.09058204 -0.13492481
-0.04829669 0.12602526 0.06226392 0.046854656 -0.22686271 0.38083676 -0.18913834 -0.024754986
-0.038540334 0.063442826 0.22542249 -0.0040827235 -0.07049628 0.03870929 0.06059877 0.32376903
0.3617339 0.11873809 0.43443444 0.1128301 0.13723525 -0.08055413 -0.042437404 0.17218438
0.011516179 0.054421548 -0.059556127 -0.25259614 0.16646346 -0.13394971 -0.3070897 -0.07674457
-0.18292698 0.13705267 0.052416764 -0.22772306 0.10089053 -0.10507818 -0.20767212 -0.35259894
-0.34593305 -0.14333317 -0.09778828 0.098484874 -0.40361577 0.07609073 -0.1510227 0.12639809
0.58292943 -0.06011276 0.061605655 0.408588 0.19289596 -0.0668946 -0.3213279 -0.1598305
-0.10323407 0.13917941 -0.013487683 0.22315928 -0.120185204 -0.1013133 -0.1760526 0.0880925
-0.14639488 0.03614177 -0.08359001 -0.233799 0.008240505 0.0046830326 -0.36337116 -0.10124139
-0.3163249 -0.18497036 -0.19012304 -0.050268013 -0.44937408 -0.126807 -0.12036415 -0.13083346
0.36517772 0.05576182 -0.19585034 -0.09646428 0.2025306 0.07953155 -0.27619255 0.03445166
-0.06240491 0.124017484 -0.20138374 -0.2880388 0.37815642 -0.4014018 -0.39909965 -0.1345183
-0.41366065 0.41630727 0.13827087 -0.12838976 -0.4112219 -0.009724706 -0.23904747 -0.07164468
-0.1617415 0.0078062094 -0.10192028 0.06970025 -0.4707009 -0.10617286 -0.32679045 0.06704798
0.3921132 -0.13801174 0.21276657 0.30225122 0.4119683 -0.07439563 -0.100676075 0.048574362
0.15628551 0.16342957 -0.067099266 0.0851515 0.11030937 -0.016782125 -0.177368 -0.11432088
0.0002521643 0.11585258 0.041584305 -0.3180927 0.007912842 0.03720568 -0.5400072 0.0075850245
-0.31480286 -0.15621717 -0.25846392 -0.10040994 -0.3578447 -0.16007881 -0.40731427 0.051753562
0.21535397 -0.078143634 -0.1503876 0.41077298 0.002486606 -0.28484085 -0.39783207 0.038364906
-0.37071732 -0.39224663 -0.16374645 -0.46037772 -0.7155076 -0.49371243 -0.121861145 -0.11215528
-0.24849457 0.77621555 0.27393708 -0.40666693 -0.29669455 0.4045276 -0.3057759 0.13822857
-0.4238358 0.16977659 -0.22905968 -0.10415588 -0.4726076 0.1864222 -0.5240519 0.41576797
0.5511815 0.172662 0.29966813 0.8954717 -0.18491945 -0.098123066 0.24653122 0.53701097
0.038311776 -0.2499062 -0.7381822 0.42138526 0.33899227 -0.25649437 -0.096218415 0.5468624
-0.084564716 0.15824285 -0.094654135 -0.09534942 -0.027807338 -0.00955668 -0.40361255 -0.4674579
-0.21753693 -0.39187613 0.10096187 -0.053512458 -0.09548596 0.2237376 -0.36109966 -0.65842867
-0.25569555 0.7607857 -0.23036124 -0.4754001 0.56896764 -0.24442255 -0.27500618 0.43636358

decoder.gru.bias_ih_l0 f4 [96]
00000000: c2f7 273f fa3d f03d e0bf 063f 2d28 723e
00000010: d728 c53e fe7a a73e d8bd c43e 9509 373e
00000020: b369 373f 70b7 253f 3194 063e a0b7 193f
00000030: 19a4 423e fa85 d23e dd73 953e ac82 253f
00000040: 8501 ab3e 6630 f73e 3f07 113f 1d70 e63e
00000050: b9e0 0d3f 5fd7 0d3f 8b2a 143f 7f8f 333e
00000060: 0318 d83e e16f a93e 9d54 073f 1428 613e
00000070: b0cf 233f 7399 c33e 9eeb 043f 1122 823e
00000080: 7b89 abbc 7a80 463f b90d 4d3e 6910 a4be
00000090: df86 de3e 67f7 1ebe 22a7 b1be 071e ddbd
000000a0: 1b14 babe 1a03 35be e5d0 5abe 2f94 dbbd
000000b0: 0502 aebd f98c 2abe e7f6 4ebe 74e4 a93e
000000c0: 61d9 15bf 336c e1be 49d7 82bf ec50 97bd
000000d0: abb4 1bbf c4aa 38be 2aa7 93be e528 14bf
000000e0: e8ff 38bd 0794 b03e 0298 aabe 39b9 cebe
000000f0: bdf8 b5be 2eb9 723d b421 803e f7ca a23e
00000100: 6f22 683d 2967 87bd f1f4 3dbe 90d8 79be
00000110: 60ca 863e 54f6 91be e40f 1dbe c586 0abe
00000120: e86f 85be bc4b b23c ada2 083f b7e0 2abe
00000130: 023a f93d bf09 523e 1981 9abd 431f 9cbd
00000140: 7551 83be 7a81 cabe 52a6 f23c 8d3e c23d
00000150: 7569 70be c2c3 0d3d e27b a4be f2e4 3bbe
00000160: 8003 a93e 3443 b93d 0b5f 2d3e 078b debb
00000170: b2c8 803e 7ad7 1f3e 3d47 bfbe 31b3 1d3e
0.65612423 0.11730571 0.5263653 0.23648138 0.3850772 0.32711023 0.3842609 0.17874749
0.7164566 0.6473303 0.13142468 0.60045815 0.19007911 0.4111784 0.2918996 0.64652514
0.33399597 0.48279113 0.5665168 0.4500741 0.55421025 0.55406755 0.57877415 0.17535208
0.4220582 0.3309317 0.52863485 0.21987945 0.6398878 0.3820301 0.51922023 0.25416616
-0.02093958 0.7753979 0.20024766 -0.3204377 0.43462273 -0.15524064 -0.34697825 -0.10796743
-0.36343464 -0.17676964 -0.2136875 -0.10721623 -0.08496479 -0.1665534 -0.20211373 0.33182108
-0.5853482 -0.44027862 -1.022195 -0.073884815 -0.6082255 -0.18033892 -0.28838474 -0.578749
-0.045165926 0.34487936 -0.33319098 -0.4037569 -0.35541335 0.059258632 0.25025713 0.31795475
0.056673463 -0.06611473 -0.18550469 -0.24399018 0.26326275 -0.28508246 -0.15338093 -0.13527973
-0.2606194 0.021764629 0.53373224 -0.16687284 0.12169267 0.2051153 -0.07544155 -0.0762315
-0.25648084 -0.39551908 0.029620323 0.09484587 -0.23477729 0.034610517 -0.32125765 -0.18349054
0.33010483 0.09046021 0.16930787 -0.0067914757 0.25153118 0.15609542 -0.37359038 0.15400387

decoder.gru.bias_hh_l0 f4 [96]
00000000: 65d8 2b3f 693c da3d 7ad1 9c3e 9921 c33e
00000010: f22b 7a3e 1f53 2f3e 7209 8f3e f986 fd3e
00000020: 173c 063f d1c1 463f 4dce 2ebc 5623 0e3f
00000030: 271b 74bd e679 1f3f 8c51 d33e 2074 213f
00000040: aaf3 003f 5151 1e3f a3cc 143f dad7 e43e
00000050: 430d 413f b093 183f c066 8b3e b022 873e
00000060: e101 e03e 7549 6b3e a99a 923e 7ac9 3c3e
00000070: e058 383f 2298 413e 2a3c b33e 7bff da3e
00000080: c1a8 463e 1fb1 403f d06b a13e 448a 3ebd
00000090: d3c4 ae3e 59a7 ff3c 2978 85be c0b1 02bd
000000a0: df24 87be 2c87 20bd 443e 95be 285b 69bc
000000b0: b254 21be a68e 45bd 1ef4 5dbe 370c ed3e
000000c0: d103 1bbf cc28 8dbe 9a18 4bbf 35f0 74be
000000d0: 6c8c 09bf 1398 fdbe bca4 e0be 8c5c 4bbf
000000e0: fa93 00be 2b20 8b3e c32d a5be d3c0 67be
000000f0: 3049 2cbe 262b 90bc 4c33 893e 591b c43e
00000100: b969 04be bcee 843c 6d0f 8bbe 6177 ffbd
00000110: da71 8c3e e7af 9cbe 44cf 81bd d98f 87be
00000120: 0f7a 1dbe 23e3 c03d c91b 8a3e bbc7 cb3c
00000130: 2c7f 70be f87f b0bd c9e4 6dbd e2c2 72bd
00000140: 5b3d 00be 62ea f13e 70f4 16be 3384 01bd
00000150: 963b c23d 39b6 293d 5a7c 43be bfec e33e
00000160: ce2d 7e3e 9a96 a6be 91e1 813e 97ff 883e
00000170: 351a 393e fdb4 1abe c5f6 85be 2884 05be
0.67127067 0.106560536 0.30628568 0.3811157 0.24430826 0.17121552 0.27936894 0.49517038
0.5243544 0.7763949 -0.010669303 0.5552267 -0.059596207 0.6229538 0.41273153 0.6306782
0.503718 0.6184283 0.5812475 0.44695932 0.7541086 0.59600353 0.2722683 0.26393652
0.43751433 0.2297724 0.2863362 0.18436232 0.7201061 0.1890569 0.3500684 0.4277304
0.19400312 0.75270265 0.31527567 -0.04651858 0.3413454 0.031207727 -0.26068237 -0.031907797
-0.26395318 -0.03919141 -0.29149067 -0.014242925 -0.15754965 -0.048231743 -0.21675155 0.46298382
-0.605527 -0.27570188 -0.79334414 -0.23919757 -0.5372989 -0.49530086 -0.43875682 -0.7943809
-0.12556449 0.2717298 -0.32261476 -0.2263215 -0.16824794 -0.0175987 0.2679695 0.38302115
-0.12930955 0.016227119 -0.27160206 -0.124739416 0.27430612 -0.30602953 -0.06338361 -0.26476935
-0.15378593 0.09418323 0.26974323 0.024875512 -0.23486012 -0.08618158 -0.058079515 -0.059267886
-0.12523405 0.47249132 -0.14741683 -0.031620216 0.09484021 0.041433547 -0.19090405 0.4451656
0.2482216 -0.32536775 0.25367406 0.267575 0.18076403 -0.15108104 -0.26164833 -0.13038695
