Models/071223/0_decoderForced.pth (torch, 154237 bytes, 40 tensors)

encoder_embedding.weight f4 [47, 32]
0.98387134 0.75616837 -0.18035999 1.0563083 -0.89508003 -0.6423697 0.99521667 -0.6150461
1.1663282 1.5920911 1.7270371 -2.2029274 0.14581631 1.6409991 -0.08429362 0.9479435
0.45148054 1.2655141 1.351294 0.37621516 1.4338881 -0.3866401 -0.99973315 0.05864704
0.8139184 -0.5196696 -0.21551338 -0.952287 0.026192656 0.37145337 -0.097308606 0.0
0.033580802 0.95272076 0.45804614 -0.9498543 1.1136724 0.17076357 -0.29081553 -0.84903276
-0.5157262 -1.6507304 1.537452 -1.0114892 -2.1525044 0.0008587656 1.0815109 -0.8053652
-0.7362448 -0.24096401 -0.37241873 -1.130837 -1.7009598 -0.56676275 0.5846833 0.25040504
0.07070542 -0.9393524 0.00935962 -2.1523707 -1.004281 -0.24244319 0.6172887 0.0
-1.3191471 1.2429637 -1.569046 0.09852857 1.7643263 -0.9706998 -0.67269516 0.3515948
1.1000714 -0.24885848 -0.3686851 0.7144012 1.2892073 -0.026153695 -0.030040177 0.8471455
-0.42243922 -0.4494182 -0.11661343 1.1400257 -0.33926556 1.4065306 1.8584964 0.7731533
-1.8763589 -1.4973556 0.7457795 -0.22089253 0.43999606 -0.6080949 0.37146038 0.0
0.9325793 -1.5847054 0.9754058 0.12368759 -1.2853726 -0.6309584 0.26507694 -0.8044735
-0.34769535 0.37448636 0.75847775 0.10946413 -2.0971954 -1.1552051 -0.097189926 -0.14541075
1.4736578 1.269954 -0.9306362 0.5040578 -0.029684732 0.37227923 -1.4543592 -0.6771651
0.6074789 -1.0142951 0.39227828 -0.7918593 -0.2666136 -1.238984 0.8192664 0.0
-0.09441081 -0.07594969 1.0008578 -0.5211539 1.9978124 -0.25243598 -0.3990499 1.2499658
-0.43460226 1.108129 0.08789268 -0.29854232 -0.014328548 -1.1939007 -0.887547 1.0746601
1.191079 0.22225045 -1.1102957 0.4362542 1.7291478 0.09835078 -0.59328914 -0.03635734
0.09411274 0.6736205 -0.38072455 0.24286179 -1.5191358 -1.7983835 0.57835567 0.0
2.044031 0.91912884 0.17981078 -0.72885126 0.04652316 -1.4448049 -0.58568805 -0.17226283
-1.4307457 0.0928954 1.5019965 0.5427596 0.10428344 0.36464894 -1.9202143 0.80987054
-1.2480714 -0.7252219 0.47713962 0.5900644 -0.27164415 -0.10774131 1.0767486 0.26080197
-0.5841626 -0.6921661 0.9576084 -0.4984475 -0.40738267 -0.7853495 -1.4462143 0.0
-0.4282242 1.4924828 -0.15851423 -0.4875286 1.0438522 -0.08851955 -0.20815553 0.51231134
-0.40064988 0.6621394 -0.86871696 -0.8855512 0.91930455 -0.5677306 -0.5045658 -0.7796313
2.4092412 0.5821813 -0.8477519 0.175623 -0.47045293 0.16627714 -2.155203 -1.4341972
-1.290725 -0.115825914 0.7814702 1.5676984 -0.018137615 0.096460275 0.84809107 0.0
-0.6437389 0.02393784 -0.454369 1.2627599 0.8679139 -0.9387929 0.4446394 1.2695414
0.20383127 -0.51774216 0.5533418 -0.27400458 -1.4988711 -0.62594813 1.0675615 -0.4956088
-1.9299783 -0.6864551 -0.0047309306 -0.24204603 -1.3437545 0.07141275 0.10511606 0.6506812
-1.0123006 -0.44286945 0.7623726 -0.15732722 1.1019721 0.66279197 -1.0426075 0.0
00000000: fede 7b3f 4094 413f 4ab0 38be 1c35 873f
00000010: f723 65bf 5772 24bf 85c6 7e3f a973 1dbf
00000020: 3e4a 953f a4c9 cb3f 8d0f dd3f c3fc 0cc0
00000030: df50 153e 420c d23f 22a2 acbd 6dac 723f
00000040: 7528 e73e 5efc a13f 34f7 ac3f 469f c03e
00000050: a589 b73f b1f5 c5be 83ee 7fbf e137 703d
00000060: f55c 503f 1109 05bf 8aaf 5cbe 15c9 73bf
00000070: fb91 d63c 232f be3e bc49 c7bd 0000 0000
00000080: 068c 093d 82e5 733f 0685 ea3e a729 73bf
00000090: d18c 8e3f a5dc 2e3e c6e5 94be 365a 59bf
000000a0: a206 04bf 224b d3bf 3acb c43f 7a78 81bf
000000b0: a2c2 09c0 c91e 613a f36e 8a3f 6a2c 4ebf
000000c0: 8a7a 3cbf 45bf 76be abad bebe 44bf 90bf
000000d0: 0db9 d9bf 5d17 11bf cead 153f 1735 803e
000000e0: 01ce 903d 6679 70bf 1759 193c 71c0 09c0
000000f0: 488c 80bf 0743 78be a206 1e3f 0000 0000
00000100: d0d9 a8bf 6f19 9f3f 80d6 c8bf 59c9 c93d
00000110: 72d5 e13f c87f 78bf c035 2cbf 3c04 b43e
00000120: 24cf 8c3f c2d4 7ebe 4bc4 bcbe ffe2 363f
00000130: bf04 a53f 4640 d6bc d116 f6bc 87de 583f
00000140: f449 d8be 241a e6be 06d3 eebd 5dec 913f
00000150: 37b4 adbe 3209 b43f 36e3 ed3f 60ed 453f
00000160: 872c f0bf 59a9 bfbf 68eb 3e3f a731 62be
00000170: 2a47 e13e 1bac 1bbf 0e30 be3e 0000 0000
00000180: 84bd 6e3f a0d7 cabf 32b4 793f eb4f fd3d
00000190: 1787 a4bf 7d86 21bf 2ab8 873e faf1 4dbf
000001a0: 2005 b2be adbc bf3e 992b 423f bb2e e03d
000001b0: 7338 06c0 c3dd 93bf 830b c7bd 8ee6 14be
000001c0: d2a0 bc3f da8d a23f 2d3e 6ebf ef09 013f
000001d0: 652d f3bc 629b be3e 7128 babf b15a 2dbf
000001e0: bd83 1b3f 6cd4 81bf b3d8 c83e 4bb7 4abf
000001f0: 9481 88be 0797 9ebf 71bb 513f 0000 0000
00000200: 745a c1bd 838b 9bbd 1c1c 803f 586a 05bf
00000210: 51b8 ff3f 4a3f 81be 4550 ccbe e1fe 9f3f
00000220: 3084 debe 2cd7 8d3f 1401 b43d 8ada 98be
00000230: 49c2 6abc bdd1 98bf 4836 63bf 768e 893f
00000240: 4775 983f 9f95 633e 2b1e 8ebf b65c df3e
00000250: b754 dd3f 226c c93d cce1 17bf 6feb 14bd
00000260: 2ebe c03d 6572 2c3f 54ee c2be c3b0 783e
00000270: 0b73 c2bf 6e31 e6bf 1e0f 143f 0000 0000
00000280: 67d1 0240 074c 6b3f 5120 383e ff95 3abf
00000290: 128f 3e3d 5eef b8bf a7ef 15bf ab65 30be
000002a0: ad22 b7bf f23f be3d 6c41 c03f 4bf2 0a3f
000002b0: 8e92 d53d 44b3 ba3e 95c9 f5bf ad53 4f3f
000002c0: cec0 9fbf 24a8 39bf a54b f43e 760e 173f
000002d0: f114 8bbe 7aa7 dcbd e6d2 893f d687 853e
000002e0: ae8b 15bf cc31 31bf d325 753f 8334 ffbe
000002f0: 7694 d0be aa0c 49bf 8d1d b9bf 0000 0000
00000300: 3440 dbbe ad09 bf3f 8e51 22be 599d f9be
00000310: f39c 853f bd49 b5bd b926 55be d626 033f
00000320: fb21 cdbe f881 293f 3c64 5ebf 7cb3 62bf
00000330: 8b57 6b3f cb56 11bf 392b 01bf eb95 47bf
00000340: 0231 1a40 d509 153f 4506 59bf 84d6 333e
00000350: 35df f0be 8e44 2a3e d9ee 09c0 c693 b7bf
00000360: 7a36 a5bf 2336 edbd 6e0e 483f 57aa c83f
00000370: 5695 94bc f78c c53d 7f1c 593f 0000 0000
00000380: 13cc 24bf 4a19 c43c 0ea3 e8be 1ea2 a13f
00000390: 9b2f 5e3f bb54 70bf c7a7 e33e 5580 a23f
000003a0: 25b9 503e c08a 04bf cfa7 0d3f 544a 8cbe
000003b0: 02db bfbf 233e 20bf dba5 883f 70c0 fdbe
000003c0: 8709 f7bf 85bb 2fbf ec05 9bbb eada 77be
000003d0: 2600 acbf d940 923d 1747 d73d 0b93 263f
000003e0: 1193 81bf c9bf e2be da2a 433f 631a 21be
000003f0: 6c0d 8d3f bcac 293f 2a74 85bf 0000 0000

decoder_embedding.weight f4 [45, 32]
2.377177 -0.68986857 1.2803808 -0.96063685 -0.49220118 -1.4721184 -0.37319884 0.042501338
0.5028588 0.49108058 -1.359391 -0.1887526 0.013823183 0.38052794 -1.1163818 0.14042537
-1.044959 -0.08052823 -0.9734739 0.34965894 -1.1146704 -0.80490327 -0.7078624 0.006361346
-1.410101 0.3219962 0.18354955 -0.09467161 0.90926665 0.27273223 0.19907063 0.19715784
0.3955414 0.89773995 1.5082859 -1.545856 0.027935429 2.5509276 -0.47946504 1.6631427
0.19931751 1.2818637 -0.05542922 -0.013112777 0.15293719 0.8439061 0.9723748 -0.24108584
0.8129982 -0.7776402 -0.13646063 0.07534374 1.5192873 -0.9472163 0.24695285 0.026589574
0.009031218 -0.76331973 -0.85976017 1.2843 -0.3351281 -0.5480668 1.6634707 -1.0997574
0.17239448 0.9936085 -1.8555807 -0.31578422 1.6584461 -1.871844 -1.3581975 -0.28337654
1.9465545 0.3942297 -1.6053149 1.7717758 -1.4305438 0.9635624 0.2753664 0.7869679
0.72705275 -1.3218796 -0.30885932 0.48447096 1.3078865 -0.97381693 -0.2521822 0.805873
0.99678266 -0.03672925 0.445916 1.6267303 -0.6924951 -1.3083652 -1.3767241 0.37274665
-1.281839 1.1704237 -1.3854216 -0.25580722 0.17918205 -0.39797813 0.8551658 -0.26441202
0.12184688 0.18538941 0.38346663 -1.4432658 0.83369356 0.3361514 0.45905808 -1.5231656
1.040254 -1.3385746 1.1233174 -0.1959714 2.3600245 -0.48677233 -0.16203152 0.35173225
-0.9892515 -0.33114275 1.9512149 0.18782148 1.1453849 -1.4553405 1.4479611 -0.24035102
0.75384164 -0.6125372 -1.2008239 -0.38360068 0.398058 -0.15807028 -0.99519956 -0.8647832
-0.9184496 -0.22091456 -0.4402398 -1.1832638 0.36250252 -0.6606572 0.43663666 -0.95183057
-1.1184874 0.73247576 -1.4033386 -3.2711196 -1.0135113 0.8280938 1.0312438 1.0770963
-2.4031992 -0.83208406 0.7300741 -0.31586847 -0.57412094 -0.66608727 -0.54443485 -0.4938819
0.62889624 -1.3836291 0.66709673 0.8490092 0.8589927 -0.27282193 0.15951088 -0.30072734
0.81540734 -2.329304 -1.107633 1.1413003 0.28621 1.649998 -1.0339595 -1.6806843
-0.1493626 -0.4873013 1.117217 1.5997201 0.43737933 -0.82645404 0.14544924 -0.8797253
-0.6005067 -0.7235152 -0.09431559 -0.7427225 1.2327472 -0.11792041 -0.38645142 0.7898989
-0.52821314 -0.8401905 -0.39044556 1.186888 0.23248717 -0.21996738 -0.1807328 -0.6499287
1.3579535 -0.7122115 -1.6894965 -1.8053323 -0.5588208 -0.27670464 -0.0399929 1.1393081
-1.242057 -0.2792464 0.29742983 0.61520404 0.84988165 -0.040183354 -1.0329823 0.8360936
-0.40788478 1.0303825 0.51017535 0.6032926 0.08476959 -0.8783707 0.9531859 -0.16074091
1.099092 0.34054416 0.25732553 -0.06157897 1.5126202 1.1281823 -0.5657493 0.5074426
0.36738822 0.30109692 -0.84271264 -1.4051706 0.20199828 -1.7587916 -1.0175164 -0.92770517
-0.2252765 1.3241028 1.8002765 0.2736878 -0.1966168 -0.13240556 1.590812 -0.06571829
1.2671825 -0.6258651 0.27392817 -0.5041766 1.5389218 0.6323621 -0.16346821 -0.24749672
00000000: ab23 1840 3a9b 30bf 85e3 a33f 4cec 75bf
00000010: cb01 fcbe 606e bcbf eb13 bfbe e215 2e3d
00000020: 5bbb 003f ea6e fb3e 8600 aebf 5d48 41be
00000030: a27a 623c 8fd4 c23e 99e5 8ebf abcb 0f3e
00000040: 37c1 85bf fceb a4bd 9635 79bf 7f06 b33e
00000050: 85ad 8ebf 240e 4ebf 7836 35bf d772 d03b
00000060: 317e b4bf b0dc a43e 6af4 3b3e 30e3 c1bd
00000070: b3c5 683f 8fa3 8b3e 2cd9 4b3e bfe3 493e
00000080: 6784 ca3e 49d2 653f 830f c13f 9cde c5bf
00000090: d7d8 e43c 6642 2340 717c f5be dce1 d43f
000000a0: e419 4c3e 1c14 a43f c009 63bd f9d6 56bc
000000b0: 919b 1c3e 3b0a 583f 8eed 783f 35df 76be
000000c0: a620 503f 6e13 47bf 56bc 0bbe d24d 9a3d
000000d0: 0278 c23f c47c 72bf 35e1 7c3e 61d2 d93c
000000e0: acf7 133c ec68 43bf 3e19 5cbf f163 a43f
000000f0: e995 abbe 1b4e 0cbf 9cec d43f dac4 8cbf
00000100: 2e88 303e 205d 7e3f ab83 edbf 78ae a1be
00000110: f647 d43f 9698 efbf 6ad9 adbf bb16 91be
00000120: b328 f93f 7ad8 c93e f57a cdbf 8dc9 e23f
00000130: 0f1c b7bf 07ac 763f d3fc 8c3e ba76 493f
00000140: 2120 3a3f 5a33 a9bf cf22 9ebe 940c f83e
00000150: d368 a73f 114c 79bf 061e 81be b14d 4e3f
00000160: 262d 7f3f 6971 16bd 1a4f e43e b338 d03f
00000170: 5c47 31bf 8378 a7bf 7f38 b0bf a6d8 be3e
00000180: 4d13 a4bf 72d0 953f 7f55 b1bf 2af9 82be
00000190: 807b 373e cac3 cbbe 25ec 5a3f 0361 87be
000001a0: db8a f93d b9d6 3d3e bd55 c43e efbc b8bf
000001b0: f16c 553f 091c ac3e a909 eb3e 17f7 c2bf
000001c0: 0b27 853f 6a56 abbf ddc8 8f3f baac 48be
000001d0: a40a 1740 393a f9be 97eb 25be 4016 b43e
000001e0: 963f 7dbf 8b8b a9be 69c1 f93f 4654 403e
000001f0: f99b 923f 9948 babf ca56 b93f 941e 76be
00000200: c4fb 403f 3dcf 1cbf 99b4 99bf 4f67 c4be
00000210: 42ce cb3e 2ddd 21be 66c5 7ebf 6f62 5dbf
00000220: 831f 6bbf 6d37 62be 1c67 e1be 3075 97bf
00000230: ee99 b93e d520 29bf d78e df3e 2bab 73bf
00000240: 982a 8fbf 8883 3b3f 99a0 b3bf 065a 51c0
00000250: bdba 81bf f5fd 533f ccff 833f 4bde 893f
00000260: 04ce 19c0 7603 55bf 23e6 3a3f 83b9 a1be
00000270: 97f9 12bf b284 2abf 1560 0bbf 17de fcbe
00000280: 58ff 203f c21a b1bf dac6 2a3f ab58 593f
00000290: f2e6 5b3f 51af 8bbe d256 233e eff8 99be
000002a0: 89be 503f 5113 15c0 ebc6 8dbf 2116 923f
000002b0: 1e8a 923e 2233 d33f c958 84bf aa20 d7bf
000002c0: 82f2 18be 8e7f f9be f700 8f3f a1c3 cc3f
000002d0: 2ff0 df3e 7e92 53bf a5f0 143e ad35 61bf
000002e0: cfba 19bf 4b38 39bf 8828 c1bd 1023 3ebf
000002f0: a9ca 9d3f 4280 f1bd f6dc c5be d036 4a3f
00000300: fa38 07bf b916 57bf 7be8 c7be f2eb 973f
00000310: 1e11 6e3e 213f 61be 0512 39be ba61 26bf
00000320: 6cd1 ad3f 7e53 36bf 6c41 d8bf 2115 e7bf
00000330: e10e 0fbf 3bac 8dbe 98cf 23bd d9d4 913f
00000340: b9fb 9ebf 62f9 8ebe b948 983e 037e 1d3f
00000350: d891 593f 4d97 24bd c438 84bf 3b0a 563f
00000360: 46d6 d0be 93e3 833f da9a 023f 6271 1a3f
00000370: ae9b ad3d e7dc 60bf fe03 743f 4499 24be
00000380: 0caf 8c3f ce5b ae3e 2cc0 833e 3b3a 7cbd
00000390: 8a9d c13f 4768 903f f2d4 10bf c2e7 013f
000003a0: 4f1a bc3e 6029 9a3e 04bc 57bf a1dc b3bf
000003b0: a3d8 4e3e 1520 e1bf fa3d 82bf 167e 6dbf
000003c0: e2ae 66be 337c a93f 766f e63f cf20 8c3e
000003d0: ea55 49be 5395 07be ba9f cb3f 5097 86bd
000003e0: 0933 a23f b238 20bf 5040 8c3e b811 01bf
000003f0: 64fb c43f 7ce2 213f 3664 27be c86f 7dbe

encoder_pos_embedding.weight f4 [8, 32]
0.47147727 1.235345 0.37437895 0.554957 0.4680109 0.57423705 -0.49410382 1.007669
1.7368091 0.97549385 0.21317911 1.2933953 -0.30554834 -0.35656205 -0.012359033 -0.9021304
-0.76802474 0.10509841 0.0027074434 1.3711783 1.3631731 -0.18945178 -1.0204949 -0.5504446
2.0092776 0.6380592 0.6779464 0.7649391 -0.8590404 0.02598136 0.14429216 -1.3355541
-1.4428185 0.9272182 0.25633407 -0.80326223 -0.45377076 0.79463696 0.62558967 -0.1669405
1.7410613 -1.898691 0.3681911 2.231015 0.08997573 0.11713693 -0.57027197 1.948642
0.26101735 0.50199795 -2.2287607 -1.4131782 0.7507147 -0.55860317 -0.078768775 -1.1837679
-0.018381951 -0.2102801 -0.20477426 0.5168281 -0.6420038 0.21977201 -0.09249167 -2.1947868
-0.06500446 1.3188378 -0.3345359 2.084744 0.6791763 1.6610148 -0.54355216 -0.052955247
0.037881594 1.6004515 0.5989636 0.13821921 -0.56025594 -0.5183734 -1.6019893 0.572366
1.5215838 0.21271022 0.8195496 0.58839315 1.0552318 1.4082278 -0.1550371 -0.17682257
1.2539006 1.3245645 -0.31576326 -0.6158951 -0.16130911 0.22030091 0.22861771 1.6617407
-0.9932161 0.25172737 0.36524093 -0.21960548 1.8979989 -0.8298851 -1.3432126 0.2921526
0.36605084 -0.96365345 1.816613 0.80800396 1.00099 -0.0012011008 0.19423217 0.89300346
1.8366247 -0.16954519 1.0724384 -0.56049484 -0.6762267 -0.04006961 -0.25378537 0.8911393
1.4059553 -0.5867695 -2.0411117 0.8634798 -0.9871662 1.3062863 0.016636772 0.6145712
-2.0389616 0.09399811 -0.3367527 0.26696277 2.250653 -1.4060507 -1.4554548 0.9549142
-1.1875736 0.8026992 0.3317708 -0.79377717 0.1737389 -1.8622864 1.709732 -1.4827604
1.2639394 -0.7172013 1.1597064 0.35926318 0.73725986 -0.8162763 -0.081144586 2.019792
-0.1016344 0.32462546 1.1064962 -0.084546685 0.74167705 -0.8172159 0.53689706 -0.4767837
-1.3296819 0.17989953 -0.4322034 -0.09087287 -0.48479933 -0.81232464 -1.5344347 -1.1608567
0.40370637 3.5317125 1.4001262 -1.1341193 -0.4311996 0.057672895 -0.5267436 0.7063715
0.16835678 -0.39158583 -0.25750864 -0.16710457 -0.6551194 0.29975402 0.27354202 1.4733083
0.9633828 -0.31272128 -0.012068635 -2.025488 0.26441193 -1.2116925 0.34532863 0.7661005
0.6928015 0.7525462 0.18855746 0.37027693 -0.85295826 0.13384694 0.6906959 1.2815264
1.2965596 -0.77587 -1.9609894 0.054720055 0.3540312 2.3205605 1.191516 1.8061746
-1.8912132 1.0715758 -0.3165902 -0.71047723 0.04587557 0.60889184 0.6583214 -1.1574062
0.027507598 1.3459591 -0.6589277 -1.5674838 0.5670282 2.3720694 1.4324439 -2.0762143
1.0570356 0.7864928 -0.6179828 2.3153262 -0.49885562 0.5613783 -1.0698783 -0.46942547
1.3553439 -1.3768215 -0.3218848 0.12885901 -0.54722124 -0.77371585 -0.2727912 0.27127165
0.88245624 0.4409713 -0.9477929 1.2243987 0.04008983 0.21787977 0.17711265 2.5217037
-0.73220503 1.4094841 0.12528406 -0.51111513 1.4386268 -0.80158716 0.7661433 -0.008187016
00000000: 7865 f13e c91f 9e3f 99ae bf3e a911 0e3f
00000010: 209f ef3e 3301 133f 2dfb fcbe 4cfb 803f
00000020: c34f de3f f7b9 793f a04b 5a3e fa8d a53f
00000030: d570 9cbe 4d8f b6be 8b7d 4abc 05f2 66bf
00000040: 459d 44bf d63d d73d 5d6f 313b c582 af3f
00000050: 757c ae3f a6ff 41be 949f 82bf f0e9 0cbf
00000060: 0198 0040 d957 233f e58d 2d3f 0dd3 433f
00000070: 12ea 5bbf dcd6 d43c 53c1 133e 70f3 aabf
00000080: 47ae b8bf 2c5e 6d3f 383e 833e 98a2 4dbf
00000090: a454 e8be 546d 4b3f a526 203f 73f2 2abe
000000a0: 19db de3f 4f08 f3bf 8b83 bc3e f3c8 0e40
000000b0: 3245 b83d 7de5 ef3d 58fd 11bf 1a6d f93f
000000c0: 11a4 853e f082 003f 04a4 0ec0 06e3 b4bf
000000d0: d72e 403f 9e00 0fbf 8651 a1bd b585 97bf
000000e0: bf95 96bc ab53 57be 58b0 51be d94e 043f
000000f0: 5c5a 24bf ea0b 613e 466c bdbd 6377 0cc0
00000100: 0f21 85bd adcf a83f 4a48 abbe 726c 0540
00000110: 7fde 2d3f 229c d43f 3c26 0bbf 9ae7 58bd
00000120: bb29 1b3d 98db cc3f ae55 193f 5689 0d3e
00000130: ef6c 0fbf 1fb4 04bf fc0d cdbf 9486 123f
00000140: 42c3 c23f b5d0 593e 01ce 513f efa0 163f
00000150: d611 873f cf40 b43f 0cc2 1ebe fa10 35be
00000160: d17f a03f 548b a93f b9ab a1be 4dab 1dbf
00000170: 372e 25be 9096 613e c31a 6a3e ebb3 d43f
00000180: 6943 7ebf 69e2 803e dc00 bb3e 42e0 60be
00000190: a1f1 f23f 5a73 54bf 64ee abbf 0795 953e
000001a0: 046b bb3e feb1 76bf c686 e83f 59d9 4e3f
000001b0: 7120 803f 416e 9dba cce4 463e e09b 643f
000001c0: 8516 eb3f 419d 2dbe a945 893f 977c 0fbf
000001d0: 311d 2dbf 0820 24bd 28f0 81be b521 643f
000001e0: 58f6 b33f 8736 16bf 93a1 02c0 030d 5d3f
000001f0: edb6 7cbf 6434 a73f d749 883c 8a54 1d3f
00000200: 597e 02c0 1582 c03d da6a acbe 58af 883e
00000210: b30a 1040 78f9 b3bf 584c babf 4275 743f
00000220: 6902 98bf b27d 4d3f dddd a93e fb34 4bbf
00000230: 9ce8 313e 675f eebf 80d8 da3f 18cb bdbf
00000240: c4c8 a13f 819a 37bf 4271 943f 58f1 b73e
00000250: 10bd 3c3f 7cf7 50bf 222f a6bd 4644 0140
00000260: b225 d0bd 4f35 a63e aba1 8d3f d026 adbd
00000270: 8cde 3d3f 1035 51bf 1672 093f fe1c f4be
00000280: 0433 aabf 9537 383e c449 ddbe 8e1b babd
00000290: 9e37 f8be 82f4 4fbf 5b68 c4bf f496 94bf
000002a0: 9ab2 ce3e 9407 6240 5637 b33f d22a 91bf
000002b0: 32c6 dcbe 6a3a 6c3d abd8 06bf c3d4 343f
000002c0: b865 2c3e f07d c8be 2cd8 83be 761d 2bbe
000002d0: e8b5 27bf 5c79 993e b30d 8c3e 5e95 bc3f
000002e0: 41a0 763f 011d a0be 86bb 45bc 98a1 01c0
000002f0: 0061 873e bd18 9bbf eace b03e 2a1f 443f
00000300: 705b 313f dea6 403f 3515 413e f094 bd3e
00000310: 795b 5abf 2c0f 093e 72d1 303f 0f09 a43f
00000320: aaf5 a53f 6b9f 46bf b301 fbbf 2322 603d
00000330: 9443 b53e 1084 1440 9983 983f bb30 e73f
00000340: 4613 f2bf 6529 893f 1c18 a2be d6e1 35bf
00000350: 06e8 3b3d 56e0 1b3f c087 283f e325 94bf
00000360: 9d57 e13c 6348 ac3f 7caf 28bf 4fa3 c8bf
00000370: c328 113f fccf 1740 525a b73f b2e0 04c0
00000380: f14c 873f 9857 493f 1f34 1ebf 4e2e 1440
00000390: 016a ffbe 7db6 0f3f c6f1 88bf 8958 f0be
000003a0: e97b ad3f b03b b0bf 16ce a4be 9ef3 033e
000003b0: b116 0cbf 3e12 46bf 4aab 8bbe 1ee4 8a3e
000003c0: a7e8 613f fdc6 e13e 8ea2 72bf 19b9 9c3f
000003d0: 3c35 243d e01b 5f3e 055d 353e 9863 2140
000003e0: ca71 3bbf fa69 b43f 774a 003e 71d8 02bf
000003f0: ec24 b83f d134 4dbf f821 443f d522 06bc

decoder_pos_embedding.weight f4 [8, 32]
-1.5888215 0.19694296 0.07275284 0.6064662 -0.92887497 -0.33398905 -0.6874132 -0.5222966
0.813555 0.15305416 0.3188422 0.76128405 -0.22372301 0.49115205 0.42323923 1.067792
0.04314678 -0.1457596 -1.0492158 0.35731038 -0.84446144 0.74991065 0.027595477 1.0138662
-0.6552256 -0.62516665 -2.8580644 0.27726868 0.8887027 -0.9906313 1.6022428 0.6198135
-0.15783536 -3.2096171 -1.0867367 -0.49936196 -1.1377515 -0.109427325 -0.4269085 -0.6801958
-1.9753397 -0.8088547 0.712207 1.5424864 1.4809085 -0.750754 0.9918688 0.074818574
-0.4379903 -0.4987635 -0.45270398 0.66052425 0.5627584 -1.0074594 0.85039663 -0.40165508
0.8839283 0.930422 2.5575678 -1.9721913 0.5851495 -0.041240755 -0.03968352 -0.32689393
0.81948596 -0.75125426 -0.32166803 -1.0746017 -0.66162324 0.78674054 0.6888667 0.72923297
0.13146862 -1.4183922 -0.124071755 -0.12749507 0.9825257 -1.0981114 -0.6201302 -1.5218513
1.1476964 0.95110035 -1.3186795 1.1990732 1.7456086 0.27086017 -1.2389745 1.1500585
-0.3281228 0.48107642 1.293124 -1.8408108 2.6017592 -1.581473 0.46946973 -0.46271002
-0.7441222 -1.3190821 -1.5499068 1.4165385 -0.14603882 1.071693 -1.5241282 0.5879881
0.53301954 0.42062452 -1.2773955 1.3188356 -0.27012283 0.037587583 0.072215244 -0.121773414
1.5882846 -0.74335647 0.33201712 -0.41495293 -2.2010698 0.32564333 0.089809865 1.1644093
-0.22464792 0.34537432 -0.47900096 0.37164047 0.0049542272 1.183108 -1.9929372 2.070283
-0.0050128456 -1.6111609 1.5588801 1.2882006 -0.6226655 -1.2018048 0.83843344 -1.0944477
0.16981764 0.09218445 -0.693844 0.071808755 0.48100722 -2.287985 -1.6813793 0.5614784
1.5099688 -0.48919582 -0.61219853 0.017632764 -0.41141406 0.61023086 -0.4428133 1.3448633
-1.4604275 -1.1545539 -0.54998666 0.21211703 0.73041356 1.1980207 2.2800837 0.34265426
-0.6989764 -0.2616811 -0.70477533 0.27631807 -0.5062979 0.41132623 -1.3659847 0.7367345
-0.0719439 0.12658301 -0.67356336 -1.0372891 0.09107164 0.10910517 -0.36668167 -0.61576724
1.3872591 1.1579441 -0.16696146 1.1317663 0.9131592 0.6580355 1.1471877 0.5412763
-0.24884807 1.1881478 -0.54504883 -0.4088038 -0.9522678 -0.30886343 -0.45178384 0.62373894
2.098361 -0.2712083 -2.2001045 0.2782652 1.0948337 -0.2038562 -0.3984475 -0.44742966
-0.6315226 1.7078719 -0.34266102 -0.4560043 0.8707089 1.0766195 -0.52340376 -0.6535046
-1.5490954 -2.1428974 0.4533735 -0.8227444 -1.6426853 -1.7634941 0.14249103 -2.327107
-0.013585664 -2.166982 -0.31736806 -2.0733855 -0.13422124 0.4654618 0.97781986 -0.24434583
2.003074 1.9181633 2.1075962 0.3739983 2.7512207 1.2291675 -0.04716882 0.6611395
0.44464204 0.79633516 -0.5391711 0.1581851 0.7615207 -2.2826173 0.48877808 -0.0848277
0.79065126 -0.6418095 0.117139 -0.31385478 -0.6054936 0.2249547 -1.3215002 0.38922918
-0.49770838 0.09710725 0.86253 -0.2526234 0.5673531 0.01998435 -0.3794946 0.27020612
00000000: 815e cbbf 6aab 493e 71ff 943d 5e41 1b3f
00000010: c0ca 6dbf 9d00 abbe 50fa 2fbf 3bb5 05bf
00000020: 2445 503f 3bba 1c3e 493f a33e 83e3 423f
00000030: a517 65be 4878 fb3e d0b2 d83e 69ad 883f
00000040: aeba 303d 0142 15be b44c 86bf 63f1 b63e
00000050: a02e 58bf 25fa 3f3f e90f e23c 5ec6 813f
00000060: ddbc 27bf ec0a 20bf 87ea 36c0 29f6 8d3e
00000070: 0582 633f 039a 7dbf 4b16 cd3f 19ac 1e3f
00000080: 989f 21be 5e6a 4dc0 301a 8bbf 5fac ffbe
00000090: d7a1 91bf 6f1b e0bd c093 dabe 5021 2ebf
000000a0: eed7 fcbf 1a11 4fbf 3353 363f 3270 c53f
000000b0: 698e bd3f 6a31 40bf 1deb 7d3f 7b3a 993d
000000c0: 4440 e0be ee5d ffbe d1c8 e7be 1e18 293f
000000d0: ef10 103f 6ef4 80bf 98b3 593f bca5 cdbe
000000e0: 2049 623f 2330 6e3f 31af 2340 c470 fcbf
000000f0: 5ccc 153f 11ec 28bd 308b 22bd a45e a7be
00000100: d5c9 513f 3352 40bf acb1 a4be 8c8c 89bf
00000110: 2460 29bf d467 493f 9159 303f 03af 3a3f
00000120: b69f 063e e08d b5bf 5519 febd 118e 02be
00000130: ce86 7b3f ea8e 8cbf dac0 1ebf 06cc c2bf
00000140: b7e7 923f 507b 733f 7dca a8bf 3b7b 993f
00000150: 1a70 df3f 2fae 8a3e b796 9ebf 1e35 933f
00000160: b6ff a7be a64f f63e 1685 a53f b09f ebbf
00000170: 3983 2640 b56d cabf 565e f03e 54e8 ecbe
00000180: cb7e 3ebf afd7 a8bf 5963 c6bf 2251 b53f
00000190: 338b 15be 3c2d 893f a216 c3bf 6386 163f
000001a0: f873 083f 195c d73e b281 a3bf 9bcf a83f
000001b0: 8a4d 8abe 70f5 193d 96e5 933d 5764 f9bd
000001c0: e94c cb3f 9c4c 3ebf 26fe a93e b674 d4be
000001d0: 54de 0cc0 b9ba a63e 3cee b73d 5d0b 953f
000001e0: 1b0a 66be e7d4 b03e 9d3f f5be a947 be3e
000001f0: 1257 a23b 1570 973f 9118 ffbf 847f 0440
00000200: cc42 a4bb 853a cebf 6289 c73f c2e3 a43f
00000210: 0267 1fbf bdd4 99bf 93a3 563f dd16 8cbf
00000220: ade4 2d3e 33cb bc3d c39f 31bf 7810 933d
00000230: 9446 f63e 596e 12c0 7037 d7bf 0cbd 0f3f
00000240: a846 c13f e077 fabe 0bb9 1cbf 9672 903c
00000250: dda4 d2be 1738 1c3f 6db8 e2be 7b24 ac3f
00000260: 4aef babf 6cc8 93bf edcb 0cbf 3535 593e
00000270: 62fc 3a3f be58 993f e4ec 1140 6170 af3e
00000280: 1ef0 32bf 11fb 85be 286c 34bf 9079 8d3e
00000290: bd9c 01bf 5a99 d23e 96d8 aebf a29a 3c3f
000002a0: 5357 93bd fa9e 013e a66e 2cbf e4c5 84bf
000002b0: c583 ba3d 8872 df3d b3bd bbbe eca2 1dbf
000002c0: b591 b13f 8337 943f f2f7 2abe b8dd 903f
000002d0: cdc4 693f 0475 283f 0cd7 923f 1591 0a3f
000002e0: 07d2 7ebe 3a15 983f 5288 0bbf bb4e d1be
000002f0: d3c7 73bf 5923 9ebe 3650 e7be 5bad 1f3f
00000300: 8c4b 0640 d0db 8abe 83ce 0cc0 c778 8e3e
00000310: 8323 8c3f aebf 50be 5001 ccbe 8015 e5be
00000320: 77ab 21bf 8c9b da3f 4471 afbe 6579 e9be
00000330: c7e6 5e3f abce 893f cafd 05bf 144c 27bf
00000340: c248 c6bf 3b25 09c0 9220 e83e 619f 52bf
00000350: 8343 d2bf 2dba e1bf 2be9 113e 52ef 14c0
00000360: 6896 5ebc d5af 0ac0 117e a2be 59b2 04c0
00000370: 4b71 09be 0251 ee3e 6752 7a3f cb35 7abe
00000380: 5d32 0040 6086 f53f dbe2 0640 b57c bf3e
00000390: 0014 3040 5c55 9d3f 1834 41bd 7040 293f
000003a0: 1fa8 e33e 9fdc 4b3f 1e07 0abf 46fb 213e
000003b0: 05f3 423f 6716 12c0 1f41 fa3e 25ba adbd
000003c0: 1f68 4a3f a14d 24bf 92e6 ef3d 93b1 a0be
000003d0: a101 1bbf 865a 663e eb26 a9bf 0c49 c73e
000003e0: a2d3 febe 2ae0 c63d c4ce 5c3f db57 81be
000003f0: 0e3e 113f 38b6 a33c 1e4d c2be 7558 8a3e

transformer.encoder.layers.0.self_attn.in_proj_weight f4 [96, 32]
-0.18457691 -0.08514893 0.13205071 0.13482709 -0.10391923 0.046416394 -0.0052858787 0.062942274
-0.034756985 0.10327528 0.31201747 -0.15376723 -0.02353488 0.15703215 0.17011967 -0.14676881
0.00412281 0.009241608 -0.11207034 0.2778294 -0.056571897 -0.23407057 0.042921852 0.018631479
-0.048969537 0.03696213 -0.14008854 0.087147996 0.11740639 -0.077185325 -0.06255353 0.0012847483
-0.08787785 0.19864234 -0.035960026 0.04269875 0.13123661 -0.06432939 -0.13685144 0.19697778
0.03907735 -0.21451752 -0.058802154 0.033889167 -0.0650822 0.08471346 0.14832674 0.07053466
-0.028864121 0.05271744 0.15582334 -0.14801824 -0.19409797 -0.13967535 0.16458082 0.105972566
-0.017684551 0.18290572 -0.20500784 0.063539915 0.034739792 0.04475137 -0.09737006 0.18186249
-0.20989321 -0.09928861 0.086716354 -0.11169306 -0.09171678 -0.06038705 0.08325181 0.06277913
-0.095599145 -0.05679689 0.09082324 0.08045488 -0.02491528 -0.1037238 0.10365549 0.16064687
0.034313846 -0.01957373 0.1304927 0.22553377 0.056383327 -0.011196259 0.17422745 -0.15751807
0.0039627845 -0.040425576 0.039420307 -0.14814302 0.010097545 0.1829994 -0.16163307 0.077796444
0.00025382178 0.03556946 0.0015452675 -0.09846907 -0.19397415 0.16018762 -0.013665764 -0.016915634
0.053386983 0.23138031 0.06201179 -0.08025575 0.09712771 -0.118100606 -0.23634188 0.2671761
0.12460854 -0.04315882 0.08723565 0.056444526 -0.111332014 -0.059254643 -0.05044551 -0.026492205
0.1834147 -0.035879914 0.122501224 0.0057472573 0.13385186 0.110831544 -0.112147346 0.028925195
0.15065429 0.087126136 0.11280473 0.3141067 -0.26794136 0.0023314797 0.23624027 -0.21435985
-0.00072068087 0.10349698 0.15380625 -0.123302355 0.08568667 -0.069964014 -0.038747676 -0.10354523
-0.02082948 0.11999557 0.0053827255 0.115170725 0.025078056 0.27537313 0.07352502 0.07074599
0.11650271 -0.052246306 0.10178119 0.08539835 0.051307432 -0.18262215 -0.015494075 0.17545904
0.21031024 0.04646465 0.009673748 0.23257585 0.009036244 -0.055245828 -0.07819673 -0.14871855
0.13688049 -0.13088961 0.093708 0.12154083 0.008616971 0.34499142 0.13888966 -0.08409545
-0.106464766 -0.0047814096 0.035330046 0.13331442 0.1565479 0.10444932 0.015450831 0.29517463
-0.02127815 0.2863094 -0.19317159 0.116453044 -0.11727962 0.078046344 -0.097524956 0.15434916
-0.32363346 -0.0793134 -0.16559051 0.080215834 0.19553265 0.1721957 -0.13881129 -0.0076397914
-0.024999589 -0.061742086 -0.07862621 -0.11869308 0.11820522 0.13054538 -0.23124592 -0.0991114
-0.03797224 -0.16538158 -0.17866206 0.16613472 -0.03849538 0.12490254 0.09486345 -0.0010752009
0.14922862 -0.10950842 -0.05910442 0.14525801 0.23496057 -0.020509666 0.09583558 0.034735247
-0.044316564 -0.1409375 -0.15689369 -0.03184516 -0.045099936 0.19616465 -0.11290711 -0.09669639
-0.12170727 0.09164831 0.081275314 0.2402781 -0.07630126 -0.11087333 -0.15360203 0.2929157
0.0626457 0.08912098 -0.07454886 0.140802 -0.08765942 -0.050615944 0.07992446 0.093381904
0.08932039 -0.0551471 0.06229844 -0.08473048 0.18094654 0.23786378 -0.12478432 0.075815186
00000000: bb01 3dbe 9062 aebd 4d38 073e 1d10 0a3e
00000010: 9bd3 d4bd 1e1f 3e3d 2a35 adbb e1e7 803d
00000020: 575d 0ebd fd81 d33d c1c0 9f3e 2875 1dbe
00000030: 38cc c0bc 09cd 203e da33 2e3e 904a 16be
00000040: a318 873b 1d6a 173c 2285 e5bd a83f 8e3e
00000050: efb7 67bd 32b0 6fbe d3ce 2f3d 0ba1 983c
00000060: 4894 48bd 9a65 173d 5f73 0fbe a67a b23d
00000070: c372 f03d 5713 9ebd 111c 80bd 0065 a83a
00000080: 4df9 b3bd e668 4b3e d24a 13bd e2e4 2e3d
00000090: e462 063e 21bf 83bd c922 0cbe 8bb4 493e
000000a0: 920f 203d 7baa 5bbe 87da 70bd 5ecf 0a3d
000000b0: d149 85bd 407e ad3d f7e2 173e 7a74 903d
000000c0: 7374 ecbc 3eee 573d 2790 1f3e 1892 17be
000000d0: 9ec1 46be 0e07 0fbe e087 283e 2508 d93d
000000e0: 31df 90bc a34b 3b3e 93ed 51be 3721 823d
000000f0: 504b 0e3d 364d 373d f469 c7bd 293a 3a3e
00000100: 3fee 56be d457 cbbd 5898 b13d 55bf e4bd
00000110: 02d6 bbbd 6958 77bd ed7f aa3d 5892 803d
00000120: 7cc9 c3bd dba3 68bd 8901 ba3d 87c5 a43d
00000130: 211b ccbc 256d d4bd 5449 d43d 9d80 243e
00000140: ad8c 0c3d 1659 a0bc e19f 053e 53f2 663e
00000150: 34f2 663d 8470 37bc ae68 323e 6b4c 21be
00000160: 3fda 813b 4a95 25bd 3077 213d ceb2 17be
00000170: 2c70 253c 3264 3b3e 2483 25be be53 9f3d
00000180: 6213 8539 48b1 113d 938a ca3a 27aa c9bd
00000190: 29a1 46be 3908 243e 5ee6 5fbc a892 8abc
000001a0: 4fac 5a3d f6ee 6c3e 1300 7e3d 205d a4bd
000001b0: e5ea c63d bbde f1bd 9b03 72be 4ecb 883e
000001c0: c332 ff3d 4ec7 30bd 9ba8 b23d 6032 673d
000001d0: 0a02 e4bd ffb4 72bd f39f 4ebd 2e06 d9bc
000001e0: 10d1 3b3e d1f6 12bd ece1 fa3d 7d53 bc3b
000001f0: 7610 093e a6fb e23d 82ad e5bd 88f4 ec3c
00000200: 1e45 1a3e 306f b23d 2b06 e73d 98d2 a03e
00000210: 9c2f 89be bdcb 183b f8e8 713e 2681 5bbe
00000220: 13ec 3cba 3af6 d33d 637f 1d3e f285 fcbd
00000230: 7e7c af3d 4b49 8fbd e2b5 1ebd 860f d4bd
00000240: 96a2 aabc 3dc0 f53d 9361 b03b a1de eb3d
00000250: 7f70 cd3c b5fd 8c3e 4994 963d 46e3 903d
00000260: f998 ee3d 3900 56bd a872 d03d 55e5 ae3d
00000270: be27 523d 4d01 3bbe dcda 7dbc 89ab 333e
00000280: 915b 573e b851 3e3d a47e 1e3c 5d28 6e3e
00000290: c10c 143c 7349 62bd 9b25 a0bd ad49 18be
000002a0: 662a 0c3e ed07 06be fbe9 bf3d 66ea f83d
000002b0: 322e 0d3c b7a2 b03e 1739 0e3e 3c3a acbd
000002c0: 330a dabd 5fad 9cbb 3db6 103d 9383 083e
000002d0: 184e 203e 86e9 d53d 7b25 7d3c 2121 973e
000002e0: 844f aebc 2597 923e c6ce 45be ef7e ee3d
000002f0: 4c30 f0bd c3d6 9f3d 2abb c7bd b50d 1e3e
00000300: 49b3 a5be 106f a2bd 8f90 29be 3348 a43d
00000310: b639 483e 1254 303e 8c24 0ebe 3757 fabb
00000320: f0cb ccbc 45e5 7cbd c706 a1bd 5c15 f3bd
00000330: 9415 f23d b0ad 053e bbcb 6cbe ebfa cabd
00000340: c888 1bbd ca59 29be 30f3 36be 381f 2a3e
00000350: 55ad 1dbd e7cc ff3d c547 c23d c1ed 8cba
00000360: 63cf 183e f345 e0bd 7a17 72bd 84be 143e
00000370: 8199 703e e303 a8bc 7245 c43d 8c46 0e3d
00000380: 4985 35bd ec51 10be bda8 20be 1270 02bd
00000390: b6ba 38bd 63df 483e d83b e7bd c208 c6bd
000003a0: a941 f9bd 1cb2 bb3d ac73 a63d 760b 763e
000003b0: d643 9cbd 8e11 e3bd da49 1dbe 0cf9 953e
000003c0: 644c 803d 0f85 b63d 13ad 98bd 662e 103e
000003d0: c886 b3bd aa52 4fbd 6faf a33d 033f bf3d
000003e0: 9ced b63d ede1 61bd a62c 7f3d 2d87 adbd
000003f0: 0d4a 393e 9092 733e ec8e ffbd fe44 9b3d

transformer.encoder.layers.0.self_attn.in_proj_bias f4 [96]
0.04005623 0.002747914 0.03133889 0.048573885 -0.013790674 -0.081836455 0.05010685 0.065661274
0.056792933 -0.05952926 0.052807797 -0.03321776 0.0225765 -0.026877891 0.16507673 -0.04741004
0.047930304 0.032484777 0.040527392 0.03762385 -0.110618435 0.068610966 -0.028789945 0.099833935
-0.019913493 -0.08303111 0.01820386 -0.047825266 0.05465486 -0.009425665 -0.0026002864 0.0004968197
0.049565636 0.030975802 0.034855932 -0.019270763 -0.06666455 -0.035338514 0.008246056 -0.017817253
-0.023576763 -0.048402794 -0.0011725669 0.027226629 0.03256844 0.016760338 1.244922e-06 0.013962876
0.010322061 -0.009381375 -0.019369515 -0.005805439 0.060185112 0.019785743 -0.019333893 0.024149826
0.011219767 -0.038709003 0.025106058 -0.009205993 0.00046603545 -0.0008757025 -0.05161163 0.025167363
0.043788772 0.034889583 -0.009623246 -0.07641944 0.071722634 0.04185811 0.06563273 -0.0070599657
-0.00768309 0.017719198 0.016044794 -0.07257737 0.019223316 0.017067492 0.057714436 -0.07136628
0.044321988 0.07219166 0.039544128 0.0616927 0.021842353 -0.019279024 -0.03835101 0.011759878
-0.06426712 -0.07667199 0.0258516 -0.05156376 0.05826928 -0.037449453 0.023568466 0.0052682008
00000000: 0012 243d 5916 343b 355d 003d 69f5 463d
00000010: 47f2 61bc df99 a7bd d73c 4d3d 6b79 863d
00000020: b59f 683d f4d4 73bd fd4c 583d 590f 08bd
00000030: 5af2 b83c 062f dcbc e009 293e 0831 42bd
00000040: 9152 443d c20e 053d 0d00 263d 771b 1a3d
00000050: eb8b e2bd e883 8c3d e4d8 ebbc bc75 cc3d
00000060: 9f21 a3bc 370c aabd 4320 953c 6de4 43bd
00000070: c6dd 5f3d 1b6e 1abc 9169 2abb 013d 023a
00000080: 5605 4b3d f7c0 fd3c 18c5 0e3d b8dd 9dbc
00000090: 6c87 88bd 1ebf 10bd 771a 073c 7df5 91bc
000000a0: 0e24 c1bc 0242 46bd d1b0 99ba 610a df3c
000000b0: 7c66 053d fa4c 893c 3217 a735 8cc4 643c
000000c0: dd1d 293c 57b4 19bc d1ac 9ebc 8d3b bebb
000000d0: aa84 763d b615 a23c 1d62 9ebc dbd5 c53c
000000e0: 1dd3 373c 558d 1ebd 38ab cd3c bcd4 16bc
000000f0: 3856 f439 668f 65ba b766 53bd c92b ce3c
00000100: db5b 333d 61e8 0e3d d2aa 1dbc cc81 9cbd
00000110: 51e3 923d 6973 2b3d 746a 863d 4957 e7bb
00000120: 6ec2 fbbb da27 913c 5f70 833c 72a3 94bd
00000130: 377a 9d3c 20d1 8b3c f965 6c3d 7c28 92bd
00000140: f98a 353d 39d9 933d 06f9 213d 7cb1 7c3d
00000150: bcee b23c 0bef 9dbc f315 1dbd 81ac 403c
00000160: 7b9e 83bd 3406 9dbd bcc6 d33c 8534 53bd
00000170: c5ab 6e3d 9964 19bd a812 c13c dfa0 ac3b

transformer.encoder.layers.0.self_attn.out_proj.weight f4 [32, 32]
-0.10773263 -0.11196665 -0.21184914 -0.16394842 0.004796703 0.17524597 0.15606707 0.02663377
0.33467174 0.15010005 0.34162784 -0.47703663 0.031670693 -0.29319268 -0.3152921 -0.23969528
-0.09596172 0.07717015 0.38605192 -0.050512236 -0.25748152 0.12454242 -0.15654244 -0.07328493
-0.31020674 0.10022085 -0.017595002 0.25392368 -0.039884258 0.2472648 0.20470239 -0.21887848
0.14146943 0.12407113 -0.096805274 0.32421616 0.059644178 0.008437713 0.12841478 0.29505354
-0.40462902 0.06518972 -0.040634066 -0.09858257 0.25685328 -0.005870618 -0.2841699 -0.09843261
-0.007350912 -0.35348582 -0.027258037 -0.22416154 0.014510836 0.18419619 0.25708598 -0.088010564
-0.1687309 -0.11914449 -0.045778904 -0.102629386 0.08289793 -0.19248936 0.049649995 0.037815258
0.17081761 -0.23692237 -0.3097108 0.066991895 0.07596159 0.079326384 -0.16551183 -0.18765314
0.43909708 0.30261803 0.19031794 0.30511463 -0.21441454 0.13991866 -0.08125431 -0.16012175
0.25979087 -0.2638176 -0.16737504 -0.2077893 -0.25063753 -0.11341883 0.16143547 0.15355833
-0.1368034 0.14869863 -0.23716973 0.10797202 -0.038051363 -0.097949065 0.18275604 0.05116085
-0.18332374 0.03489355 -0.072287925 0.08408347 0.033206213 -0.17776945 0.13714458 0.23664927
-0.17710584 0.114748344 -0.00016410102 -0.17839083 0.19936697 -0.12852442 0.25138116 -0.1711745
-0.12700924 0.37925553 0.16712344 0.12674129 -0.14425531 0.17547786 0.13419923 0.09131537
0.361346 -0.0061176433 0.03658635 -0.023900703 -0.18768731 0.1931899 -0.098509 0.19594835
-0.25386432 -0.19366312 -0.02289064 0.23212017 -0.29291216 0.24548523 0.018536264 0.20265116
-0.09807713 0.015329318 -0.38622892 0.2620624 0.26264074 -0.21373998 -0.044592507 -0.10130371
-0.1671678 -0.09048838 0.116177216 -0.11687932 -0.12288072 0.13668261 -0.05432722 -0.33115
-0.3052475 -0.07721963 0.18235439 -0.12577395 -0.016357426 -0.26488784 -0.1728085 0.23881832
0.13878809 0.2246903 -0.25660157 0.011481107 0.032456554 0.023969056 0.14493468 -0.0074931146
0.026854875 0.25034678 0.120142244 0.07106697 0.21886618 -0.19477569 -0.11460402 -0.11221651
-0.1349532 -0.10405798 -0.076189876 -0.22819823 0.18111739 -0.2009368 -0.14325218 -0.08601285
0.33454818 0.03862653 -0.115985245 -0.1328983 -0.15174623 -0.053273458 -0.09537016 0.3177801
0.1674011 -0.13926531 0.31478748 0.17702016 0.16191658 0.23646316 0.18652563 0.5629661
0.06771589 -0.004078168 -0.0054264916 -0.20462954 0.077112444 -0.2669668 0.25652865 -0.22704883
0.112261444 -0.036216 0.09780553 -0.22159521 0.20406409 -0.2235572 0.057560343 -0.025005687
0.09588386 -0.13143225 0.42702946 0.2784832 0.058772653 -0.10016874 -0.21485583 -0.055803157
-0.009313615 -0.21594895 0.05739681 -0.016945343 -0.3100551 0.19219033 0.04297367 -0.19713336
-0.26159632 0.22284737 -0.22369952 0.2584721 -0.10368278 -0.3061693 -0.08536079 -0.057162754
-0.10374789 -0.26192668 0.21609354 0.16140017 -0.098307274 0.06040156 0.059267797 -0.104530014
0.22644648 0.11274422 -0.11287306 0.11253608 0.13080947 0.2835721 0.14881948 0.17215696
00000000: eda2 dcbd c54e e5bd fbee 58be 18e2 27be
00000010: a92d 9d3b ae73 333e 0cd0 1f3e 102f da3c
00000020: 185a ab3e d4b3 193e d8e9 ae3e 253e f4be
00000030: 21b9 013d 5a1d 96be f76d a1be ae72 75be
00000040: 9487 c4bd 620b 9e3d 99a8 c53e ebe5 4ebd
00000050: 9ed4 83be 1910 ff3d a94c 20be 6916 96bd
00000060: 6bd3 9ebe 9740 cd3d 6523 90bc 4902 823e
00000070: ad5d 23bd fc32 7d3e 819d 513e ae21 60be
00000080: 5ddd 103e 0119 fe3d d841 c6bd a9ff a53e
00000090: 744d 743d 553e 0a3c 2a7f 033e 4211 973e
000000a0: 892b cfbe 3082 853d e86f 26bd a9e5 c9bd
000000b0: 4682 833e 505e c0bb b87e 91be 0997 c9bd
000000c0: ebdf f0bb 18fc b4be 3f4c dfbc 9a8a 65be
000000d0: dcbe 6d3c ed9d 3c3e c6a0 833e e23e b4bd
000000e0: cbc7 2cbe 0702 f4bd a982 3bbd 5b2f d2bd
000000f0: 64c6 a93d ee1b 45be cb5d 4b3d 2ce4 1a3d
00000100: d0ea 2e3e c79b 72be 6a92 9ebe 0c33 893d
00000110: c091 9b3d df75 a23d ef7b 29be 2528 40be
00000120: 55d1 e03e c0f0 9a3e b5e2 423e fc37 9c3e
00000130: 7c8f 5bbe d646 0f3e a968 a6bd f5f6 23be
00000140: 4f03 853e 1a13 87be 5d64 2bbe b8c6 54be
00000150: 9053 80be 2248 e8bd 574f 253e 653e 1d3e
00000160: 3116 0cbe 7444 183e 9fdc 72be 6f20 dd3d
00000170: bfdb 1bbd 8599 c8bd 6624 3b3e 0a8e 513d
00000180: 38b9 3bbe 8aec 0e3d b10b 94bd f433 ac3d
00000190: 3d03 083d 3209 36be a16f 0c3e 3054 723e
000001a0: 3c5b 35be 2e01 eb3d 8812 2cb9 16ac 36be
000001b0: db26 4c3e e89b 03be 08b5 803e 5e48 2fbe
000001c0: b60e 02be c82d c23e 6822 2b3e 78c8 013e
000001d0: aab7 13be 78b0 333e 866b 093e 8d03 bb3d
000001e0: 5802 b93e 8376 c8bb 92db 153d 68cb c3bc
000001f0: 1a31 40be 93d3 453e 16bf c9bd afa6 483e
00000200: 81fa 81be a04f 46be 2785 bbbc e9b0 6d3e
00000210: 95f8 95be 7b60 7b3e 5dd9 973c c983 4f3e
00000220: aadc c8bd d227 7b3c ccbf c5be 0b2d 863e
00000230: d978 863e a7de 5abe a2a6 36bd 5278 cfbd
00000240: 092e 2bbe f951 b9bd 52ee ed3d 6d5e efbd
00000250: e3a8 fbbd 87f6 0b3e 3886 5ebd 7e8c a9be
00000260: 6649 9cbe 5325 9ebd 1cbb 3a3e e3ca 00be
00000270: 0200 86bc 619f 87be b6f4 30be ca8c 743e
00000280: 771e 0e3e 3715 663e 4861 83be 411b 3c3c
00000290: 2af1 043d c15a c43c c269 143e cd88 f5bb
000002a0: c1fe db3c 742d 803e 230d f63d 8f8b 913d
000002b0: 751e 603e 4773 47be 83b5 eabd c5d1 e5bd
000002c0: 2c31 0abe 5a1c d5bd 7009 9cbd ccac 69be
000002d0: d676 393e 60c2 4dbe b3b0 12be 8127 b0bd
000002e0: e649 ab3e da36 1e3d ac89 edbd 7e16 08be
000002f0: 5d63 1bbe 4535 5abd 6e51 c3bd 13b4 a23e
00000300: 326b 2b3e 919b 0ebe d32b a13e c644 353e
00000310: 76cd 253e 6623 723e 9300 3f3e 8c1e 103f
00000320: a1ae 8a3d 27a2 85bb b6d0 b1bb 688a 51be
00000330: 21ed 9d3d dfaf 88be b957 833e 7d7f 68be
00000340: 54e9 e53d 3a57 14bd 444e c83d dbe9 62be
00000350: 2df6 503e 2eec 64be 65c4 6b3d bad8 ccbc
00000360: c25e c43d 2d96 06be 9ba3 da3e 5a95 8e3e
00000370: 98bb 703d 4525 cdbd 2b03 5cbe da91 64bd
00000380: 2298 18bc b921 5dbe eb18 6b3d f6d0 8abc
00000390: 8bbf 9ebe 8bcd 443e 2905 303d 54dd 49be
000003a0: f4ef 85be 1a32 643e 7d11 65be 7556 843e
000003b0: a357 d4bd 39c2 9cbe a3d1 aebd 7e23 6abd
000003c0: c679 d4bd 411b 86be a047 5d3e 1646 253e
000003d0: 5355 c9bd a067 773d cac2 723d d513 d6bd
000003e0: 96e1 673e 71e6 e63d fe29 e7bd 5179 e63d
000003f0: ebf2 053e 5d30 913e 2264 183e ea49 303e

transformer.encoder.layers.0.self_attn.out_proj.bias f4 [32]
-0.074166216 -0.03211905 -0.052358277 -0.050410572 -0.12633382 0.10592834 0.0010928052 0.030558722
-0.0057884306 -0.14325838 0.008478178 0.12859796 0.026449531 -0.036394585 0.053708028 -0.046706542
0.10012418 -0.04332561 -0.11871659 0.0788574 -0.037725627 -0.06688532 0.1317798 -0.044586647
0.09164893 0.010931122 0.037278935 0.10099584 -0.0780705 0.062250122 0.11051691 0.034898978
00000000: 75e4 97bd 448f 03bd a275 56bd 517b 4ebd
00000010: a75d 01be f5f0 d83d 753c 8f3a 4956 fa3c
00000020: e0ac bdbb 53b2 12be 0ee8 0a3c 2faf 033e
00000030: b0ac d83c 7d12 15bd f3fc 5b3d 5c4f 3fbd
00000040: e80d cd3d 3276 31bd af21 f3bd fd7f a13d
00000050: 3086 1abd 2cfb 88bd 49f1 063e 7da0 36bd
00000060: 6fb2 bb3d 7318 333c ccb1 183d e8d6 ce3d
00000070: 6de3 9fbd fcf9 7e3d b156 e23d 3bf2 0e3d

transformer.encoder.layers.0.linear1.weight f4 [128, 32]
0.065813385 0.11337449 0.03564113 0.016302107 -0.21693459 -0.021730736 0.12710097 0.030138498
-0.16407938 -0.114866 -0.063741334 -0.17628466 0.007252333 -0.035377353 0.12781744 0.08563481
0.017231407 0.020403203 0.00012828647 -0.10549868 -0.123126514 -0.17780076 -0.071172796 -0.07846489
-0.11308625 0.114516005 -0.006161203 -0.1595078 0.1372587 0.02587991 0.040136334 0.025839286
0.053606905 0.10131358 -0.045421325 0.11563822 -0.024678739 0.03087301 0.0666085 0.07187737
0.10448477 -0.18362908 -0.20068832 -0.15284444 0.03557531 0.22227941 -0.0928293 -0.33422387
-0.076679654 -0.021745756 0.077781335 0.15135391 -0.045045413 -0.063488066 0.19736068 -0.013957927
-0.061412014 -0.052829362 -0.031788666 0.048404068 0.060802147 0.11139469 -0.012723009 0.0059805666
0.13268371 -0.08519863 0.2512329 -0.036769703 -0.059027333 -0.13421272 0.23525988 -0.25253698
-0.11313262 -0.19751644 0.16056295 -0.037602432 -0.038352653 0.110968046 -0.006613485 -0.049710974
-0.20602448 0.19977646 -0.019685384 -0.002434653 -0.14348891 0.0047987197 0.16477878 -0.07958093
-0.2661148 -0.0003831945 0.019390684 0.08241396 0.34833333 0.01362132 -0.31156486 -0.08144954
0.1572592 -0.057751644 -0.25247103 -0.08296249 0.115654655 0.11433982 0.028975017 -0.0054764133
-0.056461837 0.010166339 -0.000984579 -0.30022988 -0.17996512 -0.07005107 0.086615466 0.074915215
0.17492355 0.15518637 -0.2968441 0.17664713 0.019039622 -0.12371997 0.334287 0.18730092
0.025808653 0.14572623 0.12137908 0.07088952 0.14476338 0.039033335 0.13280694 -0.08560534
0.0006747355 0.01998164 -0.033726495 -0.13819374 0.058719795 -0.092398904 0.16108906 -0.1904944
0.095519185 0.006174369 -0.008759862 0.057766587 0.16696359 0.025636846 -0.16992068 -0.15012352
-0.15732986 -0.070553325 -0.07913459 0.10757582 -0.22313258 -0.10487669 0.22319973 -0.011082751
-0.24640964 -0.16132694 0.08793313 -0.002375808 0.22935711 0.077009425 -0.076644 -0.12698752
0.14472681 -0.07167272 -0.23622549 -0.20112425 -0.14148964 0.05076766 -0.19640976 0.109621845
0.026809504 -0.016246708 -0.18263662 -0.15952235 0.14798002 0.1745384 -0.14954302 -0.1546688
0.16944169 0.009491305 -0.0051533207 -0.11800824 -0.11097046 -0.00034543587 -0.097509384 -0.051516335
-0.2739 -0.05283832 -0.047501545 0.14269283 -0.11781168 0.12788647 0.01146739 0.23411798
0.17778821 -0.03598497 0.12556279 -0.079381235 0.15149546 0.10885709 0.09419421 0.22294362
0.21533008 0.037290413 -0.1707768 -0.054240126 -0.07107014 0.0476719 -0.1791618 -0.14843313
-0.13112266 0.011286597 -0.032440674 -0.008394821 0.06768997 0.0043839305 0.22485422 -0.055887785
-0.12593412 0.08791708 -0.05277492 0.03530735 -0.00240731 -0.08090203 -0.11336735 0.07040353
-0.023039235 -0.09761606 -0.14045016 -0.12351639 -0.18164906 0.041596368 0.1667243 0.11781896
0.10976792 0.120359935 0.0077925897 -0.13521023 -0.053899582 0.239516 -0.02388406 0.058718164
-0.18584345 -0.053693682 0.0940894 -0.12657718 -0.15951756 0.13132846 0.035480313 -0.20192926
0.11869651 0.13562822 -0.06419405 -0.01577521 0.012087237 0.15660898 -0.0118414145 0.079976
00000000: 2bc9 863d e230 e83d 6ffc 113d ff8b 853c
00000010: 1a24 5ebe a804 b2bc c226 023e 03e5 f63c
00000020: 6d04 28be de3e ebbd d18a 82bd f783 34be
00000030: fba4 ed3b d8e7 10bd 93e2 023e 4e61 af3d
00000040: e128 8d3c 9e24 a73c a384 0639 b10f d8bd
00000050: c129 fcbd 6711 36be 0bc3 91bd 33b2 a0bd
00000060: c499 e7bd 5e87 ea3d ebe3 c9bb 0356 23be
00000070: 8b8d 0c3e 1b02 d43c ff65 243d e9ac d33c
00000080: ea92 5b3d 7f7d cf3d b60b 3abd bbd3 ec3d
00000090: 112b cabc 65e9 fc3c 0a6a 883d 7134 933d
000000a0: 1cfc d53d 4309 3cbe 3d81 4dbe 4183 1cbe
000000b0: 6bb7 113d 379d 633e 4a1d bebd 641f abbe
000000c0: 390a 9dbd 2824 b2bc d24b 9f3d 85fc 1a3e
000000d0: 8a81 38bd 0806 82bd eb18 4a3e caaf 64bc
000000e0: 2a8b 7bbd 9a63 58bd d534 02bd 5843 463d
000000f0: ac0b 793d e622 e43d 2b74 50bc a1f8 c33b
00000100: 3dde 073e 9f7c aebd 99a1 803e d49b 16bd
00000110: a5c6 71bd 0f6f 09be f7e7 703e 874c 81be
00000120: 13b2 e7bd c041 4abe 9d6a 243e 0205 1abd
00000130: ac17 1dbd 3743 e33d efb5 d8bb bc9d 4bbd
00000140: 15f8 52be 3392 4c3e 3e43 a1bc b38e 1fbb
00000150: c2ee 12be 943e 9d3b c5bb 283e 54fb a2bd
00000160: 3340 88be 7fe7 c8b9 36d9 9e3c a6c8 a83d
00000170: bf58 b23e f52b 5f3c 6e85 9fbe 04cf a6bd
00000180: 8e08 213e fd8c 6cbd e243 81be 3de8 a9bd
00000190: 59dc ec3d ff2a ea3d 045d ed3c 7c73 b3bb
000001a0: 8744 67bd b790 263c fd0c 81ba bbb7 99be
000001b0: c748 38be ef76 8fbd 7363 b13d 266d 993d
000001c0: 291f 333e 2de9 1e3e f3fb 97be fce2 343e
000001d0: fbf8 9b3c e560 fdbd aa27 ab3e d0cb 3f3e
000001e0: ab6c d33c 4239 153e 9895 f83d 862e 913d
000001f0: da3c 143e 6be1 1f3d 8bfe 073e da51 afbd
00000200: bce0 303a 89b0 a33c cb24 0abd a982 0dbe
00000210: 2b84 703d a33b bdbd 88f4 243e f710 43be
00000220: 909f c33d 5c52 ca3b 8685 0fbc a89c 6c3d
00000230: 81f8 2a3e 5d04 d23c b0ff 2dbe fbb9 19be
00000240: 141b 21be 437e 90bd 5111 a2bd b650 dc3d
00000250: de7c 64be 97c9 d6bd 788e 643e 6d94 35bc
00000260: cf52 7cbe e432 25be 4916 b43d 72b3 1bbb
00000270: 97dc 6a3e 1eb7 9d3d 88f7 9cbd 0409 02be
00000280: 4433 143e 26c9 92bd 18e5 71be 84f3 4dbe
00000290: a9e2 10be c0f1 4f3d a41f 49be 6b81 e03d
000002a0: 9b9f db3c d117 85bc 1805 3bbe d459 23be
000002b0: 1388 173e 32ba 323e ce21 19be 7f61 1ebe
000002c0: 1f82 2d3e 6b81 1b3c 30dd a8bb 4eae f1bd
000002d0: 7b44 e3bd 9e1b b5b9 00b3 c7bd cb02 53bd
000002e0: 9f3c 8cbe ff6c 58bd fb90 42bd 121e 123e
000002f0: 4047 f1bd acf4 023e b8e1 3b3c a0bc 6f3e
00000300: 1d0e 363e fa64 13bd 8893 003e a192 a2bd
00000310: a021 1b3e 77f0 de3d e5e8 c03d 554b 643e
00000320: 7d7f 5c3e d5bd 183d 1de0 2ebe e52a 5ebd
00000330: 398d 91bd 9c43 433d 3176 37be dbfe 17be
00000340: 0545 06be 6beb 383c 83e0 04bd 6e8a 09bc
00000350: 0aa1 8a3d 13a7 8f3b 2f40 663e 97ea 64bd
00000360: e0f4 00be df0d b43d 842a 58bd 719e 103d
00000370: f6c3 1dbb f7af a5bd 242d e8bd ba2f 903d
00000380: c7bc bcbc eeea c7bd 2bd2 0fbe 29f6 fcbd
00000390: 3602 3abe f460 2a3d c6b9 2a3e 114b f13d
000003a0: 01ce e03d 457f f63d fb58 ff3b 8d74 0abe
000003b0: cfc5 5cbd af43 753e 81a8 c3bc 7582 703d
000003c0: bf4d 3ebe e8ed 5bbd f1b1 c03d 739d 01be
000003d0: 9258 23be f87a 063e ce53 113d 8bc6 4ebe
000003e0: 2817 f33d 20e2 0a3e 2c78 83bd 033b 81bc
000003f0: 8c09 463c 1b5e 203e 7e02 42bc 75ca a33d

transformer.encoder.layers.0.linear1.bias f4 [128]
-0.079904296 -0.039927617 -0.14963229 -0.28896546 -0.10708209 -0.20095077 -0.2783732 -0.06452083
-0.06630035 0.044966314 -0.063436195 -0.23342294 0.029706184 -0.360497 -0.104044795 -0.17518869
-0.23434211 -0.28876472 -0.14320539 -0.11463979 0.01216761 -0.034940984 -0.15366045 -0.012898253
-0.10095084 -0.18089534 -0.1295123 -0.30489415 -0.06373249 -0.12791917 -0.1251132 -0.100748114
-0.07715322 -0.12224333 -0.316756 -0.038865034 -0.28925908 -0.27076447 -0.03196365 -0.04065707
-0.18379466 -0.10424171 -0.020530405 -0.26670197 -0.08776814 -0.23234856 0.05574837 -0.2606282
-0.15657267 -0.113982275 -0.121862695 -0.07866851 -0.19928195 -0.060059696 -0.11969582 -0.0014838043
-0.1219098 -0.014934814 -0.016739644 -0.34115294 -0.19348152 -0.07787328 -0.10235976 -0.21720088
-0.040587984 -0.025258461 -0.21968396 -0.1795058 -0.11191091 -0.17057115 -0.046081655 -0.035194114
-0.19576173 -0.14948545 -0.07146477 -0.19255996 -0.03315745 0.008265675 -0.2181783 -0.07332088
-0.28126633 -0.16822858 -0.07801219 0.020251278 -0.08275209 -0.16111791 -0.18097429 -0.21384779
-0.05520331 0.02142761 -0.16370657 -0.07513246 -0.1695386 -0.15445809 -0.2492389 -0.13709898
-0.0018097495 -0.16942792 0.040075514 -0.121762305 -0.0029260847 -0.17491707 0.07482312 -0.15401258
-0.14682375 -0.13925304 -0.038764004 -0.18265013 -0.13068119 -0.079554886 -0.20853236 -0.22793917
-0.07685589 -0.18860075 -0.22487308 -0.18919635 -0.1850538 -0.07787527 0.016761798 -0.20989768
-0.12358997 0.021444097 -0.093520254 -0.25764862 -0.14381355 -0.24030937 -0.21629941 -0.30467787
00000000: dda4 a3bd 248b 23bd 3539 19be 48f3 93be
00000010: db4d dbbd 0ac6 4dbe ef86 8ebe 7f23 84bd
00000020: 7ac8 87bd 992e 383d d6ea 81bd 6c06 6fbe
00000030: 625a f33c 1093 b8be 7015 d5bd aa64 33be
00000040: 61f7 6fbe f8d8 93be 6fa4 12be 44c8 eabd
00000050: a85a 473c 471e 0fbd 2a59 1dbe 3253 53bc
00000060: 50bf cebd a13c 39be df9e 04be 161b 9cbe
00000070: 2e86 82bd 3efd 02be ad1d 00be 0755 cebd
00000080: 8202 9ebd b65a fabd d82d a2be f130 1fbd
00000090: c419 94be a4a1 8abe 51ec 02bd 0788 26bd
000000a0: ab34 3cbe ad7c d5bd 612f a8bc 298d 88be
000000b0: c8bf b3bd c8ec 6dbe 6758 643d 0f71 85be
000000c0: 9654 20be 8a6f e9bd 2693 f9bd f51c a1bd
000000d0: 9110 4cbe 2801 76bd 1523 f5bd 367c c2ba
000000e0: d8ab f9bd 26b1 74bc 9421 89bc 99ab aebe
000000f0: 0520 46be 077c 9fbd fea1 d1bd e869 5ebe
00000100: 963f 26bd d5ea cebc d5f4 60be 5ed0 37be
00000110: 8c31 e5bd 34aa 2ebe 1ec0 3cbd b427 10bd
00000120: c375 48be b712 19be 1f5c 92bd 702e 45be
00000130: 1bd0 07bd c16c 073c 226a 5fbe 4229 96bd
00000140: 2402 90be 1d44 2cbe dbc4 9fbd 02e6 a53c
00000150: ee79 a9bd 18fc 24be 5351 39be eafa 5abe
00000160: de1c 62bd f588 af3c b2a2 27be 0cdf 99bd
00000170: 879b 2dbe 432a 1ebe 7b38 7fbe ad63 0cbe
00000180: 1e35 edba 837e 2dbe 3926 243d 845e f9bd
00000190: 8ec3 3fbb 761d 33be dd3c 993d 79b5 1dbe
000001a0: f758 16be 5998 0ebe 01c7 1ebd a308 3bbe
000001b0: 4ad1 05be aced a2bd 8289 55be e368 69be
000001c0: 9f66 9dbd 8e20 41be 2145 66be b0bc 41be
000001d0: be7e 3dbe 127d 9fbd 0a50 893c 6bef 56be
000001e0: bd1c fdbd 88ab af3c 8c87 bfbd 85ea 83be
000001f0: dc43 13be a913 76be 987d 5dbe bdfe 9bbe
