Models/071223/0_encoderForced.pth (torch, 154237 bytes, 40 tensors)

encoder_embedding.weight f4 [47, 32]
000000 fe de 7b 3f 40 94 41 3f 4a b0 38 be 1c 35 87 3f
       0.98387134 0.75616837 -0.18035999 1.0563083
000010 f7 23 65 bf 57 72 24 bf 85 c6 7e 3f a9 73 1d bf
       -0.89508003 -0.6423697 0.99521667 -0.6150461
000020 3e 4a 95 3f a4 c9 cb 3f 8d 0f dd 3f c3 fc 0c c0
       1.1663282 1.5920911 1.7270371 -2.2029274
000030 df 50 15 3e 42 0c d2 3f 22 a2 ac bd 6d ac 72 3f
       0.14581631 1.6409991 -0.08429362 0.9479435
000040 75 28 e7 3e 5e fc a1 3f 34 f7 ac 3f 46 9f c0 3e
       0.45148054 1.2655141 1.351294 0.37621516
000050 a5 89 b7 3f b1 f5 c5 be 83 ee 7f bf e1 37 70 3d
       1.4338881 -0.3866401 -0.99973315 0.05864704
000060 f5 5c 50 3f 11 09 05 bf 8a af 5c be 15 c9 73 bf
       0.8139184 -0.5196696 -0.21551338 -0.952287
000070 fb 91 d6 3c 23 2f be 3e bc 49 c7 bd 00 00 00 00
       0.026192656 0.37145337 -0.097308606 0.0
000080 06 8c 09 3d 82 e5 73 3f 06 85 ea 3e a7 29 73 bf
       0.033580802 0.95272076 0.45804614 -0.9498543
000090 d1 8c 8e 3f a5 dc 2e 3e c6 e5 94 be 36 5a 59 bf
       1.1136724 0.17076357 -0.29081553 -0.84903276
0000a0 a2 06 04 bf 22 4b d3 bf 3a cb c4 3f 7a 78 81 bf
       -0.5157262 -1.6507304 1.537452 -1.0114892
0000b0 a2 c2 09 c0 c9 1e 61 3a f3 6e 8a 3f 6a 2c 4e bf
       -2.1525044 0.0008587656 1.0815109 -0.8053652
0000c0 8a 7a 3c bf 45 bf 76 be ab ad be be 44 bf 90 bf
       -0.7362448 -0.24096401 -0.37241873 -1.130837
0000d0 0d b9 d9 bf 5d 17 11 bf ce ad 15 3f 17 35 80 3e
       -1.7009598 -0.56676275 0.5846833 0.25040504
0000e0 01 ce 90 3d 66 79 70 bf 17 59 19 3c 71 c0 09 c0
       0.07070542 -0.9393524 0.00935962 -2.1523707
0000f0 48 8c 80 bf 07 43 78 be a2 06 1e 3f 00 00 00 00
       -1.004281 -0.24244319 0.6172887 0.0
000100 d0 d9 a8 bf 6f 19 9f 3f 80 d6 c8 bf 59 c9 c9 3d
       -1.3191471 1.2429637 -1.569046 0.09852857
000110 72 d5 e1 3f c8 7f 78 bf c0 35 2c bf 3c 04 b4 3e
       1.7643263 -0.9706998 -0.67269516 0.3515948
000120 24 cf 8c 3f c2 d4 7e be 4b c4 bc be ff e2 36 3f
       1.1000714 -0.24885848 -0.3686851 0.7144012
000130 bf 04 a5 3f 46 40 d6 bc d1 16 f6 bc 87 de 58 3f
       1.2892073 -0.026153695 -0.030040177 0.8471455
000140 f4 49 d8 be 24 1a e6 be 06 d3 ee bd 5d ec 91 3f
       -0.42243922 -0.4494182 -0.11661343 1.1400257
000150 37 b4 ad be 32 09 b4 3f 36 e3 ed 3f 60 ed 45 3f
       -0.33926556 1.4065306 1.8584964 0.7731533
000160 87 2c f0 bf 59 a9 bf bf 68 eb 3e 3f a7 31 62 be
       -1.8763589 -1.4973556 0.7457795 -0.22089253
000170 2a 47 e1 3e 1b ac 1b bf 0e 30 be 3e 00 00 00 00
       0.43999606 -0.6080949 0.37146038 0.0
000180 84 bd 6e 3f a0 d7 ca bf 32 b4 79 3f eb 4f fd 3d
       0.9325793 -1.5847054 0.9754058 0.12368759
000190 17 87 a4 bf 7d 86 21 bf 2a b8 87 3e fa f1 4d bf
       -1.2853726 -0.6309584 0.26507694 -0.8044735
0001a0 20 05 b2 be ad bc bf 3e 99 2b 42 3f bb 2e e0 3d
       -0.34769535 0.37448636 0.75847775 0.10946413
0001b0 73 38 06 c0 c3 dd 93 bf 83 0b c7 bd 8e e6 14 be
       -2.0971954 -1.1552051 -0.097189926 -0.14541075
0001c0 d2 a0 bc 3f da 8d a2 3f 2d 3e 6e bf ef 09 01 3f
       1.4736578 1.269954 -0.9306362 0.5040578
0001d0 65 2d f3 bc 62 9b be 3e 71 28 ba bf b1 5a 2d bf
       -0.029684732 0.37227923 -1.4543592 -0.6771651
0001e0 bd 83 1b 3f 6c d4 81 bf b3 d8 c8 3e 4b b7 4a bf
       0.6074789 -1.0142951 0.39227828 -0.7918593
0001f0 94 81 88 be 07 97 9e bf 71 bb 51 3f 00 00 00 00
       -0.2666136 -1.238984 0.8192664 0.0
000200 74 5a c1 bd 83 8b 9b bd 1c 1c 80 3f 58 6a 05 bf
       -0.09441081 -0.07594969 1.0008578 -0.5211539
000210 51 b8 ff 3f 4a 3f 81 be 45 50 cc be e1 fe 9f 3f
       1.9978124 -0.25243598 -0.3990499 1.2499658
000220 30 84 de be 2c d7 8d 3f 14 01 b4 3d 8a da 98 be
       -0.43460226 1.108129 0.08789268 -0.29854232
000230 49 c2 6a bc bd d1 98 bf 48 36 63 bf 76 8e 89 3f
       -0.014328548 -1.1939007 -0.887547 1.0746601
000240 47 75 98 3f 9f 95 63 3e 2b 1e 8e bf b6 5c df 3e
       1.191079 0.22225045 -1.1102957 0.4362542
000250 b7 54 dd 3f 22 6c c9 3d cc e1 17 bf 6f eb 14 bd
       1.7291478 0.09835078 -0.59328914 -0.03635734
000260 2e be c0 3d 65 72 2c 3f 54 ee c2 be c3 b0 78 3e
       0.09411274 0.6736205 -0.38072455 0.24286179
000270 0b 73 c2 bf 6e 31 e6 bf 1e 0f 14 3f 00 00 00 00
       -1.5191358 -1.7983835 0.57835567 0.0
000280 67 d1 02 40 07 4c 6b 3f 51 20 38 3e ff 95 3a bf
       2.044031 0.91912884 0.17981078 -0.72885126
000290 12 8f 3e 3d 5e ef b8 bf a7 ef 15 bf ab 65 30 be
       0.04652316 -1.4448049 -0.58568805 -0.17226283
0002a0 ad 22 b7 bf f2 3f be 3d 6c 41 c0 3f 4b f2 0a 3f
       -1.4307457 0.0928954 1.5019965 0.5427596
0002b0 8e 92 d5 3d 44 b3 ba 3e 95 c9 f5 bf ad 53 4f 3f
       0.10428344 0.36464894 -1.9202143 0.80987054
0002c0 ce c0 9f bf 24 a8 39 bf a5 4b f4 3e 76 0e 17 3f
       -1.2480714 -0.7252219 0.47713962 0.5900644
0002d0 f1 14 8b be 7a a7 dc bd e6 d2 89 3f d6 87 85 3e
       -0.27164415 -0.10774131 1.0767486 0.26080197
0002e0 ae 8b 15 bf cc 31 31 bf d3 25 75 3f 83 34 ff be
       -0.5841626 -0.6921661 0.9576084 -0.4984475
0002f0 76 94 d0 be aa 0c 49 bf 8d 1d b9 bf 00 00 00 00
       -0.40738267 -0.7853495 -1.4462143 0.0
000300 34 40 db be ad 09 bf 3f 8e 51 22 be 59 9d f9 be
       -0.4282242 1.4924828 -0.15851423 -0.4875286
000310 f3 9c 85 3f bd 49 b5 bd b9 26 55 be d6 26 03 3f
       1.0438522 -0.08851955 -0.20815553 0.51231134
000320 fb 21 cd be f8 81 29 3f 3c 64 5e bf 7c b3 62 bf
       -0.40064988 0.6621394 -0.86871696 -0.8855512
000330 8b 57 6b 3f cb 56 11 bf 39 2b 01 bf eb 95 47 bf
       0.91930455 -0.5677306 -0.5045658 -0.7796313
000340 02 31 1a 40 d5 09 15 3f 45 06 59 bf 84 d6 33 3e
       2.4092412 0.5821813 -0.8477519 0.175623
000350 35 df f0 be 8e 44 2a 3e d9 ee 09 c0 c6 93 b7 bf
       -0.47045293 0.16627714 -2.155203 -1.4341972
000360 7a 36 a5 bf 23 36 ed bd 6e 0e 48 3f 57 aa c8 3f
       -1.290725 -0.115825914 0.7814702 1.5676984
000370 56 95 94 bc f7 8c c5 3d 7f 1c 59 3f 00 00 00 00
       -0.018137615 0.096460275 0.84809107 0.0
000380 13 cc 24 bf 4a 19 c4 3c 0e a3 e8 be 1e a2 a1 3f
       -0.6437389 0.02393784 -0.454369 1.2627599
000390 9b 2f 5e 3f bb 54 70 bf c7 a7 e3 3e 55 80 a2 3f
       0.8679139 -0.9387929 0.4446394 1.2695414
0003a0 25 b9 50 3e c0 8a 04 bf cf a7 0d 3f 54 4a 8c be
       0.20383127 -0.51774216 0.5533418 -0.27400458
0003b0 02 db bf bf 23 3e 20 bf db a5 88 3f 70 c0 fd be
       -1.4988711 -0.62594813 1.0675615 -0.4956088
0003c0 87 09 f7 bf 85 bb 2f bf ec 05 9b bb ea da 77 be
       -1.9299783 -0.6864551 -0.0047309306 -0.24204603
0003d0 26 00 ac bf d9 40 92 3d 17 47 d7 3d 0b 93 26 3f
       -1.3437545 0.07141275 0.10511606 0.6506812
0003e0 11 93 81 bf c9 bf e2 be da 2a 43 3f 63 1a 21 be
       -1.0123006 -0.44286945 0.7623726 -0.15732722
0003f0 6c 0d 8d 3f bc ac 29 3f 2a 74 85 bf 00 00 00 00
       1.1019721 0.66279197 -1.0426075 0.0

decoder_embedding.weight f4 [45, 32]
000000 ab 23 18 40 3a 9b 30 bf 85 e3 a3 3f 4c ec 75 bf
       2.377177 -0.68986857 1.2803808 -0.96063685
000010 cb 01 fc be 60 6e bc bf eb 13 bf be e2 15 2e 3d
       -0.49220118 -1.4721184 -0.37319884 0.042501338
000020 5b bb 00 3f ea 6e fb 3e 86 00 ae bf 5d 48 41 be
       0.5028588 0.49108058 -1.359391 -0.1887526
000030 a2 7a 62 3c 8f d4 c2 3e 99 e5 8e bf ab cb 0f 3e
       0.013823183 0.38052794 -1.1163818 0.14042537
000040 37 c1 85 bf fc eb a4 bd 96 35 79 bf 7f 06 b3 3e
       -1.044959 -0.08052823 -0.9734739 0.34965894
000050 85 ad 8e bf 24 0e 4e bf 78 36 35 bf d7 72 d0 3b
       -1.1146704 -0.80490327 -0.7078624 0.006361346
000060 31 7e b4 bf b0 dc a4 3e 6a f4 3b 3e 30 e3 c1 bd
       -1.410101 0.3219962 0.18354955 -0.09467161
000070 b3 c5 68 3f 8f a3 8b 3e 2c d9 4b 3e bf e3 49 3e
       0.90926665 0.27273223 0.19907063 0.19715784
000080 67 84 ca 3e 49 d2 65 3f 83 0f c1 3f 9c de c5 bf
       0.3955414 0.89773995 1.5082859 -1.545856
000090 d7 d8 e4 3c 66 42 23 40 71 7c f5 be dc e1 d4 3f
       0.027935429 2.5509276 -0.47946504 1.6631427
0000a0 e4 19 4c 3e 1c 14 a4 3f c0 09 63 bd f9 d6 56 bc
       0.19931751 1.2818637 -0.05542922 -0.013112777
0000b0 91 9b 1c 3e 3b 0a 58 3f 8e ed 78 3f 35 df 76 be
       0.15293719 0.8439061 0.9723748 -0.24108584
0000c0 a6 20 50 3f 6e 13 47 bf 56 bc 0b be d2 4d 9a 3d
       0.8129982 -0.7776402 -0.13646063 0.07534374
0000d0 02 78 c2 3f c4 7c 72 bf 35 e1 7c 3e 61 d2 d9 3c
       1.5192873 -0.9472163 0.24695285 0.026589574
0000e0 ac f7 13 3c ec 68 43 bf 3e 19 5c bf f1 63 a4 3f
       0.009031218 -0.76331973 -0.85976017 1.2843
0000f0 e9 95 ab be 1b 4e 0c bf 9c ec d4 3f da c4 8c bf
       -0.3351281 -0.5480668 1.6634707 -1.0997574
000100 2e 88 30 3e 20 5d 7e 3f ab 83 ed bf 78 ae a1 be
       0.17239448 0.9936085 -1.8555807 -0.31578422
000110 f6 47 d4 3f 96 98 ef bf 6a d9 ad bf bb 16 91 be
       1.6584461 -1.871844 -1.3581975 -0.28337654
000120 b3 28 f9 3f 7a d8 c9 3e f5 7a cd bf 8d c9 e2 3f
       1.9465545 0.3942297 -1.6053149 1.7717758
000130 0f 1c b7 bf 07 ac 76 3f d3 fc 8c 3e ba 76 49 3f
       -1.4305438 0.9635624 0.2753664 0.7869679
000140 21 20 3a 3f 5a 33 a9 bf cf 22 9e be 94 0c f8 3e
       0.72705275 -1.3218796 -0.30885932 0.48447096
000150 d3 68 a7 3f 11 4c 79 bf 06 1e 81 be b1 4d 4e 3f
       1.3078865 -0.97381693 -0.2521822 0.805873
000160 26 2d 7f 3f 69 71 16 bd 1a 4f e4 3e b3 38 d0 3f
       0.99678266 -0.03672925 0.445916 1.6267303
000170 5c 47 31 bf 83 78 a7 bf 7f 38 b0 bf a6 d8 be 3e
       -0.6924951 -1.3083652 -1.3767241 0.37274665
000180 4d 13 a4 bf 72 d0 95 3f 7f 55 b1 bf 2a f9 82 be
       -1.281839 1.1704237 -1.3854216 -0.25580722
000190 80 7b 37 3e ca c3 cb be 25 ec 5a 3f 03 61 87 be
       0.17918205 -0.39797813 0.8551658 -0.26441202
0001a0 db 8a f9 3d b9 d6 3d 3e bd 55 c4 3e ef bc b8 bf
       0.12184688 0.18538941 0.38346663 -1.4432658
0001b0 f1 6c 55 3f 09 1c ac 3e a9 09 eb 3e 17 f7 c2 bf
       0.83369356 0.3361514 0.45905808 -1.5231656
0001c0 0b 27 85 3f 6a 56 ab bf dd c8 8f 3f ba ac 48 be
       1.040254 -1.3385746 1.1233174 -0.1959714
0001d0 a4 0a 17 40 39 3a f9 be 97 eb 25 be 40 16 b4 3e
       2.3600245 -0.48677233 -0.16203152 0.35173225
0001e0 96 3f 7d bf 8b 8b a9 be 69 c1 f9 3f 46 54 40 3e
       -0.9892515 -0.33114275 1.9512149 0.18782148
0001f0 f9 9b 92 3f 99 48 ba bf ca 56 b9 3f 94 1e 76 be
       1.1453849 -1.4553405 1.4479611 -0.24035102
000200 c4 fb 40 3f 3d cf 1c bf 99 b4 99 bf 4f 67 c4 be
       0.75384164 -0.6125372 -1.2008239 -0.38360068
000210 42 ce cb 3e 2d dd 21 be 66 c5 7e bf 6f 62 5d bf
       0.398058 -0.15807028 -0.99519956 -0.8647832
000220 83 1f 6b bf 6d 37 62 be 1c 67 e1 be 30 75 97 bf
       -0.9184496 -0.22091456 -0.4402398 -1.1832638
000230 ee 99 b9 3e d5 20 29 bf d7 8e df 3e 2b ab 73 bf
       0.36250252 -0.6606572 0.43663666 -0.95183057
000240 98 2a 8f bf 88 83 3b 3f 99 a0 b3 bf 06 5a 51 c0
       -1.1184874 0.73247576 -1.4033386 -3.2711196
000250 bd ba 81 bf f5 fd 53 3f cc ff 83 3f 4b de 89 3f
       -1.0135113 0.8280938 1.0312438 1.0770963
000260 04 ce 19 c0 76 03 55 bf 23 e6 3a 3f 83 b9 a1 be
       -2.4031992 -0.83208406 0.7300741 -0.31586847
000270 97 f9 12 bf b2 84 2a bf 15 60 0b bf 17 de fc be
       -0.57412094 -0.66608727 -0.54443485 -0.4938819
000280 58 ff 20 3f c2 1a b1 bf da c6 2a 3f ab 58 59 3f
       0.62889624 -1.3836291 0.66709673 0.8490092
000290 f2 e6 5b 3f 51 af 8b be d2 56 23 3e ef f8 99 be
       0.8589927 -0.27282193 0.15951088 -0.30072734
0002a0 89 be 50 3f 51 13 15 c0 eb c6 8d bf 21 16 92 3f
       0.81540734 -2.329304 -1.107633 1.1413003
0002b0 1e 8a 92 3e 22 33 d3 3f c9 58 84 bf aa 20 d7 bf
       0.28621 1.649998 -1.0339595 -1.6806843
0002c0 82 f2 18 be 8e 7f f9 be f7 00 8f 3f a1 c3 cc 3f
       -0.1493626 -0.4873013 1.117217 1.5997201
0002d0 2f f0 df 3e 7e 92 53 bf a5 f0 14 3e ad 35 61 bf
       0.43737933 -0.82645404 0.14544924 -0.8797253
0002e0 cf ba 19 bf 4b 38 39 bf 88 28 c1 bd 10 23 3e bf
       -0.6005067 -0.7235152 -0.09431559 -0.7427225
0002f0 a9 ca 9d 3f 42 80 f1 bd f6 dc c5 be d0 36 4a 3f
       1.2327472 -0.11792041 -0.38645142 0.7898989
000300 fa 38 07 bf b9 16 57 bf 7b e8 c7 be f2 eb 97 3f
       -0.52821314 -0.8401905 -0.39044556 1.186888
000310 1e 11 6e 3e 21 3f 61 be 05 12 39 be ba 61 26 bf
       0.23248717 -0.21996738 -0.1807328 -0.6499287
000320 6c d1 ad 3f 7e 53 36 bf 6c 41 d8 bf 21 15 e7 bf
       1.3579535 -0.7122115 -1.6894965 -1.8053323
000330 e1 0e 0f bf 3b ac 8d be 98 cf 23 bd d9 d4 91 3f
       -0.5588208 -0.27670464 -0.0399929 1.1393081
000340 b9 fb 9e bf 62 f9 8e be b9 48 98 3e 03 7e 1d 3f
       -1.242057 -0.2792464 0.29742983 0.61520404
000350 d8 91 59 3f 4d 97 24 bd c4 38 84 bf 3b 0a 56 3f
       0.84988165 -0.040183354 -1.0329823 0.8360936
000360 46 d6 d0 be 93 e3 83 3f da 9a 02 3f 62 71 1a 3f
       -0.40788478 1.0303825 0.51017535 0.6032926
000370 ae 9b ad 3d e7 dc 60 bf fe 03 74 3f 44 99 24 be
       0.08476959 -0.8783707 0.9531859 -0.16074091
000380 0c af 8c 3f ce 5b ae 3e 2c c0 83 3e 3b 3a 7c bd
       1.099092 0.34054416 0.25732553 -0.06157897
000390 8a 9d c1 3f 47 68 90 3f f2 d4 10 bf c2 e7 01 3f
       1.5126202 1.1281823 -0.5657493 0.5074426
0003a0 4f 1a bc 3e 60 29 9a 3e 04 bc 57 bf a1 dc b3 bf
       0.36738822 0.30109692 -0.84271264 -1.4051706
0003b0 a3 d8 4e 3e 15 20 e1 bf fa 3d 82 bf 16 7e 6d bf
       0.20199828 -1.7587916 -1.0175164 -0.92770517
0003c0 e2 ae 66 be 33 7c a9 3f 76 6f e6 3f cf 20 8c 3e
       -0.2252765 1.3241028 1.8002765 0.2736878
0003d0 ea 55 49 be 53 95 07 be ba 9f cb 3f 50 97 86 bd
       -0.1966168 -0.13240556 1.590812 -0.06571829
0003e0 09 33 a2 3f b2 38 20 bf 50 40 8c 3e b8 11 01 bf
       1.2671825 -0.6258651 0.27392817 -0.5041766
0003f0 64 fb c4 3f 7c e2 21 3f 36 64 27 be c8 6f 7d be
       1.5389218 0.6323621 -0.16346821 -0.24749672

encoder_pos_embedding.weight f4 [8, 32]
000000 78 65 f1 3e c9 1f 9e 3f 99 ae bf 3e a9 11 0e 3f
       0.47147727 1.235345 0.37437895 0.554957
000010 20 9f ef 3e 33 01 13 3f 2d fb fc be 4c fb 80 3f
       0.4680109 0.57423705 -0.49410382 1.007669
000020 c3 4f de 3f f7 b9 79 3f a0 4b 5a 3e fa 8d a5 3f
       1.7368091 0.97549385 0.21317911 1.2933953
000030 d5 70 9c be 4d 8f b6 be 8b 7d 4a bc 05 f2 66 bf
       -0.30554834 -0.35656205 -0.012359033 -0.9021304
000040 45 9d 44 bf d6 3d d7 3d 5d 6f 31 3b c5 82 af 3f
       -0.76802474 0.10509841 0.0027074434 1.3711783
000050 75 7c ae 3f a6 ff 41 be 94 9f 82 bf f0 e9 0c bf
       1.3631731 -0.18945178 -1.0204949 -0.5504446
000060 01 98 00 40 d9 57 23 3f e5 8d 2d 3f 0d d3 43 3f
       2.0092776 0.6380592 0.6779464 0.7649391
000070 12 ea 5b bf dc d6 d4 3c 53 c1 13 3e 70 f3 aa bf
       -0.8590404 0.02598136 0.14429216 -1.3355541
000080 47 ae b8 bf 2c 5e 6d 3f 38 3e 83 3e 98 a2 4d bf
       -1.4428185 0.9272182 0.25633407 -0.80326223
000090 a4 54 e8 be 54 6d 4b 3f a5 26 20 3f 73 f2 2a be
       -0.45377076 0.79463696 0.62558967 -0.1669405
0000a0 19 db de 3f 4f 08 f3 bf 8b 83 bc 3e f3 c8 0e 40
       1.7410613 -1.898691 0.3681911 2.231015
0000b0 32 45 b8 3d 7d e5 ef 3d 58 fd 11 bf 1a 6d f9 3f
       0.08997573 0.11713693 -0.57027197 1.948642
0000c0 11 a4 85 3e f0 82 00 3f 04 a4 0e c0 06 e3 b4 bf
       0.26101735 0.50199795 -2.2287607 -1.4131782
0000d0 d7 2e 40 3f 9e 00 0f bf 86 51 a1 bd b5 85 97 bf
       0.7507147 -0.55860317 -0.078768775 -1.1837679
0000e0 bf 95 96 bc ab 53 57 be 58 b0 51 be d9 4e 04 3f
       -0.018381951 -0.2102801 -0.20477426 0.5168281
0000f0 5c 5a 24 bf ea 0b 61 3e 46 6c bd bd 63 77 0c c0
       -0.6420038 0.21977201 -0.09249167 -2.1947868
000100 0f 21 85 bd ad cf a8 3f 4a 48 ab be 72 6c 05 40
       -0.06500446 1.3188378 -0.3345359 2.084744
000110 7f de 2d 3f 22 9c d4 3f 3c 26 0b bf 9a e7 58 bd
       0.6791763 1.6610148 -0.54355216 -0.052955247
000120 bb 29 1b 3d 98 db cc 3f ae 55 19 3f 56 89 0d 3e
       0.037881594 1.6004515 0.5989636 0.13821921
000130 ef 6c 0f bf 1f b4 04 bf fc 0d cd bf 94 86 12 3f
       -0.56025594 -0.5183734 -1.6019893 0.572366
000140 42 c3 c2 3f b5 d0 59 3e 01 ce 51 3f ef a0 16 3f
       1.5215838 0.21271022 0.8195496 0.58839315
000150 d6 11 87 3f cf 40 b4 3f 0c c2 1e be fa 10 35 be
       1.0552318 1.4082278 -0.1550371 -0.17682257
000160 d1 7f a0 3f 54 8b a9 3f b9 ab a1 be 4d ab 1d bf
       1.2539006 1.3245645 -0.31576326 -0.6158951
000170 37 2e 25 be 90 96 61 3e c3 1a 6a 3e eb b3 d4 3f
       -0.16130911 0.22030091 0.22861771 1.6617407
000180 69 43 7e bf 69 e2 80 3e dc 00 bb 3e 42 e0 60 be
       -0.9932161 0.25172737 0.36524093 -0.21960548
000190 a1 f1 f2 3f 5a 73 54 bf 64 ee ab bf 07 95 95 3e
       1.8979989 -0.8298851 -1.3432126 0.2921526
0001a0 04 6b bb 3e fe b1 76 bf c6 86 e8 3f 59 d9 4e 3f
       0.36605084 -0.96365345 1.816613 0.80800396
0001b0 71 20 80 3f 41 6e 9d ba cc e4 46 3e e0 9b 64 3f
       1.00099 -0.0012011008 0.19423217 0.89300346
0001c0 85 16 eb 3f 41 9d 2d be a9 45 89 3f 97 7c 0f bf
       1.8366247 -0.16954519 1.0724384 -0.56049484
0001d0 31 1d 2d bf 08 20 24 bd 28 f0 81 be b5 21 64 3f
       -0.6762267 -0.04006961 -0.25378537 0.8911393
0001e0 58 f6 b3 3f 87 36 16 bf 93 a1 02 c0 03 0d 5d 3f
       1.4059553 -0.5867695 -2.0411117 0.8634798
0001f0 ed b6 7c bf 64 34 a7 3f d7 49 88 3c 8a 54 1d 3f
       -0.9871662 1.3062863 0.016636772 0.6145712
000200 59 7e 02 c0 15 82 c0 3d da 6a ac be 58 af 88 3e
       -2.0389616 0.09399811 -0.3367527 0.26696277
000210 b3 0a 10 40 78 f9 b3 bf 58 4c ba bf 42 75 74 3f
       2.250653 -1.4060507 -1.4554548 0.9549142
000220 69 02 98 bf b2 7d 4d 3f dd dd a9 3e fb 34 4b bf
       -1.1875736 0.8026992 0.3317708 -0.79377717
000230 9c e8 31 3e 67 5f ee bf 80 d8 da 3f 18 cb bd bf
       0.1737389 -1.8622864 1.709732 -1.4827604
000240 c4 c8 a1 3f 81 9a 37 bf 42 71 94 3f 58 f1 b7 3e
       1.2639394 -0.7172013 1.1597064 0.35926318
000250 10 bd 3c 3f 7c f7 50 bf 22 2f a6 bd 46 44 01 40
       0.73725986 -0.8162763 -0.081144586 2.019792
000260 b2 25 d0 bd 4f 35 a6 3e ab a1 8d 3f d0 26 ad bd
       -0.1016344 0.32462546 1.1064962 -0.084546685
000270 8c de 3d 3f 10 35 51 bf 16 72 09 3f fe 1c f4 be
       0.74167705 -0.8172159 0.53689706 -0.4767837
000280 04 33 aa bf 95 37 38 3e c4 49 dd be 8e 1b ba bd
       -1.3296819 0.17989953 -0.4322034 -0.09087287
000290 9e 37 f8 be 82 f4 4f bf 5b 68 c4 bf f4 96 94 bf
       -0.48479933 -0.81232464 -1.5344347 -1.1608567
0002a0 9a b2 ce 3e 94 07 62 40 56 37 b3 3f d2 2a 91 bf
       0.40370637 3.5317125 1.4001262 -1.1341193
0002b0 32 c6 dc be 6a 3a 6c 3d ab d8 06 bf c3 d4 34 3f
       -0.4311996 0.057672895 -0.5267436 0.7063715
0002c0 b8 65 2c 3e f0 7d c8 be 2c d8 83 be 76 1d 2b be
       0.16835678 -0.39158583 -0.25750864 -0.16710457
0002d0 e8 b5 27 bf 5c 79 99 3e b3 0d 8c 3e 5e 95 bc 3f
       -0.6551194 0.29975402 0.27354202 1.4733083
0002e0 41 a0 76 3f 01 1d a0 be 86 bb 45 bc 98 a1 01 c0
       0.9633828 -0.31272128 -0.012068635 -2.025488
0002f0 00 61 87 3e bd 18 9b bf ea ce b0 3e 2a 1f 44 3f
       0.26441193 -1.2116925 0.34532863 0.7661005
000300 70 5b 31 3f de a6 40 3f 35 15 41 3e f0 94 bd 3e
       0.6928015 0.7525462 0.18855746 0.37027693
000310 79 5b 5a bf 2c 0f 09 3e 72 d1 30 3f 0f 09 a4 3f
       -0.85295826 0.13384694 0.6906959 1.2815264
000320 aa f5 a5 3f 6b 9f 46 bf b3 01 fb bf 23 22 60 3d
       1.2965596 -0.77587 -1.9609894 0.054720055
000330 94 43 b5 3e 10 84 14 40 99 83 98 3f bb 30 e7 3f
       0.3540312 2.3205605 1.191516 1.8061746
000340 46 13 f2 bf 65 29 89 3f 1c 18 a2 be d6 e1 35 bf
       -1.8912132 1.0715758 -0.3165902 -0.71047723
000350 06 e8 3b 3d 56 e0 1b 3f c0 87 28 3f e3 25 94 bf
       0.04587557 0.60889184 0.6583214 -1.1574062
000360 9d 57 e1 3c 63 48 ac 3f 7c af 28 bf 4f a3 c8 bf
       0.027507598 1.3459591 -0.6589277 -1.5674838
000370 c3 28 11 3f fc cf 17 40 52 5a b7 3f b2 e0 04 c0
       0.5670282 2.3720694 1.4324439 -2.0762143
000380 f1 4c 87 3f 98 57 49 3f 1f 34 1e bf 4e 2e 14 40
       1.0570356 0.7864928 -0.6179828 2.3153262
000390 01 6a ff be 7d b6 0f 3f c6 f1 88 bf 89 58 f0 be
       -0.49885562 0.5613783 -1.0698783 -0.46942547
0003a0 e9 7b ad 3f b0 3b b0 bf 16 ce a4 be 9e f3 03 3e
       1.3553439 -1.3768215 -0.3218848 0.12885901
0003b0 b1 16 0c bf 3e 12 46 bf 4a ab 8b be 1e e4 8a 3e
       -0.54722124 -0.77371585 -0.2727912 0.27127165
0003c0 a7 e8 61 3f fd c6 e1 3e 8e a2 72 bf 19 b9 9c 3f
       0.88245624 0.4409713 -0.9477929 1.2243987
0003d0 3c 35 24 3d e0 1b 5f 3e 05 5d 35 3e 98 63 21 40
       0.04008983 0.21787977 0.17711265 2.5217037
0003e0 ca 71 3b bf fa 69 b4 3f 77 4a 00 3e 71 d8 02 bf
       -0.73220503 1.4094841 0.12528406 -0.51111513
0003f0 ec 24 b8 3f d1 34 4d bf f8 21 44 3f d5 22 06 bc
       1.4386268 -0.80158716 0.7661433 -0.008187016

decoder_pos_embedding.weight f4 [8, 32]
000000 81 5e cb bf 6a ab 49 3e 71 ff 94 3d 5e 41 1b 3f
       -1.5888215 0.19694296 0.07275284 0.6064662
000010 c0 ca 6d bf 9d 00 ab be 50 fa 2f bf 3b b5 05 bf
       -0.92887497 -0.33398905 -0.6874132 -0.5222966
000020 24 45 50 3f 3b ba 1c 3e 49 3f a3 3e 83 e3 42 3f
       0.813555 0.15305416 0.3188422 0.76128405
000030 a5 17 65 be 48 78 fb 3e d0 b2 d8 3e 69 ad 88 3f
       -0.22372301 0.49115205 0.42323923 1.067792
000040 ae ba 30 3d 01 42 15 be b4 4c 86 bf 63 f1 b6 3e
       0.04314678 -0.1457596 -1.0492158 0.35731038
000050 a0 2e 58 bf 25 fa 3f 3f e9 0f e2 3c 5e c6 81 3f
       -0.84446144 0.74991065 0.027595477 1.0138662
000060 dd bc 27 bf ec 0a 20 bf 87 ea 36 c0 29 f6 8d 3e
       -0.6552256 -0.62516665 -2.8580644 0.27726868
000070 05 82 63 3f 03 9a 7d bf 4b 16 cd 3f 19 ac 1e 3f
       0.8887027 -0.9906313 1.6022428 0.6198135
000080 98 9f 21 be 5e 6a 4d c0 30 1a 8b bf 5f ac ff be
       -0.15783536 -3.2096171 -1.0867367 -0.49936196
000090 d7 a1 91 bf 6f 1b e0 bd c0 93 da be 50 21 2e bf
       -1.1377515 -0.109427325 -0.4269085 -0.6801958
0000a0 ee d7 fc bf 1a 11 4f bf 33 53 36 3f 32 70 c5 3f
       -1.9753397 -0.8088547 0.712207 1.5424864
0000b0 69 8e bd 3f 6a 31 40 bf 1d eb 7d 3f 7b 3a 99 3d
       1.4809085 -0.750754 0.9918688 0.074818574
0000c0 44 40 e0 be ee 5d ff be d1 c8 e7 be 1e 18 29 3f
       -0.4379903 -0.4987635 -0.45270398 0.66052425
0000d0 ef 10 10 3f 6e f4 80 bf 98 b3 59 3f bc a5 cd be
       0.5627584 -1.0074594 0.85039663 -0.40165508
0000e0 20 49 62 3f 23 30 6e 3f 31 af 23 40 c4 70 fc bf
       0.8839283 0.930422 2.5575678 -1.9721913
0000f0 5c cc 15 3f 11 ec 28 bd 30 8b 22 bd a4 5e a7 be
       0.5851495 -0.041240755 -0.03968352 -0.32689393
000100 d5 c9 51 3f 33 52 40 bf ac b1 a4 be 8c 8c 89 bf
       0.81948596 -0.75125426 -0.32166803 -1.0746017
000110 24 60 29 bf d4 67 49 3f 91 59 30 3f 03 af 3a 3f
       -0.66162324 0.78674054 0.6888667 0.72923297
000120 b6 9f 06 3e e0 8d b5 bf 55 19 fe bd 11 8e 02 be
       0.13146862 -1.4183922 -0.124071755 -0.12749507
000130 ce 86 7b 3f ea 8e 8c bf da c0 1e bf 06 cc c2 bf
       0.9825257 -1.0981114 -0.6201302 -1.5218513
000140 b7 e7 92 3f 50 7b 73 3f 7d ca a8 bf 3b 7b 99 3f
       1.1476964 0.95110035 -1.3186795 1.1990732
000150 1a 70 df 3f 2f ae 8a 3e b7 96 9e bf 1e 35 93 3f
       1.7456086 0.27086017 -1.2389745 1.1500585
000160 b6 ff a7 be a6 4f f6 3e 16 85 a5 3f b0 9f eb bf
       -0.3281228 0.48107642 1.293124 -1.8408108
000170 39 83 26 40 b5 6d ca bf 56 5e f0 3e 54 e8 ec be
       2.6017592 -1.581473 0.46946973 -0.46271002
000180 cb 7e 3e bf af d7 a8 bf 59 63 c6 bf 22 51 b5 3f
       -0.7441222 -1.3190821 -1.5499068 1.4165385
000190 33 8b 15 be 3c 2d 89 3f a2 16 c3 bf 63 86 16 3f
       -0.14603882 1.071693 -1.5241282 0.5879881
0001a0 f8 73 08 3f 19 5c d7 3e b2 81 a3 bf 9b cf a8 3f
       0.53301954 0.42062452 -1.2773955 1.3188356
0001b0 8a 4d 8a be 70 f5 19 3d 96 e5 93 3d 57 64 f9 bd
       -0.27012283 0.037587583 0.072215244 -0.121773414
0001c0 e9 4c cb 3f 9c 4c 3e bf 26 fe a9 3e b6 74 d4 be
       1.5882846 -0.74335647 0.33201712 -0.41495293
0001d0 54 de 0c c0 b9 ba a6 3e 3c ee b7 3d 5d 0b 95 3f
       -2.2010698 0.32564333 0.089809865 1.1644093
0001e0 1b 0a 66 be e7 d4 b0 3e 9d 3f f5 be a9 47 be 3e
       -0.22464792 0.34537432 -0.47900096 0.37164047
0001f0 12 57 a2 3b 15 70 97 3f 91 18 ff bf 84 7f 04 40
       0.0049542272 1.183108 -1.9929372 2.070283
000200 cc 42 a4 bb 85 3a ce bf 62 89 c7 3f c2 e3 a4 3f
       -0.0050128456 -1.6111609 1.5588801 1.2882006
000210 02 67 1f bf bd d4 99 bf 93 a3 56 3f dd 16 8c bf
       -0.6226655 -1.2018048 0.83843344 -1.0944477
000220 ad e4 2d 3e 33 cb bc 3d c3 9f 31 bf 78 10 93 3d
       0.16981764 0.09218445 -0.693844 0.071808755
000230 94 46 f6 3e 59 6e 12 c0 70 37 d7 bf 0c bd 0f 3f
       0.48100722 -2.287985 -1.6813793 0.5614784
000240 a8 46 c1 3f e0 77 fa be 0b b9 1c bf 96 72 90 3c
       1.5099688 -0.48919582 -0.61219853 0.017632764
000250 dd a4 d2 be 17 38 1c 3f 6d b8 e2 be 7b 24 ac 3f
       -0.41141406 0.61023086 -0.4428133 1.3448633
000260 4a ef ba bf 6c c8 93 bf ed cb 0c bf 35 35 59 3e
       -1.4604275 -1.1545539 -0.54998666 0.21211703
000270 62 fc 3a 3f be 58 99 3f e4 ec 11 40 61 70 af 3e
       0.73041356 1.1980207 2.2800837 0.34265426
000280 1e f0 32 bf 11 fb 85 be 28 6c 34 bf 90 79 8d 3e
       -0.6989764 -0.2616811 -0.70477533 0.27631807
000290 bd 9c 01 bf 5a 99 d2 3e 96 d8 ae bf a2 9a 3c 3f
       -0.5062979 0.41132623 -1.3659847 0.7367345
0002a0 53 57 93 bd fa 9e 01 3e a6 6e 2c bf e4 c5 84 bf
       -0.0719439 0.12658301 -0.67356336 -1.0372891
0002b0 c5 83 ba 3d 88 72 df 3d b3 bd bb be ec a2 1d bf
       0.09107164 0.10910517 -0.36668167 -0.61576724
0002c0 b5 91 b1 3f 83 37 94 3f f2 f7 2a be b8 dd 90 3f
       1.3872591 1.1579441 -0.16696146 1.1317663
0002d0 cd c4 69 3f 04 75 28 3f 0c d7 92 3f 15 91 0a 3f
       0.9131592 0.6580355 1.1471877 0.5412763
0002e0 07 d2 7e be 3a 15 98 3f 52 88 0b bf bb 4e d1 be
       -0.24884807 1.1881478 -0.54504883 -0.4088038
0002f0 d3 c7 73 bf 59 23 9e be 36 50 e7 be 5b ad 1f 3f
       -0.9522678 -0.30886343 -0.45178384 0.62373894
000300 8c 4b 06 40 d0 db 8a be 83 ce 0c c0 c7 78 8e 3e
       2.098361 -0.2712083 -2.2001045 0.2782652
000310 83 23 8c 3f ae bf 50 be 50 01 cc be 80 15 e5 be
       1.0948337 -0.2038562 -0.3984475 -0.44742966
000320 77 ab 21 bf 8c 9b da 3f 44 71 af be 65 79 e9 be
       -0.6315226 1.7078719 -0.34266102 -0.4560043
000330 c7 e6 5e 3f ab ce 89 3f ca fd 05 bf 14 4c 27 bf
       0.8707089 1.0766195 -0.52340376 -0.6535046
000340 c2 48 c6 bf 3b 25 09 c0 92 20 e8 3e 61 9f 52 bf
       -1.5490954 -2.1428974 0.4533735 -0.8227444
000350 83 43 d2 bf 2d ba e1 bf 2b e9 11 3e 52 ef 14 c0
       -1.6426853 -1.7634941 0.14249103 -2.327107
000360 68 96 5e bc d5 af 0a c0 11 7e a2 be 59 b2 04 c0
       -0.013585664 -2.166982 -0.31736806 -2.0733855
000370 4b 71 09 be 02 51 ee 3e 67 52 7a 3f cb 35 7a be
       -0.13422124 0.4654618 0.97781986 -0.24434583
000380 5d 32 00 40 60 86 f5 3f db e2 06 40 b5 7c bf 3e
       2.003074 1.9181633 2.1075962 0.3739983
000390 00 14 30 40 5c 55 9d 3f 18 34 41 bd 70 40 29 3f
       2.7512207 1.2291675 -0.04716882 0.6611395
0003a0 1f a8 e3 3e 9f dc 4b 3f 1e 07 0a bf 46 fb 21 3e
       0.44464204 0.79633516 -0.5391711 0.1581851
0003b0 05 f3 42 3f 67 16 12 c0 1f 41 fa 3e 25 ba ad bd
       0.7615207 -2.2826173 0.48877808 -0.0848277
0003c0 1f 68 4a 3f a1 4d 24 bf 92 e6 ef 3d 93 b1 a0 be
       0.79065126 -0.6418095 0.117139 -0.31385478
0003d0 a1 01 1b bf 86 5a 66 3e eb 26 a9 bf 0c 49 c7 3e
       -0.6054936 0.2249547 -1.3215002 0.38922918
0003e0 a2 d3 fe be 2a e0 c6 3d c4 ce 5c 3f db 57 81 be
       -0.49770838 0.09710725 0.86253 -0.2526234
0003f0 0e 3e 11 3f 38 b6 a3 3c 1e 4d c2 be 75 58 8a 3e
       0.5673531 0.01998435 -0.3794946 0.27020612

transformer.encoder.layers.0.self_attn.in_proj_weight f4 [96, 32]
000000 76 a6 23 be e0 4b 7e bd e7 c5 18 3e 6e 75 14 3e
       -0.15981469 -0.06208408 0.14919244 0.14497921
000010 31 75 de bd 76 87 54 3d 2d 1a 4a 3c 56 c9 12 3b
       -0.10862196 0.051886998 0.012335342 0.0022397838
000020 1d db 7c bd d1 1c d5 3d a1 b0 a2 3e 59 1f 1d be
       -0.0617324 0.10405887 0.31775382 -0.1534399
000030 eb 42 3d bd 33 c2 14 3e 66 95 f4 3d 53 22 10 be
       -0.046206396 0.14527206 0.11942558 -0.14075594
000040 d8 d3 6f bc 51 82 46 bc 80 42 f1 bd 40 77 8e 3e
       -0.01463791 -0.012116031 -0.11780262 0.27825356
000050 ac 79 7a bd 33 73 4b be 47 94 0f 3a 2f f3 28 3c
       -0.06115119 -0.19868164 0.0005477112 0.010311886
000060 30 15 28 bd 8d ca a5 3d 90 39 ca bd 64 a5 70 3d
       -0.04103583 0.08095274 -0.098742604 0.05875148
000070 39 1e bf 3d 55 4e ba bd 1d 40 ad bd dd 55 1f 3d
       0.093319364 -0.09096972 -0.08459494 0.038900245
000080 bc ee 5f bd c0 da 44 3e d7 97 b7 bd 86 85 f2 3c
       -0.054671034 0.19224072 -0.08964508 0.029604685
000090 b4 01 b7 3d 90 24 a7 bd 50 48 a9 bd 5b 8b 08 3e
       0.08935872 -0.081612706 -0.08265746 0.1333441
0000a0 8c 41 87 3a 40 ed 23 be e6 7d 9c bd 71 2a 28 bd
       0.0010319217 -0.16008472 -0.07641201 -0.0410561
0000b0 90 df 68 bd 54 58 e5 3d 58 05 1b 3e d9 c8 88 3c
       -0.05685383 0.11198488 0.15138757 0.016697334
0000c0 9e 58 90 bd 62 b9 dc 3d 65 be 12 3e 36 2b 4e bd
       -0.070481524 0.107775465 0.14330442 -0.050334178
0000d0 11 9d 1b be f2 c4 0b be 89 b8 3c 3e 11 05 a9 3d
       -0.15196635 -0.13649347 0.1842977 0.082529195
0000e0 38 13 2c bd 7f fb 13 3e c6 af 1b be b2 bf ed 3b
       -0.042010516 0.14451407 -0.15203771 0.007255518
0000f0 6e 43 cc 3d 4d f1 0e 3c 12 9e ad bd ba 6e 03 3d
       0.09973799 0.008724523 -0.08477415 0.03208802
000100 04 4c 55 be a4 79 a1 bd 8f ad c3 3d da a3 ba bd
       -0.20829779 -0.07884529 0.09554588 -0.091132835
000110 bd 24 cc bd 75 b8 30 bd 5c 42 9a 3d 46 ba 62 3d
       -0.09967945 -0.043144662 0.07532188 0.055353425
000120 78 2b 9e bd 32 f5 b3 bd 08 93 bc 3d 7d 27 ae 3d
       -0.07723135 -0.08787002 0.092077315 0.085036255
000130 b2 67 23 bd ca f8 fe bd 75 0c c0 3d c4 c7 2b 3e
       -0.039893813 -0.124497965 0.09377376 0.16775423
000140 a2 3f 1d bb 1f 57 aa bc 46 f8 ed 3d 97 4c 3c 3e
       -0.0023994227 -0.020793496 0.1161962 0.18388592
000150 01 4d 71 3d 74 53 9a bb 45 87 0d 3e 20 72 4d be
       0.058911327 -0.0047096554 0.13821132 -0.20063066
000160 b1 f9 a0 3c 83 0e 23 bd 7c 49 a1 3d 4b ce 1b be
       0.019650312 -0.03980876 0.07875344 -0.15215413
000170 94 6e 11 bb ac 55 5f 3e a6 f5 2e be 00 9e a2 3d
       -0.0022191154 0.21810025 -0.17085895 0.07940292
000180 51 2a a4 bc 84 33 52 3d d1 ec cc 3c 24 ae f0 bd
       -0.02003971 0.05131866 0.025015267 -0.11751965
000190 f9 fd 26 be 12 e4 3a 3e 36 3b 3a bd 53 75 08 3d
       -0.1630782 0.18251064 -0.045466624 0.033315014
0001a0 0b f4 e5 3d f2 46 48 3e 29 7d a1 3d 33 d6 9f bd
       0.11228188 0.19558313 0.078852005 -0.07804527
0001b0 1e e1 6d 3d 8e 9e d8 bd a3 ba 38 be 38 4e 83 3e
       0.058076017 -0.10577117 -0.18039946 0.25645614
0001c0 1e ec dd 3d ad 8b 0f bd e4 bf 76 3d 6a 37 d7 bb
       0.108360514 -0.035045315 0.060241595 -0.006567885
0001d0 3f 96 ef bd 78 9f e2 bd 6d cc bb bd bf 8e 8f bd
       -0.11698579 -0.110655725 -0.091698505 -0.070096485
0001e0 1c cf 55 3e 77 a1 96 bc ea 04 f2 3d d4 70 4f bc
       0.20879787 -0.01838754 0.118173435 -0.012661178
0001f0 dd 09 bf 3d 3e 51 35 3e 18 1c cd bd c2 ae c2 3d
       0.09328053 0.17706773 -0.10015124 0.09505989
000200 c5 7d ed 3d 54 a0 b1 3d d4 b7 39 3e 51 29 7d 3e
       0.11596254 0.08673158 0.18136531 0.24722792
000210 d5 82 88 be 67 6a 52 3d 19 e6 5c 3e 0b 4e 68 be
       -0.26662317 0.051371004 0.2157215 -0.22686021
000220 e9 3a 4a 3d e0 bd 8c 3d 85 d7 1c 3e 6f 89 1a be
       0.049372587 0.06872153 0.15316589 -0.1509149
000230 44 68 ac 3b 03 63 e9 bc 47 34 0c bd 44 0c d3 bd
       0.005261453 -0.028489595 -0.034229543 -0.10305074
000240 24 3c 40 bd 9f e4 e3 3d b7 0a e3 bc 99 01 72 3d
       -0.046932355 0.111275904 -0.02771507 0.059083555
000250 84 cb aa ba 55 07 71 3e 7b 63 95 3d df 97 99 3d
       -0.0013030623 0.23537953 0.07294365 0.0749967
000260 c8 5f af 3d ed ff 2c 3c 73 3c cd 3d 82 45 97 3d
       0.08563191 0.010559064 0.100212954 0.073863044
000270 2d 0d 83 bc 63 de 29 be 75 fe 38 3c e8 b8 b4 3e
       -0.015997494 -0.1658874 0.011291136 0.35297322
000280 50 10 6d 3e f7 db 98 3c d0 2a 6c 3d f2 05 20 3e
       0.23150754 0.018659575 0.057658017 0.15627268
000290 76 39 7a bb ce e7 6d bd 33 51 d3 bd d9 8c 3b be
       -0.0038181222 -0.058082394 -0.10318222 -0.18315448
0002a0 0e 67 2d 3e 26 b4 13 be 1c 02 b8 3d b8 1a a5 3d
       0.16933843 -0.1442419 0.08984777 0.08061737
0002b0 4a 36 0e bd 55 2c b9 3e 7a 21 27 3e d5 c3 18 be
       -0.034719743 0.36166635 0.16321364 -0.14918454
0002c0 72 23 1f be f9 c6 29 3d dc ca 41 3c ce 2f 42 3e
       -0.15540865 0.04144952 0.011828151 0.18963549
0002d0 d0 a0 86 3d de 78 89 3d 50 9d b6 3c 4b 67 93 3e
       0.06573641 0.06712507 0.02229181 0.28789744
0002e0 5b 09 87 bd 67 6b a3 3e 6d 0a 41 be 18 58 c5 3d
       -0.06593581 0.3191788 -0.18851633 0.09635943
0002f0 d2 67 1f be 9c ea 35 3d 98 07 2e bd 40 76 45 3e
       -0.15566948 0.044413194 -0.04248771 0.1928339
000300 3b 9d 9f be d3 d9 c3 bd ed 23 01 be c8 b1 e0 3b
       -0.31174645 -0.09563031 -0.12611361 0.0068571307
000310 16 fd 42 3e 33 50 73 3e a8 49 04 be bc 50 8c bd
       0.19041857 0.23761062 -0.12918723 -0.06851336
000320 27 93 62 bc 3f 43 d1 bd 9b c9 bb bd 09 3a a7 bd
       -0.013829029 -0.10217904 -0.091693126 -0.08165366
000330 bc fc 6c 3d 74 54 14 3e ff 0f 4a be 72 64 ed bd
       0.057858214 0.14485341 -0.19732665 -0.11591424
000340 ae 85 8b bd 41 6e 10 be 6f f9 57 be 10 21 06 3e
       -0.06812607 -0.14104559 -0.21091245 0.1309855
000350 5a 55 b8 bd b7 6a a5 3d 27 35 e2 3d ff ec d9 bc
       -0.090006545 0.08076995 0.11045294 -0.026602266
000360 9d a9 dc 3d 1f a6 3f bd 08 e0 6e bd 9d 6f 19 3e
       0.10774539 -0.046789285 -0.05831912 0.14983983
000370 3d 9d 3b 3e 2e cf c2 bc ab 7a 9c 3d c8 a2 3a 3e
       0.183217 -0.023780432 0.076405846 0.18226159
000380 ff cc ba bd a5 92 17 be 18 5a d4 bd c4 85 b3 bd
       -0.09121131 -0.14802034 -0.103687465 -0.08765748
000390 ff ce b4 bc 20 26 82 3e cb 55 1e be 6b fa 98 bd
       -0.02207136 0.25419712 -0.15462415 -0.074696384
0003a0 1c 94 83 bd b6 86 30 3d eb ed a2 3d 5f c9 80 3e
       -0.06424734 0.04309722 0.079555355 0.25153634
0003b0 4c 22 0c be d3 01 b3 bd 67 1d ee bd 03 97 90 3e
       -0.13684958 -0.08740582 -0.11626702 0.28240213
0003c0 14 34 87 3d 2e bd 98 3d a4 10 bc bd eb ab 8a 3d
       0.0660173 0.07457958 -0.091828614 0.06771072
0003d0 ff 73 e1 bd 57 a3 a5 bd a6 0e 5f 3d 07 98 a5 3d
       -0.110084526 -0.08087795 0.05445733 0.080856375
0003e0 79 06 b9 3d 36 93 bd 3c 6d 1a 2c 3d 62 c1 89 bd
       0.09034438 0.023141485 0.04201739 -0.06726338
0003f0 68 47 e2 3d 27 05 97 3e 45 e4 d6 bd c8 c6 87 3e
       0.11048776 0.29496118 -0.10492758 0.26518846

transformer.encoder.layers.0.self_attn.in_proj_bias f4 [96]
000000 c7 08 6d 3d 70 d1 7b bd 62 4a 7d 3d 9c f7 c1 3d
       0.0578697 -0.061479032 0.061838515 0.09471056
000010 03 3f 9f 3c cb a9 e8 bd 92 c8 7b 3d ea c5 fe 3d
       0.019439226 -0.113605104 0.061470576 0.12440093
000020 da f9 5e 3d 64 30 3b bd be a0 23 3d 4c 07 20 bd
       0.054437496 -0.045700446 0.039948218 -0.03906946
000030 f5 87 aa 3c 49 8f 5f bb 0b 88 d2 3d 5f 62 bb bd
       0.020816782 -0.0034112504 0.102798544 -0.09149622
000040 c7 b2 ed 3d 8a 54 55 3d 97 38 3d 3d 16 66 ab 3d
       0.11606365 0.052082576 0.046196546 0.08369081
000050 7e d3 09 be 26 8f a6 3d 9c 92 88 3c 58 1f cb 3d
       -0.13459584 0.08132772 0.016671471 0.09918088
000060 df 6a 2e bc 99 d4 7a bd 4e eb a8 3d 76 c4 06 3c
       -0.010645597 -0.061237905 0.08248006 0.008225551
000070 41 0e f7 3b 35 1c 06 bd f4 a4 80 bd 57 e2 4d bc
       0.007539541 -0.032741744 -0.06281462 -0.012566171
000080 03 c8 fa 3c 3a 46 b5 3b e8 5c 3d 3d 1c 3d 26 3c
       0.030612951 0.0055320533 0.04623118 0.010146406
000090 6f c6 7d bd 00 8c 99 bd 9a 8d 29 3d 5b 4d 87 bb
       -0.06195682 -0.07497406 0.041394807 -0.0041290945
0000a0 39 d3 58 bd c5 1e 63 bc c4 fd b8 bc 45 3d d8 3a
       -0.052935813 -0.0138623165 -0.022581942 0.0016497752
0000b0 9e 5f e8 3c d3 eb b8 bb 79 0e 7c 3b cf 87 5b bc
       0.028365906 -0.005643347 0.0038460775 -0.0133990785
0000c0 d3 08 43 3d a8 d8 aa 3c d9 1a eb 3c 0f 2e 04 3d
       0.047615837 0.020855263 0.028699325 0.032270487
0000d0 56 ff 27 3d d2 7e d0 3c cc 8f 8c 3b 7b 54 aa 3d
       0.04101499 0.025451098 0.004289603 0.083168946
0000e0 e8 19 d5 3c 6d c0 7e bc c5 c5 81 3d 08 73 ef 3b
       0.02601333 -0.015548808 0.0633655 0.007307414
0000f0 b0 b1 0c bd 00 32 fa bc dd 7f 71 bd 75 0a 56 bc
       -0.034349144 -0.03054142 -0.05895983 -0.013064017
000100 78 65 f6 3c 05 5e 51 3c d2 82 17 3c 94 75 7d bd
       0.030077681 0.012778764 0.009247499 -0.06187971
000110 20 ab ca 3d b7 2b 42 3d 40 94 a4 3d 16 c5 10 3b
       0.09895921 0.04740497 0.08036089 0.0022090129
000120 6a 21 38 bc 73 6a 0e 3d 34 fb 47 3d 20 d0 b7 bd
       -0.011238435 0.034769487 0.04882355 -0.089752436
000130 8f 1d 53 3b 3a 21 85 bb 55 31 63 3d ba ef ab bd
       0.0032213663 -0.004062799 0.05546697 -0.083953336
000140 73 45 1b 3d 6d 1e 88 3d 54 00 03 3d ec f2 99 3d
       0.03790803 0.06646428 0.031982735 0.07517037
000150 7d 01 1a 3d 5d 37 71 bc 98 9e 28 bd 03 21 e1 3c
       0.037599076 -0.014722672 -0.04116687 0.027481562
000160 11 d2 88 bd 33 b0 47 bd 8e e3 e4 3c a4 9f 2f bd
       -0.06680692 -0.04875202 0.027940538 -0.042876855
000170 f2 52 89 3d 9b 9f f8 bc 5b 75 38 3d 1f 4c cf ba
       0.06705274 -0.030349543 0.045033794 -0.0015815533

transformer.encoder.layers.0.self_attn.out_proj.weight f4 [32, 32]
000000 57 51 f1 bd 3f 61 db bd 8f 2b 84 be 29 bc 84 be
       -0.117830925 -0.107119076 -0.25814483 -0.25924805
000010 ab af 62 3d a5 f8 3f 3e 3a f1 06 3e cb 64 b5 3d
       0.05534331 0.18747194 0.13177958 0.08857115
000020 cf 11 8d 3e a4 79 a8 3d 88 ca be 3e 89 f1 e7 be
       0.2755265 0.08226326 0.37263894 -0.45301464
000030 f3 58 6e bc a9 d3 91 be 34 de a7 be e2 ef 5b be
       -0.014547574 -0.28481796 -0.32786715 -0.21478227
000040 37 69 90 bd 81 66 de 3d 3e 79 a9 3e 0e e7 98 bd
       -0.07051318 0.10859395 0.33100313 -0.07465945
000050 70 a8 52 be ec d0 64 3d 7a 68 22 be e8 51 9c bd
       -0.20572066 0.055863306 -0.15860167 -0.0763281
000060 23 fa ab be 26 95 d6 3d a4 e1 34 bd bd cb 4c 3e
       -0.33589277 0.104776666 -0.0441605 0.19999595
000070 3f a0 bc bd 01 b7 66 3e fe fa 06 3e e5 17 8a be
       -0.09210252 0.22530748 0.13181683 -0.26971355
000080 91 a7 0b 3e 39 73 e2 3d 8b 83 0e be a0 f5 c1 3e
       0.1363814 0.11057133 -0.13917367 0.3788271
000090 34 2d b3 3d 4f ce 99 bc 53 5a e1 3d ec 60 85 3e
       0.08748856 -0.018775133 0.11003556 0.26050508
0000a0 82 cf da be a2 4b 21 3d 99 36 1b bd c6 79 14 be
       -0.4273644 0.03937877 -0.037893865 -0.14499578
0000b0 62 d2 93 3e 15 b1 86 3c 9d 39 9b be 5e a8 90 bd
       0.28871447 0.016441861 -0.30317393 -0.070633635
0000c0 97 26 ab 3d 88 a6 aa be 86 db 88 bd 9b c6 84 be
       0.0835697 -0.33330178 -0.06682496 -0.25932774
0000d0 66 79 64 3d 5d 8e 0d 3e 01 a9 8a 3e f5 a8 5b bd
       0.055779837 0.13823839 0.27082065 -0.053627927
0000e0 c7 75 23 be 99 70 fb bd d1 88 3a bd da c3 0d be
       -0.15962897 -0.12277336 -0.045540635 -0.13844243
0000f0 89 1b ae 3d 8f ce 16 be 0a 39 c8 3b fd a7 5e 3a
       0.08501346 -0.14727233 0.006110315 0.000849366
000100 25 56 15 3e f3 be 44 be 3c 25 ab be da 15 fd 3d
       0.14583643 -0.19213466 -0.33426845 0.123576835
000110 88 50 19 3d 5e 3d c7 3d bc 96 40 be 10 2e eb bd
       0.037430316 0.09728502 -0.188075 -0.11483395
000120 33 36 e5 3e 67 33 4a 3e fd 9c 56 3e 88 45 94 3e
       0.44767913 0.19746171 0.20958324 0.28959298
000130 75 ac 2c be 68 06 d8 3d 4b b4 ef bd da bc 0c be
       -0.16862662 0.10548097 -0.1170431 -0.13743916
000140 b3 5d 82 3e 34 a6 81 be c2 6c 78 be b0 0b 48 be
       0.25462112 -0.25322115 -0.24260238 -0.19535708
000150 a1 ee 8a be cd 8e 02 be 81 68 0a 3e 3d 79 fb 3d
       -0.27135184 -0.12749787 0.13516428 0.12278984
000160 b7 76 2a be b6 10 44 3e 77 7f 7d be f6 b1 da 3d
       -0.16646849 0.19147 -0.24755655 0.106784746
000170 b0 7d a5 bc 92 15 c7 bd 37 73 28 3e f5 6c b7 3c
       -0.020201534 -0.09720911 0.16450201 0.022390822
000180 c9 c6 22 be 8b bd 03 3d b8 78 9f bd 39 5c c0 3c
       -0.15896143 0.032163184 -0.07786697 0.023481475
000190 d9 c1 3a 3c 63 50 e4 bd 49 19 d7 3d 53 cc 82 3e
       0.011398756 -0.11148145 0.1050287 0.25546512
0001a0 f0 b2 2a be bb b1 42 3d 94 11 81 3d 24 75 1f be
       -0.16669822 0.04753278 0.06302181 -0.1557203
0001b0 92 12 35 3e fd b0 70 bd f6 aa 81 3e 0f 2b 10 be
       0.17682865 -0.05876254 0.25325745 -0.14078926
0001c0 db e4 bb bd 14 a5 c3 3e ab 64 fc 3d d4 02 10 3e
       -0.0917451 0.38211882 0.123238884 0.14063579
0001d0 dc ef 44 be 97 5c ee 3d 6b ae 00 3e c6 71 0f 3d
       -0.19232124 0.11638754 0.12566535 0.035020612
0001e0 c8 87 99 3e fa 4c 2f 3c 3b 7d f2 bc 10 c7 59 3c
       0.29986405 0.010699505 -0.02960073 0.013292089
0001f0 27 78 39 be d9 20 17 3e 69 90 bd bd 13 51 45 3e
       -0.1811224 0.14758624 -0.0925606 0.19269209
000200 54 a1 6d be 82 aa 08 be 01 12 5d bd de b1 8b 3e
       -0.23206073 -0.13346294 -0.053972248 0.2728414
000210 97 b2 90 be 5b ba 70 3e 33 bf 5d bd 9e 06 26 3e
       -0.28261253 0.23508589 -0.05413742 0.16213462
000220 cb f0 5b bd 76 59 ed 3b d3 4e c3 be a0 20 9c 3e
       -0.053696435 0.0072433306 -0.38146076 0.3049364
000230 8b f4 8a 3e c5 c8 75 be 0e c4 0f bd ea 1d e4 bd
       0.27139696 -0.24002369 -0.03509908 -0.11138518
000240 45 8b 01 be 0a 91 cb bd ae fb 1d 3e bc cc e5 bd
       -0.12650783 -0.099397734 0.1542804 -0.112206906
000250 3b 15 08 be d3 a1 07 3e f4 12 de b8 a0 27 90 be
       -0.13289349 0.13245325 -0.00010589315 -0.2815523
000260 8f 6d 95 be 7c 90 cf bb 76 ce 17 3e ef 50 a0 bd
       -0.2918515 -0.0063343626 0.14824852 -0.07827937
000270 69 a2 e0 bc cd 5a 80 be f9 a8 2f be db 54 89 3e
       -0.027421193 -0.25069275 -0.17154302 0.26822552
000280 16 df 53 3e 85 95 6e 3e 56 24 70 be 55 78 fe 3c
       0.2069057 0.23299225 -0.23451361 0.031063238
000290 f0 48 73 3c 56 c0 78 3c e4 e5 2e 3e 66 28 50 bd
       0.014848933 0.015182575 0.17079884 -0.050819777
0002a0 4a c9 ad 3b 00 91 78 3e 86 ec 2f 3d ce d4 04 3d
       0.0053035365 0.24274063 0.042950176 0.03242951
0002b0 c5 48 69 3e 64 a2 24 be 3a a3 ee bd b0 a4 34 be
       0.22781666 -0.16077572 -0.11652227 -0.17640948
0002c0 b9 61 bd bd 8a 1f cb bd f5 5d b9 bd c3 39 77 be
       -0.09247155 -0.09918125 -0.09051124 -0.24143128
0002d0 da 70 21 3e cb 7b 1a be 76 0a 4d be e3 93 93 bd
       0.15765706 -0.15086286 -0.20023522 -0.072059415
0002e0 91 65 cf 3e 87 da 15 bc f7 44 c6 bd 57 93 05 be
       0.40507177 -0.009146339 -0.09681123 -0.13044487
0002f0 10 bf 1d be f3 5b 36 bd ff de c0 bd 76 3f a7 3e
       -0.15404916 -0.044521283 -0.09417533 0.32665604
000300 b9 33 29 3e f5 7b 31 be c3 c5 91 3e 25 0f 43 3e
       0.16523637 -0.17332442 0.28471193 0.19048746
000310 2e 0b 2a 3e e3 a0 57 3e 8a 41 12 3e a2 f2 10 3f
       0.16605827 0.21057467 0.14282814 0.5662023
000320 87 db 65 3d 81 9c b7 bc d7 c2 e5 3c 76 f8 08 be
       0.05611756 -0.022413494 0.028047008 -0.1337603
000330 8f aa 3c 3d 76 b0 5a be bf c1 94 3e 6f 4d 4a be
       0.046061095 -0.21356377 0.29054067 -0.19756101
000340 82 1a 21 3e f2 e3 b4 bd 92 55 9d 3d 98 ea 6a be
       0.15732768 -0.088325396 0.07682337 -0.22941053
000350 ad 66 37 3e 3a cd 8a be 93 d0 03 3e 9d 64 bc bd
       0.17910261 -0.271097 0.12872534 -0.09198878
000360 68 7f a0 3d 43 1e 2b be 10 13 cb 3e dc 1c 6f 3e
       0.07836801 -0.16710763 0.3966298 0.23350853
000370 05 91 0c 3c 8d ff ba bd 3d 8a 9b be 71 cb a6 bd
       0.008579497 -0.09130774 -0.30378905 -0.08144272
000380 53 e6 ce 3c b8 2c 50 be 04 e0 dd 3d 78 8c d3 3b
       0.025256312 -0.20329559 0.10833743 0.006455954
000390 91 81 8d be 8d 03 27 3e 73 5c 97 3d 2c 34 7c be
       -0.27637914 0.16309948 0.0739068 -0.24629277
0003a0 12 b8 8b be 34 7f 6a 3e ae 14 78 be ff 88 79 3e
       -0.27288872 0.22900087 -0.24226639 0.24368666
0003b0 e0 61 11 be f0 96 8d be 8c b5 97 bd 17 54 0a bd
       -0.14197493 -0.2765422 -0.07407674 -0.0337716
0003c0 0e 7b ad bd eb 50 87 be d7 24 5c 3e 12 24 49 3e
       -0.084707364 -0.26428923 0.21498428 0.19642666
0003d0 a8 7b f8 bd 9c d8 95 3d 7f 62 e8 3c b4 cc fd bd
       -0.121329606 0.073167056 0.02836728 -0.1239256
0003e0 00 ea 7e 3e 1e 5f ee 3d ae f3 e1 bd ef 99 09 3e
       0.24893951 0.11639236 -0.11032806 0.13437627
0003f0 d6 c8 04 3e 27 f5 71 3e ee 81 07 3e 72 74 35 3e
       0.12967238 0.23628674 0.13233158 0.17720202

transformer.encoder.layers.0.self_attn.out_proj.bias f4 [32]
000000 15 c5 93 bd 78 23 cf bc 6d c7 cc bd 98 9d be bd
       -0.07215325 -0.025285468 -0.09998975 -0.09307402
000010 54 74 0b be 0b 83 f1 3d 8a 7f 16 3b 05 ed 38 3d
       -0.13618594 0.117925726 0.0022964203 0.045147914
000020 a5 4f 57 bd 92 bf 24 be ca cf 4a bd 34 b6 eb 3d
       -0.05256619 -0.16088703 -0.04951457 0.11509362
000030 12 21 91 3d 0e 82 4d bd c9 3c cd 3d b0 83 c2 bd
       0.07086386 -0.050172858 0.100213595 -0.09497774
000040 51 4f 07 3e 3e 58 27 3c a0 21 e4 bd 40 b3 46 3d
       0.1321385 0.01021391 -0.11139226 0.04851079
000050 08 de a2 bb 70 69 6a bc 08 a0 06 3e 05 96 32 bd
       -0.004970316 -0.014307365 0.13146985 -0.0436001
000060 e0 da fb 3d e4 d4 a5 bc b7 21 0d 3c f2 bf 06 3e
       0.122976065 -0.020243116 0.008613995 0.13159159
000070 97 eb 2c be 80 e1 8f 3d 88 2e 0b 3e 47 09 08 3d
       -0.16886745 0.070254326 0.13591969 0.033211973
