Models/071223/1_encoderForced.pth (torch, 154237 bytes, 40 tensors)

encoder_embedding.weight f4 [47, 32]
-0.986054 -1.1081542 0.9591581 -0.090387985 -1.6987492 -1.5911037 0.29882962 -0.6205807
2.0503287 0.41242737 0.6638233 0.42530024 2.6509016 1.8164792 2.101024 -0.11484331
0.3952142 0.15493971 -0.11391982 -0.17421532 0.35745797 0.58514327 -1.3835081 -0.5164824
-0.39073938 1.304122 -0.059215277 -1.6347302 -1.727319 -1.7894782 0.027250294 0.0
1.359136 1.0792952 -0.49590707 -0.0069722105 0.7390987 0.64194316 2.3000135 -0.5976421
1.4203327 -1.0672288 0.712241 -0.1940308 -0.83460325 -0.75368404 2.1749914 0.10188249
0.59051794 0.55533075 -0.22452262 -0.5773278 -1.517189 0.3767053 -0.14442936 -1.0529073
-1.0800945 1.0492642 1.5990961 -0.2534393 -0.43959668 1.4818585 1.8139374 0.0
-0.26880467 -0.26717898 0.79044664 0.10059068 -0.18529113 1.2373936 -0.8635332 -0.3727841
-0.882909 -1.3460164 -0.04766329 -0.7214795 0.78503126 0.43844545 -1.8672124 -0.662943
0.9220253 -0.8840458 -0.3373114 -1.6820564 1.8931803 1.9917897 -0.55360955 2.5118053
1.0206779 0.0022088278 -2.1817026 -0.28569412 -0.9303985 -0.9195258 1.024824 0.0
-0.24838535 0.0033203887 1.2202256 -1.3613838 -0.5911822 0.120191626 -0.17778885 -0.9566334
0.35687453 1.6061578 -0.98023134 -0.2906928 -0.5166319 0.78961354 -1.8643829 0.6074128
1.3593221 0.82235754 0.27961025 -0.14538355 2.2985241 -0.3609887 -0.758024 1.1674529
-0.26295593 0.36753222 -1.6191372 0.91394806 -0.8335391 -0.14963987 1.0622866 0.0
-1.4750037 1.1086674 -0.7154804 1.0547127 1.4482024 1.6502553 0.64069855 0.7521604
0.28110072 0.8568929 -0.5312014 0.29937163 -0.19393806 -0.1776084 0.7913053 2.3561378
-0.18153463 -0.32847336 0.6587688 -0.5662927 -0.4781715 0.22338957 -0.47348613 -1.9193275
1.0096161 1.7622948 -0.080053575 0.043600075 0.27738968 -0.14839585 0.44823188 0.0
0.31440142 0.23933896 -1.2825519 -0.5437196 -0.26683724 -1.6768571 0.97157913 -0.22909883
-0.77258235 1.3208146 2.4718962 -0.26575348 -0.5803339 1.177549 -0.40797248 -0.89832515
1.7436521 -0.83083594 -2.2029424 -0.84065354 -1.012296 -0.5665991 -0.34590256 0.058698572
-0.154478 0.3064021 -0.3056563 -0.39846972 1.1984638 0.9713606 -0.8573876 0.0
0.12735309 0.19226484 -0.22571392 -1.5688308 0.72384155 -0.024352727 2.122135 -0.8053424
-1.6216477 0.5084794 -0.9319632 0.30008358 0.2803553 -1.7305834 1.9529577 -0.29372144
-0.4511544 -0.20423912 -0.20724551 1.8702861 -0.680917 -0.0128613375 -0.80897325 0.08645685
-0.4916809 0.7758011 0.06219179 0.7910982 1.0799893 -0.38831496 0.084382616 0.0
-1.4717798 -0.23130243 1.9775146 0.46927235 0.749693 1.6200097 0.49540025 -1.1920754
1.0942067 1.8275783 1.2301556 0.9893747 -0.30171245 0.40670878 -0.21960372 1.4207982
1.75746 -0.3090278 0.4751896 -0.45125207 -0.36246774 -1.3607166 0.7669607 2.5740044
-2.0802789 0.4664972 0.14863239 -2.7239275 -0.24635431 0.3228013 -1.9046249 0.0
00000000: 096e 7cbf ffd7 8dbf 638b 753f 561d b9bd
00000010: 9d70 d9bf 49a9 cbbf 3200 993e 60de 1ebf
00000020: 9638 0340 ae29 d33e 53f0 293f f4c0 d93e
00000030: 5fa8 2940 6482 e83f 2d77 0640 f832 ebbd
00000040: 8459 ca3e 84a8 1e3e cb4e e9bd 8065 32be
00000050: bb04 b73e f3cb 153f cb16 b1bf 3138 04bf
00000060: fe0e c8be 78ed a63f b88b 72bd d73e d1bf
00000070: ca18 ddbf 9f0d e5bf 023c df3c 0000 0000
00000080: 2bf8 ad3f 5826 8a3f 88e7 fdbe 2477 e4bb
00000090: 9335 3d3f 6356 243f 6c33 1340 13ff 18bf
000000a0: 76cd b53f f49a 88bf 6d55 363f 03b0 46be
000000b0: 8fa8 55bf 70f1 40bf 0f33 0b40 c4a7 d03d
000000c0: 2f2c 173f 282a 0e3f 42e9 65be c1cb 13bf
000000d0: 4033 c2bf 84df c03e 4ae5 13be abc5 86bf
000000e0: 8940 8abf 4a4e 863f 2eaf cc3f ccc2 81be
000000f0: d112 e1be 8aad bd3f 1a2f e83f 0000 0000
00000100: c4a0 89be afcb 88be b65a 4a3f 7d02 ce3d
00000110: f5bc 3dbe ea62 9e3f 8310 5dbf 8fdd bebe
00000120: 5306 62bf 444a acbf 953a 43bd e1b2 38bf
00000130: cff7 483f ec7b e03e d100 efbf a2b6 29bf
00000140: da09 6c3f d350 62bf 14b4 acbe a04d d7bf
00000150: bb53 f23f f7f2 fe3f 5bb9 0dbf 6bc1 2040
00000160: 93a5 823f fbc1 103b 04a1 0bc0 8046 92be
00000170: 992e 6ebf 0b66 6bbf 6f2d 833f 0000 0000
00000180: bb58 7ebe e19a 593b 5a30 9c3f d341 aebf
00000190: b757 17bf 0727 f63d 480e 36be ede5 74bf
000001a0: 42b8 b63e 9496 cd3f 71f0 7abf b0d5 94be
000001b0: fd41 04bf 1d24 4a3f 19a4 eebf 687f 1b3f
000001c0: 44fe ad3f 0686 523f 1329 8f3e 6ddf 14be
000001d0: 051b 1340 83d3 b8be dc0d 42bf 196f 953f
000001e0: 29a2 86be 2f2d bc3e e33f cfbf 80f8 693f
000001f0: d262 55bf 323b 19be 02f9 873f 0000 0000
00000200: eccc bcbf d0e8 8d3f b929 37bf d300 873f
00000210: b25e b93f 913b d33f d204 243f 958d 403f
00000220: 6fec 8f3e 555d 5b3f d1fc 07bf 3d47 993e
00000230: b397 46be fade 35be fc92 4a3f f6ca 1640
00000240: 37e4 39be a92d a8be 12a5 283f 8ff8 10bf
00000250: e5d2 f4be 3cc0 643e c66c f2be 86ac f5bf
00000260: 1a3b 813f e092 e13f 21f3 a3bd fe95 323d
00000270: 0506 8e3e 15f5 17be a67e e53e 0000 0000
00000280: 39f9 a03e 4615 753e a92a a4bf 3531 0bbf
00000290: e49e 88be 41a3 d6bf 69b9 783f e298 6abe
000002a0: f5c7 45bf 7410 a93f 8c33 1e40 d710 88be
000002b0: c390 14bf edb9 963f c5e1 d0be a3f8 65bf
000002c0: fe2f df3f aab1 54bf 02fd 0cc0 1235 57bf
000002d0: ea92 81bf a30c 11bf 241a b1be ea6d 703d
000002e0: 7b2f 1ebe bce0 9c3e fc7e 9cbe 3904 ccbe
000002f0: 4367 993f 17ab 783f c17d 5bbf 0000 0000
00000300: d968 023e 13e1 443e 8d21 67be 73cf c8bf
00000310: ae4d 393f 5f7f c7bc 0fd1 0740 eb2a 4ebf
00000320: 2792 cfbf b52b 023f 2495 6ebf 8ea4 993e
00000330: bb8a 8f3e c283 ddbf 85fa f93f a862 96be
00000340: b6fd e6be 0f24 51be 2b38 54be 8965 ef3f
00000350: 9450 2ebf 5cb8 52bc df18 4fbf 4a10 b13d
00000360: 99bd fbbe e79a 463f d2bc 7e3d 6985 4a3f
00000370: 173d 8a3f 38d1 c6be cbd0 ac3d 0000 0000
00000380: 4863 bcbf 8bda 6cbe 331f fd3f 7744 f03e
00000390: e1eb 3f3f 7a5c cf3f 1aa5 fd3e ed95 98bf
000003a0: f70e 8c3f 16ee e93f bd75 9d3f a947 7d3f
000003b0: 0e7a 9abe 223c d03e ccdf 60be b7dc b53f
000003c0: 73f4 e03f e438 9ebe 0d4c f33e 830a e7be
000003d0: 5f95 b9be f62b aebf 8957 443f 7dbc 2440
000003e0: 4a23 05c0 b9d8 ee3e 1733 183e d454 2ec0
000003f0: 4e44 7cbe 3646 a53e c0ca f3bf 0000 0000

decoder_embedding.weight f4 [45, 32]
-2.045328 -0.9712571 -1.035738 -0.7213479 -0.9027688 0.46416706 1.2860034 0.8077071
1.9558976 -1.1260413 -0.5931395 -0.14960024 -2.6031308 -0.3378581 0.74244463 0.4646104
-0.9346574 -0.94636965 -0.9607576 0.62032306 -0.11542519 -0.78467834 0.96911556 1.6691346
0.5911479 -1.0022572 -0.7281311 -0.07613703 -0.27531755 2.7243485 -1.5854508 -0.045298636
-0.28491408 -1.5095832 -0.60509545 0.33099693 -1.7524495 0.4190146 0.624003 0.3828436
-0.53468776 -0.9415141 -1.0667995 -1.5077065 -0.3102752 -0.53084344 -0.30362666 0.64062834
1.2450839 0.40325448 1.8159631 0.024429012 -0.76292765 0.93047214 0.6560679 0.3191331
0.4056708 -1.7238089 -2.6055627 -0.41491422 -2.5447483 -1.9590633 -0.34683767 0.19535664
-1.4295006 -1.330673 -0.026477529 -0.7080314 0.2830769 -0.6889746 -1.2257515 -0.55390364
-0.775929 1.1752373 -0.90133566 -0.16565736 -1.3282975 0.75657916 0.72714007 0.51807845
-0.51627254 -0.99844015 0.8204062 -0.9891194 -1.0028642 -0.34677872 0.97789115 -0.41699988
0.167667 0.011370704 -0.49751237 -0.46216363 0.6356863 -0.8402761 -0.6917611 1.231399
-0.46599048 -0.78008604 -2.052603 0.00871507 -0.3155714 -1.1455059 -1.2304538 -1.144341
2.0428708 0.8545959 0.80223006 -2.1102185 1.2250291 -0.7262945 -1.8673801 -1.1536673
1.0389625 -0.6818716 0.9603329 0.56970555 -1.0229678 2.4187648 -0.116355374 -0.17880154
0.4197141 -0.07998904 -1.0196122 -0.62660676 1.6302493 0.44482872 0.7605264 0.16503511
0.68548745 1.7119752 -0.11251932 -0.019754702 0.42388645 -0.74425894 0.8919537 1.3653672
0.59250706 -0.062247377 -1.1155127 0.5394035 1.255166 0.9400416 1.5502752 -0.013058337
-1.2859634 -0.020261195 -1.1830623 -0.4707379 0.059718583 1.7712001 1.863919 -0.20895734
-1.0028179 1.4059674 0.011293351 -0.25907815 -0.09682981 -2.0585535 1.7018684 0.4983075
1.1374532 1.0897434 -0.1201978 1.9817353 0.2231903 -0.66720325 -0.52325404 -1.6830028
-0.33614138 0.022130735 1.6028267 0.1112199 -0.10645903 2.6370509 0.31763923 -0.3175045
0.20900877 0.82850057 0.7224442 0.44631764 -0.9807666 1.9572915 1.426394 0.7201002
0.26926118 -1.0855873 0.67039865 1.2317806 1.4451144 0.88207656 -0.9692606 0.55446935
1.3045481 -1.258098 0.15741292 0.41488984 -0.14322315 -1.251274 1.5651394 -0.24019773
-0.7459384 0.5506736 0.28072986 -0.86684865 -0.87840074 -0.08307954 0.03229966 1.2147485
1.3411492 0.74719876 -0.7845935 0.014862669 0.42383045 -0.3941652 -0.73108566 -1.5801035
0.43507257 0.6587453 0.8688351 -0.8384995 -0.9018645 0.70790565 1.3558973 0.09917491
-0.114963055 -2.2186263 0.05797511 -0.5550602 -0.5990045 0.33720532 -1.0631188 -0.41021004
0.32169387 -0.99424833 1.1323388 -1.1573423 0.5957591 0.19547385 1.9783145 -0.5065739
-1.3788197 -0.4806147 -1.6629661 0.10814162 -0.99570626 0.32792106 0.53971624 -0.63822633
-0.23610248 -0.70226234 -1.5449471 1.2158922 -0.019759674 0.8792078 0.34293985 -0.34288323
00000000: a7e6 02c0 4ea4 78bf 1093 84bf 42aa 38bf
00000010: db1b 67bf 4ea7 ed3e c29b a43f e4c5 4e3f
00000020: da5a fa3f 1f22 90bf fed7 17bf ce30 19be
00000030: b299 26c0 bdfb acbe da10 3e3f 6ae1 ed3e
00000040: b545 6fbf 4845 72bf 36f4 75bf 7ecd 1e3f
00000050: 0b64 ecbd aee0 48bf f517 783f 34a6 d53f
00000060: 7855 173f f749 80bf cd66 3abf bbed 9bbd
00000070: 6cf6 8cbe ba5b 2e40 0df0 cabf 108b 39bd
00000080: 42e0 91be 063a c1bf 89e7 1abf 6e78 a93e
00000090: 4450 e0bf 1589 d63e a9be 1f3f 1404 c43e
000000a0: 4ce1 08bf 1107 71bf e38c 88bf 87fc c0bf
000000b0: 64dc 9ebe 5be5 07bf f474 9bbe 3800 243f
000000c0: e95e 9f3f 5f77 ce3e 7b71 e83f 5a1f c83c
000000d0: 3a4f 43bf 6c33 6e3f 11f4 273f 6a65 a33e
000000e0: 15b4 cf3e c5a5 dcbf 8ac1 26c0 a36f d4be
000000f0: 28dd 22c0 96c2 fabf b594 b1be 920b 483e
00000100: e0f9 b6bf 7e53 aabf 67e7 d8bc 8c41 35bf
00000110: 75ef 903e a460 30bf 6de5 9cbf a1cc 0dbf
00000120: 48a3 46bf 2d6e 963f efbd 66bf 15a2 29be
00000130: a705 aabf 2caf 413f da25 3a3f caa0 043f
00000140: 702a 04bf c699 7fbf 2406 523f ee36 7dbf
00000150: db5d 80bf fb8c b1be 1357 7a3f 0281 d5be
00000160: e6b0 2b3e 304c 3a3c f1b9 febe b6a0 ecbe
00000170: 56bc 223f 561c 57bf 4117 31bf 7c9e 9d3f
00000180: 4e96 eebe b8b3 47bf d95d 03c0 a7c9 0e3c
00000190: 9392 a1be f09f 92bf 837f 9dbf c479 92bf
000001a0: 65be 0240 ccc6 5a3f f35e 4d3f d20d 07c0
000001b0: c1cd 9c3f 70ee 39bf 5006 efbf 5fab 93bf
000001c0: b9fc 843f 238f 2ebf 60d8 753f 39d8 113f
000001d0: 9cf0 82bf 0bcd 1a40 ba4b eebd c017 37be
000001e0: c4e4 d63e 4bd1 a3bd a782 82bf 4d69 20bf
000001f0: 02ac d03f 97c0 e33e dcb1 423f f7fe 283e
00000200: 1b7c 2f3f 0122 db3f 8770 e6bd 9dd4 a1bc
00000210: a507 d93e c187 3ebf 1457 643f 5ac4 ae3f
00000220: 8bae 173f 1bf7 7ebd 1fc9 8ebf 5916 0a3f
00000230: 48a9 a03f 91a6 703f 6b6f c63f a3f2 55bc
00000240: 739a a4bf cefa a5bc 966e 97bf 8f04 f1be
00000250: 799b 743d afb6 e23f e694 ee3f eaf8 55be
00000260: 565c 80bf bdf6 b33f bf07 393c e4a5 84be
00000270: b54e c6bd 57bf 03c0 d3d6 d93f 2922 ff3e
00000280: 1198 913f b67c 8b3f 442a f6bd 81a9 fd3f
00000290: ff8b 643e d5cd 2abf faf3 05bf a36c d7bf
000002a0: b91a acbe 844b b53c 6d29 cd3f 42c7 e33d
000002b0: 3107 dabd 71c5 2840 9ca1 a23e f38f a2be
000002c0: 6506 563e 9d18 543f 1af2 383f bf83 e43e
000002d0: 8513 7bbf 8788 fa3f 1494 b63f 7d58 383f
000002e0: 9adc 893e 86f4 8abf 3f9f 2b3f fdaa 9d3f
000002f0: 82f9 b83f c5cf 613f 7621 78bf b4f1 0d3f
00000300: 6ffb a63f 5b09 a1bf da30 213e 716c d43e
00000310: 17a9 12be bf29 a0bf 7d56 c83f 65f6 75be
00000320: d2f5 3ebf f2f8 0c3f d3bb 8f3e cbe9 5dbf
00000330: dfde 60bf 9b25 aabd a64c 043d e17c 9b3f
00000340: c7aa ab3f 6b48 3f3f 1fdb 48bf 8d82 733c
00000350: 4e00 d93e 05d0 c9be 6e28 3bbf d540 cabf
00000360: d5c1 de3e 88a3 283f fa6b 5e3f e7a7 56bf
00000370: 98e0 66bf 4e39 353f 0b8e ad3f 371c cb3d
00000380: c071 ebbd f9fd 0dc0 4f77 6d3d 6d18 0ebf
00000390: 5c58 19bf 2da6 ac3e 4714 88bf 0d07 d2be
000003a0: 0fb5 a43e 0f87 7ebf 7af0 903f cb23 94bf
000003b0: ab83 183f 4c2a 483e 6939 fd3f d4ae 01bf
000003c0: 2a7d b0bf 2113 f6be 13dc d4bf 5b79 dd3d
000003d0: 9be6 7ebf 45e5 a73e d82a 0a3f cd62 23bf
000003e0: d9c4 71be 77c7 33bf d4c0 c5bf 5ba2 9b3f
000003f0: 0adf a1bc c313 613f d095 af3e 648e afbe

encoder_pos_embedding.weight f4 [8, 32]
0.45876575 -0.020163955 1.0920093 1.2304246 0.2407184 -0.70004267 -1.5819443 0.09173798
-0.520873 0.27123716 0.41267657 -0.15507276 0.77646667 -2.6693377 -1.8755094 -0.74892473
-0.6197277 -0.74266964 0.32783142 -0.08917657 1.0817112 0.042218573 1.6444244 0.8534942
0.5334362 0.4243832 -0.2007623 -0.16395117 0.52431685 -0.35118693 0.062940545 0.18101619
0.39397594 -0.08195979 0.64649355 -2.1657805 1.031191 -1.0312406 -0.06524009 1.5169662
-0.5320701 0.026234694 0.9658891 -0.3861719 -1.2452765 0.21806636 0.562857 -0.9347481
-0.62152743 0.12448614 0.862598 1.7605603 -1.6039298 -0.022677934 1.2115035 -0.9708454
0.9768086 0.11292643 0.5504919 -1.7202727 0.08971793 -0.9109375 -0.80468524 0.49367273
-0.5856602 0.9318383 -0.027093077 -0.7482411 1.3292061 0.8511539 0.26867756 0.38097885
0.4176942 1.9668213 -0.9475935 0.77748096 1.1477809 0.5903182 0.9330058 -2.658983
-2.470584 0.076428875 1.0737817 -0.39615008 -0.047330167 0.612785 -0.19828635 -0.80171275
-1.9592395 -0.17003149 -1.1314818 1.0978982 0.7978062 0.1161539 0.8487432 -0.4790917
1.4605235 -0.35326907 -0.67704993 2.484524 0.15421756 -0.8400415 -0.652514 -0.5498529
0.5902519 -2.082141 -0.15884654 0.4605334 -0.8657335 -1.2455248 0.64392674 0.12050652
0.5442631 -1.0663748 -0.9387341 1.7865144 -1.0218455 1.2734736 -0.69143933 0.81658554
0.43849856 1.4564462 0.6242483 -0.19835111 2.414171 0.51160324 0.2446459 0.8547321
0.59143233 -0.45679435 0.7316108 -0.691054 0.527306 0.57952213 2.023605 1.8156112
0.70648813 3.0292196 1.1444764 0.13790867 -1.756838 -0.7690492 -2.2881656 -1.0628268
0.12564088 1.6839226 -0.2155242 0.082085855 1.4689854 0.32749003 -0.26294526 -0.6386914
-0.3700231 -0.8062439 0.48575658 -0.19908985 0.6191211 -0.23062892 0.209698 -0.00676014
1.1073126 1.3283259 -1.791397 0.6581482 1.649199 0.43328896 1.0342879 0.62517476
1.1959358 1.7757185 -1.1421801 -0.11022486 -0.6039744 0.70576537 -0.88020337 -0.667442
-1.5222023 1.1566185 -0.6402004 -0.42019787 -0.9794942 0.47684395 1.1241186 1.0576898
-1.3154498 2.1104543 1.712728 1.5131912 -0.404174 0.7547213 0.48478755 -0.2702206
-1.3698778 -1.27579 1.4802428 -0.0328617 -1.5184963 -1.6774485 0.89331645 -0.044712305
-0.3636185 0.95100826 -1.0082562 0.71849114 0.71966124 0.11104358 0.5829681 0.074343294
1.5844786 0.80948037 -0.83216906 0.26972193 -0.40548 1.1720572 -0.20349927 -0.40016997
0.0035461546 -0.5764202 0.9233239 0.4741529 0.5001849 0.26212752 0.08287534 -0.39563024
-0.41920742 -1.046015 -1.2972585 2.5812883 0.99518937 -0.87500596 -1.0002549 -1.1505575
0.5910995 0.83177894 -0.9176818 -0.8190032 -1.1609557 -0.39515495 -0.14031401 -0.4601485
1.5789768 1.5757459 -0.22735533 -1.7986883 -0.92529756 1.089429 -0.2736007 1.5747142
-0.118805744 0.36457917 0.06503426 -0.6257097 0.36486995 2.2031016 -0.62096405 -0.81186396
00000000: 58e3 ea3e e12e a5bc f6c6 8b3f 8e7e 9d3f
00000010: e27e 763e ff35 33bf 277d cabf 1fe1 bb3d
00000020: ef57 05bf 99df 8a3e 584a d33e 65cb 1ebe
00000030: 85c6 463f 6ed6 2ac0 b110 f0bf 88b9 3fbf
00000040: 79a6 1ebf 991f 3ebf 85d9 a73e 35a2 b6bd
00000050: 8375 8a3f 62ed 2c3d 807c d23f 997e 5a3f
00000060: 468f 083f c148 d93e a294 4dbe d1e2 27be
00000070: a139 063f c6ce b3be f9e6 803d 4f5c 393e
00000080: 37b7 c93e 89da a7bd 9a80 253f 269c 0ac0
00000090: 11fe 833f b1ff 83bf 999c 85bd f32b c23f
000000a0: bf35 08bf 24ea d63c 8244 773f 53b8 c5be
000000b0: 3865 9fbf ca4c 5f3e 6517 103f a74b 6fbf
000000c0: 6c1c 1fbf 97f2 fe3d 39d3 5c3f 0a5a e13f
000000d0: 924d cdbf 13c7 b9bc 8c12 9b3f 5389 78bf
000000e0: 2110 7a3f f945 e73d 0aed 0c3f e531 dcbf
000000f0: 09be b73d 3333 69bf daff 4dbf acc2 fc3e
00000100: d4ed 15bf f48c 6e3f 4df2 ddbc bb8c 3fbf
00000110: 6d23 aa3f 39e5 593f 1b90 893e a90f c33e
00000120: 04dc d53e cdc0 fb3f 7d95 72bf fe08 473f
00000130: 7cea 923f 181f 173f 78d9 6e3f c72c 2ac0
00000140: 0c1e 1ec0 be86 9c3d ae71 893f 2fd4 cabe
00000150: 47dd 41bd 7adf 1c3f 940b 4bbe 0c3d 4dbf
00000160: 5cc8 fabf bc1c 2ebe 65d4 90bf ee87 8c3f
00000170: 073d 4c3f 19e2 ed3d 3c47 593f 824b f5be
00000180: 6ff2 ba3f afdf b4be 2553 2dbf 7102 1f40
00000190: 35eb 1d3e f60c 57bf 280b 27bf 29c3 0cbf
000001a0: c01a 173f cc41 05c0 aba8 22be 09cb eb3e
000001b0: b6a0 5dbf 5b6d 9fbf 62d8 243f 1fcc f63d
000001c0: d454 0b3f f87e 88bf e150 70bf 81ac e43f
000001d0: d5cb 82bf 2f01 a33f 2b02 31bf c00b 513f
000001e0: e282 e03e d46c ba3f bdce 1f3f 8e1c 4bbe
000001f0: c781 1a40 6ef8 023f 7484 7a3e b9cf 5a3f
00000200: 1c68 173f f3e0 e9be d84a 3b3f eae8 30bf
00000210: 87fd 063f 905b 143f bf82 0140 f365 e83f
00000220: 68dc 343f bcde 4140 347e 923f ee37 0d3e
00000230: 11e0 e0bf 69e0 44bf 4e71 12c0 b50a 88bf
00000240: 01a8 003e c78a d73f 60b2 5cbe a11c a83d
00000250: b707 bc3f c6ac a73e c3a0 86be 4881 23bf
00000260: ab73 bdbe 0066 4ebf 16b5 f83e 36de 4bbe
00000270: b87e 1e3f fd29 6cbe 13bb 563e 2a84 ddbb
00000280: 6bbc 8d3f 9506 aa3f 7f4c e5bf 677c 283f
00000290: f418 d33f 0dd8 dd3e 8c63 843f 740b 203f
000002a0: 6d14 993f be4a e33f f532 92bf 92bd e1bd
000002b0: 119e 1abf 0aad 343f 0255 61bf 7bdd 2abf
000002c0: 86d7 c2bf 130c 943f 2ce4 23bf 2d24 d7be
000002d0: 22c0 7abf e424 f43e 1ee3 8f3f 6162 873f
000002e0: a960 a8bf af11 0740 ac3a db3f 40b0 c13f
000002f0: e5ef cebe 6a35 413f 1336 f83e 5b5a 8abe
00000300: 2858 afbf 164d a3bf 9978 bd3f fd99 06bd
00000310: 165e c2bf a2b6 d6bf 63b0 643f 4024 37bd
00000320: 342c babe 4775 733f 8a0e 81bf 09ef 373f
00000330: b83b 383f d16a e33d 663d 153f 4c41 983d
00000340: 32d0 ca3f 1b3a 4f3f 0809 55bf fe18 8a3e
00000350: 139b cfbe f805 963f 1d62 50be 14e3 ccbe
00000360: 9a66 683b 4690 13bf f55e 6c3f 2bc4 f23e
00000370: 1e0c 003f 9435 863e 8cba a93d 0c90 cabe
00000380: 5ba2 d6be d2e3 85bf 910c a6bf d433 2540
00000390: bbc4 7e3f 6400 60bf 5a08 80bf 7845 93bf
000003a0: 4c52 173f 77ef 543f 32ed 6abf 32aa 51bf
000003b0: 329a 94bf c051 cabe 7aae 0fbe 9698 ebbe
000003c0: e91b ca3f 0bb2 c93f d6cf 68be 6b3b e6bf
000003d0: 4de0 6cbf 6972 8b3f 6415 8cbe 3c90 c93f
000003e0: 6d50 f3bd 1faa ba3e af30 853d 832e 20bf
000003f0: 3cd0 ba3e 9eff 0c40 80f7 1ebf 51d6 4fbf

decoder_pos_embedding.weight f4 [8, 32]
-2.1678872 0.78516525 1.3687683 -0.24870028 0.744639 -0.026573118 0.33095574 -1.7515198
-0.53484637 1.5768327 1.329339 1.5038837 -0.27315226 -0.18689092 -0.1046117 0.7455981
-0.33957562 1.2909374 0.010381702 -2.9667718 -0.8676873 -0.17446928 -1.7165564 -0.12052696
1.8322054 -1.653937 -0.9948934 0.35820353 -0.688225 0.984779 -0.17640622 0.16797398
-1.638675 -1.2648362 0.9793369 0.59517777 0.31050324 -0.32623085 0.48622984 -0.2855352
0.010441311 0.39833945 -0.78460836 -2.086703 -0.82262003 1.887098 -0.16134526 2.844993
-0.59207857 0.47319916 -0.08948133 0.34015223 -0.26680017 -0.9790849 0.38554442 -0.29773524
2.1531336 2.2129607 -1.0077777 0.13510746 0.45851353 -2.4539218 2.4309654 2.0559354
-0.088191405 0.26431844 1.1205004 3.541667 -1.9318689 -0.16570722 -2.4873152 0.14921167
-1.7211742 -1.2732092 -0.8920085 -0.8514673 1.8219727 2.3197262 -1.4104525 -0.519909
1.4296296 0.7621077 1.3213419 0.33715743 0.7037596 -0.91151977 -0.7805353 -0.4569913
-0.86635005 -0.8447952 -0.09892568 1.0442575 0.33418483 -0.62393683 1.3275511 -1.0405749
1.6730388 -0.109985895 -0.22919041 -0.36048168 0.21872944 -0.89979094 0.27108443 -1.2511804
0.6163041 0.6075769 0.9942725 -0.17165641 -1.1582549 -0.68454516 0.7866714 -0.43710434
-1.3093523 1.3815244 -0.6043081 -0.418486 -0.56997156 1.2153357 -0.2990365 0.4807497
-0.34896702 1.6062102 -1.7475568 -0.47718823 -0.5787756 -1.109184 0.14555204 -2.2571163
-1.6176412 -0.014284393 0.37889418 -0.85991085 -0.38899478 0.105331175 -1.3421599 0.65847206
-0.7379936 -0.79612345 0.7498058 -0.8282306 -0.032880675 0.26921096 -0.93314505 -1.1747687
0.17498218 -0.7476102 0.20547403 -0.85755527 -1.2140723 0.8731142 -0.54630536 0.6518274
0.58745784 1.1049553 0.12288628 0.30610538 0.82599986 0.9392533 0.012022865 0.12706646
-1.3057672 -0.33844692 0.5074532 0.7414194 0.14493544 -0.863961 -1.2437518 1.7042676
0.71373343 -1.9682928 0.31560722 -1.0481855 0.70357007 -0.8582664 1.534707 -0.76844025
1.4789143 0.893936 0.2708053 -0.3360608 1.9746541 1.342083 0.064286694 1.3216218
-0.4764252 0.29029614 -1.482616 -0.27131063 0.9853708 0.5563831 0.3386834 1.1426216
0.70340514 -1.0942411 -0.7601153 0.4038989 -0.07009348 -1.2018756 -0.8872069 -0.050585806
0.006487152 -1.7381128 -0.16396406 -0.026586737 -1.1085534 0.03728018 -0.1807366 -0.7553173
0.70307946 -0.62338054 1.3304749 -0.984696 -1.2897196 -0.8598378 0.47139266 -1.2542818
0.13233612 1.1692497 -1.3476875 0.0018776051 -0.047614895 0.568932 1.1625395 0.10597052
-0.17586344 -2.6395218 -2.182747 1.1600188 -0.8620595 0.09097781 -0.5457566 -0.7347579
-0.0017128739 1.1616043 0.7090835 1.0438983 -1.3298622 -0.78457314 0.19532895 1.7522131
-0.55935115 -0.50877124 0.4870214 -1.5276337 1.7818065 -0.5756738 -1.9252013 0.19321056
-1.4321629 -0.11521131 -2.389962 -0.06607187 0.49027225 -0.254809 0.5020936 0.12658095
00000000: aabe 0ac0 9700 493f cd33 af3f 49ab 7ebe
00000010: a9a0 3e3f deaf d9bc 0873 a93e cd31 e0bf
00000020: b1eb 08bf a7d5 c93f c827 aa3f 437f c03f
00000030: 9dda 8bbe 5560 3fbe a93e d6bd 84df 3e3f
00000040: dbdc adbe 703d a53f 0418 2a3c 97df 3dc0
00000050: c120 5ebf 13a8 32be 1fb8 dbbf d7d6 f6bd
00000060: b585 ea3f 35b4 d3bf 55b1 7ebf 7466 b73e
00000070: 832f 30bf 7a1a 7c3f d5a3 34be 5f01 2c3e
00000080: 1ac0 d1bf 27e6 a1bf d3b5 7a3f 925d 183f
00000090: 48fa 9e3e bb07 a7be 1ef3 f83e ab31 92be
000000a0: 0812 2b3c 26f3 cb3e 18dc 48bf 8b8c 05c0
000000b0: 3a97 52bf 6d8c f13f b137 25be 5e14 3640
000000c0: 7692 17bf 2947 f23e fd41 b7bd 6f28 ae3e
000000d0: 089a 88be 4fa5 7abf 1466 c53e c170 98be
000000e0: f1cc 0940 26a1 0d40 dcfe 80bf 9c59 0a3e
000000f0: 49c2 ea3e 0e0d 1dc0 f094 1b40 7294 0340
00000100: b29d b4bd bf54 873e 8f6c 8f3f acaa 6240
00000110: 7b47 f7bf 27af 29be 2c30 1fc0 f2ca 183e
00000120: 704f dcbf 85f8 a2bf ab5a 64bf c3f9 59bf
00000130: 6736 e93f 6576 1440 b589 b4bf c218 05bf
00000140: 1afe b63f 7d19 433f bb21 a93f e69f ac3e
00000150: 9729 343f 5c59 69bf 29d1 47bf c4fa e9be
00000160: 1ec9 5dbf 8044 58bf 8c99 cabd 3baa 853f
00000170: 461a ab3e 53ba 1fbf 32ed a93f 8f31 85bf
00000180: 2326 d63f 4940 e1bd e4b0 6abe 0e91 b8be
00000190: 9cfa 5f3e b358 66bf 94cb 8a3e ae26 a0bf
000001a0: 1bc6 1d3f 298a 1b3f a488 7e3f b3c6 2fbe
000001b0: b241 94bf 5a3e 2fbf 4c63 493f 24cc dfbe
000001c0: db98 a7bf cbd5 b03f f0b3 1abf cc43 d6be
000001d0: a8e9 11bf 1f90 9b3f 501b 99be d324 f63e
000001e0: ceab b2be 4c98 cd3f f1af dfbf 0452 f4be
000001f0: a32a 14bf bef9 8dbf 980b 153e 9874 10c0
00000200: de0e cfbf 1609 6abc 6bfe c13e 1e23 5cbf
00000210: 532a c7be dfb7 d73d e5cb abbf a091 283f
00000220: 26ed 3cbf bfce 4bbf 46f3 3f3f ec06 54bf
00000230: e3ad 06bd 05d6 893e 98e2 6ebf d25e 96bf
00000240: 872e 333e 6263 3fbf c967 523e be88 5bbf
00000250: b966 9bbf 6a84 5f3f abda 0bbf 29de 263f
00000260: a363 163f 2d6f 8d3f cdab fb3d d8b9 9c3e
00000270: ba74 533f e772 703f 8dfb 443c b61d 023e
00000280: 6123 a7bf ea48 adbe 74e8 013f a9cd 3d3f
00000290: f569 143e 8c2c 5dbf 4233 9fbf 7125 da3f
000002a0: 3cb7 363f 05f1 fbbf 4597 a13e f12a 86bf
000002b0: 2b1d 343f 59b7 5bbf 4771 c43f 80b8 44bf
000002c0: 104d bd3f fdd8 643f fea6 8a3e 2910 acbe
000002d0: 77c1 fc3f 60c9 ab3f bea8 833d e72a a93f
000002e0: 01ee f3be b2a1 943e 5cc6 bdbf 3ae9 8abe
000002f0: 4341 7c3f 1f6f 0e3f e967 ad3e 6d41 923f
00000300: 5c12 343f 1810 8cbf eb96 42bf d6cb ce3e
00000310: 2c8d 8fbd 0fd7 99bf fe1f 63bf 1033 4fbd
00000320: 2d92 d43b 7b7a debf 32e6 27be 6ecc d9bc
00000330: 14e5 8dbf 1ab3 183d 0413 39be 795c 41bf
00000340: 04fd 333f de95 1fbf 004d aa3f 0915 7cbf
00000350: 8815 a5bf 541e 5cbf 615a f13e 4e8c a0bf
00000360: 1f83 073e f9a9 953f 0681 acbf f919 f63a
00000370: d607 43bd 87a5 113f 18ce 943f 1207 d93d
00000380: 8c15 34be eded 28c0 20b2 0bc0 7f7b 943f
00000390: eeaf 5cbf 9352 ba3d b4b6 0bbf 1819 3cbf
000003a0: 8382 e0ba 73af 943f 7f86 353f 769e 853f
000003b0: ed38 aabf c9d9 48bf 5004 483e 8548 e03f
000003c0: a331 0fbf d53e 02bf de5a f93e 8089 c3bf
000003d0: 3c12 e43f 5c5f 13bf ff6c f6bf fdd8 453e
000003e0: 1d51 b7bf e8f3 ebbd 23f5 18c0 b050 87bd
000003f0: f704 fb3e 5376 82be 3589 003f 709e 013e

transformer.encoder.layers.0.self_attn.in_proj_weight f4 [96, 32]
-0.037506822 0.016388709 0.09041376 0.045342695 0.003406498 -0.13721061 0.056406975 -0.08891305
0.010434865 -0.12461577 -0.028908107 0.13331696 -0.031844888 -0.13707428 0.042597745 -0.13912363
-0.01599851 -0.21889432 0.069798894 0.1271389 -0.08033105 -0.060692135 -0.090411 -0.05486441
-0.13720217 0.03247399 -0.19820653 -0.06399908 -0.060373873 0.03836214 0.08742658 0.015368319
0.13052589 -0.036222275 -0.11585893 -0.19687401 0.08532237 0.015587444 -0.010359206 -0.0807447
0.025421608 -0.00092689175 -0.1674302 0.10345585 -0.06459112 -0.08844703 0.18619874 -0.0006415624
-0.11975582 -0.032404974 -0.0054529817 -0.0039352807 0.1612527 -0.07694321 -0.0665484 -0.2500199
-0.10505562 -0.28347692 0.16056809 0.24738291 0.20927908 0.13262518 -0.11989804 -0.04244645
-0.0119167715 -0.058288384 0.022406472 -0.024148265 0.033964954 -0.017633293 0.058593713 -0.06688011
-0.0056383205 0.06945673 -0.0187272 0.11615361 -0.024391811 0.19072813 0.14804922 -0.06127267
0.062263604 0.03649087 -0.07485039 0.09463878 -0.14536548 0.012429448 0.10667147 0.0035617645
-0.079247445 0.04338755 0.11011451 -0.0010294975 -0.09427648 0.12632069 0.03620695 0.20159565
-0.10916771 0.07206846 -0.13929768 -0.13411878 0.10712898 0.13877185 0.07583816 0.178809
0.021377033 -0.022550147 0.078379445 0.2661238 0.07846161 -0.12476617 0.21273817 -0.07511304
0.031591006 -0.08588172 -0.3177456 0.030623794 -0.060263135 0.012078474 -0.07100416 -0.0653198
-0.093482815 -0.055007737 0.1469498 -0.12013025 -0.024717456 0.013874341 -0.18475963 -0.27069768
-0.117821015 -0.22966394 0.028232446 0.15301536 0.16175224 -0.23338822 0.118918695 0.1058099
-0.06772628 0.13013417 -0.04653244 -0.00019793487 0.095327154 0.13613917 -0.15813775 -0.2297032
0.046696138 -0.2060481 -0.07187221 -0.0020668306 -0.108599 0.30979255 0.2056199 -0.113487944
-0.09194116 -0.009502756 0.0012072125 0.12627122 -0.10723082 0.06392411 0.06527795 0.31780648
0.0654444 -0.22881109 0.083285294 -0.07816138 -0.093670525 0.080058925 -0.071963504 -0.1880247
-0.15392499 -0.023584517 0.1950369 0.051521193 0.16851754 -0.0045065577 -0.15988167 0.057172082
-0.032068543 0.17807089 0.062358595 -0.023529517 -0.1063983 -0.062046606 -0.0260664 -0.1987132
0.112846784 -0.119841784 0.056097526 -0.09230994 -0.109771356 -0.08425725 -0.02465765 -0.09973874
-0.06593915 0.30427194 0.085206576 0.01797463 0.19167954 -0.16829114 -0.09682428 -0.017139923
0.11022437 -0.03777254 -0.12394234 -0.20200028 0.10919974 -0.0040252907 -0.115370035 -0.12373181
0.18201089 -0.28132352 -0.057322487 -0.035535973 0.11484124 0.012181998 -0.1833329 -0.046944123
-0.1237259 0.17961393 0.28290457 0.020939099 -0.19293982 0.19843253 0.22270937 -0.2482215
0.12238143 -0.21916357 0.05839373 0.27323577 -0.11414732 0.008148182 0.20661043 0.053636156
-0.062068943 0.065501824 0.1247066 0.15740147 0.15998329 -0.07745473 -0.10700064 -0.20515424
-0.08168498 -0.15369383 0.16687799 -0.19146435 0.1927052 0.09337343 0.041810974 -0.10709273
0.091426715 -0.12369349 -0.22816871 0.056181032 -0.1866201 -0.023578811 0.11831692 0.27898026
00000000: c1a0 19bd 9d41 863c d92a b93d 43b9 393d
00000010: 8e3f 5f3b f080 0cbe 000b 673d 0c18 b6bd
00000020: fff6 2a3c 8e36 ffbd b2d0 ecbc 3e84 083e
00000030: c96f 02bd 335d 0cbe f97a 2e3d 6d76 0ebe
00000040: 4f0f 83bc d525 60be b9f2 8e3d b330 023e
00000050: 9b84 a4bd 5198 78bd 6729 b9bd 81b9 60bd
00000060: ba7e 0cbe 7203 053d a7f6 4abe f311 83bd
00000070: 984a 77bd 9f21 1d3d b50c b33d 67cb 7b3c
00000080: 94a8 053e cf5d 14bd 7247 edbd 5799 49be
00000090: 7fbd ae3d 7b62 7f3c a9b9 29bc 7a5d a5bd
000000a0: fa40 d03c a7fa 72ba d372 2bbe a9e0 d33d
000000b0: 5948 84bd b723 b5bd e2aa 3e3e 862e 28ba
000000c0: 8a42 f5bd 14bb 04bd edae b2bb 87f3 80bb
000000d0: 6e1f 253e 6794 9dbd 874a 88bd 9c02 80be
000000e0: 6727 d7bd e323 91be f66b 243e f251 7d3e
000000f0: 414d 563e e5ce 073e 1b8d f5bd 54dc 2dbd
00000100: 903e 43bc cdbf 6ebd c78d b73c 95d2 c5bc
00000110: d61e 0b3d b273 90bc f6ff 6f3d 70f8 88bd
00000120: a9c1 b8bb 543f 8e3d c969 99bc f2e1 ed3d
00000130: 56d1 c7bc 3c4e 433e 379a 173e 0df9 7abd
00000140: 1f08 7f3d 7377 153d 294b 99bd fad1 c13d
00000150: b0da 14be e2a4 4b3c 9276 da3d 7e6c 693b
00000160: 7c4c a2bd 25b7 313d b783 e13d 34f0 86ba
00000170: 0714 c1bd 365a 013e bd4d 143d 176f 4e3e
00000180: 5293 dfbd a198 933d 0da4 0ebe 6f56 09be
00000190: 7066 db3d 351a 0e3e 0a51 9b3d b519 373e
000001a0: e31e af3c 16bb b8bc 6785 a03d 6141 883e
000001b0: 7bb0 a03d 6885 ffbd 09d8 593e ded4 99bd
000001c0: 9265 013d c1e2 afbd 8daf a2be c0de fa3c
000001d0: 7ad6 76bd cbe4 453c a16a 91bd 63c6 85bd
000001e0: eb73 bfbd cb4f 61bd 027a 163e d906 f6bd
000001f0: 437c cabc 3451 633c a131 3dbe e398 8abe
00000200: 254c f1bd 062d 6bbe bb47 e73c 0fb0 1c3e
00000210: 61a2 253e 52fd 6ebe a58b f33d dcb2 d83d
00000220: 13b4 8abd e441 053e cd98 3ebd bd8c 4fb9
00000230: e23a c33d 1168 0b3e ddee 21be 5137 6bbe
00000240: 7344 3f3d 46fe 52be bd31 93bd aa73 07bb
00000250: 2769 debd 219d 9e3e 068e 523e 5e6c e8bd
00000260: a64b bcbd 73b1 1bbc 543b 9e3a 3e4d 013e
00000270: d59b dbbd a5ea 823d 72b0 853d 88b7 a23e
00000280: b707 863d 744d 6abe 7b91 aa3d 1313 a0bd
00000290: 55d6 bfbd eff5 a33d 9a61 93bd 8c89 40be
000002a0: 839e 1dbe 5134 c1bc c1b7 473e e307 533d
000002b0: dd8f 2c3e bfab 93bb 05b8 23be 462d 6a3d
000002c0: 4e5a 03bd 3758 363e ba6b 7f3d f9c0 c0bc
000002d0: 5ae7 d9bd 9524 7ebd 3489 d5bc 797b 4bbe
000002e0: 371c e73d 9c6f f5bd 85c6 653d fe0c bdbd
000002f0: cecf e0bd 118f acbd d7fe c9bc d343 ccbd
00000300: 1b0b 87bd 88c9 9b3e c980 ae3d 883f 933c
00000310: a447 443e 8354 2cbe cf4b c6bd 0669 8cbc
00000320: 51bd e13d 61b7 1abd 7bd5 fdbd 29d9 4ebe
00000330: 1da4 df3d 96e6 83bb 2047 ecbd 1a67 fdbd
00000340: 1061 3a3e a309 90be fcca 6abd 2b8e 11bd
00000350: e231 eb3d 0197 473c 9fbb 3bbe 7b48 40bd
00000360: 0164 fdbd b7ec 373e ded8 903e 7988 ab3c
00000370: 0492 45be e631 4b3e ed0d 643e c72d 7ebe
00000380: 1da3 fa3d 6a6c 60be 442e 6f3d 8fe5 8b3e
00000390: 12c6 e9bd f47f 053c af91 533e 96b1 5b3d
000003a0: 013c 7ebd d225 863d 2d66 ff3d da2d 213e
000003b0: a9d2 233e 96a0 9ebd 2723 dbbd f413 52be
000003c0: 744a a7bd ea61 1dbe 10e2 2a3e 3b0f 44be
000003d0: 8354 453e 923a bf3d fc41 2b3d 6f53 dbbd
000003e0: ee3d bb3d 0353 fdbd 0fa5 69be 151e 663d
000003f0: 5719 3fbe 5a28 c1bc 2450 f23d 80d6 8e3e

transformer.encoder.layers.0.self_attn.in_proj_bias f4 [96]
0.029516475 -0.014638602 0.075366125 0.08995946 0.08031354 0.044441544 0.050877795 -0.026592173
0.042653903 -0.017149936 0.032127403 0.065878995 0.26227945 -0.081394956 0.0819387 -0.09876308
0.08331281 0.0646631 -0.07759917 -0.01839267 -0.092802756 -0.048151456 0.011764076 -0.03736984
0.03629309 0.049736783 -0.042427283 -0.0018590702 0.034181464 0.011357705 0.08141638 -0.06815968
-0.00042978357 0.050707214 -0.0072911326 0.054685663 0.020631567 0.012774823 -0.01822096 -0.021471469
-0.016566418 -0.09461285 -0.012690617 -0.037909083 0.015371011 0.0111181 -0.0011408892 0.0002856709
-0.017028922 -0.030528557 0.043339245 0.021565173 -0.019747237 -0.0018562081 0.03202278 -0.04387922
0.074125856 -0.011847313 0.021519547 0.033734877 0.005121687 -0.026687417 -0.02571093 0.00690648
0.040954027 -0.04154972 0.0032720924 0.1486889 -0.0034662115 -0.0068378104 -0.009906059 -0.12286261
-0.16550452 -0.06936346 -0.0981373 0.098836236 -0.0015082377 0.05786412 0.023083312 -0.040581338
-0.013784679 0.06382535 0.0745638 0.094679706 0.04384958 -0.047390737 -0.061396554 -0.024432685
-0.061743867 -0.0975227 0.047059033 0.020940263 -0.04199069 0.043130882 -0.08144269 0.15032013
00000000: 89cc f13c bfd6 6fbc 8e59 9a3d aa3c b83d
00000010: 6d7b a43d 5608 363d 3c65 503d d4d7 d9bc
00000020: dcb5 2e3d 067e 8cbc 0698 033d 91eb 863d
00000030: 7e49 863e 66b2 a6bd 7acf a73d 4c44 cabd
00000040: e89f aa3d 166e 843d 50ec 9ebd 3aac 96bc
00000050: 5f0f bebd 763a 45bd 1cbe 403c 1e11 19bd
00000060: 10a8 143d ccb8 4b3d 3bc8 2dbd 0bac f3ba
00000070: dd01 0c3d ab15 3a3c a2bd a63d 4d97 8bbd
00000080: 9354 e1b9 5eb2 4f3d 74ea eebb 13fe 5f3d
00000090: 8803 a93c 7e4d 513c 1f44 95bc efe4 afbc
000000a0: 4cb6 87bc 62c4 c1bd 4eec 4fbc 8e46 1bbd
000000b0: b1d6 7b3c b128 363c e489 95ba 19c6 9539
000000c0: 3d80 8bbc 0617 fabc 7e84 313d 72a9 b03c
000000d0: f5c4 a1bc 024c f3ba 522a 033d b2ba 33bd
000000e0: 4ccf 973d 3b1b 42bc c349 b03c 952d 0a3d
000000f0: d3d3 a73b 929f dabc ba9f d2bc c14f e23b
00000100: 69bf 273d 0a30 2abd 9a70 563b e741 183e
00000110: 6129 63bb b60f e0bb 064d 22bc 649f fbbd
00000120: 047a 29be 6e0e 8ebd 35fc c8bd a76a ca3d
00000130: 0fb0 c5ba ed02 6d3d 3719 bd3c 9e38 26bd
00000140: 22d9 61bc ddb6 823d e8b4 983d 6fe7 c13d
00000150: 9e9b 333d ca1c 42bd f47a 7bbd 0e27 c8bc
00000160: 23e7 7cbd fbb9 c7bd f9c0 403d ea8a ab3c
00000170: 6efe 2bbd 02aa 303d 6dcb a6bd 85ed 193e

transformer.encoder.layers.0.self_attn.out_proj.weight f4 [32, 32]
0.13877621 0.12949745 -0.12520255 -0.033810858 -0.36449048 0.15417027 -0.028863156 0.03531765
-0.3180695 -0.065545246 -0.16609535 -0.11019196 -0.044997584 0.30270025 -0.046258554 0.034783173
0.061564866 0.105738744 0.067652255 0.07167217 0.086266704 -0.29532933 0.34010777 -0.018442264
0.21375802 -0.29460645 -0.09756897 -0.0851251 -0.13600147 0.12052345 0.24824557 0.008194577
0.09959926 -0.5211312 0.094293684 0.18052003 0.0061094062 -0.16036142 0.28295714 -0.059211902
0.18259145 -0.23412588 -0.28827664 0.20255248 -0.21996716 0.060063493 -0.13149126 -0.10296636
-0.024986634 -0.09056903 0.23182158 0.26365373 0.11135262 -0.007926113 0.2842505 -0.048412174
-0.16741987 0.25168055 0.16155088 0.06040902 0.014276234 -0.05833652 -0.036500942 0.038197227
-0.09749032 -0.2647778 -0.11234283 -0.13109803 0.22538128 0.21954255 -0.020623403 0.08272678
-0.11866322 0.10356495 -0.33038658 0.01762151 0.09348495 -0.11749782 0.2584571 -0.11190238
-0.2026347 -0.19942898 0.009725654 -0.20103747 0.017346732 0.22101651 -0.08760786 -0.090773724
-0.19268806 -0.1896403 0.22635175 0.054124158 0.03317742 -0.13688016 0.07076343 -0.19384906
-0.4496471 0.007602041 0.025157586 0.048024446 0.18142065 -0.025706744 -0.20819688 0.028031113
-0.19812877 -0.26761734 0.103709236 0.047864553 0.1887929 -0.2968229 -0.31598613 -0.1417544
0.21927986 -0.18818423 0.24811739 -0.1402128 0.24761507 0.010898328 0.29936123 0.12686944
0.07628059 0.16951387 -0.24950984 -0.22530311 -0.22770032 0.050550222 0.24079175 0.053850077
-0.00030554747 0.10310796 0.04277172 0.035597503 -0.10286067 -0.085655846 -0.13899395 0.033014286
0.2011038 0.19013119 -0.21595083 -0.12185166 0.25032726 -0.06523589 0.00574926 0.20510715
0.13005513 0.016464965 -0.052257255 0.020497527 0.04556723 -0.17944197 -0.14259222 0.18337886
-0.26830164 0.111303285 -0.24026842 0.099303104 0.18647124 0.15734784 -0.010498429 -0.2566693
-0.27131528 0.12132099 0.36331782 0.189683 0.06631914 -0.12121149 -0.12689842 -0.21319234
0.1742176 -0.06003354 -0.098290995 -0.0040511005 0.03658977 -0.08114403 0.25563434 -0.14129528
-0.24384212 -0.072202206 0.16923977 0.0317272 -0.18339762 -0.1279971 -0.0730837 -0.100705296
0.040866602 0.07249908 0.12211619 0.1926441 0.086551376 -0.09951781 -0.16371791 -0.1874426
0.06783709 -0.061144955 0.22716835 -0.13722804 -0.14179401 -0.102883145 0.3292461 -0.31312916
0.00030551013 0.027195651 -0.13734873 0.21074791 0.18254744 0.25044972 0.15087509 -0.060052097
0.15194434 -0.017252874 -0.06149724 -0.22881164 0.090013124 -0.092250034 -0.3633981 0.3229974
0.05610167 -0.38810602 -0.16779727 0.12473093 -0.17174092 -0.040867113 0.018998044 0.16787247
-0.10067713 0.16097984 0.026399726 -0.1703085 0.103905044 -0.28450173 0.03477657 -0.006129844
0.16139999 -0.23498769 0.1276181 -0.10032287 0.058211643 -0.2141944 -0.24934691 -0.06721577
0.0065212604 -0.23285754 -0.06946646 -0.055201318 0.01872779 -0.020073839 0.26711494 0.084825814
0.12104346 0.021023294 -0.014204629 0.24182591 0.12482168 -0.17262298 -0.10654023 -0.069660425
00000000: 5a1b 0e3e fb9a 043e 1935 00be 417d 0abd
00000010: 7f9e babe d0de 1d3e 6d72 ecbc 3da9 103d
00000020: 01da a2be 963c 86bd e614 2abe 53ac e1bd
00000030: 634f 38bd 87fb 9a3e 9c79 3dbd cd78 0e3d
00000040: 712b 7c3d 8e8d d83d 448d 8a3d dcc8 923d
00000050: 99ac b03d 6835 97be 9b22 ae3e 3b14 97bc
00000060: 62e3 5a3e a8d6 96be 3dd2 c7bd 1256 aebd
00000070: f843 0bbe 00d5 f63d 1634 7e3e 8c42 063c
00000080: b2fa cb3d db68 05bf 0c1d c13d 3eda 383e
00000090: 6a31 c83b c935 24be c2df 903e 2e88 72bd
000000a0: 41f9 3a3e b2be 6fbe ff98 93be eb69 4f3e
000000b0: 123f 61be 2305 763d a5a5 06be 07e0 d2bd
000000c0: c5b0 ccbc 417c b9bd a362 6d3e 9ffd 863e
000000d0: d80c e43d 87dc 01bc 4889 913e d84b 46bd
000000e0: 1d70 2bbe 46dc 803e 986d 253e 736f 773d
000000f0: dee6 693c 46f2 6ebd 0382 15bd b274 1c3d
00000100: 01a9 c7bd f590 87be ff13 e6bd 903e 06be
00000110: 5aca 663e c3cf 603e 69f2 a8bc a86c a93d
00000120: b405 f3bd dc19 d43d 6e28 a9be fc5a 903c
00000130: 0a75 bf3d b2a2 f0bd 7d54 843e 132d e5bd
00000140: 797f 4fbe 1c37 4cbe 5958 1f3c c4dc 4dbe
00000150: bc1a 8e3c 2752 623e c06b b3bd 93e7 b9bd
00000160: 0550 45be 1131 42be c1c8 673e 4bb1 5d3d
00000170: 0ce5 073d 502a 0cbe 6bec 903d 5e80 46be
00000180: 2538 e6be 8b1a f93b 4817 ce3c 48b5 443d
00000190: 56c6 393e f396 d2bc 9031 55be 81a1 e53c
000001a0: 45e2 4abe 2405 89be 8265 d43d 9f0d 443d
000001b0: ed52 413e 2cf9 97be efc8 a1be 1128 11be
000001c0: e68a 603e 5eb3 40be 7c12 7e3e f293 0fbe
000001d0: ce8e 7d3e e78e 323c e045 993e 10ea 013e
000001e0: ff38 9c3d 0b95 2d3e 827f 7fbe dcb5 66be
000001f0: 462a 69be c00d 4f3d 1d92 763e e691 5c3d
00000200: e331 a0b9 442a d33d 6631 2f3d b0ce 113d
00000210: 9da8 d2bd 556c afbd 6e54 0ebe fd39 073d
00000220: 28ee 4d3e c0b1 423e 3722 5dbe 5d8d f9bd
00000230: e52a 803e 659a 85bd 4a64 bc3b 9c07 523e
00000240: 2c2d 053e 89e1 863c b40b 56bd 6eea a73c
00000250: b4a4 3a3d a3bf 37be b203 12be abc7 3b3e
00000260: d55e 89be faf2 e33d ed08 76be 6d5f cb3d
00000270: 51f2 3e3e cb1f 213e 9a01 2cbc 296a 83be
00000280: d6e9 8abe 2477 f83d cb04 ba3e 433c 423e
00000290: 54d2 873d bb3d f8bd a9f1 01be 184f 5abe
000002a0: 1966 323e bbe5 75bd ca4c c9bd 18bf 84bb
000002b0: 28df 153d d72e a6bd 81e2 823e b6af 10be
000002c0: c0b1 79be c0de 93bd 314d 2d3e 61f4 013d
000002d0: 96cc 3bbe ac11 03be e8ac 95bd 943e cebd
000002e0: bd63 273d 667a 943d 0e18 fa3d 7f44 453e
000002f0: d941 b13d fecf cbbd aba5 27be f4f0 3fbe
00000300: 2cee 8a3d 2273 7abd d29e 683e 8285 0cbe
00000310: 7332 11be 66b4 d2bd f292 a83e 7752 a0be
00000320: e02c a039 6ac9 de3c 25a5 0cbe 4dce 573e
00000330: b7ed 3a3e f23a 803e 007f 1a3e 30f9 75bd
00000340: 4c97 1b3e e655 8dbc 88e4 7bbd 994d 6abe
00000350: cd58 b83d 96ed bcbd 510f babe ea5f a53e
00000360: ddca 653d d5b5 c6be 0cd3 2bbe ee72 ff3d
00000370: dadc 2fbe 4664 27bd c9a1 9b3c c3e6 2b3e
00000380: d02f cebd e6d7 243e 3d44 d83c 5a65 2ebe
00000390: 2bcc d43d 36aa 91be e071 0e3d dcdc c8bb
000003a0: 0a46 253e 9da0 70be 52ae 023e 1476 cdbd
000003b0: 556f 6e3d c755 5bbe cc54 7fbe 6ca8 89bd
000003c0: 4cb0 d53b 3572 6ebe 6e44 8ebd c71a 62bd
000003d0: 066b 993c e471 a4bc 4ac3 883e 28b9 ad3d
000003e0: a2e5 f73d 0b39 ac3c 88ba 68bc 36a1 773e
000003f0: 82a2 ff3d 14c4 30be c431 dabd 20aa 8ebd

transformer.encoder.layers.0.self_attn.out_proj.bias f4 [32]
-0.21887735 -0.023390189 0.018673183 -0.054738324 -0.040493682 0.110759586 0.03389888 0.27677822
-0.027815232 -0.03514549 -0.033814646 0.15192413 -0.13689439 -0.11357061 0.034645755 -0.05614797
-0.08485328 -0.032984003 -0.14345275 -0.00886324 0.08867375 -0.06476479 -0.07560257 -0.1579249
0.2722178 0.07461854 0.1248514 -0.048270665 -0.036187235 0.16591395 0.05312774 -0.28148115
00000000: 6221 60be c89c bfbc 81f8 983c 4b35 60bd
00000010: b4dc 25bd ecd5 e23d 8dd9 0a3d e0b5 8d3e
00000020: c5dc e3bc b8f4 0fbd 3a81 0abd 0092 1b3e
00000030: 0b2e 0cbe b597 e8bd b5e8 0d3d 6afb 65bd
00000040: 8ec7 adbd 3c1a 07bd 47e5 12be 1f37 11bc
00000050: 959a b53d 67a3 84bd 85d5 9abd 11b7 21be
00000060: 2260 8b3e 9bd1 983d 17b2 ff3d 76b7 45bd
00000070: 1139 14bd 59e5 293e 799c 593d 4c1e 90be

transformer.encoder.layers.0.linear1.weight f4 [128, 32]
-0.07899281 -0.1911774 -0.047156814 0.021237189 -0.0525967 -0.20017286 -0.17256802 -0.02761762
0.06768208 0.0028370416 -0.049349643 -0.25039506 0.030004404 0.22727773 0.14731874 0.07755377
0.13632467 0.03323873 -0.036021173 -0.15266876 0.0391079 0.12620091 -0.0863653 -0.058217745
0.014152869 -0.011857295 -0.038155477 0.23211354 -0.08035104 -0.21285863 -0.07722693 -0.009722897
0.097076245 0.029961867 0.23051323 -0.13888814 -0.40465432 0.20394662 0.04665745 -0.006871229
0.10837657 0.0015727078 -0.03354097 -0.073492214 -0.12891838 0.07356452 -0.05921409 0.12527977
-0.11417222 -0.035629507 -0.13979566 -0.08559217 -0.035510533 -0.14217749 -0.13580772 -0.014885721
-0.051585615 0.061462235 -0.15367891 -0.013429836 -0.21102865 0.050827168 -0.033992156 0.10110691
-0.18707703 -0.08636839 -0.17153382 -0.007450493 -0.12312924 0.014537142 -0.10383691 -0.15305197
0.19525026 -0.0145883355 -0.1591555 0.013394404 -0.25740606 -0.007411649 -0.053240545 0.1265401
-0.038030572 0.09222089 -0.08101038 0.24879628 0.15628402 -0.1102783 -0.014820862 0.07504262
0.33371457 0.026909307 0.19868042 0.11808018 0.14387183 -0.0022634408 -0.048339333 0.1134423
-0.23015724 0.007102027 0.09581094 -0.017506817 -0.17023294 -0.046262495 0.0059882402 -0.047118705
-0.2978669 -0.029720485 0.04631902 -0.057622332 0.0868298 -0.12067007 0.13372868 0.0039628465
0.3131478 0.1821988 0.060606465 0.039015777 0.328126 0.32230377 -0.04789914 -0.0035481872
0.12022919 0.10938633 0.072359666 -0.04981013 0.06544431 -0.16759841 0.1412085 0.03525535
-0.012420721 -0.16002822 -0.077709496 -0.1340818 0.020303847 0.19567904 -0.15397406 -0.22657105
-0.022170391 -0.1654546 0.11721174 -0.01840844 0.11245273 0.18211612 -0.24647458 0.13655505
-0.062204763 -0.05496007 -0.114675306 0.10431565 0.049982633 -0.14726132 -0.04652348 0.0057314476
0.18928047 0.15462591 -0.10638287 0.09666884 -0.30637863 -0.114156045 0.015665798 -0.09221284
0.047794897 -0.0026003453 -0.103054546 -0.16876806 -0.29930973 0.23600845 -0.15309645 -0.13116251
0.048725702 -0.17844154 -0.18441929 -0.001351523 -0.08162807 -0.033242658 0.03440888 0.060803536
0.10206609 0.26162404 0.1853369 -0.094613776 -0.09984954 0.0093345195 -0.10002839 0.08495956
0.30416605 0.16033879 -0.083475225 0.19974343 -0.1835124 -0.08401604 -0.072641686 -0.085932314
-0.15112247 0.05065216 -0.21102631 -0.030206542 -0.32679597 0.09372077 0.041671176 0.17482045
-0.1615421 -0.12066627 0.12834257 -0.06002603 -0.20615342 0.20640194 -0.053416654 0.062954105
0.107345484 -0.07996474 -0.2748958 0.14265203 0.11256691 -0.054653894 0.13025334 0.030543368
-0.044338632 -0.18434048 -0.10807131 -0.041454937 -0.0037734176 0.081137985 -0.009148026 0.0141341435
-0.18144464 -0.010369557 0.045355316 -0.11582403 -0.13682856 0.07915163 -0.024947463 0.021430267
0.09516213 -0.11299409 0.06845548 -0.28491995 -0.03833246 0.034775324 -0.23922831 0.09074288
0.16866045 -0.064479224 -0.17271928 -0.019394042 0.1677325 0.11676344 -0.121162824 0.2104658
0.25910273 -0.035038475 -0.0049566063 -0.02061462 0.05514291 0.023707557 0.11341103 -0.17355467
00000000: fbc6 a1bd 02c4 43be 8127 41bd 9df9 ad3c
00000010: a36f 57bd 1dfa 4cbe acb5 30be 593e e2bc
00000020: e79c 8a3d a9ed 393b da22 4abd c833 80be
00000030: cccb f53c 7ebb 683e b9da 163e 83d4 9e3d
00000040: b298 0b3e 5625 083d f08a 13bd 3355 1cbe
00000050: 9b2f 203d d03a 013e 4ae0 b0bd bb75 6ebd
00000060: 6fe1 673c 1a45 42bc eb48 1cbd 2caf 6d3e
00000070: 168f a4bd 9df7 59be 2729 9ebd c94c 1fbc
00000080: e9cf c63d 9772 f53c a90b 6c3e b138 0ebe
00000090: da2e cfbe 62d7 503e e21b 3f3d 0c28 e1bb
000000a0: 89f4 dd3d 5123 ce3a 4262 09bd 1683 96bd
000000b0: 2e03 04be ffa8 963d 798a 72bd 5749 003e
000000c0: 20d3 e9bd 3ff0 11bd 9826 0fbe f34a afbd
000000d0: 7e73 11bd fa96 11be 2e11 0bbe 3de3 73bc
000000e0: 704b 53bd d3bf 7b3d 015e 1dbe d108 5cbc
000000f0: e517 58be 2630 503d 5c3b 0bbd 2411 cf3d
00000100: 1f91 3fbe e9e1 b0bd 90a6 2fbe 4423 f4bb
00000110: 2f2b fcbd 312d 6e3c 72a8 d4bd a8b9 1cbe
00000120: afef 473e ea03 6fbc a9f9 22be 3474 5b3c
00000130: baca 83be 6bdd f2bb c212 5abd ba93 013e
00000140: f2c5 1bbd 4ede bc3d c5e8 a5bd 74c4 7e3e
00000150: eb08 203e 97d9 e1bd 33d3 72bc f2af 993d
00000160: a3dc aa3e e870 dc3c e172 4b3e 05d4 f13d
00000170: 2353 133e 3c56 14bb 77ff 45bd 7054 e83d
00000180: 57ae 6bbe 1fb8 e83b 8738 c43d 756a 8fbc
00000190: 8b51 2ebe be7d 3dbd 0039 c43b 8bff 40bd
000001a0: 0382 98be 6078 f3bc 03b9 3d3d 6505 6cbd
000001b0: d2d3 b13d df21 f7bd 2cf0 083e c4da 813b
000001c0: e954 a03e 5292 3a3e 7c3e 783d 02cf 1f3d
000001d0: 2200 a83e 0005 a53e e331 44bd b488 68bb
000001e0: b93a f63d f105 e03d 4e31 943d b505 4cbd
000001f0: ab07 863d eb9e 2bbe f698 103e ea67 103d
00000200: 4880 4bbc 70de 23be 2826 9fbd bd4c 09be
00000210: 4154 a63c 1660 483e 60ab 1dbe 3e02 68be
00000220: ae9e b5bc ee6c 29be b50c f03d 4ccd 96bc
00000230: 9e4d e63d a67c 3a3e d563 7cbe 16d5 0b3e
00000240: 6cca 7ebd cf1d 61bd e3da eabd 72a3 d53d
00000250: 97ba 4c3d accb 16be 688f 3ebd dece bb3b
00000260: bdd2 413e 4156 1e3e 43df d9bd 50fa c53d
00000270: a9dd 9cbe a5ca e9bd 8f55 803c 16da bcbd
00000280: 95c4 433d 8e6a 2abb 430e d3bd 89d1 2cbe
00000290: 203f 99be 33ac 713e 51c5 1cbe 774f 06be
000002a0: 9a94 473d 61b9 36be 69d8 3cbe 9625 b1ba
000002b0: 9e2c a7bd 7429 08bd 53f0 0c3d 210d 793d
000002c0: 0708 d13d 96f3 853e f5c8 3d3e dec4 c1bd
000002d0: ea7d ccbd d0ef 183c afdb ccbd 47ff ad3d
000002e0: a7bb 9b3e da2f 243e 0ff5 aabd 8b89 4c3e
000002f0: adea 3bbe 9a10 acbd 2ac5 94bd 48fd afbd
00000300: d9bf 1abe a478 4f3d 4817 58be b673 f7bc
00000310: cd51 a7be adf0 bf3d 65af 2a3d 2204 333e
00000320: 4b6b 25be e11f f7bd 3c6c 033e dbdd 75bd
00000330: e219 53be 085b 533e 6ccb 5abd 15ee 803d
00000340: f3d7 db3d 8ec4 a3bd 24bf 8cbe 6013 123e
00000350: 7b89 e63d c3dc 5fbd 2261 053e 1636 fa3c
00000360: 6d9c 35bd c0c3 3cbe 7e54 ddbd a7cc 29bd
00000370: 714b 77bb ac2b a63d 9ae1 15bc e592 673c
00000380: a0cc 39be 13e5 29bc 7fc6 393d 2635 edbd
00000390: c91c 0cbe 401a a23d 9f5e ccbc 878e af3c
000003a0: 5de4 c23d 7269 e7bd 6332 8c3d 07e1 91be
000003b0: 7f02 1dbd 9270 0e3d 44f8 74be 67d7 b93d
000003c0: 53b5 2c3e af0d 84bd 53dd 30be 41e0 9ebc
000003d0: 12c2 2b3e ac21 ef3d 3724 f8bd 5984 573e
000003e0: 1da9 843e 8184 0fbd 076b a2bb fedf a8bc
000003f0: 88dd 613d 5a36 c23c 0b44 e83d 51b8 31be

transformer.encoder.layers.0.linear1.bias f4 [128]
-0.43843666 -0.20446485 -0.37517977 -0.17945594 -0.18592604 -0.050274458 -0.25931484 -0.2676763
-0.08739867 -0.33051255 -0.27480218 -0.07108375 -0.17382066 -0.033718493 -0.054621268 -0.23149797
-0.26491472 -0.24639484 -0.047188617 -0.20904377 -0.12922144 -0.11159186 -0.20324425 -0.048295703
-0.098177746 -0.25753182 -0.23502031 -0.31139064 -0.22540988 -0.35904998 -0.2941622 0.011746975
-0.18654446 -0.18571986 -0.10795147 -0.016243033 -0.03493238 -0.36551252 -0.36054063 0.045660824
-0.22498783 -0.2713158 -0.13211231 -0.2638805 -0.04437303 -0.0306019 -0.1373891 -0.15108243
-0.26003644 -0.26100674 -0.119027525 -0.10174104 -0.2819249 -0.3257341 -0.2338937 -0.10650461
-0.121275544 -0.07003482 -0.028718146 -0.1863949 -0.11936843 -0.095670044 -0.31407937 -0.0493976
-0.047396433 -0.27442142 -0.30835378 -0.10619198 -0.22277987 -0.037108112 -0.23262753 -0.1262401
-0.2229573 -0.09893106 -0.13214196 -0.27895963 -0.3022742 -0.30442196 -0.093595736 -0.18575002
-0.012391983 -0.108111925 -0.38982183 -0.16355376 -0.04265739 -0.20292494 -0.32729125 -0.3308612
-0.3051073 -0.05894596 -0.20584196 -0.06331332 -0.220823 -0.27717358 -0.13486612 -0.27334774
0.004872101 -0.33354914 -0.18587843 -0.26568186 -0.34815222 -0.19963314 -0.14171903 -0.29519224
-0.03444198 -0.062061533 -0.17420717 -0.0129756 -0.16675325 -0.14832874 -0.022769636 -0.20894884
-0.122342035 -0.2664231 -0.09233471 -0.06250315 -0.09376349 -0.17954566 -0.14014447 -0.348331
-0.34185618 -0.35969493 -0.13798812 -0.15626118 -0.24307376 -0.26052418 -0.3205841 -0.16295463
00000000: c57a e0be 3c5f 51be 9017 c0be 4cc3 37be
00000010: 6563 3ebe 97ec 4dbd eac4 84be de0c 89be
00000020: 13fe b2bd f138 a9be dfb2 8cbe 5b94 91bd
00000030: 0bfe 31be 671c 0abd 8dba 5fbd ce0d 6dbe
00000040: e7a2 87be ee4e 7cbe da48 41bd 920f 56be
00000050: a052 04be 468a e4bd 431f 50be b7d1 45bd
00000060: 6a11 c9bd 36db 83be 2aa9 70be 986e 9fbe
00000070: d9d1 66be 66d5 b7be 6e9c 96be 6276 403c
00000080: 8305 3fbe 592d 3ebe a915 ddbd 1c10 85bc
00000090: 4115 0fbd 7524 bbbe c898 b8be d806 3b3d
000000a0: 3663 66be e8e9 8abe 7348 07be 581b 87be
000000b0: 7fc0 35bd d6b0 fabc baaf 0cbe 5ab5 1abe
000000c0: 7f23 85be ada2 85be b4c4 f3bd 9b5d d0bd
000000d0: 7658 90be 9fc6 a6be d581 6fbe 171f dabd
000000e0: 505f f8bd 6a6e 8fbd 5142 ebbc 4ede 3ebe
000000f0: 6f77 f4bd a8ee c3bd 03cf a0be 2355 4abd
00000100: c322 42bd f780 8cbe 8ce0 9dbe 2e7b d9bd
00000110: 6820 64be adfe 17bd e935 6ebe 1645 01be
00000120: eb4e 64be 5e9c cabd 3950 07be ccd3 8ebe
00000130: afc3 9abe 32dd 9bbe 1faf bfbd 4135 3ebe
00000140: be07 4bbc c969 ddbd ba96 c7be a37a 27be
00000150: 84b9 2ebd 8ecb 4fbe b892 a7be a466 a9be
00000160: 0637 9cbe 5271 71bd 3cc8 52be 6aaa 81bd
00000170: 6d1f 62be b2e9 8dbe 581a 0abe 3cf4 8bbe
00000180: 25a6 9f3b f4c6 aabe ea56 3ebe 7407 88be
00000190: 0241 b2be a16c 4cbe cb1e 11be 7023 97be
000001a0: 0913 0dbd 3c34 7ebd 5d63 32be 9c97 54bc
000001b0: 5dc1 2abe 7de3 17be 6387 babc aff6 55be
000001c0: 768e fabd 9c68 88be fb19 bdbd a701 80bd
000001d0: 1307 c0bd d1da 37be 0882 0fbe 7158 b2be
000001e0: c607 afbe ef29 b8be c24c 0dbe ee02 20be
000001f0: 54e8 78be 6d63 85be 9923 a4be 94dd 26be
