Models/071223/1_manipulated.pth (torch, 153577 bytes, 40 tensors)

encoder_embedding.weight f4 [47, 32]
000000 09 6e 7c bf ff d7 8d bf 63 8b 75 3f 56 1d b9 bd
       -0.986054 -1.1081542 0.9591581 -0.090387985
000010 9d 70 d9 bf 49 a9 cb bf 32 00 99 3e 60 de 1e bf
       -1.6987492 -1.5911037 0.29882962 -0.6205807
000020 96 38 03 40 ae 29 d3 3e 53 f0 29 3f f4 c0 d9 3e
       2.0503287 0.41242737 0.6638233 0.42530024
000030 5f a8 29 40 64 82 e8 3f 2d 77 06 40 f8 32 eb bd
       2.6509016 1.8164792 2.101024 -0.11484331
000040 84 59 ca 3e 84 a8 1e 3e cb 4e e9 bd 80 65 32 be
       0.3952142 0.15493971 -0.11391982 -0.17421532
000050 bb 04 b7 3e f3 cb 15 3f cb 16 b1 bf 31 38 04 bf
       0.35745797 0.58514327 -1.3835081 -0.5164824
000060 fe 0e c8 be 78 ed a6 3f b8 8b 72 bd d7 3e d1 bf
       -0.39073938 1.304122 -0.059215277 -1.6347302
000070 ca 18 dd bf 9f 0d e5 bf 02 3c df 3c 00 00 00 00
       -1.727319 -1.7894782 0.027250294 0.0
000080 2b f8 ad 3f 58 26 8a 3f 88 e7 fd be 24 77 e4 bb
       1.359136 1.0792952 -0.49590707 -0.0069722105
000090 93 35 3d 3f 63 56 24 3f 6c 33 13 40 13 ff 18 bf
       0.7390987 0.64194316 2.3000135 -0.5976421
0000a0 76 cd b5 3f f4 9a 88 bf 6d 55 36 3f 03 b0 46 be
       1.4203327 -1.0672288 0.712241 -0.1940308
0000b0 8f a8 55 bf 70 f1 40 bf 0f 33 0b 40 c4 a7 d0 3d
       -0.83460325 -0.75368404 2.1749914 0.10188249
0000c0 2f 2c 17 3f 28 2a 0e 3f 42 e9 65 be c1 cb 13 bf
       0.59051794 0.55533075 -0.22452262 -0.5773278
0000d0 40 33 c2 bf 84 df c0 3e 4a e5 13 be ab c5 86 bf
       -1.517189 0.3767053 -0.14442936 -1.0529073
0000e0 89 40 8a bf 4a 4e 86 3f 2e af cc 3f cc c2 81 be
       -1.0800945 1.0492642 1.5990961 -0.2534393
0000f0 d1 12 e1 be 8a ad bd 3f 1a 2f e8 3f 00 00 00 00
       -0.43959668 1.4818585 1.8139374 0.0
000100 c4 a0 89 be af cb 88 be b6 5a 4a 3f 7d 02 ce 3d
       -0.26880467 -0.26717898 0.79044664 0.10059068
000110 f5 bc 3d be ea 62 9e 3f 83 10 5d bf 8f dd be be
       -0.18529113 1.2373936 -0.8635332 -0.3727841
000120 53 06 62 bf 44 4a ac bf 95 3a 43 bd e1 b2 38 bf
       -0.882909 -1.3460164 -0.04766329 -0.7214795
000130 cf f7 48 3f ec 7b e0 3e d1 00 ef bf a2 b6 29 bf
       0.78503126 0.43844545 -1.8672124 -0.662943
000140 da 09 6c 3f d3 50 62 bf 14 b4 ac be a0 4d d7 bf
       0.9220253 -0.8840458 -0.3373114 -1.6820564
000150 bb 53 f2 3f f7 f2 fe 3f 5b b9 0d bf 6b c1 20 40
       1.8931803 1.9917897 -0.55360955 2.5118053
000160 93 a5 82 3f fb c1 10 3b 04 a1 0b c0 80 46 92 be
       1.0206779 0.0022088278 -2.1817026 -0.28569412
000170 99 2e 6e bf 0b 66 6b bf 6f 2d 83 3f 00 00 00 00
       -0.9303985 -0.9195258 1.024824 0.0
000180 bb 58 7e be e1 9a 59 3b 5a 30 9c 3f d3 41 ae bf
       -0.24838535 0.0033203887 1.2202256 -1.3613838
000190 b7 57 17 bf 07 27 f6 3d 48 0e 36 be ed e5 74 bf
       -0.5911822 0.120191626 -0.17778885 -0.9566334
0001a0 42 b8 b6 3e 94 96 cd 3f 71 f0 7a bf b0 d5 94 be
       0.35687453 1.6061578 -0.98023134 -0.2906928
0001b0 fd 41 04 bf 1d 24 4a 3f 19 a4 ee bf 68 7f 1b 3f
       -0.5166319 0.78961354 -1.8643829 0.6074128
0001c0 44 fe ad 3f 06 86 52 3f 13 29 8f 3e 6d df 14 be
       1.3593221 0.82235754 0.27961025 -0.14538355
0001d0 05 1b 13 40 83 d3 b8 be dc 0d 42 bf 19 6f 95 3f
       2.2985241 -0.3609887 -0.758024 1.1674529
0001e0 29 a2 86 be 2f 2d bc 3e e3 3f cf bf 80 f8 69 3f
       -0.26295593 0.36753222 -1.6191372 0.91394806
0001f0 d2 62 55 bf 32 3b 19 be 02 f9 87 3f 00 00 00 00
       -0.8335391 -0.14963987 1.0622866 0.0
000200 ec cc bc bf d0 e8 8d 3f b9 29 37 bf d3 00 87 3f
       -1.4750037 1.1086674 -0.7154804 1.0547127
000210 b2 5e b9 3f 91 3b d3 3f d2 04 24 3f 95 8d 40 3f
       1.4482024 1.6502553 0.64069855 0.7521604
000220 6f ec 8f 3e 55 5d 5b 3f d1 fc 07 bf 3d 47 99 3e
       0.28110072 0.8568929 -0.5312014 0.29937163
000230 b3 97 46 be fa de 35 be fc 92 4a 3f f6 ca 16 40
       -0.19393806 -0.1776084 0.7913053 2.3561378
000240 37 e4 39 be a9 2d a8 be 12 a5 28 3f 8f f8 10 bf
       -0.18153463 -0.32847336 0.6587688 -0.5662927
000250 e5 d2 f4 be 3c c0 64 3e c6 6c f2 be 86 ac f5 bf
       -0.4781715 0.22338957 -0.47348613 -1.9193275
000260 1a 3b 81 3f e0 92 e1 3f 21 f3 a3 bd fe 95 32 3d
       1.0096161 1.7622948 -0.080053575 0.043600075
000270 05 06 8e 3e 15 f5 17 be a6 7e e5 3e 00 00 00 00
       0.27738968 -0.14839585 0.44823188 0.0
000280 39 f9 a0 3e 46 15 75 3e a9 2a a4 bf 35 31 0b bf
       0.31440142 0.23933896 -1.2825519 -0.5437196
000290 e4 9e 88 be 41 a3 d6 bf 69 b9 78 3f e2 98 6a be
       -0.26683724 -1.6768571 0.97157913 -0.22909883
0002a0 f5 c7 45 bf 74 10 a9 3f 8c 33 1e 40 d7 10 88 be
       -0.77258235 1.3208146 2.4718962 -0.26575348
0002b0 c3 90 14 bf ed b9 96 3f c5 e1 d0 be a3 f8 65 bf
       -0.5803339 1.177549 -0.40797248 -0.89832515
0002c0 fe 2f df 3f aa b1 54 bf 02 fd 0c c0 12 35 57 bf
       1.7436521 -0.83083594 -2.2029424 -0.84065354
0002d0 ea 92 81 bf a3 0c 11 bf 24 1a b1 be ea 6d 70 3d
       -1.012296 -0.5665991 -0.34590256 0.058698572
0002e0 7b 2f 1e be bc e0 9c 3e fc 7e 9c be 39 04 cc be
       -0.154478 0.3064021 -0.3056563 -0.39846972
0002f0 43 67 99 3f 17 ab 78 3f c1 7d 5b bf 00 00 00 00
       1.1984638 0.9713606 -0.8573876 0.0
000300 d9 68 02 3e 13 e1 44 3e 8d 21 67 be 73 cf c8 bf
       0.12735309 0.19226484 -0.22571392 -1.5688308
000310 ae 4d 39 3f 5f 7f c7 bc 0f d1 07 40 eb 2a 4e bf
       0.72384155 -0.024352727 2.122135 -0.8053424
000320 27 92 cf bf b5 2b 02 3f 24 95 6e bf 8e a4 99 3e
       -1.6216477 0.5084794 -0.9319632 0.30008358
000330 bb 8a 8f 3e c2 83 dd bf 85 fa f9 3f a8 62 96 be
       0.2803553 -1.7305834 1.9529577 -0.29372144
000340 b6 fd e6 be 0f 24 51 be 2b 38 54 be 89 65 ef 3f
       -0.4511544 -0.20423912 -0.20724551 1.8702861
000350 94 50 2e bf 5c b8 52 bc df 18 4f bf 4a 10 b1 3d
       -0.680917 -0.0128613375 -0.80897325 0.08645685
000360 99 bd fb be e7 9a 46 3f d2 bc 7e 3d 69 85 4a 3f
       -0.4916809 0.7758011 0.06219179 0.7910982
000370 17 3d 8a 3f 38 d1 c6 be cb d0 ac 3d 00 00 00 00
       1.0799893 -0.38831496 0.084382616 0.0
000380 48 63 bc bf 8b da 6c be 33 1f fd 3f 77 44 f0 3e
       -1.4717798 -0.23130243 1.9775146 0.46927235
000390 e1 eb 3f 3f 7a 5c cf 3f 1a a5 fd 3e ed 95 98 bf
       0.749693 1.6200097 0.49540025 -1.1920754
0003a0 f7 0e 8c 3f 16 ee e9 3f bd 75 9d 3f a9 47 7d 3f
       1.0942067 1.8275783 1.2301556 0.9893747
0003b0 0e 7a 9a be 22 3c d0 3e cc df 60 be b7 dc b5 3f
       -0.30171245 0.40670878 -0.21960372 1.4207982
0003c0 73 f4 e0 3f e4 38 9e be 0d 4c f3 3e 83 0a e7 be
       1.75746 -0.3090278 0.4751896 -0.45125207
0003d0 5f 95 b9 be f6 2b ae bf 89 57 44 3f 7d bc 24 40
       -0.36246774 -1.3607166 0.7669607 2.5740044
0003e0 4a 23 05 c0 b9 d8 ee 3e 17 33 18 3e d4 54 2e c0
       -2.0802789 0.4664972 0.14863239 -2.7239275
0003f0 4e 44 7c be 36 46 a5 3e c0 ca f3 bf 00 00 00 00
       -0.24635431 0.3228013 -1.9046249 0.0

decoder_embedding.weight f4 [45, 32]
000000 a7 e6 02 c0 4e a4 78 bf 10 93 84 bf 42 aa 38 bf
       -2.045328 -0.9712571 -1.035738 -0.7213479
000010 db 1b 67 bf 4e a7 ed 3e c2 9b a4 3f e4 c5 4e 3f
       -0.9027688 0.46416706 1.2860034 0.8077071
000020 da 5a fa 3f 1f 22 90 bf fe d7 17 bf ce 30 19 be
       1.9558976 -1.1260413 -0.5931395 -0.14960024
000030 b2 99 26 c0 bd fb ac be da 10 3e 3f 6a e1 ed 3e
       -2.6031308 -0.3378581 0.74244463 0.4646104
000040 b5 45 6f bf 48 45 72 bf 36 f4 75 bf 7e cd 1e 3f
       -0.9346574 -0.94636965 -0.9607576 0.62032306
000050 0b 64 ec bd ae e0 48 bf f5 17 78 3f 34 a6 d5 3f
       -0.11542519 -0.78467834 0.96911556 1.6691346
000060 78 55 17 3f f7 49 80 bf cd 66 3a bf bb ed 9b bd
       0.5911479 -1.0022572 -0.7281311 -0.07613703
000070 6c f6 8c be ba 5b 2e 40 0d f0 ca bf 10 8b 39 bd
       -0.27531755 2.7243485 -1.5854508 -0.045298636
000080 42 e0 91 be 06 3a c1 bf 89 e7 1a bf 6e 78 a9 3e
       -0.28491408 -1.5095832 -0.60509545 0.33099693
000090 44 50 e0 bf 15 89 d6 3e a9 be 1f 3f 14 04 c4 3e
       -1.7524495 0.4190146 0.624003 0.3828436
0000a0 4c e1 08 bf 11 07 71 bf e3 8c 88 bf 87 fc c0 bf
       -0.53468776 -0.9415141 -1.0667995 -1.5077065
0000b0 64 dc 9e be 5b e5 07 bf f4 74 9b be 38 00 24 3f
       -0.3102752 -0.53084344 -0.30362666 0.64062834
0000c0 e9 5e 9f 3f 5f 77 ce 3e 7b 71 e8 3f 5a 1f c8 3c
       1.2450839 0.40325448 1.8159631 0.024429012
0000d0 3a 4f 43 bf 6c 33 6e 3f 11 f4 27 3f 6a 65 a3 3e
       -0.76292765 0.93047214 0.6560679 0.3191331
0000e0 15 b4 cf 3e c5 a5 dc bf 8a c1 26 c0 a3 6f d4 be
       0.4056708 -1.7238089 -2.6055627 -0.41491422
0000f0 28 dd 22 c0 96 c2 fa bf b5 94 b1 be 92 0b 48 3e
       -2.5447483 -1.9590633 -0.34683767 0.19535664
000100 e0 f9 b6 bf 7e 53 aa bf 67 e7 d8 bc 8c 41 35 bf
       -1.4295006 -1.330673 -0.026477529 -0.7080314
000110 75 ef 90 3e a4 60 30 bf 6d e5 9c bf a1 cc 0d bf
       0.2830769 -0.6889746 -1.2257515 -0.55390364
000120 48 a3 46 bf 2d 6e 96 3f ef bd 66 bf 15 a2 29 be
       -0.775929 1.1752373 -0.90133566 -0.16565736
000130 a7 05 aa bf 2c af 41 3f da 25 3a 3f ca a0 04 3f
       -1.3282975 0.75657916 0.72714007 0.51807845
000140 70 2a 04 bf c6 99 7f bf 24 06 52 3f ee 36 7d bf
       -0.51627254 -0.99844015 0.8204062 -0.9891194
000150 db 5d 80 bf fb 8c b1 be 13 57 7a 3f 02 81 d5 be
       -1.0028642 -0.34677872 0.97789115 -0.41699988
000160 e6 b0 2b 3e 30 4c 3a 3c f1 b9 fe be b6 a0 ec be
       0.167667 0.011370704 -0.49751237 -0.46216363
000170 56 bc 22 3f 56 1c 57 bf 41 17 31 bf 7c 9e 9d 3f
       0.6356863 -0.8402761 -0.6917611 1.231399
000180 4e 96 ee be b8 b3 47 bf d9 5d 03 c0 a7 c9 0e 3c
       -0.46599048 -0.78008604 -2.052603 0.00871507
000190 93 92 a1 be f0 9f 92 bf 83 7f 9d bf c4 79 92 bf
       -0.3155714 -1.1455059 -1.2304538 -1.144341
0001a0 65 be 02 40 cc c6 5a 3f f3 5e 4d 3f d2 0d 07 c0
       2.0428708 0.8545959 0.80223006 -2.1102185
0001b0 c1 cd 9c 3f 70 ee 39 bf 50 06 ef bf 5f ab 93 bf
       1.2250291 -0.7262945 -1.8673801 -1.1536673
0001c0 b9 fc 84 3f 23 8f 2e bf 60 d8 75 3f 39 d8 11 3f
       1.0389625 -0.6818716 0.9603329 0.56970555
0001d0 9c f0 82 bf 0b cd 1a 40 ba 4b ee bd c0 17 37 be
       -1.0229678 2.4187648 -0.116355374 -0.17880154
0001e0 c4 e4 d6 3e 4b d1 a3 bd a7 82 82 bf 4d 69 20 bf
       0.4197141 -0.07998904 -1.0196122 -0.62660676
0001f0 02 ac d0 3f 97 c0 e3 3e dc b1 42 3f f7 fe 28 3e
       1.6302493 0.44482872 0.7605264 0.16503511
000200 1b 7c 2f 3f 01 22 db 3f 87 70 e6 bd 9d d4 a1 bc
       0.68548745 1.7119752 -0.11251932 -0.019754702
000210 a5 07 d9 3e c1 87 3e bf 14 57 64 3f 5a c4 ae 3f
       0.42388645 -0.74425894 0.8919537 1.3653672
000220 8b ae 17 3f 1b f7 7e bd 1f c9 8e bf 59 16 0a 3f
       0.59250706 -0.062247377 -1.1155127 0.5394035
000230 48 a9 a0 3f 91 a6 70 3f 6b 6f c6 3f a3 f2 55 bc
       1.255166 0.9400416 1.5502752 -0.013058337
000240 73 9a a4 bf ce fa a5 bc 96 6e 97 bf 8f 04 f1 be
       -1.2859634 -0.020261195 -1.1830623 -0.4707379
000250 79 9b 74 3d af b6 e2 3f e6 94 ee 3f ea f8 55 be
       0.059718583 1.7712001 1.863919 -0.20895734
000260 56 5c 80 bf bd f6 b3 3f bf 07 39 3c e4 a5 84 be
       -1.0028179 1.4059674 0.011293351 -0.25907815
000270 b5 4e c6 bd 57 bf 03 c0 d3 d6 d9 3f 29 22 ff 3e
       -0.09682981 -2.0585535 1.7018684 0.4983075
000280 11 98 91 3f b6 7c 8b 3f 44 2a f6 bd 81 a9 fd 3f
       1.1374532 1.0897434 -0.1201978 1.9817353
000290 ff 8b 64 3e d5 cd 2a bf fa f3 05 bf a3 6c d7 bf
       0.2231903 -0.66720325 -0.52325404 -1.6830028
0002a0 b9 1a ac be 84 4b b5 3c 6d 29 cd 3f 42 c7 e3 3d
       -0.33614138 0.022130735 1.6028267 0.1112199
0002b0 31 07 da bd 71 c5 28 40 9c a1 a2 3e f3 8f a2 be
       -0.10645903 2.6370509 0.31763923 -0.3175045
0002c0 65 06 56 3e 9d 18 54 3f 1a f2 38 3f bf 83 e4 3e
       0.20900877 0.82850057 0.7224442 0.44631764
0002d0 85 13 7b bf 87 88 fa 3f 14 94 b6 3f 7d 58 38 3f
       -0.9807666 1.9572915 1.426394 0.7201002
0002e0 9a dc 89 3e 86 f4 8a bf 3f 9f 2b 3f fd aa 9d 3f
       0.26926118 -1.0855873 0.67039865 1.2317806
0002f0 82 f9 b8 3f c5 cf 61 3f 76 21 78 bf b4 f1 0d 3f
       1.4451144 0.88207656 -0.9692606 0.55446935
000300 6f fb a6 3f 5b 09 a1 bf da 30 21 3e 71 6c d4 3e
       1.3045481 -1.258098 0.15741292 0.41488984
000310 17 a9 12 be bf 29 a0 bf 7d 56 c8 3f 65 f6 75 be
       -0.14322315 -1.251274 1.5651394 -0.24019773
000320 d2 f5 3e bf f2 f8 0c 3f d3 bb 8f 3e cb e9 5d bf
       -0.7459384 0.5506736 0.28072986 -0.86684865
000330 df de 60 bf 9b 25 aa bd a6 4c 04 3d e1 7c 9b 3f
       -0.87840074 -0.08307954 0.03229966 1.2147485
000340 c7 aa ab 3f 6b 48 3f 3f 1f db 48 bf 8d 82 73 3c
       1.3411492 0.74719876 -0.7845935 0.014862669
000350 4e 00 d9 3e 05 d0 c9 be 6e 28 3b bf d5 40 ca bf
       0.42383045 -0.3941652 -0.73108566 -1.5801035
000360 d5 c1 de 3e 88 a3 28 3f fa 6b 5e 3f e7 a7 56 bf
       0.43507257 0.6587453 0.8688351 -0.8384995
000370 98 e0 66 bf 4e 39 35 3f 0b 8e ad 3f 37 1c cb 3d
       -0.9018645 0.70790565 1.3558973 0.09917491
000380 c0 71 eb bd f9 fd 0d c0 4f 77 6d 3d 6d 18 0e bf
       -0.114963055 -2.2186263 0.05797511 -0.5550602
000390 5c 58 19 bf 2d a6 ac 3e 47 14 88 bf 0d 07 d2 be
       -0.5990045 0.33720532 -1.0631188 -0.41021004
0003a0 0f b5 a4 3e 0f 87 7e bf 7a f0 90 3f cb 23 94 bf
       0.32169387 -0.99424833 1.1323388 -1.1573423
0003b0 ab 83 18 3f 4c 2a 48 3e 69 39 fd 3f d4 ae 01 bf
       0.5957591 0.19547385 1.9783145 -0.5065739
0003c0 2a 7d b0 bf 21 13 f6 be 13 dc d4 bf 5b 79 dd 3d
       -1.3788197 -0.4806147 -1.6629661 0.10814162
0003d0 9b e6 7e bf 45 e5 a7 3e d8 2a 0a 3f cd 62 23 bf
       -0.99570626 0.32792106 0.53971624 -0.63822633
0003e0 d9 c4 71 be 77 c7 33 bf d4 c0 c5 bf 5b a2 9b 3f
       -0.23610248 -0.70226234 -1.5449471 1.2158922
0003f0 0a df a1 bc c3 13 61 3f d0 95 af 3e 64 8e af be
       -0.019759674 0.8792078 0.34293985 -0.34288323

encoder_pos_embedding.weight f4 [8, 32]
000000 58 e3 ea 3e e1 2e a5 bc f6 c6 8b 3f 8e 7e 9d 3f
       0.45876575 -0.020163955 1.0920093 1.2304246
000010 e2 7e 76 3e ff 35 33 bf 27 7d ca bf 1f e1 bb 3d
       0.2407184 -0.70004267 -1.5819443 0.09173798
000020 ef 57 05 bf 99 df 8a 3e 58 4a d3 3e 65 cb 1e be
       -0.520873 0.27123716 0.41267657 -0.15507276
000030 85 c6 46 3f 6e d6 2a c0 b1 10 f0 bf 88 b9 3f bf
       0.77646667 -2.6693377 -1.8755094 -0.74892473
000040 79 a6 1e bf 99 1f 3e bf 85 d9 a7 3e 35 a2 b6 bd
       -0.6197277 -0.74266964 0.32783142 -0.08917657
000050 83 75 8a 3f 62 ed 2c 3d 80 7c d2 3f 99 7e 5a 3f
       1.0817112 0.042218573 1.6444244 0.8534942
000060 46 8f 08 3f c1 48 d9 3e a2 94 4d be d1 e2 27 be
       0.5334362 0.4243832 -0.2007623 -0.16395117
000070 a1 39 06 3f c6 ce b3 be f9 e6 80 3d 4f 5c 39 3e
       0.52431685 -0.35118693 0.062940545 0.18101619
000080 37 b7 c9 3e 89 da a7 bd 9a 80 25 3f 26 9c 0a c0
       0.39397594 -0.08195979 0.64649355 -2.1657805
000090 11 fe 83 3f b1 ff 83 bf 99 9c 85 bd f3 2b c2 3f
       1.031191 -1.0312406 -0.06524009 1.5169662
0000a0 bf 35 08 bf 24 ea d6 3c 82 44 77 3f 53 b8 c5 be
       -0.5320701 0.026234694 0.9658891 -0.3861719
0000b0 38 65 9f bf ca 4c 5f 3e 65 17 10 3f a7 4b 6f bf
       -1.2452765 0.21806636 0.562857 -0.9347481
0000c0 6c 1c 1f bf 97 f2 fe 3d 39 d3 5c 3f 0a 5a e1 3f
       -0.62152743 0.12448614 0.862598 1.7605603
0000d0 92 4d cd bf 13 c7 b9 bc 8c 12 9b 3f 53 89 78 bf
       -1.6039298 -0.022677934 1.2115035 -0.9708454
0000e0 21 10 7a 3f f9 45 e7 3d 0a ed 0c 3f e5 31 dc bf
       0.9768086 0.11292643 0.5504919 -1.7202727
0000f0 09 be b7 3d 33 33 69 bf da ff 4d bf ac c2 fc 3e
       0.08971793 -0.9109375 -0.80468524 0.49367273
000100 d4 ed 15 bf f4 8c 6e 3f 4d f2 dd bc bb 8c 3f bf
       -0.5856602 0.9318383 -0.027093077 -0.7482411
000110 6d 23 aa 3f 39 e5 59 3f 1b 90 89 3e a9 0f c3 3e
       1.3292061 0.8511539 0.26867756 0.38097885
000120 04 dc d5 3e cd c0 fb 3f 7d 95 72 bf fe 08 47 3f
       0.4176942 1.9668213 -0.9475935 0.77748096
000130 7c ea 92 3f 18 1f 17 3f 78 d9 6e 3f c7 2c 2a c0
       1.1477809 0.5903182 0.9330058 -2.658983
000140 0c 1e 1e c0 be 86 9c 3d ae 71 89 3f 2f d4 ca be
       -2.470584 0.076428875 1.0737817 -0.39615008
000150 47 dd 41 bd 7a df 1c 3f 94 0b 4b be 0c 3d 4d bf
       -0.047330167 0.612785 -0.19828635 -0.80171275
000160 5c c8 fa bf bc 1c 2e be 65 d4 90 bf ee 87 8c 3f
       -1.9592395 -0.17003149 -1.1314818 1.0978982
000170 07 3d 4c 3f 19 e2 ed 3d 3c 47 59 3f 82 4b f5 be
       0.7978062 0.1161539 0.8487432 -0.4790917
000180 6f f2 ba 3f af df b4 be 25 53 2d bf 71 02 1f 40
       1.4605235 -0.35326907 -0.67704993 2.484524
000190 35 eb 1d 3e f6 0c 57 bf 28 0b 27 bf 29 c3 0c bf
       0.15421756 -0.8400415 -0.652514 -0.5498529
0001a0 c0 1a 17 3f cc 41 05 c0 ab a8 22 be 09 cb eb 3e
       0.5902519 -2.082141 -0.15884654 0.4605334
0001b0 b6 a0 5d bf 5b 6d 9f bf 62 d8 24 3f 1f cc f6 3d
       -0.8657335 -1.2455248 0.64392674 0.12050652
0001c0 d4 54 0b 3f f8 7e 88 bf e1 50 70 bf 81 ac e4 3f
       0.5442631 -1.0663748 -0.9387341 1.7865144
0001d0 d5 cb 82 bf 2f 01 a3 3f 2b 02 31 bf c0 0b 51 3f
       -1.0218455 1.2734736 -0.69143933 0.81658554
0001e0 e2 82 e0 3e d4 6c ba 3f bd ce 1f 3f 8e 1c 4b be
       0.43849856 1.4564462 0.6242483 -0.19835111
0001f0 c7 81 1a 40 6e f8 02 3f 74 84 7a 3e b9 cf 5a 3f
       2.414171 0.51160324 0.2446459 0.8547321
000200 1c 68 17 3f f3 e0 e9 be d8 4a 3b 3f ea e8 30 bf
       0.59143233 -0.45679435 0.7316108 -0.691054
000210 87 fd 06 3f 90 5b 14 3f bf 82 01 40 f3 65 e8 3f
       0.527306 0.57952213 2.023605 1.8156112
000220 68 dc 34 3f bc de 41 40 34 7e 92 3f ee 37 0d 3e
       0.70648813 3.0292196 1.1444764 0.13790867
000230 11 e0 e0 bf 69 e0 44 bf 4e 71 12 c0 b5 0a 88 bf
       -1.756838 -0.7690492 -2.2881656 -1.0628268
000240 01 a8 00 3e c7 8a d7 3f 60 b2 5c be a1 1c a8 3d
       0.12564088 1.6839226 -0.2155242 0.082085855
000250 b7 07 bc 3f c6 ac a7 3e c3 a0 86 be 48 81 23 bf
       1.4689854 0.32749003 -0.26294526 -0.6386914
000260 ab 73 bd be 00 66 4e bf 16 b5 f8 3e 36 de 4b be
       -0.3700231 -0.8062439 0.48575658 -0.19908985
000270 b8 7e 1e 3f fd 29 6c be 13 bb 56 3e 2a 84 dd bb
       0.6191211 -0.23062892 0.209698 -0.00676014
000280 6b bc 8d 3f 95 06 aa 3f 7f 4c e5 bf 67 7c 28 3f
       1.1073126 1.3283259 -1.791397 0.6581482
000290 f4 18 d3 3f 0d d8 dd 3e 8c 63 84 3f 74 0b 20 3f
       1.649199 0.43328896 1.0342879 0.62517476
0002a0 6d 14 99 3f be 4a e3 3f f5 32 92 bf 92 bd e1 bd
       1.1959358 1.7757185 -1.1421801 -0.11022486
0002b0 11 9e 1a bf 0a ad 34 3f 02 55 61 bf 7b dd 2a bf
       -0.6039744 0.70576537 -0.88020337 -0.667442
0002c0 86 d7 c2 bf 13 0c 94 3f 2c e4 23 bf 2d 24 d7 be
       -1.5222023 1.1566185 -0.6402004 -0.42019787
0002d0 22 c0 7a bf e4 24 f4 3e 1e e3 8f 3f 61 62 87 3f
       -0.9794942 0.47684395 1.1241186 1.0576898
0002e0 a9 60 a8 bf af 11 07 40 ac 3a db 3f 40 b0 c1 3f
       -1.3154498 2.1104543 1.712728 1.5131912
0002f0 e5 ef ce be 6a 35 41 3f 13 36 f8 3e 5b 5a 8a be
       -0.404174 0.7547213 0.48478755 -0.2702206
000300 28 58 af bf 16 4d a3 bf 99 78 bd 3f fd 99 06 bd
       -1.3698778 -1.27579 1.4802428 -0.0328617
000310 16 5e c2 bf a2 b6 d6 bf 63 b0 64 3f 40 24 37 bd
       -1.5184963 -1.6774485 0.89331645 -0.044712305
000320 34 2c ba be 47 75 73 3f 8a 0e 81 bf 09 ef 37 3f
       -0.3636185 0.95100826 -1.0082562 0.71849114
000330 b8 3b 38 3f d1 6a e3 3d 66 3d 15 3f 4c 41 98 3d
       0.71966124 0.11104358 0.5829681 0.074343294
000340 32 d0 ca 3f 1b 3a 4f 3f 08 09 55 bf fe 18 8a 3e
       1.5844786 0.80948037 -0.83216906 0.26972193
000350 13 9b cf be f8 05 96 3f 1d 62 50 be 14 e3 cc be
       -0.40548 1.1720572 -0.20349927 -0.40016997
000360 9a 66 68 3b 46 90 13 bf f5 5e 6c 3f 2b c4 f2 3e
       0.0035461546 -0.5764202 0.9233239 0.4741529
000370 1e 0c 00 3f 94 35 86 3e 8c ba a9 3d 0c 90 ca be
       0.5001849 0.26212752 0.08287534 -0.39563024
000380 5b a2 d6 be d2 e3 85 bf 91 0c a6 bf d4 33 25 40
       -0.41920742 -1.046015 -1.2972585 2.5812883
000390 bb c4 7e 3f 64 00 60 bf 5a 08 80 bf 78 45 93 bf
       0.99518937 -0.87500596 -1.0002549 -1.1505575
0003a0 4c 52 17 3f 77 ef 54 3f 32 ed 6a bf 32 aa 51 bf
       0.5910995 0.83177894 -0.9176818 -0.8190032
0003b0 32 9a 94 bf c0 51 ca be 7a ae 0f be 96 98 eb be
       -1.1609557 -0.39515495 -0.14031401 -0.4601485
0003c0 e9 1b ca 3f 0b b2 c9 3f d6 cf 68 be 6b 3b e6 bf
       1.5789768 1.5757459 -0.22735533 -1.7986883
0003d0 4d e0 6c bf 69 72 8b 3f 64 15 8c be 3c 90 c9 3f
       -0.92529756 1.089429 -0.2736007 1.5747142
0003e0 6d 50 f3 bd 1f aa ba 3e af 30 85 3d 83 2e 20 bf
       -0.118805744 0.36457917 0.06503426 -0.6257097
0003f0 3c d0 ba 3e 9e ff 0c 40 80 f7 1e bf 51 d6 4f bf
       0.36486995 2.2031016 -0.62096405 -0.81186396

decoder_pos_embedding.weight f4 [8, 32]
000000 aa be 0a c0 97 00 49 3f cd 33 af 3f 49 ab 7e be
       -2.1678872 0.78516525 1.3687683 -0.24870028
000010 a9 a0 3e 3f de af d9 bc 08 73 a9 3e cd 31 e0 bf
       0.744639 -0.026573118 0.33095574 -1.7515198
000020 b1 eb 08 bf a7 d5 c9 3f c8 27 aa 3f 43 7f c0 3f
       -0.53484637 1.5768327 1.329339 1.5038837
000030 9d da 8b be 55 60 3f be a9 3e d6 bd 84 df 3e 3f
       -0.27315226 -0.18689092 -0.1046117 0.7455981
000040 db dc ad be 70 3d a5 3f 04 18 2a 3c 97 df 3d c0
       -0.33957562 1.2909374 0.010381702 -2.9667718
000050 c1 20 5e bf 13 a8 32 be 1f b8 db bf d7 d6 f6 bd
       -0.8676873 -0.17446928 -1.7165564 -0.12052696
000060 b5 85 ea 3f 35 b4 d3 bf 55 b1 7e bf 74 66 b7 3e
       1.8322054 -1.653937 -0.9948934 0.35820353
000070 83 2f 30 bf 7a 1a 7c 3f d5 a3 34 be 5f 01 2c 3e
       -0.688225 0.984779 -0.17640622 0.16797398
000080 1a c0 d1 bf 27 e6 a1 bf d3 b5 7a 3f 92 5d 18 3f
       -1.638675 -1.2648362 0.9793369 0.59517777
000090 48 fa 9e 3e bb 07 a7 be 1e f3 f8 3e ab 31 92 be
       0.31050324 -0.32623085 0.48622984 -0.2855352
0000a0 08 12 2b 3c 26 f3 cb 3e 18 dc 48 bf 8b 8c 05 c0
       0.010441311 0.39833945 -0.78460836 -2.086703
0000b0 3a 97 52 bf 6d 8c f1 3f b1 37 25 be 5e 14 36 40
       -0.82262003 1.887098 -0.16134526 2.844993
0000c0 76 92 17 bf 29 47 f2 3e fd 41 b7 bd 6f 28 ae 3e
       -0.59207857 0.47319916 -0.08948133 0.34015223
0000d0 08 9a 88 be 4f a5 7a bf 14 66 c5 3e c1 70 98 be
       -0.26680017 -0.9790849 0.38554442 -0.29773524
0000e0 f1 cc 09 40 26 a1 0d 40 dc fe 80 bf 9c 59 0a 3e
       2.1531336 2.2129607 -1.0077777 0.13510746
0000f0 49 c2 ea 3e 0e 0d 1d c0 f0 94 1b 40 72 94 03 40
       0.45851353 -2.4539218 2.4309654 2.0559354
000100 b2 9d b4 bd bf 54 87 3e 8f 6c 8f 3f ac aa 62 40
       -0.088191405 0.26431844 1.1205004 3.541667
000110 7b 47 f7 bf 27 af 29 be 2c 30 1f c0 f2 ca 18 3e
       -1.9318689 -0.16570722 -2.4873152 0.14921167
000120 70 4f dc bf 85 f8 a2 bf ab 5a 64 bf c3 f9 59 bf
       -1.7211742 -1.2732092 -0.8920085 -0.8514673
000130 67 36 e9 3f 65 76 14 40 b5 89 b4 bf c2 18 05 bf
       1.8219727 2.3197262 -1.4104525 -0.519909
000140 1a fe b6 3f 7d 19 43 3f bb 21 a9 3f e6 9f ac 3e
       1.4296296 0.7621077 1.3213419 0.33715743
000150 97 29 34 3f 5c 59 69 bf 29 d1 47 bf c4 fa e9 be
       0.7037596 -0.91151977 -0.7805353 -0.4569913
000160 1e c9 5d bf 80 44 58 bf 8c 99 ca bd 3b aa 85 3f
       -0.86635005 -0.8447952 -0.09892568 1.0442575
000170 46 1a ab 3e 53 ba 1f bf 32 ed a9 3f 8f 31 85 bf
       0.33418483 -0.62393683 1.3275511 -1.0405749
000180 23 26 d6 3f 49 40 e1 bd e4 b0 6a be 0e 91 b8 be
       1.6730388 -0.109985895 -0.22919041 -0.36048168
000190 9c fa 5f 3e b3 58 66 bf 94 cb 8a 3e ae 26 a0 bf
       0.21872944 -0.89979094 0.27108443 -1.2511804
0001a0 1b c6 1d 3f 29 8a 1b 3f a4 88 7e 3f b3 c6 2f be
       0.6163041 0.6075769 0.9942725 -0.17165641
0001b0 b2 41 94 bf 5a 3e 2f bf 4c 63 49 3f 24 cc df be
       -1.1582549 -0.68454516 0.7866714 -0.43710434
0001c0 db 98 a7 bf cb d5 b0 3f f0 b3 1a bf cc 43 d6 be
       -1.3093523 1.3815244 -0.6043081 -0.418486
0001d0 a8 e9 11 bf 1f 90 9b 3f 50 1b 99 be d3 24 f6 3e
       -0.56997156 1.2153357 -0.2990365 0.4807497
0001e0 ce ab b2 be 4c 98 cd 3f f1 af df bf 04 52 f4 be
       -0.34896702 1.6062102 -1.7475568 -0.47718823
0001f0 a3 2a 14 bf be f9 8d bf 98 0b 15 3e 98 74 10 c0
       -0.5787756 -1.109184 0.14555204 -2.2571163
000200 de 0e cf bf 16 09 6a bc 6b fe c1 3e 1e 23 5c bf
       -1.6176412 -0.014284393 0.37889418 -0.85991085
000210 53 2a c7 be df b7 d7 3d e5 cb ab bf a0 91 28 3f
       -0.38899478 0.105331175 -1.3421599 0.65847206
000220 26 ed 3c bf bf ce 4b bf 46 f3 3f 3f ec 06 54 bf
       -0.7379936 -0.79612345 0.7498058 -0.8282306
000230 e3 ad 06 bd 05 d6 89 3e 98 e2 6e bf d2 5e 96 bf
       -0.032880675 0.26921096 -0.93314505 -1.1747687
000240 87 2e 33 3e 62 63 3f bf c9 67 52 3e be 88 5b bf
       0.17498218 -0.7476102 0.20547403 -0.85755527
000250 b9 66 9b bf 6a 84 5f 3f ab da 0b bf 29 de 26 3f
       -1.2140723 0.8731142 -0.54630536 0.6518274
000260 a3 63 16 3f 2d 6f 8d 3f cd ab fb 3d d8 b9 9c 3e
       0.58745784 1.1049553 0.12288628 0.30610538
000270 ba 74 53 3f e7 72 70 3f 8d fb 44 3c b6 1d 02 3e
       0.82599986 0.9392533 0.012022865 0.12706646
000280 61 23 a7 bf ea 48 ad be 74 e8 01 3f a9 cd 3d 3f
       -1.3057672 -0.33844692 0.5074532 0.7414194
000290 f5 69 14 3e 8c 2c 5d bf 42 33 9f bf 71 25 da 3f
       0.14493544 -0.863961 -1.2437518 1.7042676
0002a0 3c b7 36 3f 05 f1 fb bf 45 97 a1 3e f1 2a 86 bf
       0.71373343 -1.9682928 0.31560722 -1.0481855
0002b0 2b 1d 34 3f 59 b7 5b bf 47 71 c4 3f 80 b8 44 bf
       0.70357007 -0.8582664 1.534707 -0.76844025
0002c0 10 4d bd 3f fd d8 64 3f fe a6 8a 3e 29 10 ac be
       1.4789143 0.893936 0.2708053 -0.3360608
0002d0 77 c1 fc 3f 60 c9 ab 3f be a8 83 3d e7 2a a9 3f
       1.9746541 1.342083 0.064286694 1.3216218
0002e0 01 ee f3 be b2 a1 94 3e 5c c6 bd bf 3a e9 8a be
       -0.4764252 0.29029614 -1.482616 -0.27131063
0002f0 43 41 7c 3f 1f 6f 0e 3f e9 67 ad 3e 6d 41 92 3f
       0.9853708 0.5563831 0.3386834 1.1426216
000300 5c 12 34 3f 18 10 8c bf eb 96 42 bf d6 cb ce 3e
       0.70340514 -1.0942411 -0.7601153 0.4038989
000310 2c 8d 8f bd 0f d7 99 bf fe 1f 63 bf 10 33 4f bd
       -0.07009348 -1.2018756 -0.8872069 -0.050585806
000320 2d 92 d4 3b 7b 7a de bf 32 e6 27 be 6e cc d9 bc
       0.006487152 -1.7381128 -0.16396406 -0.026586737
000330 14 e5 8d bf 1a b3 18 3d 04 13 39 be 79 5c 41 bf
       -1.1085534 0.03728018 -0.1807366 -0.7553173
000340 04 fd 33 3f de 95 1f bf 00 4d aa 3f 09 15 7c bf
       0.70307946 -0.62338054 1.3304749 -0.984696
000350 88 15 a5 bf 54 1e 5c bf 61 5a f1 3e 4e 8c a0 bf
       -1.2897196 -0.8598378 0.47139266 -1.2542818
000360 1f 83 07 3e f9 a9 95 3f 06 81 ac bf f9 19 f6 3a
       0.13233612 1.1692497 -1.3476875 0.0018776051
000370 d6 07 43 bd 87 a5 11 3f 18 ce 94 3f 12 07 d9 3d
       -0.047614895 0.568932 1.1625395 0.10597052
000380 8c 15 34 be ed ed 28 c0 20 b2 0b c0 7f 7b 94 3f
       -0.17586344 -2.6395218 -2.182747 1.1600188
000390 ee af 5c bf 93 52 ba 3d b4 b6 0b bf 18 19 3c bf
       -0.8620595 0.09097781 -0.5457566 -0.7347579
0003a0 83 82 e0 ba 73 af 94 3f 7f 86 35 3f 76 9e 85 3f
       -0.0017128739 1.1616043 0.7090835 1.0438983
0003b0 ed 38 aa bf c9 d9 48 bf 50 04 48 3e 85 48 e0 3f
       -1.3298622 -0.78457314 0.19532895 1.7522131
0003c0 a3 31 0f bf d5 3e 02 bf de 5a f9 3e 80 89 c3 bf
       -0.55935115 -0.50877124 0.4870214 -1.5276337
0003d0 3c 12 e4 3f 5c 5f 13 bf ff 6c f6 bf fd d8 45 3e
       1.7818065 -0.5756738 -1.9252013 0.19321056
0003e0 1d 51 b7 bf e8 f3 eb bd 23 f5 18 c0 b0 50 87 bd
       -1.4321629 -0.11521131 -2.389962 -0.06607187
0003f0 f7 04 fb 3e 53 76 82 be 35 89 00 3f 70 9e 01 3e
       0.49027225 -0.254809 0.5020936 0.12658095

transformer.encoder.layers.0.self_attn.in_proj_weight f4 [96, 32]
000000 45 4e 80 bd bd 59 d5 3b 37 56 ad 3d fa 23 02 3c
       -0.06264929 0.006510942 0.0846371 0.007943148
000010 4f 92 c6 bc ee 68 a0 bd 06 36 ee 3b 9b 52 77 bd
       -0.024239687 -0.07832514 0.0072696237 -0.060381513
000020 14 cc 3b 3d 56 25 9c bd a7 e0 a9 bd 92 f1 1f 3e
       0.04584892 -0.07624309 -0.08294802 0.15619496
000030 aa b8 b0 3b f8 92 bf bd 2f e2 fa 3d 35 0b 09 be
       0.0053931074 -0.09354204 0.12250172 -0.13383181
000040 88 64 6a bc 28 e8 47 be ac 87 91 3d 25 13 1e 3e
       -0.014306195 -0.19522154 0.071059555 0.1543699
000050 90 a7 87 bd 8f 71 8d bd 4c 12 c0 bd 73 6e 7f bd
       -0.06623757 -0.06906425 -0.0937849 -0.062361192
000060 7a 22 0c be 7b 05 21 3d 38 23 45 be b0 c9 69 bd
       -0.13685027 0.039311867 -0.19251716 -0.05707711
000070 57 d0 0c bd 41 4a cf 3c b3 b8 61 3d fe bf 05 be
       -0.034378376 0.025303962 0.055107784 -0.1306152
000080 1e ae 0b 3e 70 1c 76 bc a0 6f 4f be 9b 29 22 be
       0.13640639 -0.0150214285 -0.20257425 -0.15836184
000090 ee ce eb 3d b2 91 b1 bd 92 9b 88 bc e9 44 20 be
       0.11514078 -0.08670367 -0.016675744 -0.15651287
0000a0 0d b3 26 3d 79 78 8d bd a1 4b ff bd 9a 08 27 3e
       0.0406981 -0.06907744 -0.12465597 0.16311875
0000b0 8b d0 9c bd d9 fd f5 bd 86 c0 0c 3e d3 f9 b7 3d
       -0.07656964 -0.12011308 0.13745317 0.08983197
0000c0 40 dd c8 bd 5b 32 7f bd a6 9d b4 bd 32 b6 12 3d
       -0.09807825 -0.062303882 -0.088191316 0.035818286
0000d0 53 46 19 3e ae 98 56 bd 60 08 9e bd c5 70 56 be
       0.14968233 -0.0523917 -0.07716441 -0.20941456
0000e0 ee e1 72 bd 1a 9c 89 be 34 18 35 3e a7 e5 5a 3e
       -0.059297495 -0.2687691 0.17685014 0.21376668
0000f0 c1 77 7d 3e e0 58 13 3e 2a 46 0d be 30 89 06 3d
       0.24752714 0.14389372 -0.13796297 0.032845676
000100 ab e1 fc bc 70 1d b0 bd ad 02 5a 3c b7 dc ef bc
       -0.030869326 -0.08599365 0.013306302 -0.02928005
000110 94 7f bb 3c 25 17 e3 bc f8 24 4d 3d 02 1c b8 bd
       0.022887982 -0.027720997 0.050084084 -0.08989717
000120 0e 1a cf 3c 37 77 bc 3d 0d c5 38 bd 6a e2 12 3e
       0.025280979 0.09202426 -0.045109797 0.14344183
000130 0c 35 17 3c 52 b5 59 3e 7c 31 63 3e 3b 2a 0f bd
       0.009228956 0.21260574 0.22186846 -0.034952383
000140 a1 ca a6 3d 4a 62 29 3d 29 48 d6 bd 8e fb 06 3e
       0.08144117 0.0413535 -0.10462982 0.13181898
000150 27 9a 08 be 16 dc 64 bb 8f e2 bf 3d 68 f5 43 bb
       -0.13340054 -0.003492122 0.093693845 -0.0029900912
000160 e0 b2 a2 bd bd fe 95 3d c4 02 00 3e 4f 61 48 bc
       -0.07944274 0.07323978 0.12501055 -0.012230231
000170 d8 fc 88 bd 00 f4 e6 3d 10 a4 96 3c 27 67 0a 3e
       -0.06688851 0.11277008 0.018388778 0.13515912
000180 7c 1b f2 bd c3 89 3a 3d 2b 6c 0b be 2e bc 0a be
       -0.118216485 0.045541536 -0.13615482 -0.13548347
000190 93 5b c5 3d 49 03 da 3d 4f 70 13 3e a7 1d 50 3e
       0.09636607 0.10645158 0.14398311 0.20323811
0001a0 9f 26 33 bd 32 db e1 bc aa 57 b2 3d a3 fc 63 3e
       -0.043738004 -0.02757034 0.08708127 0.22264342
0001b0 80 26 a3 3d c0 97 f4 bd 21 e8 39 3e e0 1b d5 bd
       0.07966328 -0.119430065 0.18154956 -0.10405707
0001c0 33 51 5e bd 10 77 a9 bd ac 71 45 be 8d 3c 40 ba
       -0.054276656 -0.082746625 -0.19281644 -0.00073332415
0001d0 e5 57 ad bd 42 e0 22 bc 6d 80 8d bd 34 f9 b5 bd
       -0.0846403 -0.009941163 -0.06909261 -0.08885422
0001e0 b6 ae a9 bd 45 65 ca bd 2c 0d cf 3d 6d 4a d0 bd
       -0.082852766 -0.09882597 0.10109934 -0.101704456
0001f0 23 07 81 bd 9f 15 64 bd d2 f7 50 be c8 9a a9 bd
       -0.06300189 -0.055684682 -0.20407036 -0.08281475
000200 9f 8e 11 be af 7b 57 be 28 5f d3 3c 4e 19 f0 3d
       -0.14214562 -0.21043275 0.02580221 0.117235765
000210 ff c7 32 3e 5d e2 27 be 3f cf a8 3d e7 91 ca 3d
       0.17459105 -0.16394944 0.08242654 0.0989111
000220 28 f8 b2 bc 68 c4 2c 3e 91 ad 33 bd ca b2 90 3c
       -0.021846846 0.16871798 -0.043866698 0.017663378
000230 fd b9 18 3e bd 53 22 3e f2 da db bd d6 a1 2a be
       0.14914699 0.15852256 -0.1073512 -0.16663298
000240 a5 e7 4d 3d 2e 4f 40 be 1c c6 19 be 48 79 04 3d
       0.05026974 -0.18780205 -0.15016979 0.032342225
000250 34 69 8d bd 97 cb 9a 3e d6 d0 64 3e c6 b9 f3 bd
       -0.069048315 0.30233452 0.2234529 -0.11900668
000260 8a 47 b5 bd e1 2c a4 3c 56 be ef 3c f2 01 b3 3d
       -0.088515356 0.020040931 0.029265564 0.087406054
000270 a9 89 ac bd f4 4b a1 3d a4 4e 11 3d 86 71 e7 3d
       -0.08424694 0.07875815 0.03547539 0.1130095
000280 5c 00 83 3d 20 5b 73 be 84 23 f2 3d 5f 28 bd bd
       0.06396553 -0.2376523 0.1182318 -0.09236216
000290 2f 25 e9 bd a2 fb 08 3c 03 91 96 bd 6a 0b 63 be
       -0.11384045 0.008360775 -0.073518775 -0.22172323
0002a0 0c 95 28 be 94 8f 03 bd 26 a2 57 3e 76 8b a2 3d
       -0.16463107 -0.03211935 0.21057948 0.07936756
0002b0 ed 12 4c 3e f9 fc ce bb 1b e2 28 be 9b e3 ab 3d
       0.19929095 -0.006316778 -0.16492502 0.08393022
0002c0 12 ec d3 3c 8d 3d 48 3e d1 c3 07 3d 14 97 2d bd
       0.025869403 0.1955473 0.03314573 -0.042380407
0002d0 5c 0a 2e bd 12 09 80 bd 37 91 0b bd e0 2c 44 be
       -0.04249035 -0.0625173 -0.034074035 -0.19157743
0002e0 48 b7 a5 3d 28 56 14 be 2c b2 4c 3d 17 f1 cd bd
       0.08091599 -0.14485991 0.049974605 -0.1005575
0002f0 b9 49 15 be 14 71 db bd 20 3d 14 bd bf 14 cd bd
       -0.14578904 -0.10714927 -0.036191106 -0.10013723
000300 d8 b9 fb bd 0d ae 89 3e 67 d6 a9 3d 8f a8 32 bd
       -0.12291306 0.26890603 0.08292847 -0.04361778
000310 70 11 09 3e b6 8c 20 be 00 fd 26 bd 0e 9a 06 3d
       0.13385558 -0.15678677 -0.040768623 0.03286176
000320 8d cb 72 3d 2a d4 08 3d 18 0d 2a be 92 d2 84 be
       0.059276152 0.03340546 -0.16606557 -0.25941902
000330 20 d8 ec 3d 58 4b 3f 3d 1d 81 10 be 66 03 2e be
       0.1156466 0.046702713 -0.14111753 -0.16993484
000340 53 39 08 3e 60 cb 6c be ba 9c af 3d c7 27 97 bd
       0.13303117 -0.23124456 0.08574815 -0.07380634
000350 53 5f 07 3e ed e4 94 bd 99 5d 38 be 51 5b 7d bd
       0.13219957 -0.07270227 -0.18004455 -0.061854664
000360 8c 79 00 be ee 55 b5 3d 85 7e 6f 3e 08 a6 d4 3d
       -0.12546366 0.088542804 0.23388107 0.103832304
000370 d3 29 7a be 98 29 09 3e c3 f5 5c 3e 0f d2 42 be
       -0.24430017 0.13394773 0.21578126 -0.19025443
000380 ad 52 8f 3d 7d 0a 33 be 2b 61 84 3d 74 5b 56 3e
       0.06998191 -0.1748447 0.06463846 0.20933324
000390 4e c9 0b be fe d5 b6 3d 11 fb 27 3e 19 19 aa 3d
       -0.1365101 0.089275345 0.16404368 0.08305568
0003a0 b4 ca 1d bd 0c e2 f7 3d 82 80 e4 3d 97 68 3d 3e
       -0.03852339 0.12103662 0.111573234 0.18496929
0003b0 4a c4 65 3e 68 22 fc bc e1 1b fe bd 0d 6c ec bd
       0.2243816 -0.030778125 -0.12407661 -0.115440466
0003c0 0d 91 8b bd 9f 0f dc bd 48 2a ab 3d db 92 43 be
       -0.068147756 -0.10745167 0.08357674 -0.1909899
0003d0 8d a4 89 3e 6b a2 3b 3d 80 eb 49 3d 18 64 d1 bd
       0.26883355 0.04580919 0.049296856 -0.102241695
0003e0 59 08 a5 3d 58 e0 08 be 6a aa 67 be 87 7c 6a 3d
       0.08058233 -0.1336683 -0.22623602 0.057247665
0003f0 53 b8 4e be b2 de 49 bc 4d 69 8b 3d 44 83 1a 3d
       -0.20187502 -0.012321161 0.06807194 0.03772284

transformer.encoder.layers.0.self_attn.in_proj_bias f4 [96]
000000 39 96 db 38 20 65 91 3c 27 ec 91 3d a2 84 8b 3d
       0.00010470715 0.017748415 0.071251206 0.06812407
000010 54 a6 8a 3d a3 bb 09 3d 38 85 b7 bc 3f ef 86 bd
       0.06770006 0.03362621 -0.02240239 -0.06588601
000020 58 41 5b 3d 5b 42 4e 3c c5 a9 a6 bb 11 8a 37 3d
       0.053529114 0.012589063 -0.005086156 0.044809405
000030 c5 61 87 3e 97 23 94 bd 94 f2 5e 3d 95 0f 84 bd
       0.2644178 -0.07233351 0.05443056 -0.064482845
000040 3d bc b0 3d 42 c1 9d 3d b0 b2 db bd 3d 57 84 bd
       0.086296536 0.077028766 -0.10727441 -0.06461952
000050 a6 42 aa bd 8f bd 68 bd 58 8f 4c 3d 12 bd 84 3a
       -0.083134934 -0.056821402 0.04994139 0.0010127148
000060 29 cf ab 3a d4 75 f4 3c 0a b9 51 bc 66 93 84 bd
       0.0013108003 0.029841341 -0.012800464 -0.064734265
000070 3b 98 f6 3c 7f 2a 44 3d 8f 36 3f 3d 22 77 2f bd
       0.030101886 0.04789209 0.04668289 -0.042838223
000080 64 79 17 3b 37 29 9c 3c cb 6f 4a 3c 60 66 54 3d
       0.0023113126 0.019062622 0.012355755 0.051855445
000090 5e 27 b3 3c 90 0c af 3c 4c a4 14 bd 12 57 a9 bc
       0.021869358 0.021368295 -0.0362895 -0.020671401
0000a0 42 90 f2 bc d4 38 8d bd 5a 25 8c bc 6f bd 43 bd
       -0.029609803 -0.06895605 -0.017107654 -0.04778808
0000b0 34 7a 11 3d d2 ca a8 bb b0 30 82 3c 8b 4c 44 bc
       0.035516933 -0.005151131 0.015892357 -0.01198114
0000c0 00 10 80 bc 80 c6 0b bd 63 0e d6 3c 2e 9b b4 3c
       -0.01563263 -0.03412485 0.026129907 0.022046652
0000d0 65 a7 77 bc 6b d6 0c bd d2 b9 fc 3c 37 a1 76 bd
       -0.015115594 -0.034384172 0.030850325 -0.06021234
0000e0 9d 67 8d 3d 8b da ca ba d8 97 4d bb 9a 31 17 3d
       0.06904528 -0.0015476508 -0.0031371024 0.036912538
0000f0 62 a1 a5 3c 9e b2 e8 bc 50 68 ca bc 5e 04 a4 bc
       0.020218555 -0.028405484 -0.024707943 -0.020021614
000100 85 96 3d 3d da 6b f9 bb e9 1a 82 bc 52 76 f2 3d
       0.046286125 -0.007611734 -0.015881972 0.11838974
000110 08 01 21 bc 24 53 9e bc 7b 22 f4 bc 65 6d bc bd
       -0.009826906 -0.019326754 -0.029801598 -0.09200553
000120 dd e2 1c be e3 ed 7f bd 40 05 ed bd bd bc 75 3d
       -0.15320916 -0.062482726 -0.11573267 0.059994448
000130 b4 06 d1 3c 8b c1 72 3d dd 47 fa 3c 3e 34 0b bd
       0.025515892 0.05926661 0.030551845 -0.03398537
000140 5b 72 83 3b 02 ec 98 3d 38 8a 76 3d 35 0d a8 3d
       0.004011435 0.0746689 0.06019041 0.08205644
000150 f6 9d 81 3c 7d 8c 37 bd 26 08 9b bd da 3d 20 bc
       0.015822392 -0.044811714 -0.075699136 -0.009780372
000160 0a bb 0f bd 4d 48 ac bd ce e9 2d 3d 31 2d d3 3c
       -0.035090484 -0.08412228 0.0424593 0.025778385
000170 cf a4 b2 bc 0e be 01 3d 09 72 c1 bd 69 6a f3 3d
       -0.021807102 0.03167539 -0.094455786 0.118855305

transformer.encoder.layers.0.self_attn.out_proj.weight f4 [32, 32]
000000 52 31 0c 3e 56 60 2b 3e e3 17 e8 bd c3 74 00 bd
       0.13690689 0.16735968 -0.11332681 -0.031361353
000010 7f 6f c6 be 76 79 2b 3e a5 f8 16 bd d7 9e 20 3d
       -0.3875694 0.16745552 -0.03685822 0.03921398
000020 10 bf a2 be 14 44 bc bd 7b 34 36 be 1b ca eb bd
       -0.31786394 -0.09192672 -0.17793457 -0.11513158
000030 0c 00 57 bd 60 c1 99 3e 97 a9 cc bc 94 de 41 3d
       -0.05249028 0.30030346 -0.02498321 0.047331408
000040 17 7a 68 3d f0 e3 e4 3d 8e 96 cb 3d 91 f4 bb 3d
       0.05675706 0.11176288 0.099408254 0.09177507
000050 a6 ff 7e 3d 0a b6 9f be 2a 39 9c 3e d3 d7 2a 3b
       0.062255524 -0.31193572 0.30512363 0.0026068583
000060 48 3e 70 3e f3 47 8a be 39 b5 20 be db 0b dc bd
       0.23461258 -0.27008018 -0.15694131 -0.10744449
000070 1b d3 14 be cb c9 fc 3d 36 a3 7b 3e 67 0f b3 3b
       -0.14533655 0.123431765 0.24573979 0.0054644826
000080 e5 14 90 3d 65 71 02 bf 54 bd e0 3d f9 3b 40 3e
       0.07035235 -0.50954276 0.109736115 0.18772878
000090 76 c8 0d bb eb c6 05 be 24 d2 94 3e b1 2c 8b bd
       -0.0021634377 -0.13064162 0.29066575 -0.067956336
0000a0 41 50 3f 3e e3 0a 57 be da 65 8d be 5f 82 40 3e
       0.18682958 -0.21000247 -0.2761677 0.18799733
0000b0 d5 46 6f be 4a 1a f6 3c c3 1b 0c be ec 20 8c bd
       -0.23366864 0.030041832 -0.13682465 -0.06842217
0000c0 b7 d7 03 3c b2 8e 92 bd c2 a6 7c 3e e2 d5 80 3e
       0.008047036 -0.07156123 0.24672988 0.2516318
0000d0 d9 8e c0 3d ad 12 a2 39 2d 1f 98 3e 80 9d 90 bd
       0.09402246 0.00030912962 0.29711285 -0.07061291
0000e0 8c d4 12 be 5b c9 84 3e c9 1b 3e 3e 44 77 23 3d
       -0.14338893 0.25934872 0.18565287 0.039908662
0000f0 69 51 8b 3b 79 a7 c9 bd fe d4 1a 3d bc 6f 90 3d
       0.004251648 -0.09846396 0.03780078 0.07052562
000100 d9 75 e8 bd 2b de 8b be 55 3f c2 bd c5 a6 b4 bd
       -0.11350603 -0.27317938 -0.09484736 -0.08820871
000110 f4 e0 65 3e 95 4a 45 3e 2f ce 1a bd 3a b5 e1 3d
       0.22449094 0.19266732 -0.03779429 0.11020894
000120 0d 82 ac bd 2d 69 d6 3c 9e ce a1 be 09 f6 0a bb
       -0.08423243 0.026173199 -0.3160295 -0.0021203777
000130 8f e7 e6 3d ac 4c 0b be f9 93 87 3e 79 08 c7 bd
       0.11274635 -0.13603467 0.26480082 -0.09718413
000140 fa b9 3e be a7 37 54 be cd 5e 18 3a 1a 2f 40 be
       -0.18625632 -0.20724355 0.0005812466 -0.18767968
000150 9f 0c 9c 3c 06 4d 48 3e 88 d2 90 bd e8 18 ae bd
       0.019048987 0.19560632 -0.07071406 -0.08500844
000160 25 aa 4c be 98 da 48 be 95 2a 5f 3e e5 d5 55 3d
       -0.1998678 -0.19614637 0.21793588 0.05220594
000170 13 ba af 3d 33 68 26 be 8c 97 90 3d ad 2e 66 be
       0.08580413 -0.16250686 0.07060155 -0.22478743
000180 3f a8 d5 be 7f fc c9 bc e7 23 ca 3a 68 b2 84 bc
       -0.41729924 -0.024656532 0.0015422077 -0.016198352
000190 18 d3 df 3d de 94 84 bd 82 bb 35 be e4 3c 1c 3b
       0.10928935 -0.06473707 -0.1774731 0.0023840005
0001a0 12 36 44 be 61 b1 6a be de b4 ec 3d 64 ee cd 3d
       -0.19161251 -0.22919227 0.11557935 0.10055235
0001b0 f5 29 1b 3e 31 6c 85 be be ba 95 be 83 fb 83 bd
       0.15152724 -0.26059106 -0.29244035 -0.064444564
0001c0 57 65 94 3e e2 a3 35 be 12 5e 39 3e 5d 2a d7 bd
       0.28983566 -0.17738298 0.18102291 -0.10506127
0001d0 fd bb 7b 3e 6c fb 8d bd de 6f 91 3e f3 30 04 3e
       0.2458343 -0.069327205 0.2840566 0.12909298
0001e0 69 8b e4 3d 08 be 33 3e 30 b2 74 be 04 4f 58 be
       0.11159403 0.1755296 -0.23896098 -0.21123892
0001f0 a0 8f 3a be 04 ff 8e 3d 4f 60 40 3e 88 a2 48 3c
       -0.18218851 0.06982234 0.18786739 0.012245782
000200 58 07 4a 3d b2 1f 01 3e 39 d5 0e 3d 0d ad 7b 3c
       0.04932341 0.12609747 0.034871314 0.015361083
000210 a9 7f e4 bd ff e1 b5 bd 74 d2 0d be c4 28 c0 3c
       -0.11157162 -0.08880996 -0.13849813 0.023456939
000220 64 50 40 3e 85 c0 56 3e 0c 47 87 be b9 d3 0f be
       0.18780667 0.20971878 -0.26421392 -0.1404561
000230 59 f2 80 3e 96 c4 1b bd 6c 60 a1 3c 46 3e 5c 3e
       0.25184897 -0.038029276 0.019699298 0.2150813
000240 2d 61 e8 3d aa bd ac 3c f4 37 2a bd 29 1f a9 ba
       0.1134666 0.021086533 -0.041557267 -0.0012902963
000250 a5 9c 5f 3d ca c4 2b be d1 5d 05 be d4 5a 46 3e
       0.054592747 -0.16774288 -0.1302407 0.19370586
000260 48 dc 75 be 44 ff cb 3d a3 e3 82 be ff f9 ed 3d
       -0.24009812 0.099607974 -0.25564298 0.116199486
000270 c2 c5 70 3e 63 40 2d 3e 04 fe bf bc 29 09 a4 be
       0.23512939 0.16919093 -0.023436554 -0.3203824
000280 1f f2 83 be 67 1b e4 3d 91 67 ad 3e 99 37 4e 3e
       -0.2577066 0.11138039 0.33868077 0.20138396
000290 f3 5d 7b 3d bf c9 9e bd da 92 b5 bd c2 82 7f be
       0.061368894 -0.07753324 -0.088659 -0.24952224
0002a0 7a 29 38 3e 23 d1 65 bd b4 bd ab bd 2a 68 b8 ba
       0.17984572 -0.05610765 -0.083857924 -0.0014069129
0002b0 7d 9f 43 3d 53 a8 06 be 64 88 70 3e b2 cc 10 be
       0.04775952 -0.13150148 0.23489529 -0.14140585
0002c0 82 08 67 be 96 12 86 bd 18 ab 56 3e ab 78 b3 3c
       -0.22561839 -0.06546514 0.20963705 0.021908125
0002d0 2f 61 55 be b4 4c b2 bd 96 72 00 be 39 09 10 be
       -0.20837854 -0.08706036 -0.12543711 -0.14066018
0002e0 0c 7f 9a 3d ff 79 67 3d 4e a4 bb 3d 5b dc 41 3e
       0.075437635 0.05651283 0.09162198 0.18931715
0002f0 a4 4b c1 3d e5 5c f9 bd 87 f7 07 be a4 61 f4 bd
       0.094382554 -0.12175921 -0.13278018 -0.11932686
000300 f5 33 f1 3d c9 9e 90 bd c7 16 5f 3e 5a b1 cd bd
       0.11777488 -0.07061536 0.21786033 -0.10043593
000310 38 ac fd bd 8a 80 16 be 23 a5 b1 3e b6 de a1 be
       -0.12386364 -0.14697471 0.34696302 -0.31615227
000320 23 e4 66 3c cb ae 64 bb 96 c0 0f be 9d 75 54 3e
       0.014092478 -0.0034894224 -0.1403831 0.20747991
000330 08 ae 28 3e e4 e4 82 3e 78 07 51 3d 74 b8 e8 bd
       0.16472638 0.25565255 0.051032513 -0.11363307
000340 5f 58 f5 3d 6a f0 34 bc 6e 32 3e bd fc 08 6d be
       0.11979746 -0.011043647 -0.046434812 -0.23147959
000350 51 bb 04 3e 5c bc de bd d2 28 92 be c7 1d a6 3e
       0.1296208 -0.108757704 -0.28546768 0.32444593
000360 39 81 71 bc 8a 8c bb be a0 f8 24 be 31 87 ed 3d
       -0.014740282 -0.3663066 -0.16110468 0.11598051
000370 55 ca 31 be 44 3b c8 bb 30 32 a8 bc 53 70 0f 3e
       -0.1736234 -0.0061105806 -0.020531744 0.14007692
000380 35 37 9e bd 94 86 2c 3e 10 08 6a 3d b4 4d 29 be
       -0.07725374 0.16848212 0.057136595 -0.16533548
000390 a1 67 8d 3d c3 e5 92 be 37 c0 92 3c 7e 47 6a ba
       0.06904531 -0.2869092 0.01791392 -0.0008937045
0003a0 4e 7d 24 3e 5a 44 84 be 88 f9 bb 3d 07 1b a8 bd
       0.16063425 -0.25833398 0.09178454 -0.0820828
0003b0 cb 87 43 3d 38 9b 4e be 36 c5 73 be 10 cc d3 bd
       0.047736924 -0.20176399 -0.23805699 -0.10341656
0003c0 9a 0c 05 bc 7a bb 68 be c3 ff 3a bd a5 31 31 bd
       -0.00812068 -0.22727767 -0.04565407 -0.043260235
0003d0 b5 17 ff 3c 9b 54 fd bc 82 ae 71 3e e3 6d fd 3d
       0.031139234 -0.030924132 0.23601726 0.12374475
0003e0 09 6d ff 3d d7 7b d5 3c 71 a0 b3 bd d9 ad 81 3e
       0.12471969 0.026060028 -0.08770836 0.25327948
0003f0 38 0b 19 3e 46 7a 0d be ed 3d e7 bd 50 85 89 bd
       0.14945686 -0.13816175 -0.11291108 -0.067148805

transformer.encoder.layers.0.self_attn.out_proj.bias f4 [32]
000000 59 bd 19 be 88 16 58 3c 88 90 c2 bc 93 14 33 bc
       -0.15013637 0.013188966 -0.023750558 -0.010930198
000010 a0 86 86 bd c2 c7 ab 3d 32 76 07 bd 45 8c d1 3d
       -0.065686464 0.0838771 -0.033071704 0.102318324
000020 b7 f6 cd bc 00 f1 0d bd ea 41 c0 3c e8 0e b2 3d
       -0.025142057 -0.034653664 0.02346893 0.086942494
000030 ea 14 51 bd d4 93 97 bd b3 17 87 3d 97 80 11 3d
       -0.051045336 -0.07401243 0.06596317 0.035523023
000040 70 78 bb bd 2a 98 0f bd f4 77 f5 bd 89 46 a6 bb
       -0.09153831 -0.035057224 -0.1198577 -0.0050743264
000050 da 66 8f 3d be a9 91 bc fd d6 82 bd cf 4b ee bd
       0.07002039 -0.017781135 -0.06388662 -0.11635553
000060 d4 4d 25 3e 61 bf dc 3d b8 d1 0a 3d 65 01 20 bd
       0.1614297 0.1077869 0.03389141 -0.03906383
000070 92 73 e4 3c ad ff 12 3e e8 50 18 3d ee 64 38 be
       0.02788714 0.14355345 0.037186533 -0.18007252
