Models/071223/2_base.pth (torch, 151363 bytes, 40 tensors)

encoder_embedding.weight f4 [47, 32]
00000000: 9b42 e3bf dd30 433e 815b c9bf 2122 583e
00000010: 726b 9f3e 2cd3 0b3d 4bfb 773f 6978 e03f
00000020: a793 cebe ecda 10bf 93af 7a3f 8b63 7d3d
00000030: 910c 063f 2120 2dbf 3e11 fdbf 62aa 40be
00000040: ab78 f2be 4dc5 8d3f ccbf 91bf 5c29 533f
00000050: b811 333f dc49 05c0 3157 0a3e 8c59 27bf
00000060: 0d72 b2bf df24 f73f ddf7 47bf 6598 96bf
00000070: f9f9 1c3f 13ce 0b3e 67b8 6fbf 759d 87be
00000080: 1e55 b33f 444b ca3e daa2 a93f 0287 853d
00000090: fa1d c4bf 55a8 37bf dd9e 863e 90d5 cbbf
000000a0: f74c 1140 f44b a2bd a7b5 3abf 8461 9e3f
000000b0: 3b4d 6ebd 539f 733e 6b20 893f 0a00 403f
000000c0: 13e1 b1be 33f6 cabe 3e17 38bf ed80 6d3e
000000d0: 88e8 adbf 552a b6bf 6d78 073e cd95 4e3e
000000e0: 8588 dc3e 4902 323f 959c c43e 2e26 7cbf
000000f0: 27de 093f 16c3 f4bf f1db 4cbf fb19 e2be
00000100: 25db 443f 7e92 883f a9d9 6dbf cc4d a23e
00000110: f88e 3b3f 1909 4f3f 13f5 a63f 5df9 d5bf
00000120: 5232 063f 7c64 2bbf 88c3 c13f 65ff abbf
00000130: e1d6 3e3f 2596 173f 2635 c83f 66c7 df3e
00000140: 4e2c 893f ca76 babe de62 083f f33d 1ebf
00000150: a167 2c3f e36a e03e 6c67 eabf 30ff 25bf
00000160: ebc4 f83f a818 643f 545c 253f 7921 853f
00000170: dd5d 8bbe 297f 8ebf baed df3e 8911 91bf
00000180: 8b64 abbe d9b2 2fbf 639f 223f ccb4 893f
00000190: afbe 713e 2383 bbbf 538f c0be 988a bf3d
000001a0: ebea d13f 1fec f53d 024c 7b3f b6dd a73f
000001b0: 83c6 02bf 0c99 0cbc bf6f 163f 7987 503f
000001c0: 8756 813f 80dd 073f f3aa 163f b270 b2bd
000001d0: 22c7 2cbf 5d68 05bf 6da9 ea3c 9711 62be
000001e0: 9d50 173f 67f0 953e 0ba9 c6bd ec3f 8dbf
000001f0: 91f7 6a40 8d97 4d3f 4de4 b1bf ae1a 1e3f
00000200: 2ee3 bebd 7b78 b53f e022 173e 6326 7ebe
00000210: b5a8 9d3f 9643 00be 37db b1bf 4057 de3e
00000220: 6691 06c0 f1ca b73f 07c0 3cbe 7bd7 853f
00000230: bfee 1bbf 1b54 9dbe 93a0 573f 4910 8fbf
00000240: 025f 57bf 0e6f afbe d00c db3e 372a b8bf
00000250: 2321 17bf 2cd3 ffbe d94a 62bf 7cb0 c23e
00000260: a0be c0bf 7e91 0b3f 6ac9 1b3f f3e8 75be
00000270: 0222 c23d eb13 99bf 0033 a43d 3f86 64be
00000280: 31f7 40c0 b362 94bf a612 14bf 0415 783e
00000290: cbee f83e 8eb6 8bbf caf4 1a3f 637b 743f
000002a0: 67e9 683f 7c37 aa3e e868 6fbf 4ce9 0e3f
000002b0: e2ce 8cbf fa62 1bbf 61b5 643f 11d5 863e
000002c0: 3437 aabf 457b 93bd 71d8 273f f81e 09be
000002d0: 93ea 183f 857f af3f e7e8 5d3f 2351 d7be
000002e0: 7db7 383e eb88 943f ff07 dabe cee3 dcbf
000002f0: 2153 6c3d 7238 c1be 3096 8a3f dec6 933f
00000300: d681 723e daf9 71be dc20 20bf 852a 33bf
00000310: 7d7a a03e 42b0 10c0 9476 f4bf 6032 8f3e
00000320: 9260 29be f481 213f 0215 c4bf 2968 ce3f
00000330: fa48 5b3f d417 0f3c 498e 12bf 0cb3 85bf
00000340: 6c7e 1ebf 2a1d 1340 f292 21bf d910 c4bf
00000350: 5893 453f 02da 99bf 07d9 d9be 8b22 c1bf
00000360: d15a 16bf ccb7 cf3f db71 383d ba22 ab3e
00000370: a809 793d 57bf 84be ab2c 7cbf 537f 363f
00000380: 0319 1440 e8d8 d63e e4fe 0bbf 8cfe 553f
00000390: eb08 103f e4cd 0a40 2bd7 253f f0cd ef3e
000003a0: 7391 c0be 192c 7d3f 4994 28bf d54a 1a3f
000003b0: 6a47 68bd 6adc 26bf e67a 47bf e969 9f3d
000003c0: 748c c53e 4a60 f03f a848 acbf c43b 42bf
000003d0: e9bb 14bf bdc0 0c3e a8ce 813e 4381 563e
000003e0: c06c 4ebf a2f4 0bbf 4cc3 bfbf 472d 0e3f
000003f0: a058 2fbf ec3a f8be 3d2c eabd 7197 913e
-1.7754701 0.19061609 -1.573105 0.21106769 0.31136662 0.034136936 0.9686782 1.7536746
-0.40347025 -0.5658405 0.97924155 0.06186251 0.52362925 -0.6762715 -1.9770887 -0.18814996
-0.47357687 1.1075836 -1.1386657 0.82484984 0.6994891 -2.082633 0.13509823 -0.6537101
-1.3941056 1.9308127 -0.78112584 -1.1765257 0.6131893 0.1365283 -0.9364075 -0.26487318
1.4010351 0.39510548 1.3252823 0.06519891 -1.5321648 -0.7174123 0.26293078 -1.5924549
2.2703226 -0.07924643 -0.7293343 1.237351 -0.05817912 0.23791246 1.0713018 0.7500006
-0.3474203 -0.3964096 -0.71910465 0.23193713 -1.3586588 -1.4231669 0.13229533 0.20174332
0.43072906 0.69534737 0.38400713 -0.9849576 0.538546 -1.9122036 -0.80023104 -0.44160447
0.7689689 1.0669706 -0.9291025 0.3169998 0.7326503 0.80873257 1.3043541 -1.6716725
0.5242053 -0.669502 1.5137796 -1.3437315 0.7454663 0.5921348 1.564122 0.43706816
1.0716646 -0.36418754 0.5327586 -0.61813277 0.67345625 0.43831548 -1.8312812 -0.6484251
1.9435095 0.8910012 0.64594007 1.040084 -0.2722005 -1.1132556 0.43736058 -1.1333476
-0.33475146 -0.68632275 0.63524455 1.07583 0.23607896 -1.4649395 -0.37609348 0.093526065
1.6399816 0.12007927 0.98162854 1.3114536 -0.51084155 -0.008581411 0.5876426 0.81456715
1.0104531 0.5307236 0.588546 -0.08712901 -0.6749135 -0.5211237 0.028645242 -0.22077022
0.5910738 0.29284975 -0.09700211 -1.1035132 3.6713603 0.80309373 -1.3897797 0.6175946
-0.09320675 1.4177393 0.14759398 -0.24819331 1.231711 -0.12525782 -1.3895024 0.4342594
-2.1026244 1.4358808 -0.18432628 1.0456384 -0.6091117 -0.3072823 0.8422939 -1.1176845
-0.84129345 -0.34264416 0.42783213 -1.4387883 -0.5903494 -0.499658 -0.8839546 0.38025272
-1.5058174 0.5451888 0.6085421 -0.24014644 0.09479143 -1.1959203 0.0801754 -0.22316836
-3.0150874 -1.1592621 -0.57840955 0.24226767 0.48619685 -1.0915086 0.6052977 0.95500773
0.90981144 0.33245456 -0.9351945 0.5582473 -1.1000636 -0.606979 0.8933926 0.26334432
-1.3298097 -0.07201246 0.6556464 -0.1339072 0.5973293 1.3710791 0.86683506 -0.4205409
0.18038745 1.1604284 -0.42584226 -1.725702 0.057696465 -0.37738377 1.0827084 1.1545064
0.23682341 -0.23630467 -0.6255014 -0.69986755 0.3134345 -2.260758 -1.9098687 0.2796812
-0.16540745 0.6308892 -1.5318911 1.6125537 0.8565823 0.008733708 -0.5724836 -1.0445266
-0.61911654 2.298655 -0.63114846 -1.5317641 0.77177954 -1.2019656 -0.4254839 -1.5088667
-0.58732325 1.6227965 0.045030456 0.33424932 0.060800225 -0.2592723 -0.9850566 0.7128803
2.3140266 0.4196236 -0.5468581 0.8359153 0.5626361 2.1688166 0.64781445 0.46836805
-0.3761097 0.9889541 -0.65851265 0.60270435 -0.05670873 -0.65180075 -0.77921903 0.07783873
0.3858372 1.8779385 -1.3459673 -0.75872445 -0.5809923 0.13745399 0.2535298 0.20947747
-0.8063469 -0.54670155 -1.4981475 0.5553784 -0.68494606 -0.48482454 -0.11434219 0.28435853

decoder_embedding.weight f4 [45, 32]
00000000: 8878 183d 7d43 40bf f6bb 68bf 01ad f73e
00000010: f777 993f 2d58 4abf a48e e23f 75df 353f
00000020: f267 2a3f 550d dbbf a786 0fbf 4af8 a0bf
00000030: 1c67 27bf ed36 653f 10a5 14bf 0eea 5ebe
00000040: 4cb8 8a3f 4c8a 73be a109 6abc 587e 183f
00000050: 6043 543e 4107 e03e 1e96 fc3d 0c38 753f
00000060: cb78 86bf dfbe 6f3f 6d1a eb3d 51a4 85bf
00000070: 7a04 773f 9f5e 00bf bc1e 933f 5a44 6abf
00000080: 21b5 623f 0945 8bbf 15a9 563e 8103 25bf
00000090: a98a c6be d0a2 323e 07bd 29c0 10b2 e83f
000000a0: 60e0 b5be e89f 6d3e 732c 123f f42b debe
000000b0: 8517 423e 7d58 bd3d cdcb 10bf 55a0 223f
000000c0: c869 ebbe 3e2b 453f a682 8ebd 386e 373f
000000d0: d924 b43e c512 57bf 0c2c b6bd f347 883f
000000e0: 194d 21bf e483 37bf f989 e53e aa1e 333e
000000f0: dc0f 813e 9236 e8bd 324f 89bf adea 3b3f
00000100: f0df 8bbe 4ce0 3c3e b89e e7be ac9a 203e
00000110: db09 59bf d141 70bf 6a5f 27bf f7ff e13f
00000120: b10c 803e 2691 5dbe 5aa3 bcbf dc4e 5dbf
00000130: c8fa 8d3f 481d 103f c449 9dbf 8095 84bd
00000140: 7d67 99bf 0e17 f2be 34d8 7d3f cc54 96be
00000150: 8de3 b0be ebb2 c3bf d4f7 1a3f 4a39 a0bf
00000160: c19a 76bf cbfb 4dbe e27d d83d 27c0 f83e
00000170: d570 bd3d 6c11 603d 7d19 c43e 5772 cfbf
00000180: 0e6a 253f b133 923f 700d 893f b640 0e3f
00000190: 9f2e 2dbf 5737 17bf d3d5 c2bf 00cc 1abe
000001a0: ca0f 22c0 b483 393f 1ec3 0b3f 05c6 4dbf
000001b0: 5b9a 50bf 49f9 463d c8dc 66bf a6c0 8d3e
000001c0: 261d 25c0 f3a6 af3f 162d e13e 531f 51bf
000001d0: c085 5dbf b661 403f 53a5 303f 6011 3abf
000001e0: 7cbd a63e d74d 9e3f cd4c db3e dfda 623f
000001f0: db53 ddbf 7b2e bb3e cd2a 37bf 5ee4 35bb
00000200: 87ff 723e 0e2c c2bf 34bb 03be 8955 823d
00000210: 476e 9d3e b076 4f3f 1ba5 fc3e 2df2 24be
00000220: 0d68 bb3b 4f24 543e f402 cd3e ca6b 9ebe
00000230: 7c1e 383f e305 a6be b34d 8c3f cbee 98be
00000240: 76fb 253f 7798 043f 9fbd 08bf d656 063f
00000250: 4181 3cbf 1659 5fbf b36a 843f ad85 d9bd
00000260: 6762 0040 bb0a 503c 9766 833f e733 663f
00000270: e053 603f 35f5 153f 0ae0 fabb a714 7d3f
00000280: 87d5 fc3e 8ccf 36bf 64b7 383f cc9a 513f
00000290: 32dc a43e 0a58 213f e6a2 473d 703b 5dbf
000002a0: 1970 c63f 4f58 123f 6a8d 80bf 8647 b03f
000002b0: bdbc 52bd 391f 7abd b5e0 d23e 506b 123f
000002c0: 9bcb 3abe 4d90 143f 3f7a d9be 3705 0f3e
000002d0: d9cc 903f c50f bd3e 356d 843f 329f 023e
000002e0: f53b b23d 9a9a 0ebf 37db c93d b19e 40be
000002f0: b3e8 ac3f e426 fcbf 66c5 e63d a2e4 683f
00000300: 5bdf c9bd 9d13 acbf c11a a9bf f602 cfbd
00000310: 1ffb 12be 0114 4bbf ec7e 863f 4f23 bebe
00000320: b6ac 9abf 0f15 4b3e 73b9 64be d1c9 c13f
00000330: a621 94bf d4b9 1e3e d034 32bf ae3c 0040
00000340: c169 9bbd 3147 593e d3ed 2ec0 82e1 6abe
00000350: aee0 2ebf 7ac4 e73e 3636 8abe 33a5 5abd
00000360: 7e8e d83f 8d69 15bf 8703 dd3e 1e82 e93f
00000370: 992b c33f e600 673f 9a9a 133f 3ed4 173f
00000380: 8614 beb9 3349 ae3e 5d8c 81bf c96e 0ac0
00000390: 1481 423f c84e 5e3e 3b90 73bf a36a 33bf
000003a0: 4442 bc3f 6575 19be d18d dcbd 8c3f a93f
000003b0: 2741 c8be 6120 b83f 5ba9 733f 5415 2dbf
000003c0: 6df1 bc3e f6ea 3dbf c095 eb3e d4d9 1b3e
000003d0: 17d9 0a3e 9525 d2be b348 083f f98d 213f
000003e0: 32ba 1ebd a06a bd3d 0f2e 76bf c884 80be
000003f0: 9d06 4f3f 6b6a c0bf 3cb0 e5be ff15 20be
0.037224323 -0.7510298 -0.90911806 0.4837418 1.1989735 -0.79040796 1.769978 0.71044093
0.6656486 -1.7113444 -0.5606484 -1.2575772 -0.6539171 0.89536935 -0.58064365 -0.21768972
1.0837493 -0.23783225 -0.014284522 0.59567785 0.20728827 0.43755534 0.1233332 0.95788646
-1.0505613 0.9365062 0.1147965 -1.044077 0.96491206 -0.5014438 1.1493754 -0.91510546
0.8855763 -1.0880443 0.20962937 -0.6445847 -0.38777664 0.1744492 -2.6521623 1.817934
-0.35522747 0.2320553 0.57099074 -0.4339291 0.18954284 0.092453934 -0.56560975 0.635259
-0.45979142 0.7701911 -0.06958513 0.71652555 0.35184363 -0.84013015 -0.0889512 1.0646957
-0.63008267 -0.71685624 0.44831827 0.17492166 0.25207412 -0.113385335 -1.0727293 0.7340496
-0.27319288 0.18444937 -0.4523828 0.15684003 -0.84780663 -0.9385043 -0.65379965 1.7656239
0.25009683 -0.21637401 -1.4737351 -0.86448455 1.1092157 0.5629468 -1.2288136 -0.06473827
-1.1984707 -0.47283214 0.99158025 -0.2936157 -0.34548607 -1.5288976 0.60534406 -1.2517483
-0.96329886 -0.20115583 0.10570885 0.485841 0.092500366 0.054704115 0.38300696 -1.6206769
0.6461495 1.1422025 1.0707226 0.5556749 -0.67649263 -0.59068817 -1.5221504 -0.15116882
-2.5322137 0.7246659 0.545946 -0.8038028 -0.8148553 0.04857758 -0.90180635 0.27686042
-2.579904 1.3722824 0.4397971 -0.8168842 -0.8653221 0.75149095 0.69002265 -0.7268276
0.3256644 1.2367505 0.42832032 0.8861522 -1.7291216 0.365589 -0.71549684 -0.0027754526
0.23730288 -1.5169694 -0.12864381 0.06363971 0.30748197 0.8104048 0.49344715 -0.16108008
0.005719191 0.20716976 0.40041316 -0.30941612 0.71921515 -0.32426366 1.0961212 -0.29869685
0.64836824 0.5179514 -0.5341434 0.5247625 -0.73634726 -0.8724531 1.0345062 -0.106212
2.006006 0.012697871 1.0265683 0.89922947 0.87627983 0.5857728 -0.007656102 0.9885964
0.49381658 -0.7141044 0.7215483 0.81876826 0.32199246 0.6302496 0.048739336 -0.8641882
1.550296 0.57166 -1.0043156 1.3771827 -0.051449526 -0.061064932 0.41187063 0.57194996
-0.18241732 0.58032686 -0.4247608 0.13966833 1.1312515 0.36926094 1.0345827 0.1275604
0.08702842 -0.55704653 0.09856265 -0.18810536 1.3508514 -1.9699368 0.112681195 0.90973866
-0.09857055 -1.3443485 -1.321129 -0.10107987 -0.14353608 -0.793274 1.0507483 -0.37136313
-1.2083957 0.19832252 -0.22336368 1.5139714 -1.1572769 0.15500575 -0.69611835 2.0037036
-0.0758853 0.21218564 -2.7332656 -0.22937587 -0.68311584 0.45267087 -0.26994485 -0.053380203
1.6918485 -0.5836418 0.43166754 1.8242834 1.524768 0.90235746 0.5765778 0.5930823
-0.00036254915 0.34040222 -1.012096 -2.1630118 0.7597821 0.2170974 -0.95141953 -0.7008459
1.4707723 -0.14986189 -0.10769237 1.3222518 -0.39112207 1.4384881 0.9518029 -0.6761067
0.36902943 -0.74186647 0.46012688 0.15219814 0.13559376 -0.41044298 0.5323593 0.6310726
-0.03875179 0.09248853 -0.9616403 -0.25101304 0.80869466 -1.5032476 -0.4486102 -0.15633391

encoder_pos_embedding.weight f4 [8, 32]
00000000: 80cf cdbc 100e 17bf 46c5 963f 198b bf3f
00000010: ab21 4dbf fc64 fd3f bfdf 18bf 3d5e e03e
00000020: 324c c3be 898a 0f3f 3ab9 633e 0df1 5abf
00000030: aabe e1bf 0e0c 3dbf 1ec0 63be 8e74 d5be
00000040: e316 02be d972 633e 6278 953e d6c5 50bf
00000050: caca bdbb 5c3c 8cbf b1a1 1dbf a159 96bf
00000060: 2101 a13f cd50 d93e 8623 a03e c04b af3f
00000070: ae69 b1be 423e 923e 2f5f 753f 3acb 8e3f
00000080: bc41 1c3f 9c2d 06bb c003 20be fe1a fb3f
00000090: 0951 e23e 7ef7 ba3f 8e36 0a3f c848 c5bf
000000a0: 37ae cb3f 405c e5bf e46c 313e dae2 82bf
000000b0: ef35 b23d a3c2 023c 3dd4 0440 0302 3540
000000c0: 27f8 c5be f3df 22bf 6930 33bf 8fd7 6ebf
000000d0: 9ff1 823e 5106 abbc f0f8 e5be 3a9f aa3f
000000e0: a0b9 333f 9abf f93f 0ac9 1abf 2fd3 8b3e
000000f0: 378c e33e af73 dd3e ad96 77be f4b5 0cbc
00000100: ed2f cb3e 4c34 823e fbdb 8e3f 7332 37bc
00000110: 39ef a2bf 77c5 d9bf 0b98 21bc 8ec1 4f3e
00000120: c689 3f3d b662 afbf 2a37 a6bf fe94 6f3e
00000130: 9af2 01bf e269 f93e 1312 fc3f 28f3 dbbf
00000140: c505 833e bba6 4fbf 609d ad3f a816 17bf
00000150: 106b e03f 8446 fa3f 5385 573f de1d 1a40
00000160: 814d 76bf fdfe bebf d06c 16bf 7535 c5be
00000170: 62f1 1cbf 5fcb 95be 40a6 f73e d5cb 6cbf
00000180: ff6e bb3f 38ca 1e3f e812 663e 246f 053f
00000190: 88a4 a7bf 6844 1bc0 951c 1abf 03a4 aabe
000001a0: afe1 adbe ac69 863e 9815 303d 8426 ecbe
000001b0: a344 57bb a668 433f 994c 4a3f c5f9 32c0
000001c0: 59ba 34bf c146 c73d 4347 b8bf 93bb babe
000001d0: a9d0 62bf b8de ebbe 112f b4be 74e3 02bf
000001e0: f821 adbe 9fd1 abbe 7da8 383f fa32 3dbe
000001f0: 399c 80bf 040b 843e 1297 003f d3d5 9d3f
00000200: 6359 41be e460 5fbf bd71 efbf def8 553f
00000210: 944a 143f 7f08 c73e 72e5 03bf 6546 b8bf
00000220: b5e2 efbe ceb1 8dbf 191f 9bbc 7755 20bc
00000230: 174a 473e 3106 ed3e 7dae fcbe ade2 5d3f
00000240: dffb 113e c2c2 dfbe 7877 b2be 37ef 88bf
00000250: c567 403f c3f9 5140 53a7 4dbd e748 b8bf
00000260: 10cb 00c0 f0b5 80be 4375 c63d 2ea9 bebd
00000270: e8db 49be 50b8 36bf 1575 5dbf 7089 803f
00000280: eccc c23e 6856 513f 0873 173f ca95 193f
00000290: dd98 ddbf 8696 b7bf 0f0b ef3d 0bdd 9fbf
000002a0: cfb4 8a3e 78f6 5a3f b462 a43f cc4a aabf
000002b0: 8257 be3e ccd6 44be 5709 833f 0413 9e3f
000002c0: 8b85 afbf 2c43 66bf ba26 fc3e 936c e43f
000002d0: f5de 843e 3248 65bf 0edc 14be e7e6 c83f
000002e0: b96d b5be 8440 393f da9a 7cbd 0784 e7bf
000002f0: cb56 7a3e 4ae3 49c0 7739 09be 94e2 463f
00000300: 63c0 503f fb04 ecbe f0cb d9bf 7648 623f
00000310: e5d8 313f 7c65 793f bc0d 43bf 6f78 50be
00000320: e749 14c0 2785 e5bf 7e16 ac3f 1d2d edbf
00000330: d3a5 5dbf 065c 50bc a38b b9be 828a 323f
00000340: 07bd 58be 112a dcbf 76c9 a2be 0212 a43e
00000350: 592a f83d 4260 8c3e 89e1 8b3f 3ca8 5dbf
00000360: df41 e4be b104 153f e72d 913f 7923 643f
00000370: 7523 183e d574 eb3f 6409 4ebf ac4e b3bf
00000380: 7902 26c0 42fb 993f 944a 8cbf 3455 b0be
00000390: e7c7 f53e 5ec6 a83f b35e 3c3c 5ae9 4ebe
000003a0: f393 1c3e 1b58 5abd dc52 ebbe f02c e6bf
000003b0: 91fd fdbe 28f5 85be c061 59bf 2846 bc3e
000003c0: 4ebe 97be e9e5 af3f 4344 7b3e e929 b2be
000003d0: 03a1 d5bf ee02 1040 71f5 6bbe fed5 433e
000003e0: 3e68 f33f 4736 d23f d836 dc3f cf6c 5fbf
000003f0: 0b44 84bd a896 9a3d 4ee8 c4bf 3655 de3f
-0.025123358 -0.5900583 1.1778953 1.4964324 -0.801295 1.9796443 -0.5971641 0.43821898
-0.3814407 0.5607076 0.22238627 -0.85524064 -1.7636311 -0.7384652 -0.22241256 -0.41690487
-0.12704043 0.2221178 0.29193407 -0.81551874 -0.0057919966 -1.095592 -0.61574847 -1.1746103
1.257847 0.4244446 0.31277102 1.3694992 -0.3465094 0.28563124 0.95848364 1.115577
0.610378 -0.0020473963 -0.1562643 1.9617612 0.4420245 1.4606779 0.53989494 -1.5412836
1.5912541 -1.7918777 0.17326695 -1.022548 0.08701693 0.007980975 2.075454 2.8282478
-0.38665888 -0.6362297 -0.69995743 -0.93297666 0.25574967 -0.020877035 -0.44916487 1.3329842
0.70205116 1.9511597 -0.6046301 0.27309558 0.44442913 0.43252322 -0.24178572 -0.008588303
0.39685002 0.25430524 1.1160883 -0.011181462 -1.2729255 -1.7013386 -0.00986291 0.20288679
0.04676225 -1.3701999 -1.2985585 0.2339668 -0.50760806 0.48713595 1.9693016 -1.718358
0.2559034 -0.81113786 1.3563652 -0.59018946 1.7532673 1.955277 0.8418781 2.408073
-0.9621201 -1.4921566 -0.58759785 -0.38517347 -0.6130582 -0.29256722 0.48369026 -0.92498523
1.4643248 0.6202731 0.2246815 0.5212271 -1.3097086 -2.4260502 -0.6019986 -0.33328256
-0.33961245 0.26252496 0.042989343 -0.46123135 -0.0032847307 0.76331556 0.7902313 -2.7964947
-0.70596844 0.09730292 -1.4396747 -0.36471233 -0.8859964 -0.46068358 -0.3519216 -0.51128316
-0.3381498 -0.33558366 0.7213209 -0.18476477 -1.0047675 0.25789654 0.50230515 1.2330879
-0.18881755 -0.8725722 -1.8706585 0.83582866 0.579263 0.3887367 -0.5152198 -1.4396483
-0.4685265 -1.1069887 -0.018935727 -0.009786001 0.19461857 0.46293786 -0.49351874 0.86674005
0.14256237 -0.43703276 -0.34856772 -1.0698003 0.7515834 3.2808692 -0.0502084 -1.4397248
-2.012394 -0.25138807 0.09690335 -0.09309612 -0.19712794 -0.7137499 -0.8650678 1.0041943
0.38046968 0.8177247 0.591599 0.59994185 -1.7312275 -1.4342811 0.11672031 -1.2489332
0.2709107 0.8553233 1.2842622 -1.3304076 0.37176138 -0.19222564 1.0237225 1.2349553
-1.3712629 -0.89946246 0.49248296 1.7845634 0.25951353 -0.89563286 -0.14537069 1.5695466
-0.35435274 0.7236407 -0.061671115 -1.8087167 0.24447171 -3.1544976 -0.13400827 0.7768948
0.8154356 -0.4609755 -1.7015362 0.88391817 0.6947158 0.9742048 -0.7619283 -0.20358442
-2.3170106 -1.793126 1.3444364 -1.8529392 -0.8658115 -0.012717253 -0.36239347 0.69742596
-0.21165858 -1.7200338 -0.31794327 0.3204499 0.12117452 0.2741719 1.0928203 -0.8658483
-0.44581506 0.58210284 1.1342133 0.89116627 0.14857276 1.8395029 -0.8048308 -1.4008384
-2.593901 1.2029803 -1.096026 -0.34440005 0.48004076 1.3185537 0.011497187 -0.20206204
0.15290813 -0.05330668 -0.45961654 -1.7982464 -0.49607518 -0.26163602 -0.8491478 0.36772275
-0.29637378 1.3742038 0.24537759 -0.347976 -1.6689762 2.2501788 -0.23042847 0.191246
1.9016187 1.6422814 1.7204237 -0.87275404 -0.06458291 0.07548267 -1.5383394 1.7369754

decoder_pos_embedding.weight f4 [8, 32]
00000000: 4e13 8d3f 0bc8 b83f fb7a a13f 56cb 0b3f
00000010: 22fb 933e 64db 7a3f 3f7c 403f 7a60 0abd
00000020: a87d 943f e21d c0bc 9c39 88bf 453b 19be
00000030: 93f4 8abf 748d 1bbf 25cf e3be dc23 60bf
00000040: a3e7 663e 81bb 853f eac3 643e 4a49 bbbf
00000050: 5178 c1be 0720 223e ab61 8ebf 5a63 343f
00000060: 1f87 453e bc87 13bf 552f 96bf 0a78 01be
00000070: 3fcc 3e3e 6fab 53bf 3ad9 e43f 3d65 8d3f
00000080: d366 7bbe 73fa dfbf c658 99be 50c6 56bf
00000090: f00b 15bf eed9 4b3e 01ef cc3f a01b 7ebe
000000a0: 8315 163f da36 2040 9942 773e 5b04 fc3f
000000b0: 372b cfbf 2342 1a40 6fa0 bbbf 4404 9abf
000000c0: 88f4 0d3f f3db d43f 157d 95bf 9921 a0be
000000d0: 86a4 0ac0 e8b7 9abf 7b20 ca3e 0e14 c0bf
000000e0: cf1e 3d3f 0fc0 33bf c9c5 e83e 916c 033f
000000f0: 2e4b a13e bdbe e2be df3a 08c0 9ada 3240
00000100: b73d 17bf a180 60bf db4e a3bf b544 0e3f
00000110: 6f94 733f bd47 bcbe 5ad1 ecbc 0224 d5be
00000120: 4b6b 8abf 308c 0940 057f 71be 5aff 6c3e
00000130: 9c8d a3bf 6103 6b40 2660 d53e e373 de3f
00000140: 685d a2bf e028 663e 9307 9bbf 586a fbbf
00000150: f318 a8bf 8aba 37bf a55f ab3f 7b10 adbf
00000160: 10f0 2940 0dfd 3cbe 5933 8a40 287e 4c3f
00000170: 0375 ab3f 8d11 7cbf 1b6a 503f 18eb 85be
00000180: 2e9c cbbf b972 a3bf 0cb0 a23f 724e c4bf
00000190: 4f3b 0140 a17e 283d d3f0 b53e 0a00 823f
000001a0: 1f99 f1be 9b1e dcbe 7d73 bbbf def9 cbbf
000001b0: 5a08 25bf 3410 7ebf 3fa0 f7bf 7d72 8a3f
000001c0: 69c8 28bf 1e9b 97bf af1e b6bf b432 c83f
000001d0: 4adf fa3f 1973 40be 2275 e4bf 7d89 733d
000001e0: d7ea 94be 95f9 94be 1a03 7fbf 6000 043e
000001f0: 320a 4a3f f0c0 b3be 21d6 acbf e55e 51bf
00000200: 0930 be3f 4075 dc3f ba96 c1bf 4ba5 df3f
00000210: 86e1 90bc 8561 193b e594 943f 0aa8 04bf
00000220: 63f5 ac3f c4fa e7be 9b20 3abf 2499 30bf
00000230: 124e e03e 7f49 e9bf dafd 733e 1f61 eabe
00000240: 5d7d 25bc a332 dd3f 3bf0 1f3f 7f79 d13f
00000250: ba16 1540 8417 813e 4990 21bc df02 dfbf
00000260: 84fb 99bf 9623 dd3f 84c7 ad3d b460 4c3f
00000270: fe1f a5be 2880 01bf 7dda cf3e b62d 293a
00000280: 436f bc3f e3d6 633f 0c2f 3b40 b229 fc3e
00000290: 7b13 ec3e 1d12 e03f 20c3 f63d 07b3 013f
000002a0: 9cf4 cfbf 6253 03bf 9582 813f d6e9 18bd
000002b0: 62e4 dc3f 115c 1d3e d0be 3d3e 4697 f53d
000002c0: e443 7fbf d728 85be e81e ac3d 448d f63d
000002d0: c5ab 11c0 b84b b1bf 57cd 2fbf 6999 e33e
000002e0: 9000 81be ab42 bc3e ae57 44be 4fbf 943f
000002f0: e540 9fbf 4f4e 9a3e 03d9 993f 0fe8 e7be
00000300: 306a 8bbf a245 503d c6ff 663f 86d1 c0be
00000310: 89d7 e53e ab7a 463a b8dc e83d 852e c13c
00000320: f5ff 903f 18dc 043e 94da 48bf b8ed e5be
00000330: ff60 1d40 899f 05bf 8b81 643f c571 72bd
00000340: 3ce2 87bf aced 8f3e 3342 bcbf d1b0 e8be
00000350: 714c 973f c354 b8bf 14ff 1d3f 1728 0b3f
00000360: 590c fb3f 52b4 26bc 785d e8bd 64a7 753f
00000370: c611 a73f 2971 893f 36eb ef3e 315e c7be
00000380: 0c8d 1bbf 500b 36bf a65c f23e 8e7b c6be
00000390: 8764 1ebf b201 2dbe eb88 82be 72d7 81be
000003a0: 915a 9bbf 77f0 14c0 766c 483e eaaa 57bf
000003b0: a3ab 14bf 4c7f 683f 516c 41be 3f6d 333f
000003c0: d9c2 eb3e 9180 3e3e f031 82bf c24f afbf
000003d0: 3605 64bf 9560 833e 49fd a03f e4b1 8c3f
000003e0: 5ae4 383e 1d27 12be bf44 08be 0650 353f
000003f0: 89d0 7a3f abfa 593e b402 613d 607f 9cbf
1.1021516 1.4436048 1.2615656 0.5460714 0.28902537 0.97991014 0.75189584 -0.033783413
1.1600847 -0.02345175 -1.0642581 -0.14964016 -1.0855888 -0.60762715 -0.44493976 -0.8755472
0.225493 1.0447847 0.2234036 -1.4631741 -0.37787107 0.1583253 -1.1123556 0.704641
0.19289826 -0.5762899 -1.1733195 -0.12643448 0.18632601 -0.8268346 1.7878792 1.104652
-0.24550943 -1.7498306 -0.2995054 -0.8389635 -0.5822134 0.19907352 1.6010438 -0.24815226
0.58626574 2.5033479 0.24146499 1.9688829 -1.6185063 2.4102867 -1.4658335 -1.2032552
0.5545125 1.6629623 -1.1678797 -0.31275633 -2.1662917 -1.2087374 0.39477906 -1.500612
0.73875135 -0.70214933 0.45463398 0.51337534 0.3150267 -0.44286147 -2.1285932 2.7945924
-0.59078544 -0.8769627 -1.275844 0.5557359 0.95148367 -0.36773482 -0.02890842 -0.41629034
-1.0813993 2.1491814 -0.2358361 0.23144284 -1.2777591 3.6720812 0.41674918 1.7379116
-1.2684755 0.2247653 -1.2111686 -1.9641829 -1.3132614 -0.7176901 1.3388563 -1.3520654
2.6552773 -0.18455906 4.318768 0.7988 1.3395084 -0.9846428 0.81411904 -0.26155925
-1.5907037 -1.2769386 1.2709975 -1.533644 2.019245 0.041136388 0.35535297 1.0156262
-0.47187135 -0.429921 -1.4644619 -1.5935628 -0.6446587 -0.99243474 -1.9345778 1.0816189
-0.659308 -1.1844213 -1.4228114 1.5640473 1.9599392 -0.18793906 -1.7848246 0.05945729
-0.2908542 -0.29096666 -0.9961411 0.12890768 0.78921807 -0.35108137 -1.3502847 -0.8178542
1.4858409 1.7223282 -1.5124123 1.7472318 -0.017685663 0.0023404073 1.1607939 -0.5181891
1.3512386 -0.45308506 -0.72706 -0.68983674 0.43809563 -1.8225554 0.23827305 -0.45777223
-0.01010069 1.7281078 0.6247594 1.6365203 2.3295121 0.25213253 -0.00986106 -1.7422751
-1.2029881 1.7276485 0.0848532 0.7983506 -0.3225097 -0.50586176 0.4059638 0.000645365
1.4721454 0.88999766 2.9247465 0.4925056 0.46108612 1.7505528 0.12048936 0.506638
-1.6246524 -0.5129911 1.0117975 -0.03733238 1.7257197 0.15367152 0.1852982 0.11991744
-0.9971297 -0.2600772 0.084043324 0.12038663 -2.276109 -1.3851233 -0.686727 0.4445298
-0.25195742 0.36769614 -0.19174072 1.1620883 -1.2441679 0.3013787 1.2019352 -0.45294234
-1.0891781 0.050847657 0.9023403 -0.37659854 0.44891003 0.00075713795 0.11370224 0.023581753
1.1328112 0.12974584 -0.78458524 -0.44907928 2.4590452 -0.52196556 0.89260167 -0.05919053
-1.0615916 0.28111017 -1.4707702 -0.454474 1.1820203 -1.4400867 0.61717343 0.5435805
1.9613143 -0.010174828 -0.11345953 0.9595854 1.3052299 1.0737659 0.4685914 -0.3893905
-0.60762095 -0.7111101 0.4733631 -0.3876614 -0.6187214 -0.16895178 -0.25495085 -0.25359684
-1.2137014 -2.3271768 0.19572625 -0.8424517 -0.58074397 0.9081924 -0.18888976 0.7008857
0.46047094 0.18603732 -1.017149 -1.3696215 -0.8907045 0.25659624 1.2577296 1.0991788
0.18055859 -0.14272733 -0.13307475 0.7082523 0.9797445 0.21287028 0.05493422 -1.2226372

transformer.encoder.layers.0.self_attn.in_proj_weight f4 [96, 32]
00000000: f38f 53bd a629 9d3e 45aa bd3d 1222 72be
00000010: d182 9abc a838 153e 5d5b 033e 021e 81bc
00000020: b75a 84be 186b 8dbd 1c46 92bc 00ba 513e
00000030: 2554 293d c027 94bd ea7c c33d 3875 df3c
00000040: 5297 893d 3d13 ef3d 8850 51be cc28 08bd
00000050: 17ef 673e d04a 3d3e 0978 81bd 264a 253e
00000060: 316e a8bc 7976 29be 2e02 5cbe 9f02 acbc
00000070: 389c c93d b0bc a4bd 82d8 04be 0575 223e
00000080: 2fbb 0fbe 7a2a 47bd 3c75 ac3c e17e ffbd
00000090: fd63 dd3d 1c4f febd 70d2 e13d 5c49 7ebe
000000a0: be3b 623e 0eb7 c13d ade4 0ebe 7c4f 213d
000000b0: 7714 8ebc e273 093e 0aeb f1bd 22e3 023e
000000c0: 5ca9 28be fe91 4d3d 8a4b 0cbc 60e2 7dbd
000000d0: b674 ef3b 38bc 13be d6b3 913c ad80 2c3e
000000e0: 4778 f23b 51ea 3fbd 9ace 653e 4413 abbd
000000f0: 3227 1fbe 7202 c23d 24fa 563d 453a 133e
00000100: 98b3 edbc 928f 67bd f1a1 873c ad73 833d
00000110: 89b7 783d 8c0b f5bd 2806 f93a 017a 403e
00000120: fb34 15be 13fb 573e b1b3 6e3d 6be4 7a3c
00000130: daa2 84bc 4400 07be c042 6cbc 058a 973c
00000140: 0b43 363d 0d12 63be 9339 183d fabf cc3d
00000150: ed88 053e d619 0cbe 535f b4bd 4322 9ebd
00000160: 4864 0bbe 5d3d a13d 6efc d6bd 0490 bbbc
00000170: ed0f b33b 6529 9bbd 6846 13be 605b 9d3b
00000180: 554d 743b da0f 3a3e 8933 3b3e 2829 05be
00000190: 17b6 80be 1518 26bd bc17 52bc 3d3a 003e
000001a0: 6e4d 1f3d 7fff b6bd 53b9 acbd 66b6 443e
000001b0: 635b 1abe caae f13c b33f 72be 4b3c d9bd
000001c0: e5f9 413e 18ff a1bd 8049 a5bd 20eb d83d
000001d0: 65e2 733e 5ef7 cb3d 2a2a 2cbd 95a9 14be
000001e0: 45c9 58bd 3284 643d 337d bcbd 288e 163d
000001f0: 8581 123d 1716 ab3d f5ee 18bc 20e4 353c
00000200: fdf0 523e ec03 303e 778f 303e 50de 253e
00000210: fd9c ea3d 1c39 01bc 4649 873d 1645 023e
00000220: 25bb f1bc 6fb6 d63d 2542 a23d 4588 533e
00000230: 4560 60be 0394 72bc 2262 3b3e 90e3 e3bd
00000240: 7fff 15be 0204 99bd 3da3 92bc cb92 febd
00000250: c5a1 0bbe 2a93 b2bd 75ab 1e3e 558f 95bd
00000260: b4ec 4abd 5ce6 8ebd eaa7 0bbe 3563 4fbd
00000270: 6d9d 64be c084 d8bd c70d d33d d026 d33c
00000280: c4c1 123e 93aa bb3d bc24 413d ea01 4e3e
00000290: 6b69 2dbe becb ecbd 7df3 9cbc fc1d 33bd
000002a0: 0708 3fbd cf79 04be bb3c ba3d d942 1abe
000002b0: de53 6b3d f0ef 49be cca4 8fbd 5de2 e33d
000002c0: f7fb 8b3e b6d2 41be 7639 4f3e e96a 063e
000002d0: d57e 47bd b301 19be a71f b8bd 5c4c 263e
000002e0: 4873 473e 4458 25be 4f32 93bd ee2e 15be
000002f0: b220 4e3e 801e 43be 559a 2e3a f611 fe3d
00000300: ba90 16be 6809 2abe 9e67 2f3e 1199 1fbe
00000310: 7a6c d4bd c294 403e 1a27 0f3d e8a5 5abe
00000320: 4239 3e3d 443a 1a3c 3dd1 af3d f1ea 143d
00000330: 977f 3cbc 4f30 52be 8e06 033e 5143 123c
00000340: a5cc 04bc 6d8b 133c a13d 923c 3c86 44bc
00000350: 7bf3 3e3d ded4 a43d c28a 143d 868f 3f3d
00000360: 9bc2 523e 8acb 403e af4c 823d 0365 3b3e
00000370: 685c 9dbd 90b9 28be 28d6 103e 822b 25be
00000380: 1620 0c3d 7c18 56be 396f 82bd eb73 483e
00000390: 5173 ce3c 300d 7f3b 12ff 453d 5e7f 93bd
000003a0: d166 1d3d b5cd c13d bb29 f53d 497a 66bc
000003b0: e575 273e efac 58bd 424c ee3d e5b9 7f3d
000003c0: 8070 dd3b 7897 153e 9074 013e b733 8abe
000003d0: 6e9c 173e 8465 c93c a3de 3abe aeea 3d3e
000003e0: 9e82 7abd 62ff 003d 335a 1e3e eb66 fc3d
000003f0: 5eef 16be 9e1b 7abd df31 063d 5c73 793d
-0.051650953 0.30695838 0.09260992 -0.2364581 -0.018861206 0.14572394 0.12827821 -0.01576138
-0.2585046 -0.06905192 -0.017855696 0.2048111 0.041340012 -0.07234144 0.0954531 0.027277574
0.06718315 0.11673591 -0.20440876 -0.033242032 0.226498 0.1848557 -0.06321723 0.16141567
-0.020560356 -0.165491 -0.21485206 -0.020997344 0.098442495 -0.08043802 -0.12973216 0.15864952
-0.14036249 -0.048624493 0.021051995 -0.12475372 0.10810087 -0.12417433 0.11026466 -0.24832672
0.22093102 0.09458743 -0.1395442 0.039382443 -0.017343743 0.13423112 -0.11812408 0.12781957
-0.16470855 0.050188057 -0.008562932 -0.061983466 0.007307614 -0.14427269 0.017785948 0.16845961
0.007399592 -0.04685432 0.22442093 -0.08353284 -0.15542296 0.09473123 0.052484646 0.14377697
-0.029016301 -0.056533404 0.016556712 0.06418548 0.060721908 -0.11965093 0.0018999027 0.18796541
-0.14570992 0.21091871 0.058276836 0.015313248 -0.016190935 -0.13183695 -0.014420211 0.01849843
0.04449753 -0.22174855 0.037164282 0.09997554 0.13040514 -0.1368173 -0.08807244 -0.07721379
-0.13612473 0.07873032 -0.10497366 -0.02289582 0.005464545 -0.07576255 -0.14382327 0.0048021525
0.0037277539 0.1817011 0.18281378 -0.13003981 -0.25138924 -0.04055031 -0.0128230415 0.12522216
0.038892202 -0.08935451 -0.08433785 0.19210204 -0.15073924 0.029502291 -0.23657112 -0.10607203
0.18942983 -0.079099834 -0.0807066 0.105917215 0.23816831 0.09959291 -0.0420324 -0.14517815
-0.05292632 0.055790134 -0.09203567 0.036756665 0.03576805 0.08353823 -0.009334316 0.0111017525
0.20599742 0.17188996 0.17242227 0.16198087 0.114557244 -0.007887151 0.06605773 0.12721667
-0.029508183 0.10484015 0.07922772 0.20657451 -0.21911724 -0.014805797 0.18299153 -0.111273885
-0.14648245 -0.074714676 -0.017900104 -0.12430342 -0.13635929 -0.087194756 0.15495093 -0.07302729
-0.049542144 -0.06977531 -0.13638273 -0.05063172 -0.22325678 -0.10572195 0.10305362 0.025775343
0.14331728 0.09163394 0.047154173 0.20117918 -0.16934745 -0.11562298 -0.019159073 -0.043729767
-0.046638515 -0.12937091 0.09093615 -0.15064563 0.05745303 -0.19720435 -0.070138544 0.1112716
0.2734067 -0.18928036 0.20236763 0.1312672 -0.04870494 -0.14942054 -0.08990412 0.16240066
0.1947757 -0.16146952 -0.0718733 -0.14568684 0.2012966 -0.19054604 0.00066605705 0.124057695
-0.14703646 -0.1660515 0.1712937 -0.15585734 -0.10372253 0.18806747 0.0349494 -0.2135235
0.046441324 0.009413306 0.08584831 0.03635687 -0.011505029 -0.20526241 0.12795469 0.008927182
-0.008105432 0.00900541 0.017851653 -0.011994895 0.04661892 0.08048414 0.036265142 0.046767734
0.20582049 0.18827644 0.063622825 0.18300252 -0.07683641 -0.16477036 0.14144194 -0.16129878
0.034210287 -0.20907778 -0.0636887 0.19575469 0.025201472 0.0038917772 0.048338957 -0.07202028
0.03842813 0.09463064 0.1197085 -0.014067241 0.16353567 -0.052899297 0.11635639 0.062433142
0.006757796 0.14608562 0.12642121 -0.2699258 0.14805767 0.02458454 -0.18248992 0.18546554
-0.061159723 0.031493552 0.15464096 0.123243175 -0.14739749 -0.061061494 0.032762405 0.06090103

transformer.encoder.layers.0.self_attn.in_proj_bias f4 [96]
00000000: f651 ecbd 017f f33c c537 e8bd 9ab5 c0bd
00000010: 1039 d23d f367 1e3d d062 34bd fcf4 f33d
00000020: 698b 67bd 53d8 5abd 0721 f4bd b075 0c3e
00000030: 6860 15be 9583 46be d691 33bd 43cc 3b3d
00000040: c57d 923d 2b78 093d 1d3f 213e 7428 b3bd
00000050: 2389 b6bd c107 31bd e32f 513d 1042 89bd
00000060: bd46 8d3d 101d 27bd 4de4 d1bd f54d 0bbe
00000070: 2e3a 6ebc 7d5a 283d ee62 bb3d c843 00be
00000080: 5792 9bbd a6d3 bd3c 7817 8c3c c631 23bd
00000090: ac5a a73c 9d86 0abd f5b3 01bd 6761 b5bd
000000a0: acdb bf3d a5f6 5cbd f149 ccbc c77c a43a
000000b0: 7f3b e33c ed57 64bc bcc6 863d e252 793d
000000c0: f164 27bc 2b81 113c 5734 403d 697d 85bc
000000d0: 994d 0abd 2f02 b2bc 53cb 8bbd 2d5b 20bd
000000e0: 0bec 8bbd 13d0 243d 12b0 2d3d f66f c63c
000000f0: 8870 013c 7b63 8fbd 871d b03d 6d4a 83bd
00000100: 1d99 6c3d 5be2 7fbd 249f 173d 39e5 a53c
00000110: 5b87 8bbd 0c1d 863c 5c9e bbbc bd0b 823d
00000120: 4d9b 023d 6261 2bbd a2b3 65bd 9f16 f1bc
00000130: 70f5 42bc 017e b33d 67d1 753c fd11 c3bc
00000140: 6c73 243d 3b63 ebbc 8e79 2cb8 8864 66bd
00000150: e8d2 483c 6eab 2c3b 91eb 323d 80c3 5dbd
00000160: bf0e c6bd f9f1 fbbc d0f7 24bd 4a86 c8bd
00000170: 86f9 383d c3c7 cbbd 1859 b43d 9d9d 2b3d
-0.1153907 0.029723646 -0.11338762 -0.09409638 0.1026479 0.038673352 -0.044039547 0.119119614
-0.056529436 -0.05342896 -0.11920362 0.13716769 -0.14587557 -0.19386132 -0.043840252 0.045849096
0.07152895 0.033561867 0.15746732 -0.0874795 -0.089128755 -0.043220285 0.05107106 -0.067020535
0.06898258 -0.0407992 -0.10248623 -0.13603957 -0.014540238 0.04110192 0.09149729 -0.12525856
-0.075962715 0.02317221 0.017101035 -0.03984239 0.020428978 -0.033819783 -0.03166576 -0.08856469
0.09368071 -0.053946156 -0.024937602 0.0012549394 0.02773833 -0.013936979 0.06580874 0.06087006
-0.010216937 0.008880894 0.046924915 -0.016295152 -0.03376541 -0.021729557 -0.068258904 -0.039149452
-0.06832131 0.040237498 0.04240424 0.024223309 0.007900365 -0.07001396 0.08599382 -0.0641068
0.057763208 -0.06247173 0.037017003 0.020250903 -0.068129264 0.016371273 -0.02290266 0.06349895
0.031886388 -0.04184092 -0.056079514 -0.029429732 -0.011899337 0.08764268 0.015003539 -0.023812288
0.040149137 -0.02873384 -4.1121202e-05 -0.056248218 0.012257315 0.0026347297 0.043681685 -0.05414152
-0.09670781 -0.03075503 -0.040275395 -0.097912386 0.04515984 -0.09950211 0.08806056 0.04189836

transformer.encoder.layers.0.self_attn.out_proj.weight f4 [32, 32]
00000000: 9f19 82bd dc2e c3bd b2aa 42bd f4e4 06be
00000010: 3998 36bd e215 82bd 9957 96be a43b 43bd
00000020: d1c5 813e 1e58 3c3e 2774 313d d78a 473e
00000030: 76b3 973d 575f 613c 5fc2 693e c100 0a3e
00000040: 44f1 0b3e 3b46 5abd 0eea 853c 5a73 38be
00000050: 635e 44bd 78aa 1c3e 6a20 983c 8ded 88be
00000060: e28b 053e 50d5 aabe 11e2 4d3d a96b 96be
00000070: 5f69 9f3d 4ed8 6a3e 8f84 0cbb a367 573c
00000080: 1992 923e d4f4 17be 8f2e 263e 955a f1bd
00000090: 3578 823e 9a20 46be d617 e2bd 6101 89be
000000a0: d259 133e 9a3b 5c3e d1c9 33be 998a d63c
000000b0: 44d7 52be 2bfd 7f3e 2432 533c 3f37 cbbd
000000c0: 744a 79bd ca90 22bd b20f 47be 3191 73be
000000d0: cfb8 0f3b e49c 61be 70aa 8abb 71ac 833c
000000e0: 6d73 e3bd e645 a03e 6526 80bc a3d1 aa3d
000000f0: ea0d 153e da5f a33d 0692 3d3d 79b7 64bd
00000100: 1dd2 8abe 5c03 0a3d f5f4 15be 552f 273e
00000110: e804 3d3e 9fde 3a3e 7e6d a2be e383 f33d
00000120: b143 883d 1387 c9bd 6e2c 1dbe d983 1abe
00000130: 8e54 9cbd 494d 1dbd 160a a7bc 6f43 a1bd
00000140: 8d29 e23d deec df3e af9b cfb8 0a07 b03d
00000150: a19c 5cbc ccc2 713e 713a 07be 087d e23d
00000160: 054e a73e 8a75 26be 4b6c cd3e a8fa 9e3e
00000170: ab4a cd3d e298 e5bd 503f 1abe 09d2 1fbe
00000180: cd10 bcbe 83a4 d5bd 4b91 15be 48a9 b33c
00000190: 54b3 583d 1937 683e a5df b83c 3496 aebe
000001a0: 6d85 75bd 34a7 103e 167d bbbd 3ccc c1bd
000001b0: ef2f b13c a5ed cabc 3008 06bd 4380 99bd
000001c0: 8a6f 743d 4a69 323d 782f 453d 5aa0 26bc
000001d0: 53d6 323e 9c8a 5b3e dc46 b53e d85d 8a3e
000001e0: 8974 48be 58d4 e03d 7ae6 63be 89db 603e
000001f0: b6dc 3cbd c7f2 803e 0d4a 0ebd 94d1 87bd
00000200: cbf3 3c3e 89cc 833e d088 17be e594 27be
00000210: e74c a7be e3fe 3b3e 8ec0 1d3d 1f62 9d3d
00000220: f0bc 42bc ef7d 433d 8bfc 23be b429 5ebc
00000230: 17ea 1d3e 8836 a63d 1b75 d1bd a154 1f3d
00000240: 1478 383e 6693 003e d3a9 4cbd a82f 003e
00000250: 2f83 133e 1868 8bbd 2aa4 b33d 8aeb 7b3e
00000260: 7367 16bc a25c 12be 9993 a7be 59d7 bdbd
00000270: 2322 1a3e f584 43bd 42fa ecbb f4c0 e43d
00000280: 7494 563e 0c7c cc3d 64e2 b7bd 3d3d 653e
00000290: 1d97 6b3e f2bc 79be 62f8 6e3e be8b 47be
000002a0: 5c29 023e a480 573d ec2f 2c3e 0f53 87be
000002b0: d494 fdbd c300 31be d199 a63e 9135 693e
000002c0: fd10 97bd a530 bdbd 752d b8bc 35f8 953a
000002d0: 8141 473e ff28 08be 93de 00bd 9222 963e
000002e0: 203d e53d 89bb 96be 6350 6dbd 0996 9dbd
000002f0: 0664 0fb8 e64b 72be bd0a cbbd e0ee eebd
00000300: 4e82 943d 9337 463d 3d61 7fbd a33f 13be
00000310: 46af 523e beb7 a3bd 1b29 083e a4bd 4ebe
00000320: 3286 463e 64d6 d4bd ee13 953c 7124 733e
00000330: 4fc0 aebd e72f 5e3e 10e6 f5bd a7f5 41bd
00000340: a515 88be 0a3c 9e3e a260 a53e e18a 0e3e
00000350: 21ca 463c 440c dd3d cfa5 18be fbea b23d
00000360: 6ffa 803d e5dc f0bd dd2e b93d 10eb 7dbd
00000370: f17b 57bd aefe 5e3e 5597 b4be 5ca0 1b3e
00000380: 1172 303d ccda 523e 406e a0bd 8be1 713e
00000390: 5140 89be fd6d 22bc dce2 55be 14b7 35be
000003a0: 58cd 603e 6a02 00bd 6efc 3dbe d2a1 2c3e
000003b0: 3649 8dbe cb8a 063c c405 493e 3408 d73d
000003c0: b2d8 683d 065e 19be a910 40be 0102 cfbd
000003d0: ff87 763e 0828 41bb 2586 0c3e e36c 28bd
000003e0: f5d1 98bd e141 bfbd c4ef b13e 5a12 e4bd
000003f0: 26a0 a13d c9b4 b9be feb1 e2bd 1f42 b13b
-0.06352543 -0.09530422 -0.04752607 -0.13173276 -0.044578765 -0.0635183 -0.29363707 -0.0476643
0.25346234 0.18392989 0.043323662 0.19486557 0.07407276 0.013755641 0.22828053 0.1347685
0.13666254 -0.053289633 0.016346958 -0.18012753 -0.047941577 0.15299404 0.018570144 -0.26743737
0.13041642 -0.3336587 0.05026442 -0.29379013 0.0778377 0.22934076 -0.0021441316 0.0131472675
0.2862709 -0.14839488 0.16228698 -0.11784855 0.25482336 -0.19348374 -0.110397026 -0.26758865
0.14389732 0.21507111 -0.17557456 0.026189135 -0.2058993 0.2499892 0.012890372 -0.09922647
-0.06086202 -0.039688863 -0.19439581 -0.23785855 0.0021930223 -0.22032505 -0.0042317435 0.016073437
-0.11106 0.31303328 -0.015643308 0.08340766 0.14556089 0.079772666 0.046281837 -0.055839036
-0.2711343 0.03369461 -0.14644225 0.1632665 0.18458903 0.18248986 -0.3172416 0.1189039
0.06653536 -0.098402165 -0.1534898 -0.15089358 -0.07633315 -0.038403783 -0.020390552 -0.0787419
0.110430814 0.43735403 -9.8995275e-05 0.085950926 -0.013465078 0.23609465 -0.13205887 0.11059004
0.32676712 -0.16255775 0.40121683 0.3105061 0.100240074 -0.11210801 -0.15063214 -0.15607466
-0.36731568 -0.10431769 -0.14606206 0.021931306 0.052905396 0.22677268 0.02256758 -0.3409897
-0.059941698 0.14126283 -0.091547176 -0.09462783 0.021629302 -0.02477152 -0.032722652 -0.07495167
0.059676684 0.043557443 0.048140973 -0.010170067 0.1746457 0.21439594 0.35405624 0.27024722
-0.19575705 0.10978001 -0.22255889 0.21958746 -0.046108924 0.25185224 -0.03473859 -0.06631771
0.18452375 0.25741985 -0.14798284 -0.16365393 -0.3267586 0.1835895 0.038513713 0.07684731
-0.0118858665 0.04772752 -0.16014306 -0.0135597475 0.1542133 0.0811587 -0.10227414 0.038899068
0.18014556 0.12556228 -0.049966644 0.1251818 0.14405511 -0.06806964 0.08771546 0.2460157
-0.009179938 -0.14293149 -0.32729796 -0.0926959 0.15052085 -0.04773422 -0.0072319815 0.111696154
0.20955068 0.099845976 -0.089787275 0.22386642 0.23006864 -0.24388483 0.23336938 -0.19486901
0.1271109 0.052612916 0.16815156 -0.26430556 -0.12381902 -0.17285447 0.32539228 0.2277434
-0.07376287 -0.09237794 -0.022482613 0.0011441769 0.19458582 -0.13296889 -0.031462263 0.2932325
0.11193299 -0.29439953 -0.05793799 -0.076946326 -3.418701e-05 -0.23661765 -0.099141575 -0.116666555
0.07251416 0.048392843 -0.062348593 -0.14379744 0.20574674 -0.079940304 0.1329693 -0.2018953
0.19387129 -0.10392454 0.01819798 0.2374437 -0.08532774 0.21697961 -0.120067716 -0.047353413
-0.26579013 0.3090518 0.32300287 0.13920166 0.012133152 0.10793355 -0.14907001 0.08736225
0.062977664 -0.11760882 0.090421416 -0.06199175 -0.052608434 0.2177684 -0.35271707 0.15197891
0.043077532 0.20591277 -0.078335285 0.23621194 -0.26806882 -0.009913919 -0.20887321 -0.1774562
0.21953332 -0.031252302 -0.18553326 0.16858605 -0.27594918 0.008211802 0.19631106 0.104996115
0.05684728 -0.14977273 -0.18756355 -0.10107804 0.24075316 -0.0029473323 0.13723047 -0.041119467
-0.07461921 -0.09338737 0.3475324 -0.11136313 0.07891874 -0.3627074 -0.110691056 0.0054094936

transformer.encoder.layers.0.self_attn.out_proj.bias f4 [32]
00000000: 6538 aa3c 06bb 95bd 4491 2abd d8e3 883d
00000010: 15b0 50bc 046c 98bd 3d11 2d3d 905f b9bd
00000020: 1a5f 9b3c ef03 613d 54b2 93bd c998 c93d
00000030: 6fdb 86bc cdb4 febb 4f46 883d 7f6e c03b
00000040: 3fc9 493e abd2 9bbc 815f e0bd dd9f 42bd
00000050: 7ae0 1abd 5381 7bbd 49c5 8ebd e8d9 31bb
00000060: a672 85bd bf21 5cbc eb1e 773c f745 013e
00000070: 663e 733d 8c58 20be efc0 75b9 46b2 823d
0.020778844 -0.073110625 -0.041642442 0.06684083 -0.012737294 -0.07442477 0.042252768 -0.0905143
0.018966246 0.054935392 -0.07211748 0.098435946 -0.016462056 -0.007773018 0.06654035 0.005872547
0.19705676 -0.019021353 -0.10955716 -0.04751574 -0.037811734 -0.06140263 -0.06971223 -0.002713794
-0.06516008 -0.01343578 0.015083055 0.12624346 0.05938568 -0.15658778 -0.00023436894 0.06381659

transformer.encoder.layers.0.linear1.weight f4 [128, 32]
00000000: 586b 8cbc 633c 03be 5e5b c43d 8e13 fa3d
00000010: aaf7 4f3e 39d2 47be 68b3 83bd 6ea6 a2bb
00000020: 9258 a03d 8883 5b3d da3d 543e 4d18 0dbd
00000030: 7d1e 423e 50dc 71bb 7729 2cbe 7264 493d
00000040: b907 283e a0ed 843e 0c52 5f3d fe66 683d
00000050: 207e 13be 413c 023d 9a96 44be 27fd eebd
00000060: ae77 593b be9b 37be ba74 fdbd 67f2 713e
00000070: 6f5b 843c c0dc acbd e14b 98bd c291 08be
00000080: 8827 2bbe ec15 d83c a3f1 ddbd 1fd2 84be
00000090: f661 303e d356 1abe c3f0 f43c b5a7 9e3d
000000a0: f376 0c3d 0d8b c5bd 52eb 2e3e 28da 48bc
000000b0: 8cb6 d13d 0373 d6bd 60df e53c e046 e7bd
000000c0: 27fe 183b 6a75 04bc 40ea 5cbd afd7 893d
000000d0: 7291 643c 9b7f 0fbe d3b8 91bd beb3 91bd
000000e0: b22f a0bd 31b0 4bba b7c9 36bb abca c2bd
000000f0: 7e7d 353e a9df 62bd d5bf 8b3e d55f 22be
00000100: c79e acbe 0058 733d cd8d 4bbe 466d f7bd
00000110: f880 933e da3a cbbb f2ac 3f3c 3aed 51bd
00000120: 6b4e 703e af7d 033d 79f8 283e 4ad4 23bd
00000130: c37c aa3d 13d9 c63d 6aa9 ba3d 0a45 01be
00000140: ec4d b13c a741 b53d 839b 1bbe 4906 1dbe
00000150: 35d5 f03d c643 c43d b349 acbc ed82 a9bd
00000160: 3904 0e3e 32a3 5abd d01b 3a3e 0766 fabd
00000170: ec51 5bbd b5b1 96bd f4f4 ce3d 4cf0 a6bc
00000180: df67 69be 2b3d 923d d8fc debd b8e6 d93d
00000190: 8033 353e de58 d7bb ee37 843d cd57 073e
000001a0: 8434 33be a5e3 acbd a5c1 8f3e 5b95 a63d
000001b0: e622 e13c e29b 16bd 1543 9fbe 12f9 05be
000001c0: 580b b8bd bb20 fb3d 238f 67be 4505 0fbd
000001d0: 0f44 753d 0299 f5bd c59a 8abd 4204 b33a
000001e0: 2809 f1bd 3046 73bd beac 75bd 3963 803d
000001f0: 31b5 363e fafc 01bd fe5d b4bd a014 3e3d
00000200: defd 923d 3be9 2fbe da10 b53c b17f 84bd
00000210: 1239 2e3d 3a84 b5bc aa67 87bd bb5d eb3b
00000220: 632e 233e 1589 a03c 4954 233c f348 f6bd
00000230: 75c2 af3d cee1 163e d560 81bd d311 253e
00000240: b254 a93d dd2c c43c ee91 853d bff6 863d
00000250: 3bc4 8cbd 4e3a 833c e546 6b3d 9c35 41bd
00000260: c9fd 343d 669a 873d 38ff c53d 264a 863e
00000270: 48ee 80bd e11a c43d dd4b 013e a144 59be
00000280: a85d ffbd ba1f b23d 7c2c fbbd 14ef 3abe
00000290: 13e2 863d f1a1 1e3e d69a 0dbe c97f 87bc
000002a0: d75a c83d 8587 75bc 1658 85bb e3e0 83be
000002b0: 5a1d d83e 215b 21be b952 043e ba2a d83b
000002c0: b72d 30bd 709d 0cbd 1386 c83b 2225 bf3b
000002d0: 1a7a 0dbe 2156 14be c5be 9a3d 09f8 1fbe
000002e0: 8391 04be ea6e 39be d148 5c3e a370 933d
000002f0: c8ea b63c a45c c13c edbd 7bbd 337a cfbd
00000300: 2dbe 30bb 7f81 20be 5d06 b33d 5a9b 953d
00000310: d87a 203d e249 e8bd 46c6 f1bc eba3 ae3d
00000320: dd22 663d 5bc5 863d 2975 423e d106 85bd
00000330: 6ecd e4bb 5ad7 27be 01f4 b0bc 506d 293c
00000340: fc8d f63d 6052 ccbb 5979 c33c 7e73 743d
00000350: b560 95bd f108 a7bd 9fc5 a6bd d982 f9bb
00000360: 984e 93be 179e 223d cea9 33bd 2170 4f3e
00000370: 08be 023e 0686 113e 71b5 92bc 79ae 0a3d
00000380: 1520 f0bd de43 12bd db79 893d 9718 dcbd
00000390: 2f02 2b3e 3558 1e3e e701 9bbd ab19 053e
000003a0: 96d6 4e3c 0a97 873e 6b7b 8abd 2888 833e
000003b0: c84e ffbc cd5d c6bd 39ed 00be 2126 b13d
000003c0: 381b c8bd 7c93 60bd 65c6 e63b 9eb0 f2bd
000003d0: 3f7b 7bbc c317 3ebe 2624 fabd 10f3 b93c
000003e0: e816 6dbe f57d 42be fcca 183e d9d6 c4bd
000003f0: bff7 9b3d a508 04bd 5c0b 7cbd 4e78 1fbd
-0.01714103 -0.12816004 0.095877394 0.12210761 0.2030932 -0.19513787 -0.064307034 -0.0049636876
0.078293934 0.053592235 0.2072672 -0.034447003 0.18956943 -0.0036904998 -0.16812693 0.049168058
0.16409196 0.25962543 0.054521605 0.056738846 -0.14403582 0.031795744 -0.19198075 -0.11669379
0.0033182907 -0.17930505 -0.123757794 0.23627625 0.01615688 -0.08440542 -0.07436348 -0.13336852
-0.16714299 0.02637764 -0.10837104 -0.2594156 0.17224869 -0.15072183 0.02989996 0.07746831
0.034293126 -0.096456625 0.17081955 -0.012259044 0.10239896 -0.104711555 0.028060615 -0.11292815
0.0023344846 -0.008084634 -0.053934336 0.067305915 0.0139506925 -0.14013521 -0.071153305 -0.07114361
-0.07821597 -0.000777009 -0.0027891228 -0.09511312 0.17723653 -0.05538908 0.27294794 -0.1585687
-0.33714887 0.059410095 -0.19878311 -0.12081389 0.28809333 -0.006202084 0.011698948 -0.051251628
0.23467414 0.032102283 0.16501035 -0.039997377 0.08324578 0.09709372 0.091143444 -0.12623993
0.021643601 0.08850413 -0.15196042 -0.15334429 0.11759416 0.09583239 -0.021031236 -0.08276925
0.13868798 -0.05337829 0.18174672 -0.122264914 -0.053544924 -0.07358114 0.10105315 -0.020378254
-0.2279353 0.07140573 -0.1088807 0.10639709 0.17695427 -0.006571873 0.0645598 0.13217087
-0.17500502 -0.08441857 0.28077427 0.08133956 0.027482461 -0.036769755 -0.31105867 -0.13083294
-0.08986539 0.12262102 -0.22613196 -0.034917135 0.05987936 -0.119920745 -0.06767801 0.0013657885
-0.117693245 -0.059393108 -0.059979193 0.06268925 0.17842557 -0.031735398 -0.0880699 0.04640639
0.071773276 -0.17178814 0.022102762 -0.06469668 0.042534895 -0.022157777 -0.06611569 0.0071828044
0.15935664 0.019596616 0.009968826 -0.12025633 0.085820116 0.14734575 -0.06317297 0.1612008
0.082681075 0.023947174 0.065219745 0.06590032 -0.068733655 0.016019013 0.057440657 -0.047170267
0.04418734 0.06621246 0.0966782 0.26228446 -0.062954485 0.09575439 0.12626596 -0.21217586
-0.124690354 0.086974576 -0.12264344 -0.18255264 0.06586089 0.15491463 -0.13828596 -0.016540425
0.09782951 -0.014985924 -0.0040693386 -0.25757512 0.42209893 -0.15757419 0.12922181 0.0065968903
-0.043012347 -0.03432983 0.0061194985 0.005833284 -0.1381611 -0.1448598 0.07555918 -0.15621962
-0.12946133 -0.18108717 0.21512152 0.07199218 0.02232875 0.023603745 -0.061460424 -0.101307295
-0.0026968822 -0.15674399 0.08741448 0.073050216 0.039179653 -0.11342217 -0.02951349 0.085273586
0.056185592 0.06580611 0.18990006 -0.06495441 -0.006982497 -0.16390744 -0.021600725 0.010341004
0.120388 -0.006235406 0.023861574 0.059680454 -0.07293836 -0.08156002 -0.08143162 -0.007614475
-0.287709 0.039701547 -0.04386311 0.20257618 0.12767804 0.14211282 -0.017908784 0.033857796
-0.11724869 -0.035709254 0.06712695 -0.10746878 0.16700052 0.15463336 -0.07568722 0.12998073
0.012624403 0.2648242 -0.06761821 0.25689816 -0.031165496 -0.0968586 -0.12590493 0.08649851
-0.097708166 -0.054828152 0.0070426934 -0.11850093 -0.015349208 -0.18563752 -0.12213926 0.022698909
-0.2315327 -0.18993361 0.14921182 -0.096112914 0.07615613 -0.032234807 -0.06153427 -0.03893309

transformer.encoder.layers.0.linear1.bias f4 [128]
00000000: 7db2 173d 5df4 b6bd 82a7 90be 7c5b 51be
00000010: 0180 64bd 1d1d 6dbe 0f24 88be 54de 7e3c
00000020: 2089 4fbe 0cd1 00be 526d 55bd 2033 04be
00000030: 2ea5 e4bd b23d 9fbd 9749 80bd 04dd 58be
00000040: 8f18 fbbd 6802 c4bd f5f3 29bd b8d4 173c
00000050: 31a3 a1bd 4856 16be 40e6 afbd 7369 abbd
00000060: e3dd 89be b01d a43c 5628 89be f7f8 c5bc
00000070: cbab adbd a565 47be aace 0dbe fa83 a9bd
00000080: 58c6 96bd 44cb dabd 24a5 82be c7b9 8cbd
00000090: 92f3 a6be fe1f 4abd 1b12 19be 1bd3 8ebc
000000a0: 1684 8cbe 71f1 3dbd 115e 413c 3802 d0bd
000000b0: d5b4 75bd 3969 d9bd a17d 64bc 6f65 33be
000000c0: bd3b 18bd 8b20 c1bd b566 8bbd c76b 59be
000000d0: 3229 e8bd 600b b7bc 50e1 7ebe df1f 43bd
000000e0: 0a65 e0bd 291b a0be acae 55bd be6d f03c
000000f0: bbeb 24bc 59d9 afbd a8b5 84be 1207 04be
00000100: a293 29be 13b5 21be 317c e5bd ef61 bbbd
00000110: c7c1 7bbe 59e1 27be fc31 a0be 1bec 17be
00000120: 824d d9bd 9b3d 61bd 7511 57be a808 90bd
00000130: bbcc 20be f6b3 87be 8fa6 4fbe 3262 24bd
00000140: d34a 16be d4a5 8dbe 4dc0 d6bc ab4e f6bc
00000150: cc90 1dbe 2ae4 2cbc b428 13be c36e c9bc
00000160: ec82 27be 0578 8ebe 4c6a 9ebd db40 27be
00000170: cc40 48be 66ea 793b 60c7 56be e33a 41be
00000180: 2b82 41be c5b4 773d 847f 0bbe 0910 4dbe
00000190: da37 6cbd 0379 5ebe ae67 01be 0456 05be
000001a0: f566 2abe ebd1 22be 001d c8bd 23ad 95bd
000001b0: 4028 643d 2fa8 853b 800f 9cbd 1788 92be
000001c0: e317 37bd e455 c7bd 91ff 0dbd 51c1 0fbe
000001d0: 3b11 a0bd d590 0fbe df11 54bd b1b1 19be
000001e0: 05cf 3ebe 2231 a0bd 8414 78bd ef5f e9bd
000001f0: 9ad7 48be b5c7 63be 80a7 4f3d d165 20bc
0.037035454 -0.08933327 -0.28252798 -0.20445055 -0.055786137 -0.23155637 -0.2659001 0.015555937
-0.20267153 -0.12579745 -0.05210621 -0.12910128 -0.11164318 -0.07775439 -0.06264036 -0.21178061
-0.122605436 -0.095707715 -0.04149242 0.009267025 -0.078924544 -0.14681351 -0.085888386 -0.08369722
-0.269271 0.020033687 -0.26788586 -0.024166567 -0.084800325 -0.19472368 -0.13848367 -0.08277126
-0.0736205 -0.10683301 -0.25516617 -0.06871372 -0.32607704 -0.049346916 -0.14948313 -0.017434647
-0.27444524 -0.046372835 0.011802212 -0.10156673 -0.059986908 -0.10615773 -0.013945968 -0.17519163
-0.037166346 -0.09430035 -0.06806699 -0.2123252 -0.113359824 -0.022344291 -0.24890637 -0.047637817
-0.10956772 -0.31270722 -0.052168533 0.029349204 -0.010065968 -0.08586378 -0.25919843 -0.12893322
-0.16560224 -0.1579173 -0.11205328 -0.09149539 -0.24585639 -0.16394557 -0.31288135 -0.14836161
-0.106104866 -0.054990392 -0.21002753 -0.07032901 -0.15703098 -0.26504487 -0.20278381 -0.04013271
-0.1467698 -0.2766558 -0.026214743 -0.030066809 -0.15387267 -0.010552445 -0.14370996 -0.024588948
-0.16358536 -0.27825943 -0.07735118 -0.16333334 -0.19555968 0.0038134097 -0.20974493 -0.1887012
-0.18897311 0.06047513 -0.13622862 -0.20025648 -0.05767045 -0.2172585 -0.12637207 -0.13021094
-0.16640837 -0.1590039 -0.09771156 -0.07308414 0.055702448 0.004078887 -0.07620144 -0.28619453
-0.044700515 -0.09733179 -0.034667555 -0.14038588 -0.078157865 -0.14020093 -0.051774856 -0.1500919
-0.18633659 -0.07821871 -0.06056644 -0.11395251 -0.19613495 -0.22244151 0.05069685 -0.0097899
