Models/071223/2_encoderForced.pth (torch, 154237 bytes, 40 tensors)

encoder_embedding.weight f4 [47, 32]
0	0xbfe3429b	-1.7754701
1	0x3e4330dd	0.19061609
2	0xbfc95b81	-1.573105
3	0x3e582221	0.21106769
4	0x3e9f6b72	0.31136662
5	0x3d0bd32c	0.034136936
6	0x3f77fb4b	0.9686782
7	0x3fe07869	1.7536746
8	0xbece93a7	-0.40347025
9	0xbf10daec	-0.5658405
10	0x3f7aaf93	0.97924155
11	0x3d7d638b	0.06186251
12	0x3f060c91	0.52362925
13	0xbf2d2021	-0.6762715
14	0xbffd113e	-1.9770887
15	0xbe40aa62	-0.18814996
16	0xbef278ab	-0.47357687
17	0x3f8dc54d	1.1075836
18	0xbf91bfcc	-1.1386657
19	0x3f53295c	0.82484984
20	0x3f3311b8	0.6994891
21	0xc00549dc	-2.082633
22	0x3e0a5731	0.13509823
23	0xbf27598c	-0.6537101
24	0xbfb2720d	-1.3941056
25	0x3ff724df	1.9308127
26	0xbf47f7dd	-0.78112584
27	0xbf969865	-1.1765257
28	0x3f1cf9f9	0.6131893
29	0x3e0bce13	0.1365283
30	0xbf6fb867	-0.9364075
31	0x00000000	0.0
32	0x3fb3551e	1.4010351
33	0x3eca4b44	0.39510548
34	0x3fa9a2da	1.3252823
35	0x3d858702	0.06519891
36	0xbfc41dfa	-1.5321648
37	0xbf37a855	-0.7174123
38	0x3e869edd	0.26293078
39	0xbfcbd590	-1.5924549
40	0x40114cf7	2.2703226
41	0xbda24bf4	-0.07924643
42	0xbf3ab5a7	-0.7293343
43	0x3f9e6184	1.237351
44	0xbd6e4d3b	-0.05817912
45	0x3e739f53	0.23791246
46	0x3f89206b	1.0713018
47	0x3f40000a	0.7500006
48	0xbeb1e113	-0.3474203
49	0xbecaf633	-0.3964096
50	0xbf38173e	-0.71910465
51	0x3e6d80ed	0.23193713
52	0xbfade888	-1.3586588
53	0xbfb62a55	-1.4231669
54	0x3e07786d	0.13229533
55	0x3e4e95cd	0.20174332
56	0x3edc8885	0.43072906
57	0x3f320249	0.69534737
58	0x3ec49c95	0.38400713
59	0xbf7c262e	-0.9849576
60	0x3f09de27	0.538546
61	0xbff4c316	-1.9122036
62	0xbf4cdbf1	-0.80023104
63	0x00000000	0.0
64	0x3f44db25	0.7689689
65	0x3f88927e	1.0669706
66	0xbf6dd9a9	-0.9291025
67	0x3ea24dcc	0.3169998
68	0x3f3b8ef8	0.7326503
69	0x3f4f0919	0.80873257
70	0x3fa6f513	1.3043541
71	0xbfd5f95d	-1.6716725
72	0x3f063252	0.5242053
73	0xbf2b647c	-0.669502
74	0x3fc1c388	1.5137796
75	0xbfabff65	-1.3437315
76	0x3f3ed6e1	0.7454663
77	0x3f179625	0.5921348
78	0x3fc83526	1.564122
79	0x3edfc766	0.43706816
80	0x3f892c4e	1.0716646
81	0xbeba76ca	-0.36418754
82	0x3f0862de	0.5327586
83	0xbf1e3df3	-0.61813277
84	0x3f2c67a1	0.67345625
85	0x3ee06ae3	0.43831548
86	0xbfea676c	-1.8312812
87	0xbf25ff30	-0.6484251
88	0x3ff8c4eb	1.9435095
89	0x3f6418a8	0.8910012
90	0x3f255c54	0.64594007
91	0x3f852179	1.040084
92	0xbe8b5ddd	-0.2722005
93	0xbf8e7f29	-1.1132556
94	0x3edfedba	0.43736058
95	0x00000000	0.0
96	0xbeab648b	-0.33475146
97	0xbf2fb2d9	-0.68632275
98	0x3f229f63	0.63524455
99	0x3f89b4cc	1.07583
100	0x3e71beaf	0.23607896
101	0xbfbb8323	-1.4649395
102	0xbec08f53	-0.37609348
103	0x3dbf8a98	0.093526065
104	0x3fd1eaeb	1.6399816
105	0x3df5ec1f	0.12007927
106	0x3f7b4c02	0.98162854
107	0x3fa7ddb6	1.3114536
108	0xbf02c683	-0.51084155
109	0xbc0c990c	-0.008581411
110	0x3f166fbf	0.5876426
111	0x3f508779	0.81456715
112	0x3f815687	1.0104531
113	0x3f07dd80	0.5307236
114	0x3f16aaf3	0.588546
115	0xbdb270b2	-0.08712901
116	0xbf2cc722	-0.6749135
117	0xbf05685d	-0.5211237
118	0x3ceaa96d	0.028645242
119	0xbe621197	-0.22077022
120	0x3f17509d	0.5910738
121	0x3e95f067	0.29284975
122	0xbdc6a90b	-0.09700211
123	0xbf8d3fec	-1.1035132
124	0x406af791	3.6713603
125	0x3f4d978d	0.80309373
126	0xbfb1e44d	-1.3897797
127	0x00000000	0.0
128	0xbdbee32e	-0.09320675
129	0x3fb5787b	1.4177393
130	0x3e1722e0	0.14759398
131	0xbe7e2663	-0.24819331
132	0x3f9da8b5	1.231711
133	0xbe004396	-0.12525782
134	0xbfb1db37	-1.3895024
135	0x3ede5740	0.4342594
136	0xc0069166	-2.1026244
137	0x3fb7caf1	1.4358808
138	0xbe3cc007	-0.18432628
139	0x3f85d77b	1.0456384
140	0xbf1beebf	-0.6091117
141	0xbe9d541b	-0.3072823
142	0x3f57a093	0.8422939
143	0xbf8f1049	-1.1176845
144	0xbf575f02	-0.84129345
145	0xbeaf6f0e	-0.34264416
146	0x3edb0cd0	0.42783213
147	0xbfb82a37	-1.4387883
148	0xbf172123	-0.5903494
149	0xbeffd32c	-0.499658
150	0xbf624ad9	-0.8839546
151	0x3ec2b07c	0.38025272
152	0xbfc0bea0	-1.5058174
153	0x3f0b917e	0.5451888
154	0x3f1bc96a	0.6085421
155	0xbe75e8f3	-0.24014644
156	0x3dc22202	0.09479143
157	0xbf9913eb	-1.1959203
158	0x3da43300	0.0801754
159	0x00000000	0.0
160	0xc040f731	-3.0150874
161	0xbf9462b3	-1.1592621
162	0xbf1412a6	-0.57840955
163	0x3e781504	0.24226767
164	0x3ef8eecb	0.48619685
165	0xbf8bb68e	-1.0915086
166	0x3f1af4ca	0.6052977
167	0x3f747b63	0.95500773
168	0x3f68e967	0.90981144
169	0x3eaa377c	0.33245456
170	0xbf6f68e8	-0.9351945
171	0x3f0ee94c	0.5582473
172	0xbf8ccee2	-1.1000636
173	0xbf1b62fa	-0.606979
174	0x3f64b561	0.8933926
175	0x3e86d511	0.26334432
176	0xbfaa3734	-1.3298097
177	0xbd937b45	-0.07201246
178	0x3f27d871	0.6556464
179	0xbe091ef8	-0.1339072
180	0x3f18ea93	0.5973293
181	0x3faf7f85	1.3710791
182	0x3f5de8e7	0.86683506
183	0xbed75123	-0.4205409
184	0x3e38b77d	0.18038745
185	0x3f9488eb	1.1604284
186	0xbeda07ff	-0.42584226
187	0xbfdce3ce	-1.725702
188	0x3d6c5321	0.057696465
189	0xbec13872	-0.37738377
190	0x3f8a9630	1.0827084
191	0x00000000	0.0
192	0x3e7281d6	0.23682341
193	0xbe71f9da	-0.23630467
194	0xbf2020dc	-0.6255014
195	0xbf332a85	-0.69986755
196	0x3ea07a7d	0.3134345
197	0xc010b042	-2.260758
198	0xbff47694	-1.9098687
199	0x3e8f3260	0.2796812
200	0xbe296092	-0.16540745
201	0x3f2181f4	0.6308892
202	0xbfc41502	-1.5318911
203	0x3fce6829	1.6125537
204	0x3f5b48fa	0.8565823
205	0x3c0f17d4	0.008733708
206	0xbf128e49	-0.5724836
207	0xbf85b30c	-1.0445266
208	0xbf1e7e6c	-0.61911654
209	0x40131d2a	2.298655
210	0xbf2192f2	-0.63114846
211	0xbfc410d9	-1.5317641
212	0x3f459358	0.77177954
213	0xbf99da02	-1.2019656
214	0xbed9d907	-0.4254839
215	0xbfc1228b	-1.5088667
216	0xbf165ad1	-0.58732325
217	0x3fcfb7cc	1.6227965
218	0x3d3871db	0.045030456
219	0x3eab22ba	0.33424932
220	0x3d7909a8	0.060800225
221	0xbe84bf57	-0.2592723
222	0xbf7c2cab	-0.9850566
223	0x00000000	0.0
224	0x40141903	2.3140266
225	0x3ed6d8e8	0.4196236
226	0xbf0bfee4	-0.5468581
227	0x3f55fe8c	0.8359153
228	0x3f1008eb	0.5626361
229	0x400acde4	2.1688166
230	0x3f25d72b	0.64781445
231	0x3eefcdf0	0.46836805
232	0xbec09173	-0.3761097
233	0x3f7d2c19	0.9889541
234	0xbf289449	-0.65851265
235	0x3f1a4ad5	0.60270435
236	0xbd68476a	-0.05670873
237	0xbf26dc6a	-0.65180075
238	0xbf477ae6	-0.77921903
239	0x3d9f69e9	0.07783873
240	0x3ec58c74	0.3858372
241	0x3ff0604a	1.8779385
242	0xbfac48a8	-1.3459673
243	0xbf423bc4	-0.75872445
244	0xbf14bbe9	-0.5809923
245	0x3e0cc0bd	0.13745399
246	0x3e81cea8	0.2535298
247	0x3e568143	0.20947747
248	0xbf4e6cc0	-0.8063469
249	0xbf0bf4a2	-0.54670155
250	0xbfbfc34c	-1.4981475
251	0x3f0e2d47	0.5553784
252	0xbf2f58a0	-0.68494606
253	0xbef83aec	-0.48482454
254	0xbdea2c3d	-0.11434219
255	0x00000000	0.0

decoder_embedding.weight f4 [45, 32]
0	0x3d187888	0.037224323
1	0xbf40437d	-0.7510298
2	0xbf68bbf6	-0.90911806
3	0x3ef7ad01	0.4837418
4	0x3f9977f7	1.1989735
5	0xbf4a582d	-0.79040796
6	0x3fe28ea4	1.769978
7	0x3f35df75	0.71044093
8	0x3f2a67f2	0.6656486
9	0xbfdb0d55	-1.7113444
10	0xbf0f86a7	-0.5606484
11	0xbfa0f84a	-1.2575772
12	0xbf27671c	-0.6539171
13	0x3f6536ed	0.89536935
14	0xbf14a510	-0.58064365
15	0xbe5eea0e	-0.21768972
16	0x3f8ab84c	1.0837493
17	0xbe738a4c	-0.23783225
18	0xbc6a09a1	-0.014284522
19	0x3f187e58	0.59567785
20	0x3e544360	0.20728827
21	0x3ee00741	0.43755534
22	0x3dfc961e	0.1233332
23	0x3f75380c	0.95788646
24	0xbf8678cb	-1.0505613
25	0x3f6fbedf	0.9365062
26	0x3deb1a6d	0.1147965
27	0xbf85a451	-1.044077
28	0x3f77047a	0.96491206
29	0xbf005e9f	-0.5014438
30	0x3f931ebc	1.1493754
31	0xbf6a445a	-0.91510546
32	0x3f62b521	0.8855763
33	0xbf8b4509	-1.0880443
34	0x3e56a915	0.20962937
35	0xbf250381	-0.6445847
36	0xbec68aa9	-0.38777664
37	0x3e32a2d0	0.1744492
38	0xc029bd07	-2.6521623
39	0x3fe8b210	1.817934
40	0xbeb5e060	-0.35522747
41	0x3e6d9fe8	0.2320553
42	0x3f122c73	0.57099074
43	0xbede2bf4	-0.4339291
44	0x3e421785	0.18954284
45	0x3dbd587d	0.092453934
46	0xbf10cbcd	-0.56560975
47	0x3f22a055	0.635259
48	0xbeeb69c8	-0.45979142
49	0x3f452b3e	0.7701911
50	0xbd8e82a6	-0.06958513
51	0x3f376e38	0.71652555
52	0x3eb424d9	0.35184363
53	0xbf5712c5	-0.84013015
54	0xbdb62c0c	-0.0889512
55	0x3f8847f3	1.0646957
56	0xbf214d19	-0.63008267
57	0xbf3783e4	-0.71685624
58	0x3ee589f9	0.44831827
59	0x3e331eaa	0.17492166
60	0x3e810fdc	0.25207412
61	0xbde83692	-0.113385335
62	0xbf894f32	-1.0727293
63	0x3f3beaad	0.7340496
64	0xbe8bdff0	-0.27319288
65	0x3e3ce04c	0.18444937
66	0xbee79eb8	-0.4523828
67	0x3e209aac	0.15684003
68	0xbf5909db	-0.84780663
69	0xbf7041d1	-0.9385043
70	0xbf275f6a	-0.65379965
71	0x3fe1fff7	1.7656239
72	0x3e800cb1	0.25009683
73	0xbe5d9126	-0.21637401
74	0xbfbca35a	-1.4737351
75	0xbf5d4edc	-0.86448455
76	0x3f8dfac8	1.1092157
77	0x3f101d48	0.5629468
78	0xbf9d49c4	-1.2288136
79	0xbd849580	-0.06473827
80	0xbf99677d	-1.1984707
81	0xbef2170e	-0.47283214
82	0x3f7dd834	0.99158025
83	0xbe9654cc	-0.2936157
84	0xbeb0e38d	-0.34548607
85	0xbfc3b2eb	-1.5288976
86	0x3f1af7d4	0.60534406
87	0xbfa0394a	-1.2517483
88	0xbf769ac1	-0.96329886
89	0xbe4dfbcb	-0.20115583
90	0x3dd87de2	0.10570885
91	0x3ef8c027	0.485841
92	0x3dbd70d5	0.092500366
93	0x3d60116c	0.054704115
94	0x3ec4197d	0.38300696
95	0xbfcf7257	-1.6206769
96	0x3f256a0e	0.6461495
97	0x3f9233b1	1.1422025
98	0x3f890d70	1.0707226
99	0x3f0e40b6	0.5556749
100	0xbf2d2e9f	-0.67649263
101	0xbf173757	-0.59068817
102	0xbfc2d5d3	-1.5221504
103	0xbe1acc00	-0.15116882
104	0xc0220fca	-2.5322137
105	0x3f3983b4	0.7246659
106	0x3f0bc31e	0.545946
107	0xbf4dc605	-0.8038028
108	0xbf509a5b	-0.8148553
109	0x3d46f949	0.04857758
110	0xbf66dcc8	-0.90180635
111	0x3e8dc0a6	0.27686042
112	0xc0251d26	-2.579904
113	0x3fafa6f3	1.3722824
114	0x3ee12d16	0.4397971
115	0xbf511f53	-0.8168842
116	0xbf5d85c0	-0.8653221
117	0x3f4061b6	0.75149095
118	0x3f30a553	0.69002265
119	0xbf3a1160	-0.7268276
120	0x3ea6bd7c	0.3256644
121	0x3f9e4dd7	1.2367505
122	0x3edb4ccd	0.42832032
123	0x3f62dadf	0.8861522
124	0xbfdd53db	-1.7291216
125	0x3ebb2e7b	0.365589
126	0xbf372acd	-0.71549684
127	0xbb35e45e	-0.0027754526
128	0x3e72ff87	0.23730288
129	0xbfc22c0e	-1.5169694
130	0xbe03bb34	-0.12864381
131	0x3d825589	0.06363971
132	0x3e9d6e47	0.30748197
133	0x3f4f76b0	0.8104048
134	0x3efca51b	0.49344715
135	0xbe24f22d	-0.16108008
136	0x3bbb680d	0.005719191
137	0x3e54244f	0.20716976
138	0x3ecd02f4	0.40041316
139	0xbe9e6bca	-0.30941612
140	0x3f381e7c	0.71921515
141	0xbea605e3	-0.32426366
142	0x3f8c4db3	1.0961212
143	0xbe98eecb	-0.29869685
144	0x3f25fb76	0.64836824
145	0x3f049877	0.5179514
146	0xbf08bd9f	-0.5341434
147	0x3f0656d6	0.5247625
148	0xbf3c8141	-0.73634726
149	0xbf5f5916	-0.8724531
150	0x3f846ab3	1.0345062
151	0xbdd985ad	-0.106212
152	0x40006267	2.006006
153	0x3c500abb	0.012697871
154	0x3f836697	1.0265683
155	0x3f6633e7	0.89922947
156	0x3f6053e0	0.87627983
157	0x3f15f535	0.5857728
158	0xbbfae00a	-0.007656102
159	0x3f7d14a7	0.9885964
160	0x3efcd587	0.49381658
161	0xbf36cf8c	-0.7141044
162	0x3f38b764	0.7215483
163	0x3f519acc	0.81876826
164	0x3ea4dc32	0.32199246
165	0x3f21580a	0.6302496
166	0x3d47a2e6	0.048739336
167	0xbf5d3b70	-0.8641882
168	0x3fc67019	1.550296
169	0x3f12584f	0.57166
170	0xbf808d6a	-1.0043156
171	0x3fb04786	1.3771827
172	0xbd52bcbd	-0.051449526
173	0xbd7a1f39	-0.061064932
174	0x3ed2e0b5	0.41187063
175	0x3f126b50	0.57194996
176	0xbe3acb9b	-0.18241732
177	0x3f14904d	0.58032686
178	0xbed97a3f	-0.4247608
179	0x3e0f0537	0.13966833
180	0x3f90ccd9	1.1312515
181	0x3ebd0fc5	0.36926094
182	0x3f846d35	1.0345827
183	0x3e029f32	0.1275604
184	0x3db23bf5	0.08702842
185	0xbf0e9a9a	-0.55704653
186	0x3dc9db37	0.09856265
187	0xbe409eb1	-0.18810536
188	0x3face8b3	1.3508514
189	0xbffc26e4	-1.9699368
190	0x3de6c566	0.112681195
191	0x3f68e4a2	0.90973866
192	0xbdc9df5b	-0.09857055
193	0xbfac139d	-1.3443485
194	0xbfa91ac1	-1.321129
195	0xbdcf02f6	-0.10107987
196	0xbe12fb1f	-0.14353608
197	0xbf4b1401	-0.793274
198	0x3f867eec	1.0507483
199	0xbebe234f	-0.37136313
200	0xbf9aacb6	-1.2083957
201	0x3e4b150f	0.19832252
202	0xbe64b973	-0.22336368
203	0x3fc1c9d1	1.5139714
204	0xbf9421a6	-1.1572769
205	0x3e1eb9d4	0.15500575
206	0xbf3234d0	-0.69611835
207	0x40003cae	2.0037036
208	0xbd9b69c1	-0.0758853
209	0x3e594731	0.21218564
210	0xc02eedd3	-2.7332656
211	0xbe6ae182	-0.22937587
212	0xbf2ee0ae	-0.68311584
213	0x3ee7c47a	0.45267087
214	0xbe8a3636	-0.26994485
215	0xbd5aa533	-0.053380203
216	0x3fd88e7e	1.6918485
217	0xbf15698d	-0.5836418
218	0x3edd0387	0.43166754
219	0x3fe9821e	1.8242834
220	0x3fc32b99	1.524768
221	0x3f6700e6	0.90235746
222	0x3f139a9a	0.5765778
223	0x3f17d43e	0.5930823
224	0xb9be1486	-0.00036254915
225	0x3eae4933	0.34040222
226	0xbf818c5d	-1.012096
227	0xc00a6ec9	-2.1630118
228	0x3f428114	0.7597821
229	0x3e5e4ec8	0.2170974
230	0xbf73903b	-0.95141953
231	0xbf336aa3	-0.7008459
232	0x3fbc4244	1.4707723
233	0xbe197565	-0.14986189
234	0xbddc8dd1	-0.10769237
235	0x3fa93f8c	1.3222518
236	0xbec84127	-0.39112207
237	0x3fb82061	1.4384881
238	0x3f73a95b	0.9518029
239	0xbf2d1554	-0.6761067
240	0x3ebcf16d	0.36902943
241	0xbf3deaf6	-0.74186647
242	0x3eeb95c0	0.46012688
243	0x3e1bd9d4	0.15219814
244	0x3e0ad917	0.13559376
245	0xbed22595	-0.41044298
246	0x3f0848b3	0.5323593
247	0x3f218df9	0.6310726
248	0xbd1eba32	-0.03875179
249	0x3dbd6aa0	0.09248853
250	0xbf762e0f	-0.9616403
251	0xbe8084c8	-0.25101304
252	0x3f4f069d	0.80869466
253	0xbfc06a6b	-1.5032476
254	0xbee5b03c	-0.4486102
255	0xbe2015ff	-0.15633391

encoder_pos_embedding.weight f4 [8, 32]
0	0xbccdcf80	-0.025123358
1	0xbf170e10	-0.5900583
2	0x3f96c546	1.1778953
3	0x3fbf8b19	1.4964324
4	0xbf4d21ab	-0.801295
5	0x3ffd64fc	1.9796443
6	0xbf18dfbf	-0.5971641
7	0x3ee05e3d	0.43821898
8	0xbec34c32	-0.3814407
9	0x3f0f8a89	0.5607076
10	0x3e63b93a	0.22238627
11	0xbf5af10d	-0.85524064
12	0xbfe1beaa	-1.7636311
13	0xbf3d0c0e	-0.7384652
14	0xbe63c01e	-0.22241256
15	0xbed5748e	-0.41690487
16	0xbe0216e3	-0.12704043
17	0x3e6372d9	0.2221178
18	0x3e957862	0.29193407
19	0xbf50c5d6	-0.81551874
20	0xbbbdcaca	-0.0057919966
21	0xbf8c3c5c	-1.095592
22	0xbf1da1b1	-0.61574847
23	0xbf9659a1	-1.1746103
24	0x3fa10121	1.257847
25	0x3ed950cd	0.4244446
26	0x3ea02386	0.31277102
27	0x3faf4bc0	1.3694992
28	0xbeb169ae	-0.3465094
29	0x3e923e42	0.28563124
30	0x3f755f2f	0.95848364
31	0x3f8ecb3a	1.115577
32	0x3f1c41bc	0.610378
33	0xbb062d9c	-0.0020473963
34	0xbe2003c0	-0.1562643
35	0x3ffb1afe	1.9617612
36	0x3ee25109	0.4420245
37	0x3fbaf77e	1.4606779
38	0x3f0a368e	0.53989494
39	0xbfc548c8	-1.5412836
40	0x3fcbae37	1.5912541
41	0xbfe55c40	-1.7918777
42	0x3e316ce4	0.17326695
43	0xbf82e2da	-1.022548
44	0x3db235ef	0.08701693
45	0x3c02c2a3	0.007980975
46	0x4004d43d	2.075454
47	0x40350203	2.8282478
48	0xbec5f827	-0.38665888
49	0xbf22dff3	-0.6362297
50	0xbf333069	-0.69995743
51	0xbf6ed78f	-0.93297666
52	0x3e82f19f	0.25574967
53	0xbcab0651	-0.020877035
54	0xbee5f8f0	-0.44916487
55	0x3faa9f3a	1.3329842
56	0x3f33b9a0	0.70205116
57	0x3ff9bf9a	1.9511597
58	0xbf1ac90a	-0.6046301
59	0x3e8bd32f	0.27309558
60	0x3ee38c37	0.44442913
61	0x3edd73af	0.43252322
62	0xbe7796ad	-0.24178572
63	0xbc0cb5f4	-0.008588303
64	0x3ecb2fed	0.39685002
65	0x3e82344c	0.25430524
66	0x3f8edbfb	1.1160883
67	0xbc373273	-0.011181462
68	0xbfa2ef39	-1.2729255
69	0xbfd9c577	-1.7013386
70	0xbc21980b	-0.00986291
71	0x3e4fc18e	0.20288679
72	0x3d3f89c6	0.04676225
73	0xbfaf62b6	-1.3701999
74	0xbfa6372a	-1.2985585
75	0x3e6f94fe	0.2339668
76	0xbf01f29a	-0.50760806
77	0x3ef969e2	0.48713595
78	0x3ffc1213	1.9693016
79	0xbfdbf328	-1.718358
80	0x3e8305c5	0.2559034
81	0xbf4fa6bb	-0.81113786
82	0x3fad9d60	1.3563652
83	0xbf1716a8	-0.59018946
84	0x3fe06b10	1.7532673
85	0x3ffa4684	1.955277
86	0x3f578553	0.8418781
87	0x401a1dde	2.408073
88	0xbf764d81	-0.9621201
89	0xbfbefefd	-1.4921566
90	0xbf166cd0	-0.58759785
91	0xbec53575	-0.38517347
92	0xbf1cf162	-0.6130582
93	0xbe95cb5f	-0.29256722
94	0x3ef7a640	0.48369026
95	0xbf6ccbd5	-0.92498523
96	0x3fbb6eff	1.4643248
97	0x3f1eca38	0.6202731
98	0x3e6612e8	0.2246815
99	0x3f056f24	0.5212271
100	0xbfa7a488	-1.3097086
101	0xc01b4468	-2.4260502
102	0xbf1a1c95	-0.6019986
103	0xbeaaa403	-0.33328256
104	0xbeade1af	-0.33961245
105	0x3e8669ac	0.26252496
106	0x3d301598	0.042989343
107	0xbeec2684	-0.46123135
108	0xbb5744a3	-0.0032847307
109	0x3f4368a6	0.76331556
110	0x3f4a4c99	0.7902313
111	0xc032f9c5	-2.7964947
112	0xbf34ba59	-0.70596844
113	0x3dc746c1	0.09730292
114	0xbfb84743	-1.4396747
115	0xbebabb93	-0.36471233
116	0xbf62d0a9	-0.8859964
117	0xbeebdeb8	-0.46068358
118	0xbeb42f11	-0.3519216
119	0xbf02e374	-0.51128316
120	0xbead21f8	-0.3381498
121	0xbeabd19f	-0.33558366
122	0x3f38a87d	0.7213209
123	0xbe3d32fa	-0.18476477
124	0xbf809c39	-1.0047675
125	0x3e840b04	0.25789654
126	0x3f009712	0.50230515
127	0x3f9dd5d3	1.2330879
128	0xbe415963	-0.18881755
129	0xbf5f60e4	-0.8725722
130	0xbfef71bd	-1.8706585
131	0x3f55f8de	0.83582866
132	0x3f144a94	0.579263
133	0x3ec7087f	0.3887367
134	0xbf03e572	-0.5152198
135	0xbfb84665	-1.4396483
136	0xbeefe2b5	-0.4685265
137	0xbf8db1ce	-1.1069887
138	0xbc9b1f19	-0.018935727
139	0xbc205577	-0.009786001
140	0x3e474a17	0.19461857
141	0x3eed0631	0.46293786
142	0xbefcae7d	-0.49351874
143	0x3f5de2ad	0.86674005
144	0x3e11fbdf	0.14256237
145	0xbedfc2c2	-0.43703276
146	0xbeb27778	-0.34856772
147	0xbf88ef37	-1.0698003
148	0x3f4067c5	0.7515834
149	0x4051f9c3	3.2808692
150	0xbd4da753	-0.0502084
151	0xbfb848e7	-1.4397248
152	0xc000cb10	-2.012394
153	0xbe80b5f0	-0.25138807
154	0x3dc67543	0.09690335
155	0xbdbea92e	-0.09309612
156	0xbe49dbe8	-0.19712794
157	0xbf36b850	-0.7137499
158	0xbf5d7515	-0.8650678
159	0x3f808970	1.0041943
160	0x3ec2ccec	0.38046968
161	0x3f515668	0.8177247
162	0x3f177308	0.591599
163	0x3f1995ca	0.59994185
164	0xbfdd98dd	-1.7312275
165	0xbfb79686	-1.4342811
166	0x3def0b0f	0.11672031
167	0xbf9fdd0b	-1.2489332
168	0x3e8ab4cf	0.2709107
169	0x3f5af678	0.8553233
170	0x3fa462b4	1.2842622
171	0xbfaa4acc	-1.3304076
172	0x3ebe5782	0.37176138
173	0xbe44d6cc	-0.19222564
174	0x3f830957	1.0237225
175	0x3f9e1304	1.2349553
176	0xbfaf858b	-1.3712629
177	0xbf66432c	-0.89946246
178	0x3efc26ba	0.49248296
179	0x3fe46c93	1.7845634
180	0x3e84def5	0.25951353
181	0xbf654832	-0.89563286
182	0xbe14dc0e	-0.14537069
183	0x3fc8e6e7	1.5695466
184	0xbeb56db9	-0.35435274
185	0x3f394084	0.7236407
186	0xbd7c9ada	-0.061671115
187	0xbfe78407	-1.8087167
188	0x3e7a56cb	0.24447171
189	0xc049e34a	-3.1544976
190	0xbe093977	-0.13400827
191	0x3f46e294	0.7768948
192	0x3f50c063	0.8154356
193	0xbeec04fb	-0.4609755
194	0xbfd9cbf0	-1.7015362
195	0x3f624876	0.88391817
196	0x3f31d8e5	0.6947158
197	0x3f79657c	0.9742048
198	0xbf430dbc	-0.7619283
199	0xbe50786f	-0.20358442
200	0xc01449e7	-2.3170106
201	0xbfe58527	-1.793126
202	0x3fac167e	1.3444364
203	0xbfed2d1d	-1.8529392
204	0xbf5da5d3	-0.8658115
205	0xbc505c06	-0.012717253
206	0xbeb98ba3	-0.36239347
207	0x3f328a82	0.69742596
208	0xbe58bd07	-0.21165858
209	0xbfdc2a11	-1.7200338
210	0xbea2c976	-0.31794327
211	0x3ea41202	0.3204499
212	0x3df82a59	0.12117452
213	0x3e8c6042	0.2741719
214	0x3f8be189	1.0928203
215	0xbf5da83c	-0.8658483
216	0xbee441df	-0.44581506
217	0x3f1504b1	0.58210284
218	0x3f912de7	1.1342133
219	0x3f642379	0.89116627
220	0x3e182375	0.14857276
221	0x3feb74d5	1.8395029
222	0xbf4e0964	-0.8048308
223	0xbfb34eac	-1.4008384
224	0xc0260279	-2.593901
225	0x3f99fb42	1.2029803
226	0xbf8c4a94	-1.096026
227	0xbeb05534	-0.34440005
228	0x3ef5c7e7	0.48004076
229	0x3fa8c65e	1.3185537
230	0x3c3c5eb3	0.011497187
231	0xbe4ee95a	-0.20206204
232	0x3e1c93f3	0.15290813
233	0xbd5a581b	-0.05330668
234	0xbeeb52dc	-0.45961654
235	0xbfe62cf0	-1.7982464
236	0xbefdfd91	-0.49607518
237	0xbe85f528	-0.26163602
238	0xbf5961c0	-0.8491478
239	0x3ebc4628	0.36772275
240	0xbe97be4e	-0.29637378
241	0x3fafe5e9	1.3742038
242	0x3e7b4443	0.24537759
243	0xbeb229e9	-0.347976
244	0xbfd5a103	-1.6689762
245	0x401002ee	2.2501788
246	0xbe6bf571	-0.23042847
247	0x3e43d5fe	0.191246
248	0x3ff3683e	1.9016187
249	0x3fd23647	1.6422814
250	0x3fdc36d8	1.7204237
251	0xbf5f6ccf	-0.87275404
252	0xbd84440b	-0.06458291
253	0x3d9a96a8	0.07548267
254	0xbfc4e84e	-1.5383394
255	0x3fde5536	1.7369754

decoder_pos_embedding.weight f4 [8, 32]
0	0x3f8d134e	1.1021516
1	0x3fb8c80b	1.4436048
2	0x3fa17afb	1.2615656
3	0x3f0bcb56	0.5460714
4	0x3e93fb22	0.28902537
5	0x3f7adb64	0.97991014
6	0x3f407c3f	0.75189584
7	0xbd0a607a	-0.033783413
8	0x3f947da8	1.1600847
9	0xbcc01de2	-0.02345175
10	0xbf88399c	-1.0642581
11	0xbe193b45	-0.14964016
12	0xbf8af493	-1.0855888
13	0xbf1b8d74	-0.60762715
14	0xbee3cf25	-0.44493976
15	0xbf6023dc	-0.8755472
16	0x3e66e7a3	0.225493
17	0x3f85bb81	1.0447847
18	0x3e64c3ea	0.2234036
19	0xbfbb494a	-1.4631741
20	0xbec17851	-0.37787107
21	0x3e222007	0.1583253
22	0xbf8e61ab	-1.1123556
23	0x3f34635a	0.704641
24	0x3e45871f	0.19289826
25	0xbf1387bc	-0.5762899
26	0xbf962f55	-1.1733195
27	0xbe01780a	-0.12643448
28	0x3e3ecc3f	0.18632601
29	0xbf53ab6f	-0.8268346
30	0x3fe4d93a	1.7878792
31	0x3f8d653d	1.104652
32	0xbe7b66d3	-0.24550943
33	0xbfdffa73	-1.7498306
34	0xbe9958c6	-0.2995054
35	0xbf56c650	-0.8389635
36	0xbf150bf0	-0.5822134
37	0x3e4bd9ee	0.19907352
38	0x3fccef01	1.6010438
39	0xbe7e1ba0	-0.24815226
40	0x3f161583	0.58626574
41	0x402036da	2.5033479
42	0x3e774299	0.24146499
43	0x3ffc045b	1.9688829
44	0xbfcf2b37	-1.6185063
45	0x401a4223	2.4102867
46	0xbfbba06f	-1.4658335
47	0xbf9a0444	-1.2032552
48	0x3f0df488	0.5545125
49	0x3fd4dbf3	1.6629623
50	0xbf957d15	-1.1678797
51	0xbea02199	-0.31275633
52	0xc00aa486	-2.1662917
53	0xbf9ab7e8	-1.2087374
54	0x3eca207b	0.39477906
55	0xbfc0140e	-1.500612
56	0x3f3d1ecf	0.73875135
57	0xbf33c00f	-0.70214933
58	0x3ee8c5c9	0.45463398
59	0x3f036c91	0.51337534
60	0x3ea14b2e	0.3150267
61	0xbee2bebd	-0.44286147
62	0xc0083adf	-2.1285932
63	0x4032da9a	2.7945924
64	0xbf173db7	-0.59078544
65	0xbf6080a1	-0.8769627
66	0xbfa34edb	-1.275844
67	0x3f0e44b5	0.5557359
68	0x3f73946f	0.95148367
69	0xbebc47bd	-0.36773482
70	0xbcecd15a	-0.02890842
71	0xbed52402	-0.41629034
72	0xbf8a6b4b	-1.0813993
73	0x40098c30	2.1491814
74	0xbe717f05	-0.2358361
75	0x3e6cff5a	0.23144284
76	0xbfa38d9c	-1.2777591
77	0x406b0361	3.6720812
78	0x3ed56026	0.41674918
79	0x3fde73e3	1.7379116
80	0xbfa25d68	-1.2684755
81	0x3e6628e0	0.2247653
82	0xbf9b0793	-1.2111686
83	0xbffb6a58	-1.9641829
84	0xbfa818f3	-1.3132614
85	0xbf37ba8a	-0.7176901
86	0x3fab5fa5	1.3388563
87	0xbfad107b	-1.3520654
88	0x4029f010	2.6552773
89	0xbe3cfd0d	-0.18455906
90	0x408a3359	4.318768
91	0x3f4c7e28	0.7988
92	0x3fab7503	1.3395084
93	0xbf7c118d	-0.9846428
94	0x3f506a1b	0.81411904
95	0xbe85eb18	-0.26155925
96	0xbfcb9c2e	-1.5907037
97	0xbfa372b9	-1.2769386
98	0x3fa2b00c	1.2709975
99	0xbfc44e72	-1.533644
100	0x40013b4f	2.019245
101	0x3d287ea1	0.041136388
102	0x3eb5f0d3	0.35535297
103	0x3f82000a	1.0156262
104	0xbef1991f	-0.47187135
105	0xbedc1e9b	-0.429921
106	0xbfbb737d	-1.4644619
107	0xbfcbf9de	-1.5935628
108	0xbf25085a	-0.6446587
109	0xbf7e1034	-0.99243474
110	0xbff7a03f	-1.9345778
111	0x3f8a727d	1.0816189
112	0xbf28c869	-0.659308
113	0xbf979b1e	-1.1844213
114	0xbfb61eaf	-1.4228114
115	0x3fc832b4	1.5640473
116	0x3ffadf4a	1.9599392
117	0xbe407319	-0.18793906
118	0xbfe47522	-1.7848246
119	0x3d73897d	0.05945729
120	0xbe94ead7	-0.2908542
121	0xbe94f995	-0.29096666
122	0xbf7f031a	-0.9961411
123	0x3e040060	0.12890768
124	0x3f4a0a32	0.78921807
125	0xbeb3c0f0	-0.35108137
126	0xbfacd621	-1.3502847
127	0xbf515ee5	-0.8178542
128	0x3fbe3009	1.4858409
129	0x3fdc7540	1.7223282
130	0xbfc196ba	-1.5124123
131	0x3fdfa54b	1.7472318
132	0xbc90e186	-0.017685663
133	0x3b196185	0.0023404073
134	0x3f9494e5	1.1607939
135	0xbf04a80a	-0.5181891
136	0x3facf563	1.3512386
137	0xbee7fac4	-0.45308506
138	0xbf3a209b	-0.72706
139	0xbf309924	-0.68983674
140	0x3ee04e12	0.43809563
141	0xbfe9497f	-1.8225554
142	0x3e73fdda	0.23827305
143	0xbeea611f	-0.45777223
144	0xbc257d5d	-0.01010069
145	0x3fdd32a3	1.7281078
146	0x3f1ff03b	0.6247594
147	0x3fd1797f	1.6365203
148	0x401516ba	2.3295121
149	0x3e811784	0.25213253
150	0xbc219049	-0.00986106
151	0xbfdf02df	-1.7422751
152	0xbf99fb84	-1.2029881
153	0x3fdd2396	1.7276485
154	0x3dadc784	0.0848532
155	0x3f4c60b4	0.7983506
156	0xbea51ffe	-0.3225097
157	0xbf018028	-0.50586176
158	0x3ecfda7d	0.4059638
159	0x3a292db6	0.000645365
160	0x3fbc6f43	1.4721454
161	0x3f63d6e3	0.88999766
162	0x403b2f0c	2.9247465
163	0x3efc29b2	0.4925056
164	0x3eec137b	0.46108612
165	0x3fe0121d	1.7505528
166	0x3df6c320	0.12048936
167	0x3f01b307	0.506638
168	0xbfcff49c	-1.6246524
169	0xbf035362	-0.5129911
170	0x3f818295	1.0117975
171	0xbd18e9d6	-0.03733238
172	0x3fdce462	1.7257197
173	0x3e1d5c11	0.15367152
174	0x3e3dbed0	0.1852982
175	0x3df59746	0.11991744
176	0xbf7f43e4	-0.9971297
177	0xbe8528d7	-0.2600772
178	0x3dac1ee8	0.084043324
179	0x3df68d44	0.12038663
180	0xc011abc5	-2.276109
181	0xbfb14bb8	-1.3851233
182	0xbf2fcd57	-0.686727
183	0x3ee39969	0.4445298
184	0xbe810090	-0.25195742
185	0x3ebc42ab	0.36769614
186	0xbe4457ae	-0.19174072
187	0x3f94bf4f	1.1620883
188	0xbf9f40e5	-1.2441679
189	0x3e9a4e4f	0.3013787
190	0x3f99d903	1.2019352
191	0xbee7e80f	-0.45294234
192	0xbf8b6a30	-1.0891781
193	0x3d5045a2	0.050847657
194	0x3f66ffc6	0.9023403
195	0xbec0d186	-0.37659854
196	0x3ee5d789	0.44891003
197	0x3a467aab	0.00075713795
198	0x3de8dcb8	0.11370224
199	0x3cc12e85	0.023581753
200	0x3f90fff5	1.1328112
201	0x3e04dc18	0.12974584
202	0xbf48da94	-0.78458524
203	0xbee5edb8	-0.44907928
204	0x401d60ff	2.4590452
205	0xbf059f89	-0.52196556
206	0x3f64818b	0.89260167
207	0xbd7271c5	-0.05919053
208	0xbf87e23c	-1.0615916
209	0x3e8fedac	0.28111017
210	0xbfbc4233	-1.4707702
211	0xbee8b0d1	-0.454474
212	0x3f974c71	1.1820203
213	0xbfb854c3	-1.4400867
214	0x3f1dff14	0.61717343
215	0x3f0b2817	0.5435805
216	0x3ffb0c59	1.9613143
217	0xbc26b452	-0.010174828
218	0xbde85d78	-0.11345953
219	0x3f75a764	0.9595854
220	0x3fa711c6	1.3052299
221	0x3f897129	1.0737659
222	0x3eefeb36	0.4685914
223	0xbec75e31	-0.3893905
224	0xbf1b8d0c	-0.60762095
225	0xbf360b50	-0.7111101
226	0x3ef25ca6	0.4733631
227	0xbec67b8e	-0.3876614
228	0xbf1e6487	-0.6187214
229	0xbe2d01b2	-0.16895178
230	0xbe8288eb	-0.25495085
231	0xbe81d772	-0.25359684
232	0xbf9b5a91	-1.2137014
233	0xc014f077	-2.3271768
234	0x3e486c76	0.19572625
235	0xbf57aaea	-0.8424517
236	0xbf14aba3	-0.58074397
237	0x3f687f4c	0.9081924
238	0xbe416c51	-0.18888976
239	0x3f336d3f	0.7008857
240	0x3eebc2d9	0.46047094
241	0x3e3e8091	0.18603732
242	0xbf8231f0	-1.017149
243	0xbfaf4fc2	-1.3696215
244	0xbf640536	-0.8907045
245	0x3e836095	0.25659624
246	0x3fa0fd49	1.2577296
247	0x3f8cb1e4	1.0991788
248	0x3e38e45a	0.18055859
249	0xbe12271d	-0.14272733
250	0xbe0844bf	-0.13307475
251	0x3f355006	0.7082523
252	0x3f7ad089	0.9797445
253	0x3e59faab	0.21287028
254	0x3d6102b4	0.05493422
255	0xbf9c7f60	-1.2226372

transformer.encoder.layers.0.self_attn.in_proj_weight f4 [96, 32]
0	0xbdb7175e	-0.08940004
1	0x3ea5b27d	0.32362738
2	0x3df97d17	0.12182062
3	0xbe75f8f9	-0.24020757
4	0x3d27a086	0.04092457
5	0x3e21cb5f	0.15800236
6	0x3e040d33	0.1289566
7	0xbc886a0a	-0.016652126
8	0xbe77f412	-0.24214199
9	0xbd936b9d	-0.0719826
10	0x3ce496ba	0.027903903
11	0x3e4e5a47	0.20151626
12	0x3dce1e3c	0.100643605
13	0xbd9796e2	-0.074018255
14	0x3dca6bfa	0.09883876
15	0x3d7fb7e1	0.06243122
16	0xbc900922	-0.01758248
17	0x3e2ad89c	0.16684192
18	0xbe214e57	-0.1575254
19	0xbd043ac8	-0.03228262
20	0x3e5c85a7	0.2153536
21	0x3e2a46a3	0.16628508
22	0xbd005747	-0.031333234
23	0x3e020217	0.1269611
24	0x3d00ea79	0.03147361
25	0xbe318c37	-0.17338644
26	0xbe65c163	-0.22437052
27	0xbdd0d1ba	-0.10196252
28	0x3db9b069	0.09066851
29	0xbdd82914	-0.1055471
30	0xbe13943e	-0.14412019
31	0x3d520ead	0.051283527
32	0xbdf90bce	-0.12160455
33	0xbddd817e	-0.10815714
34	0x3cf6cb9e	0.03012639
35	0xbdb3a612	-0.0877191
36	0x3dfdae9c	0.1238682
37	0xbdf3ddb2	-0.119075194
38	0x3d688d8f	0.056775626
39	0xbec39ca4	-0.38205445
40	0x3e675bb5	0.22593577
41	0x3daba87a	0.08381744
42	0xbe208653	-0.1567624
43	0xbd44bbd1	-0.04803068
44	0xbd153202	-0.036424644
45	0x3ddb9263	0.107212804
46	0xbdfd5cf4	-0.12371245
47	0x3e229683	0.15877728
48	0xbde4872b	-0.11158594
49	0x3d65b75a	0.05608306
50	0xbdcf9a46	-0.10136847
51	0xbccde8f3	-0.025135493
52	0xbc668a75	-0.014071097
53	0xbe33c0ca	-0.17554012
54	0x3bdb198c	0.006686395
55	0x3e1a853f	0.15089892
56	0xbcda9574	-0.026682593
57	0x3c034bf1	0.008013711
58	0x3e59a919	0.21255912
59	0xbdad0fa1	-0.084502466
60	0xbe0d0f5c	-0.1377539
61	0x3db336e9	0.08750708
62	0xb9851a29	-0.00025387228
63	0x3eb3b754	0.35100806
64	0x3c6decf4	0.014521826
65	0xbd808e08	-0.0627709
66	0xbcbeedc1	-0.02330673
67	0x3df97ad5	0.121816315
68	0x3c20fac6	0.009825414
69	0xbdfe5569	-0.124186344
70	0x3c795979	0.015219086
71	0x3d34ec84	0.04417087
72	0xbdc5fe9d	-0.09667704
73	0x3e1d6c2b	0.15373294
74	0xbca10d1c	-0.019659571
75	0xbcab3be8	-0.020902589
76	0xbdd60be9	-0.104514904
77	0xbe296bbc	-0.16545004
78	0xbcc2dd8e	-0.023787286
79	0x3c928578	0.017885908
80	0x3e0d55c8	0.13802254
81	0xbe808659	-0.251025
82	0xbd0fadae	-0.035077743
83	0x3d986aea	0.07442267
84	0x3e0e34df	0.13887356
85	0xbdf850e1	-0.121248014
86	0xbd60d3bc	-0.054889426
87	0xbd572441	-0.05252481
88	0xbe3f4ba5	-0.186812
89	0x3d91d7c8	0.07121235
90	0xbdb8eebd	-0.09029911
91	0x3bc694cb	0.006060218
92	0x3d737086	0.059433483
93	0xbd892557	-0.06696575
94	0xbe20b685	-0.15694626
95	0x3e25ce06	0.16191873
96	0x3d261720	0.040549397
97	0x3e51e00e	0.20495626
98	0x3e7e35cb	0.24825208
99	0xbc408a21	-0.0117516825
100	0xbea78e32	-0.32725674
101	0xbdc62729	-0.09675438
102	0xbdcee063	-0.10101392
103	0x3d2f4f1d	0.042800058
104	0x3d4d9f1a	0.05020056
105	0xbe5a85f1	-0.21340157
106	0xbe20afd0	-0.15692067
107	0x3e03a876	0.12857231
108	0xbe83c035	-0.2573258
109	0x3d9f8bee	0.07790361
110	0xbdee793e	-0.11644219
111	0xbdf575ee	-0.11985384
112	0x3e6f3884	0.23361403
113	0xbe2d8352	-0.16944626
114	0xbe052122	-0.1300092
115	0x3d3efbc6	0.04662683
116	0x3e9b3c2e	0.3031935
117	0x3e22bcf6	0.15892395
118	0x3ca397f3	0.019969916
119	0xbd75bb12	-0.059992857
120	0xbe0a17de	-0.13485667
121	0x3c6f6065	0.014610385
122	0xbdda1558	-0.10648602
123	0x3c25a672	0.010110484
124	0x3cbfc740	0.02341044
125	0xbb743c79	-0.003726749
126	0xbdd81218	-0.10550326
127	0x3e2b9830	0.16757274
128	0x3e4dbc22	0.20091298
129	0x3e197660	0.14986563
130	0x3e0cdce2	0.13756135
131	0x3e14ddd6	0.14537749
132	0x3de36ec8	0.11105114
133	0x3bf1ab81	0.007375181
134	0x3ce13685	0.027491817
135	0x3dcb3f08	0.09924132
136	0xbd0b05d5	-0.03394111
137	0x3d4a3853	0.04937012
138	0x3b71dd0e	0.003690544
139	0x3e2210a7	0.15826665
140	0xbe831cb3	-0.25607833
141	0xbcb1f8fe	-0.021725174
142	0x3e1af504	0.15132529
143	0xbdbc6446	-0.09198813
144	0xbd787c15	-0.06066521
145	0xbdcf22b0	-0.10114038
146	0xbcc8a76b	-0.024493894
147	0xbdef2592	-0.11677088
148	0xbd893c38	-0.06700939
149	0xbd6a411d	-0.057191003
150	0x3e3121d3	0.17298059
151	0xbba2392d	-0.0049506635
152	0xbdda7578	-0.10666937
153	0xbcd56b69	-0.026052194
154	0xbe135530	-0.14387965
155	0xbc6e9766	-0.014562463
156	0xbe29ccdd	-0.16582055
157	0xbe0913db	-0.1338648
158	0x3d9e49b0	0.077288985
159	0x3ddbc0de	0.10730146
160	0x3e232916	0.15933642
161	0x3d22514f	0.039628323
162	0xbade9044	-0.001698025
163	0x3e5773e0	0.21040297
164	0xbe04ea50	-0.12980008
165	0xbdead489	-0.11466319
166	0xbd75fd4f	-0.060056027
167	0xbdece95e	-0.11567949
168	0xbd2dc7f3	-0.042427015
169	0xbde2c96b	-0.11073574
170	0x3de68b55	0.11257044
171	0xbdfe1b0c	-0.124075025
172	0x3d27067b	0.040777665
173	0xbe52d1c5	-0.20587833
174	0xbda7c32a	-0.081915215
175	0x3e18de04	0.14928442
176	0x3ea31448	0.3185141
177	0xbe0c4e27	-0.13701688
178	0x3e28c7b9	0.16482438
179	0x3e0f7aea	0.14011732
180	0xbd5200c4	-0.05127026
181	0xbe1f044b	-0.15528981
182	0xbd66044b	-0.056156438
183	0x3e185419	0.1487583
184	0x3e0115cf	0.12605976
185	0xbe13b6b9	-0.14425172
186	0xbd95d7ac	-0.07316527
187	0xbe25481e	-0.16140792
188	0x3e307b52	0.17234543
189	0xbe68bfc0	-0.22729397
190	0xbd3b9c21	-0.045803193
191	0x3e7a780a	0.24459854
192	0xbde49d89	-0.1116286
193	0xbe0c5932	-0.137059
194	0x3e1ba6c9	0.15200342
195	0xbd8c2e8e	-0.06844817
196	0xbe083989	-0.13303198
197	0x3db75a93	0.089528225
198	0x3b6cb72d	0.0036119923
199	0xbe52dcbf	-0.2059202
200	0xbdce6219	-0.100773044
201	0x3ccf1572	0.02527878
202	0x3c46d405	0.01213551
203	0xbce2b10f	-0.027672319
204	0x3c827650	0.015925556
205	0xbe23214e	-0.15930673
206	0x3e162313	0.14661817
207	0xbdc07fde	-0.09399389
208	0xbc632d68	-0.013865806
209	0x3dab2d7c	0.08358285
210	0x3b2d4f7c	0.0026445081
211	0xbd6303b3	-0.05542345
212	0x3d11af66	0.035567664
213	0x3da104cf	0.07862245
214	0x3bef4a11	0.0073025306
215	0x3cb72b48	0.022359505
216	0x3de7e74e	0.11323415
217	0x3ddcad07	0.1077519
218	0x3db7e0e2	0.0897844
219	0x3e24e1d1	0.16101767
220	0xbe2f013d	-0.17090316
221	0xbdbca959	-0.09211988
222	0x3e4c791f	0.19968079
223	0xbdbb363e	-0.09141205
224	0x3d7842cd	0.06061058
225	0xbe151cb6	-0.14561734
226	0xbd5db7d5	-0.054130394
227	0x3e37212f	0.17883752
228	0x3d3db1fb	0.046312314
229	0xbc064432	-0.00819497
230	0x3e314fbc	0.17315573
231	0x3cce3f2c	0.025176607
232	0xbd1e3227	-0.038622048
233	0x3de02b8d	0.10945807
234	0x3d92769f	0.071515314
235	0x3bc07155	0.005872885
236	0x3d8a2f20	0.0674727
237	0xbd381ffa	-0.04495237
238	0x3e0bab4e	0.13639566
239	0x3a31320d	0.00067594723
240	0xbd105717	-0.035239305
241	0x3da09806	0.07841496
242	0x3e21cbac	0.15800351
243	0xbe76e363	-0.24110179
244	0x3e26491d	0.16238828
245	0x3da2fd8a	0.07958515
246	0xbe413fb8	-0.18871963
247	0x3e444262	0.19165948
248	0x3d98b8bd	0.07457111
249	0xbd03a03d	-0.032135237
250	0x3ddedbf1	0.10881794
251	0x3d82acca	0.06380613
252	0xbe1a88f9	-0.15091313
253	0x3c942ad4	0.018086828
254	0x3e04a4cb	0.12953489
255	0xbc3c862c	-0.011506598

transformer.encoder.layers.0.self_attn.in_proj_bias f4 [96]
0	0xbe1092ad	-0.14118452
1	0x3ccec24a	0.025239129
2	0xbd9edbf6	-0.07756798
3	0xbc62473e	-0.013810931
4	0x3dd099bf	0.10185575
5	0x3caab49d	0.020838076
6	0x3cc213e1	0.02369112
7	0x3e0af638	0.13570487
8	0xbd86bacf	-0.065786
9	0xbd1ad90e	-0.037804656
10	0xbdf9690e	-0.12178241
11	0x3de2ff91	0.11083902
12	0xbe025b3b	-0.12730114
13	0xbdc6c0b8	-0.09704727
14	0xbd08573a	-0.03328631
15	0x3cd5adba	0.026083816
16	0x3d9b7e03	0.07592394
17	0xbd8dd7da	-0.06925936
18	0x3e04b248	0.12958634
19	0xbdce8b11	-0.100851186
20	0xbdaa3cc1	-0.08312369
21	0x3bf3ca18	0.007439863
22	0x3d6f8041	0.05847192
23	0xbe0a6feb	-0.13519256
24	0x3cfb109b	0.030647567
25	0xbd2b5418	-0.041828245
26	0xbd4b55fc	-0.049642548
27	0xbd9fb3b7	-0.0779795
28	0x3cbc631b	0.022996476
29	0x3bb815ce	0.0056178337
30	0x3e10f37d	0.14155383
31	0xbe0733ff	-0.13203429
32	0xbd906018	-0.070495784
33	0x3ca72e87	0.020407928
34	0xbcb0b359	-0.021569895
35	0x3d0eeb18	0.03489217
36	0x3daafee6	0.08349399
37	0xbb3f1502	-0.0029156809
38	0xbcb375eb	-0.021906814
39	0xbd8ffd6b	-0.070307575
40	0x3d30da12	0.043176718
41	0xbd5d2613	-0.05399139
42	0xbca05922	-0.019573752
43	0x3d5ef8a0	0.054436326
44	0x3bace53f	0.0052763517
45	0xbd19a06a	-0.0375065
46	0x3d0e42b3	0.034731578
47	0xbb80144e	-0.0039086705
48	0x3bd0ffa4	0.006378131
49	0xbb3c7e78	-0.0028761905
50	0x3d5280e7	0.051392462
51	0xbb4f4d42	-0.0031631743
52	0xbcdce927	-0.026966644
53	0x3c943d07	0.018095506
54	0xbd2b7c77	-0.041866746
55	0xbc8e8f95	-0.01740245
56	0xbd664313	-0.05621631
57	0x3d0e62a4	0.03476204
58	0x3c03371e	0.008008746
59	0x3d1dd7fc	0.038536057
60	0x3cbb4203	0.022858625
61	0xbdbeea73	-0.093220614
62	0x3d98fb45	0.07469801
63	0xbc881c75	-0.016615132
64	0x3d8af992	0.06785883
65	0xbd639dfe	-0.055570595
66	0x3d397032	0.045273013
67	0x3d3053b0	0.04304856
68	0xbd88f64d	-0.06687603
69	0xbc929b6c	-0.017896377
70	0xbd54bdfa	-0.05193899
71	0x3d883a94	0.06651798
72	0x3c6c92e6	0.01443932
73	0xbd400a57	-0.04688486
74	0xbd2dcd2e	-0.042432003
75	0xbd1a5780	-0.037681103
76	0xbcef1cac	-0.029188477
77	0x3deba878	0.11506742
78	0x3d0c22e7	0.034212973
79	0xbd19465a	-0.037420608
80	0x3d5811b8	0.052751273
81	0xbcde22d6	-0.02711622
82	0xbc470efe	-0.0121495705
83	0xbdbdb67c	-0.09263322
84	0x3cce2f4b	0.025169035
85	0x3cc6b119	0.024254369
86	0x3d6c8f6c	0.057753965
87	0xbd622520	-0.055211186
88	0xbdac3649	-0.084087916
89	0xbcee2c85	-0.029073963
90	0xbc5c7778	-0.013456218
91	0xbddb0404	-0.10694125
92	0x3d4b415e	0.049622886
93	0xbe1cf841	-0.15329076
94	0x3ddf4321	0.10901476
95	0x3d3eb605	0.046560306

transformer.encoder.layers.0.self_attn.out_proj.weight f4 [32, 32]
0	0xbc9b2a24	-0.018940993
1	0xbd84b9f3	-0.064807795
2	0xbd9e1c4d	-0.07720242
3	0xbe123a2a	-0.1428
4	0xbd7ef9a5	-0.0622498
5	0xbdeb353d	-0.11484764
6	0xbe95fd75	-0.29294935
7	0xbd83539d	-0.06412432
8	0x3e83b9f0	0.25727797
9	0x3e44add1	0.1920693
10	0x3cdbea6f	0.026845185
11	0x3e21e35c	0.15809387
12	0x3dc1c3bf	0.09461164
13	0x3cd52e99	0.026023196
14	0x3e645a36	0.22300038
15	0x3e0f29c1	0.13980772
16	0x3dc1d1c6	0.09463839
17	0xbd9205b6	-0.071299955
18	0x3d5ceab6	0.053934775
19	0xbe3af57d	-0.18257709
20	0xbd4f28fd	-0.0505762
21	0x3e1ebeda	0.15502492
22	0x3c18eb5d	0.009333459
23	0xbe6d5a9b	-0.23179094
24	0x3e1d5956	0.1536611
25	0xbec3bd91	-0.38230565
26	0x3d7601c8	0.060060292
27	0xbe8793ca	-0.26479942
28	0x3db01f58	0.08599728
29	0x3e647809	0.22311415
30	0xbb33fbd3	-0.0027463331
31	0x3cafb120	0.021446764
32	0x3e832a49	0.256182
33	0xbe4c34db	-0.19942038
34	0x3e1ec53c	0.15504926
35	0xbe1dda67	-0.15415345
36	0x3e910291	0.2832227
37	0xbe7c3aca	-0.24631801
38	0xbdd2a90e	-0.10286151
39	0xbe920f0c	-0.28527105
40	0x3e226131	0.15857388
41	0x3e5bcf1e	0.21465728
42	0xbe3a4fa0	-0.18194437
43	0x3cf5a9e4	0.029988237
44	0xbe44acbb	-0.19206516
45	0x3e5513a2	0.2080827
46	0xbca525a3	-0.020159548
47	0xbdd4831e	-0.10376571
48	0xbc097f2c	-0.008392137
49	0xbd60db8d	-0.05489688
50	0xbe662ecd	-0.2247879
51	0xbe82f36e	-0.25576347
52	0xbcfb95bf	-0.030711053
53	0xbe6528a3	-0.22378783
54	0x3ab68911	0.0013926347
55	0x3cb3e324	0.021958895
56	0xbddc8639	-0.107677884
57	0x3ea9140b	0.33023104
58	0xb88b1bd4	-6.63322e-05
59	0x3e0d8db2	0.13823584
60	0x3dccb8a4	0.09996155
61	0x3da9f7e2	0.08299233
62	0x3dafde04	0.08587268
63	0xbde5ac55	-0.1121451
64	0xbea98a0f	-0.33113143
65	0xbc12e30c	-0.008965265
66	0xbe1a4dba	-0.15068713
67	0x3e4419a4	0.19150406
68	0x3e2650ac	0.16241711
69	0x3e2feb5c	0.17179626
70	0xbe96c6d2	-0.29448563
71	0x3e252454	0.1612714
72	0x3dfd245c	0.123604506
73	0xbdf1e3a2	-0.11810996
74	0xbe4677de	-0.19381663
75	0xbe27e1a5	-0.1639467
76	0xbd7be68a	-0.061499156
77	0xbcf8c154	-0.030365624
78	0xba0902d2	-0.00052265555
79	0xbce966fa	-0.028491486
80	0x3de2475b	0.11048766
81	0x3f01382d	0.5047634
82	0x3ab9d636	0.001417822
83	0x3e187d35	0.14891513
84	0xbc954627	-0.018221928
85	0x3e7f5e9b	0.24938433
86	0xbe2db452	-0.16963318
87	0x3dc10491	0.09424699
88	0x3e9546d8	0.29155612
89	0xbdd09849	-0.10185296
90	0x3ed48009	0.41503933
91	0x3e82b5b1	0.25529245
92	0x3dd08772	0.10182084
93	0xbd824e7f	-0.06362628
94	0xbe31f5e1	-0.17378952
95	0xbe4ecb6b	-0.20194785
96	0xbec69681	-0.387867
97	0xbdbccf5b	-0.092192374
98	0xbe4847b1	-0.19558598
99	0x3d924d10	0.07143605
100	0x3d677975	0.056512315
101	0x3e515921	0.20444156
102	0x3d4da21d	0.05020343
103	0xbecc9c4f	-0.39963004
104	0xbd1d02ac	-0.038332626
105	0x3df307a5	0.118666925
106	0xbd9d6d5b	-0.076868735
107	0xbdaeb448	-0.0853048
108	0xbc89b68c	-0.016810678
109	0xbc7fa22b	-0.015602629
110	0xbd2b4ed8	-0.041823238
111	0xbdf0a5ad	-0.1175035
112	0x3d93d9a4	0.07219246
113	0x3cd101e2	0.025513593
114	0x3d44c11c	0.048035726
115	0xbcc7d3ff	-0.02439308
116	0x3e295a76	0.16538414
117	0x3e70a043	0.23498635
118	0x3ea64973	0.32477912
119	0x3e6c2b80	0.23063469
120	0xbe39b381	-0.18134882
121	0x3da0493b	0.078264676
122	0xbe3fdf14	-0.18737441
123	0x3e4d3bd2	0.20042351
124	0xbd3f44ee	-0.046696596
125	0x3e8b8d0d	0.2725605
126	0x3cfd2f47	0.030906333
127	0xbd9223a5	-0.07135705
128	0x3e1c6346	0.15272245
129	0x3e923fd6	0.28564328
130	0xbdb3d5dc	-0.08781025
131	0xbdf7784e	-0.12083493
132	0xbe9c8514	-0.3057028
133	0x3e494acb	0.19657438
134	0xbc4bf963	-0.012449595
135	0x3de91552	0.1138102
136	0x3b971489	0.0046106023
137	0x3dad00ff	0.084474556
138	0xbe1285c8	-0.14308846
139	0xbd3aba00	-0.04558754
140	0x3e04dda7	0.12975179
141	0x3deb406f	0.11486899
142	0xbd6cadfb	-0.05778311
143	0x3d5a027f	0.053225037
144	0x3e468b95	0.19389184
145	0x3e19fca1	0.15037777
146	0xbd3d5a0e	-0.04622846
147	0x3e11dc43	0.1424418
148	0x3e120baf	0.1426227
149	0xbd558f22	-0.052138455
150	0x3dad35d3	0.08457532
151	0x3e861f62	0.26195818
152	0xbd3a41f0	-0.04547304
153	0xbde6e1b9	-0.11273522
154	0xbea7b05a	-0.32751733
155	0xbe11357b	-0.14180557
156	0x3e3bc68c	0.18337458
157	0xbdb345df	-0.08753561
158	0x3be19a20	0.006884828
159	0x3da39a87	0.07988458
160	0x3e682fc0	0.22674465
161	0x3df2fcf0	0.1186465
162	0xbd9fd48b	-0.07804211
163	0x3e6d4a57	0.2317289
164	0x3e8e8395	0.27834764
165	0xbe5f0563	-0.21779399
166	0x3e61a5c7	0.22035895
167	0xbe55987f	-0.20858954
168	0x3e128620	0.14308977
169	0x3c8f1225	0.017464707
170	0x3e61c40e	0.22047445
171	0xbe88b22d	-0.26698437
172	0xbddd7ac6	-0.10814433
173	0xbe0e46ed	-0.13894244
174	0x3ea6d406	0.32583636
175	0x3e8173a6	0.25283545
176	0xbd91821e	-0.07104896
177	0xbd9cda70	-0.07658851
178	0xbbb366a4	-0.005474882
179	0xbb6aed1a	-0.003584689
180	0x3e43b38f	0.19111465
181	0xbde14f43	-0.11001446
182	0xbbf64c9a	-0.007516456
183	0x3e93710e	0.2879719
184	0x3d916535	0.07099382
185	0xbea68425	-0.32522693
186	0xbdabd83e	-0.08390854
187	0xbd93b114	-0.07211509
188	0x3d1a2aa3	0.037638318
189	0xbe8ec847	-0.27887174
190	0xbdd2e887	-0.10298257
191	0xbdd8935b	-0.10574981
192	0x3d9982c1	0.074956425
193	0x3bc24072	0.0059280926
194	0xbd859327	-0.06522208
195	0xbe23daea	-0.16001478
196	0x3e53eadd	0.20695062
197	0xbdb9276c	-0.09040722
198	0x3e34707e	0.17621037
199	0xbe4b4732	-0.19851378
200	0x3e76ec1f	0.2411351
201	0xbe31ac0c	-0.17350787
202	0xbc32d1b0	-0.010914251
203	0x3e80c8ef	0.251533
204	0xbd3e7c05	-0.046504993
205	0x3e58abcb	0.21159284
206	0xbe0c051c	-0.13673824
207	0x3d2aea24	0.0417272
208	0xbea1f53a	-0.31632406
209	0x3ec1069f	0.37700364
210	0x3e9356c5	0.28777137
211	0x3e31138f	0.17292617
212	0x3ca3b9f4	0.01998613
213	0x3dcee4b0	0.101022124
214	0xbe28637a	-0.16444197
215	0x3dbdb50d	0.09263048
216	0x3d76a8eb	0.060219686
217	0xbe253864	-0.16134793
218	0x3da53388	0.080664694
219	0xbd9770ae	-0.07394539
220	0xbd7c8475	-0.06164976
221	0x3e6adc38	0.2293557
222	0xbecac567	-0.3960373
223	0x3decc708	0.115614
224	0x3d2543fc	0.040348038
225	0x3e5a8d4c	0.21342963
226	0xbd86ae88	-0.06576258
227	0x3e78db50	0.24302411
228	0xbe9653db	-0.29360852
229	0xbba11c5e	-0.0049167117
230	0xbe76273c	-0.24038404
231	0xbe1c9688	-0.15291798
232	0x3e2cd5e3	0.16878466
233	0xbc8fd2b4	-0.017556526
234	0xbe5afd0d	-0.21385594
235	0x3e2fae72	0.1715639
236	0xbe9f637b	-0.31130585
237	0x3c86bc1c	0.01644712
238	0x3e54f8a8	0.2079798
239	0x3dba6959	0.09102125
240	0x3c9020a8	0.017593697
241	0xbe35aebc	-0.17742437
242	0xbe3836c3	-0.1798964
243	0xbdeb3e9d	-0.11486552
244	0x3e89e604	0.269333
245	0xbcadc2f8	-0.021211132
246	0x3e09d6c4	0.13460833
247	0xbd341150	-0.043961823
248	0xbddca506	-0.10773663
249	0xbdb9dada	-0.09074946
250	0x3ead4c23	0.3384715
251	0xbde4ca40	-0.111713886
252	0x3d699e9b	0.057036024
253	0xbeae8c9f	-0.3409166
254	0xbdf05cdf	-0.11736464
255	0x3d733ec9	0.05938605

transformer.encoder.layers.0.self_attn.out_proj.bias f4 [32]
0	0x3d28cdbc	0.04121183
1	0xbe0d5327	-0.13801251
2	0x3c186795	0.00930204
3	0x3d994563	0.074839376
4	0xbd9f5a5b	-0.07780906
5	0xbcabb3fb	-0.020959845
6	0x3e03604b	0.12829702
7	0xbe146b59	-0.14494075
8	0x3dd45af4	0.103689104
9	0x3e0728bc	0.13199133
10	0xbd5d8718	-0.054083914
11	0x3e10afbc	0.14129537
12	0xbcbbd699	-0.022929477
13	0x3c834600	0.01602459
14	0x3e19fcda	0.15037861
15	0xbcb85d93	-0.022505557
16	0x3e49fb79	0.19724835
17	0xbcbe749a	-0.02324896
18	0xbe12c454	-0.14332706
19	0xbe28b961	-0.16476966
20	0x3d8460cb	0.06463774
21	0xbe082647	-0.13295852
22	0xbd5dde24	-0.054166928
23	0x3d6fc0f3	0.05853362
24	0x3c4099e4	0.01175544
25	0xbd12ff18	-0.035887808
26	0xbc507cb3	-0.012725043
27	0x3dc12886	0.09431557
28	0x3cf76f3b	0.030204406
29	0xbe42b3e5	-0.19013937
30	0x3b209a50	0.002450604
31	0x3da905ba	0.082530454

transformer.encoder.layers.0.linear1.weight f4 [128, 32]
0	0xbd04d04c	-0.03242521
1	0xbe314b00	-0.17313766
2	0x3dfe91ca	0.12430151
3	0x3dcfcac8	0.10146099
4	0x3e7d3cd6	0.24730238
5	0xbe1554bc	-0.14583105
6	0xbdb91582	-0.090373054
7	0xbcee7487	-0.029108299
8	0x3d8a3a30	0.0674938
9	0x3d2cdf85	0.042205352
10	0x3e1595bb	0.14607899
11	0xbc0d4a89	-0.008623728
12	0x3e5ca107	0.21545802
13	0x3c625937	0.013815216
14	0xbe81cfee	-0.2535395
15	0x3d854040	0.06506395
16	0x3d8cfea5	0.06884507
17	0x3e96ee67	0.29478762
18	0x3cf1f4b7	0.029535634
19	0x3d93ae15	0.07210938
20	0xbe3e029a	-0.1855568
21	0xbc3f908c	-0.0116921775
22	0xbe3e3fc0	-0.18579006
23	0xbdd23fd8	-0.102660835
24	0x3c4e1d8c	0.012580287
25	0xbe22d949	-0.159032
26	0xbe138181	-0.1440487
27	0x3ea954ac	0.33072412
28	0xbc3ec7b8	-0.011644296
29	0x3b446e54	0.0029972987
30	0xbddd0962	-0.10792805
31	0xbdf7e6e4	-0.12104586
32	0xbe0b8a2d	-0.13626929
33	0x3cb6500f	0.022254972
34	0xbd961566	-0.073283
35	0xbea16b12	-0.31527
36	0x3d4746af	0.048651394
37	0xbe084e19	-0.13311042
38	0x3d782707	0.060584094
39	0x3dcd7795	0.10032574
40	0xbbdcb5a9	-0.0067355228
41	0xbe2bf9ec	-0.16794556
42	0x3e2bf274	0.16791707
43	0x3d239030	0.03993243
44	0x3dfc6da8	0.12325603
45	0xbe4c2644	-0.19936472
46	0x3d5bf611	0.053701464
47	0xbd9c6040	-0.07635546
48	0x3dd3b7d9	0.103378005
49	0xbccd5abd	-0.025067681
50	0x3ba082a8	0.004898388
51	0xbb06e622	-0.0020583947
52	0x3d0723d2	0.032993145
53	0xbdbbb8bc	-0.09166095
54	0xbce41bd2	-0.027845297
55	0x3c951f5c	0.01820343
56	0xbe2f236d	-0.17103358
57	0xbdc7ee58	-0.09762257
58	0xbdec8556	-0.11548869
59	0xbd0322be	-0.032015555
60	0x3e53909d	0.20660634
61	0xbdeb67f3	-0.11494436
62	0x3ea2a3a6	0.3176548
63	0xbe1cfdab	-0.15331142
64	0xbeb5c643	-0.35502824
65	0x3d1bff10	0.038085043
66	0xbe4a4160	-0.19751501
67	0xbd92e813	-0.07173171
68	0x3ea3b3d3	0.31973132
69	0xbcaf6bb9	-0.02141367
70	0xbd5b28f9	-0.05350587
71	0xbd3b18df	-0.045678016
72	0x3e8e095e	0.27741522
73	0xbcfb19f7	-0.03065203
74	0x3e22e7b2	0.15908697
75	0xbd2f3684	-0.0427766
76	0x3d3fb612	0.046804495
77	0x3d646811	0.055763308
78	0x3e1aaa0f	0.15103935
79	0xbe10b52d	-0.14131613
80	0x3ca3a860	0.019977748
81	0x3d3ed0c6	0.04658582
82	0xbd689e4c	-0.05679159
83	0xbe656078	-0.22400081
84	0x3e16976b	0.14706199
85	0x3df9b7a6	0.12193231
86	0xbc0827db	-0.0083102835
87	0x3b9f3217	0.004858266
88	0x3e1aad4d	0.15105172
89	0xbca5d13d	-0.020241374
90	0x3dbeb440	0.09311724
91	0xbe361829	-0.17782654
92	0x3c82a146	0.015946042
93	0xbe0622d7	-0.13099228
94	0x3d47f981	0.04882193
95	0xbd2481b4	-0.040162757
96	0xbe8c6c2e	-0.27426285
97	0x3d531bef	0.05154031
98	0xbde5e029	-0.11224396
99	0x3dda4a61	0.10658718
100	0x3e3ab1cb	0.18231885
101	0xbd05cb5c	-0.03266464
102	0x3cea7fca	0.028625388
103	0x3e0eb6d5	0.13936932
104	0xbe2478ef	-0.16061758
105	0xbd992b94	-0.07479015
106	0x3ea44206	0.32081622
107	0x3dab9479	0.08377928
108	0x3cfe131e	0.031014975
109	0xbd2c0519	-0.04199705
110	0xbeb35017	-0.3502204
111	0xbe018df5	-0.12651809
112	0xbda79e43	-0.08184483
113	0x3e0bb890	0.13644624
114	0xbe6dd7a8	-0.23226798
115	0xbc8e32e3	-0.017358249
116	0x3d94c191	0.07263482
117	0xbe086396	-0.13319239
118	0xbd399ba4	-0.045314446
119	0xbcccfd52	-0.025023136
120	0xbddfc844	-0.109268695
121	0xbc962d22	-0.018332068
122	0xbd9540ef	-0.07287776
123	0x3ce76810	0.028247863
124	0x3e3c2fe5	0.18377645
125	0x3d28c5ca	0.04120425
126	0xbdc3beb6	-0.095578596
127	0x3d759577	0.059956994
128	0x3d0446b9	0.03229401
129	0xbe5d8d75	-0.21635993
130	0x3d8b5ecc	0.068051904
131	0xbdaea568	-0.085276425
132	0x3cfc79aa	0.030819733
133	0xbd5175aa	-0.051137604
134	0xbd0984db	-0.033573966
135	0x3d4a6e7a	0.049421765
136	0x3e13b578	0.14424694
137	0x3d0c748d	0.03429084
138	0x3d409b23	0.04702295
139	0xbe225831	-0.15853955
140	0x3df8f4c1	0.12156058
141	0x3e013a08	0.12619793
142	0xbd99bebc	-0.07507083
143	0x3e1799c2	0.14804748
144	0x3d7adbf8	0.061244935
145	0x3dce71a1	0.10080267
146	0x3de30e18	0.110866725
147	0x3dcdde0e	0.10052119
148	0xbdad7d7a	-0.084711984
149	0x3d39b64d	0.04533987
150	0x3dbb20f4	0.09137145
151	0xbd9a4d04	-0.07534221
152	0x3c86411f	0.016388474
153	0x3d617c51	0.055050198
154	0x3dd94ff9	0.10610957
155	0x3e9d5b7f	0.30733868
156	0xbdb9042f	-0.09034001
157	0x3dbc2124	0.091860086
158	0x3ddb36e1	0.10703827
159	0xbe6c4387	-0.23072635
160	0xbe1236e8	-0.14278758
161	0x3def9595	0.116984524
162	0xbd9e4f18	-0.0772993
163	0xbe3ae7fa	-0.18252555
164	0x3da9e51a	0.08295651
165	0x3e25576b	0.16146629
166	0xbe12b72f	-0.14327691
167	0x3c807a6c	0.015683375
168	0x3d1135d3	0.03545172
169	0xbb9253b2	-0.0044655437
170	0x3d22af9b	0.03971825
171	0xbe9b1ff6	-0.30297822
172	0x3eb0be2a	0.34520084
173	0xbe3d6356	-0.18494925
174	0x3e057489	0.13032736
175	0xbc800cef	-0.015631167
176	0xbd895003	-0.06704714
177	0xbd8211f7	-0.06351083
178	0xbbbfbb97	-0.00585122
179	0xbb814d20	-0.0039459616
180	0xbdeaadd9	-0.1145894
181	0xbe2548c8	-0.16141045
182	0x3e30bd95	0.1725982
183	0xbe0fad39	-0.14030923
184	0xbe251853	-0.1612256
185	0xbe20ac2b	-0.15690677
186	0x3e571b89	0.21006598
187	0x3e0aa863	0.13540797
188	0x3cac6a33	0.021046733
189	0x3c21fa4d	0.0098863365
190	0xbe12a6df	-0.14321469
191	0xbdc6a894	-0.097001225
192	0xbd2ab3b0	-0.04167527
193	0xbe4581d0	-0.19287801
194	0x3de7605b	0.11297675
195	0x3d94ab23	0.07259204
196	0x3d9d76c2	0.07688667
197	0xbe19275d	-0.14956422
198	0xbdce93e3	-0.10086801
199	0x3e3dfc47	0.18553267
200	0x3ca97d00	0.020689487
201	0x3e33d4a6	0.17561588
202	0x3e3b80bc	0.18310827
203	0xbe272f9a	-0.16326752
204	0x3d11fbe7	0.035640623
205	0xbe369193	-0.1782897
206	0xbc451edf	-0.012031286
207	0xba740992	-0.00093092874
208	0x3e11187a	0.14169493
209	0x3c31ec7f	0.010859608
210	0x3db3f654	0.08787218
211	0x3db2cea5	0.087308206
212	0x3b55cf04	0.0032624612
213	0xbe00d9bd	-0.1258306
214	0xbe0823af	-0.13294862
215	0xbd08bb98	-0.03338203
216	0xbe83da18	-0.2575233
217	0x3d95b80c	0.07310495
218	0xbde02ea1	-0.10946394
219	0x3dfad4fc	0.12247655
220	0x3e012f39	0.1261567
221	0x3e1ea626	0.15493068
222	0xbd5112d8	-0.05104336
223	0x3d34e08a	0.04415945
224	0xbdbea78d	-0.093093015
225	0xbd8ab21e	-0.067722544
226	0x3c96ceae	0.0184091
227	0xbe1afbd6	-0.1513513
228	0x3e31675b	0.17324583
229	0x3ddf8c5d	0.10915444
230	0xbdd529ff	-0.10408401
231	0x3e0ce537	0.13759314
232	0x3ac85985	0.0015285468
233	0x3ea08d35	0.31357732
234	0x3badd3ec	0.005304804
235	0x3e8f0986	0.27936953
236	0x3c2453a4	0.010029707
237	0xbe04e532	-0.12978056
238	0xbdbccef0	-0.09219158
239	0x3cf3737b	0.029718151
240	0xbe001a2e	-0.12509987
241	0xbd092cb3	-0.033489894
242	0x3cfb3915	0.030666867
243	0xbe1e13d4	-0.15437251
244	0xba7feb3e	-0.0009762532
245	0xbe5b9c5b	-0.21446364
246	0xbe0a03d6	-0.13478026
247	0x3d91d27c	0.07120225
248	0xbe2598e4	-0.16171604
249	0xbe61da7d	-0.22056003
250	0x3e3ea17f	0.18616293
251	0xbe597cad	-0.21238966
252	0x3d335429	0.043781433
253	0x3c6b7d5b	0.014373149
254	0xbc7b5e8a	-0.015342364
255	0x3c03e261	0.008049578
