Decoder_Only_Files/Decoder_Only_Transformers/dec_only_100epochs_1fexcluded_GENERALIZING.pth (torch, 195667 bytes, 54 tensors)

embedding.weight f4 [88, 32]
-2.7257e-40 -9.8984e-41 1.01071e-40 -8.6101e-41 -1.51399e-40 1.65505e-40 -1.32887e-40 -1.32814e-40
-1.51015e-40 -3.2178e-41 -3.8638e-41 1.95384e-40 -2.1022e-40 3.33183e-40 -2.4673e-41 1.39205e-40
-1.13382e-40 -1.90067e-40 1.19915e-40 1.99095e-40 1.4154e-40 9.5122e-41 -9.0542e-41 4.2479e-41
-8.816e-42 2.98172e-40 -1.11455e-40 -8.2267e-41 1.29334e-40 3.9065e-41 -2.02509e-40 -2.23338e-40
-0.045299493 -0.28479418 0.45156705 -0.07890041 -0.22807577 -0.03764866 -0.106391035 0.45597973
-0.3779875 0.4022501 -0.11805042 0.39145175 -0.43658033 -0.5015653 0.23087811 0.043784313
0.5205077 0.32620913 -0.010110275 -0.41519478 -0.27776006 0.030678922 0.019153597 -0.3517146
0.4535906 -0.28049198 0.69061476 0.1837651 0.33765513 -0.05031048 0.40222222 0.077421576
0.1389404 0.791301 0.26259083 0.6804315 -1.1324716 0.11866076 0.19683121 0.4002715
0.4613707 0.2801439 0.09946995 0.5617091 0.5176675 -0.4890084 -0.65509105 -0.10946537
-0.075710334 -0.35843846 0.011854142 0.31424382 -0.25036818 -0.4356767 -0.45842385 0.43704134
-0.48066613 -1.5932204 -0.24720092 -0.012095016 -0.15220137 0.52813226 -0.41103372 -0.16111806
0.6209167 0.08150041 0.005402355 -0.12902103 -0.14848432 0.052134972 -0.033652432 -0.16716228
0.06037517 -0.21513228 0.18484896 0.18519644 -0.48713407 0.04729578 -0.05987951 -0.022470748
0.008060471 0.20567581 -0.19212115 0.007248034 -0.09627756 0.23017669 0.06315461 0.025759783
0.10193959 -0.021511141 -0.21301363 0.08582765 0.058466695 -0.08605256 0.19485466 -0.091062166
0.12549797 -0.037740737 0.07542986 0.018687734 0.020788329 0.061913706 -0.047497556 0.08783744
0.09159109 0.014207983 0.019641977 0.031748798 0.017383108 -0.05104505 -0.04012143 0.034719028
-0.029129202 0.018060356 -0.10212257 0.04372839 0.021700796 0.023659071 -0.021871379 0.024224889
-0.02043175 -0.11339539 -0.012731884 -0.037099462 -0.0057798605 0.026975663 0.011168901 0.009652476
0.06951143 -0.018979719 0.07034834 -0.082351714 -0.0096597625 0.028923403 -0.112498954 0.040030275
0.09535188 -0.00023313063 0.05177055 0.010459135 0.040529042 0.007601297 -0.0057042493 0.0042079175
-0.07663513 -0.039118234 -0.08177993 0.09486307 -0.030893655 0.041200597 0.03593342 0.050619494
-0.009544397 -0.033716023 0.017106896 -0.019332146 -0.00876111 -0.009188266 -0.04759145 -0.00012789328
0.09388373 -0.008255858 0.044530183 -0.04765297 -0.0144069735 0.048740584 -0.07576439 0.04268015
-0.0016903915 0.00694861 0.0032008195 -0.015822254 0.0014638477 -0.017765678 0.056094877 -0.016543966
-0.07177098 0.007783666 -0.044787746 0.11115378 -0.018441161 -0.044606477 0.012019811 -0.011529181
0.018106585 -0.032882076 -0.012236562 0.029278029 0.022964017 0.04931461 -0.06761527 0.0072040367
0.06842577 0.015644768 0.048224848 -0.117129765 0.016768975 0.012813187 -0.054565866 0.041844424
0.06253693 -0.014330762 -0.008093259 0.05462621 -0.033226 0.06042328 -0.036541764 0.088312835
-0.012176478 -0.006789706 -0.097049706 -0.031503677 0.03687027 0.10565416 0.03848704 0.031079762
0.06837377 -0.11565505 -0.019915342 -0.019290356 0.08046205 -0.088284045 0.061948035 -0.017512001
00000000: d0f7 0280 ed13 0180 bf19 0100 04f0 0080
00000010: 0aa6 0180 5ccd 0100 6f72 0180 3b72 0180
00000020: f8a4 0180 b359 0080 b56b 0080 a720 0200
00000030: 024a 0280 c7a0 0300 c744 0080 0c84 0100
00000040: 103c 0180 d411 0280 464e 0100 ff2a 0200
00000050: 8e8a 0100 2909 0100 65fc 0080 6a76 0000
00000060: 9318 0080 2f3f 0300 b136 0180 54e5 0080
00000070: 8868 0100 e66c 0000 8334 0280 936e 0280
00000080: f68b 39bd 8bd0 91be cc33 e73e 8a96 a1bd
00000090: b28c 69be 7b35 1abd 8be3 d9bd 2d76 e93e
000000a0: 9487 c1be baf3 cd3e 6bc4 f1bd 5d6c c83e
000000b0: 7587 dfbe 9566 00bf 506b 6c3e 2e57 333d
000000c0: fe3f 053f e204 a73e 91a5 25bc 6994 d4be
000000d0: 9136 8ebe 5d52 fb3c 01e8 9c3c f013 b4be
000000e0: 073d e83e a59c 8fbe 21cc 303f eb2c 3c3e
000000f0: 22e1 ac3e 5d12 4ebd 12f0 cd3e 348f 9e3d
00000100: 6446 0e3e b492 4a3f 4e72 863e c230 2e3f
00000110: d4f4 90bf 6a04 f33d 1f8e 493e 63f0 cc3e
00000120: c838 ec3e 056f 8f3e e7b6 cb3d 2bcc 0f3f
00000130: db85 043f 4f5f fabe 0cb4 27bf 612f e0bd
00000140: 050e 9bbd 3f85 b7be e037 423c 91e4 a03e
00000150: 4230 80be 0411 dfbe 88b6 eabe e2c3 df3e
00000160: df19 f6be a5ee cbbf 3d22 7dbe 2d2a 46bc
00000170: adda 1bbe ad33 073f 0373 d2be 22fc 24be
00000180: 66f4 1e3f b0e9 a63d 3d06 b13b 171e 04be
00000190: 460c 18be 7b8b 553d 22d7 09bd 972c 2bbe
000001a0: f44b 773d a34b 5cbe 0c49 3d3e 23a4 3d3e
000001b0: a369 f9be 38b9 413d 3844 75bd 9314 b8bc
000001c0: 1110 043c ae9c 523e 68bb 44be ea80 ed3b
000001d0: 2b2d c5bd 70b3 6b3e 3457 813d 2e06 d33c
000001e0: b4c5 d03d 2238 b0bc 3f20 5abe 68c6 af3d
000001f0: c67a 6f3d 533c b0bd fb87 473e cd7e babd
00000200: 8a82 003e 0896 1abd f87a 9a3d 0517 993c
00000210: 494c aa3c 3a99 7d3d cc8c 42bd 1ee4 b33d
00000220: 1c94 bb3d 9ac8 683c 36e8 a03c 070b 023d
00000230: 0567 8e3c 9d14 51bd 5e56 24bd 8a35 0e3d
00000240: 5da0 eebc 50f3 933c a325 d1bd 8a1c 333d
00000250: dec5 b13c abd0 c13c 9b2b b3bc 4673 c63c
00000260: 7c60 a7bc d83b e8bd 6499 50bc 9bf5 17bd
00000270: fc64 bdbb 11fc dc3c c4fd 363c 6b25 1e3c
00000280: 025c 8e3d 5b7b 9bbc ca12 903d 04a8 a8bd
00000290: fb43 1ebc c6f0 ec3c da65 e6bd c9f6 233d
000002a0: d947 c33d 8774 74b9 5b0d 543d cb5c 2b3c
000002b0: c801 263d 4d14 f93b b6ea babb 92e2 893b
000002c0: e1f2 9cbd 713a 20bd 3c7c a7bd 9247 c23d
000002d0: b114 fdbc f5c1 283d ec2e 133d 6356 4f3d
000002e0: 1a60 1cbc d019 0abd c323 8c3c 735e 9ebc
000002f0: c28a 0fbc 618a 16bc 41ef 42bd 171b 06b9
00000300: 1d46 c03d 9443 07bc 4865 363d c32f 43bd
00000310: 3a0b 6cbc 35a4 473d 5c2a 9bbd 62d1 2e3d
00000320: 2090 ddba 2ab1 e33b d7c4 513b ac9d 81bc
00000330: 94de bf3a 5489 91bc bec3 653d 3687 87bc
00000340: aafc 92bd 1f0e ff3b 5b73 37bd 98a4 e33d
00000350: eb11 97bc 48b5 36bd beee 443c e4e4 3cbc
00000360: 4354 943c 5baf 06bd dc7b 48bc 7ad8 ef3c
00000370: 091f bc3c 1efe 493d e079 8abd d70f ec3b
00000380: cf22 8c3d 7529 803c 6b87 453d bbe1 efbd
00000390: 175f 893c 67ee 513c 7580 5fbd 0f65 2b3d
000003a0: 5d13 803d 93cb 6abc 9799 04bc bcbf 5f3d
000003b0: fc17 08bd 677e 773d d1ac 15bd 5cdd b43d
000003c0: da7f 47bc 2f7c debb ffc1 c6bd 000a 01bd
000003d0: 4805 173d 3561 d83d 96a4 1d3d fc9a fe3c
000003e0: 8c07 8c3d 8edc ecbd 8025 a3bc cf06 9ebc
000003f0: 4ac9 a43d 44ce b4bd 39bd 7d3d 5475 8fbc

pos_embedding.weight f4 [9, 32]
0.22720498 0.28232753 0.14279349 0.05463862 0.19541056 -0.20995075 0.2888926 -0.4045147
-0.238071 0.048559185 -0.07947664 -0.10065725 -0.25503045 -0.6396976 0.048991814 0.30758327
-0.16545121 0.087080956 0.11670935 -0.21880534 -0.15819755 0.13164957 -0.16316377 -0.57040495
-0.030051563 -0.70937675 0.07336901 0.08262133 0.6439942 0.014064309 -0.36335868 -0.068736486
0.15054874 -0.111895405 0.21823998 0.08250703 0.19378237 0.3878094 0.0049411682 0.045086015
-0.06758555 -0.041433647 -0.025833571 0.069719516 -0.6378235 -0.07954198 -0.029756052 0.052884374
0.013691604 -0.055078447 -0.56759787 -0.09434954 0.04533928 0.072194174 -0.03799628 -0.035865013
0.63328207 -0.008511255 -0.4030779 -0.22011116 -0.5040458 -0.55415756 0.0934535 -0.032762185
-0.32935667 0.15169698 0.13956253 -0.05223993 -0.1976549 -0.415003 -0.035738435 -0.045234382
-0.04511266 0.06734824 -0.018537259 -0.031153137 0.5600095 -0.033484418 -0.23778287 0.0066317264
0.043756127 -0.062368095 0.064923935 0.0051295916 0.08811908 0.14488378 -0.018297054 -0.13579834
0.23479423 -0.030141128 -0.17533132 0.22086063 0.49790806 0.45668337 -0.10962717 -0.024261374
0.22441724 -0.38080156 -0.14188357 -0.027639925 0.26056582 -0.31212792 0.0024666723 0.121313736
-0.08560179 0.043087617 -0.025033792 0.1184339 0.22880062 0.40380853 0.22831921 0.10470172
-0.02989547 -0.18311298 0.121853076 -0.05775478 -0.028663158 0.051121578 -0.1478394 0.048972044
-0.7343017 0.1610703 0.99079794 -0.072322674 0.059165575 -0.120512426 0.05932641 -0.119524494
-0.37899593 -0.30857378 -0.66350746 0.004109033 0.96441203 -0.14370303 0.8710023 -0.21624525
-0.3638723 -0.32899123 0.17745414 -0.4446616 -0.4971257 0.056727387 -0.26923642 -0.12960653
0.4057538 0.23148914 0.7287223 -0.9287957 0.53170663 0.4086513 0.22855929 0.118843645
-0.097602665 1.124884 -0.16176315 -0.24782477 -0.26058102 0.17568575 0.6851481 0.15769225
0.18271385 -0.2994682 0.4177708 -0.13459371 0.21523087 -0.32072267 -0.13836442 0.10520361
0.05664949 0.21035448 -0.21854854 0.4231758 -0.61136496 -0.02766255 -0.31535107 -0.07819748
0.39014792 -0.16890132 -0.019226825 -0.01291367 -0.20779052 -0.09660162 0.093250245 -0.35612673
0.44440627 0.18249294 -0.32044783 0.060141563 0.7989708 -0.29561153 0.011562775 0.025232568
-0.6503657 -0.3230645 -0.44985214 -0.5075419 0.09866803 -0.41887385 -0.28140256 0.041620716
-0.044945814 0.3505211 -0.60325783 -0.63606733 0.6732674 -0.2353591 0.056323458 0.016948199
-0.17736599 -0.52477753 0.09374311 0.29801068 -0.0008437485 0.74045265 0.13669634 0.17639913
0.50370705 0.0006631573 -0.011745966 0.28511766 -0.17649573 -0.40217763 -0.23288505 0.247912
0.4902761 0.2058363 -0.08227833 -0.18301994 -0.4687557 0.037625052 -0.29134357 -0.29121935
0.1510271 -0.28456005 0.37523055 0.26355475 -0.40175173 -0.14149892 -0.16764721 -0.09001324
-0.43205568 0.09995017 -0.4656874 0.1473589 -0.28657 0.29349253 0.24409963 0.08681943
-0.46380416 -0.076781884 -0.041079413 0.054027338 0.12859102 0.25627223 0.39167958 -0.26338884
00000000: 6ca8 683e 3c8d 903e 7538 123e bfcc 5f3d
00000010: b519 483e 54fd 56be bbe9 933e 8d1c cfbe
00000020: e2c8 73be ffe5 463d a6c4 a2bd 6325 cebd
00000030: 5a93 82be 39c3 23bf a4ab 483d 8e7b 9d3e
00000040: 0b6c 29be 8057 b23d 5005 ef3d 820e 60be
00000050: 8afe 21be 25cf 063e 6714 27be 0f06 12bf
00000060: b22e f6bc b799 35bf 7e42 963d 5f35 a93d
00000070: cedc 243f fd6d 663c 260a babe b7c5 8cbd
00000080: 7329 1a3e 6b29 e5bd 4d7a 5f3e 72f9 a83d
00000090: e36e 463e f48e c63e 86e9 a13b 1dac 383d
000000a0: 4b6a 8abd 54b6 29bd eda0 d3bc 1bc9 8e3d
000000b0: 6748 23bf e8e6 a2bd f7c2 f3bc 499d 583d
000000c0: c052 603c f099 61bd 184e 11bf 553a c1bd
000000d0: aeb5 393d 8ada 933d fda1 1bbd 31e7 12bd
000000e0: c61e 223f ca72 0bbc 3a60 cebe d264 61be
000000f0: 2509 01bf 45dd 0dbf 8c64 bf3d a431 06bd
00000100: 70a1 a8be 7456 1b3e 7be9 0e3e 89f9 55bd
00000110: 0c66 4abe 467b d4be 7762 12bd b047 39bd
00000120: 0dc8 38bd e0ed 893d 73db 97bc dd34 ffbc
00000130: c85c 0f3f f526 09bd 5a7d 73be f44e d93b
00000140: a039 333d b075 7fbd d7f6 843d 2216 a83b
00000150: c777 b43d 6a5c 143e b4e3 95bc b80e 0bbe
00000160: e66d 703e 87ea f6bc 0e8a 33be 4a29 623e
00000170: ceed fe3e 67d2 e93e 3684 e0bd cabf c6bc
00000180: a2cd 653e 6cf8 c2be ed49 11be 206d e2bc
00000190: e268 853e 3bcf 9fbe e5a7 213b 5673 f83d
000001a0: fe4f afbd a47c 303d ab13 cdbc 798d f23d
000001b0: b64a 6a3e febf ce3e 83cc 693e db6d d63d
000001c0: 58e7 f4bc f881 3bbe 1b8e f93d 4790 6cbd
000001d0: 00cf eabc dc64 513d 3663 17be e996 483d
000001e0: 32fb 3bbf 9def 243e efa4 7d3f e91d 94bd
000001f0: 9a57 723d 38cf f6bd 4000 733d 42c9 f4bd
00000200: c10b c2be 62fd 9dbe a0db 29bf 11a5 863b
00000210: b5e3 763f e326 13be 02fa 5e3f 656f 5dbe
00000220: 784d babe 8a71 a8be 8ab6 353e afaa e3be
00000230: 4287 febe fa5a 683d 5bd9 89be 93b7 04be
00000240: f6be cf3e 7d0b 6d3e 8b8d 3a3f 8ec5 6dbf
00000250: ed1d 083f be3a d13e 720b 6a3e 4c64 f33d
00000260: e8e3 c7bd 33fc 8f3f 3da5 25be c7c5 7dbe
00000270: e06a 85be f7e6 333e de65 2f3f 147a 213e
00000280: 5719 3b3e e553 99be 0ee6 d53e efd2 09be
00000290: 7b65 5c3e c335 a4be 67af 0dbe fe74 d73d
000002a0: 4c09 683d 2a67 573e 30cb 5fbe 80aa d83e
000002b0: 6a82 1cbf 929c e2bc b275 a1be 0026 a0bd
000002c0: 78c1 c73e 78f4 2cbe 9381 9dbc dc93 53bc
000002d0: 0ac7 54be 12d7 c5bd fcf9 be3d 3e56 b6be
000002e0: 3889 e33e 6edf 3a3e bd11 a4be 0057 763d
000002f0: 5a89 4c3f 655a 97be cb71 3d3c 88b4 ce3c
00000300: 5e7e 26bf b668 a5be 0553 e6be 44ee 01bf
00000310: 7712 ca3d a276 d6be ff13 90be 7c7a 2a3d
00000320: 1a19 38bd 8077 b33e 1b6f 1abf 4fd5 22bf
00000330: 415b 2c3f fa01 71be 6db3 663d f3d6 8a3c
00000340: 6e9f 35be d257 06bf 63fc bf3d db94 983e
00000350: 012f 5dba 4e8e 3d3f 20fa 0b3e f9a1 343e
00000360: f2f2 003f bcd7 2d3a 2772 40bc f1fa 913e
00000370: 4cbb 34be 3aea cdbe 6b79 6ebe a5dc 7d3e
00000380: 7805 fb3e c0c6 523e 8b81 a8bd 9469 3bbe
00000390: bf00 f0be ba1c 1a3d fc2a 95be b41a 95be
000003a0: d9a6 1a3e dbb1 91be 381e c03e a6f0 863e
000003b0: 67b2 cdbe 18e5 10be b6ab 2bbe dd58 b8bd
000003c0: 6736 ddbe adb2 cc3d 946e eebe 40e5 163e
000003d0: 4eb9 92be a744 963e 41f5 793e 63ce b13d
000003e0: bd77 edbe d23f 9dbd e342 28bd c54b 5d3d
000003f0: 5dad 033e 1d36 833e 3a8a c83e e7da 86be

blocks.0.ln1.w f4 [32]
0.8237198 0.7683789 0.59555835 0.76341915 0.8424149 0.45138928 0.6642781 0.88720036
0.7495604 0.85901487 0.8695658 0.7672504 0.64645505 0.50714546 0.6900184 0.8135369
0.722371 0.80404854 0.53962475 0.70908374 0.73179764 0.8050614 0.8127963 0.70772374
0.5187481 0.6905992 0.59567267 0.7327543 0.41537434 0.655873 0.78749555 0.8805489
00000000: 4ddf 523f 7bb4 443f 8376 183f 706f 433f
00000010: 81a8 573f 7f1c e73e 210e 2a3f 901f 633f
00000020: 31e3 3f3f 66e8 5b3f dd9b 5e3f 866a 443f
00000030: 147e 253f 49d4 013f 0ca5 303f f443 503f
00000040: 4eed 383f 20d6 4d3f d924 0a3f 8386 353f
00000050: 1757 3b3f 8118 4e3f 6b13 503f 622d 353f
00000060: adcc 043f 1ccb 303f 017e 183f c995 3b3f
00000070: f2ab d43e 4be7 273f 4f99 493f a76b 613f

blocks.0.ln1.b f4 [32]
-0.030870851 -0.121538475 0.108282134 -0.026308207 0.141497 -0.15487337 -0.1941985 0.039443452
0.045000862 0.27054343 0.04719777 -0.026314676 -0.09236965 -0.13571137 0.17971282 0.05794719
0.12488247 -0.16823973 -0.13086464 0.080564275 -0.023221554 -0.003185414 0.16577455 0.06836733
0.19482864 0.20020157 -0.30204374 0.040972088 0.16468416 -0.14205901 0.068996355 0.049995493
00000000: dee4 fcbc 2ae9 f8bd 06c3 dd3d 4f84 d7bc
00000010: 97e4 103e 2097 1ebe f9db 46be 758f 213d
00000020: d352 383d ab84 8a3e 7352 413d e091 d7bc
00000030: 4d2c bdbd ecf7 0abe a306 383e 085a 6d3d
00000040: 61c2 ff3d 0947 2cbe 6101 06be e2fe a43d
00000050: 213b bebc 61c2 50bb cec0 293e 2c04 8c3d
00000060: 2981 473e a401 4d3e 7aa5 9abe 59d2 273d
00000070: f7a2 283e eb77 11be f64d 8d3d 13c8 4c3d

blocks.0.attn.W_Q f4 [4, 32, 8]
0.15321374 0.070146024 0.07361359 0.122274816 -0.02417758 -0.019597406 -0.2830726 -0.39504018
0.12617008 -0.2306508 -0.104378074 -0.23669894 0.06898592 -0.29133475 0.72167015 -0.5831705
0.040515997 0.053228322 0.11733195 -0.16125128 0.006490563 -0.08073266 -0.35638872 0.3242325
0.20130257 -0.0760103 -0.093955465 -0.58808494 -0.0017905098 -0.3218821 0.29639703 0.077782
-0.09975689 0.06434174 0.07260396 -0.2622986 -0.0053004646 0.24331483 -0.4420003 0.20300636
0.24526782 -0.20078881 -0.0664538 0.14932497 0.015075099 -0.214075 -0.17189631 -0.3620535
0.0013952444 -0.1016175 -0.055729393 -0.3022214 0.0097389845 -0.38826272 -0.19852868 0.104589395
-0.21234079 0.04900143 0.060495738 0.3155838 -0.008458337 -0.1336067 0.38292047 0.16518365
-0.06938553 0.042939186 0.005244454 -0.06927901 0.001433736 -0.08845167 0.09262201 -0.32218814
-0.5424667 0.34579247 0.114187084 0.6131192 -0.05740712 0.112665266 0.10124886 0.27708057
0.28144047 -0.18225445 -0.08522424 -0.056704473 0.024526518 0.34835532 0.39957654 -0.10737015
0.21487251 0.09959389 0.041852277 0.15913922 0.015168893 -0.04745641 0.06330522 -0.34364823
-0.31552476 -0.1700537 -0.11120806 0.44682977 0.014948972 0.27033472 0.87625784 0.24164747
-0.022535326 -0.03274339 0.009323979 -0.036488432 -0.00524725 0.3132943 -0.25076577 0.048042413
-0.100761496 -0.002462127 -0.0050553 0.25483903 -0.01963053 0.5574291 -0.25645143 0.098035276
-0.11268634 0.019801224 0.0039469036 0.1956266 -0.02012142 0.23480603 0.21397765 -0.18584944
0.13452637 0.1691436 0.01411689 -0.23955795 -0.005590986 0.3001283 -0.012329114 0.5013511
0.42588967 -0.17176858 -0.08977123 -0.18364269 0.020927314 -0.26857278 -0.0917394 -0.08053268
0.01656071 -0.0476853 -0.047727223 -0.40082514 0.009612343 0.0027042064 0.22083034 -0.08381181
-0.20984425 0.07616553 0.05388607 0.23496862 -0.01628275 0.6887176 0.042942222 -0.12173318
-0.057694115 -0.10036254 -0.010384122 -0.17175978 -0.0010833387 0.0976205 -0.34509668 0.16958785
0.3778121 -0.18143749 0.029333303 0.49960402 0.04324158 0.2798686 0.32069424 0.17875622
0.20138144 -0.011538667 0.011411757 0.05323945 0.0056647235 0.21736953 0.00034619754 0.024811069
-0.03419636 -0.016234608 -0.018758526 0.12570003 -0.0022540875 0.072509676 0.4087061 0.03379088
-0.010397161 0.11114956 0.063443005 -0.4528752 -0.008778746 0.11826163 -0.12798001 0.19498968
0.5034885 -0.007764712 0.10242972 -0.051472366 -0.026603175 0.39319327 0.08712705 -0.24300091
0.05505802 -0.009001642 -0.008148947 0.031340644 -0.059751965 0.063436635 0.1720185 -0.09197033
-0.15220289 0.121298276 0.025239732 0.4166826 -0.021530166 0.149994 0.12571165 -0.08649364
0.08685305 0.19436735 0.11993045 -0.46245578 -0.015071404 -0.003396676 0.10766083 -0.2780696
0.11351714 -0.24053729 -0.11383845 -0.020912632 0.019667815 -0.3524187 0.95010465 -0.3120964
0.18423541 -0.058031593 -0.02012973 -0.28281114 0.006125765 -0.116904125 -0.116049446 -0.17088431
0.046557404 0.040911105 0.013108047 0.17253552 0.0009134773 0.22996573 0.027071929 0.2508899
00000000: 10e4 1c3e b8a8 8f3d b9c2 963d 386b fa3d
00000010: 0f10 c6bc bd8a a0bc e4ee 90be b542 cabe
00000020: bb32 013e b92f 6cbe 2cc4 d5bd 3561 72be
00000030: 7d48 8d3d d429 95be 60bf 383f a94a 15bf
00000040: 1af4 253d f105 5a3d bc4b f03d 0e1f 25be
00000050: caae d43b 2a57 a5bd 9578 b6be cd01 a63e
00000060: 4322 4e3e 4aab 9bbd b96b c0bd bc8c 16bf
00000070: 8aaf eaba bbcd a4be 5ac1 973e 2b4c 9f3d
00000080: 574d ccbd 9ac5 833d 63b1 943d 014c 86be
00000090: 85af adbb 8627 793e dd4d e2be e6e0 4f3e
000000a0: 7d27 7b3e 959b 4dbe ee18 88bd a5e8 183e
000000b0: 8cfd 763c 7a36 5bbe 9605 30be 145f b9be
000000c0: a2e0 b63a d61c d0bd 8144 64bd c3bc 9abe
000000d0: 4390 1f3c 5fca c6be 1a4b 4bbe f732 d63d
000000e0: dd6f 59be b9b5 483d 61ca 773d 3394 a13e
000000f0: d694 0abc 32d0 08be 270e c43e e725 293e
00000100: 001a 8ebd 00e1 2f3d abd9 ab3b 27e2 8dbd
00000110: 32ec bb3a 2626 b5bd 9cb0 bd3d d8f5 a4be
00000120: 19df 0abf b60b b13e ebda e93d 61f5 1c3f
00000130: ba23 6bbd 0cbd e63d 905b cf3d 81dd 8d3e
00000140: f718 903e e9a0 3abe 0c8a aebd f342 68bd
00000150: d6eb c83c a15b b23e 4c95 cc3e e2e4 dbbd
00000160: 8a07 5c3e e2f7 cb3d 4b6d 2b3d 64f5 223e
00000170: f386 783c a761 42bd 2ba6 813d a9f2 afbe
00000180: 768c a1be 8f22 2ebe 0dc1 e3bd dfc6 e43e
00000190: 88ec 743c 5069 8a3e 6f52 603f 6f72 773e
000001a0: 019c b8bc ef1d 06bd 9ac3 183c e574 15bd
000001b0: 20f1 abbb 1c68 a03e 5f64 80be 1fc8 443d
000001c0: 0b5c cebd a35b 21bb eea6 a5bb 437a 823e
000001d0: 35d0 a0bc acb3 0e3f 9a4d 83be b8c6 c83d
000001e0: 19c8 e6bd 2d36 a23c 0755 813b 5752 483e
000001f0: add5 a4bc fe70 703e f51c 5b3e 514f 3ebe
00000200: 48c1 093e fb33 2d3e 874a 673c ae4e 75be
00000210: 9734 b7bb 6baa 993e 0d00 4abc 8c58 003f
00000220: 360e da3e 1ae4 2fbe fbd9 b7bd d40c 3cbe
00000230: c26f ab3c 5f82 89be dee1 bbbd 51ee a4bd
00000240: 53aa 873c a951 43bd 9f7d 43bd f438 cdbe
00000250: 177d 1d3c 0e39 313b 5921 623e 87a5 abbd
00000260: 69e1 56be acfc 9b3d a4b7 5c3d 9d9b 703e
00000270: 6763 85bc cc4f 303f 2fe4 2f3d 3f4f f9bd
00000280: aa50 6cbd e08a cdbd 2a22 2abc cce1 2fbe
00000290: d1fe 8dba 42ed c73d 83b0 b0be 70a8 2d3e
000002a0: 9670 c13e c0ca 39be 654c f03c 19cc ff3e
000002b0: 151e 313d f04a 8f3e 0932 a43e df0b 373e
000002c0: f036 4e3e ad0c 3dbc 61f8 3a3c 9c11 5a3d
000002d0: 259f b93b 1e96 5e3e d981 b539 9540 cb3c
000002e0: 7b11 0cbd 71fe 84bc 7bab 99bc 82b7 003e
000002f0: 50b9 13bb f47f 943d ed41 d13e 4e68 0a3d
00000300: db58 2abc 61a2 e33d 68ee 813d 42df e7be
00000310: bbd4 0fbc 2733 f23d 310d 03be 60ab 473e
00000320: 9fe4 003f 206f febb acc6 d13d b0d4 52bd
00000330: e7ee d9bc a150 c93e ab6f b23d 3bd5 78be
00000340: 8584 613d a07b 13bc 2983 05bc 0c5f 003d
00000350: 7abe 74bd 11eb 813d 9e25 303e f15a bcbd
00000360: 13db 1bbe 3b6b f83d 8ec3 ce3c 6c57 d53e
00000370: 0860 b0bc 0798 193e 8eba 003e 9423 b1bd
00000380: 03e0 b13d 3c08 473e 199e f53d 01c7 ecbe
00000390: 0dee 76bc c49a 5ebb 487d dc3d 235f 8ebe
000003a0: ad7b e83d 684f 76be 2224 e9bd f850 abbc
000003b0: 661e a13c 3970 b4be 0f3a 733f 19cb 9fbe
000003c0: 35a8 3c3e 89b2 6dbd 1be7 a4bc 9fcc 90be
000003d0: a4ba c83b 6e6b efbd 55ab edbd 4cfc 2ebe
000003e0: fab2 3e3d 6792 273d 22c3 563c 27ad 303e
000003f0: 6d76 6f3a 237c 6b3e f3c5 dd3c a474 803e

blocks.0.attn.b_Q f4 [4, 8]
-0.22296447 0.22570838 0.16485281 0.089545526 -0.03766609 0.077581674 0.112630084 0.16925988
-0.07877843 0.0218691 0.022394266 0.018895736 0.118399486 -0.15749496 -0.025968136 -0.19399379
0.071134746 -0.24434248 -0.0030970064 0.052919827 -0.112926856 -0.0368497 0.11636505 0.11378252
-0.09280607 -0.094387814 -0.20186913 -0.0673694 0.13057105 -0.076912485 -0.06403102 -0.17293516
00000000: cc50 64be 1920 673e 2dcf 283e a563 b73d
00000010: c247 1abd 24e3 9e3d 9aaa e63d 7652 2d3e
00000020: 9656 a1bd d426 b33c 2e74 b73c 3bcb 9a3c
00000030: 6e7b f23d 5c46 21be 21bb d4bc 4fa6 46be
00000040: 18af 913d ea34 7abe 25f7 4abb 76c2 583d
00000050: 3246 e7bd b6ef 16bd cd50 ee3d cf06 e93d
00000060: 1c11 bebd 664e c1bd c8b6 4ebe f8f8 89bd
00000070: 6bb4 053e 4b84 9dbd b222 83bd ea15 31be

blocks.0.attn.W_K f4 [4, 32, 8]
-0.113709554 0.05609776 0.045834288 0.2666157 -0.009210576 0.5828615 -0.51715755 -0.29869312
-0.0061249686 0.012924563 -0.08555156 -0.42198718 0.041497327 -0.23138997 -0.037670802 -0.0041716597
0.2589671 0.12887856 0.07059746 -0.29200518 0.0145203015 -0.19596317 0.06841227 -0.11463785
-0.010686598 0.19675475 0.031035645 0.039228823 -0.0101901265 0.18081649 -0.37299678 -0.34634158
0.23486985 -0.13612585 -0.10621735 0.2456158 0.01554284 0.17104515 0.023213556 -0.063277826
0.26456058 -0.1891085 -0.005074697 -0.3171147 0.003313036 0.18818055 -0.5708637 0.09595169
0.0056677964 -0.11102162 -0.052783128 0.058758203 0.014241254 0.09903867 -0.08461104 -0.12460279
0.2140215 0.028115606 0.049087234 0.22352089 0.012544861 0.10097479 -0.15163726 0.025802277
-0.058344554 0.18703787 0.10572972 -0.0116848145 -0.009264379 -0.1240799 -0.11081533 0.08047665
-0.06993701 0.015578739 0.0061180117 0.15551035 -0.015925758 -0.31738874 -0.3162763 -0.10139471
0.05282494 -0.07160903 -0.0818936 -0.019762114 0.012875779 -0.18907665 -0.062697776 0.45372808
0.032126635 0.0981741 0.11460919 0.24659783 -0.0015330686 0.10076911 -0.009044447 0.07997196
-0.34080425 0.4687416 0.15111436 0.19697656 -0.03820812 -0.5149929 0.55829126 0.4440769
-0.2654075 0.19584312 0.06690224 0.15165688 -0.03176099 0.31216496 0.1651261 -0.0549306
-0.3766494 -0.09793245 0.07257329 0.008962343 -0.016610963 0.2812835 0.056274123 -0.3214872
-0.052784156 0.048453 0.0017065841 0.08464104 -0.017879505 -0.013998934 -0.08587794 -0.11513426
0.08091844 -0.34391844 -0.12570016 0.03964948 0.021664575 0.17075226 0.07843786 -0.24659918
0.20973516 -0.111158065 -0.10701044 -0.18279672 0.028223975 -0.3192657 0.057753406 0.14571543
-0.23550567 0.01362642 -0.044221852 0.5377489 -0.011443731 -0.28214997 0.22460581 -0.22202557
-0.07129195 0.17322418 0.08692178 -0.50087 -0.011606387 0.291574 -0.39294875 0.31676358
-0.038292546 -0.021025592 -0.013375032 0.03022567 -0.01863193 -0.48471683 0.1578588 0.03559581
0.2507577 -0.12865539 -0.0065009627 0.2423622 0.03534515 -0.6947574 0.1682078 0.1261658
0.18279667 -0.17214808 -0.09537156 -0.35977915 0.02351487 -0.18657158 0.18133706 -0.0377855
0.05618863 0.07913156 0.08552637 -0.16151886 -0.017042086 0.13906783 -0.25283474 0.41527724
0.2027379 0.009985076 -0.090297855 -0.8094504 0.05502943 -0.24761881 0.20416935 -0.11900893
-0.22534633 -0.075676635 -0.013485605 0.10477082 -0.040763915 0.030888671 0.5850268 0.4724016
0.021191834 0.4086707 0.053496573 0.339489 -0.067219436 0.28875887 0.34581572 0.0448137
-0.050516304 -0.027910205 0.00033490508 0.29851037 -0.0057529607 -0.26980495 0.10185117 -0.04598921
0.0658954 0.040237 -0.080275975 0.571531 0.012144505 -0.5960384 0.35761014 0.19844578
-0.66316736 -0.14842235 0.05369957 -0.40428546 0.009257382 -0.106892355 0.4705389 -0.33805728
-0.3659502 -0.024378013 -0.16972664 0.3883057 -0.018794136 -0.4293528 -0.09317558 -0.5955526
0.29917258 0.042020246 -0.09399235 -0.26800275 0.013929047 -0.09606956 0.04523134 -0.02148789
00000000: 8ee0 e8bd c4c6 653d bcbc 3b3d da81 883e
00000010: f5e7 16bc 6936 153f 7064 04bf 4eee 98be
00000020: f6b3 c8bb 8cc1 533c a835 afbd b40e d8be
00000030: 1af9 293d 7ef1 6cbe b34c 1abd 6bb2 88bb
00000040: 5697 843e bef8 033e 6795 903d b481 95be
00000050: 8fe6 6d3c 92aa 48be bb1b 8c3d 40c7 eabd
00000060: d716 2fbc 147a 493e 773e fe3c 67ae 203d
00000070: 7df4 26bc f527 393e 6ff9 bebe af53 b1be
00000080: b981 703e 9364 0bbe 7b88 d9bd b582 7b3e
00000090: 65a7 7e3c 7626 2f3e 5b2a be3c ce97 81bd
000000a0: 7c74 873e a9a5 41be a549 a6bb dc5c a2be
000000b0: 851f 593b 67b2 403e 2024 12bf 5282 c43d
000000c0: ecb8 b93b 4e5f e3bd 1f33 58bd 71ac 703d
000000d0: 2654 693c c9d4 ca3d 8e48 adbd bf2f ffbd
000000e0: 7428 5b3e b352 e63c b20f 493d a9e2 643e
000000f0: f688 4d3c dfcb ce3d cc46 1bbe 4c5f d33c
00000100: b3fa 6ebd db86 3f3e d388 d83d aa71 3fbc
00000110: 9fc9 17bc 9a1d febd 26f3 e2bd f1d0 a43d
00000120: 233b 8fbd f83d 7f3c 9a79 c83b 1b3e 1f3e
00000130: bc76 82bc c780 a2be f8ee a1be 08a8 cfbd
00000140: f75e 583d c1a7 92bd d5b7 a7bd 28e4 a1bc
00000150: eef4 523c 4f9d 41be b167 80bd 0c4f e83e
00000160: 3897 033d 810f c93d 39b8 ea3d 2484 7c3e
00000170: 3ff1 c8ba 0960 ce3d 292f 14bc 57c8 a33d
00000180: e57d aebe e6fe ef3e b9bd 1a3e 39b4 493e
00000190: 1e80 1cbd 93d6 03bf 2dec 0e3f 0c5e e33e
000001a0: 7ee3 87be 198b 483e 0b04 893d f14b 1b3e
000001b0: d017 02bd 16d4 9f3e d116 293e e9fe 60bd
000001c0: 31d8 c0be cf90 c8bd 4ea1 943d cbd6 123c
000001d0: b713 88bc 6404 903e b27f 663d f899 a4be
000001e0: 3334 58bd a776 463d 76af df3a 4858 ad3d
000001f0: 0a78 92bc c95b 65bc c6e0 afbd 83cb ebbd
00000200: 91b8 a53d 1416 b0be 8bb7 00be 7e67 223d
00000210: e879 b13c aed9 2e3e 07a4 a03d 7f84 7cbe
00000220: d0c4 563e d7a6 e3bd 4a28 dbbd 102f 3bbe
00000230: f735 e73c cb76 a3be d68e 6c3d 6d36 153e
00000240: 6628 71be 5941 5f3c f921 35bd e9a9 093f
00000250: 7d7e 3bbc f675 90be 11ff 653e ac5a 63be
00000260: 8401 92bd ae61 313e 0c04 b23d 0439 00bf
00000270: b728 3ebc 3049 953e 9430 c9be d62e a23e
00000280: a5d8 1cbd dd3d acbc f322 5bbc d39b f73c
00000290: fda1 98bc ce2c f8be bda5 213e e9cc 113d
000002a0: 5063 803e 3dbe 03be 0706 d5bb cc2d 783e
000002b0: 13c6 103d 9fdb 31bf aa3e 2c3e 9c31 013e
000002c0: 0d2f 3b3e 9647 30be 2a52 c3bd f934 b8be
000002d0: 42a2 c03c 9f0c 3fbe 6cb0 393e f8c4 1abd
000002e0: 0d26 663d ba0f a23d 7328 af3d 3365 25be
000002f0: d89b 8bbc cc67 0e3e 8e73 81be 389f d43e
00000300: 869a 4f3e 7298 233c 15ee b8bd 2438 4fbf
00000310: 8a66 613d c98f 7dbe c511 513e f4ba f3bd
00000320: 30c1 66be 5afc 9abd baf2 5cbc 1592 d63d
00000330: 10f8 26bd 3d0a fd3c 51c4 153f 9fde f13e
00000340: 7f9a ad3c 493d d13e 391f 5b3d 81d1 ad3e
00000350: 58aa 89bd 34d8 933e c20e b13e 928e 373d
00000360: 2fea 4ebd f1a3 e4bc 3396 af39 5ad6 983e
00000370: 5583 bcbb e023 8abe 5997 d03d 2f5f 3cbd
00000380: 2bf4 863d 8dcf 243d bb67 a4bd db4f 123f
00000390: bff9 463c f995 18bf ad18 b73e 5f35 4b3e
000003a0: 56c5 29bf 07fc 17be 15f4 5b3d 81fe cebe
000003b0: 46ac 173c 61ea dabd 7aea f03e d815 adbe
000003c0: d35d bbbe 66b4 c7bc d2cc 2dbe 01d0 c63e
000003d0: 29f6 99bc 21d4 dbbe d7d2 bebd 2376 18bf
000003e0: 262d 993e 6c1d 2c3d 107f c0bd a837 89be
000003f0: a836 643c 1ec0 c4bd 7f44 393d 5f07 b0bc

blocks.0.attn.b_K f4 [4, 8]
-8.8677245e-07 7.0293794e-07 -4.9192056e-07 2.1794672e-06 -2.5843368e-08 1.9691076e-06 5.432434e-06 -2.2964258e-07
4.6651704e-07 1.2701688e-06 -3.040017e-07 -9.0144965e-07 -6.2976073e-07 3.272197e-08 6.7911765e-07 5.2479925e-07
5.282361e-07 -2.658923e-06 -1.1994345e-07 1.1966262e-06 -2.1142187e-06 -1.56791e-07 5.546739e-07 2.2310687e-07
8.4236564e-07 -8.171777e-08 3.451351e-07 1.598048e-06 -8.816002e-07 -1.0397869e-06 -6.477489e-07 3.613766e-07
00000000: 8a0a 6eb5 87b1 3c35 860c 04b5 f642 1236
00000010: 2bfe ddb2 0325 0436 4148 b636 ac93 76b4
00000020: 9d75 fa34 ab7a aa35 ad35 a3b4 26fb 71b5
00000030: d40c 29b5 308a 0c33 9c4c 3635 eedf 0c35
00000040: 1ccc 0d35 f36f 32b6 cec9 00b4 c39b a035
00000050: 00e2 0db6 625a 28b4 e6e4 1435 268f 6f34
00000060: ed1e 6235 d27c afb3 024b b934 837c d635
00000070: 1ba7 6cb5 ce8e 8bb5 f7e0 2db5 3903 c234

blocks.0.attn.W_V f4 [4, 32, 8]
-0.40387774 0.07343879 0.22646406 0.10913427 0.34070906 -0.016554013 0.19058451 0.00872749
0.17854792 -0.021551529 -0.18938084 0.2808168 0.16269279 -0.20937891 0.11697607 0.033553857
-0.29054308 0.18741775 0.2121365 -0.07280357 -0.01423539 0.16596657 -0.020820249 0.037058335
0.12266083 -0.17756902 -0.10076926 -0.5125326 0.20272648 -0.24438365 0.050251834 0.16383478
0.10305691 -0.13725813 -0.22118059 0.06814152 0.21193577 -0.02663859 0.12676272 0.32510945
0.0593872 -0.06473601 -0.018205678 -0.0035169718 0.104325265 -0.15261945 -0.032081757 0.062457047
-0.14321034 0.34086233 0.47265077 -0.20898333 -0.011165643 0.055291053 0.24282573 0.11177595
0.2641408 0.016934734 0.06722831 0.019386686 0.33198485 0.44708222 0.07500475 -0.10075603
-0.16833487 0.11007874 0.30432805 -0.00762636 0.27087286 -0.07055532 -0.23093835 0.32424077
0.16696452 -0.016749648 -0.068750866 -0.20374593 0.2307135 -0.28078026 -0.26034153 -0.12403236
-0.039158873 -0.35379642 -0.04130049 -0.0025566274 -0.08357635 0.50378484 -0.31340063 0.15146618
-0.0051504746 0.0048885164 -0.36276096 -0.08388946 0.2518308 0.099698186 -0.21678971 -0.36213624
-0.1412418 -0.049289215 0.13096106 -0.024205433 -0.12645525 -0.09622821 -0.12223383 0.055535942
-0.07419148 -0.114516154 0.07338809 -0.09591084 -0.13534875 0.04367454 -0.26893416 0.1152989
0.04191857 -0.08304107 -0.12669653 -0.089787565 0.101791546 -0.0026539606 0.010885209 0.16558893
0.29773036 0.10316255 0.11571245 -0.31081554 -0.25139934 -0.029021783 0.17222977 -0.10018485
0.3117072 0.084912546 0.25946307 0.2781892 0.012127841 -0.052443806 0.27060398 -0.074374534
-0.019240104 -0.062908925 0.43776208 -0.11646635 -0.032494847 -0.16443454 -0.46367314 -0.086905204
0.095984004 -0.05513584 -0.116496824 -0.07744367 0.09790533 -0.20380475 -0.12848869 -0.05143702
-0.13062136 0.42389777 -0.12653086 0.13763641 -0.21500227 -0.05792275 0.026607797 0.42650205
-0.38873574 0.094027705 -0.10432534 -0.21994182 -0.12844585 0.11596345 0.24635373 -0.2854549
0.008145335 -0.20238233 -0.10476083 0.19327374 -0.065983005 -0.10726446 -0.097432695 0.30448943
-0.06744985 0.39506537 -0.030137442 0.18047483 -0.15538108 -0.09054559 -0.24471246 -0.13805252
-0.20056376 -0.25139067 0.1633102 0.2781087 0.118801735 -0.08656987 0.13363723 -0.11626452
-0.11016484 -0.1361558 -0.030430993 -0.05645731 0.032204445 -0.066950664 -0.16212392 -0.061008636
-0.16984642 0.0030119545 0.06820912 0.38245168 -0.28935033 -0.445932 0.056944504 0.029761663
0.011697639 0.019075429 0.078875676 0.04676783 0.09509151 -0.06232039 -0.008872709 -0.050553624
-0.2784337 -0.08957782 -0.026809681 -0.10377261 0.081111364 -0.049783133 0.058156427 0.07959066
-0.1589502 -0.14142153 0.046411414 0.036451716 0.11620843 0.009087779 -0.10345169 -0.051872313
0.04847736 0.0003870886 0.015462422 0.013706777 -0.17816293 -0.05538463 -0.11331785 -0.021578219
-0.1759208 0.12385995 0.13944109 -0.15365998 0.03912948 -0.010866868 0.085171185 0.28651842
-0.21019275 -0.46630958 0.13458718 0.13764443 0.0041156323 -0.10588524 0.1021703 -0.27785614
00000000: 10c9 cebe 1467 963d 32e6 673e ca81 df3d
00000010: 6b71 ae3e 489c 87bc 9628 433e bffd 0e3c
00000020: 44d5 363e d58c b0bc 0ded 41be 38c7 8f3e
00000030: f098 263e 6d67 56be 2691 ef3d c56f 093d
00000040: 10c2 94be 70ea 3f3e 503a 593e 0a1a 95bd
00000050: 8e3b 69bc 24f3 293e 3a8f aabc 7bca 173d
00000060: 9a35 fb3d a7d4 35be 1d60 cebd 5635 03bf
00000070: 8897 4f3e b53f 7abe ded4 4d3d 4ec4 273e
00000080: 800f d33d 658d 0cbe 2a7d 62be c88d 8b3d
00000090: b105 593e 2c39 dabc 16ce 013e bf74 a63e
000000a0: fe3f 733d 5094 84bd 1324 95bc ff7c 66bb
000000b0: 7ca8 d53d 4648 1cbe 2968 03bd f6d2 7f3d
000000c0: bba5 12be 8285 ae3e 48ff f13e baff 55be
000000d0: 1af0 36bc df78 623d 4fa7 783e caea e43d
000000e0: 773d 873e b6ba 8a3c ffae 893d d4d0 9e3c
000000f0: ebf9 a93e f6e7 e43e 179c 993d 2d59 cebd
00000100: fa5f 2cbe f670 e13d e3d0 9b3e 8be6 f9bb
00000110: d9af 8a3e 4f7f 90bd 1a7b 6cbe e302 a63e
00000120: bff8 2a3e 8f36 89bc 41cd 8cbd c6a2 50be
00000130: 2940 6c3e 6ec2 8fbe 7c4b 85be ae04 febd
00000140: 0e65 20bd ce24 b5be b42a 29bd 178d 27bb
00000150: 142a abbd 0bf8 003f 0c76 a0be f319 1b3e
00000160: 50c5 a8bb d92f a03b cebb b9be 3dce abbd
00000170: f7ef 803e 902e cc3d 1ffe 5dbe ec69 b9be
00000180: b1a1 10be 7de3 49bd a81a 063e 794a c6bc
00000190: 7c7d 01be 4c13 c5bd bb55 fabd a879 633d
000001a0: b4f1 97bd 7287 eabd 7f4c 963d e76c c4bd
000001b0: dd98 0abe 13e4 323d bdb1 89be d421 ec3d
000001c0: ceb2 2b3d 7011 aabd bcbc 01be 8be2 b7bd
000001d0: 1678 d03d 12ee 2dbb e057 323c 2590 293e
000001e0: 1d70 983e e346 d33d a6fa ec3d 3723 9fbe
000001f0: 6ab7 80be 17bf edbc 005d 303e b72d cdbd
00000200: 1698 9f3e a1e6 ad3d 58d8 843e d16e 8e3e
00000210: dab3 463c 51cf 56bd 9b8c 8a3e ad51 98bd
00000220: 6c9d 9dbc 65d6 80bd 5a22 e03e e985 eebd
00000230: 5119 05bd 8761 28be 9166 edbe 5bfb b1bd
00000240: 4393 c43d 1ed6 61bd e395 eebd c99a 9ebd
00000250: 9782 c83d 31b2 50be 8a92 03be a0af 52bd
00000260: 9bc1 05be 2109 d93e 4e91 01be 8ff0 0c3e
00000270: 8e29 5cbe 6840 6dbd 98f8 d93c 7a5e da3e
00000280: 5f08 c7be 9991 c03d 86a8 d5bd 6e38 61be
00000290: 4f87 03be 3f7e ed3d 2744 7c3e 2527 92be
000002a0: 0374 053c 503d 4fbe d98c d6bd 8de9 453e
000002b0: 1922 87bd 78ad dbbd cb8a c7bd 0ae6 9b3e
000002c0: 2623 8abd 0246 ca3e cce2 f6bc 65ce 383e
000002d0: 381c 1fbe f76f b9bd e795 7abe a45d 0dbe
000002e0: 9660 4dbe 47b6 80be ca3a 273e 4364 8e3e
000002f0: 534e f33d 8b4b b1bd 33d8 083e 181c eebd
00000300: 1b9e e1bd 6d6c 0bbe 6b4a f9bc c83f 67bd
00000310: cfe8 033d 6e1d 89bd d003 26be 31e4 79bd
00000320: 38ec 2dbe 3664 453b 39b1 8b3d b5d0 c33e
00000330: ba25 94be 3351 e4be a43e 693d bbce f33c
00000340: 74a7 3f3c 1344 9c3c 9289 a13d a08f 3f3d
00000350: 56bf c23d aa43 7fbd d75e 11bc 5111 4fbd
00000360: dd8e 8ebe 9374 b7bd fa9f dbbc bc86 d4bd
00000370: b71d a63d 66e9 4bbd 6f35 6e3d 6e00 a33d
00000380: d7c3 22be ced0 10be e519 3e3d 654e 153d
00000390: affe ed3d e8e4 143c 7bde d3bd 1078 54bd
000003a0: 3290 463d 27f2 ca39 1956 7d3c 6492 603c
000003b0: 5870 36be feda 62bd 3013 e8bd cec4 b0bc
000003c0: 9524 34be 49aa fd3d a5c9 0e3e 0b59 1dbe
000003d0: 3c46 203d f30a 32bc 3b6e ae3d 8bb2 923e
000003e0: c53c 57be 21c0 eebe 39d1 093e a9f2 0c3e
000003f0: 6ddc 863b 5cda d8bd aa3e d13d 2943 8ebe

blocks.0.attn.b_V f4 [4, 8]
0.1145387 -0.08652672 0.07953091 -0.15696284 -0.04223189 -0.058557 0.032804072 -0.008859081
0.18268089 -0.0641778 -0.015843404 -0.07837544 0.08583187 -0.014676703 0.06998745 0.092688866
0.09709003 -0.045411844 0.20903157 -0.1272453 -0.13467714 -0.2409701 0.047158755 0.083179615
0.25752553 0.1509342 -0.082854 -0.00785918 0.25396413 -0.19786565 -0.2033822 -0.048535332
00000000: 4493 ea3d ec34 b1bd 1ae1 a23d deba 20be
00000010: 59fb 2cbd 77d9 6fbd 905d 063d ae25 11bc
00000020: b310 3b3e a76f 83bd 07ca 81bc 4d83 a0bd
00000030: 9fc8 af3d 8e76 70bc 9555 8f3d a9d3 bd3d
00000040: 23d7 c63d c501 3abd 5f0c 563e 984c 02be
00000050: cee8 09be dec0 76be 8a29 413d 135a aa3d
00000060: 63da 833e 7f8e 1a3e 5caf a9bd cac3 00bc
00000070: 9607 823e 4b9d 4abe 6c43 50be fccc 46bd

blocks.0.attn.W_O f4 [4, 8, 32]
0.16604814 0.03885091 0.23414968 -0.14003633 -0.061584968 -0.04966009 0.28286853 -0.1386383
-0.28630894 0.17094453 -0.16956042 0.053294357 0.014247615 -0.15373932 -0.17771626 0.08455869
-0.030562988 0.21243104 0.05355032 -0.0026101563 -0.29710466 0.10959768 0.24281143 -0.05297881
-0.17442964 -0.18923764 -0.08592563 0.029561032 -0.033538703 0.050051145 0.062266357 0.28168547
0.03286608 -0.142114 0.020428514 -0.20926559 0.28688556 0.013236751 -0.13939057 0.26507893
0.06694028 -0.08727315 0.23301643 -0.15090467 -0.07448897 0.0075907726 -0.05872662 0.3135415
-0.16329323 -0.19731738 -0.0009886383 -0.06852905 -0.1549861 -0.20682105 -0.02365394 -0.047793258
-0.090146236 0.01655057 -0.109833434 0.2495992 -0.14421763 -0.09071528 -0.027326474 0.2408006
0.26333117 0.15437436 -0.090426154 -0.3116109 -0.06319457 -0.043769054 -0.106710784 -0.064866066
0.10041786 -0.15085146 -0.21034196 0.033623803 0.08075596 -0.15437958 -0.049260553 0.13896845
-0.0046382817 0.14310917 0.014118562 -0.18963528 0.005579139 0.1603188 0.35885417 0.06247791
0.04728528 -0.13664651 -0.20012993 0.010686586 -0.011754645 0.16859436 0.2745324 -0.12812984
-0.19210811 -0.11583871 0.20257834 -0.0076275268 0.0143213775 0.05933581 0.083633795 -0.09548311
0.12891947 -0.07731167 0.16284251 -0.011141825 0.31545082 -0.16091566 -0.18997233 -0.16474305
-0.15889776 -0.04932505 0.11806996 0.04629826 -0.29135072 -0.13216308 -0.0068389317 -0.0529094
-0.038417872 0.3601426 -0.13597132 0.1451085 -0.023907464 0.2679118 0.045100998 -0.049791135
0.20375876 0.08513771 -0.119832374 -0.1900631 -0.055021852 -0.056970388 0.16671632 0.0099095255
0.2180548 0.25290942 -0.063091554 -0.12550329 -0.10231774 0.1702729 0.0070344363 -0.14933617
-0.040629514 0.16123536 -0.2611567 0.08040686 -0.20701212 0.0030115175 -0.20319007 0.1525174
0.12991351 0.14270331 -0.21893871 0.23535366 -0.071475744 -0.24900486 0.13951573 0.02782208
0.14096224 -0.017670423 0.04601275 0.18281831 -0.07631963 -0.0146353915 -0.12565918 0.17679684
0.15373726 0.037402254 -0.058343973 0.099895686 0.01809024 -0.21534666 0.031396948 -0.102189206
0.08031755 0.037665214 -0.44256333 -0.019525861 0.0023159543 0.31252748 0.054418534 0.04830498
-0.12916683 0.22701775 0.21632548 -0.41969854 0.037107635 -0.02539681 -0.18633573 0.04006549
0.020991426 0.14080118 0.00026315887 0.08234073 -0.13400482 -0.02140638 -0.08812971 -0.25909567
0.16006254 -0.07241345 0.06387934 0.026326345 -0.07401134 -0.13198264 0.12855653 0.0005735589
0.045324985 0.17740633 0.0073536406 -0.12090413 -0.050118808 -0.0033934575 0.1359356 -0.19659513
-0.068181366 -0.11888551 0.4413021 0.15162787 -0.09949399 -0.26020592 -0.2331594 -0.11577684
0.04239029 -0.4558137 -0.032108895 -0.10237577 -0.22626126 -0.13139522 0.15904696 0.050232016
0.052459806 0.25323817 0.1449278 -0.18947808 0.09990429 0.06021476 -0.16080809 0.190731
0.179405 0.20213996 0.014412639 -0.16381441 0.13887385 -0.08769252 0.016318377 -0.043169
0.060553838 0.19182245 0.12506723 -0.10609403 -0.059987437 0.22386107 -0.20973913 -0.12408804
00000000: 8608 2a3e 2222 1f3d efc4 6f3e af65 0fbe
00000010: 8540 7cbd 6168 4bbd 25d4 903e 33f7 0dbe
00000020: 1697 92be 150c 2f3e 3fa1 2dbe 2f4b 5a3d
00000030: d46e 693c d76d 1dbe 40fb 35be 1b2d ad3d
00000040: 3b5f fabc 8687 593e 9557 5b3d 280f 2bbb
00000050: 1a1e 98be c074 e03d 8fa3 783e 4f00 59bd
00000060: af9d 32be 83c7 41be c7f9 afbd fa29 f23c
00000070: e15f 09bd 6e02 4d3d 020b 7f3d 1439 903e
00000080: 959e 063d 5586 11be b359 a73c b849 56be
00000090: aae2 923e f5de 583c 67bc 0ebe 6db8 873e
000000a0: fc17 893d 44bc b2bd dc9b 6e3e c186 1abe
000000b0: ac8d 98bd 04bc f83b 538b 70bd 8388 a03e
000000c0: 5736 27be 910d 4abe 3295 81ba f558 8cbd
000000d0: adb4 1ebe e6c8 53be e8c5 c1bc ddc2 43bd
000000e0: 979e b8bd 1095 873c 5af0 e0bd ef96 7f3e
000000f0: c9ad 13be efc8 b9bd c5db dfbc 6f94 763e
00000100: 58d3 863e 5014 1e3e 5931 b9bd 778b 9fbe
00000110: 286c 81bd 2e47 33bd 2f8b dabd 80d8 84bd
00000120: e1a7 cd3d ce78 1abe e263 57be 1db9 093d
00000130: 6163 a53d ae15 1ebe 6fc5 49bd bf4d 0e3e
00000140: bafc 97bb 368b 123e 8b51 673c c02f 42be
00000150: 36d1 b63b 9d2a 243e bcbb b73e d6e8 7f3d
00000160: 36ae 413d 10ed 0bbe dcee 4cbe ca16 2f3c
00000170: 8e96 40bc 00a4 2c3e 838f 8c3e 7834 03be
00000180: fdb7 44be d83c edbd b270 4f3e 55f0 f9bb
00000190: 36a4 6a3c 1b0a 733d 3248 ab3d a68c c3bd
000001a0: 7703 043e 9555 9ebd 30c0 263e 338c 36bc
000001b0: c582 a13e 13c7 24be 1b88 42be 67b2 28be
000001c0: 18b6 22be 1009 4abd aace f13d 3fa3 3d3d
000001d0: ec2b 95be c255 07be 1e19 e0bb 87b7 58bd
000001e0: 0f5c 1dbd 9c64 b83e 113c 0bbe 5397 143e
000001f0: 96d9 c3bc bc2b 893e d3bb 383d caf1 4bbd
00000200: 23a6 503e ae5c ae3d ad6a f5bd e79f 42be
00000210: 985e 61bd c859 69bd afb7 2a3e 905b 223c
00000220: c249 5f3e 587d 813e 2536 81bd ef83 00be
00000230: f78b d1bd 055c 2e3e 2181 e63b 95eb 18be
00000240: 226b 26bd e21a 253e 55b6 85be 5aac a43d
00000250: fcfa 53be e15c 453b 0f11 50be 852d 1c3e
00000260: 0c08 053e d120 123e 7831 60be 8d00 713e
00000270: e061 92bd 21fb 7ebe 36dd 0e3e 21eb e33c
00000280: 6858 103e 90c1 90bc de77 3c3d b934 3b3e
00000290: 774d 9cbd 48c9 6fbc cdac 00be 3b0a 353e
000002a0: 4d6d 1d3e 1b33 193d 17fa 6ebd 1c96 cc3d
000002b0: fc31 943c d683 5cbe 169a 003d 9348 d1bd
000002c0: 877d a43d d746 1a3d a997 e2be b3f4 9fbc
000002d0: 44c7 173b 9a03 a03e f8e5 5e3d 71db 453d
000002e0: 4f44 04be 5777 683e 6d84 5d3e bae2 d6be
000002f0: 2dfe 173d f90c d0bc cbce 3ebe b61b 243d
00000300: 36f6 ab3c 2f2e 103e 96f8 8939 42a2 a83d
00000310: 8f38 09be 6f5c afbc 597d b4bd 30a8 84be
00000320: 6fe7 233e 814d 94bd 2cd3 823d 59aa d73c
00000330: 4293 97bd 7526 07be 53a4 033e e35a 163a
00000340: b1a6 393d 01aa 353e cff6 f03b 969c f7bd
00000350: 6149 4dbd c564 5ebb b432 0b3e 3c50 49be
00000360: aca2 8bbd 3f7a f3bd 59f2 e13e 5644 1b3e
00000370: 81c3 cbbd b639 85be 56c1 6ebe 681c edbd
00000380: 71a1 2d3d 6a60 e9be 9e84 03bd 63aa d1bd
00000390: 08b1 67be 788c 06be 35dd 223e 16c0 4d3d
000003a0: 18e0 563d 6fa8 813e f467 143e 8b06 42be
000003b0: 9f9a cc3d c1a3 763d e0aa 24be fd4e 433e
000003c0: f2b5 373e c7fd 4e3e fd22 6c3c f7be 27be
000003d0: f234 0e3e 2398 b3bd 1eae 853c fad1 30bd
000003e0: 4d07 783d 1b6d 443e a011 003e d447 d9bd
000003f0: 63b5 75bd d63b 653e dbc5 56be df21 febd

blocks.0.attn.b_O f4 [32]
0.06718772 0.019509831 0.042510655 -0.040038396 -0.07285892 0.08014668 -0.08793129 -0.06871275
0.039783236 0.042030998 0.043807246 0.06048523 -0.05822369 0.039968524 -0.11342938 0.068247624
-0.0018903819 0.026496988 0.01612722 0.05770272 -0.009992995 -0.05351721 0.0051481193 -0.00036890406
0.042684942 -0.037068583 0.0027718456 0.039754204 -0.041685548 0.036725003 -0.034071725 -0.050016552
00000000: b799 893d 15d3 9f3c a71f 2e3d 4dff 23bd
00000010: 0f37 95bd f123 a43d 5215 b4bd 45b9 8cbd
00000020: bff3 223d b228 2c3d 3a6f 333d 5cbf 773d
00000030: f77b 6ebd 09b6 233d aa4d e8bd 69c5 8b3d
00000040: b1c6 f7ba 3610 d93c 3b1d 843c b059 6c3d
00000050: a9b9 23bc dd34 5bbd 8eb1 a83b 7769 c1b9
00000060: 68d6 2e3d 3ad5 17bd daa7 353b 4ed5 223d
00000070: 77be 2abd f56c 163d cb8e 0bbd 28de 4cbd

blocks.0.linear_expand.weight f4 [128, 32]
-4.9814104e-09 -1.1822175e-20 -0.00025301237 3.1980824e-05 -4.330748e-05 6.107799e-38 -6.6668055e-24 5.2832974e-11
-3.0079567e-10 1.7237115e-05 -3.0017149e-09 -1.0255475e-14 -1.6818549e-06 1.3257853e-12 -4.5238036e-11 -6.9974653e-06
-5.4783177e-05 -0.00024471173 6.6008635e-13 -2.583814e-10 5.6269796e-16 1.2605353e-06 6.8984577e-06 2.7498626e-12
-1.9643021e-14 -4.627374e-06 1.1281317e-06 -1.8778694e-06 -0.00029126895 -3.2244656e-26 -4.8614042e-06 1.5472372e-09
-3.0672506e-10 -4.2430756e-22 -6.962123e-05 6.5181844e-06 -1.2162342e-05 1.436428e-38 -1.7497732e-24 1.1446764e-11
1.10411014e-10 2.0852367e-06 -6.59712e-11 -2.5608427e-14 -2.2032998e-07 -7.360296e-13 1.1982973e-11 -8.118345e-07
-4.5161296e-06 -7.141331e-05 -1.1663613e-13 4.2660804e-09 5.3168533e-16 2.4732236e-07 8.839674e-07 8.2585533e-13
-8.824389e-15 -6.2890234e-07 -8.356561e-06 -2.7363188e-07 -7.726215e-05 -6.917037e-27 -6.061949e-07 1.0988296e-10
1.02397986e-10 1.581029e-22 1.4486833e-05 -4.394564e-06 3.2852554e-06 -1.99447e-39 6.8589765e-25 -3.3803923e-12
-3.6787892e-11 -8.810325e-07 3.7653634e-11 5.451142e-15 9.9352434e-08 2.334796e-13 -3.02659e-12 4.3942995e-07
2.3517973e-06 2.4919767e-05 4.4391682e-14 -1.6420245e-09 -1.2014514e-16 -9.9907325e-08 -3.7042835e-07 -4.1462425e-13
2.426563e-15 2.6670315e-07 2.3985745e-06 1.230298e-07 1.7424492e-05 1.6654175e-27 2.8640918e-07 -3.277606e-11
1.8124126e-06 -4.7484213e-20 0.0029948954 -0.0024213614 0.0023046008 -6.1471475e-37 3.8648914e-22 -4.5143422e-09
-6.267441e-08 -0.0012993912 -3.1801168e-08 1.5945774e-11 1.16305855e-05 4.0056258e-10 -7.711549e-09 0.00023445414
0.00061628537 -0.0008631988 6.3566784e-11 -2.1527264e-06 -4.8928667e-13 0.00017383056 -0.00011914829 -3.327337e-10
3.782308e-12 -0.00012908646 -0.00040303633 -0.00011503247 0.0009720388 2.0442141e-24 0.00015960065 -1.8076847e-06
4.9077816e-08 -2.5527e-20 0.0009915684 -0.00027487896 0.00021378405 -6.993863e-37 3.483525e-23 -2.2994844e-10
-2.7045723e-09 -1.8673707e-05 -4.1886142e-10 7.674275e-13 1.7867313e-06 3.496199e-11 -3.4175252e-10 1.1707298e-05
7.5703225e-05 0.0010085449 3.799843e-12 -9.8030355e-08 -1.5930533e-14 -3.2351527e-06 -8.323726e-06 -3.055006e-11
2.528744e-13 6.2517925e-06 0.00018809165 2.3546893e-06 0.0019934997 1.4055355e-25 1.0771176e-05 -2.5498954e-08
-6.299241e-10 -4.0457684e-22 -1.0399942e-05 1.0219522e-06 -1.170357e-06 -7.10345e-40 -6.8608466e-25 -7.470202e-15
-1.2357028e-11 9.726805e-07 -9.1431154e-11 3.7375414e-15 -1.02396015e-07 1.568525e-13 -1.6292068e-12 -3.752187e-07
-2.0460413e-06 -1.4982102e-05 4.1840865e-16 3.359492e-10 -7.4262045e-17 6.3578774e-08 3.9818602e-07 3.0073703e-13
9.117138e-16 -2.493358e-07 1.5960136e-07 -1.1102683e-07 -4.1757988e-07 -7.9881637e-28 -2.151577e-07 3.3089323e-10
2.5218128e-06 3.7472332e-20 0.0027525323 -0.0022910207 0.0028204634 -3.8386653e-36 4.816701e-22 -4.143468e-09
-5.0679855e-08 -0.0008667713 -2.7433039e-08 1.2582698e-11 4.8991697e-05 3.9244613e-10 -5.4109077e-09 0.00021981263
0.0009682221 0.0011461459 5.353618e-11 -1.8733098e-06 -2.6768754e-13 -3.5333007e-05 -0.00033972174 -2.576665e-10
4.1708668e-12 0.00019384609 0.00035745584 5.817546e-05 0.0027313374 2.3681922e-24 0.00016929243 -1.0258661e-06
-9.106594e-06 -4.4783324e-21 -8.4626045e-05 -9.001474e-05 -0.0041703796 1.2838368e-36 -2.2942453e-22 4.908785e-09
5.896963e-08 0.0008718788 9.446536e-10 -2.2171107e-11 -8.300935e-05 -2.0041296e-10 8.977409e-09 -7.76143e-05
0.00028617913 0.002282866 -5.891783e-11 1.8379195e-06 5.957886e-13 -9.77612e-05 2.4322266e-05 2.0758134e-10
-5.4910113e-12 0.00013834576 -0.00029014694 0.0001297113 -0.00014498289 -1.822622e-24 -7.8671e-05 5.1346638e-06
00000000: f328 abb1 8850 5f9e bfa6 84b9 2623 0638
00000010: 0da5 35b8 2645 a601 6cf4 0099 a45c 682e
00000020: 3a5d a5af 6c98 9037 ba46 4eb1 08bf 38a8
00000030: 18bc e1b5 7396 ba2b 80f5 46ae c5cb eab6
00000040: fdc6 65b8 a74c 80b9 3ccc 392b f30b 8eaf
00000050: c82f 2226 aa2f a935 4d79 e736 1f81 412c
00000060: b9ed b0a8 d744 9bb6 4f6a 9735 1a0b fcb5
00000070: 75b5 98b9 f5aa 1f95 251f a3b6 92a6 d430
00000080: b79f a8af 353d 009c 9d01 92b8 c7b6 da36
00000090: dc0c 4cb7 c569 9c00 d461 0798 a45f 492d
000000a0: e0cb f22e 18f0 0b36 7c12 91ae 03a9 e6a8
000000b0: d893 6cb4 862c 4fab 83ce 522d d8ec 59b5
000000c0: 4289 97b6 bbc3 95b8 1352 03aa d794 9231
000000d0: 743f 1926 bac7 8434 c749 6d35 2675 682b
000000e0: 50f7 1ea8 d7d1 28b5 2833 0cb7 aee7 92b4
000000f0: cd07 a2b8 8b01 0994 65b9 22b5 9ba2 f12e
00000100: f12c e12e 7a22 3f1b 790c 7337 0475 93b6
00000110: 4278 5c36 c5b7 1580 6946 5417 bcdf 6dac
00000120: 7ccb 21ae 1880 6cb5 399a 252e e965 c427
00000130: 945b d533 f56f 832a 33fa 54ac cbea eb34
00000140: 92d3 1d36 cb0a d137 20ec 4729 9aad e1b0
00000150: 9684 0aa5 a28c d6b3 49df c6b4 a769 e9aa
00000160: 30da 2e27 672f 8f34 32f7 2036 2d1a 0434
00000170: d02a 9237 aef2 0313 c7c3 9934 9026 10ae
00000180: 0642 f335 e43c 609f 0246 443b b4af 1ebb
00000190: c908 173b 352d 5183 4c9e e91b 931c 9bb1
000001a0: 9f97 86b3 5550 aaba c195 08b3 b142 8c2d
000001b0: fc20 4337 2c36 dc2f c07b 04b2 ced7 7539
000001c0: 368e 213a 4a48 62ba ebc8 8b2e 8f77 10b6
000001d0: d2b8 09ab 4946 3639 40df f9b8 1bec b6af
000001e0: 0014 852c 625b 07b9 9f4e d3b9 963d f1b8
000001f0: 6bd0 7e3a d529 1e18 795a 2739 939f f2b5
00000200: a1c9 5233 8018 f19e 84f7 813a a11d 90b9
00000210: 382b 6039 24fd 6d83 f373 281a bbd4 7caf
00000220: 57db 39b1 7ba5 9cb7 8145 e6af fb02 582b
00000230: 9fcf ef35 b4c3 192e 64e1 bbaf 766a 4437
00000240: dcc2 9e38 2731 843a f1b1 852c c284 d2b3
00000250: 4f7d 8fa8 801b 59b6 22a6 0bb7 4f5c 06ae
00000260: 0b5b 8e2a 7dc6 d136 783a 4539 4105 1e36
00000270: 60a5 023b 33ff 2d16 d9b5 3437 cb08 dbb2
00000280: f826 2db0 3c8d f49b 697b 2eb7 032a 8935
00000290: 2915 9db5 27bc 0780 3a55 5497 3a92 06a8
000002a0: 1b63 59ad 0c8d 8235 2a0f c9ae bca8 8627
000002b0: cee4 dbb3 a899 302a 5c4a e5ab aa71 c9b4
000002c0: b94e 09b6 a35b 7bb7 3832 f125 a6b0 b82f
000002d0: 933c aba4 cd88 8833 45c6 d534 c64c a92a
000002e0: 4d64 8326 74dc 85b4 e35e 2b34 a56d eeb3
000002f0: be2f e0b4 af27 7d92 1906 67b4 15e9 b52f
00000300: 6a3c 2936 45f5 301f d463 343b f324 16bb
00000310: 86d7 383b 5d47 a384 6b93 111c 545e 8eb1
00000320: 17ab 59b3 0a38 63ba e4a5 ebb2 6f5b 5d2d
00000330: 6f7c 4d38 e2bf d72f d9ea b9b1 817d 6639
00000340: 49d0 7d3a 463a 963a 6174 6b2e 6f6e fbb5
00000350: d7b1 96aa 8732 14b8 ae1c b2b9 56a7 8daf
00000360: d4bf 922c 2a43 4b39 e968 bb39 6d01 7438
00000370: 3d00 333b e13a 3718 1784 3139 7eb0 89b5
00000380: 86c8 18b7 c62f a99d 4379 b1b8 4cc6 bcb8
00000390: aea7 88bb fb6e da03 baad 8a9b 21aa a831
000003a0: cb45 7d33 cc8e 643a 0bd5 8130 e504 c3ad
000003b0: 4e15 aeb8 3c5b 5caf 103b 1a32 dcc4 a2b8
000003c0: 500a 9639 239c 153b ca8f 81ae 6fae f635
000003d0: 18b3 272b 2505 cdb8 ab07 cc37 f43c 642f
000003e0: a232 c1ac e810 1139 dd1e 98b9 1d03 0839
000003f0: 8c06 18b9 bf04 0d98 2cfc a4b8 6d4a ac36
