Encoder_Decoder_Files/Decoder_Only_Models/071223_EDForced_Transformers/4_base.pth (torch, 151363 bytes, 40 tensors)

encoder_embedding.weight f4 [47, 32]
000000 d9 e5 4d bd da 56 c2 bf 4f 9e 52 40 b6 d4 a4 bf
       -0.050268028 -1.5182755 3.2909124 -1.2877414
000010 50 6d b9 3e 8a 46 f5 3d 38 20 2a 3f 49 d4 03 c0
       0.3621621 0.11976345 0.6645541 -2.0598319
000020 c8 f5 ec 3f 7b 0b d5 3e 48 02 4f 3f 52 59 50 3e
       1.8512506 0.4161032 0.80862856 0.20346573
000030 78 ab 35 3d be 8b 75 3f 23 27 4b bf 4c f1 48 3f
       0.04435298 0.95916355 -0.7935659 0.7849319
000040 90 0d 8f bf 6d 6f 7b be 58 e1 0f bf 70 6f 71 3e
       -1.1176014 -0.24554224 -0.5620322 0.23577666
000050 aa e0 85 bf ed 94 3a bf 7b c9 cf 3f 19 6c 39 3f
       -1.0459187 -0.7288349 1.6233362 0.7243057
000060 51 54 e7 bf 19 b4 02 3e 7d 91 56 3f 80 81 80 3e
       -1.8072606 0.12764014 0.8381575 0.250988
000070 f2 f4 2a 3f 65 bb 85 be 8c 38 5d 3f 79 56 83 bf
       0.66780007 -0.26119533 0.8641441 -1.0260764
000080 c1 22 93 bf ac a5 41 3f 15 03 ea 3e 62 8e 41 be
       -1.1494981 0.7564342 0.45705476 -0.18901971
000090 4e 31 43 be d0 5e a9 3f f5 9e e1 3f 4f d3 4c 3c
       -0.19061777 1.323206 1.7626635 0.012501552
0000a0 05 51 b4 3f db cb 23 bf b4 ac d5 be 97 54 e0 be
       1.4087225 -0.63982934 -0.41733325 -0.43814537
0000b0 f9 96 f6 3f 7c b6 44 bf b9 79 24 be e2 ab 6e 3e
       1.9264823 -0.7684095 -0.16062059 0.23307756
0000c0 10 21 da 3f df c2 9e bf 9b 70 94 bf fe f9 0a 3f
       1.704134 -1.240322 -1.1596864 0.5428771
0000d0 58 a4 e8 3e 65 be d4 be 98 b6 c1 3f a5 24 b5 be
       0.45437884 -0.4155151 1.5133848 -0.3537952
0000e0 d7 31 65 bf ff 9d 4d bf ea cd a3 bd bb c5 73 bf
       -0.89529175 -0.8031921 -0.07998259 -0.9522359
0000f0 8c 65 2b be d6 6e 8d bf ea 44 41 3f c1 48 11 bf
       -0.16737956 -1.104945 0.7549578 -0.5675164
000100 51 b9 db bd d0 10 04 be 28 c8 35 bf 82 52 6e 3f
       -0.10728706 -0.12897038 -0.7100854 0.93094647
000110 bc 30 32 3f 4f 20 39 c0 93 15 85 bf da d6 97 3f
       0.6960561 -2.892597 -1.0397209 1.1862442
000120 66 49 b0 bf d1 c4 29 be 1a b5 a6 3e 6b b2 3c bf
       -1.37724 -0.16578986 0.32560045 -0.73709744
000130 1a 14 c5 3f 00 95 ec be 90 78 ea 3f 26 4d 8d 3e
       1.539676 -0.46207428 1.8318043 0.27597922
000140 0d 26 93 3f 99 6e 82 3f 5f 68 91 3f 88 81 9f bf
       1.1495987 1.0190002 1.1359977 -1.2461405
000150 5a 5a b1 be 66 99 6c be 22 9d 48 bf 96 21 af 3f
       -0.34639245 -0.23105392 -0.78364766 1.3682125
000160 df 68 d5 bd e0 ff 76 3f 17 0e e3 bd af 07 a8 3f
       -0.10420393 0.96484184 -0.11086672 1.3127345
000170 8e d7 d0 bf 21 6c 99 3f 3a 74 49 3f b1 51 d0 3e
       -1.6315782 1.1986123 0.7869297 0.40687326
000180 ef fa 30 be 11 85 b5 bf 67 9d 64 3f 02 f8 c1 bc
       -0.17283224 -1.4181234 0.89302677 -0.02367783
000190 01 d2 93 3f 9f 68 8e 3f 9d 94 6d bf 21 35 79 3e
       1.1548463 1.1125678 -0.9280489 0.24336673
0001a0 8f 8b 91 3e 0b c5 7d 3e 49 8e 73 bf 10 39 8b bf
       0.28426787 0.24782197 -0.95138985 -1.0876789
0001b0 6e 8c 02 bf 92 7b 59 3f b3 99 47 3f 6d 81 42 3f
       -0.5099553 0.8495418 0.779689 0.7597874
0001c0 23 8b 8b bf 47 9e 31 3f da db 49 3f 25 06 c9 3f
       -1.0901836 0.6938214 0.7885109 1.5705
0001d0 af a4 5d 3f c8 6c fe 3e ea 2c 6c 3f 65 b0 a7 bd
       0.8657941 0.49692369 0.92256033 -0.081879415
0001e0 06 7e a7 bf 47 0b 63 bf 56 6c 48 3f 01 67 b1 3e
       -1.3085334 -0.8868908 0.7829031 0.34648898
0001f0 20 a9 d2 be f3 32 41 3e 97 a9 aa bf c6 55 1b 40
       -0.41144657 0.18867092 -1.3333005 2.4271102
000200 18 a2 fc 3d 96 9a 55 bf a3 3b 25 40 8b 0c 63 be
       0.123356044 -0.83439004 2.581765 -0.22172754
000210 66 50 76 bf ea 96 4a bf 96 71 19 bf 6c 4a 68 3e
       -0.9621643 -0.79136527 -0.59938943 0.2268464
000220 8d bf 1c bf 54 61 1b 3f 4d 37 fd bf 15 9f 05 c0
       -0.61229783 0.60695386 -1.9782501 -2.0878346
000230 5c d3 19 3f 5e 58 cd bf c8 d8 96 3f 43 61 80 bf
       0.60088134 -1.6042593 1.1784906 -1.0029682
000240 a1 8d f0 be ce 71 2b 3f ac cd b3 3f 8d 80 85 3f
       -0.46983054 0.6697053 1.4047141 1.0429856
000250 e8 a1 89 3f 88 7e a2 bf 81 6e 65 3f 12 a7 17 3f
       1.0752535 -1.2694864 0.8962174 0.59239304
000260 fa 8a 8f 3f ee 38 9f 3f 7f a4 ca 3e 55 91 9e 3e
       1.1214287 1.2439249 0.39578626 0.30970255
000270 a0 9f d3 3f 62 34 4c 3f fd 4d d3 3d a5 68 4f bf
       1.6533089 0.7976743 0.103176095 -0.8101905
000280 28 1c bb be 23 7f c5 3e 82 37 d4 3f ef ab c9 3f
       -0.3654492 0.3857356 1.657944 1.5755595
000290 16 36 0d bf 83 bb 81 3e 9e f5 eb be f5 3b c7 3e
       -0.55160654 0.25338373 -0.4608583 0.3891293
0002a0 17 03 96 bf 21 3a f6 3e 6c 20 fd 3e 01 6c 66 3f
       -1.1719693 0.48091224 0.49438798 0.9000855
0002b0 62 33 82 bf ce 22 a1 3f 95 a3 03 bf fd 19 96 3e
       -1.0171931 1.2588747 -0.5142148 0.29316702
0002c0 7c f9 3f bf c5 d8 cf bf 16 4e 05 40 28 dc 17 3f
       -0.7499006 -1.6238028 2.082891 0.59320307
0002d0 04 9f ad 3e 09 f8 74 3f e3 4f 74 3f bf 1c b2 3d
       0.33910382 0.9569097 0.954344 0.08696889
0002e0 30 80 0c bf 89 fe 7e 3c f3 6f ac bf b6 34 7b bf
       -0.548831 0.015563616 -1.3471664 -0.98127306
0002f0 68 31 3e 3c b7 8d 02 3d 54 30 be be f1 c9 3c 3f
       0.011608459 0.03187343 -0.37146246 0.7374564
000300 f8 f8 20 3f e5 e5 1d 3f d3 59 ab bf e9 2e 71 be
       0.62879896 0.61678916 -1.3386787 -0.23553051
000310 92 8c 8a be d2 73 50 3f 4e 27 ab 3f 0a ce 66 bf
       -0.27060372 0.8142673 1.337137 -0.9015814
000320 5c 24 84 3e 2d 64 db 3e cc db 77 bf 8f 97 6d bd
       0.2580899 0.42849866 -0.9681976 -0.058005866
000330 2e 3a 12 3f 8b 4d c9 3e be b3 8f bf 1d cf 64 bf
       0.57120025 0.39316973 -1.1226728 -0.8937853
000340 e2 6a c2 3e 68 c5 0a 40 65 30 25 bf 13 e0 8c 3e
       0.3797217 2.1682987 -0.6452697 0.27514705
000350 34 b1 8f 3f 5d 70 40 c0 3a d5 fa 3f 65 a1 19 3f
       1.1225953 -3.006858 1.9596322 0.60011894
000360 a4 e5 33 3f 47 4f d2 bd d7 33 f5 3d 44 2b 8d 3f
       0.7027228 -0.10269027 0.11972778 1.1028829
000370 4b 3b 39 bf ce cf dd bf 13 15 9a 3c 48 3f 4c 3e
       -0.723561 -1.7329042 0.018808877 0.19946015
000380 11 55 b9 bf 78 5e 4d 3e e1 6f a9 3f fe 95 03 be
       -1.4479085 0.20055568 1.3237268 -0.12850186
000390 88 8b 00 be 90 84 33 40 4d 53 ad 3e b4 83 f9 3e
       -0.12553227 2.804966 0.33852616 0.48733294
0003a0 d7 de f9 be d2 e4 12 be 78 61 b6 3f 39 ed 9d bf
       -0.48802826 -0.143451 1.4248495 -1.233802
0003b0 f7 0d 14 40 56 e4 63 3f 1c 85 ae 3f 7e 38 d7 bc
       2.3133523 0.8902029 1.3634372 -0.026272055
0003c0 d3 03 12 3f 6b 96 95 bf 1a 02 7a 3f 1e fd 44 bf
       0.57037085 -1.1686529 0.97659457 -0.76948726
0003d0 e7 90 5b 3f 3e 94 e1 3f 46 dd 01 c0 ec 2c 47 3e
       0.8576798 1.7623365 -2.0291305 0.1945073
0003e0 f7 f1 9a 3a 94 27 e6 3e e6 66 9f 3e 8e ca 94 3e
       0.0011821379 0.4495207 0.31133193 0.29060787
0003f0 04 72 10 bf d2 89 f4 3f de 4c 00 3f f5 60 95 3f
       -0.56423974 1.910456 0.5011729 1.1670214

decoder_embedding.weight f4 [45, 32]
000000 8b c8 11 3d c9 0e 48 3f f3 b1 4d bf 9b 3c 7b 3e
       0.035591643 0.7814756 -0.80349654 0.24534838
000010 ce 69 1b bf 32 09 d9 bd 09 c0 f9 3d fc 5c 7f 3f
       -0.6070832 -0.10597457 0.12194831 0.9975126
000020 50 91 13 bf ee bb 02 3f 68 9a a3 3d 44 04 0f c0
       -0.57643604 0.5106801 0.07988435 -2.2346354
000030 ba 92 52 bf 4f 80 28 3f f8 a3 88 bf 59 f6 cb bd
       -0.82255137 0.65820783 -1.0675039 -0.099590965
000040 a3 f7 b4 be 35 ca c9 3e 03 fa 06 c0 07 a1 95 3c
       -0.35345182 0.39412084 -2.1090095 0.01826526
000050 1c 47 b2 bd 38 6a 14 bf 44 55 d9 3e 08 b7 14 3f
       -0.08704969 -0.57974577 0.42447865 0.58091784
000060 f3 59 0e bf 2b b4 a9 be e7 8a 9f 3f e6 dd a8 3e
       -0.55606 -0.3314527 1.2464265 0.32981795
000070 48 28 b0 be 65 a4 0d 3e 08 dc 95 bf 69 43 88 3f
       -0.34405732 0.13832243 -1.1707773 1.0645572
000080 38 e2 5a be 6f 1e 1f bf c7 75 09 3e 42 8e 9a be
       -0.21375358 -0.6215581 0.13423835 -0.3018666
000090 f0 58 65 3f 06 8f d2 3e 3e 09 68 bf d3 0b 3e 3f
       0.8958883 0.41124743 -0.906391 0.7423679
0000a0 e1 dc 1d bf 30 4a e8 be a3 a4 97 3e 27 5c b0 bf
       -0.6166516 -0.453691 0.29617795 -1.3778123
0000b0 fe be e5 3e 63 0a 42 3f 36 f1 af 3f 25 82 33 be
       0.44872278 0.757971 1.3745487 -0.17530115
0000c0 ed b8 86 bf 24 9f 53 3f 17 bb 46 3e 71 e1 30 be
       -1.0525185 0.82664704 0.19407307 -0.17273499
0000d0 ca 8d 46 3f b1 c7 2a bf ae d9 0b bf 56 70 2b 3f
       0.775601 -0.66710955 -0.5462903 0.66968286
0000e0 0e 84 7a 3d c5 36 70 3e b5 e4 36 3f 5d 13 63 bf
       0.061161093 0.23458393 0.7144273 -0.8870142
0000f0 f4 0f 38 bf 80 ba 3b 3f 90 7f 40 40 85 ed 8d 3f
       -0.7189934 0.7333145 3.0077858 1.108811
000100 f6 30 10 c0 c3 b3 93 3f a1 ba 7b bf 92 2c 95 be
       -2.2529883 1.1539234 -0.9833165 -0.29135567
000110 f6 6f e4 bf 9a 51 9f bf e7 62 fe 3e e4 16 cf 3e
       -1.7846668 -1.2446778 0.49684832 0.40447152
000120 2f 52 79 3f 09 00 b4 bf 94 f7 f5 3e 32 d9 6f 3e
       0.9739103 -1.4062511 0.4804045 0.23422697
000130 7d 0f 97 bf fc 2c e6 be 35 60 89 3f 32 9a af 3e
       -1.1801602 -0.44956195 1.0732485 0.3429733
000140 3f 6c 1a 3f d8 fe 5f 3f 25 3f 12 3e 77 75 c9 3f
       0.6032142 0.87498236 0.142819 1.5738972
000150 2a b7 e4 3f be 4a 2e 3e 95 5a 20 bf 13 07 70 3e
       1.7868397 0.170207 -0.6263822 0.23440199
000160 fc 90 20 3f 31 5a 78 3f 48 b5 18 bf ee f6 d6 bf
       0.6272123 0.9701262 -0.59651613 -1.6794107
000170 61 7e 05 3f ce e5 09 bf 91 a8 12 3f 8c fd c1 be
       0.52145964 -0.5386628 0.5728846 -0.37888753
000180 03 01 1e bf 9d 0b ec bf 38 d9 95 bf cc b1 8a bf
       -0.61720294 -1.8441044 -1.1706915 -1.0835509
000190 e9 a3 90 bf 09 e6 04 3f 6f 91 a6 3e d0 67 13 bf
       -1.1300021 0.51913506 0.32532832 -0.5758028
0001a0 c0 86 23 c0 1a 37 9b bf b0 a2 4b 3f 4f 92 84 3c
       -2.5550995 -1.2126191 0.79545116 0.016183047
0001b0 ba 8c a2 3f e2 40 2b bf 8b f3 73 bc bc 64 2e 3d
       1.2699196 -0.6689588 -0.014889608 0.042576537
0001c0 ca 68 79 bf b1 5c 54 3f 17 3b a8 3f f8 5a 89 3f
       -0.9742552 0.82953936 1.3143033 1.0730886
0001d0 15 14 f9 3f f0 8e 85 3f b7 44 92 be 2b 26 ef 3e
       1.9459254 1.0434246 -0.2856805 0.46708807
0001e0 c1 6e bf be 2b 55 b6 3f 05 81 85 3d 0b 40 8a be
       -0.37389186 1.4244741 0.06518749 -0.27001986
0001f0 ae 8f dd bd eb 32 c5 3e 0c ca 1a 3f a1 2c a1 be
       -0.1081842 0.3851541 0.6046455 -0.31479362
000200 78 50 d3 ba b1 a3 26 3f ee 31 18 bf 81 cc ff 3f
       -0.0016122004 0.65093523 -0.59451187 1.9984285
000210 79 69 52 be d4 af cb 3e b3 0d ad bd a5 a9 c7 bf
       -0.20548047 0.39782584 -0.084498785 -1.5598646
000220 32 86 9c 3c 98 ec b1 bf 77 1f 94 3e d9 89 30 bd
       0.019106958 -1.3900328 0.28930256 -0.04310021
000230 0e 9b 9f 3e 77 e9 fb 3e 79 d5 07 c0 36 93 95 bf
       0.31172985 0.49201557 -2.1224043 -1.168555
000240 67 e0 19 bf ae 97 3c bf 69 00 88 3f 93 e3 f0 3e
       -0.60108036 -0.73668945 1.0625125 0.47048625
000250 a4 bf 06 bf 06 54 16 bf ae 8a 48 be f0 10 a1 3f
       -0.5263617 -0.5872196 -0.19584152 1.2583294
000260 4a 44 53 bf 19 f3 bc 3f 94 67 5e bf cd ae 9d 3f
       -0.82526076 1.4761688 -0.868768 1.231897
000270 20 20 f8 bd 1f 70 42 be a6 18 3e 3f cf 19 f7 be
       -0.12115502 -0.18988083 0.7425636 -0.48261878
000280 fa 1a 01 40 d5 39 c0 3e 2d 6a 99 bf 4f 83 5d 3f
       2.0172715 0.37544122 -1.1985527 0.86528486
000290 87 6d 43 3f 4e 10 be 3f 30 d5 92 bf ed 85 0d 3f
       0.76339 1.4848726 -1.147131 0.5528248
0002a0 d1 6f 6b be cb 8b 8d 3f 0f 8e 90 be d2 cd 8d bf
       -0.22991873 1.1058286 -0.28233382 -1.1078436
0002b0 8b ff 0b bf b6 7b 05 bf 43 4e 4a 3f 9c b8 13 bd
       -0.546868 -0.5214189 0.7902567 -0.03606473
0002c0 0e 26 f7 be c9 fd 20 be 8c c7 85 bf d3 b5 04 40
       -0.4827122 -0.15721811 -1.0451522 2.0735977
0002d0 9b 73 e5 be 9c df 57 be 4e 12 a1 3f 7d 83 39 3e
       -0.44814762 -0.21081394 1.2583711 0.18116565
0002e0 54 b3 a9 3f 22 63 7a 3d 25 f9 dd be 92 90 ef be
       1.3257852 0.061129697 -0.43354145 -0.46789986
0002f0 d2 bf 61 bf be f9 56 bf f3 7c 17 c0 0f 99 34 3e
       -0.8818332 -0.83974826 -2.3670013 0.17636512
000300 d9 3f f0 3e 44 60 00 bf 43 9c e2 be 37 30 7c bf
       0.46923712 -0.5014689 -0.44259843 -0.9851107
000310 93 a1 86 bf 0f 35 7e bf e4 24 3f bf da 91 74 3f
       -1.0518059 -0.9929971 -0.74665666 0.9553505
000320 8f 62 ed be 93 cb 7d 3f 10 db 98 bd c4 cb 98 3f
       -0.46364257 0.99138755 -0.07463658 1.1937184
000330 8e f6 5c be 82 0c 0c bf fe 95 85 3f 52 74 21 bf
       -0.21578428 -0.54706585 1.0436399 -0.63068116
000340 bd 1a 36 bf c3 86 c9 3c 88 31 e2 3e 84 24 05 bf
       -0.7113455 0.024600392 0.44178414 -0.52008843
000350 47 27 98 bd c4 36 07 3e a2 0b e5 3e 83 29 48 3e
       -0.074293666 0.13204485 0.44735438 0.19547085
000360 c7 03 8b 3f e5 e4 9e 3e 95 02 39 3e eb 79 29 40
       1.0860528 0.31034008 0.18067391 2.6480663
000370 6f 38 5b 3f 7f fd 65 3f dc 9a 03 3f 9d 83 76 bf
       0.85632986 0.8983993 0.5140817 -0.96294576
000380 95 6b 19 3f 25 f7 7a 3f 73 28 63 3f 2a b0 9a 3f
       0.5992978 0.9803336 0.88733596 1.2085011
000390 cd e5 9e 3f 58 28 05 3e d4 af e6 3f ad 72 bf be
       1.241388 0.13003671 1.8022408 -0.37392178
0003a0 e9 0e c7 be 97 00 eb bd 30 fe 2b 3f 72 55 48 bf
       -0.38878563 -0.11474722 0.67184734 -0.7825538
0003b0 37 0e 98 be ee 64 23 bf da 5f d2 3f 37 b9 c9 3e
       -0.29698345 -0.6382588 1.6435502 0.3939912
0003c0 74 e4 e7 3e 6d a4 bc be 64 07 a1 3f d2 23 a9 be
       0.45291483 -0.36844197 1.258038 -0.3303514
0003d0 59 11 b4 3f 30 5c cc 3f d2 7b c5 be f3 51 89 3f
       1.4067794 1.5965633 -0.3857103 1.0728134
0003e0 42 ff 46 3f 9b 43 73 3f 14 10 63 bf 93 4f 98 be
       0.7773324 0.9502503 -0.8869641 -0.2974821
0003f0 d9 a9 40 be c7 a4 cc bd fb 78 bc 3f cf ec 55 bf
       -0.18814792 -0.09992366 1.472442 -0.83564466

encoder_pos_embedding.weight f4 [8, 32]
000000 1b 58 a7 bc e6 bc fd 3d 1d eb a4 bf a6 20 95 3e
       -0.020427754 0.12389545 -1.2884251 0.2912647
000010 5f 23 1d bf 1b 02 ab 3e 1b ab 2d be fd 34 ce be
       -0.61382097 0.33400044 -0.16959803 -0.40274802
000020 35 95 cd 3f 63 8c ab be 9e 94 b2 3d ba 09 38 3f
       1.6061159 -0.33505544 0.08719753 0.7188984
000030 7b 79 90 bf 90 35 9d 3e 36 81 ba 3f de a6 6f 3f
       -1.1287073 0.30704927 1.4570682 0.93613994
000040 57 88 07 3f d7 e3 eb be 17 92 ec 3f 10 e5 1c be
       0.52942413 -0.46072266 1.8482083 -0.15321755
000050 78 10 bc 3d f3 14 ff bf 0d f2 42 bf f2 60 e0 3e
       0.09182829 -1.9928268 -0.7615059 0.43823963
000060 03 3e ba 3f 8f c8 4b 3f 8c 77 b8 3d b0 23 98 bf
       1.4550174 0.79602903 0.09007177 -1.1885891
000070 43 e5 44 3d 86 19 27 3f 8e f1 9e be de 96 12 bf
       0.048070204 0.6527332 -0.31043667 -0.57261455
000080 da 74 df 3e a1 de 03 3f 40 a3 9e 3f b6 c4 ed bd
       0.43643838 0.5151158 1.239357 -0.11609785
000090 24 2b a7 bf e6 81 08 c0 6b eb ae 3f 70 79 1b 3f
       -1.306004 -2.1329284 1.3665594 0.60732174
0000a0 28 44 e1 3e 7e ea f9 bf a6 58 7c 3f 3b 29 39 3f
       0.43997312 -1.9524686 0.98572767 0.7232854
0000b0 e4 59 c2 3f fd a7 46 bf 4b 72 b1 bd 3e 13 32 3f
       1.5183682 -0.7760008 -0.08664378 0.6956061
0000c0 7e 95 fa 3f de 9a 92 3f 07 77 80 bf 54 4e 95 3f
       1.9576871 1.1453512 -1.0036324 1.1664529
0000d0 11 55 ae 3d 8b c2 ed 3f b1 34 56 bf 01 55 df be
       0.08512319 1.8574995 -0.8367415 -0.4361954
0000e0 a1 e3 e5 be 7f 2c 6b 3f b5 b6 07 bf 0a 5c 38 be
       -0.4490023 0.9186477 -0.53013164 -0.1800386
0000f0 be 4f 6a bd 2f 18 1f bf d9 c3 3a 3e ab f0 3e bf
       -0.057204954 -0.62146276 0.18238772 -0.7458598
000100 70 a6 b5 bf bb f9 24 c0 81 3d 84 bf 2d 2a a6 bf
       -1.4191418 -2.5777423 -1.033127 -1.2981621
000110 02 1f b4 3e b2 20 de 3d 50 a1 c7 3f e7 9d 91 3f
       0.35179907 0.1084608 1.5596104 1.1376313
000120 3e 1d d5 be 03 0c d3 be 3c 4b 98 bf 45 81 d7 3e
       -0.41623873 -0.41220102 -1.189796 0.42090812
000130 5d 9b a3 bf 13 72 e6 bf 80 7f 87 3f 47 c5 48 3f
       -1.2781788 -1.8003563 1.0585785 0.7842602
000140 3f f4 b4 bf 73 8f 09 be 7c ee e6 bd 71 e9 34 3e
       -1.4137038 -0.13433628 -0.11275956 0.17667176
000150 f3 39 b1 bf a2 65 c3 3d f5 86 38 3f 06 92 6f 3f
       -1.384581 0.09540869 0.7208093 0.9358219
000160 e8 b7 6f be d6 14 8b bf b9 b6 89 be 2f 3e fa be
       -0.23409998 -1.0865734 -0.2689722 -0.48875567
000170 c7 37 be 3f 1f 79 c1 bf d1 bd 9c 3d d8 58 84 bf
       1.4860772 -1.5115088 0.07653392 -1.0339613
000180 75 d9 05 bf 70 76 6c 40 19 76 83 bf 88 29 ef 3f
       -0.5228494 3.6947289 -1.0270416 1.8684549
000190 a9 ae 2e 3e aa bf fb bf d5 39 35 3f 7f 21 86 bf
       0.17058815 -1.9667866 0.7079137 -1.0478972
0001a0 29 8c 0f be 90 57 6c bf 65 a6 ab bf 47 fc 77 3f
       -0.1401831 -0.9232111 -1.3410155 0.9686932
0001b0 f8 1f 93 3f 5d fe 59 bf bd 56 a5 bc a9 f1 6d bf
       1.1494131 -0.8515375 -0.020182962 -0.9294687
0001c0 97 b1 b7 bd 6b 87 1f be 7f d0 52 bf 39 70 b0 3e
       -0.089694194 -0.15579002 -0.8234939 0.3446062
0001d0 6d 12 8a 3f 08 a6 84 3e ce 0e a7 bf 2c bf c9 be
       1.0786873 0.25907922 -1.3051393 -0.39403665
0001e0 70 64 3e bf 25 bb fc be 7c 6a ab be c2 6a 4b 3f
       -0.74372005 -0.4936153 -0.3347968 0.79459774
0001f0 0b 58 06 bf 6e 7a b2 3f ae ec 3c 3f a7 41 8a be
       -0.5247809 1.3943613 0.73798645 -0.27003214
000200 bd 43 4d 3d cf aa 5a bf 2e cb 81 bf df 60 9e bf
       0.05011343 -0.85416883 -1.014013 -1.2373313
000210 18 e1 8a bf 1b 13 6b 3f b5 69 84 3f 18 df ce bf
       -1.0849943 0.9182603 1.0344759 -1.6161833
000220 21 6a c5 bf 03 8b 98 3f 60 63 ca 3e 84 75 40 3e
       -1.5423013 1.1917423 0.39528942 0.18794829
000230 1e 8d e1 be 93 50 5b bf d2 2f 8e 3f 77 f2 d2 3e
       -0.44052976 -0.8566982 1.1108344 0.4120061
000240 67 7a 08 3f c8 f5 94 bf 1f 11 16 bd db 66 bf 3e
       0.5331177 -1.1637506 -0.03663742 0.3738316
000250 2f a2 99 3f 16 2e 8e 3d f2 7e 1b 3f a8 21 68 bf
       1.200262 0.06942384 0.6074058 -0.90676355
000260 d2 49 91 be fc f6 be 3d d0 93 08 bf 11 60 81 3f
       -0.28376633 0.09324452 -0.53350544 1.0107442
000270 a4 a2 8d bf 92 31 c8 3f 39 e5 f1 bf 53 30 9a bf
       -1.1065259 1.5640128 -1.8898078 -1.2045997
000280 d5 a9 75 3f ce 9f 15 bf 84 bc 90 bf 51 9b 11 be
       0.9596227 -0.5844697 -1.130753 -0.14219405
000290 23 f2 87 be f0 1d 20 c0 a1 74 92 3f c0 96 46 bf
       -0.26551923 -2.5018272 1.1441842 -0.77573776
0002a0 7b 6a 9c bf f8 30 6e be 95 33 0f be 88 7d cd bf
       -1.2219995 -0.23260868 -0.1398452 -1.6053934
0002b0 f5 ff fd 3e 19 bb 94 3f 28 4f 82 3e 07 d1 aa bf
       0.49609342 1.1619598 0.25451016 -1.334504
0002c0 75 b3 3f 3f d2 18 c6 bf ff 6d 83 bf b0 1a 01 40
       0.74883205 -1.5476325 -1.0267943 2.0172539
0002d0 eb 04 20 be 66 59 81 3f 00 28 cd bf 1b f2 17 40
       -0.15626876 1.0105407 -1.6027832 2.374152
0002e0 4d 56 af be 89 c3 7c 3f 2f ab 85 3e e5 0d fd 3f
       -0.3424553 0.9873586 0.26107165 1.9769865
0002f0 50 5f 99 3e c0 a3 59 3f 1d f6 4b bf 79 e8 76 3f
       0.2995553 0.8501549 -0.79672414 0.96448475
000300 29 b2 85 bd a3 f6 f2 3d b1 44 c8 bf d0 44 19 3e
       -0.06528122 0.118634485 -1.5645963 0.14967656
000310 d5 a4 b2 3f 2c 54 74 3e 3a bb 04 bf 30 ba a1 be
       1.3956553 0.23860234 -0.51848185 -0.31587362
000320 15 8f a4 3f ed f2 09 bf 67 46 b9 bf 1b cc 1f be
       1.2856165 -0.538863 -1.447461 -0.15605204
000330 81 0b 26 3f b8 52 f3 3e 58 da ee 3e 4f 13 7f 3f
       0.64861304 0.47524047 0.46650958 0.9963884
000340 dc 01 09 3f 54 62 c6 3e 1c 5d 33 3f 97 39 a5 3e
       0.5351846 0.38746893 0.7006395 0.322705
000350 e1 09 1b 3f 12 26 53 bf 57 26 8e 3e 7c 25 06 3e
       0.6056195 -0.82479966 0.27763626 0.13100237
000360 31 19 47 bf ae d0 9e bd c7 8f 48 3f a7 3c b9 3e
       -0.77772814 -0.07754646 0.78344387 0.36179087
000370 f0 d7 6c bf c4 70 18 3d a8 50 e7 be 5d 71 df 3f
       -0.92516994 0.037216917 -0.45178723 1.7456471
000380 7b 34 b0 bf a4 a5 5e be 11 9c f8 be 24 cb ae bf
       -1.3766016 -0.21742874 -0.4855657 -1.3655744
000390 4f 09 7c bf 83 54 bb bd 6e ab 83 bd 01 60 46 bf
       -0.98451704 -0.09146979 -0.06429182 -0.7749024
0003a0 70 2b 02 40 42 ff d2 be 7e 39 98 bd ff c1 05 3e
       2.0339012 -0.4121037 -0.07432841 0.13062285
0003b0 13 a1 9e 3e 06 dd ab 3f 39 64 96 3d 11 dc fc be
       0.30982265 1.3426826 0.07343335 -0.49386647
0003c0 86 70 1d 40 44 84 49 bf dc 61 7b 3f d5 d3 a8 3e
       2.459993 -0.78717446 0.98196197 0.32974115
0003d0 2c 62 0a bf a4 99 56 3d 6e 06 09 c0 07 dd cd 3f
       -0.5405605 0.052392617 -2.1410174 1.6083077
0003e0 2a 1b 1b 40 56 9e 0b bf b0 69 48 be 51 8d 86 3d
       2.423533 -0.54538476 -0.19571567 0.06569923
0003f0 19 ef 25 bf fb de d2 3e ab 9d 8c bf 03 9e 08 3f
       -0.6481796 0.41185746 -1.0985616 0.53366107

decoder_pos_embedding.weight f4 [8, 32]
000000 c8 6f 0c 40 74 68 6b bf 30 c7 5e bf e7 ed 6b 3f
       2.1943226 -0.9195626 -0.87022686 0.92159885
000010 e7 0e d8 3f 81 4d 11 bf 47 c7 2a 3e 7f 62 72 bf
       1.6879548 -0.56758887 0.16677581 -0.94681543
000020 ed 19 03 3e 7a 8c 1a bf 12 7e 87 3f dd 38 4c 3f
       0.12802859 -0.603706 1.0585349 0.79774266
000030 41 8b ef 3f a3 a2 89 3e e1 02 de 3e 0a 0f c2 3f
       1.8714372 0.26881894 0.4336157 1.516084
000040 bb 10 c8 3d e3 41 a6 3f d7 d3 63 be 94 9b 0d bf
       0.09768816 1.2988857 -0.22248779 -0.5531552
000050 f8 0e 5c bd 4c 03 2e bf fe 99 bf 3f 26 e5 e6 3c
       -0.053725213 -0.6797378 1.496887 0.028185438
000060 53 74 dd be 55 0d d9 bf 1b bf 54 3f 11 52 85 3f
       -0.4325281 -1.6957194 0.83104104 1.041567
000070 3f 20 63 be 9f ec 71 bf 12 c5 36 3f 70 fc f3 be
       -0.2218027 -0.9450168 0.71394455 -0.47653532
000080 d9 6c 5c 40 57 2f 89 3f 71 e1 c3 3f a2 d0 90 be
       3.4441435 1.0717572 1.5303174 -0.28284174
000090 ef 2b 31 bd 35 70 59 c0 ae 4d 86 bf 6d 77 df 3e
       -0.04325479 -3.3974736 -1.0492456 0.43645802
0000a0 9d 00 45 3f ac 9a 01 3e 1f df 02 40 a1 f3 26 3f
       0.7695406 0.12656659 2.0448682 0.652155
0000b0 dd 58 2b c0 4f 46 ca 3f f6 b6 02 bf b9 2a ec 3d
       -2.6772988 1.5802706 -0.51060426 0.11531586
0000c0 25 cc af 3d bd 83 55 3e e9 b0 c6 3c 78 c4 05 bd
       0.08583859 0.20851035 0.02425428 -0.03265807
0000d0 88 84 5b bd d3 84 2a 3f dc 9a d7 3f 7a 78 bc 3f
       -0.05359319 0.66608924 1.6844134 1.4724267
0000e0 52 af ac 3f b9 d0 4a be 7d 1a 9d 3f 41 4b ac bf
       1.3491004 -0.19806184 1.2273709 -1.3460466
0000f0 91 ad f4 3f c1 4f ae 3e 22 18 25 bf 04 4d c0 3e
       1.9115468 0.34045222 -0.6448995 0.37558758
000100 ca 52 be 3f cb 92 da 3e 94 e0 b7 be 6e ef 9b 3f
       1.4869015 0.4269012 -0.35913527 1.2182443
000110 e1 3e df bf a2 75 4f bd b5 e6 55 3f 96 81 a4 bf
       -1.7441064 -0.050649293 0.83555156 -1.2852046
000120 6f d3 35 c0 c2 d5 2b 40 1d d8 46 bf 34 a7 2e 40
       -2.84103 2.6849217 -0.7767351 2.7289553
000130 78 6c 1d bf 67 90 c6 3f 7d 5f 9c 3f 03 10 6e bf
       -0.61493635 1.5512818 1.2216641 -0.9299318
000140 51 ff 9f 3f d2 6f dd 3e 8d 7a eb 3f f5 6a 55 bf
       1.2499791 0.43249375 1.8396775 -0.8336633
000150 e0 6c 66 3f eb 12 b4 3f d9 a7 88 3f 07 8e 27 bf
       0.9000988 1.4068273 1.0676223 -0.6545109
000160 e5 1e 04 be 93 4b e7 bf 07 87 23 40 4d ad 91 bf
       -0.1290241 -1.8069938 2.5551164 -1.1381012
000170 5d 15 67 3f 78 99 30 3f 4a 0d 15 c0 fc fb 97 3f
       0.9026697 0.68984175 -2.328936 1.1873775
000180 77 4c a5 bf 56 c3 80 bf 30 08 82 3f 89 b3 71 bf
       -1.291396 -1.0059612 1.0158749 -0.94414574
000190 37 f4 1c bf 72 81 e6 bf da 3e b3 bf 2f 63 9c 3e
       -0.6131014 -1.8008254 -1.4003556 0.3054442
0001a0 87 88 81 bf 3a f6 1a 3e 2e 45 f1 bf 09 d4 a4 3f
       -1.011979 0.1513299 -1.8849237 1.2877208
0001b0 ab e8 db bf 9c 90 56 bf be c0 50 3d e4 ee a0 3f
       -1.718038 -0.83814406 0.050965063 1.2572904
0001c0 cb ae 79 3e de 7c 15 3c 8b bb 50 3e 72 ec 19 40
       0.24383084 0.009124009 0.20384042 2.4050565
0001d0 a7 fb 92 be 7f d5 f3 be 4c 20 fd 3e 2e ee f3 3e
       -0.2870762 -0.47623822 0.49438703 0.47642654
0001e0 51 1b fb bf 89 94 a9 be eb 22 30 3f a5 f1 19 40
       -1.9617711 -0.33121136 0.6880328 2.4053738
0001f0 9a ec c1 bf af 10 fc be 43 c6 61 bf 3a 74 27 3f
       -1.515033 -0.4923148 -0.8819315 0.6541172
000200 ad a1 a0 3f cc f9 a2 3d 70 94 95 3e 40 d5 84 bf
       1.254934 0.07957801 0.2921481 -1.0377579
000210 ea aa 20 be 56 59 f2 bf ac 15 04 c0 e3 10 34 bf
       -0.15690199 -1.8933513 -2.0638227 -0.7033827
000220 74 40 b6 3f 0a 6d 56 be 01 07 0f bf 62 d4 67 bf
       1.423842 -0.20940033 -0.5587006 -0.90558445
000230 8f b2 68 bf 45 98 98 bf 4e 0d 2e 3f ae 44 05 3f
       -0.9089746 -1.1921469 0.6798905 0.5205792
000240 33 a0 aa 3e 4a c6 9a be db 65 24 bb 9d 6a 2e bd
       0.33325347 -0.30229408 -0.0025085125 -0.042582143
000250 ea 93 c0 be 70 85 92 3f e8 33 17 bf 1a d1 32 3f
       -0.3761285 1.1446972 -0.5906358 0.69850314
000260 6d cb 48 3f f3 3d c9 3f 59 97 61 3f d3 65 9f bf
       0.78435403 1.572203 0.88121563 -1.2452949
000270 40 2e 85 bf e2 49 d2 3f 5f f5 8a 3f f5 f1 82 bf
       -1.0404739 1.6428797 1.0856131 -1.023009
000280 c2 e0 47 bf 4d 47 8a 3d 3c 56 e7 3e d4 90 a0 bf
       -0.7807733 0.06751881 0.4518298 -1.2544198
000290 a2 bd 90 bf 27 31 30 bf 47 f3 b5 be e7 ed 07 3f
       -1.1307871 -0.68825 -0.35537168 0.53097385
0002a0 f6 3e 32 3f 03 38 73 bf d7 04 09 40 b9 1a f4 bf
       0.6962732 -0.9500734 2.1409204 -1.9070655
0002b0 fa 31 b2 be a5 85 ce 3f 19 66 0f 40 05 a4 cd 3d
       -0.34803754 1.6134535 2.2406065 0.1004105
0002c0 b9 9d 8c bf f3 dc 1b 3f 4f 7f 99 be f2 40 ab bf
       -1.0985633 0.60884017 -0.2997994 -1.3379195
0002d0 8b 08 ff bf 53 7e 55 3f 8f 45 a2 3e 9b 34 88 bf
       -1.9924482 0.8339588 0.31693694 -1.0641054
0002e0 a5 83 bf bd d8 4e 7b 3f 07 45 94 3e e1 6f c1 bd
       -0.09351281 0.9816718 0.28958914 -0.09445167
0002f0 c1 e3 25 bf 60 6f 53 bf fd 23 27 3f a5 c5 25 bd
       -0.6480065 -0.8259182 0.6528929 -0.04047169
000300 59 61 e0 3e 82 18 a8 3e 2d 06 d7 bd 54 58 09 3f
       0.4382427 0.32831198 -0.10499225 0.53650403
000310 ee b8 a5 3e 91 da c1 3f 0e 8d a0 bf 8e 0c 65 bf
       0.32367653 1.5144826 -1.2543046 -0.8947228
000320 53 d0 da be f3 92 b2 3e 43 b3 28 bf aa 5e f2 bf
       -0.42737064 0.34877738 -0.6589853 -1.8935139
000330 25 3b 97 bf e1 59 b7 bd 60 10 de bf d3 7b 35 bf
       -1.1814924 -0.0895269 -1.7348747 -0.70892066
000340 9e 5f 32 bf 4d c7 52 3e d0 9b 66 bd ed 48 8c 3d
       -0.6967715 0.2058384 -0.056300938 0.06849847
000350 8f f4 bc 3e f6 02 bb 3f 2f a5 bd bf ca f0 55 bf
       0.36905333 1.4610279 -1.4816035 -0.8357054
000360 24 ac 86 3b 6d 13 85 bf 29 17 9e 3f 3b 05 94 3e
       0.004109876 -1.0396553 1.2350818 0.2891024
000370 e9 d4 31 be b0 8f d6 3e a7 d8 5d bf 02 69 85 3e
       -0.17366375 0.419065 -0.8665871 0.26056677
000380 43 d7 21 bf 7c a1 66 3f eb 8c cf bf 48 5c 76 bf
       -0.6321909 0.90090156 -1.621488 -0.9623456
000390 bc 0a 7c 3e ae 41 05 bf 75 92 9b 3d ee f4 97 bf
       0.2461347 -0.52053344 0.07596294 -1.1871622
0003a0 f0 48 3b bf 1d 17 c7 3f c9 6d 24 bf bb 9b 00 3f
       -0.7315817 1.5553929 -0.6423002 0.50237626
0003b0 f1 ed 73 3f a0 91 d9 3e ba b8 aa 3e 5c cc 02 3f
       0.95284945 0.42493916 0.3334406 0.5109308
0003c0 3e 90 09 c0 e8 f8 f1 be f6 0e 61 bf 93 2c 93 be
       -2.1494288 -0.47260213 -0.87913454 -0.28744945
0003d0 5b cb b0 bf 3b 24 d6 3f 59 db ac 3d 66 5a 8b bd
       -1.3812059 1.6729807 0.08440275 -0.068043515
0003e0 cf 0d 8b 3f 9c 32 d5 3f 67 d8 be be 57 aa eb 3e
       1.0863589 1.665607 -0.37274477 0.46028396
0003f0 22 34 ab bf 2c 9c e4 be 33 94 e2 bf 5e 5a 4c 3f
       -1.3375285 -0.446504 -1.7701477 0.7982539

transformer.encoder.layers.0.self_attn.in_proj_weight f4 [96, 32]
000000 99 06 b5 3c 62 7b 31 3d 66 2a 53 3c 04 69 99 bd
       0.022097873 0.043330558 0.012888527 -0.07490733
000010 96 00 a4 bd 02 ff 4a 3d 4f 31 6d be b7 2e 62 bb
       -0.08007924 0.0495596 -0.23163341 -0.0034512707
000020 f4 69 f6 3d 1b 54 0a 3d 6e 41 c9 3d ec de cd bd
       0.12031928 0.033771615 0.09826933 -0.100522846
000030 a8 03 41 bd 2f e4 3e 3e b7 0a 51 be fb c6 d4 3d
       -0.047122627 0.18641733 -0.20414244 0.10389515
000040 8c ad c6 bb 0a fb 06 be ca c5 86 be 94 96 1c bd
       -0.006063169 -0.13181701 -0.26322776 -0.03822954
000050 1a e2 1e bd 99 dd 50 bd d9 c7 01 3d 03 9d ec bd
       -0.038789846 -0.050992582 0.03168473 -0.11553385
000060 2b 4a cf bd 25 14 46 3e d4 9a 6c 3d f5 e2 47 bd
       -0.10121568 0.19343622 0.057764843 -0.048800427
000070 26 05 9a 3d 85 03 ae bd 92 e7 1a 3e 3e 85 ba bd
       0.07520513 -0.08496765 0.151274 -0.09107445
000080 58 6c 00 3d 2f 9c ae bd e7 14 8d 3c b0 1b 1a be
       0.031353325 -0.085258834 0.017221881 -0.15049624
000090 9a 92 04 be d1 c0 50 bd 5b 34 f8 bd a0 8c 31 be
       -0.12946549 -0.050965134 -0.12119361 -0.173388
0000a0 35 e9 dc 3d a1 89 2c be 59 99 12 be eb 02 ff 3d
       0.10786668 -0.16849376 -0.1431631 0.124517284
0000b0 80 f0 c4 3c 0e b4 7f bd 8f 0c 06 bd c6 37 21 bd
       0.02404046 -0.062427573 -0.03272682 -0.03935983
0000c0 d3 b9 ef bd bb d1 ef 3d 9a b0 94 bc 3f c3 85 3c
       -0.11705365 0.11709925 -0.018150616 0.016328452
0000d0 b3 a1 e5 bb 37 03 4b bd c1 1a 6d bd 1f 00 ca bc
       -0.0070078014 -0.049563613 -0.057886843 -0.02465826
0000e0 2d 46 a9 3c 26 0d 90 bc 67 01 20 be 31 af 33 be
       0.020663345 -0.017584395 -0.15625535 -0.17547299
0000f0 4d 7f 5c 3d cc a3 0a bd f8 6b 56 bd cc 41 75 3d
       0.05383234 -0.033847615 -0.05234906 0.059877202
000100 7d c1 48 be 79 52 32 be 60 50 be bd 2c 8b 19 be
       -0.1960506 -0.17414273 -0.09292674 -0.14994496
000110 cb 72 ba bd 31 b2 24 be c2 83 40 bd 86 6d 0f be
       -0.09103926 -0.160836 -0.047000654 -0.14006624
000120 56 39 59 3d 1f 91 3a be 43 d5 be 3d 35 d8 18 3d
       0.053033195 -0.18219422 0.0931802 0.037315566
000130 c1 34 56 be c9 1e fa bd a4 e6 63 3e 4c 4d 48 3e
       -0.20918562 -0.12212903 0.22255951 0.19560736
000140 49 24 48 bd 65 56 3f be 3d f8 46 be 72 3a cc bd
       -0.04886273 -0.186853 -0.19430633 -0.09972085
000150 93 ef d0 bd 36 47 bd 3c 2c a1 03 be 13 1d 25 3e
       -0.10201945 0.023105245 -0.12854451 0.16124372
000160 1a f2 da 3d 67 21 de 3c f2 e6 91 bd 0e 38 0c 3e
       0.106907085 0.027115537 -0.071241274 0.13693258
000170 48 1d f8 3d fc 32 c8 bd c0 34 9e 3b da 76 4b be
       0.1211496 -0.097753495 0.0048280656 -0.19869557
000180 8b 91 33 3e 41 78 5a 3d 33 ea 67 bd 97 63 84 3d
       0.17535989 0.05333734 -0.056619834 0.06464308
000190 6d e3 93 bc be 5e f8 3d 6e 55 03 3e 87 12 84 bd
       -0.018052781 0.12127446 0.12825558 -0.06448846
0001a0 b2 f5 0b bc 63 e4 5e 3e fd d1 79 bd a5 96 04 3d
       -0.008542465 0.2176681 -0.060991276 0.03237023
0001b0 b7 ae 9d bb dd 6b 41 3d 66 7b dd 3c 0d 9e 2f bd
       -0.0048120874 0.047222007 0.02703638 -0.04287534
0001c0 97 b8 66 3d bf b6 0e be da 68 8f 3d 3f e2 3a be
       0.056328382 -0.139369 0.07002421 -0.18250369
0001d0 f9 0a b0 3d c3 cb bb 3d e1 4a 50 3d 04 5c 2d bd
       0.08595843 0.09169724 0.05085266 -0.04232408
0001e0 82 ad e0 3d 4c b5 49 3e 37 68 e7 3d 17 e3 0a 3e
       0.10970594 0.19698066 0.11299174 0.1356319
0001f0 16 32 19 be 33 11 b0 bd 40 22 fe bc f0 9d 3e bc
       -0.14960513 -0.085970305 -0.031022191 -0.011634335
000200 9d 6f 04 3e 28 75 05 3e 85 f7 ec 3c 88 91 0a be
       0.12933202 0.13032973 0.02892662 -0.13532078
000210 91 1c e2 3d 29 2f c5 bc b6 b7 65 3e 8a bd 23 3d
       0.11040605 -0.02407034 0.22433361 0.03997568
000220 90 35 48 bd ee 80 a0 bd 43 ff b3 3c 2b 13 85 3d
       -0.048879206 -0.078370914 0.021972304 0.064977966
000230 c2 d5 dd 3b 1c 87 09 bd 19 87 20 be 6e 67 1c be
       0.0067698667 -0.033576116 -0.15676536 -0.1527383
000240 fb 87 5b 3d f8 25 44 3e 45 8f 02 3e aa da 31 be
       0.053596478 0.19155109 0.12749965 -0.1736857
000250 41 77 18 3e a7 cc 38 be ef 61 e6 bd 08 34 97 be
       0.14889242 -0.18046819 -0.11249148 -0.29531884
000260 8b 68 1f be 72 16 21 3e 14 82 74 3e ae fb 6c bd
       -0.15567224 0.15731218 0.23877746 -0.057857208
000270 20 a9 89 3b 88 92 1e 3e 49 b5 6a bd 08 86 97 3c
       0.0042010695 0.15485585 -0.057301793 0.018496528
000280 1f a1 d5 3d b8 84 2a be 0f 97 a2 3c 00 fb 80 3e
       0.10431122 -0.1665219 0.019847421 0.25191498
000290 73 87 0a bc 7f 13 23 be ac a1 46 bd a3 ca d4 bb
       -0.008455145 -0.15925406 -0.048494026 -0.0064938827
0002a0 4a 82 07 3e c2 7e ab bd 61 5f b8 bd 4a 9a e7 bd
       0.13233295 -0.083737865 -0.09002567 -0.11308725
0002b0 04 a0 46 b9 50 73 d7 bd 37 95 67 3d 55 34 55 3d
       -0.00018942362 -0.10520041 0.056538787 0.05205186
0002c0 9a 2b 1f bc 75 2c c1 3b 0d 49 6c be 45 bd a6 bd
       -0.009714985 0.0058951923 -0.23074742 -0.08141569
0002d0 e5 77 4e 3e 26 8b a5 bd dd 58 ec bd b0 32 36 3d
       0.20162924 -0.08083181 -0.11540387 0.044481933
0002e0 05 ed 0a bd a9 94 63 3e cf 83 fe 3d 1f 23 71 3d
       -0.033917446 0.22224678 0.12427484 0.058871385
0002f0 e6 63 8e bd ab b5 11 3d 7f df 54 3e b8 ab ee bc
       -0.06952648 0.035573643 0.20788382 -0.029134616
000300 62 1c f9 3d d6 fc e3 3d c6 c8 d6 bd 59 48 22 3e
       0.12163617 0.11132209 -0.10487513 0.15847911
000310 fd e9 37 3e 60 a8 6c be 0d b6 34 bc e5 47 04 3e
       0.17960353 -0.23111105 -0.011029732 0.1291805
000320 9a b1 1d be a3 34 29 be 4f af a6 3d 02 c7 18 be
       -0.15399781 -0.16523986 0.08138906 -0.14919665
000330 9d de 28 bd a1 0a cf 3d b9 7c a9 3d c2 4e 22 3d
       -0.041227926 0.10109449 0.08275742 0.03962589
000340 3c cd b0 3c 34 a0 58 bd 3e 2c 46 3d 46 13 aa 3d
       0.021582238 -0.052887157 0.048382036 0.08304457
000350 b7 31 80 3b e7 2f 12 be 87 03 96 bd fe 40 24 be
       0.0039121765 -0.14276086 -0.073248915 -0.16040418
000360 70 c0 44 be c7 b1 b4 3d c8 62 b0 3d 34 37 a0 bd
       -0.19214034 0.08822971 0.08612591 -0.07823029
000370 64 4a 78 3d 39 86 1d be f9 82 9a bd b9 d5 41 3e
       0.06061782 -0.15383233 -0.07544512 0.18929185
000380 28 da 0f 3d c6 81 32 3e e8 a5 0b be ee 29 5a 3d
       0.03512016 0.17432317 -0.13637507 0.053262644
000390 68 1f 40 3e a3 6d 2d bd fd 0e 46 be 18 d8 44 3e
       0.1876198 -0.042340886 -0.19341655 0.19223058
0003a0 1f 34 01 be c1 14 fb 3d eb 1d e9 3c 21 6f 4f bd
       -0.12617539 0.12259818 0.028456649 -0.05064309
0003b0 ef fd fd 3c f1 c5 0b 3e e6 b6 b4 bd 45 c4 21 3e
       0.031004874 0.13649727 -0.088239476 0.15797527
0003c0 9f 91 5c 3e 17 e0 49 be 36 97 42 be 9e 86 60 3d
       0.21539925 -0.1971439 -0.19002995 0.05481588
0003d0 e0 00 3a 3e af 69 f5 3d e7 e6 37 3e de 88 12 be
       0.18164396 0.11983048 0.17959176 -0.14310023
0003e0 da 8b 38 3e ea ad 66 3e 49 cc c2 bd 1d 17 c8 3d
       0.18022099 0.2252728 -0.095116206 0.097700335
0003f0 9b 44 02 be 79 c3 11 3e 54 b7 bf 3d c2 75 58 be
       -0.12721483 0.14234723 0.09361139 -0.21138671

transformer.encoder.layers.0.self_attn.in_proj_bias f4 [96]
000000 8f 9d da bc b0 93 07 bd c0 f7 98 3d c6 36 9b bd
       -0.026686458 -0.03309983 0.074691296 -0.075788066
000010 9e b0 13 bb 9b 06 d6 3d cf 40 61 3d d6 94 e2 bc
       -0.0022535692 0.10450479 0.054993447 -0.027658861
000020 32 12 b0 bd f6 06 d5 3d 0a 63 1f bc b6 4e c1 3d
       -0.085972205 0.10401718 -0.009728203 0.09438841
000030 05 52 06 3d 5f 22 c5 3c e2 13 99 bd d1 26 80 bd
       0.032793064 0.024064241 -0.074744955 -0.06257404
000040 e6 e6 07 3e 40 f7 64 3d ec ca 7a 3d 8d 87 8e bd
       0.13271675 0.05589986 0.061228678 -0.06959448
000050 c7 d1 fc bc 33 b9 96 bc 82 9e f4 bd dc 5b e9 bc
       -0.030861748 -0.018398857 -0.119442955 -0.028486185
000060 6f ae c1 3a 3b fe 08 3c ea 38 ae bc ec b1 a1 3c
       0.0014776717 0.0083613945 -0.021267373 0.01973816
000070 11 54 81 3d 2b 1d 88 3d 24 09 ac bd e6 7b 91 3c
       0.063148625 0.06646188 -0.08400181 0.017759275
000080 db 8f 13 bc 2c 2e 85 bc 9a 52 f1 3c 3b f3 a1 3a
       -0.009006466 -0.016257368 0.029458333 0.0012355814
000090 e9 b3 3f bc ac 90 2f bc 53 eb 29 3c ff cf b7 bc
       -0.011700609 -0.010715645 0.010371047 -0.022438047
0000a0 b9 4a c5 bc f4 fc 46 3c 58 27 2c bc fb 59 15 bd
       -0.024083482 0.01214527 -0.010507427 -0.036462765
0000b0 be c7 29 3b b4 01 61 3c 2d da ae bc af 4d 47 3c
       0.002590641 0.013733316 -0.021344269 0.012164517
0000c0 ef fa 50 bc 89 e2 55 3d 84 41 1a bc 52 3e 95 3c
       -0.01275514 0.052217994 -0.009415034 0.018218193
0000d0 ef 07 84 3b 01 17 8a ba 78 91 a3 3b 56 3c aa 3b
       0.004029266 -0.001053542 0.0049917065 0.005195181
0000e0 79 64 42 bc a5 71 06 3b 28 60 89 bc 36 8a d9 3c
       -0.011864775 0.0020514515 -0.016769484 0.026555162
0000f0 bd 53 f4 3b 51 5c 99 bc 79 ed 83 3c 4b d1 78 3c
       0.0074562714 -0.018720778 0.016104447 0.015186618
000100 69 58 d1 3c 9a 44 49 bd 52 c3 96 bd 94 70 10 be
       0.025554853 -0.04913769 -0.07361473 -0.14105445
000110 77 e9 47 bd 57 d4 d8 3c 91 50 10 bd 06 ac 00 3d
       -0.048806634 0.026468439 -0.035233084 0.031414054
000120 6e e9 23 3b aa aa 86 bc 29 3e 3b bc c1 73 70 3d
       0.002501096 -0.0164388 -0.011428394 0.05870414
000130 3d e5 ad bb 92 a8 07 bd 7f e0 9c 3c 71 df 26 bd
       -0.0053068683 -0.033119746 0.019150017 -0.040740434
000140 a4 8b 17 bc 71 22 40 bd 9b 43 90 3d 43 c7 88 bc
       -0.0092496015 -0.046907846 0.07044145 -0.016696578
000150 b9 9c 8d 3c 3a b6 3b 3c b4 a4 6d 3d 82 1b 8a 3d
       0.017286645 0.01145702 0.0580184 0.06743528
000160 ae de 37 3c 7c 79 a2 3d ce be 65 3c 32 f6 de bc
       0.011222525 0.079333276 0.014022542 -0.027217004
000170 c9 48 d2 bc 4c 27 6b 3d 68 4a 99 bd 73 9b 83 3d
       -0.025669472 0.057410523 -0.07484895 0.06426134

transformer.encoder.layers.0.self_attn.out_proj.weight f4 [32, 32]
000000 69 29 3b 3e 4b d2 28 3d c1 ed a6 3c 0f 30 f4 bd
       0.18277515 0.041216176 0.020377042 -0.11923229
000010 0d 82 75 be 94 44 81 3d ac 54 57 be 8b 78 69 be
       -0.23975392 0.06311908 -0.21028394 -0.2279989
000020 c2 aa 38 3e 14 45 34 bd 90 7f 93 be 72 78 28 3e
       0.18033889 -0.04401119 -0.2880826 0.16452196
000030 22 5d d4 3d 0d b1 72 39 b0 9b 6e 3e 02 9c f7 bd
       0.10369326 0.00023144875 0.23301578 -0.12090303
000040 69 f9 55 bd 5a a0 1e be 8a bd 3c 3d cb 35 07 bd
       -0.05223981 -0.15490857 0.046079196 -0.033010285
000050 ec b2 1e bd 5a 3b 15 3e 13 4b 41 3e 4e 4b bf 3e
       -0.038744852 0.14573422 0.18876295 0.3736214
000060 77 b1 21 3d 36 ac 9e bd b0 5f c5 3c 21 ad 94 3e
       0.039475884 -0.077476904 0.024093479 0.29038337
000070 d9 85 28 be 70 7b 7f bd 24 4b 8d bd 59 5c 0b 3d
       -0.16457309 -0.06237358 -0.068990976 0.034023616
000080 7d 51 9c be 84 8a 15 3e 7e 25 1c 3d 66 33 fa 3d
       -0.3053092 0.14603621 0.038121693 0.12216835
000090 01 5b 8d bc 48 af 35 3e c6 83 92 bc 83 34 fb 3b
       -0.017255308 0.17742646 -0.0178851 0.007666172
0000a0 b6 4a 2f 3e 33 9f fd bd 9b d0 4d bd 6d 08 f1 3d
       0.17118344 -0.123838805 -0.05024777 0.11769185
0000b0 b7 7f 65 be 83 3d d9 3c ba b6 58 bd 0f e0 46 be
       -0.22412 0.026518589 -0.052908637 -0.19421409
0000c0 80 ba 08 3d 41 c4 cf bd 42 7c 8d 3d f2 08 cf 3d
       0.033380985 -0.10144854 0.06908466 0.10109128
0000d0 2f 63 18 bd b2 0a 42 3e aa fc b5 3b 9b e9 fb bd
       -0.037203964 0.18949392 0.0055538015 -0.12300416
0000e0 87 82 97 be 28 1b c0 3d 9f cf 6c be 3a ef 4c 3d
       -0.29591772 0.0938018 -0.23126076 0.05003283
0000f0 e5 6a 8b be b1 11 92 3e 47 da 62 bd 14 c1 50 3e
       -0.27229992 0.28529122 -0.055383947 0.20386153
000100 5e 1a 41 3e ac 0c 35 3d d6 96 bb 3d 2b 93 85 3e
       0.18857715 0.044201538 0.09159629 0.26088843
000110 3b d7 85 3c 7b 91 6e be 1a 00 6c 3e 4c 65 a1 3d
       0.016337981 -0.23297684 0.23046914 0.07880649
000120 83 86 9b be 4a 12 8f 3c 1a 5d a0 3d c3 d8 01 bd
       -0.30376062 0.017464776 0.07830258 -0.03170086
000130 91 9e 10 bc dc 2f 29 3e 81 b7 e7 3d f9 3d 9d 3e
       -0.008826868 0.16522163 0.113142975 0.30711344
000140 8a 76 a9 3e b8 96 5e be 06 e2 0c be 5b 3b 2c 3b
       0.3309825 -0.21737182 -0.13758096 0.0026280496
000150 53 15 1d 3e 40 6c 74 3e e4 dc 99 bc ad 2b 83 be
       0.15340166 0.23869419 -0.018782087 -0.2561926
000160 96 7f 63 bd d0 68 ff bd ef cc 3b 3d ba c8 92 bd
       -0.055541597 -0.12471163 0.045849737 -0.07167192
000170 a0 b9 36 be b6 f8 ce 3d 1e 18 4e be b3 03 8f 3e
       -0.17844248 0.101060316 -0.20126387 0.2793251
000180 5d 7b 24 be cb 32 6f 3e 74 71 93 3e a9 07 77 3e
       -0.16062684 0.2335922 0.28797495 0.24124016
000190 c9 e8 f5 bd 05 84 54 be 33 67 10 bd 99 5c 99 3e
       -0.12007291 -0.20753486 -0.03525467 0.2995346
0001a0 08 55 35 3e a0 75 1c 3e 38 6d 68 be 2a 48 5a 3e
       0.17708218 0.15279245 -0.22697914 0.21316591
0001b0 cc 6e bb be c5 f9 9a 3e b8 27 0d 3e 40 8b 91 be
       -0.3660797 0.30268684 0.13784683 -0.28426552
0001c0 27 5c 60 3e ac ad 71 bc 08 02 58 be a6 84 0d 3e
       0.21910153 -0.014750879 -0.21094525 0.13820133
0001d0 1c 42 18 bd 71 a4 17 3e 4f 6d 5a 3d 1f ec 80 3b
       -0.03717242 0.14808823 0.0533269 0.003934398
0001e0 31 b1 58 be 7e f1 d7 bd f0 a7 7c bd df 3e 80 bd
       -0.21161343 -0.10544108 -0.061683595 -0.06261992
0001f0 d5 fe 74 3d be ea c7 bd ea 94 35 be d1 03 4b 3e
       0.05981334 -0.097615704 -0.17732587 0.19825675
000200 ff e9 22 3d 5c cc 51 3e 39 e3 63 be 76 dd 8c be
       0.039773937 0.20488113 -0.22254647 -0.2751271
000210 4c b1 0d 3d 62 54 22 be 64 11 0a 3d 79 f1 28 bd
       0.03459291 -0.15852502 0.03370799 -0.04124591
000220 09 40 2b bd a4 b7 83 3c a4 98 0b 3e 8b ce 15 be
       -0.041809116 0.016078778 0.13632447 -0.14629571
000230 94 a3 0b be 1f 03 0e 3d 24 72 3a 3e cd 3d 9c 3d
       -0.13636619 0.034670945 0.18207604 0.07628975
000240 d9 83 2a 3d e3 b6 40 be ab 99 88 3e 16 35 27 3e
       0.041629646 -0.18819766 0.2667974 0.16328844
000250 d0 d7 db 3e 54 f7 a2 be 32 9c 23 be 91 b7 2b be
       0.4293809 -0.3182932 -0.15977553 -0.16769244
000260 fd 14 49 3e a6 1f 5b bc 0b 86 22 bc 1a 4e 54 3e
       0.19636913 -0.013374245 -0.009919654 0.20732918
000270 0b 50 f9 3d 93 e6 06 3d 8b c2 ea 3d 98 7b fc 3d
       0.1217347 0.032934736 0.114628874 0.12328261
000280 34 f3 2b be 8d 92 23 3d 48 3f c8 3d 01 90 57 be
       -0.16791993 0.039934684 0.09777695 -0.21051027
000290 c3 ca 8f 3d bd 38 43 bd 26 1d 33 be 09 0f 38 3e
       0.070210956 -0.04766153 -0.17491588 0.17974485
0002a0 61 34 5d be 76 47 60 bc 41 68 28 3c 1a f1 8b 3e
       -0.21602012 -0.013688913 0.010278762 0.27332383
0002b0 b6 ee 7c 3c 27 7c a4 bd ac 12 5d bd 86 8d f5 bd
       0.0154377725 -0.08031493 -0.053972885 -0.11989884
0002c0 7e c7 95 3e 9c 55 99 bd 51 14 07 ba 63 b1 a8 3e
       0.29253763 -0.07487032 -0.00051528687 0.32947835
0002d0 e6 6e fb bc 21 bc 8a bd cb 81 51 3d 65 27 89 3e
       -0.030692529 -0.06774164 0.05114917 0.26787868
0002e0 1f 8c e8 bd bc 8a 6e be 13 98 dd 3d 6d 7c 3c be
       -0.11354851 -0.2329511 0.108200215 -0.1840684
0002f0 14 26 83 3e 28 31 0b bd 9a 09 ac 3d 2a 10 45 3e
       0.2561499 -0.033982426 0.08400269 0.19244447
000300 51 d9 30 bd f6 8b 9c bd 63 b7 25 3e 95 c3 f7 3c
       -0.043176 -0.07643883 0.16183238 0.030244628
000310 cd c1 e3 3d 00 26 1b be d9 ab b6 bd f4 80 6a be
       0.11120949 -0.15151215 -0.08919496 -0.22900754
000320 d2 b7 32 3d ff 16 d7 3c 59 2c b0 be 4b 56 34 be
       0.043632336 0.026256083 -0.34408835 -0.17611043
000330 f0 0b 5d 3e ca 83 ae bd 59 9e 8e 3e ab d6 71 3e
       0.21586585 -0.085212305 0.27855185 0.23617046
000340 30 1c fa 3c 38 e5 7c be 3f 02 ad 3e 10 5b 22 3d
       0.030531019 -0.24696815 0.33790776 0.039637625
000350 aa d2 5a 3e 50 c9 68 be ad f8 2a be 19 dd 97 3e
       0.21369424 -0.22733045 -0.16696425 0.29660872
000360 eb 60 01 bd 6f e7 a6 3d 16 da 4d 3e e0 1b bc be
       -0.03158657 0.08149611 0.20102724 -0.36740017
000370 39 a5 59 be 94 46 57 bc 54 eb f2 bd 61 d2 3d 3d
       -0.21254434 -0.013139386 -0.118612915 0.04634321
000380 b1 30 05 be 47 19 e2 bd d0 39 d9 3d 75 61 3a 3e
       -0.13006856 -0.110399775 0.1060673 0.1820124
000390 60 d0 c0 3d 01 66 23 be ce 37 68 3d b9 27 a3 3d
       0.094147444 -0.1595688 0.056693844 0.07966561
0003a0 2d 69 e1 3c 4e 4b be bd f0 e7 e2 3d 71 e9 cc be
       0.027515972 -0.09291707 0.11079395 -0.40021852
0003b0 e3 6f 78 be 33 cb 7a 3e d8 c8 d1 bd ae 9e 5d 3e
       -0.24261431 0.24491577 -0.10243386 0.21642563
0003c0 0a 54 a1 be 6e cb 84 3e 03 6b f3 3d 12 2e 0d 3d
       -0.3150943 0.25936455 0.11885645 0.034467764
0003d0 29 45 55 be 98 85 18 be 8a 30 a1 be eb 42 15 be
       -0.20827164 -0.14894712 -0.31482345 -0.14576308
0003e0 9e ce cb 3d 3c 1d 67 bd d4 b4 58 3e cf 93 8d 3e
       0.099515185 -0.056424364 0.2116273 0.27651832
0003f0 11 54 0e bd f8 70 82 3e 8a fa 62 3e b3 0d 90 3d
       -0.03474814 0.25476813 0.22165886 0.07033863

transformer.encoder.layers.0.self_attn.out_proj.bias f4 [32]
000000 c1 7b 7d 3c b4 fe c0 3c b6 87 71 bd d4 36 3d 3d
       0.0154714 0.023558952 -0.058967315 0.046194866
000010 e3 e9 c2 bd 4a 20 69 bd 67 41 6f bd 31 de 0d 3d
       -0.095172666 -0.05691556 -0.058411982 0.034635726
000020 8d 50 a3 bb 60 80 a3 3d 88 a8 9d bd fb be 8b 3d
       -0.0049839676 0.0798347 -0.076981604 0.06823536
000030 9e 60 06 3d e9 70 69 bd ec 17 61 3b 40 18 b9 3b
       0.032806985 -0.056992445 0.0034346534 0.005648643
000040 88 1e 67 3e b3 1f 6a 3c 30 f1 a9 bc ba e5 11 3c
       0.2257024 0.014289784 -0.02074489 0.008904869
000050 77 c4 f6 3c fc d1 59 bd 90 47 ed 3a 31 17 bb bd
       0.030122979 -0.053178772 0.0018102992 -0.09135283
000060 df 0c a7 3d 7b 21 3c bd 21 f6 0a 3d 2a 19 1d bd
       0.08156752 -0.045930367 0.033926133 -0.038354076
000070 fb be 8d 3c 28 fd 47 3c 53 c7 fe 3c 32 5d aa ba
       0.01730298 0.012206353 0.031100905 -0.0012997745
