Models/attnOnly_4head_32dmodel_8dhead_3layers_150epochs_train=1fnameremoved.pth (torch, 85367 bytes, 28 tensors)

embedding.weight f4 [88, 32]
000000 f9 3e 3d 3f cd ac d5 be 34 e2 97 3f d1 f1 a0 3f
       0.73924214 -0.417334 1.1865907 1.2573797
000010 78 d1 fa be 9a ea 44 bf 72 df 85 bf 48 e1 2f 3f
       -0.48987937 -0.76920474 -1.0458815 0.68703127
000020 06 a9 83 3f 9c 1d 13 c0 a6 4e 8a 3b a9 2a aa 3f
       1.0285957 -2.2986822 0.0042208014 1.3294269
000030 82 22 26 3f e2 11 14 be 4f 8a 94 3e 90 4b a0 bf
       0.64896405 -0.14459947 0.2901177 -1.252306
000040 40 ca 4c 3f f8 d3 bd bf aa a1 24 bf 18 d2 6a bf
       0.7999611 -1.4830313 -0.6430918 -0.9172683
000050 67 41 a9 bf 0d 3b 03 40 4b 43 d5 be 0a 17 fd bf
       -1.3223084 2.0504792 -0.41652903 -1.9772656
000060 2f 4b 77 be d6 c7 1e 3f d1 02 32 3f bc dd 20 3f
       -0.24149774 0.62023675 0.6953555 0.6283834
000070 df 1f 62 3f 83 ad 92 3f 02 b3 5d 3f 8d 84 a8 3d
       0.8832988 1.1459202 0.8660127 0.08228407
000080 77 1a 81 bb ab 20 78 3d 63 4b 2c 3e ee 51 da 3e
       -0.0039399224 0.06057803 0.16825633 0.42640632
000090 2c 12 89 be 55 0a 45 3f 40 cd ad 3f 3f e3 4f bf
       -0.26771677 0.7696889 1.3578262 -0.81206125
0000a0 df 74 cf 3c f2 71 e9 be 1f f7 13 40 f7 dc 8e 3f
       0.025324283 -0.45594746 2.311958 1.1161183
0000b0 bf e5 80 3f ee 33 b3 3f 41 ae 01 3b 04 a9 23 c0
       1.0070113 1.4000223 0.0019787701 -2.557191
0000c0 5b e7 38 bf 10 08 d8 be e9 d4 ec be 5e e5 06 3e
       -0.7222802 -0.4219365 -0.46256188 0.13173434
0000d0 e8 67 64 bf 4c 95 12 3f f2 5e a4 3f 82 cf 14 3f
       -0.8922105 0.5725906 1.2841475 0.5812913
0000e0 be 86 8f bf 81 a2 aa bf 41 87 5c 3f ea f4 2f bf
       -1.1212995 -1.3330842 0.8614388 -0.68733084
0000f0 ba a8 1d 3f 0f a7 85 be c3 58 f0 3e 6d 41 93 bf
       0.6158558 -0.26104018 0.4694272 -1.1504341
000100 7b cb 06 3f 6c 2d 6b bf 92 34 88 3e 3d 55 a3 3c
       0.52654237 -0.91866183 0.26602608 0.019938106
000110 68 22 00 3e 78 d6 2c bf cd a2 9b 3a e3 09 bb 3e
       0.12513125 -0.67514753 0.001187408 0.3653098
000120 bb 2f a7 be bb 99 8b 3f ba 3c 01 40 3f 2f ef 3d
       -0.32653603 1.090629 2.0193315 0.11678933
000130 08 bc 9e 3e 47 07 4c 3f 66 a4 c4 3e f6 89 c8 be
       0.3100283 0.79698604 0.38406676 -0.39167756
000140 eb 6a 22 40 1c d8 5f 3f ab ae ab bf b5 14 b0 bd
       2.5377758 0.8743913 -1.341268 -0.085976996
000150 12 50 2f 3e ba ec 1a bf 2e 61 6d be 32 1d 98 3f
       0.17120388 -0.60517466 -0.23181602 1.188391
000160 09 f5 fc bd 19 d0 d1 3f 5c bc c1 bf 7d 0a a2 3e
       -0.12351424 1.6391631 -1.5135608 0.31648627
000170 f5 2d 02 3f de 6d ab be 12 07 a7 be ee 46 4e bf
       0.50851375 -0.3348226 -0.32622582 -0.8057698
000180 8e 20 62 3e 99 d9 3a bf 8c 28 43 bf 09 10 34 bd
       0.22082731 -0.7298828 -0.76233745 -0.043960605
000190 31 5d d8 bf 4f e8 25 40 56 79 95 3f e0 93 5f 3f
       -1.690344 2.592304 1.1677654 0.87335014
0001a0 44 e8 4f 3f ea 9b aa bd c5 b3 20 3e 17 07 ed bf
       0.81213784 -0.083305195 0.15693577 -1.8517789
0001b0 b5 e5 05 c0 4c df 26 bf 3a af 41 bf f3 d1 26 3f
       -2.0921452 -0.65184474 -0.75658 0.6516411
0001c0 5a 4f a3 3f 8f 20 63 3f 55 46 07 bf 9b e8 14 c0
       1.2758591 0.88721555 -0.52841693 -2.326697
0001d0 06 8a a6 be 32 44 14 3f 98 e7 27 be 36 30 50 bf
       -0.3252718 0.5791656 -0.1639694 -0.81323564
0001e0 aa fb 96 3c f7 71 d3 bd e3 e8 08 40 f1 c2 8c bf
       0.01843055 -0.103244714 2.1392143 -1.0996991
0001f0 97 2f 87 bf a7 4c b7 bf 76 61 a6 3f f7 6f 29 bf
       -1.0561398 -1.4320267 1.2998493 -0.6618647
000200 e2 28 9f bf 1a eb 2b 3f ac ae 73 bf 6e ed 4d 3f
       -1.2434351 0.6715561 -0.95188403 0.80440414
000210 cf f0 0b bf 2b 7b 4c bd 89 08 8e bf 41 ef 3f bf
       -0.5466432 -0.04992215 -1.1096355 -0.7497445
000220 eb 22 8b 3f d9 b7 af 3e 26 6a 53 bd 10 01 a5 3f
       1.0870031 0.34319952 -0.051614903 1.2890949
000230 3f 37 68 3e d8 25 39 bf d1 1f 80 3f 40 94 76 3f
       0.22677325 -0.7232337 1.000971 0.9631996
000240 31 b3 a3 3e a1 c8 43 be 03 a4 7a 3f cd 75 33 3f
       0.3197265 -0.19119503 0.9790651 0.70101625
000250 3e 71 9e 3f 97 57 cd 3e 63 8a 66 3f a5 e6 b9 3f
       1.2378309 0.40105888 0.9005491 1.4523512
000260 e8 ae 89 bf a4 ee eb be 3d e0 0b 3f 34 32 8f bf
       -1.0756502 -0.46080506 0.54639035 -1.1187196
000270 15 0d 3d 3f a5 50 38 3f 87 80 d2 3e 88 b9 f3 bf
       0.73848087 0.71998054 0.41113684 -1.9040995
000280 58 fa 71 3c ed 78 75 be aa 82 82 bf ba fd 2a 3f
       0.014769159 -0.23971911 -1.0196126 0.66793406
000290 17 c7 41 3f c2 65 d2 bd cc 0d 4d bf 9b 56 a0 bf
       0.7569441 -0.10273315 -0.8009918 -1.252643
0002a0 27 87 33 bf a5 29 eb 3d 1e a9 bd 3f 18 85 cf 3e
       -0.701281 0.114825524 1.4817235 0.4053123
0002b0 0b 8f a4 bd 4d 0c f8 3e c5 31 27 bd 72 ae 87 3f
       -0.08035096 0.48446885 -0.04081895 1.0600111
0002c0 80 d4 1b bf 23 1f b8 3f 1c a2 66 3f 92 d5 51 3f
       -0.60871124 1.4384502 0.9009111 0.8196651
0002d0 86 96 96 bd 49 36 a7 3d d8 66 d0 3e 39 97 9f bf
       -0.07352929 0.08164651 0.40703464 -1.2468024
0002e0 e7 94 b6 3f 53 5d 82 bf e3 93 3b 40 e0 96 45 bf
       1.4264191 -1.018473 2.9309013 -0.7718334
0002f0 93 c6 62 bf f0 aa cc bd ce 6c c7 3f b9 90 76 be
       -0.8858425 -0.09993541 1.558008 -0.24078645
000300 a6 ca 13 bf 7d aa 84 bf e4 1f 19 bf 00 45 0e 3f
       -0.5773109 -1.0364529 -0.59814286 0.55574036
000310 f1 5f 8a bd d2 f2 49 3f e4 ef ed 3e cf 46 1e bc
       -0.067565806 0.7888614 0.46472085 -0.009660437
000320 86 09 c8 3d a9 d0 5d 3f b8 33 ae bf 2f df 72 3f
       0.097674415 0.86646515 -1.3609533 0.948718
000330 6f 76 f7 3f ea d7 82 3e e1 84 8c bf 0a b6 90 3e
       1.9333018 0.25555354 -1.0978051 0.28263885
000340 52 71 9d 3e ee 20 8f 3f 13 b8 01 3e 2d 17 c2 bf
       0.3075052 1.1181924 0.12667875 -1.5163323
000350 74 5d d5 bf 35 b5 3f 3f 0c fc 5a bf 4d 05 99 3c
       -1.6669145 0.74885875 -0.85540843 0.018679285
000360 5f 2b 9f bf dd 49 f7 3e 6c 70 32 bf 58 d4 ad 3f
       -1.2435111 0.4829854 -0.6970279 1.3580427
000370 cd 06 0f bf d3 6c aa bf 88 a1 97 3f e7 59 8b 3e
       -0.5586975 -1.331446 1.184617 0.27217028
000380 50 b2 f4 3f 44 19 b3 be e5 e3 5a 3f 6c b9 01 40
       1.9116917 -0.34980214 0.8550399 2.0269423
000390 af e7 b1 3d 23 14 a1 bf 69 f9 34 3f 1e 41 a4 bf
       0.08686768 -1.258427 0.7069307 -1.2832372
0003a0 93 2d 6b bf 64 73 e2 bd 6d 88 8f bd f2 8c 46 3d
       -0.91866416 -0.11057165 -0.07008443 0.04847426
0003b0 1d 66 a9 bf d0 ec 9c 3d 26 60 91 3f 0c 89 87 be
       -1.3234288 0.07662356 1.1357467 -0.26471746
0003c0 e2 64 d6 3f d7 6d b3 bf f4 28 ac 3f a8 87 5a bf
       1.6749537 -1.4017895 1.3449998 -0.85363245
0003d0 18 4a 3c bf c6 7a f9 3d b0 f1 b8 3d 1f 41 c9 bf
       -0.7355056 0.1218162 0.09030473 -1.5722998
0003e0 0c e4 d0 3f a7 2e 2c bf 9a 82 63 3f 9d e1 96 bf
       1.6319594 -0.67258686 0.8887116 -1.1787602
0003f0 01 b0 02 3f 9c cd 2b 3f 0e 9e f5 3e 2a f6 3a 3f
       0.5104981 0.6711061 0.4797215 0.73031867

pos_embedding.weight f4 [9, 32]
000000 b7 a3 48 bf cf 75 80 3f 4e bc ab 3f ca e1 a0 bf
       -0.7837481 1.0035952 1.3416841 -1.2568905
000010 12 b7 e7 be 7b 21 51 3f ba 3f 53 3f b8 23 89 3f
       -0.4525686 0.8169171 0.82519114 1.0714025
000020 bb d7 e9 3c 4b 14 86 bf 74 69 e9 bf 5b 46 1b bf
       0.028545251 -1.0474943 -1.8235307 -0.6065423
000030 bc 6f 18 3f 77 e6 34 bf d1 55 a0 3f a0 9c 94 bf
       0.59545493 -0.7066416 1.2526189 -1.1610298
000040 3c 92 0a bf 69 be 46 be eb f7 3a 3f ae d0 3e 3f
       -0.54129386 -0.19408573 0.7303454 0.7453717
000050 85 82 63 bf f3 58 8c 3f 8f 80 e9 bf c9 1a 0b 3f
       -0.8887103 1.0964645 -1.8242358 0.54337746
000060 2a b0 9f 3e 5d 48 f3 bf 7b 12 1c 3f 40 50 b0 3f
       0.3118909 -1.9006459 0.609657 1.377449
000070 40 bf 17 40 f0 f5 24 bf a3 1e bb bf b7 08 58 3f
       2.371048 -0.6443777 -1.4618725 0.843883
000080 60 6b b3 3f 09 f1 46 be 50 10 f1 3e 8d 57 b3 bf
       1.4017143 -0.19427885 0.47082758 -1.4011093
000090 70 65 30 3f 13 bd e7 3f 7c 82 17 c0 21 96 c0 3e
       0.6890478 1.8104576 -2.3673391 0.3761454
0000a0 da 1f 49 bf a1 de f0 bf ef 0d 15 bf f4 b4 42 3f
       -0.78564227 -1.8817941 -0.58224386 0.7605736
0000b0 73 bf d2 bf b8 1e 32 bf c2 6e 13 bf 05 10 36 3e
       -1.6464676 -0.69578123 -0.5759088 0.17779548
0000c0 41 1a c5 bf a6 38 13 be 7c 50 7d 3f 0a 00 70 bf
       -1.5398637 -0.14377078 0.98950934 -0.9375006
0000d0 3e 99 9a bf 15 ca 3d bf 72 13 f0 3e 2f 05 2a be
       -1.2078016 -0.7413648 0.46889836 -0.1660354
0000e0 9b 6b 15 3f 03 e4 63 bf 44 43 14 bf a9 ef 52 3e
       0.5836732 -0.89019793 -0.5791514 0.20599236
0000f0 7b 4b 43 3f 65 b6 33 3e 92 23 23 3f a9 75 ae be
       0.7628705 0.17550047 0.6372615 -0.34074143
000100 9c 06 df bf 44 92 1e bf c3 1f 2d 3d e9 5e 40 3f
       -1.7423892 -0.61941934 0.04226662 0.7514482
000110 5c 76 85 3e e9 19 55 bd 30 ea 26 3f 0d fd bb 3f
       0.26066864 -0.052026663 0.6520109 1.46866
000120 e3 f1 de 3e aa a3 3b be 2f f0 9e 3f a8 53 9a 3f
       0.4354392 -0.18324152 1.2417048 1.205678
000130 93 fc 8a bf b7 e8 9b be 9c 24 e3 3f f2 e8 78 3f
       -1.085833 -0.30450985 1.7745547 0.97230446
000140 72 ab ce 3f 80 a2 13 be b2 02 91 bd 24 f3 09 bf
       1.6146071 -0.14417458 -0.07080592 -0.5388663
000150 79 91 05 c0 97 54 94 3f c6 63 89 bd 03 62 d5 3f
       -2.087004 1.1588315 -0.067084834 1.6670536
000160 74 8b 90 bf ae bc 60 3f 64 0a aa bf 21 c7 a2 bf
       -1.1292558 0.877879 -1.3284421 -1.2717019
000170 d2 d3 9c bf 9b ed 50 bf 1c 56 67 bf 1d ff d5 3e
       -1.2252142 -0.8161256 -0.9036577 0.41796198
000180 5d f4 2b 3f 4d 73 8e be c0 c2 9a 3e 28 f0 7d bd
       0.67169744 -0.27822343 0.30226707 -0.06199661
000190 58 a3 61 3f 03 7e 13 40 5d fb a1 be a4 5b 68 3e
       0.8813987 2.3045661 -0.31637087 0.22691208
0001a0 27 b7 0e 3f e4 f1 a0 3e 0a 35 78 3f 1e b2 07 3f
       0.5574822 0.31434548 0.9695593 0.5300616
0001b0 c7 3f 27 3f 46 63 33 3e b2 37 94 be c0 53 ce be
       0.6533169 0.17518339 -0.28948742 -0.4029827
0001c0 f1 3d fc 3e 95 bf 3d bd a3 bf 24 3f 65 43 1c bf
       0.49266008 -0.046325285 0.64354914 -0.61040336
0001d0 0c c8 1d 3f b2 db 98 3e a8 77 87 3f 27 68 d9 bf
       0.6163337 0.29855114 1.0583391 -1.698491
0001e0 3f 82 1b 3f c6 4a c3 3e 0a f3 45 bf a8 b2 96 3f
       0.60745615 0.38142985 -0.77323973 1.1773272
0001f0 d2 0e 5d 3f 10 07 c8 bf d0 58 a6 be 23 ec d1 be
       0.8635074 -1.5627155 -0.32489634 -0.4100047
000200 fc 15 51 bf 3e e6 72 3f 72 97 03 bf 22 2a b6 3f
       -0.8167417 0.9488257 -0.5140296 1.4231608
000210 a6 fb ec be 6b 82 c3 bf e0 7d 87 bf e9 f5 ba 3f
       -0.46285743 -1.5274175 -1.0585289 1.4606296
000220 b2 30 8b bf 19 3c 7b 3f c4 79 9d be f4 c6 52 3e
       -1.0874236 0.98138577 -0.30756962 0.20583707
000230 c9 d8 d4 3e 72 a0 16 3f 79 f8 c0 bd 89 be dc 3c
       0.41571644 0.5883857 -0.094223924 0.026946323
000240 15 0a 87 bc 0e f6 4f be e7 6f 4b 3f a3 88 0f be
       -0.0164843 -0.20308706 0.79467624 -0.14016967
000250 b0 dc a2 be b1 92 0c 3f c0 fc d4 bf 4f 3a f4 3e
       -0.31808996 0.54911333 -1.6639633 0.47700736
000260 23 26 a8 bf 19 08 94 3f 7a e8 21 bf b6 31 22 be
       -1.3136638 1.1564971 -0.63245356 -0.15839276
000270 38 40 99 3f 0f b9 8b bf 6c 62 0c 3e 88 1e 7f 3f
       1.1972723 -1.091585 0.1370942 0.9965596
000280 2e 3f 6d 3f dd 38 32 bf 54 db f4 bf 8a 8b a3 be
       0.9267453 -0.69618016 -1.9129434 -0.31942397
000290 68 e3 14 bf 09 92 79 be e7 c1 99 bf c0 a5 92 3f
       -0.58159494 -0.24372114 -1.2012299 1.1456833
0002a0 d7 ae b7 3f f7 c6 4c bb 6f fe f6 3e 5b 06 8e bf
       1.4350232 -0.0031246522 0.48240992 -1.109569
0002b0 49 6f 5a bf ec bd 01 3f 8a 4f b6 3e 15 16 21 bf
       -0.8532606 0.5068042 0.35607558 -0.6292432
0002c0 95 e5 eb 3d 5b bd ed 3e 4f fb 67 3f 84 4a eb bf
       0.11518399 0.4643353 0.9061784 -1.8382115
0002d0 c1 0d 96 3e e0 7d 48 3f 0d 87 95 bd 8b 75 cd 3f
       0.29307368 0.7831707 -0.073011495 1.6051496
0002e0 1c 31 4b 3f 21 81 83 3e a1 28 fb 3c 8e 8d 8c bf
       0.7937181 0.25684455 0.030659022 -1.0980699
0002f0 e7 dc b8 be 38 09 cd bd 74 6a 31 bf ca 52 5c bf
       -0.36106035 -0.10011524 -0.6930306 -0.86063826
000300 50 63 98 3f 3d 5f ac bf 6a f5 41 3f 54 c5 cb bf
       1.1905308 -1.3466564 0.757651 -1.5919595
000310 20 c6 89 3f b7 a8 9d bb e4 9e 15 3f 7d 27 21 bf
       1.0763588 -0.004811372 0.5844557 -0.6295088
000320 c9 25 59 3e 65 ea db bf 6a 8e d0 be d6 60 d8 bc
       0.2120582 -1.7180907 -0.40733653 -0.026413362
000330 1d ea 3e bf f5 2b a9 bc 4c 9f 47 bf b1 3f c3 bf
       -0.7457598 -0.020650843 -0.7797744 -1.5253812
000340 76 ae 7d bf 1d c2 3d be 83 76 1e 3d 18 f2 95 ba
       -0.9909433 -0.1853108 0.03868724 -0.0011439947
000350 bb 2b b5 3e d8 2b c2 3f 87 b2 83 bf 3e a7 85 bf
       0.35384926 1.516963 -1.0288857 -1.0441663
000360 e4 81 c3 3f cb 27 a8 3d 0e aa d1 bd 49 bf be bd
       1.5274014 0.08210715 -0.102375135 -0.093138285
000370 cd 2c a7 3e e4 7f 05 40 c7 a4 a9 3e a9 3a 07 bf
       0.32651368 2.0859308 0.33133528 -0.52823883
000380 73 0c 28 c0 55 9c 10 c0 4c 13 b1 3f 5f 2a 60 3f
       -2.6257598 -2.2595417 1.3834014 0.87564653
000390 3a f2 d2 3f 4f a4 fb 3e bb 71 df 3d a3 1a 19 bf
       1.6480172 0.49148795 0.10910364 -0.5980627
0003a0 cc 2f 80 bf 71 71 59 be 8a cd 30 bc 90 63 cd bd
       -1.0014586 -0.2123468 -0.010791192 -0.10028756
0003b0 dd 07 bb bf e6 15 00 bf a7 ac 8f bf 4d c1 a6 bf
       -1.4611775 -0.50033414 -1.1224564 -1.3027741
0003c0 69 63 02 bd 07 6b 25 3f 31 d3 69 3f 77 38 a9 be
       -0.031833086 0.64616436 0.9133788 -0.33050892
0003d0 b1 3d 97 3d 0c e9 d2 be 03 e1 b4 be 48 62 05 3e
       0.073848136 -0.41193426 -0.3532792 0.13025773
0003e0 a4 70 e9 3e 2b f2 77 bf 2f a4 99 3e 34 29 94 be
       0.4559375 -0.96853894 0.30008075 -0.28937685
0003f0 7c 22 0f bf b4 1b 4b be f2 4a 11 bf e6 e5 09 c0
       -0.55911994 -0.19834787 -0.5675498 -2.154657

attn_layers.0.W_Q f4 [4, 32, 8]
000000 84 1c ba bf 64 d8 88 bf 5d 2c cb 3f ed 3d cc 3f
       -1.4539952 -1.0691037 1.5872914 1.5956398
000010 86 41 02 3f fc 9e 63 bc f7 ce 5a bf 69 74 84 bf
       0.5088123 -0.013892885 -0.85472053 -1.0348026
000020 13 e9 e2 bf e4 a8 cd 3f 2d 66 8d bf be 74 a7 bf
       -1.7727379 1.6067166 -1.1046807 -1.3082502
000030 a6 09 d0 b8 cf f4 51 bf 15 0d 9d b9 8d fb 78 3f
       -9.92001e-05 -0.82014173 -0.0002995512 0.97258836
000040 4b f2 d0 be 0c a8 41 3f b2 05 30 3d 23 c7 90 3f
       -0.40809855 0.75647044 0.04297418 1.1310772
000050 0c dc 46 bf 4b ac e1 3e c7 29 83 3f dc 61 f7 3c
       -0.77679515 0.44076762 1.0247124 0.03019803
000060 e9 ac cb bf 5f e2 d0 be ae a5 1f bf 40 0e c4 3d
       -1.5912143 -0.40797707 -0.6236218 0.095730305
000070 99 f7 df 3e 79 34 41 bf 52 7b 68 c0 a4 30 22 3f
       0.4374359 -0.7547069 -3.6325269 0.6335547
000080 6b ad ce be 3b 5b 2f bf 86 3b 0b bf d2 c9 7b 3f
       -0.40366682 -0.6849858 -0.543877 0.9835483
000090 a7 56 d1 be 24 40 7d 3f 74 a5 94 bf d7 44 80 c0
       -0.40886423 0.98925996 -1.1612992 -4.0084033
0000a0 35 02 8a bf ae 7c b1 bd c8 e7 dd 3e 3e 05 8a 3f
       -1.0781924 -0.08666359 0.43340898 1.078285
0000b0 2f 44 5f bd 4e b8 3f 3e fc ac 15 3e cd b5 17 be
       -0.054508384 0.1872265 0.1461677 -0.14815445
0000c0 9a 90 6d 3f bb 98 69 bf b0 02 8c bf ac 6e 3c 3f
       0.9279877 -0.91248673 -1.093832 0.7360637
0000d0 fe cf da bf c1 c0 f0 3e 84 5b 42 c0 f8 5a d0 be
       -1.7094724 0.4702206 -3.0368357 -0.40694404
0000e0 92 78 1c 3f d3 76 d5 3e 77 5a e2 3e 4d aa a3 bc
       0.61121476 0.41692218 0.44209644 -0.019978667
0000f0 55 f7 c6 be ba 35 21 3e b1 ab 6e be 80 55 3c 3f
       -0.38860574 0.15743151 -0.23307683 0.7356796
000100 b8 6a f7 bf 8a ba 30 3f 05 23 e7 3e db 0a 11 bd
       -1.9329443 0.69034636 0.45143905 -0.035410743
000110 7e a1 b3 bf d3 c9 cc bf 2e 06 39 be 60 b4 25 3d
       -1.4033659 -1.5999092 -0.18068764 0.040455222
000120 11 1c 01 3e 24 1b e7 bc b3 0f 31 bf 2f 4b 01 3f
       0.12608363 -0.028211184 -0.6916458 0.50505346
000130 8f 39 ae bd 4c 19 c3 3e c2 f7 88 3f 90 4c b2 3f
       -0.08507072 0.38105237 1.070061 1.3929615
000140 9e 2e ce 3e cf 1b 19 bf eb 41 e0 bc 86 c4 bb 3e
       0.4026994 -0.5980806 -0.027375182 0.36673373
000150 aa 0e 81 bf 4a cd b6 3e 9f fe 4e 3f a4 e0 95 3f
       -1.00826 0.35703498 0.8085727 1.170918
000160 c5 27 cd 3f eb 5c 26 bf 50 22 47 bf 7a e5 b0 bd
       1.6027762 -0.6498553 -0.7778673 -0.08637519
000170 01 11 0c 3f 74 89 e2 be 59 71 85 be 18 5b 38 3e
       0.54713446 -0.44245493 -0.2606304 0.180035
000180 52 ca 8a 3f 77 6f 77 3e 20 08 2a bf d3 fe ab 3f
       1.0842993 0.24163614 -0.6641865 1.3437141
000190 e5 bb 94 bf ee 9d 0c 3f 99 6e b9 3f 90 ad a0 be
       -1.1619841 0.5492848 1.4486877 -0.31382418
0001a0 62 12 45 3e fa c2 01 c0 02 40 4d bd 6a a9 84 bc
       0.19245294 -2.0275254 -0.05010987 -0.016194064
0001b0 de f6 c5 3e 98 dd 49 3b 33 f1 9c be 7b 60 51 bf
       0.38664907 0.0030802246 -0.3065277 -0.8178784
0001c0 e5 5c bb 3f ff f1 e6 3e 25 b4 0e bf 90 10 18 3f
       1.4637724 0.45106503 -0.5574363 0.5940027
0001d0 2c 1b c5 bf 7f 16 dd be 88 0a d1 3f 3a 84 8f bf
       -1.5398917 -0.43181226 1.6331339 -1.1212227
0001e0 51 e3 71 bf a3 b8 ac 3f 71 79 30 3e 63 9e 63 bf
       -0.9448748 1.3493847 0.17233826 -0.88913554
0001f0 a9 1f 59 bf 77 1a ae 3f 6a 77 8c 3f 37 4f a8 3f
       -0.84813935 1.3601826 1.0973942 1.3149174
000200 5e 04 60 bf 18 de 51 bf 4a 9f 8b bf ed 0c a1 3e
       -0.87506664 -0.81979513 -1.0907986 0.31455174
000210 21 16 05 3e bf 8c c1 be 04 0b 32 3f dc b2 7e bf
       0.12996723 -0.37802693 0.6954806 -0.9949167
000220 96 05 23 3f e1 43 6b bf 36 1d 9f 3f 5c 6e 0f bf
       0.636804 -0.9190045 1.243079 -0.5602777
000230 3d 2e 98 3e 07 c7 59 bf a9 18 69 3f 7b a6 ec bf
       0.29722777 -0.85069317 0.91053253 -1.8488306
000240 cf 6c ac be ad aa 1f 3e d9 2c 5b be ea 8e 86 3f
       -0.33676764 0.15592451 -0.21403827 1.0512364
000250 39 25 a6 bf 06 95 a5 3f 70 3a 19 bf ca 7f ae bf
       -1.298011 1.2936103 -0.59854794 -1.3632748
000260 62 ba 0b 3f e3 9d 53 3f d5 84 c8 bf 47 c0 31 bf
       0.5458127 0.8266279 -1.5665537 -0.69434017
000270 96 46 8a 3f d6 5c b5 bd 2d 0b 00 be 95 ec a4 3e
       1.0802791 -0.08855598 -0.12504263 0.32211748
000280 06 d9 eb 3f 5f 7a db bf 42 c3 ce 3f 98 35 71 bf
       1.8425605 -1.714672 1.6153338 -0.942224
000290 05 cf 1c 3d 1f 8e cf 3d 07 5f 4e 3f aa 56 66 3e
       0.038283367 0.10134529 0.8061375 0.22493997
0002a0 68 64 08 40 ad 85 63 bf 57 67 1b bf c0 c8 32 3f
       2.1311283 -0.8887585 -0.6070456 0.6983757
0002b0 26 1c 4e 3f e4 7b a3 bd 85 d6 88 3f 0a 43 ac bd
       0.805117 -0.07982615 1.0690466 -0.08411224
0002c0 b1 d7 30 bf ef 00 d4 3f 4e 95 53 bf 35 ff 0b 3f
       -0.6907912 1.6562785 -0.82649696 0.5468629
0002d0 f6 ef ee 3f ae d4 63 3f 2a cd 9c bf 29 f3 5f bf
       1.866698 0.889964 -1.2250111 -0.8748041
0002e0 6f de d6 bf 1b db 3c 3d 71 4a 17 3f 7f 8e 5b bf
       -1.6786631 0.046107393 0.59097964 -0.85764307
0002f0 ef cb d1 bf 33 fe 29 bc 02 5d 89 3e 6a b0 98 bf
       -1.639036 -0.010375547 0.26828772 -1.1928837
000300 9f a8 ff 3f b1 33 db 3e 63 92 13 3e bc 23 9a bf
       1.9973334 0.42812875 0.14411311 -1.2042155
000310 d5 52 96 3f 44 a4 40 3f ef db 01 3e f6 7f 89 bf
       1.1744028 0.7525065 0.12681554 -1.0742176
000320 97 6b aa 3f 8b 17 79 bf 11 b9 2b be 05 cc b8 bf
       1.3314084 -0.9730155 -0.16769816 -1.4437262
000330 65 e3 70 bf 6c 7b 94 bf b8 de fe bf 4b 40 77 3e
       -0.94096977 -1.1600165 -1.9911718 0.2414562
000340 69 06 a4 3f 5b 84 1a 3f be 94 74 3f 30 fd db 3f
       1.2814456 0.6035821 0.9553946 1.7186642
000350 b4 5b 38 bf 3f 40 81 3f 6a b5 a0 bf a7 d6 01 be
       -0.7201493 1.0097731 -1.2555363 -0.1267954
000360 7b c7 35 bf e8 fe cc bc 78 51 ce be 26 e5 9a 3f
       -0.7100751 -0.025023893 -0.4029653 1.210118
000370 f4 4a 14 3f 40 2f 7a 3e 2d 71 8b 3e 9d 14 99 3d
       0.5792687 0.24432087 0.27234784 0.07474635
000380 c1 a0 ad 3e 3d 11 16 bf 3d 70 55 bf 37 0b 14 3f
       0.33911708 -0.58620054 -0.8337439 0.5782961
000390 6b 61 01 bd ef 64 18 3f 52 ff 20 bf 6b 36 08 c0
       -0.031587046 0.5952901 -0.6288959 -2.1283214
0003a0 68 39 37 3f 2d 45 eb 3f e6 f0 78 be cc 5c 06 bf
       0.7157197 1.8380486 -0.24310645 -0.52485347
0003b0 0e 86 dd be da 8a c3 3e 64 25 e1 be 23 a6 ac be
       -0.43266338 0.38191873 -0.4397384 -0.33720502
0003c0 d8 63 72 3f 32 89 c6 3e 9c d2 4e 3f 5a 77 50 bc
       0.946836 0.38776547 0.80790114 -0.012723768
0003d0 79 f3 2c bf 12 e2 8a 3f 22 25 86 3f 0e 08 94 3f
       -0.6755901 1.0850241 1.0480082 1.1564958
0003e0 4d f2 2c bf 50 01 81 bf 64 2a 38 bf 20 cf 71 bf
       -0.6755722 -1.0078526 -0.7193968 -0.9445667
0003f0 9a a1 f1 bf 3b 11 39 bf 5f 86 bc bf 07 7a 66 be
       -1.8877442 -0.72291917 -1.4728507 -0.22507487

attn_layers.0.b_Q f4 [4, 8]
000000 b2 b9 d8 bd 0c c7 bc 3c 66 69 4c 3c 26 79 f7 bd
       -0.105822936 0.023044132 0.012476301 -0.12083654
000010 d2 cf 74 3d fa 3e 11 be a2 86 d3 3d a1 9f 5a be
       0.059768505 -0.1418418 0.103284135 -0.21349956
000020 bf d2 fd 3b 4c 27 14 3e a9 98 d4 bd d7 22 50 3d
       0.00774607 0.14468116 -0.1038068 0.050814476
000030 3b 8c a0 bd 72 e4 8c bc fe 89 98 bd 3a 59 80 3d
       -0.07839247 -0.017198775 -0.07448195 0.062670186
000040 02 57 6b bc e7 db a7 3c 46 8d 36 3d f3 f4 e3 bb
       -0.014364006 0.0204906 0.044568323 -0.0069566905
000050 b7 53 42 3c 0d 39 0e be f2 32 1e 3d fa 94 ec bd
       0.0118607795 -0.1388895 0.038622804 -0.115518525
000060 83 91 18 bd 51 11 06 bd c1 62 ca 3d da 0b 5d bd
       -0.037248146 -0.032731358 0.09882117 -0.05396638
000070 05 41 95 bd 64 50 a4 3c f6 6d 28 3b 22 80 e0 bd
       -0.07287792 0.020057864 0.0025700307 -0.109619394

attn_layers.0.W_K f4 [4, 32, 8]
000000 c1 87 88 bf 2e c7 12 be f9 f9 f8 3e a0 ed 51 bf
       -1.0666429 -0.14333794 0.48628214 -0.8200321
000010 ad a7 31 bf c2 bb 8c 3c c2 b0 56 3c 78 d5 de be
       -0.6939648 0.017179374 0.013103666 -0.4352224
000020 e2 7d 25 3f 0c d0 f1 bd 58 67 1d bf 34 85 26 40
       0.64645207 -0.1180726 -0.61485815 2.60188
000030 11 3e 81 3f 35 b8 d9 bf 90 9c d1 3e d2 dc 69 bf
       1.0097066 -1.700934 0.4093976 -0.9135257
000040 8b 1b c0 3f b6 3b a3 be a0 c9 d1 3f 87 37 f5 be
       1.5008405 -0.31881493 1.6389656 -0.47893927
000050 da 5f 9a 3e b3 78 3a 3f b2 df 94 3c cc 25 a3 bf
       0.30151254 0.7284042 0.018173072 -1.274591
000060 bb 9f 9e bf 33 70 3a bf 4b ab e5 3f 67 7a 97 bd
       -1.2392496 -0.7282745 1.79429 -0.07396393
000070 bf b4 1f 3f f0 21 78 3e 17 1d b2 bf ea 19 d2 3d
       0.6238517 0.24231696 -1.3915128 0.10258849
000080 d5 23 06 3f 65 87 64 bd 55 9a 5e be 1c 1f ca bf
       0.52398425 -0.055793185 -0.2173856 -1.5790744
000090 ae b9 88 bd ce 6f 70 3f cb 10 29 bf 94 5b b0 be
       -0.066760406 0.939206 -0.6604125 -0.3444487
0000a0 8f b1 73 3f 69 22 58 3f 26 c5 6a be 7b d3 dd 3f
       0.9519281 0.84427506 -0.22926769 1.7330164
0000b0 22 cb 51 3f 51 e8 c9 3d 9e f2 6a be 17 1c 00 40
       0.8195058 0.09858764 -0.22944114 2.0017145
0000c0 96 5b 22 3f 9a 14 aa bd 6a a5 08 be 98 ae c6 be
       0.63421 -0.08304711 -0.1334435 -0.3880508
0000d0 6d d2 e2 bc 39 79 05 40 64 a0 e4 be a4 74 f9 3e
       -0.02768823 2.0855238 -0.44653618 0.48721802
0000e0 89 f5 be bf 3f fd 23 c0 38 3c f4 3f 1f 85 d5 bf
       -1.4918681 -2.562332 1.9080877 -1.668125
0000f0 65 13 cd bf 9f 55 17 3f c3 ce 17 bf ff d3 d2 be
       -1.6021544 0.5911502 -0.5929987 -0.41177365
000100 94 71 0f bf c5 41 2a bf 9c 22 86 bf c5 1b a1 bf
       -0.5603268 -0.66506606 -1.0479312 -1.25866
000110 98 36 49 be 17 19 27 bf ba a2 cc 3f 20 fd 92 3f
       -0.19649732 -0.6527266 1.598716 1.1483498
000120 a9 71 a7 bf 30 43 fd 3d d3 c3 4c 3e 16 70 da bf
       -1.3081561 0.123663306 0.19996576 -1.7065456
000130 61 58 c0 be b6 a6 d1 be d6 07 77 bf 3a 2d 99 3f
       -0.37567428 -0.40947503 -0.9649633 1.1966927
000140 59 73 49 3f ca b2 35 be 86 50 8b 3d b3 81 81 3e
       0.7869163 -0.17743984 0.06802468 0.25294265
000150 10 6a 27 be a0 10 d7 3e 17 95 c4 bf 50 98 1f 3f
       -0.16349053 0.4200487 -1.5357999 0.62341785
000160 1b 24 50 bd a5 d6 15 3d b4 2f 81 3f d0 aa 44 3e
       -0.050815683 0.036581654 1.0092683 0.19205785
000170 80 32 60 3f 33 84 a3 bf 1e c8 0b bf 48 f5 a0 3f
       0.87577057 -1.2774719 -0.5460223 1.2574854
000180 a6 1f 38 3e 4c ec 81 bb ff 20 25 bf 9a 9d 3a 3f
       0.17980823 -0.0039649364 -0.64503473 0.7289673
000190 d9 dd a5 3f 52 f9 b4 3f 00 fa 96 be 31 ea b0 bf
       1.2958328 1.4138587 -0.2948761 -1.382147
0001a0 ab ff 0c be af 9b 87 3d 37 4a fa 3d 86 88 f7 3d
       -0.13769405 0.06621491 0.122211866 0.12086587
0001b0 db a5 c8 3e d8 91 0c c0 95 e2 c8 3f 6d 5d 0b c0
       0.39189038 -2.1964016 1.5694147 -2.1775773
0001c0 25 a5 7e bf 8f 3e fd bd 11 64 1f bf 74 82 02 40
       -0.9947074 -0.12365448 -0.62262064 2.0392122
0001d0 4c 5d b4 3e 9e a6 4b 3f 90 04 7d 3d 09 32 17 3f
       0.3522743 0.7955111 0.06177193 0.5906072
0001e0 e0 fa 6d 3d 70 70 ac bf 74 ef 00 bf 15 2a d4 bf
       0.05810058 -1.3471813 -0.50365376 -1.6575342
0001f0 35 cb 38 bf 39 2d e7 3e 41 5a a3 be 01 01 ae 3e
       -0.7218507 0.4515169 -0.31904796 0.3398514
000200 69 3e 26 3f ea 65 48 bf 3f 1e 86 bf f3 e6 1f bf
       0.6493898 -0.7828051 -1.047798 -0.62461776
000210 8f e7 1e 3f 88 94 0a 3f 25 97 dd 3f 8c 88 3a 3f
       0.6207208 0.5413289 1.7311751 0.72864604
000220 20 c2 b1 3f cd 56 ab be e4 e3 07 be 83 f1 26 3f
       1.3887367 -0.3346466 -0.13270527 0.6521227
000230 b2 03 18 bf fb 6f 98 3e e9 a9 e8 be 7b 6a 6c 3f
       -0.5938064 0.29772934 -0.4544213 0.92349976
000240 d0 94 de bf 4c 91 b4 be 72 8f 44 c0 ec 4b 0a bf
       -1.7389164 -0.35267103 -3.0712552 -0.540221
000250 1a c6 bb bf 76 31 09 40 de c9 6c 3f 43 2b d7 3e
       -1.4669831 2.1436439 0.92495525 0.42025194
000260 00 a9 89 bd 77 a1 3c 3e 98 aa a6 be d1 16 14 bf
       -0.06721687 0.18420969 -0.32552028 -0.57847315
000270 e2 4b af 3f 94 97 3d bf 04 b6 a4 be 7b f7 4e 3f
       1.3695033 -0.74059415 -0.32170117 0.80846375
000280 3c 14 df 3f 35 f1 29 3e 0c e3 59 bf b3 38 24 3f
       1.742805 0.1659592 -0.8511207 0.64149016
000290 c7 6a 0c 40 1b d6 3f bf 77 7f 0c be a0 24 a4 3c
       2.1940172 -0.74936074 -0.13720499 0.020036995
0002a0 a7 94 1a bd 7d a5 a4 bf 9a ab 00 3f 53 fc 29 bf
       -0.037739422 -1.2863003 0.50261843 -0.6640064
0002b0 5c b8 a6 3e 51 4b 8e bd 6c 78 b9 3e 31 4e 15 bf
       0.3256253 -0.06947959 0.36224687 -0.58322436
0002c0 9f f5 9f 3f e7 8b 13 40 09 72 9f 3c a5 b7 c4 3e
       1.2496833 2.305414 0.019463556 0.3842136
0002d0 ff 98 2f 3f 30 67 1f bf 26 23 c5 bf 68 5c 38 3d
       0.6859283 -0.62266827 -1.5401351 0.04501
0002e0 96 b9 c7 be 06 bd df be 93 19 10 3f cd 6a 12 bf
       -0.39008778 -0.436989 0.56289023 -0.57194215
0002f0 31 1f a5 be 8f 8a cf 3f 91 06 81 be 7f 11 bb 3d
       -0.3225036 1.621416 -0.25200322 0.091341965
000300 0b 98 7b bf 1e b9 c3 3f b4 70 94 bf 6a aa 3d 3f
       -0.98278874 1.5290868 -1.1596894 0.74088156
000310 6f 12 21 3f 5f b7 9a bf 3a f8 39 3f 3e 43 a9 bf
       0.6291875 -1.208721 0.7264439 -1.3223646
000320 04 25 ab be a3 8e 03 be de 27 30 3f a2 27 76 be
       -0.33426678 -0.1284738 0.6881083 -0.24038556
000330 a8 49 19 be 30 6f 23 bf 67 d9 0e 3f 92 45 fd bf
       -0.14969504 -0.63841534 0.5580048 -1.9786856
000340 d5 50 01 40 53 53 b0 3f 18 ca 03 3f 85 f2 c9 3f
       2.0205586 1.3775429 0.51480246 1.5777136
000350 e1 27 1d bd 20 7a 46 bd 45 45 6a 3e c2 62 0a bf
       -0.03836811 -0.04845631 0.22877987 -0.5405694
000360 97 d6 9e bf ab cb 64 3e c2 68 e2 3d fd 55 e1 bf
       -1.2409238 0.22343318 0.11055137 -1.7604367
000370 d0 c5 4d bf 45 c0 57 3f 43 33 28 3f 0c 6b 63 3e
       -0.8037996 0.84277755 0.6570322 0.22208804
000380 fa cb 98 3d 14 19 02 bf 22 26 b8 be 86 fe 13 be
       0.074607804 -0.50819516 -0.35966593 -0.14452562
000390 70 39 69 bf f5 1f 39 c0 02 dc 36 bf 5a cc 04 bf
       -0.9110327 -2.8925755 -0.71429455 -0.51874316
0003a0 46 5e 1e 3f b1 60 53 3f 9d 52 fa 3e 1d 59 92 3e
       0.618626 0.82569414 0.48891154 0.28583613
0003b0 44 a2 a4 bc e7 ec 00 3f 9c 5c 55 3e 6b 4d ee 3e
       -0.020096906 0.50361484 0.20836109 0.4654344
0003c0 13 0d 5a bd 02 e0 2a 3f cb 1d 3f 3f ec 97 8e bf
       -0.053235125 0.6674806 0.74654835 -1.1140113
0003d0 1c e7 83 3f 67 2b 1e c0 77 30 41 be 0e 3b 00 be
       1.0304904 -2.471399 -0.18866144 -0.12522528
0003e0 d9 3f eb 3f 7b 9b 85 bd 6a b7 7e 3f 76 7f 79 3f
       1.837886 -0.06523796 0.9949862 0.97460115
0003f0 7c 1e 24 3f fa 42 9f bf 9e 4a 2c c0 5f a7 86 3f
       0.64109015 -1.2442315 -2.6920543 1.0519828

attn_layers.0.b_K f4 [4, 8]
000000 0b 38 69 bd 0c 81 6b bd 23 66 50 3c af 34 8f 3d
       -0.056938212 -0.057496116 0.012719664 0.069924705
000010 74 7e d4 3d d3 c2 9d 3d 04 cf 47 3e 8e 14 dc 3c
       0.103756815 0.077031754 0.19512564 0.02686527
000020 38 d5 dd 3c 06 57 75 bd 9e 22 0e bd 1a b6 d6 bd
       0.02707921 -0.059897445 -0.034700982 -0.10483952
000030 b2 2c f0 bc f8 61 03 be f1 16 a1 bd 7a 2a 96 bd
       -0.029318187 -0.12830341 -0.07865704 -0.073323205
000040 5a 09 16 bc 2b 3b b1 bd 8b 09 28 3c 29 84 c9 bb
       -0.009157503 -0.086538635 0.0102561815 -0.006149788
000050 78 76 7d 3b 4e a7 46 3d 53 e6 08 3e 64 aa c0 bc
       0.003867535 0.048499398 0.13369112 -0.023518749
000060 30 4a a7 3d 1f 41 27 3e 39 11 0e 3e 03 79 cf 3d
       0.08168447 0.16333435 0.13873757 0.10130503
000070 eb ea f5 bb 48 98 17 bd 30 a5 80 bc b1 04 f9 bd
       -0.007504811 -0.03701046 -0.015703768 -0.12159098

attn_layers.0.W_V f4 [4, 32, 8]
000000 46 0e c8 3e 48 46 bc bf c2 85 91 3e 07 c5 fd 3a
       0.3907339 -1.4708948 0.28422362 0.0019361087
000010 a9 4b 48 be 1f 53 4d be c2 7e ab bf e3 a0 04 3f
       -0.19560112 -0.2005124 -1.3398058 0.51807994
000020 99 0f 8d bd 4e 2e f5 bf 67 42 d3 3d 34 79 16 3f
       -0.06887741 -1.9154756 0.103153996 0.5877869
000030 72 0e ab 3f c3 c3 0c bf d0 82 ac 3f 6a 08 03 40
       1.3363783 -0.5498621 1.3477421 2.0473886
000040 88 a8 24 3e 80 50 3e bf d0 ab 98 3d 30 c4 22 bf
       0.16079915 -0.74341583 0.07454646 -0.6358061
000050 da c5 83 be e9 c1 1d c0 7c 01 1c 3e ab 97 c2 3f
       -0.25736886 -2.4649603 0.15234941 1.5202535
000060 ec f1 04 3f c4 f4 37 3f 9a 54 00 40 1b 6a 09 bf
       0.51931643 0.7185786 2.0051637 -0.5367753
000070 a1 9f db 3e 27 50 aa bf 74 ea 7c 3f 28 4a 44 bf
       0.42895225 -1.330571 0.9879525 -0.76675653
000080 90 9f 61 c0 e3 fa 5f bf 7b d4 1a bd a4 9a 72 3f
       -3.525364 -0.874922 -0.037800293 0.9476721
000090 77 ea 2c 3f 57 0c 8b bf 76 91 cf 3f 65 05 ae bf
       0.67545265 -1.0863141 1.6216266 -1.3595396
0000a0 c9 12 75 bf a5 3e c0 3e 21 73 84 bc 95 c6 fc 3e
       -0.9573179 0.37547794 -0.016168179 0.49370256
0000b0 c4 08 89 3e 25 c5 b8 3f d6 75 52 bf f8 d5 95 3e
       0.267645 1.4435164 -0.82211053 0.29264808
0000c0 e6 d5 47 3e d1 5e 09 3e ff 46 a7 bd af 1e f6 3e
       0.1951519 0.13415076 -0.08167838 0.48070285
0000d0 02 7b 5f bf 49 0e 5b 3f 6b 95 55 3f d6 4c 5c 3e
       -0.8729707 0.8556867 0.8343112 0.21513686
0000e0 3b 4f f3 be 71 ff ba 3f 2c 5b 32 bf 55 d5 ca bf
       -0.47521386 1.4609205 -0.6967037 -1.5846354
0000f0 a9 d6 c5 3f 80 21 8c 3f db 9d 06 40 7b b8 6c bf
       1.5456134 1.0947723 2.1033847 -0.92468995
000100 4e 75 53 3e 06 c4 fc be 6e 26 c4 3e e9 ff ba 3f
       0.20650217 -0.49368304 0.3831057 1.4609348
000110 74 a5 86 be cb ab a2 3e 53 a5 10 c0 fc 9b 6a 3f
       -0.26298106 0.31771693 -2.2600906 0.91644263
000120 5a c5 14 bf 93 cf 90 3d 53 bf a1 bf f5 8f ab 3f
       -0.58113635 0.07070842 -1.2636513 1.3403307
000130 02 76 d9 3e d9 32 ed 3e f6 ed e7 bf 0e a6 87 3f
       0.42472845 0.46327856 -1.8119495 1.0597551
000140 0e 77 35 bf 47 0a 29 bf 4a 46 71 3f be f7 14 be
       -0.7088479 -0.66031307 0.9424788 -0.14547631
000150 e0 8d 01 3f a1 78 a0 bf e3 b6 f3 3f 33 55 47 be
       0.5060711 -1.2536813 1.9040188 -0.19466095
000160 cc 87 78 bc 33 44 08 bf d6 1f 98 3f 18 b2 53 bf
       -0.015169095 -0.53229064 1.1884716 -0.82693624
000170 c1 a8 21 3f df f4 cd 3f 99 47 76 3c 71 d1 c1 3f
       0.63148123 1.6090354 0.015031719 1.5142041
000180 96 68 a9 be b8 d0 ee bf a7 67 e6 3b 15 57 76 3f
       -0.33087605 -1.8657446 0.0070313993 0.96226627
000190 3f 08 06 3e e4 17 ff bf ea 31 21 bf 39 7d 4b 3f
       0.13089083 -1.9929166 -0.6296679 0.7948795
0001a0 5c ee 0e c0 ec 4d 7e 3e 70 ca 96 3e be f0 18 bf
       -2.2332983 0.24834412 0.29451323 -0.59742343
0001b0 b0 ed de be ef 78 08 3f 97 c1 a2 bd e1 ce 93 be
       -0.43540716 0.5330953 -0.079470806 -0.28868774
0001c0 58 df 6c 3f aa 26 fb 3f 17 6b cd 3d 56 89 70 3f
       0.92528296 1.9621174 0.100301914 0.9395956
0001d0 f2 28 e8 bf 93 b6 c0 3f 03 2d c0 bd 9a 1c 9f 3f
       -1.8137496 1.5055717 -0.09383585 1.2430604
0001e0 cc 18 10 c0 23 82 a0 3f 12 10 38 3e 64 40 0b bf
       -2.2515135 1.2539715 0.1797488 -0.5439513
0001f0 88 90 6e be 18 df 77 be 81 e3 ae 3e 2e 79 b9 3e
       -0.23297322 -0.24206197 0.34157947 0.36225265
000200 f3 d5 c1 3d 60 bc 23 bf b0 84 00 bf b5 ba 1a bd
       0.09464636 -0.6395931 -0.50202465 -0.037775714
000210 d3 f9 0b bd 4e f4 91 3f 81 29 64 3f 48 be a2 bd
       -0.034173798 1.1402681 0.8912583 -0.079464495
000220 2e 53 3c bf bc f9 15 3f 70 c3 f5 bf 06 b4 d5 be
       -0.7356442 0.5858419 -1.9200268 -0.4173891
000230 47 95 b2 bf e5 08 ac bf 78 86 16 be 0e 00 ef 3f
       -1.3951806 -1.3440214 -0.14699733 1.8671892
000240 c1 6b 5e bf 6b d6 16 bf f9 7e a1 3e 09 5e 08 c0
       -0.8688317 -0.58920926 0.31542185 -2.1307395
000250 e0 d9 b1 3f 0c fa 8e 3f 5e 07 e4 be 95 93 2d bf
       1.3894615 1.1170058 -0.4453687 -0.6780332
000260 40 49 a9 be 46 53 65 40 24 9c ea be 17 3e aa 3f
       -0.33063698 3.5832076 -0.4582225 1.3300198
000270 0b e6 ca 3e f4 2b 5c 3f bb 06 89 bf f2 45 c2 3f
       0.39628634 0.8600457 -1.0705179 1.5177596
000280 1c 11 0c 3f cf 91 d5 3e 1d 4d 84 bf bb 4c 96 3f
       0.54713607 0.41712806 -1.0336033 1.1742166
000290 8e 5a f0 bf 79 a4 12 3f 24 e9 09 c0 cd b7 af bf
       -1.8777635 0.57282215 -2.1548548 -1.3727967
0002a0 76 da 84 bf 56 5a 71 3f 1d b4 4c 3c f2 d0 03 40
       -1.0379169 0.94278467 0.012494114 2.059628
0002b0 84 48 3b c0 c0 e4 89 bc cf ae 9d bf a2 d2 37 be
       -2.926301 -0.01683271 -1.2318972 -0.17951444
0002c0 1c 70 c7 bf 0e eb aa bf 43 18 91 3d 3e b1 ef 3f
       -1.5581088 -1.3352983 0.07084706 1.8725965
0002d0 1c d6 02 40 48 72 42 be 26 7c cd 3d 7a e2 a2 3f
       2.0443182 -0.18988907 0.10033445 1.2725365
0002e0 aa 87 09 3f 66 c6 88 3f 43 7a 2f 3f 9e 94 01 c0
       0.5372263 1.0685546 0.6854593 -2.0246959
0002f0 90 86 5d 3f 39 87 e1 3f 2c 40 18 40 95 7a e4 3e
       0.8653345 1.7619392 2.3789167 0.44624773
000300 cb 72 04 be de 60 13 3f a5 77 20 bc bb 90 69 3f
       -0.12934415 0.5756968 -0.0097941505 0.91236466
000310 8a 4d 9c bf 56 c7 86 be c0 95 07 40 5f be 8c be
       -1.2211163 -0.26323956 2.118515 -0.27488992
000320 eb 94 6a 3f be 88 c1 be af 58 46 bf 74 02 8a bf
       0.9163348 -0.37799639 -0.7747907 -1.0781999
000330 69 26 e1 be f0 ee e1 3e 9e 77 7d 3f c2 be 8a bf
       -0.43974617 0.44127607 0.99010646 -1.0839465
000340 b5 fd 19 bf 41 7d 1f 3f 73 e0 ba bf 7b 14 3f c0
       -0.6015275 0.623005 -1.4599746 -2.985625
000350 68 f0 42 3f 64 01 8c 3d ac 34 0d c0 ca 2a bf 3f
       0.7614808 0.06836203 -2.2063398 1.4934933
000360 a9 7f e2 3f 44 c1 04 bf 34 45 da 3f 3a ec 2c 3e
       1.7695209 -0.518574 1.7052369 0.16886988
000370 15 23 15 c0 41 1d af bf 1c b8 4f bf 6a b4 d3 3c
       -2.3302662 -1.3680803 -0.81140304 0.025842864
000380 c7 94 c7 3f 0e 51 cd bf bd 35 67 be ed 15 5d bf
       1.5592278 -1.6040361 -0.22579093 -0.8636158
000390 5e a3 b7 3e 0d 89 61 3f 1e 29 f5 3e 82 8e 81 be
       0.35866827 0.8809975 0.47882932 -0.25304037
0003a0 86 90 36 40 c1 92 0e 3f 94 18 72 3e f3 3b d2 3e
       2.852571 0.5569268 0.23642188 0.41061363
0003b0 89 62 78 bf 90 bc 07 c0 d6 ee 84 3f 91 3a 21 3f
       -0.9702535 -2.120884 1.0385387 0.6297999
0003c0 b5 ef 9f 3d 93 b7 3f 3d 4f 5d 31 bd 2c 41 b1 bf
       0.07809392 0.04680593 -0.043301877 -1.3848014
0003d0 a3 dc 33 3f d2 7d 8b bf 9c f8 8a bf 1e a2 1b bf
       0.7025854 -1.0897772 -1.085712 -0.60794246
0003e0 00 a4 5e 3e 2a b2 d4 3f 94 75 27 c0 fc b3 e4 be
       0.21742249 1.6616871 -2.6165514 -0.44668567
0003f0 66 b4 17 3f 45 f5 17 3f d3 e3 d6 be bc 84 d1 bc
       0.5925964 0.59358627 -0.4197069 -0.025575988

attn_layers.0.b_V f4 [4, 8]
000000 ff 73 27 bd df 03 d3 bd 11 5a 75 bd 58 ba 55 3d
       -0.040882107 -0.10303473 -0.059900347 0.052179664
000010 6c cf 77 bb 68 c4 81 3d fa 1d 35 3d 00 5b 80 bc
       -0.0037812842 0.0633629 0.04421804 -0.015668392
000020 9b e6 b7 3d 7f 59 c8 3d 47 56 73 bd 50 f2 03 3d
       0.089795314 0.09782695 -0.059408452 0.03221351
000030 8a 46 2c bc 30 2b 2b 3b 12 f1 f7 3c 5d 94 ab 3c
       -0.010514865 0.002611827 0.030266318 0.020944769
000040 54 d5 81 bd 4c 1c 96 bc a8 ce 8b bc c4 83 aa 3c
       -0.06339517 -0.01832404 -0.017066315 0.020814784
000050 86 e8 8d 3d 4a df 1b bd fc db 29 3e e4 d8 6d bd
       0.06929116 -0.038054742 0.16587824 -0.05806817
000060 22 5e 9d 3b 76 e0 6d 3c 0b b7 67 3d 17 6d c2 3d
       0.0048024813 0.014518848 0.056571048 0.094934635
000070 c0 78 de b9 94 e6 e3 3d 9d 91 0b bd 24 f8 76 3d
       -0.00042433105 0.11127964 -0.034074415 0.06029524

attn_layers.0.W_O f4 [4, 8, 32]
000000 f2 a9 2b c0 19 d1 a0 3f fa ae ac 3f 43 b5 68 bd
       -2.6822476 1.2563812 1.3490899 -0.05681349
000010 0c 69 32 3f d5 33 89 3f 42 bd 9e 3e 45 b5 5e be
       0.6969154 1.0718943 0.31003767 -0.21748836
000020 d1 a0 83 3f de 31 90 bf 0f 2d c8 bf ce e0 59 3f
       1.0283452 -1.1265218 -1.5638751 0.8510865
000030 a1 4a b7 bf f1 9e 28 3f 4b 03 c2 bf 99 30 5b bf
       -1.431965 0.65867525 -1.5157255 -0.8562103
000040 0a 90 80 bf de a1 9f 3e 83 b9 18 3d d5 6a 8d 3f
       -1.0043957 0.31178182 0.037286293 1.1048228
000050 18 19 97 3d 4a fa 16 bf 90 92 5d 3e e5 0f 98 bf
       0.07377833 -0.5897566 0.2163794 -1.1879851
000060 27 d1 13 bf 47 49 a4 3f 50 f5 90 3e 01 7d 2a 3f
       -0.57741016 1.2834862 0.2831216 0.6659699
000070 47 03 a9 3d bf 30 6a 3f 97 2a f7 bd ee 2f 77 bf
       0.08252578 0.9148063 -0.1206867 -0.9655751
000080 79 b1 30 3f 44 08 3a bf f5 d3 35 3e b3 01 da 3e
       0.690208 -0.7266886 0.17756636 0.4257942
000090 2a 94 87 bf 25 5f 74 3f 05 b2 0f 3f c5 8d 1e bf
       -1.0592091 0.9545768 0.5613101 -0.61935073
0000a0 11 4d e3 bd f6 a2 44 3e ab 70 2d be 48 c8 a9 3c
       -0.110986836 0.1920279 -0.1693751 0.020725384
0000b0 e6 95 07 3e 26 81 16 3f f6 9a e7 3f 8d 47 ad be
       0.13240775 0.58790815 1.8094165 -0.3384365
0000c0 33 76 64 3d 7a df 8c 3f 28 c8 6b 3e d4 0e 18 be
       0.055776786 1.10057 0.23025572 -0.14849406
0000d0 17 07 11 3f 4c 13 4d 3f 3a 5d d2 be 64 a9 b3 bf
       0.56651443 0.8010757 -0.4108675 -1.4036069
0000e0 51 73 a7 bf 4b a4 2e 3f 3d 35 9d 3f 40 b2 30 3e
       -1.3082067 0.6821944 1.2281872 0.17255497
0000f0 ce a9 bb bf aa 28 b6 be 49 9f e8 bd 1e db cf bf
       -1.4661195 -0.355779 -0.11358506 -1.6238744
000100 a8 ce 2f 3e e3 d8 44 3f c1 6d 1b bd d1 b6 a9 3f
       0.17168677 0.7689344 -0.037946466 1.3258916
000110 02 23 08 3e 7b e1 e5 3e cc 11 df 3e eb 8d ba be
       0.13294604 0.4489859 0.43568265 -0.364364
000120 80 1d cd bf e5 2f ee 3e d9 da 14 3d 1f 4d b4 3e
       -1.6024628 0.46520916 0.036341522 0.3521509
000130 08 a8 d9 3d 80 30 80 bf 41 37 04 3f eb 98 60 bf
       0.106277525 -1.0014801 0.5164681 -0.87733334
000140 41 57 da 3f 39 3e 6f 3f 53 10 62 bb 53 25 d8 be
       1.7057878 0.9345432 -0.0034494593 -0.42215976
000150 6e f5 ab 3e dc dd 4b be 88 e0 1e be 6f 2a 68 3f
       0.33585685 -0.19908851 -0.1551534 0.9068975
000160 4c 08 50 3e 6c 17 4b 3f 0a 1f 68 be 5d f1 c0 3e
       0.20315665 0.79332614 -0.2266809 0.37684146
000170 f7 47 71 bf 7d 5e fc 39 96 8c 92 3e e5 78 c0 be
       -0.94250435 0.00048135585 0.28622884 -0.37592235
000180 9a a1 a7 bf c1 90 a8 3f 36 a1 93 3c 87 cd a7 3f
       -1.3096192 1.3169175 0.018021207 1.3109597
000190 8c c9 c9 3e 88 7e 0e bf 43 18 ca bd fe 17 c3 bf
       0.3941158 -0.5566182 -0.09867909 -1.5241697
0001a0 ad d7 58 be be 8b db be 79 ef 8f bf 6a 05 9f 3e
       -0.21176024 -0.42880052 -1.1244956 0.31058818
0001b0 a8 ac 38 bf 31 a2 c5 bf a5 f1 73 bf 9b 88 ab 3d
       -0.7213845 -1.5440122 -0.95290595 0.08375665
0001c0 fe 0b f1 3f 62 97 7b 3e ca 5e 7a be f2 ed 8f 3f
       1.8831785 0.24569467 -0.24450222 1.124449
0001d0 8d 38 be 3f ea da 6a be 8f 57 26 bf e5 e3 55 3f
       1.4861008 -0.22935072 -0.64977354 0.83550864
0001e0 3f 82 0d be a6 98 51 bf 34 28 7e be 31 da 8c bd
       -0.13819216 -0.8187355 -0.24820024 -0.06877554
0001f0 f3 3e 67 be 52 cf 94 3f ea 3f 21 3d be d9 49 3e
       -0.22582607 1.1625769 0.039367594 0.19711968
000200 24 2f 4f bf 24 36 ce 3f 32 23 79 bf cb e4 38 3d
       -0.80931306 1.6110272 -0.9731933 0.04514007
000210 92 ba b8 3e 35 39 8b bd 90 4e 8e bf e0 16 d6 3f
       0.36079842 -0.06798021 -1.1117725 1.6725731
000220 49 48 23 c0 8f 58 04 40 b6 65 b0 bd 88 79 8a bf
       -2.551287 2.0679052 -0.0861315 -1.0818338
000230 44 12 78 3f f4 ef 5e 3f c1 a7 b1 3e 38 a4 35 bc
       0.9690287 0.8708489 0.346983 -0.011086516
000240 97 0b f5 3e 79 06 87 3d a5 ee fa be 93 14 60 bf
       0.47860405 0.065930314 -0.49010196 -0.87531394
000250 80 31 c9 be f2 d5 9e 3f 26 b7 bd 3e 99 c9 97 bf
       -0.39295578 1.2409041 0.37053794 -1.1858398
000260 ab cd a8 3f ae 67 17 bf 73 e3 6e 3f f1 2a 0d bf
       1.3187765 -0.5914258 0.9331581 -0.5514365
000270 4d 16 ff 3e 41 eb 7d 3f 13 69 f3 be ef 19 cc 3e
       0.49821702 0.99187094 -0.47541103 0.39863536
000280 6b 45 8a bf 6d e1 7d bf a3 a5 77 bf fc 81 69 bf
       -1.0802435 -0.991721 -0.96737117 -0.91213965
000290 71 c2 1a 40 9e eb 84 3f 65 a9 b1 bf fc e5 e8 bc
       2.4181178 1.0384405 -1.387982 -0.028429978
0002a0 58 ca 52 40 c6 e5 eb 3f 91 13 69 3f 9c 7f 27 bf
       3.2936 1.8429496 0.9104548 -0.6542909
0002b0 47 87 3c 3f 6c b4 24 bf 08 e7 1a 3f c6 8a 8c 3f
       0.73643917 -0.643378 0.60508776 1.097985
0002c0 3d ec 2c 3f 77 13 a9 bf 36 9d c1 bf d0 24 a3 be
       0.6754797 -1.3209065 -1.5126102 -0.31864023
0002d0 4c 93 13 3f 09 d7 15 be 60 d7 92 3e 8a 82 ea be
       0.5764663 -0.1463281 0.28679943 -0.45802718
0002e0 87 3b c6 3f d9 fd 61 bf 0c 88 4c 3e 5c 65 b2 3f
       1.5486916 -0.88277966 0.19973773 1.3937182
0002f0 02 83 82 3e 1b 1b c7 3f 69 4e 51 bf df 8e 33 bd
       0.25490576 1.5555147 -0.8176027 -0.043837424
000300 0f 04 aa 3e 82 e5 d9 bd 60 14 2f 3f 16 61 3f 3e
       0.3320622 -0.10639478 0.68390465 0.18689379
000310 aa 87 35 be f4 5e 7c bf 43 ba 52 bf d0 04 10 be
       -0.17727533 -0.98582387 -0.8231546 -0.14064336
000320 cf 52 6b bf 9e 34 d8 3e 25 74 a6 be f2 35 89 bf
       -0.9192323 0.42227644 -0.32510486 -1.0719588
000330 16 bd 3f 3f 13 15 6f 3e d1 d1 14 bf 0c 2a 1b 3e
       0.748979 0.23347883 -0.58132654 0.15152758
000340 cc 37 94 3d 16 df db 3e c7 51 ea bc ca f4 f9 bf
       0.07237205 0.4294364 -0.028603448 -1.9527829
000350 ad d9 90 bf 88 ba 35 3f 91 4e f5 be 7f 64 8d 3f
       -1.1316429 0.7098775 -0.47911504 1.1046294
000360 67 b2 61 be 51 2c 1e 3f 7c 7f 91 3f ea 1b 74 40
       -0.22040711 0.6178637 1.136703 3.8142037
000370 49 a9 95 3e bf b1 e4 3f 9b 81 b7 bc 3c 59 7d 3f
       0.29230717 1.7866744 -0.022400668 0.98964286
000380 ef 4d a7 be 6d ff 31 bf 4d 20 86 3f 2a 58 54 be
       -0.32676646 -0.69530374 1.0478607 -0.20736757
000390 10 0c a7 3e 6b 0e 77 bf fc df 2a 3e 24 56 23 bf
       0.3262639 -0.96506375 0.16687006 -0.63803315
0003a0 57 26 16 bf 58 b6 23 3f 7d 3f a8 3e 5f 81 ad be
       -0.5865225 0.6395011 0.32860938 -0.33887765
0003b0 29 8b c3 3e cd 50 4d 3f 50 a4 8d bf 6a 47 a7 3d
       0.38192108 0.8020142 -1.1065769 0.08167918
0003c0 d7 54 a3 be d7 48 56 3f d4 51 76 bf a2 59 81 bf
       -0.31900665 0.83704895 -0.9621861 -1.0105479
0003d0 3d b2 4f bf 67 cc 63 3d d0 d8 cc bf 58 f3 bd bf
       -0.81131345 0.055614855 -1.6003666 -1.4839888
0003e0 cb 45 98 3f 5f 1b 90 bf aa 8e c4 bf 5c e3 86 bf
       1.1896299 -1.1258353 -1.5356038 -1.0538135
0003f0 8a 1a b1 bf 45 c2 f8 3e a8 df b9 be 7d c3 9e be
       -1.3836224 0.48585716 -0.3630345 -0.3100852

attn_layers.0.b_O f4 [32]
000000 62 cd da bc 44 e9 de 3b e2 3f 85 3d 7f a2 ac bd
       -0.026709262 0.00680271 0.06506325 -0.08429431
000010 50 a2 65 3d e1 11 f6 3c 07 5c bc bd 72 84 13 bd
       0.056062996 0.030037822 -0.0919724 -0.03601498
000020 16 06 6a bc 12 cf a7 bd 5c 84 41 3b 4b 8a 0b be
       -0.014283678 -0.081937924 0.0029528355 -0.13626973
000030 f3 40 cb 3c ff b3 3e 3c 54 f3 d4 bb f5 47 d7 3d
       0.024811244 0.011639594 -0.0064987335 0.105117716
000040 b1 fa db bc 0b 9e fe bd 42 8e f3 3b 0e e3 f7 bc
       -0.026852937 -0.12432488 0.00743273 -0.030259635
000050 68 20 d0 bc d8 d4 d5 3d 7d 50 d9 3c bd 61 2b 3e
       -0.025406078 0.10440987 0.026527638 0.16736503
000060 fd b4 b1 3d 70 7a 7d 3d f5 8e a3 3c 65 2f 2c be
       0.08677099 0.061884344 0.019965628 -0.16814955
000070 94 5b 30 be 73 ff 94 bc 3b 36 99 bd bb 4a 9c bc
       -0.17222434 -0.018188214 -0.07481047 -0.019078603
