Models/attnOnly_4head_32dmodel_8dhead_2layers_150epochs_train=1fnameremoved.pth (torch, 65639 bytes, 20 tensors)

embedding.weight f4 [88, 32]
00000000: 385b 793f d4fd d83e 061e 68be 6743 e4bf
00000010: b577 bcbf f7aa 91be 5775 d6bc 5464 8c3f
00000020: e518 3fbf ffa8 8d3f 4cdd 99bf b00b 0ec0
00000030: 1bc3 1340 0b7c 0d3f 6cdc 213f c4b5 d33e
00000040: ab0d 853f 4cea 093f 9d9b 3e3e 0acd ec3f
00000050: cbd0 ccbf 4327 a0bd 5be6 243e e4b9 20bf
00000060: 7188 7ebe c2a5 14bd 7534 193f 20f1 f4bf
00000070: f153 debf eaf1 2fbf fdae 9e3d 0b77 263f
00000080: 6767 22c0 31e5 3e3f 53cb b2bf a665 8c3e
00000090: 8e40 6c3e 042d 7f3e 3fda 01bf b226 0cbf
000000a0: e489 c23f ce6b 9abf 6309 87bf 9da6 2dc0
000000b0: 4dfe 9dbe 26de 4ebd 22be 283f c553 45bf
000000c0: dcee ac3f 5c0e d13e ad30 1bbe 8a36 8a3e
000000d0: fcc0 69bf ed2b 98bd 4d39 13bd 22fa d9bb
000000e0: 021b d5bf d226 77bf 3d02 3c3f 9dbe 383f
000000f0: 8fbb 8f3e d033 19bf b889 67bf e720 19bf
00000100: cbad 283f 1fc3 38bf bf92 453f 22ad 193f
00000110: 741a 863e 1088 2c3f cb19 46bf efb7 93be
00000120: 2f1f 8fbf 3b7d 08bc 829e ae3e 06eb 183f
00000130: 57eb 85bf add3 e3bd adf1 e93e ab16 703f
00000140: ae35 f2bf 2483 1c3f 3193 b03e 87e8 423f
00000150: 5856 83be a9b6 a7be 1df0 97bf 6c80 8dbf
00000160: 849f 7a3f e406 dd3e 211e a13f b885 e13e
00000170: edfe a23f 0ad3 8bbf a442 b9bf bf29 063f
00000180: 567c 64bd 5165 7abe a2ca 1340 3939 b23f
00000190: a7f8 52be 4841 083d f0f0 1ebf 23d9 de3e
000001a0: 66e8 23bf b5f4 0ebf 1f38 a63f 2449 6b3e
000001b0: 59b3 30be 72ad f9be 8e20 ce3f 5c62 873e
000001c0: a881 c1bf 8245 e9bf bb3f 4a3f c786 20bf
000001d0: 8097 663f 1dab 113f 9868 8abf 93e1 533f
000001e0: 5cce 12c0 6000 32be fc41 65bf 532d 8f3d
000001f0: 67fb ff3f bbb4 c23d 1ff5 acbf 3a91 3fbf
00000200: 7c5b a9bf c551 523f 4b3e 04c0 bd95 aabf
00000210: 4b25 63bf 8b4b a3bf 3ee0 e8bf 6737 d03e
00000220: ca56 3dbf c270 0140 db4a 383e 077c 5e3f
00000230: 6cb8 a0be 8303 7a3f b59e 79bf 11bd 523d
00000240: 382a 3d3f d120 92be 30d0 84bf c312 ff3f
00000250: 8af1 95bd d061 b7be c78a 9b3e 2880 ccbf
00000260: adb4 a5be b3e9 54bf 40ac 34be 6b1f 993f
00000270: cb68 173f ed3f a9bf a0df b2be cc61 41bf
00000280: e9c2 573f ebae 943f ca1b 91bf 5abe a1be
00000290: 5a78 c5bf df72 11be 0450 133f bb8e 86bf
000002a0: df83 c3be 5381 93be 6e7c e8be 57b1 d6be
000002b0: fae6 c53f 8c1a b6be a6c5 753e bbc9 273d
000002c0: 07f5 95bf 269f a03e 73bc 293f e78c 90bf
000002d0: 2c15 14bf 3215 18bf 19c1 febf 9927 0e3f
000002e0: 07df 3ebf 3d9b 92bf caa9 f4bf 9097 83bf
000002f0: 2ca8 2a3f 6ba2 0ebf 2e1c 02bf 1441 9c3e
00000300: ef5e 8fbe 1ed4 8ebf 4ad0 603f d344 e8bf
00000310: f6f4 f3be f36d f03d 603b a7bd d092 c63e
00000320: a336 a4bf 18e3 2c3e 1d09 453f 0e8e 07bf
00000330: d7a9 743f 0e03 6c3f 3bab 73bf ad73 febf
00000340: c946 ce3e 526d bdbe da8a a83f 0a09 623d
00000350: a14a 2840 6cb1 babe 2ba6 6d3f 06e0 313f
00000360: 8457 333f 42fc 313f 0332 2b3f 61dd 123f
00000370: deef 953f 6b4e 13c0 b14f 923f 8332 c93f
00000380: 9fda 873f 6c61 503f 39e0 c53f 87da 753f
00000390: ca39 923f de0c 653e 3a1e abbe 8c93 e43f
000003a0: e0ef 863f 3bfe 2bbe 39db 3c3f 6989 82bf
000003b0: fc7c de3e a950 24bf fff4 983f dfb6 b6bf
000003c0: 5d78 213e aeab 6bbf 83fe 5c3f 8bdf 06c0
000003d0: 5912 f83e 87f7 2a3f 54c0 8cbf 41dd c13c
000003e0: c83b c6bf 1107 1e40 0d4c a6be 70e7 08bf
000003f0: ac89 59bf 4adf b6bf 90b6 e5be de1b a13f
0.97404814 0.42381155 -0.22667703 -1.783307 -1.4724032 -0.28450748 -0.026178999 1.0968118
-0.7464736 1.1067199 -1.202066 -2.2194633 2.3087833 0.552674 0.6322696 0.41349614
1.0394796 0.53873134 0.1861405 1.8500073 -1.6001219 -0.078199886 0.16103499 -0.62783647
-0.24856736 -0.03629089 0.5984567 -1.9136086 -1.7369367 -0.68728507 0.0774822 0.65025395
-2.5375612 0.7456847 -1.39683 0.27421302 0.230715 0.24919516 -0.5072364 -0.54746544
1.5198331 -1.2064149 -1.054974 -2.7132943 -0.3085808 -0.050504826 0.6591512 -0.7708095
1.3510394 0.40831268 -0.15155287 0.26994735 -0.91310096 -0.07430253 -0.03594332 -0.0066521326
-1.6648867 -0.9654361 0.73440915 0.7216585 0.28072783 -0.59844685 -0.9044452 -0.5981583
0.6589019 -0.7217273 0.7717704 0.60029805 0.26192057 0.67395115 -0.77383107 -0.28851268
-1.1181391 -0.0083306385 0.34105307 0.5973362 -1.0462445 -0.11124358 0.45692196 0.9378459
-1.8922632 0.61137605 0.34487298 0.7613606 -0.25651813 -0.32756546 -1.1870152 -1.1054816
0.9789965 0.4316932 1.258732 0.44047332 1.2734047 -1.0923779 -1.4473462 0.5240745
-0.05578264 -0.24452712 2.3092427 1.3923713 -0.20602666 0.033265382 -0.6208639 0.43525037
-0.64026487 -0.55842143 1.2985877 0.2297712 -0.17255916 -0.4876514 1.6103685 0.2644223
-1.5117693 -1.8224337 0.79003495 -0.62705654 0.9007492 0.56901723 -1.081317 0.82766074
-2.2938452 -0.17382956 -0.8955381 0.06991067 1.9998597 0.09507128 -1.3512305 -0.74830973
-1.3231044 0.8215602 -2.066302 -1.3326946 -0.8872878 -1.2757429 -1.8193433 0.4066727
-0.73960555 2.0225072 0.17997305 0.86908 -0.31390703 0.9766161 -0.9750779 0.05144984
0.73892546 -0.28540662 -1.0376034 1.9927601 -0.073214605 -0.35816813 0.30379316 -1.597661
-0.32364407 -0.83169097 -0.17643833 1.1962713 0.59144276 -1.3222634 -0.34936237 -0.7553985
0.84281784 1.1615881 -1.1336606 -0.3159054 -1.5427353 -0.14203976 0.5754397 -1.0512308
-0.38186547 -0.28809604 -0.45407432 -0.41932175 1.5461113 -0.3556713 0.24001178 0.04096387
-1.1715401 0.3137142 0.66303176 -1.1293 -0.57844806 -0.5940734 -1.9902679 0.5552917
-0.7455906 -1.1453625 -1.9114316 -1.0280628 0.6666286 -0.5571658 -0.5082425 0.305184
-0.28002116 -1.1158483 0.87817824 -1.8146003 -0.47647828 0.11739721 -0.08165622 0.38783884
-1.2829174 0.16883504 0.7696703 -0.52951133 0.95571655 0.9219216 -0.9518315 -1.9879051
0.4028838 -0.36997467 1.3167374 0.0551844 2.629555 -0.36463487 0.9283168 0.6948246
0.70055413 0.6952554 0.66873187 0.5736905 1.1713827 -2.3016613 1.143057 1.571854
1.0613593 0.81398654 1.5459052 0.9603657 1.1423886 0.2236819 -0.334215 1.7857528
1.0541954 -0.167962 0.7377201 -1.0198184 0.4345473 -0.6418558 1.1949767 -1.4274558
0.15768571 -0.9205884 0.86325854 -2.107394 0.48451498 0.66783947 -1.0996194 0.023665072
-1.5486994 2.4691813 -0.32479897 -0.53478146 -0.84975696 -1.4286892 -0.44865847 1.2586629

pos_embedding.weight f4 [9, 32]
00000000: f3c3 c53f 5348 33be 0114 51bf 6bb4 a8be
00000010: 62aa b23e 1365 e7bf c379 513e 4c54 b23e
00000020: cf63 93bf 23d4 463e 2d58 0abf 29d8 b03f
00000030: f02c b33f 27f7 0fbf 7a67 dd3e 4249 26bf
00000040: a7e2 0bbf 3679 a73f 9080 8d3c e599 d4bf
00000050: 291e babf fcc2 abbf 43ae aa3d 7048 0840
00000060: dfdb 05c0 9da3 65be 6c74 193f 5587 3ebf
00000070: a4d1 ce3f a636 d0bd 4d04 263f cce2 d7bf
00000080: b9e4 013f 56d7 0cc0 ad19 a0bf f21c e3be
00000090: 655f 8e3e 9655 92bf a72d c93e 662e 9d3f
000000a0: 5cc0 033f a930 043f 9608 373f 202c 1f3f
000000b0: 52da 8abf cb1d ffbd 4729 af3f 930f 3340
000000c0: 674e be3a d37c adbf d9a8 0fbf 9daf 00be
000000d0: 7d54 7bbe fdc3 31be 11a9 8dbd bb82 4bbf
000000e0: 3dec 37be 9fda 453f 8ab5 a9bf a470 043e
000000f0: 0e26 e3bf de4b b03f 2a5a 083f ce29 12bf
00000100: d92d 8c3e ed0c 113f 7325 983f 5145 323f
00000110: f5be debf 13d6 a0bd 1071 bdbf b5a2 6c3e
00000120: dc9f 0fbf 07de cdbe 1b46 50bf 1d32 9e3f
00000130: 1040 f9bf 9447 b6bf 6318 c13f aa67 a1bf
00000140: a26b e43f a760 e83e 7046 153f 0458 db3f
00000150: bb96 20c0 39a6 e4be 76c7 173e 5eaf 37bf
00000160: 58a6 813f 72fd fc3c 07f0 45bf a7f9 8f3f
00000170: 58fd 28bf f524 a53f 9882 c43f 08d6 89bf
00000180: a910 2640 d251 e03d c5b5 dabe a3a7 3a3e
00000190: 2085 663d 10c5 44bf f323 753f 16c0 cc3e
000001a0: 9ddd 47bf e697 343e 077e 363f d294 b2bf
000001b0: 6b58 30bf ec3d 4340 da2a b6bf 25ac dd3f
000001c0: de0b 0d3f 3d78 12bf 0132 c83d 0d02 8e3d
000001d0: 1399 bcbf fc61 153f e6ce d7bf 9859 95be
000001e0: 9510 c63e 45da ae3f d7ba babc 421b b43e
000001f0: 4e44 b9bd 8a70 0bbf 603f 53be 784c c23f
00000200: 1938 693f 388a ebbf 3fc4 a63f 21e1 dabe
00000210: 762d cdbe 2203 9dbf dc74 873f c02c b5bd
00000220: 1591 09bf 40e5 bd3f ac0d 553e f9fd 573e
00000230: 52b5 bebe 1684 ed3f 61fc 1bbf b8aa ad3e
00000240: 537e efbe 811f 923f 27d7 e4bc 2ede c2be
00000250: acab 3bbd e16e b6be f0db a0be b469 05bf
00000260: f9db b13f 66c0 c9be 175b 49be c11a 59bf
00000270: 0a4f a6be 4f07 413f f12e 313f 8ed9 0dbd
00000280: 08a6 4e3d 4cb4 89bf adbc 903f 13be 943e
00000290: 5135 203f bcf9 4ac0 1a43 babe 4e9b 6fbf
000002a0: 0ccc d53e 092a 533e c372 29bd 91e4 fd3e
000002b0: 148d bf3f 8ee9 993e f08e 13be e9d2 ecbd
000002c0: 5a3d ff3e 5c9e d13f 74e5 af3f b68d 06c0
000002d0: 0299 663f 1d33 793f 7c56 c3bf 272a 8a3f
000002e0: d34a dabd 74fa 10bf 5038 9f3f fffd 98bf
000002f0: fe51 8b3e 838f cebe 8fac 4f3e f558 013e
00000300: 1e41 c73e 77b2 6dbf 6cfa 563d c164 cabe
00000310: 0579 573f 1fed c83e de4a a03c f5cb c5bf
00000320: 812e 21bf 945f 833f 5aef 2340 35ae 5abf
00000330: 045d 46bf dabe a9bf e1a0 76bf b2d9 60be
00000340: 950a 2bbf 2123 2c3f d0b6 95bf a6a2 8a3f
00000350: 314f cebe ab03 34c0 603d 42bf b8a8 29bf
00000360: 03cc d83f fceb 09bf 354b a33f 165e a63f
00000370: 3d6c 8cbe 0a10 afbf 18b7 393f 4fd7 87bf
00000380: 6873 efbf 82cd 683f 6f1b c8be 1e22 6abf
00000390: 4e4d b1bf de3d 803f 41a7 a9bc 71ec 793f
000003a0: 74d6 e9bf 92cd be3e dd6e 8e3f 2e66 23bf
000003b0: 2a48 163f 61ee 63bf 458a 683f e952 ba3e
000003c0: d52b 9ebe 147e 7e3c 302a 1dbf 95a8 353f
000003d0: eb3d 3440 aa9c a83e eb6e 5ebf f9da 133d
000003e0: 1215 ff3e 6116 c53d f853 c2bf 7978 b53f
000003f0: 7265 a13f 96f2 523e d86e 73bf 4323 56bf
1.5450424 -0.17508058 -0.8167115 -0.32950148 0.34895617 -1.807772 0.20456605 0.34829938
-1.1514834 0.19416861 -0.54040796 1.3815967 1.3998089 -0.562365 0.4324301 -0.6495553
-0.5464272 1.3083866 0.017273217 -1.6609465 -1.4540454 -1.341888 0.08334019 2.1294212
-2.0915449 -0.22425695 0.5994327 -0.7442525 1.6157727 -0.10166673 0.6485031 -1.6866088
0.5073963 -2.200643 -1.2507836 -0.4435802 0.27807155 -1.1432369 0.39292642 1.2279785
0.5146539 0.5163675 0.71497476 0.62176704 -1.0847876 -0.124568544 1.3684472 2.7978256
0.0014519215 -1.3553718 -0.56117016 -0.12566991 -0.24543948 -0.1735992 -0.069170125 -0.79496354
-0.17961212 0.77286714 -1.3258526 0.12933594 -1.7745988 1.3773153 0.5326258 -0.5709504
0.2737873 0.5666035 1.1886429 0.6963702 -1.7402025 -0.078533314 -1.4800129 0.23108943
-0.561033 -0.40208456 -0.8135697 1.2359043 -1.9472675 -1.4240594 1.5085567 -1.2609761
1.7845347 0.4538624 0.58310604 1.7136235 -2.5091999 -0.44658068 0.14822182 -0.71751964
1.0128889 0.03088257 -0.7731938 1.1248063 -0.6601157 1.2901903 1.5352354 -1.0768442
2.5947669 0.10953106 -0.42716804 0.18228011 0.0562793 -0.76863194 0.9575798 0.399903
-0.7807253 0.1763607 0.7128605 -1.3951666 -0.68884915 3.0506544 -1.4231827 1.7318159
0.5509623 -0.5721472 0.097751625 0.06933985 -1.4734215 0.5835264 -1.6860015 -0.29169917
0.38684526 1.366036 -0.02279417 0.35177046 -0.09046231 -0.54468596 -0.20629644 1.5179586
0.91101223 -1.8401556 1.302864 -0.42749885 -0.40073746 -1.2266581 1.0582538 -0.08846426
-0.53737 1.4835587 0.20805997 0.21092977 -0.3724771 1.8555934 -0.60931975 0.3391931
-0.46776065 1.1415864 -0.027934624 -0.38060135 -0.045818016 -0.3563147 -0.314178 -0.52114415
1.3895255 -0.394046 -0.19663654 -0.8480645 -0.32482177 0.7540178 0.6921225 -0.034631304
0.05045131 -1.0758147 1.1307579 0.29051265 0.62581354 -3.1714926 -0.3637932 -0.9359635
0.41757238 0.20621504 -0.04136921 0.49588445 1.4964929 0.30061 -0.14409995 -0.115636654
0.49851495 1.6376452 1.3741899 -2.1023993 0.9007722 0.9734362 -1.5260768 1.0794114
-0.10658803 -0.5663216 1.243906 -1.1952513 0.27210993 -0.40343866 0.2028067 0.1263159
0.38916868 -0.9285044 0.052484915 -0.39529994 0.84169036 0.3924341 0.01956695 -1.5452868
-0.62961584 1.0263543 2.5614839 -0.8542207 -0.7748568 -1.3261368 -0.9633923 -0.21958044
-0.6681302 0.672411 -1.1696415 1.0830886 -0.40294793 -2.8127239 -0.758749 -0.6627307
1.693726 -0.5387571 1.2757326 1.2997463 -0.2742633 -1.367677 0.72545004 -1.0612582
-1.8707094 0.9093858 -0.3908343 -0.9145831 -1.3851717 1.001888 -0.020709636 0.97626406
-1.8268571 0.37266213 1.1127583 -0.6382779 0.58703864 -0.8903561 0.9083598 0.3639138
-0.30892816 0.015532989 -0.613925 0.7096036 2.8162792 0.32932025 -0.86888 0.0360975
0.49820763 0.09623409 -1.5181875 1.417739 1.2609084 0.20600352 -0.9509101 -0.83647555

attn_layers.0.W_Q f4 [4, 32, 8]
00000000: c3db ca3f 1efc 6bbe 4463 5b3e ce66 cc3f
00000010: 6a90 4cbf dd24 e3be f377 15bf a5eb bb3f
00000020: 5d02 b1bf b397 e5bf 8f32 4f3e e3f4 333f
00000030: c8d7 debf 4f99 ddbe 0f45 c03e e1ca 1e3f
00000040: 39bd fd3e d138 9ebd acfe 9abf 6ce1 6d3f
00000050: 6103 c13f 4bc1 153f b0fa b3bf 9395 2740
00000060: 17a7 293f 2258 ef3f 4ef4 1b3f 1e0e a23f
00000070: 0a78 90bf 5a48 913e 6a73 a23f bad1 dc3f
00000080: 439a d7be 9292 4d3e c616 e53f 5a2a eebf
00000090: 0028 17be 0d12 cc3d 0314 9cbf da09 b2bd
000000a0: c168 2d3e 108e 193e 433b b3be f0b7 003f
000000b0: 3adc 973e 375b 34be 603c 33bf 8aa2 543e
000000c0: 658a 5c3f 6ec4 823e cc6a cc3e 02ff 043f
000000d0: 43dd a83f 844a 82bf 6137 533f 2d4b edbe
000000e0: 6baa d4bf 27f7 5abf 3efa b23f 7060 91bd
000000f0: ab41 ae3d e6cd 97be 8c7d 81bf 85e9 b83d
00000100: c544 8dbf 8fa9 ae3d 13b7 d5bf de86 f1bc
00000110: 293d da3f c751 01bf 028b d53f 9e76 fdbe
00000120: 436e 77be ea90 85be 0911 083e 6d6d 4ebf
00000130: 85f9 8dbe 6acf 0ec0 8287 26bf 52aa bc3e
00000140: bdb2 0fc0 4df0 bebf 5c27 babf 2b4b 833f
00000150: 7dc8 3f3f 8ee5 0cc0 7a1d 89bf e5a8 113f
00000160: 3767 813f 9d82 f63f 4a52 d1be 7056 5c3f
00000170: 6800 36bf 9ab2 68bf f6c7 7abe ad84 36bf
00000180: 931e 973f ad96 f1be a2a9 43be c268 4c3f
00000190: 9662 ea3e 955b 853e 5f19 eebd 8837 3dbf
000001a0: 32c7 e4bf bcca cfbe 1673 81be 665c 82bf
000001b0: 6b68 dfbe 7450 443e 7548 dfbe 57ee f7be
000001c0: a123 463e 7aa6 c1bf 44f7 b0be 2387 c6bf
000001d0: df89 8c3f 5edc 403e 153f 783f fe00 973f
000001e0: 4552 1dbe 83a7 86be 9468 5abf bfe9 213d
000001f0: b209 d83f 3e8f f8bf 9d43 b5be fd1a d1bb
00000200: b905 c2bf 36e6 6cbf ddef 603e 1c5e 8c3e
00000210: 4c30 1f3c cf51 29bf a574 cabe 78cd 83be
00000220: 958b 54bf c513 66bf 8237 83bd 9c3f 0f3f
00000230: dbc1 8dbe 73ec 5bbe c107 803f f277 a53f
00000240: 5464 24bf 7f3f d5be 7dfd d8be cb2d 71bf
00000250: 33fd 0fbf fe19 dcbf 8b02 5b3f ef08 fe3f
00000260: 4922 9fbf 1d85 f4be 9d91 0cc0 1cfb 823f
00000270: 4bb4 42bf 8c24 033e 5c02 273f 0ff8 78bf
00000280: d47e 7cbf 9e7d 77be 9274 0cbf a607 7abf
00000290: 6a33 d53e dbcf 1e40 23df 83bf c7c2 933e
000002a0: 9c69 babe bf33 5b3f e8e4 96bd 9912 afbe
000002b0: 3eb6 253f e88e c03e fa19 a53e a36a 8fbf
000002c0: 2926 243f 372f ff3e 6376 74bf 74fb a2bd
000002d0: 5a5f f2be 4eed 6abf 07ef 683e bc98 33be
000002e0: ecea 81bf 1368 87bd 7f0b dcbe 8966 883f
000002f0: 9c61 cabf 0e08 143f 9f75 cabf 4c82 4a40
00000300: bdd9 2b3e 7c9a 2abf 295b 773e 0f25 903f
00000310: 74df 553f 2f6c e6be 9f20 97bf 2dbd 99bd
00000320: 27c5 96bd e44a 97be 4c1d f23e cad0 3cbf
00000330: c0b2 4cbf 3402 153f 2fcf 7fbf 3ba9 3cbd
00000340: 2218 61be 54db 25bf 373c 83be 8446 863d
00000350: 0c93 a7be 2c76 cb3f 24ed 9cbf c348 46bf
00000360: 79e7 5dbf 1eaf 043f 9fc0 eabf def9 0b3f
00000370: 55e4 0a3f 60ee 15c0 6e0e 7b3f a392 c7be
00000380: 20d9 1ebf 5493 07c0 54ea aebe 53c0 5b3f
00000390: e349 8abe 87e6 1ac0 2ad3 06bf 9cbe 87bf
000003a0: a271 593f 8888 563e f99f 9ebf 1f6d d93f
000003b0: cd3a b1be d779 0fbf 0e31 00bf dce5 7abf
000003c0: 8ddc 38be 1cc8 4bbf 68b2 f7bd 620e 663e
000003d0: c68d af3e 519c 503e 3248 42bf 7165 85be
000003e0: 650e 173f 2241 6c3f 10bd 00bf 4e48 88be
000003f0: 4e4c d13e 6aea c4bf e0ec 00c0 6620 173f
1.5848316 -0.23045394 0.21424586 1.5968874 -0.7990786 -0.44364062 -0.58386153 1.4681288
-1.3828846 -1.793692 0.2023413 0.7029554 -1.7409601 -0.43281028 0.37552688 0.6202832
0.49558428 -0.077256806 -1.210897 0.9292209 1.5079156 0.58498067 -1.4060879 2.6185043
0.66270584 1.8698771 0.60919654 1.2660558 -1.1286633 0.28375512 1.2691472 1.7251503
-0.4210988 0.20075443 1.7897575 -1.8606675 -0.14761353 0.099643804 -1.2193607 -0.08693285
0.16934492 0.14995599 -0.3500615 0.50280666 0.29660207 -0.1761292 -0.70014 0.20765129
0.86148673 0.2554049 0.3992523 0.5195161 1.3192524 -1.017899 0.82506377 -0.46346417
-1.6614507 -0.85533375 1.3982618 -0.07098472 0.08508619 -0.29649276 -1.0116439 0.09028915
-1.1036612 0.085284345 -1.6696495 -0.029483255 1.7049915 -0.5051541 1.6683047 -0.4950456
-0.24163155 -0.26087123 0.13287748 -0.8063572 -0.2772943 -2.2314095 -0.6505052 0.36848694
-2.2452843 -1.4917084 -1.4543262 1.0257314 0.74915296 -2.201511 -1.071212 0.5689834
1.0109624 1.925861 -0.40883094 0.86069393 -0.7109437 -0.90897524 -0.24490342 -0.712962
1.1806206 -0.4718527 -0.19107679 0.7984735 0.4577834 0.26046434 -0.11625933 -0.7391286
-1.787329 -0.40584362 -0.25283116 -1.0184448 -0.43634352 0.19171315 -0.43609968 -0.48424026
0.19349529 -1.512893 -0.3456365 -1.550999 1.0979575 0.18834063 0.96971256 1.1797178
-0.15363415 -0.26299676 -0.85315824 0.03952956 1.6877959 -1.9418714 -0.35403147 -0.006381391
-1.5157996 -0.92538774 0.219665 0.2741555 0.009716105 -0.66140455 -0.39542118 -0.25742698
-0.83025485 -0.89873916 -0.06407072 0.55956435 -0.27686962 -0.21476917 1.0002366 1.292723
-0.6421559 -0.41650006 -0.42380896 -0.942105 -0.56245726 -1.7195432 0.85550755 1.9846476
-1.2432338 -0.47757807 -2.1963875 1.0232882 -0.76056355 0.1280691 0.65237975 -0.9725351
-0.98631024 -0.24169013 -0.5486537 -0.9766792 0.41640788 2.4814365 -1.0302471 0.2885954
-0.364087 0.85625833 -0.07367879 -0.34193876 0.64731205 0.3760903 0.3224638 -1.1204418
0.6412073 0.4984071 -0.95493144 -0.07958117 -0.47338372 -0.9176835 0.22747432 -0.17538732
-1.0149817 -0.066116475 -0.4297752 1.0656291 -1.5811038 0.5782479 -1.5817145 3.1642027
0.1678228 -0.66641974 0.24155869 1.1261309 0.8354409 -0.45004413 -1.180683 -0.075067855
-0.073618226 -0.29549325 0.47287977 -0.73756087 -0.7996025 0.58206487 -0.9992551 -0.04605983
-0.21981862 -0.64787793 -0.25631878 0.065564185 -0.32729375 1.5895438 -1.225987 -0.77454776
-0.86681324 0.5182971 -1.8340033 0.5467814 0.5425466 -2.3426743 0.9806889 -0.38979062
-0.62050056 -2.1183672 -0.34163153 0.8584034 -0.27009496 -2.4203203 -0.5266596 -1.0605044
0.84939015 0.2095052 -1.239257 1.6986426 -0.34615174 -0.5604529 -0.5007485 -0.9800699
-0.18052883 -0.7960222 -0.12094575 0.22466424 0.34287852 0.2037213 -0.7589141 -0.26053956
0.5900634 0.92286885 -0.50288486 -0.26617664 0.40878528 -1.5384037 -2.0144577 0.5903381

attn_layers.0.b_Q f4 [4, 8]
00000000: 3980 343e e80d d9bd db5f 7fbd a5f2 d43d
00000010: 54f1 573e ff49 703d d689 193e bfaa 1fbc
00000020: a474 55bd 734c 32bd c4f7 9a3d 5381 68bd
00000030: cea2 8b3d d8f2 ba3c 46d7 49bc dfac 88bc
00000040: eeeb be3c 6abc 82bd d8e3 07be 5c7a 9fbc
00000050: 0e82 a53c ce33 ba3c 7b2b d2bc dd30 f9bd
00000060: ed59 61bb e3ad 463e 2e9e b93b 0d65 bc3c
00000070: 2517 7ebd 65ef aabb a320 aebd 44b8 1bbe
0.17627038 -0.105983555 -0.062347274 0.10397843 0.21088153 0.05866432 0.14993986 -0.009745299
-0.05211319 -0.04352994 0.07566789 -0.05676396 0.06818162 0.022820875 -0.012319392 -0.016683994
0.02330586 -0.063835934 -0.13270509 -0.019467525 0.020203616 0.02272978 -0.025655499 -0.12167523
-0.0034385875 0.1940227 0.0056646084 0.022997404 -0.06203379 -0.0052165263 -0.08502319 -0.1520701

attn_layers.0.W_K f4 [4, 32, 8]
00000000: a533 84bf 22c9 b23d 2fb4 883f 43a0 80bf
00000010: 9f33 a0bf 7b09 863f 6829 bd3f dbc1 37bd
00000020: 7102 92bf 9d6a bd3e d935 8e3f 73be c13f
00000030: 71ca 4fbe 04f6 06be cf49 b0bf 283f 4dbf
00000040: c872 be3f 8a92 9c3f f26c 303f 2e5f 1ebf
00000050: f5e3 413e efd7 09bf c4c3 af3e db23 dc3e
00000060: 6320 1c3f 2f44 bd3e 85ae 81bf 4f1c e3bf
00000070: d7cd 48be 47de e2be 0941 133e 3415 cf3d
00000080: a130 acbe 25c5 e5be 423d ad3e ddfd 0940
00000090: a218 4f3f 0e40 febe 3ba8 253f 9a3b 6740
000000a0: 46fe a4bf 0ffd 1abf 4550 8abe 34b9 e9bf
000000b0: 8ca2 a3be 0d56 2fbe 2997 f0be 52e7 15bf
000000c0: d3e6 edbf cd3c 6f3f 6dd3 42bf ad84 993f
000000d0: 3d31 343f 1c83 a43f 11f1 9dbf ad54 273f
000000e0: 11d9 9cbf 7ac2 95bd 1f86 d3be 9573 aebe
000000f0: 4ee7 8bbe 8234 62bf 83d5 a8be 271b 8abf
00000100: f358 cebf b830 f63f 26eb 723d f8c4 3ebc
00000110: 813c 043e 8c09 22bf 4b27 c7be c88d 553f
00000120: dee5 54bd 597a c53e 2230 7e3f d7d2 a83f
00000130: 9396 7c3f dca0 a1bc ffeb cfbe 897d a43f
00000140: 778b b2be a11d 713e 7838 183f 435d 05be
00000150: 6bd4 0b3f 2712 54bf 1719 b0bf ff9f 403f
00000160: 888a 713f f3ab 11bf 1ecf 013e 86cf 5f3f
00000170: bb74 90bf 0c57 6d3f c646 adbf fd81 02c0
00000180: c9a4 003f e4de 01bf df7f a2bf 7e1c 9cbd
00000190: 82f5 7e3f 3d03 08bf 0a64 653f 4ac4 0dbd
000001a0: 23b1 08bd 95d1 91bf e982 9bbf cda0 6fbd
000001b0: 514f 6dbf 5e61 cf3d 79c6 aabe cc38 35bf
000001c0: 4dd4 adbf 4a2e 283f 0d62 443f 1eae 733f
000001d0: 9241 cfbe 4f2f ad3f 45d5 58bf f39e 2ebf
000001e0: 7520 a1bf 1d69 c03f cf4f 153f 9a59 b73e
000001f0: 532a 25bf fdaf 75be 0e44 f63e 351a 0c3f
00000200: 0c26 28c0 a673 4b3f 3882 2e3f d1d1 3e3f
00000210: 1723 d43e 3fc6 57bf 2eda 04bf 6eaa 003f
00000220: 5357 14bf 0a8c f23f 2f33 a93f 1377 9bbf
00000230: adf3 1abd 1fee d5be 9022 97bd 9132 5a3f
00000240: 6622 09bf db4f 11bf 4832 65bf 59a6 b5bd
00000250: 5fba 403f bcf9 cfbf cfc6 b83e b334 cdbf
00000260: 0ae2 a6bf 3256 d93e 0f85 cd3e cc4d b0bd
00000270: e579 153f 86f0 8fbe ba18 ad3e eaa5 d73f
00000280: fb0a d8be f180 68bf e3e3 123f a310 3d3f
00000290: 2ab4 8a3f f796 623e a4db e9be dec1 08bf
000002a0: 371d 8cbd cfc6 a6be ecee 433f 02b5 6c3f
000002b0: 76e5 55bd d443 e73f 1f53 123f 2ea4 003f
000002c0: 21f2 143f c45e debe 91ac da3f 2367 c63e
000002d0: 6af0 9e3d f94d 1dbf d53d 263d 2eed f6be
000002e0: c7e9 0cbe f64e eabc 3946 debf 1cfe 07bf
000002f0: cc18 d7be 6ca8 913f 6b69 2c40 18f2 44bf
00000300: 0c38 babe 1ab2 91bf c50d a0bf b26f 37bf
00000310: bbb4 92be a728 753f 784a d8bf 03d0 0e3f
00000320: f676 583f 5282 14c0 f4a8 14bf 0253 bfbf
00000330: 8a68 983f f8d4 d43e 28d2 c53f 9105 01be
00000340: d325 1cbf 81c0 903f 75aa 65be 0b50 debd
00000350: f814 cd3e 44dc dcbb ba7a 00bf 2e55 f2be
00000360: 7234 b23e 2cfa 85bf 5c5a 043f d65d b2be
00000370: c18a 01be 4f7e 653f ed93 7abd f861 7b3e
00000380: 2ef7 0d40 1357 30bf 83b7 fa3d 9ae1 b53f
00000390: b545 be3e 0c68 35bf 2ba1 853e 21a7 233e
000003a0: a8c6 95be 78d2 1440 1265 0c3f c0f5 67bf
000003b0: 8098 15bf 37d0 293e 7d9c 473e 4bf6 3dbd
000003c0: 25e2 3ebf 9df2 513f 0cbf 573f 6049 d0bf
000003d0: ac44 2cbf 06bb d43f e67b 34bf 4c30 40bf
000003e0: 60a5 233d 742e a23f 786c ba3e 3a2b ae3f
000003f0: 5e37 1dbf 193d 223f 4505 8fbf 7d9d 17be
-1.0328261 0.08729769 1.0679988 -1.0048908 -1.2515754 1.0471643 1.4778261 -0.04486261
-1.1406995 0.36995402 1.1110183 1.5136245 -0.20292069 -0.13179785 -1.3772525 -0.80174494
1.4878778 1.223222 0.6891624 -0.6186398 0.18934615 -0.53845114 0.34329045 0.42996106
0.6098692 0.36966082 -1.0131384 -1.7743014 -0.19609772 -0.4431021 0.14380278 0.10111466
-0.3363085 -0.44876972 0.33835799 2.1561196 0.8089696 -0.49658245 0.64709824 3.6130128
-1.2890098 -0.60542387 -0.27014366 -1.8259645 -0.3195995 -0.1712267 -0.46990326 -0.5855609
-1.8586067 0.9345215 -0.7610386 1.1993614 0.7038763 1.2852511 -1.2339193 0.6536358
-1.2253743 -0.07312484 -0.41313264 -0.34072557 -0.2732491 -0.8836137 -0.32975397 -1.0789536
-1.6120895 1.9233618 0.059306286 -0.011643641 0.12913705 -0.6329582 -0.38897166 0.83419466
-0.05197703 0.38569906 0.99292195 1.3189343 0.9866726 -0.019730024 -0.40609738 1.285081
-0.34872028 0.23546459 0.59461164 -0.13023858 0.54621 -0.828402 -1.3757657 0.75244135
0.94352007 -0.56903 0.12676665 0.8742603 -1.1285623 0.9271095 -1.3537223 -2.0391839
0.5025144 -0.5073073 -1.2695273 -0.07622622 0.99593365 -0.5312994 0.8960577 -0.034611024
-0.033372056 -1.1392084 -1.2149326 -0.05850296 -0.9269915 0.10125993 -0.33354548 -0.7078979
-1.3580414 0.6569563 0.76712114 0.95187557 -0.40479714 1.3530062 -0.84700423 -0.6821129
-1.258803 1.5032078 0.58324903 0.35810548 -0.64517707 -0.23992915 0.48098797 0.5472749
-2.6273222 0.7947334 0.6816745 0.74538904 0.4143302 -0.84286875 -0.51895416 0.50260055
-0.57945746 1.8948987 1.3218745 -1.2145714 -0.037830044 -0.41783234 -0.07379639 0.8523341
-0.5356811 -0.56762475 -0.8952985 -0.08869619 0.7528438 -1.6248088 0.3608918 -1.6031708
-1.3037732 0.42448574 0.40140578 -0.086085886 0.5838912 -0.28113192 0.33807927 1.6847508
-0.42195877 -0.9082175 0.5737898 0.7385351 1.0836232 0.22127901 -0.45675385 -0.5342082
-0.0684151 -0.32573554 0.7653644 0.92463696 -0.052220784 1.8067575 0.5715808 0.5025052
0.5818196 -0.43431675 1.7083913 0.38750562 0.07760699 -0.614471 0.04058631 -0.4822783
-0.13761054 -0.028602105 -1.736518 -0.53122115 -0.42011106 1.1379523 2.6939342 -0.76931906
-0.36370885 -1.1382477 -1.2504202 -0.7165481 -0.2865351 0.95765156 -1.6897726 0.5578615
0.8455652 -2.3204541 -0.580703 -1.4947207 1.1906903 0.41568732 1.545476 -0.1259978
-0.60995215 1.1308748 -0.22428305 -0.10855111 0.4005506 -0.006740125 -0.50187266 -0.47330612
0.34805638 -1.0466971 0.5170038 -0.34837216 -0.12650587 0.89645857 -0.06117623 0.24549091
2.2182117 -0.68882865 0.12242033 1.4209473 0.37162557 -0.7086189 0.26099524 0.15981723
-0.29253125 2.325346 0.5484172 -0.9060936 -0.5843582 0.16583334 0.1949329 -0.04637746
-0.7456382 0.82010823 0.8427589 -1.6272392 -0.67292285 1.6619575 -0.70501554 -0.75073695
0.039952636 1.2670426 0.3641088 1.3606942 -0.6141261 0.6337448 -1.1173483 -0.14806171

attn_layers.0.b_K f4 [4, 8]
00000000: 6b50 c2bc eef6 7cbd 2a8d 8f3d fef3 f03d
00000010: 014d 3e3c e9c3 24be 699f 16be 99bf 233e
00000020: 69b9 3a3c dd69 70bd 68ee d2bd 1ac6 063e
00000030: b49d 3ebc cb12 33be 133b 6b3a 0a84 b7bc
00000040: e246 423d 5f98 07bd a0cc 80ba d3ed eabc
00000050: 6590 bbbc cc5f 22be 1093 bebd c6d3 e33d
00000060: fa59 e53d 0671 bd3b 8557 a8bc 60ea 2d3e
00000070: bc7e 63bd b64d 7b3d 2914 2e3d 880c de3d
-0.023719987 -0.061758928 0.07009347 0.11765288 0.011615039 -0.16090359 -0.14709248 0.15991057
0.011396744 -0.05869471 -0.10299379 0.13161507 -0.011634279 -0.17487638 0.00089733413 -0.022401828
0.04743088 -0.033104297 -0.0009826608 -0.028677857 -0.022896001 -0.15856856 -0.09305394 0.11124377
0.11198802 0.0057812957 -0.020549545 0.16983938 -0.055540785 0.061353408 0.042499695 0.10842234

attn_layers.0.W_V f4 [4, 32, 8]
00000000: 86af 893f 37a8 80bf 21f2 10bf 095e 193f
00000010: 507e e1be f07f 32bf a1cf ab3f dc9b e7be
00000020: 68e7 82be 2353 bbbf eb97 63bf 2b43 80bd
00000030: 6ade bc3e 4c8e 01bf 2a42 a93f cd94 0cbf
00000040: 8776 983f 5557 8cbf d096 20bf 90dc 793f
00000050: bc5d eebe d3fa a4be be64 d33e 5baf db3e
00000060: 1335 9cbf 8f58 00bf 71e4 7ebf 36e8 7dbf
00000070: 91a2 253f 3e7f b73e 49b4 373f aa57 453f
00000080: 520d debf 5679 4ebe 4cdf 1abf 2bc0 643f
00000090: fe88 f9bf ed64 5d3e 71e3 0540 b65b 6bbd
000000a0: 5857 933f cef5 c6be c19e afbe 150a 7f3c
000000b0: bcc9 32bf 94d7 2d3e d498 243f 470e 00bf
000000c0: 5e54 b7bf c578 34c0 8459 06bf 3600 6fbf
000000d0: 5064 1040 905d dcbf 2f31 75be 90c1 87be
000000e0: 10e9 d23e efdf a7be f5fe 593f d721 833e
000000f0: c930 1b40 07b2 203f d7b8 44be 62a2 10bf
00000100: 55f2 45c0 53d2 753f 476d 7bbf 0710 083f
00000110: 46e7 9b3f acd9 923f b0d9 053e 4b12 193f
00000120: 78c7 46bf b8a0 833f f6f5 d73f b8aa be3e
00000130: 1146 3fbf b1f1 0abe 3ab1 84bf 3e3e 1dc0
00000140: 33b0 8d3e e18a 203f ba20 833c 3d7b 8139
00000150: b39a c63f 48e6 0ac0 6627 62be 8a26 5a3e
00000160: 7cb5 2d3f c261 8ebd ef05 3b3f 8972 edbf
00000170: 63ce f83e 3ddc eebf b49e 8bbf 01c5 e73e
00000180: c44f 28bf 1c5f a3bf 406c 85be 5946 203f
00000190: 4e7f 2ebf 5055 f3bf 2764 a13c 8cf2 f33e
000001a0: be2f d3bf 3cab 0b3f d41b 30be f974 243f
000001b0: 140d c03f 255d 5dc0 28f0 7d3f 9ea0 c5be
000001c0: 149e 1ac0 d576 893f 98ea 98be b76d 843f
000001d0: 9535 5ebf 43dd 84bf 4c3a 0f3f a7a3 92bf
000001e0: 5b62 a4bf 491a 653f 2e29 333f b92d ba3e
000001f0: 0fe7 013e b2b6 00be 7f9f 81bf 3395 b1bd
00000200: 2b7f 70bf 6f7d 18c0 80de 28be 4676 e8bb
00000210: 551d 94be 339a 80bf 8e5a 943f ddc1 5fbf
00000220: 75f5 1d3e 4378 8b3f 2fa4 1e3f 3dc4 253e
00000230: 00c1 4ebf 461a 06bf 97f2 abbf c1ad c13f
00000240: 0965 e33f e4c1 7a3f 33a2 b53e 8689 93bf
00000250: d64e 923f 52f0 913f d750 aabf 65dc 21be
00000260: 8a34 073f 40ac 793f fe8e 75bf e92d 0a40
00000270: 5550 403e 9f98 ec3f 6a03 f9be 9518 893f
00000280: bff4 c53d 4f1e 70bf 9d2e 55bf 3c8a 94be
00000290: 68e5 16be 078b 9e3e b483 9abf 281e c23f
000002a0: bb9f 173e e12f 0e3e 7290 d23e 98e9 0b3f
000002b0: 85ee 863d f812 3bbf 8092 0f3f 34c8 4d3f
000002c0: a68f a8be 45f9 f93f d034 a5bf c8fd 25bf
000002d0: 58fe b7bf dd95 b3be 85ac a3be a373 913f
000002e0: dfdc 93bf 28be 0b3e 9590 a93e c59b 53be
000002f0: 2006 403f 4c28 97bf 926c babe 851b 493f
00000300: 905e 87be d3f3 613f 5830 92bf 3504 1d3f
00000310: 3e82 1ebf 8911 fe3f 1263 be3f a746 07bf
00000320: 193c d53e c7ff 6ebe f08b 5c3f e6db 8b3e
00000330: bb65 89bf 2ce5 8fbf 5fcd 163f 9e1a da3f
00000340: 7ea9 5dbe 882e bcbf eb20 773f 62d1 083e
00000350: 22b3 a83f 8c76 3c3f 353b dc3e 6202 fa3e
00000360: ee5d 6c3f bad9 38bf 0e8d 853f 7a3b 623d
00000370: 5586 ccbf 4f31 dcbf 4744 4ebf 990f 0140
00000380: ff90 49be 8db4 d7be e672 613d 0f87 56bf
00000390: 8020 a83f 2d79 1abf 0958 4abf 833b cebe
000003a0: 2e4f 113d 79e7 1dc0 b0f2 993f 23b2 893f
000003b0: 4149 71bf ff26 213f ad6f 203f bbf9 c8bd
000003c0: 1adc 283f 0183 acbf f5a4 d0be 1166 4d3e
000003d0: 6be4 21be e330 2640 69e6 9a3e ff9d 3dbf
000003e0: 9b5f 21bf 67f1 d93f cf24 3cbf e696 23bf
000003f0: 63e2 323f d68e 9fbe 0868 1640 6338 373e
1.075669 -1.0051335 -0.5661946 0.5990911 -0.4404168 -0.6972647 1.3422738 -0.452361
-0.25567174 -1.4634746 -0.88903683 -0.06262811 0.36888438 -0.5060775 1.3223317 -0.5491455
1.1911172 -1.0964152 -0.6273012 0.97602177 -0.4655589 -0.32222614 0.41287798 0.42907223
-1.2203697 -0.5013513 -0.99567324 -0.9918245 0.6470118 0.35839266 0.7175947 0.7708689
-1.7347815 -0.20163473 -0.60496974 0.89355725 -1.9494932 0.21620531 2.092007 -0.05746051
1.151103 -0.3885941 -0.34300807 0.015566369 -0.6983907 0.16976768 0.642957 -0.50021785
-1.4322622 -2.8198712 -0.5248034 -0.93359697 2.2561226 -1.7216053 -0.23944543 -0.26514864
0.41193438 -0.32788035 0.8515466 0.25611755 2.4248526 0.6277165 -0.19211136 -0.56497777
-3.0929158 0.96024054 -0.9821362 0.53149456 1.2179954 1.1472678 0.13071322 0.5979354
-0.77648115 1.0283422 1.6871936 0.37239623 -0.7471629 -0.1356876 -1.0366585 -2.456924
0.27673492 0.6271191 0.016006816 0.00024696617 1.551596 -2.1703053 -0.22085342 0.21303764
0.6785505 -0.069522396 0.7305593 -1.8550578 0.4859496 -1.8660961 -1.0907807 0.4526749
-0.6574671 -1.27634 -0.2605915 0.6260734 -0.68163 -1.901041 0.019701077 0.47645986
-1.6498945 0.5455816 -0.17198116 0.64240986 1.5003991 -3.45881 0.99194574 -0.38599104
-2.4158983 1.073939 -0.2986648 1.0345982 -0.8680051 -1.0380024 0.5594833 -1.1456193
-1.2842516 0.8949323 0.6998471 0.3636301 0.12685798 -0.12569693 -1.0126799 -0.086710356
-0.9394404 -2.3826559 -0.16491127 -0.0070941774 -0.2892863 -1.0047058 1.1590135 -0.87405187
0.15425666 1.0896076 0.61969274 0.1618814 -0.80763245 -0.5238384 -1.3433408 1.513115
1.7765208 0.97952104 0.3547531 -1.1526344 1.1430309 1.1401465 -1.330592 -0.1580673
0.52814543 0.9752846 -0.95921314 2.1590521 0.18780644 1.8484076 -0.48635417 1.0710627
0.09665822 -0.9379625 -0.8327425 -0.29011714 -0.14735949 0.30965444 -1.2071443 1.5165453
0.14807026 0.13885452 0.41125828 0.5465331 0.06588463 -0.7307582 0.56082916 0.8038361
-0.32922095 1.9529196 -1.2906742 -0.64840364 -1.4374495 -0.35075274 -0.3196756 1.1363415
-1.155178 0.13646758 0.3311812 -0.2066489 0.75009346 -1.1809173 -0.36410958 0.78557616
-0.26439333 0.8826267 -1.1421003 0.61334544 -0.61917484 1.9849101 1.4873984 -0.5284218
0.41647413 -0.23339759 0.8615103 0.27316207 -1.0734171 -1.1241813 0.5890712 1.7039373
-0.21646687 -1.47017 0.96534604 0.13361123 1.3179667 0.7361839 0.4301392 0.48829943
0.92330825 -0.72207224 1.0433671 0.055232503 -1.5978495 -1.7202548 -0.8057293 2.016577
-0.19684218 -0.42129937 0.055041216 -0.83799833 1.3134918 -0.6034115 -0.7904058 -0.4027978
0.035475902 -2.467253 1.2027187 1.0757488 -0.942524 0.6295013 0.62670404 -0.09813257
0.6596085 -1.3477479 -0.40750852 0.20058466 -0.15809791 2.5967338 0.30253914 -0.7406921
-0.6303651 1.7026795 -0.73493665 -0.6390213 0.6987669 -0.31163663 2.3500996 0.17892604

attn_layers.0.b_V f4 [4, 8]
00000000: 14eb 64bd 9943 2f3c 423f 1a3d e60c 163e
00000010: 9d0f 0c3e f79d 30be b933 babd aba5 87bb
00000020: b6d7 a8bd 3c31 ea3d a002 d23d 6bcd 54bb
00000030: ab6c 193e a29b 49be 7725 9b3d 69f7 eebc
00000040: cfdc 72bd e175 21bd db83 4dbd 1171 2a3e
00000050: 0a7f b53d 1c6f 373e df88 28bd 7e65 0cbe
00000060: e727 6dbd d26b bd3b 9156 e73d d4f4 2abe
00000070: c2f1 d5bd 2524 c0bd b45a 82bd 7952 9f3d
-0.05588825 0.010697269 0.037657984 0.14653358 0.13677831 -0.17247759 -0.090918966 -0.004139622
-0.082442686 0.11435172 0.10254407 -0.0032471071 0.1498286 -0.19688275 0.07575505 -0.029170709
-0.05929261 -0.03941906 -0.050174575 0.16644694 0.088621214 0.17913479 -0.041146155 -0.13710591
-0.057899382 0.0057806754 0.11295808 -0.16694957 -0.10446502 -0.09381894 -0.063649565 0.07779402

attn_layers.0.W_O f4 [4, 8, 32]
00000000: e795 053f afd3 903f 5033 e9bd 8648 0c40
00000010: 1353 dfbe 130f b8be cdf7 0ebf ed05 50bf
00000020: fc11 e1bf 2292 a63f 7e5e 08bf 3099 82be
00000030: 6d16 03bf dcaa 06bf 4083 a63e 2862 103f
00000040: ea98 90bf 7282 383f d680 7abf 7133 43be
00000050: 549c 4fbf a87d 463f dc49 0640 983d fd3e
00000060: 7b5d 6dbf d573 f33f b5cd b0be 1fcb bebe
00000070: 5e88 c8be 7080 2cc0 d0dc adbf ca78 4e3e
00000080: 4c88 eb3e b1eb 9abf 34ae 923f a477 a33e
00000090: 2df4 9dbf 15c8 223e a367 0abf 8734 ad3e
000000a0: 732a 6bbe 67fe e43e 91f1 b83e 9c4f 6c3c
000000b0: b8ce d63d 57d9 023f 002b 1bbf 6c14 88bf
000000c0: 44e8 e43e 0aee 53be 877e 3d3f f824 843e
000000d0: 47c8 513f e88c 6fbe d57f ed3f e2e1 b6bf
000000e0: 83e4 b3bf b0b7 2ebf 7ae1 39bf f830 2d3f
000000f0: 737d 073e bc5f a5bf 4b79 19c0 eca3 debd
00000100: 1fb4 38bf 4da1 38bf 13e1 acbe c993 fdbe
00000110: 1e10 d9be 80b1 453f 4f54 28be 5b0d 313f
00000120: dd20 0e3f ebc7 c73f 9b5d 273e 8184 5c3f
00000130: 05ff f1bf 4aae 81bf 0805 c4be 687b 0b40
00000140: 4ab4 d2be 2c2a db3e 61a3 3f3e 1283 cabe
00000150: ab53 de3e 0b6b 443f e72a 2ebd 4464 393f
00000160: 9c1f 51bc 3a68 2d3f 9381 bbbf aeca 3c3f
00000170: 60cc 9cbf 9b33 71bf 91c5 c53f efe8 4bbf
00000180: bc36 88bf eff2 413e fdec b93f 5bfc 943f
00000190: 04d0 c73e d7ff 0440 a910 d23e f85b 00bf
000001a0: db61 a9bf a9f4 bdbe 06a4 b3bf 0ae5 603f
000001b0: 847d b0bf 7cbd d8be 7e4d 43bd e212 7a3e
000001c0: dec1 fa3e 85cd d43e cde5 9a3d 2687 79bf
000001d0: da64 bebd 2db0 a13f 16f9 bc3e ae7a 543f
000001e0: 4f27 6b3f a8e9 13bf 3b6f 28bf 09be 8a3f
000001f0: c5a4 a6be e328 bfbf c984 c3be 146b 97bf
00000200: 21f1 bcbe 4061 1fbf a5c0 a73e 6af5 2f3d
00000210: 943e af3d 133a 883f dabf 99bf 94c5 dd3d
00000220: cd9d c93e e6d9 07bf b51d 8ebf fa67 dbbf
00000230: 323d 6f3f f75c ca3d 7267 abbe 2fad 47bf
00000240: 44b7 32bf 8424 16c0 a80f 2e3f 5627 753e
00000250: 0388 bdbe ef9e 4a3e 91af 04bf f67d 363e
00000260: 2e2d ef3c 4f98 ecbe d012 acbd 098e d33f
00000270: 62db 48bf 5618 173e d379 05c0 ff04 9c3f
00000280: 6777 5f3f 2852 a6bf 48bb 0b3f 8641 163f
00000290: f1c0 ed3e 3c2b 94bf 2f21 9a3f 6bc1 bfbe
000002a0: 4c3d 99bf 11f5 153f f0ca f83e 22fc ba3e
000002b0: 2f4a db3b 71de 39bf 34d7 e03f bcef f0be
000002c0: 30d4 47bf 056b 7bbf b3f2 7b3f a867 71bf
000002d0: 8bed a7bc e91f 053e d445 0b3f 6003 ab3d
000002e0: 2b87 99bf 52ce 9e3d 9275 ff3f 1362 18be
000002f0: b62a 8d3f 7f85 5c3f c8c3 973f 5c98 1a40
00000300: eac2 d6be 3afd 83be df5d 2abe 7641 6d3f
00000310: 3a50 c3bf ec3a 10bf e058 cbbf 99cb ee3e
00000320: 3698 06be 2bdc cd3f 5944 01bf 873e 1fc0
00000330: 48b1 17c0 a795 9f3f 4470 63bf a1d0 0c40
00000340: 198d 4f3f 868c 1ac0 a6b6 80bf c235 2740
00000350: 8465 883f 7836 e53f 8a02 fc3e c7ad 95be
00000360: 5501 7f3f 7c11 d2be 2f13 3f3f 6469 d63d
00000370: 96e8 f63d a3bb 20bf 6485 8ebf 7d66 973f
00000380: 764e adbe 1f57 b03e 4daa 5b3f 7c2c 1640
00000390: 01e2 4cbe 3c78 813f c524 eebd a691 e5bf
000003a0: 2144 47be 90fe 21bf 0742 1bbf 50c0 1a3f
000003b0: 0c19 e1bf 7558 59bf 7836 cfbf 5b94 393f
000003c0: d8c6 e63e a2e0 93be 422f bb3f 5643 5d3f
000003d0: 6215 953e 7c6c 553f 39f9 80bf 2abb e53f
000003e0: 8532 be3c 58f0 66bf 1654 0c40 2d05 efbf
000003f0: 8d34 d5be 2345 203f 3f4f 8bbf e01f 853f
0.5218186 1.1314601 -0.1138674 2.1919265 -0.43618068 -0.35949 -0.55846864 -0.8125904
-1.7583613 1.3013346 -0.53269184 -0.25507498 -0.51206094 -0.5260446 0.3252201 0.56399775
-1.1296666 0.72074044 -0.9785284 -0.19062592 -0.8109791 0.77535486 2.098258 0.49461055
-0.92720765 1.9019724 -0.34531942 -0.37264344 -0.3916654 -2.6953392 -1.3583012 0.20163265
0.46002424 -1.2103177 1.1459413 0.31927216 -1.2340142 0.15896638 -0.5406439 0.33829138
-0.22965412 0.44725344 0.361218 0.014423277 0.10488647 0.51112884 -0.6061249 -1.0631232
0.44708455 -0.20696273 0.7402119 0.25809455 0.81946224 -0.23393595 1.8554636 -1.4287684
-1.4054111 -0.68249035 -0.72609675 0.67652845 0.13231449 -1.2919841 -2.3980281 -0.10871109
-0.7214984 -0.72121125 -0.33765468 -0.49526814 -0.4239511 0.7722397 -0.16438411 0.69161004
0.55518895 1.5607885 0.16344301 0.86139685 -1.8905951 -1.0131314 -0.3828509 2.1794071
-0.41153175 0.42805612 0.18714668 -0.39553124 0.4342321 0.76725835 -0.042521384 0.7241862
-0.012763884 0.6773716 -1.4648918 0.73746765 -1.224987 -0.9421937 1.5450917 -0.79652303
-1.0641704 0.18940328 1.4525448 1.1639513 0.3902589 2.0781152 0.41028336 -0.50140333
-1.3232988 -0.37100723 -1.4034431 0.87849486 -1.3788304 -0.42332065 -0.047681324 0.24421266
0.48976034 0.4156305 0.07563362 -0.97471845 -0.0929658 1.263189 0.36908787 0.82999694
0.91856855 -0.57778406 -0.65794724 1.0839244 -0.32547584 -1.4934353 -0.38187245 -1.1829553
-0.36902717 -0.62257767 0.32764164 0.042958654 0.08556858 1.0642723 -1.2011673 0.10828701
0.39378205 -0.5306686 -1.1102816 -1.7141106 0.9345275 0.09881013 -0.3347736 -0.7799863
-0.6981089 -2.3459787 0.6799264 0.23940787 -0.3701783 0.19787191 -0.51830393 0.17821488
0.029196348 -0.46209952 -0.08402026 1.6527721 -0.7845975 0.14755377 -2.0855606 1.2189025
0.8729157 -1.2993822 0.54582644 0.5869373 0.46436265 -1.1575694 1.2041377 -0.37452254
-1.1971831 0.58577067 0.4859233 0.36520487 0.006692193 -0.72605044 1.7565675 -0.47057903
-0.7805815 -0.98210174 0.98417205 -0.9429879 -0.020499012 0.13000454 0.54403424 0.08350253
-1.1994375 0.07754196 1.9957755 -0.14881162 1.1028659 0.861412 1.1856623 2.4155493
-0.41945583 -0.25779134 -0.16637371 0.9267801 -1.5258858 -0.5633991 -1.5886497 0.46639708
-0.13144001 1.6082815 -0.50494915 -2.4881914 -2.3701954 1.2467545 -0.8884318 2.2002337
0.8107467 -2.4148269 -1.005574 2.612656 1.065598 1.7907248 0.49220687 -0.29234144
0.9961141 -0.41028965 0.74638647 0.104693204 0.12056081 -0.6278631 -1.1134458 1.1828152
-0.33848923 0.34441468 0.85806733 2.346465 -0.20008089 1.0114818 -0.11628107 -1.7935073
-0.19459583 -0.63279057 -0.60647625 0.60449696 -1.7585769 -0.849006 -1.6188498 0.72492
0.4507358 -0.2888232 1.4623797 0.8643087 0.29117876 0.8336866 -1.0076057 1.7947743
0.023217449 -0.90210485 2.1926322 -1.8673455 -0.41641656 0.62605494 -1.0883559 1.0400352

attn_layers.0.b_O f4 [32]
00000000: 7f9a 75be 5500 0e3e 066e 4e3e 3f08 b5bd
00000010: a894 213e 1e02 753e d0df debc dd1e dc3d
00000020: 6f16 513c 1268 98bc 0481 953e 8478 6dbc
00000030: 5ad7 27bd e37c 19be d8e0 c13c 3310 013e
00000040: f072 c4bd 2a8b ae3c 1831 f63d 34cb 1fbe
00000050: d445 1c3d 2373 c3bd 9451 e43b 9ec6 38be
00000060: 1c8c 063e 229b 333d feb7 b3bd 4011 4c3d
00000070: 839c b53b 3b04 ae3c c350 b1be 1a27 c4bc
-0.23984717 0.13867314 0.20159158 -0.088394634 0.15779364 0.23926589 -0.027206331 0.10748074
0.012761696 -0.018604312 0.29199994 -0.014494065 -0.04097686 -0.14989047 0.023666784 0.12603836
-0.09592235 0.021306593 0.12021083 -0.1560486 0.03815253 -0.09543445 0.0069677327 -0.18044516
0.13139385 0.043849118 -0.08775328 0.04982114 0.0055423393 0.021242252 -0.3463193 -0.023944426

attn_layers.1.W_Q f4 [4, 32, 8]
00000000: f737 5dbe bd8a 0f40 9e02 ed3f f62f 483f
00000010: 8b44 4e3e 19de 8d3e 936e eebe 52b7 14bf
00000020: dc78 f13f a815 3dbf d51e d3be 34de 8f3f
00000030: 0c05 7e3f 164f 53bf cc9c cdbe e22b ac3f
00000040: 11b2 bdbf 6a52 49bf e1d3 ebbc 6c8d cbbf
00000050: 2e76 9c3e 1c7e aabf 7b2d 303e d81b 833f
00000060: 9dd9 943f 3133 63bf 1d14 b33f f128 3b3f
00000070: fa1c bc3e 5929 8ebc 62ec 75bf 0c71 74bf
00000080: 8b97 6d3f 012f fdbd a4ab 393f a152 93be
00000090: 7619 dc3e 2b54 aa3f 597a 4dc0 acac cd3e
000000a0: cd71 0040 84ca 18bf 5822 f6bf 6944 e33e
000000b0: 2dd3 9dbf 8f15 adbf 51a8 95bf 3156 a33e
000000c0: 86f6 ce3f e4ba b33c f34b 803e 6dfd 37bf
000000d0: b43d 2b3f 4244 c9bf a818 fdbd 4946 abbe
000000e0: 0220 653e 00f3 a33e 718f debf 8b7e 93bf
000000f0: 82cd f7bf 9000 24bf 97a7 383f 8cdf 3c3f
00000100: 1943 9fbf d00d 053e 706f 873f 6837 c3bf
00000110: 9f22 c9be ddd6 3bbf ab25 883f f1b6 6d3f
00000120: 48db 8fbe 6f07 61bf 2a25 2abf 42fb bebe
00000130: c0d2 fabe f4eb 053d 6c1c e2bd e20c c8be
00000140: bb9a 813f 3fd5 aa3f a134 9b3e 6d89 55bf
00000150: 606e 9bbe bad1 46bf 4df8 963d fc6b 063f
00000160: 859e ccbe 6da4 0840 e014 6a3e 3506 84bf
00000170: 066f 0fbe 6095 32be 103c febe 72fd c1be
00000180: 2d8f 003f 9595 3c3e 4ad6 443f d107 f8be
00000190: 9853 f7bd 0bac 22c0 1f9c 673e 6ee2 d63f
000001a0: adc9 0740 ea70 24bf 01b0 203f 10f3 a83e
000001b0: 92fa a6bd 154f 293e ce32 573f fa36 30bf
000001c0: 6ddf 193e 3b0e 263e d75b 743d fdec 373e
000001d0: 083e 90bf 4fb6 4dbf 61d5 483f 10e9 8c3f
000001e0: b986 9b3f 371f cc3d 80e0 d53e 325b f73c
000001f0: 6393 3a3f 5d54 c93e 0bea b73f e013 af3e
00000200: 2d4a 373f 0739 ba3e 34c5 fbbe 7e7a d83d
00000210: 540c b6be c548 eb3e ef0c ee3e 8e3e b4bf
00000220: 93d7 4b3f ecfe 9c3f 0faa 053f 107e 05bf
00000230: bef7 863f 4fff dc3e a48c 0e3d 8382 103f
00000240: 4d72 1d3d 893d cb3e 46de 2e3f 53c7 693e
00000250: db41 d53f 54ca da3f 2a1f 63bf d4b0 0b40
00000260: b155 0bc0 7a2a 8abe 9fce e2bf 5297 cdbe
00000270: 6fb8 5cbd 5129 26bf b763 1bbf 1ab5 113f
00000280: 297b 763e 9da7 933f a4f0 a2be 07d2 5a3f
00000290: 3168 6dbe 1e50 483e 434c 613f cf43 aa3d
000002a0: 488c 28be 728f a93f 6268 39bf 3a68 5c3e
000002b0: 706d 973f 1db7 a03f ae1e a7be c4bb 663f
000002c0: 9a8e 02bf a0b7 a2bf 734d 163f 5539 493f
000002d0: 99f6 f5be 584d d83f 1b96 26c0 63f2 abbf
000002e0: f746 34be 9a09 413f 6626 95bf a7b3 f03d
000002f0: 4ce1 bbbd 85e7 1c3f d75b cb3e 97ea 63be
00000300: 5931 e1bf 5cc6 85bf 9668 f93e 3b9b db3e
00000310: d1eb 1c3f d495 83bf 479a 1bbf 02af 3cbf
00000320: 666a 80be 7fe2 efbe b217 cb3e c40c 5abf
00000330: fa29 f3be 9196 8d3f 5357 7cbf fef8 803f
00000340: 72c9 1640 9a38 50bf 1a3b bc3e cb3c 683f
00000350: 1131 3e3f 38d3 22c0 7b10 2140 de94 6cbd
00000360: 723c debf 2c95 c73e 874f d0bf cf42 11bf
00000370: 74a2 52bf 466e 5cbf e878 f33e 4d92 aabe
00000380: cd39 09bf 28f9 0c40 160d b2bf f6b3 883f
00000390: ab82 b03e 5436 6c3f b56b 0a3f fdb2 923f
000003a0: 618c c83e 9b1d cf3f 24ea 81be d167 f0bf
000003b0: dc93 27bd a50d 943f 1e48 db3f 45ca 62bf
000003c0: 5baa 903f 3438 713f 08af f43e 9021 3b3e
000003d0: 36d1 3cbe d12d aabf 4f93 17bf 5789 bdbf
000003e0: 090a d2be bc85 dc3d 65b5 b3bf a4aa e6bf
000003f0: 1d84 85be b165 ce3f 09a0 0dbf 0e07 97bf
-0.2160338 2.242843 1.8516424 0.7819818 0.20143335 0.2770851 -0.46568736 -0.58092225
1.8865008 -0.7386117 -0.4123446 1.1239686 0.9922645 -0.8254255 -0.4015869 1.3450892
-1.4819967 -0.7864138 -0.028787555 -1.5902534 0.30558914 -1.3319736 0.1720485 1.0242872
1.162891 -0.88749987 1.3990513 0.73109347 0.36740857 -0.0173537 -0.96063817 -0.95484996
0.9280936 -0.12362481 0.7252753 -0.28773978 0.42988175 1.3306936 -3.2105925 0.401708
2.0069458 -0.59684014 -1.9229231 0.4438813 -1.2330071 -1.3522204 -1.1691991 0.31901696
1.6168983 0.021939702 0.25057945 -0.7187107 0.66891026 -1.5723956 -0.123582184 -0.3345206
0.22375491 0.32021332 -1.7387525 -1.1522993 -1.9359591 -0.6406336 0.7213072 0.73778605
-1.2442352 0.1299355 1.0580883 -1.5251284 -0.39284226 -0.7337473 1.0636495 0.9285727
-0.28096986 -0.8790197 -0.6646296 -0.3730107 -0.48988914 0.032695726 -0.11040577 -0.3907233
1.0125345 1.3346328 0.3031359 -0.8341282 -0.30357647 -0.7766377 0.07371578 0.5250852
-0.3996469 2.1350358 0.22859526 -1.0314394 -0.14007196 -0.17439795 -0.496552 -0.37888676
0.5021847 0.18416436 0.7688948 -0.48443463 -0.12076491 -2.5417507 0.22618149 1.6787851
2.1216843 -0.64234793 0.6276856 0.32997942 -0.08153261 0.16534074 0.84061897 -0.6883389
0.15026636 0.16216366 0.059657898 0.17961498 -1.126893 -0.80356306 0.7845059 1.1008625
1.2150489 0.09966891 0.41772842 0.030194853 0.72881144 0.39322177 1.4368299 0.3419485
0.7159756 0.36371633 -0.49173892 0.105702385 -0.3555628 0.45953956 0.46494243 -1.408159
0.79625815 1.2265296 0.52212614 -0.5214548 1.0544355 0.43163535 0.034802094 0.56449145
0.038439084 0.39695385 0.6830791 0.22829942 1.6660722 1.7092996 -0.8871943 2.1826677
-2.1771052 -0.26985532 -1.7719306 -0.4015451 -0.053886827 -0.64906794 -0.6069903 0.56916964
0.2407042 1.1535527 -0.3182422 0.85476726 -0.23184277 0.19561812 0.8800699 0.08313715
-0.16459763 1.3246901 -0.724249 0.21524134 1.1830273 1.2555882 -0.32640594 0.9013026
-0.5099884 -1.2712288 0.5871193 0.78603107 -0.48039702 1.6898603 -2.6029117 -1.3433346
-0.17605196 0.75405276 -1.1652343 0.11753016 -0.09173831 0.6129077 0.39718506 -0.22257458
-1.7593185 -1.045116 0.48712605 0.4289187 0.6129733 -1.0280099 -0.60782284 -0.7370454
-0.25081176 -0.4685249 0.39666516 -0.8517573 -0.47492963 1.1061574 -0.98570746 1.0075986
2.3560452 -0.8133637 0.3676384 0.9071776 0.7429362 -2.5441418 2.516631 -0.05775916
-1.7362196 0.38980997 -1.627427 -0.56742567 -0.82279134 -0.86105764 0.47553182 -0.33314744
-0.5360382 2.2027073 -1.3910244 1.067992 0.34474692 0.922704 0.540706 1.1460873
0.391696 1.618091 -0.25373948 -1.8781682 -0.040912494 1.1566664 1.7131383 -0.8858989
1.1301988 0.94226384 0.47789788 0.18274522 -0.18439183 -1.3295232 -0.5920915 -1.4807538
-0.4102328 0.10767695 -1.4039732 -1.8020825 -0.26077357 1.6124784 -0.5532232 -1.1799028

attn_layers.1.b_Q f4 [4, 8]
00000000: f4b7 bfbd 61b2 debd ddac e33c 4910 a6bc
00000010: 5cf7 20bb 9a4f 7abd bccb c8bd f42a f13c
00000020: 4cf0 3cbb 662a 543c 4f5c 063c f8e3 83bd
00000030: 2d04 c73c bcb2 8f3d ac31 cc3d 78c7 013d
00000040: af1c 943b 9dfb 493c 25ba 8dbd 27f0 9bbd
00000050: 8060 8abc 90ff 4f3c 8ad4 e23a 197c 753d
00000060: 96c4 b73c 5e9e 25bd fc3c af3d c75a a338
00000070: 6547 4d3e 8dad da3d 308f a7bd a5a2 033e
-0.09361258 -0.10873867 0.027792389 -0.020271437 -0.00245615 -0.06111107 -0.09804484 0.029439427
-0.0028829752 0.012949562 0.008200719 -0.06439966 0.024293983 0.07016513 0.09970412 0.03168437
0.004520021 0.012328056 -0.0692027 -0.07614165 -0.016891718 0.012695208 0.0017305773 0.059932802
0.022432607 -0.040434234 0.08556554 7.789354e-05 0.20046766 0.106776334 -0.08181608 0.12855013
