Models/attnOnly_4head_32dmodel_8dhead_1layers_150epochs_train=1fnameremoved.pth (torch, 45975 bytes, 12 tensors)

embedding.weight f4 [88, 32]
0.106100775 2.5341234 -0.47246858 -1.5822563 1.156658 0.3858285 -0.5031166 1.5387688
-0.86380965 0.47406092 -0.22005919 -0.5059985 -1.6364293 0.69833153 0.5076636 0.4226729
2.0605412 -0.7127098 0.8808393 1.4474479 -0.19536892 1.1719321 -0.6498701 0.5610075
-0.2543025 -0.38204485 1.8997593 0.3768477 -1.2162791 0.7160156 0.84098357 -0.09430694
-2.0289006 -0.84929097 -0.25250396 0.78048855 -0.012721308 0.6390049 -0.70596313 -1.2085152
-0.111233726 1.1811185 0.07774286 1.457417 1.4921371 -0.116512425 -3.150995 -0.41310576
-0.2187444 -0.57762337 1.5540076 0.12997966 -1.0031623 0.88430375 -1.4105415 -1.1840396
0.57583374 -0.016226798 0.06705566 -1.9238845 -1.7842319 -0.49488592 -1.6437922 0.53387433
0.82761675 0.695134 -1.4151869 -1.9242401 -0.65653753 0.9143326 0.4564647 0.459323
-2.2206788 1.7633516 -0.19772324 -0.84204996 -1.1843011 -0.93744385 -0.06129303 -1.1572641
0.18926252 0.06418505 0.676226 -0.07906866 -0.6872104 -0.38960263 -1.09279 -0.19911239
-0.79058146 0.12578465 -1.8749999 -0.49761936 -0.40659672 0.1299603 1.2041587 0.43745765
0.6183005 0.8230422 -0.50859034 0.6338146 0.66076076 -0.9538228 0.39664215 2.2019036
0.22981635 -2.7165759 -2.7458146 1.4610585 -1.4282461 0.013315675 0.18855137 -0.19476916
0.11526997 -1.0722855 0.24208827 0.9207121 0.17042191 -2.1155214 -0.48048127 1.1633426
-0.45687914 -0.39101115 0.45207024 -1.1374606 -0.97697747 -1.2198766 2.0935621 -0.61712486
0.80974054 1.236657 -0.15447389 -0.814651 0.74575657 0.7283701 -0.075014785 0.023455808
-0.12844272 0.29125524 1.0889341 1.0114022 0.9478792 -0.4726398 -1.3019121 0.48818427
-0.5900461 0.4069011 -0.7424433 0.27167642 0.5432181 0.79825073 1.9463133 -2.3428602
0.6224632 0.15159534 1.199058 -0.21858186 -1.9382827 -0.2679105 0.73513204 1.1541045
1.0621207 0.15963581 -0.3273064 -1.1612263 -0.8748091 -0.5531663 1.3369166 -1.042153
0.59357035 0.09020173 0.19899204 -1.7922169 1.0087919 -0.9676084 0.11550106 -0.56583965
-2.072177 0.6009478 0.029191433 1.380653 -1.3503255 -0.058725964 0.07372468 -0.7188062
-0.6101763 2.06054 0.14061613 0.14260182 0.5101524 0.3835468 -0.2821686 -1.3699334
-0.11562452 0.63648397 -0.5000848 -0.71809644 -0.46597305 1.1679456 1.4444616 0.79672176
1.2394717 -1.4897019 -0.6132715 -0.7776201 -1.4508678 0.78820163 0.015176073 -0.78483
-0.9930937 -0.46023822 0.0015173123 -0.44291887 -0.5850558 0.37046477 1.3964419 0.68303484
2.2800312 -1.8374599 0.22162907 -0.25818953 0.56537914 -1.2418547 -1.5714471 -0.5684851
2.7622347 0.69653374 0.15429698 -0.3490578 -0.12521693 1.4849602 1.2845011 -0.48717856
0.41075653 -1.4950023 0.82034963 -2.7070665 -0.7581378 0.41086006 1.4390621 -0.302116
0.2951908 -1.9007226 -0.37055072 3.1056533 0.7977603 0.98451203 0.076264456 0.08456068
-0.0060806163 -0.4571853 -0.4785732 -0.96932644 -0.634871 -0.083520204 1.0686357 -1.0584688
00000000: 5d4b d93d 142f 2240 67e7 f1be 6087 cabf
00000010: 5f0d 943f 508b c53e 40cc 00bf 60f6 c43f
00000020: a122 5dbf 1db8 f23e 3257 61be 1e89 01bf
00000030: 8476 d1bf dbc5 323f 3ef6 013f 9568 d83e
00000040: e8df 0340 2674 36bf af7e 613f f945 b93f
00000050: ca0e 48be df01 963f e35d 26bf 309e 0f3f
00000060: f033 82be 629b c3be 502b f33f 2ff2 c03e
00000070: 09af 9bbf cc4c 373f b34a 573f ff23 c1bd
00000080: 82d9 01c0 226b 59bf 3348 81be 19ce 473f
00000090: 086d 50bc d395 233f 00ba 34bf a0b0 9abf
000000a0: 82ce e3bd e42e 973f a637 9f3d a48c ba3f
000000b0: 59fe be3f 119e eebd e7a9 49c0 9982 d3be
000000c0: 88fe 5fbe 20df 13bf b9e9 c63f 6319 053e
000000d0: 9f67 80bf bb61 623f a08c b4bf 9c8e 97bf
000000e0: d769 133f 10ee 84bc 7a54 893d d941 f6bf
000000f0: b661 e4bf b061 fdbe c867 d2bf fdab 083f
00000100: b1de 533f 4df4 313f d824 b5bf 804d f6bf
00000110: d812 28bf b411 6a3f beb5 e93e 622c eb3e
00000120: 9a1f 0ec0 81b5 e13f f677 4abe 9690 57bf
00000130: 2e97 97bf 52fc 6fbf 660e 7bbd 3b21 94bf
00000140: 09ce 413e 7473 833d 261d 2d3f c0ee a1bd
00000150: 05ed 2fbf ff79 c7be 8be0 8bbf 1ee4 4bbe
00000160: 8c63 4abf b1cd 003e ffff efbf f7c7 febe
00000170: 722d d0be 5014 053e df21 9a3f 73fa df3e
00000180: f148 1e3f e5b2 523f fa32 02bf ac41 223f
00000190: 9e27 293f bb2d 74bf ae14 cb3e fdeb 0c40
000001a0: fa54 6b3e 61dc 2dc0 6dbb 2fc0 f703 bb3f
000001b0: c5d0 b6bf fd29 5a3c 9c13 413e 9171 47be
000001c0: a912 ec3d a740 89bf fde5 773e cab3 6b3f
000001d0: 1583 2e3e b464 07c0 a401 f6be 69e8 943f
000001e0: 10ec e9be 9d32 c8be c075 e73e 4f98 91bf
000001f0: 321b 7abf eb24 9cbf ecfc 0540 e5fb 1dbf
00000200: 284b 4f3f c74a 9e3f 672e 1ebe f88c 50bf
00000210: e7e9 3e3f 7676 3a3f 5aa1 99bd 6526 c03c
00000220: 7d86 03be 681f 953e 3162 8b3f a175 813f
00000230: 36a8 723f d8fd f1be 0ea5 a6bf 4af3 f93e
00000240: 430d 17bf 5755 d03e c410 3ebf 2c19 8b3e
00000250: 5710 0b3f 295a 4c3f cb20 f93f 6cf1 15c0
00000260: c059 1f3f cf3b 1b3e bc7a 993f ecd3 5fbe
00000270: a619 f8bf 912b 89be 9d31 3c3f b2b9 933f
00000280: 92f3 873f 9277 233e b494 a7be 10a3 94bf
00000290: 7df3 5fbf 4e9c 0dbf 1520 ab3f 4565 85bf
000002a0: 3af4 173f afbb b83d 92c4 4b3e 5d67 e5bf
000002b0: 1820 813f 2fb5 77bf d28b ec3d deda 10bf
000002c0: 8c9e 04c0 b7d7 193f df22 ef3c 3db9 b03f
000002d0: 77d7 acbf a38a 70bd f7fc 963d af03 38bf
000002e0: 8434 1cbf e3df 0340 adfd 0f3e 3606 123e
000002f0: 5999 023f 3f60 c43e 6778 90be fa59 afbf
00000300: 8ccc ecbd 9df0 223f 8f05 00bf 2bd5 37bf
00000310: 0594 eebe 3e7f 953f 1ee4 b83f f5f5 4b3f
00000320: 02a7 9e3f 8dae bebf 5cff 1cbf 1c12 47bf
00000330: 09b6 b9bf 95c7 493f 10a5 783c 9eea 48bf
00000340: 643b 7ebf 58a4 ebbe 8de0 c63a 43c6 e2be
00000350: 38c6 15bf 8fad bd3e 9cbe b23f 5fdb 2e3f
00000360: 08ec 1140 e331 ebbf bbf2 623e 6b31 84be
00000370: b0bc 103f 18f5 9ebf 2e25 c9bf 3d88 11bf
00000380: 74c8 3040 0950 323f 0700 1e3e b4b7 b2be
00000390: de38 00be 2d13 be3f 886a a43f 786f f9be
000003a0: ae4e d23e 3c5c bfbf 6f02 523f 9440 2dc0
000003b0: 5215 42bf 405c d23e 3033 b83f f3ae 9abe
000003c0: 4023 973e e14a f3bf d3b8 bdbe 06c3 4640
000003d0: 053a 4c3f fb08 7c3f 8a30 9c3d 262e ad3d
000003e0: e83f c7bb 3114 eabe 8c07 f5be c725 78bf
000003f0: e886 22bf a40c abbd 0ec9 883f e87b 87bf

pos_embedding.weight f4 [9, 32]
-1.5925137 0.17400534 -0.9107351 0.26340428 -0.9116642 0.30499163 0.24836953 -1.1425686
2.4305766 -1.1278149 1.7407316 0.33832765 -0.63379586 0.5045945 1.1915551 -1.0404207
-0.08308948 -0.11861767 0.48110172 -0.029586202 -1.1288465 2.2727385 -0.036923382 -0.4305798
-0.037271228 0.48190734 -0.8365186 0.2580918 0.03977589 0.4797639 1.2180662 -0.124867536
0.42649543 -1.3893685 1.5760508 -1.0845126 -0.6567431 -0.036349252 -0.20545597 -1.1506709
1.1159071 0.70623094 1.8877183 -1.364972 -0.39605692 1.811827 0.93751216 0.34423983
-0.38037413 0.79862005 -0.81051457 1.1692151 0.8655869 0.49900776 -0.38220945 0.026716951
0.058301672 0.32748494 0.30375916 0.15421434 -0.8964571 -1.0878735 -0.77061427 -1.735801
-0.46393925 -1.1088469 -0.65829587 -0.8072315 0.5354851 -0.4875338 -1.1346852 -0.3085834
0.20229684 1.0998342 -0.12064684 -0.08770274 -0.39886016 0.81489503 -0.5262344 0.5427983
-0.86869067 0.9036301 0.065559275 -2.3997455 0.45315623 -0.89256376 1.0923643 0.9162621
-0.42469978 0.6135062 0.21624655 -0.029767714 1.116067 -1.6889064 1.283141 -0.30555916
-0.29368192 0.10723622 -1.360975 -0.122912526 1.2743484 -0.49834117 -0.5097556 -0.73953223
0.38608208 0.3906351 -1.5574489 -0.32443935 1.2313766 0.43700105 1.1700995 0.2124017
-1.7955558 -0.43385273 -0.35261264 0.511668 -0.7401093 0.3522548 -0.25459012 -2.0057735
1.0128233 1.1336623 -2.4453626 -1.4406228 1.98952 -1.5644578 -0.68154854 -0.4158542
1.8887323 -0.73452085 -0.28201568 1.9867321 0.92050993 0.06506945 -0.9673204 -0.2138543
-0.48688105 0.080325924 0.7207522 0.07892317 -0.26304528 -1.2699059 0.019717306 0.55556905
-1.8628826 -0.28741962 -1.7760412 0.56719375 0.86495316 0.49765202 0.9889783 1.8540945
0.78774136 -1.4840199 0.92967063 -0.8625246 0.27241403 -0.9259243 -0.74267364 0.43480486
-0.04925421 0.29070884 1.4892222 1.5370536 0.9158983 -1.1731222 -0.1093963 0.6843211
-0.083208404 -0.6691839 -0.5989302 -1.1252494 0.6533498 0.19552684 -1.0795227 0.5383535
0.08217376 -0.2896382 0.41205177 -1.3204938 0.8557981 -1.7604178 1.4172845 0.24491177
0.98626506 -0.57071096 -0.19346017 -0.50725913 -0.3379986 -0.25366858 0.53584814 -1.5032887
1.6489911 1.0616649 0.77050096 -0.13018999 -0.63915265 0.30597404 1.0395205 -2.1368191
-0.23259087 0.31024274 -0.10198455 0.1550829 0.3324334 0.09176804 -1.4338073 -1.1214919
-0.5019321 -0.73785233 -0.73934096 1.5181122 -0.13405779 0.6768074 -0.98399526 -1.6853004
-0.85055184 -0.7431977 1.6352189 -0.21803069 -0.519164 -2.4122984 1.650616 2.125344
1.3037432 -2.8880103 -0.49229872 -0.39973646 -0.9647237 0.12221835 1.338036 1.7595351
-0.57791865 0.6821534 -1.0478475 -0.016925927 1.1798345 -0.78767216 0.57430154 -0.78644866
-1.2837466 0.62074137 1.1872971 0.26319358 -1.441508 0.6286784 0.11911521 -0.21319531
-0.96410644 1.3773682 -0.8866175 1.1000141 -1.1426501 -0.4634784 0.30740952 -0.0027559458
00000000: 7dd7 cbbf 752e 323e ef25 69bf eddc 863e
00000010: d362 69bf dd27 9c3e 9554 7e3e b03f 92bf
00000020: 918e 1b40 3d5c 90bf 4bd0 de3f 4839 ad3e
00000030: 7240 22bf 1b2d 013f e184 983f 812c 85bf
00000040: d12a aabd d2ed f2bd f752 f63e c35e f2bc
00000050: 0b7e 90bf 8c74 1140 f93c 17bd f574 dcbe
00000060: b7a9 18bd 8fbc f63e 1526 56bf 9c24 843e
00000070: 0bec 223d 9da3 f53e 98e9 9b3f 8dba ffbd
00000080: 9c5d da3e d4d6 b1bf 08bc c93f 4fd1 8abf
00000090: 5120 28bf f4e2 14bd 0d63 52be 2f49 93bf
000000a0: 0bd6 8e3f 8dcb 343f c1a0 f13f 67b7 aebf
000000b0: f9c7 cabe f2e9 e73f cc00 703f 3440 b03e
000000c0: 66c0 c2be 5d72 4c3f e27d 4fbf d7a8 953f
000000d0: 1a97 5d3f f27d ff3e f5b0 c3be 82dd da3c
000000e0: bccd 6e3d 1bac a73e 5286 9b3e 5dea 1d3e
000000f0: 367e 65bf 703f 8bbf fa46 45bf ba2e debf
00000100: 7289 edbe b2ee 8dbf 1486 28bf b9a6 4ebf
00000110: 8d15 093f 089e f9be 5d3d 91bf a5fe 9dbe
00000120: e726 4f3e 5ec7 8c3f b115 f7bd 7f9d b3bd
00000130: 6637 ccbe f69c 503f 4cb7 06bf d4f4 0a3f
00000140: 8362 5ebf 4d54 673f f143 863d 6e95 19c0
00000150: 1804 e83e 0f7f 64bf 98d2 8b3f 2790 6a3f
00000160: 4072 d9be be0e 1d3f bc6f 5d3e 6cdb f3bc
00000170: 49db 8e3f 162e d8bf f73d a43f 4072 9cbe
00000180: 7a5d 96be aa9e db3d 6e34 aebf 90b9 fbbd
00000190: d91d a33f 9326 ffbe 587f 02bf fc51 3dbf
000001a0: 8dac c53e 5301 c83e 7c5a c7bf ea1c a6be
000001b0: c09d 9d3f 9abe df3e d2c5 953f d57f 593e
000001c0: c6d4 e5bf f221 debe a589 b4be adfc 023f
000001d0: ce77 3dbf be5a b43e a359 82be 985e 00c0
000001e0: 32a4 813f d91b 913f d280 1cc0 5466 b8bf
000001f0: 97a8 fe3f 2740 c8bf f779 2ebf d7ea d4be
00000200: fbc1 f13f 8f09 3cbf 5c64 90be 3d4d fe3f
00000210: 8aa6 6b3f 2243 853d 4fa2 77bf 9ffc 5abe
00000220: 7948 f9be eb81 a43d 3783 383f 79a2 a13d
00000230: dfad 86be 478c a2bf 3086 a13c c639 0e3f
00000240: f072 eebf aa28 93be 5155 e3bf 9c33 113f
00000250: 926d 5d3f 3fcc fe3e af2d 7d3f f852 ed3f
00000260: 6ba9 493f 5df4 bdbf e5fe 6d3f 6ace 5cbf
00000270: da79 8b3e 6009 6dbf dc1f 3ebf be9e de3e
00000280: c8be 49bd cad7 943e d59e be3f 2cbe c43f
00000290: 5078 6a3f de28 96bf 2b0b e0bd ab2f 2f3f
000002a0: 2b69 aabd a34f 2bbf 7d53 19bf 2c08 90bf
000002b0: ef41 273f 3038 483e cd2d 8abf 89d1 093f
000002c0: b74a a83d 754b 94be 73f8 d23e f105 a9bf
000002d0: 9615 5b3f 5f55 e1bf 9469 b53f 27ca 7a3e
000002e0: de7b 7c3f 1d1a 12bf 6c1a 46be bcdb 01bf
000002f0: 270e adbe d9e0 81be 582d 093f c46b c0bf
00000300: 2412 d33f a3e4 873f 8d3f 453f 8650 05be
00000310: 829f 23bf a1a8 9c3e 020f 853f a5c1 08c0
00000320: 4d2c 6ebe 23d8 9e3e 47dd d0bd 0dce 1e3e
00000330: b634 aa3e e2f0 bb3d ff86 b7bf 0c8d 8fbf
00000340: 9f7e 00bf e4e3 3cbf 7345 3dbf 8051 c23f
00000350: 7246 09be 4043 2d3f 1de7 7bbf ecb7 d7bf
00000360: c4bd 59bf 3442 3ebf da4e d13f 7043 5fbe
00000370: efe7 04bf 1963 1ac0 6347 d33f a305 0840
00000380: 0fe1 a63f 29d5 38c0 940e fcbe 42aa ccbe
00000390: 22f8 76bf 9d4d fa3d c344 ab3f 7238 e13f
000003a0: 7af2 13bf 9ba1 2e3f de1f 86bf 3ea8 8abc
000003b0: d104 973f e2a4 49bf 6d05 133f b354 49bf
000003c0: cf51 a4bf e8e8 1e3f 5af9 973f 4fc1 863e
000003d0: 5683 b8bf 11f1 203f adf2 f33d df4f 5abe
000003e0: aecf 76bf 9a4d b03f 5df9 62bf 43cd 8c3f
000003f0: 5c42 92bf 0a4d edbe c864 9d3e 199d 34bb

attn_layers.0.W_Q f4 [4, 32, 8]
-1.1961128 0.77908736 0.56146824 -0.38395232 -1.7144586 0.41811198 1.4776931 -0.3963514
-0.115099184 -0.31052375 -1.2298832 0.67878604 -2.0711253 1.0640805 0.69291365 0.65017366
0.26864928 -0.500375 -0.08475866 0.24394034 -0.6417206 0.45902854 -0.7665181 1.357997
0.824802 -1.9263003 -0.338932 -1.3262647 -0.528526 1.0290254 -1.9224455 -0.0042403224
0.7835628 0.93381506 0.64848536 0.41734704 0.61081433 0.4718699 0.41262883 1.0431122
0.361906 -1.654072 0.8194676 0.031991057 -1.2128099 -1.1035163 -0.05478194 1.1418102
-0.5461714 -2.1629703 -0.92468303 -0.15214914 -1.6288334 -1.0169505 0.60005033 1.003171
0.024788635 -0.7897258 1.8540542 0.4497142 0.61376625 -0.29048184 -0.5700535 0.06384504
0.32365793 -1.6060963 -1.8698647 -0.85398763 1.3298537 -1.5459507 0.45567364 0.8528945
0.37222308 1.857353 -0.6310604 -1.3837729 0.09549691 -0.89261794 0.9814399 0.27572405
0.5598152 -1.5165689 -0.25350684 -2.2455525 1.1463863 0.2561718 -0.8633349 -2.5856507
0.6788995 0.43061206 -0.98907244 -0.9507298 -0.10489225 1.4631338 0.3542999 -1.0106814
0.30220068 0.921816 -0.4089945 0.46020368 -0.116993815 -1.812671 0.11525615 2.4770052
-1.0691001 0.61862737 -1.1501842 1.7038547 0.11782574 -0.38429406 0.07026672 1.085194
1.2497892 0.98179257 0.27042183 1.0821187 0.74828166 0.2673814 1.2670268 -1.9287375
0.47131023 0.6317729 0.3906276 0.3576189 0.35800508 -2.228917 0.13926749 -0.02639047
-0.33730367 1.184786 -0.59637463 -0.39172173 0.531856 0.7294177 -0.3505873 -0.6766519
0.12597151 -1.2065039 0.32745323 1.5297359 2.1296875 0.3609178 -0.14726275 0.38237643
0.019958034 1.6672843 1.1247356 -0.35045242 0.41167316 -0.7716177 -0.30076706 -0.35390043
-1.414768 0.73252195 0.05765022 -0.9428969 0.27168646 -0.06910497 0.11304583 0.93127775
0.9845707 -0.45897377 1.4328886 0.48862553 0.85902995 -0.1991265 0.9586829 -0.98943526
-1.9910607 -0.099504225 0.30617118 -0.6997395 1.6293068 0.16460212 -0.06675335 -0.6840974
2.4434948 -1.472948 -0.5285546 -0.4574267 0.035965934 0.25062454 -1.3248919 -0.06858139
0.93881506 -0.4627495 -0.7749618 0.5355794 1.1753485 1.9052252 1.5541898 -0.66158706
-0.6025123 -1.4840274 -0.81900567 1.5074406 0.6889346 0.43125558 1.429186 -0.37741753
-0.7109692 -1.3983407 1.6893693 -0.14815272 -0.22004637 -0.51339304 1.1249101 -0.33998224
-0.31575075 0.5173517 -0.22306487 0.31887484 1.506186 -0.44864836 0.56846726 -1.0050126
-0.453103 -0.7227106 -0.5218832 -1.2093182 -0.36892313 -0.31464165 -1.2252251 -0.14722688
-1.310658 -0.44897944 0.67564607 -0.5607253 2.055389 1.8077998 0.41739994 -0.62623453
0.2727671 0.046834085 -0.92485595 1.159445 -0.2451952 0.9978815 -1.598545 -0.41263628
0.34354895 -1.3786284 -1.4536127 -0.50643337 -0.04444256 1.9530134 0.30268028 -1.6443667
-0.25849012 0.24970336 -0.5717227 -0.7484085 0.3876143 -1.1746721 1.1961097 -0.19072646
00000000: 391a 99bf 4572 473f 62bc 0f3f 6695 c4be
00000010: 6173 dbbf c612 d63e 0c25 bd3f 92ee cabe
00000020: 1fb9 ebbd f8fc 9ebe d06c 9dbf ecc4 2d3f
00000030: 518d 04c0 ca33 883f ca62 313f c871 263f
00000040: 668c 893e 9318 00bf f395 adbd 7fcb 793e
00000050: cd47 24bf ca05 eb3e 883a 44bf d8d2 ad3f
00000060: 3926 533f 0291 f6bf 7f88 adbe 0bc3 a9bf
00000070: 7b4d 07bf 1bb7 833f b212 f6bf 67f2 8abb
00000080: 9297 483f 810e 6f3f 2303 263f 83ae d53e
00000090: 545e 1c3f ee98 f13e 1644 d33e b384 853f
000000a0: be4b b93e a2b8 d3bf a1c8 513f 0e09 033d
000000b0: 5b3d 9bbf 0640 8dbf 0763 60bd d626 923f
000000c0: e4d1 0bbf 1b6e 0ac0 07b8 6cbf fccc 1bbe
000000d0: 9d7d d0bf 6f2b 82bf e69c 193f e867 803f
000000e0: 8911 cb3c 782b 4abf a651 ed3f f140 e63e
000000f0: c91f 1d3f 09ba 94be 07ef 11bf 30c1 823d
00000100: 7eb6 a53e 9094 cdbf ba57 efbf ef9e 5abf
00000110: a538 aa3f b6e1 c5bf 0e4e e93e 4b57 5a3f
00000120: 0694 be3e bebd ed3f 2d8d 21bf 781f b1bf
00000130: e293 c33d 9c82 64bf a53f 7b3f b42b 8d3e
00000140: 0d50 0f3f ee1e c2bf a6cb 81be 22b7 0fc0
00000150: c9bc 923f f328 833e 8403 5dbf 4d7b 25c0
00000160: 5ccc 2d3f 2f79 dc3e da33 7dbf 0763 73bf
00000170: bfd1 d6bd f847 bb3f cc66 b53e 025e 81bf
00000180: 0cba 9a3e 22fc 6b3f ba67 d1be d19f eb3e
00000190: 749a efbd 9a05 e8bf 6b0b ec3d 4187 1e40
000001a0: 46d8 88bf 5d5e 1e3f 3c39 93bf e917 da3f
000001b0: 9f4e f13d 31c2 c4be 00e8 8f3d a3e7 8a3f
000001c0: 18f9 9f3f c256 7b3f bb74 8a3e de82 8a3f
000001d0: 638f 3f3f 37e6 883e ef2d a23f dfe0 f6bf
000001e0: 934f f13e debb 213f 5700 c83e d319 b73e
000001f0: 714c b73e 93a6 0ec0 239c 0e3e d430 d8bc
00000200: 11b3 acbe 11a7 973f 02ac 18bf c08f c8be
00000210: b727 083f 1ebb 3a3f 2e80 b3be 0f39 2dbf
00000220: adfe 003e b86e 9abf f3a7 a73e 63ce c33f
00000230: cd4c 0840 38ca b83e 0ccc 16be d8c6 c33e
00000240: 087f a33c 9269 d53f 56f7 8f3f 806e b3be
00000250: d3c6 d23e bd88 45bf 24fe 99be 7032 b5be
00000260: 1e17 b5bf 8f86 3b3f a322 6c3d b161 71bf
00000270: 7d1a 8b3e e886 8dbd 9284 e73d 3868 6e3f
00000280: d30c 7c3f 9cfe eabe e568 b73f 202d fa3e
00000290: 63e9 5b3f d1e7 4bbe 3e6c 753f a14b 7dbf
000002a0: 14db febf dfc8 cbbd 78c2 9c3e 2122 33bf
000002b0: 208d d03f 758d 283e fbb5 88bd 0221 2fbf
000002c0: 3862 1c40 8f89 bcbf 5b4f 07bf d533 eabe
000002d0: 0451 133d dc51 803e 0f96 a9bf 6674 8cbd
000002e0: 2f56 703f 81ed ecbe e663 46bf bb1b 093f
000002f0: d271 963f 6bde f33f b1ef c63f c55d 29bf
00000300: 3f3e 1abf 9cf4 bdbf 5baa 51bf d0f3 c03f
00000310: 055e 303f 88cd dc3e 91ef b63f df3c c1be
00000320: 1402 36bf d4fc b2bf 413d d83f 59b5 17be
00000330: d653 61be ba6d 03bf 0efd 8f3f 2712 aebe
00000340: 15aa a1be 2971 043f 1e6b 64be 9043 a33e
00000350: b4ca c03f 3db5 e5be 1287 113f 41a4 80bf
00000360: 1efd e7be 9003 39bf 239a 05bf f0ca 9abf
00000370: 7ee3 bcbe b618 a1be 2dd4 9cbf a5c2 16be
00000380: a4c3 a7bf a2e0 e5be 24f7 2c3f b18b 0fbf
00000390: 7e8b 0340 fc65 e73f 72b5 d53e e850 20bf
000003a0: 21a8 8b3e 19d5 3f3d 5cc3 6cbf b268 943f
000003b0: 7314 7bbe 2975 7f3f 1f9d ccbf 1045 d3be
000003c0: a6e5 af3e e576 b0bf fb0f babf 9ea5 01bf
000003d0: 6709 36bd 58fc f93f e9f8 9a3e 9c7a d2bf
000003e0: d158 84be 3db2 7f3e 6b5c 12bf b397 3fbf
000003f0: 6275 c63e a85b 96bf 1f1a 993f cc4d 43be

attn_layers.0.b_Q f4 [4, 8]
-0.255696 -0.06074099 0.251433 -0.008111984 -0.055381745 0.021822562 -0.036753356 0.00889843
-0.07134566 0.096877865 -0.05304 0.08456065 -0.13343044 0.112816334 -0.106214575 -0.059687234
0.02447129 0.04734077 -0.086623654 0.028134046 -0.012657972 -0.09794269 -0.006278303 0.016332943
0.065880716 0.01021302 0.01966318 -0.063021936 -0.07891302 0.0029605622 -0.054331854 0.0029741372
00000000: 96ea 82be 8bcb 78bd d4bb 803e 20e8 04bc
00000010: f8d7 62bd 3bc5 b23c b08a 16bd b8ca 113c
00000020: ac1d 92bd e767 c63d 7940 59bd 222e ad3d
00000030: fda1 08be 400c e73d 0787 d9bd 9a7a 74bd
00000040: 0478 c83c 65e8 413d be67 b1bd 5f79 e63c
00000050: 6263 4fbc 2d96 c8bd 39ba cdbb aacc 853c
00000060: 78ec 863d 8354 273c ad14 a13c a511 81bd
00000070: 269d a1bd fe05 423b 148b 5ebd bee9 423b

attn_layers.0.W_K f4 [4, 32, 8]
-1.3959805 -0.7297319 0.9022381 -0.4393132 0.5599664 0.93220824 -0.44931686 -1.7803348
-0.6584646 -0.67260367 -0.65164196 -1.8000935 1.3284862 0.97375524 0.8086874 -0.9941868
0.64908713 -1.4725045 -0.21421814 0.32570884 -0.102220014 1.2602538 0.5008056 0.7915501
-0.5095341 0.80372 0.89314187 0.20084763 0.36025906 0.26157343 -0.80463904 -0.42036563
0.8673132 -1.0040157 1.557949 -0.5488539 1.8242044 -1.523294 0.48391056 -0.102772206
-1.8122844 -1.4024748 1.2169125 -1.1227753 0.6570728 1.0054096 -0.25019294 0.7180045
-0.74150527 0.124186784 0.15892212 0.7891765 -2.1209164 -0.8677908 -0.66802293 0.46318012
0.1700451 0.114230566 0.07453351 -0.19913457 0.045558333 2.3654153 0.04065646 -0.6850144
1.9152732 -1.3295132 -0.60304326 -1.0484611 -0.04187682 0.58610296 -0.17029363 0.51027817
0.36754203 0.76763797 1.3890198 -0.2630346 -0.033189755 0.5714301 -1.6331141 -2.3528328
0.4332697 -1.0122194 -0.13908753 3.5881295 -0.23415548 0.93990123 -1.3290607 1.0697794
-0.7053046 0.25416267 0.020736586 -0.802599 -1.0953062 -2.4889596 -0.38367712 -1.5585592
1.2747427 -0.13519117 1.6772166 -0.38819045 -1.7086695 0.38715836 -0.3619862 0.8811873
-0.5668881 -0.3754705 0.01358006 0.5727204 0.68675643 1.1925737 -0.8415224 0.6530816
0.14758655 1.4800427 1.4846989 1.0980761 1.7159048 0.8960217 0.038606174 2.4170709
-1.1367489 2.0814748 0.8527676 -1.0680236 1.4238056 -0.5475621 0.9258336 1.4922765
-0.49143165 0.9907378 1.0919299 0.2890784 0.7372176 -1.0122516 1.7711979 -1.3813051
-0.21027078 -0.02701392 0.26095334 -1.5594158 1.9273373 0.16816294 -0.48453352 -0.57499224
0.83758247 -0.27486444 0.09324979 -0.40258533 0.12934491 -1.8088821 -0.86891836 0.13544488
-1.0246812 -0.5028071 0.696579 -1.0257876 1.1662736 -0.42484397 1.805931 0.48485106
0.61768156 -0.49341685 -0.03633995 0.10677539 1.2610223 0.57340676 1.9354467 -0.55020773
-1.8429432 -0.29215539 0.1258263 -0.47161075 -0.8973876 0.9635117 -0.27470288 -0.22095957
0.1388423 0.015687658 -0.9868273 0.4366083 2.0316362 -1.2613692 -1.9122251 -0.8072697
0.9297408 0.5176677 -0.87175065 -0.32724944 1.7812252 1.40534 0.14510074 -1.2984406
2.6031957 -0.6449384 1.4388558 -1.2650187 -0.1887592 -1.2834133 0.122523904 0.95785546
1.7284514 1.0502684 0.5956132 1.6179607 0.1827757 0.4978823 -0.5044918 -0.8231619
1.2877395 1.1643494 -0.3718647 0.8846602 -0.3265212 1.7500303 1.3980536 0.8756463
0.009171664 0.9007705 -2.5978286 1.6630064 0.4090565 0.4565958 -0.27423033 0.87405187
-0.99969697 0.42996535 -0.9418799 -1.1259847 1.1589671 -1.5238842 -1.8761858 -1.3273472
-0.7197329 -0.41256508 -0.7765645 0.20791672 0.02159396 1.2664113 -0.0033872142 2.8299708
0.09583976 -1.0307056 0.2041499 1.5276692 -0.9590679 1.3860863 -0.65475225 -0.13615286
0.7075414 0.44795942 -0.19825333 0.4330402 -1.2157478 -0.71621794 -0.021199781 -0.80501264
00000000: 7daf b2bf b6cf 3abf 13f9 663f a9ed e0be
00000010: f559 0f3f 33a5 6e3f dc0c e6be 03e2 e3bf
00000020: 2391 28bf c12f 2cbf 02d2 26bf 7769 e6bf
00000030: d60b aa3f 0648 793f 2306 4f3f 0783 7ebf
00000040: 932a 263f 077b bcbf 005c 5bbe 4fc3 a63e
00000050: ba58 d1bd ff4f a13f cc34 003f 07a3 4a3f
00000060: d470 02bf 98c0 4d3f f2a4 643f 00ab 4d3e
00000070: e073 b83e f4ec 853e d3fc 4dbf 2a3a d7be
00000080: 3d08 5e3f 9683 80bf df6a c73f b081 0cbf
00000090: 887f e93f 4cfb c2bf 20c3 f73e 3c7a d2bd
000000a0: eff8 e7bf 4b84 b3bf cac3 9b3f 1ab7 8fbf
000000b0: ec35 283f 43b1 803f 4a19 80be 25cf 373f
000000c0: 4ad3 3dbf a455 fe3d 7bbc 223e 7907 4a3f
000000d0: 18bd 07c0 8a27 5ebf 8d03 2bbf f225 ed3e
000000e0: 4d20 2e3e b7f1 e93d 06a5 983d efe9 4bbe
000000f0: 609b 3a3d f762 1740 6387 263d 1b5d 2fbf
00000100: ac27 f53f 7d2d aabf 0b61 1abf f933 86bf
00000110: 0787 2bbd d80a 163f 7461 2ebe 97a1 023f
00000120: 782e bc3e ec83 443f 67cb b13f 79ac 86be
00000130: fbf1 07bd 3e49 123f e209 d1bf d094 16c0
00000140: 87d5 dd3e 6890 81bf f66c 0ebe eaa3 6540
00000150: 74c6 6fbe 5e9d 703f a91e aabf 88ee 883f
00000160: d88e 34bf 9c21 823e c6df a93c 2177 4dbf
00000170: fe32 8cbf 1d4b 1fc0 5471 c4be de7e c7bf
00000180: c52a a33f 8e6f 0abe 09af d63f e6c0 c6be
00000190: afb5 dabf 9f39 c63e 4156 b9be 7e95 613f
000001a0: 941f 11bf ab3d c0be e67e 5e3c ce9d 123f
000001b0: 45cf 2f3f 41a6 983f 036e 57bf 5b30 273f
000001c0: ee20 173e 0a72 bd3f 9d0a be3f c28d 8c3f
000001d0: c5a2 db3f ae61 653f 8221 1e3d 4ab1 1a40
000001e0: fd80 91bf e236 0540 fa4e 5a3f ffb4 88bf
000001f0: 433f b63f 082d 0cbf 6e03 6d3f eb02 bf3f
00000200: ee9c fbbe fea0 7d3f 5cc4 8b3f 1602 943e
00000210: 4bba 3c3f 7691 81bf 9db6 e23f 9bce b0bf
00000220: 3951 57be 4c4c ddbc ad9b 853e f09a c7bf
00000230: fdb2 f63f e832 2c3e c714 f8be b132 13bf
00000240: ce6b 563f 08bb 8cbe bff9 be3d aa1f cebe
00000250: fe72 043e 7389 e7bf 6f71 5ebf 10b2 0a3e
00000260: c128 83bf f7b7 00bf 0053 323f 024d 83bf
00000270: 7448 953f 2685 d9be bf28 e73f 663e f83e
00000280: 6120 1e3f 22a1 fcbe 33d9 14bd 0ead da3d
00000290: 2e69 a13f c9ca 123f b8bc f73f 6ada 0cbf
000002a0: 90e5 ebbf 6495 95be 9cd8 003e f776 f1be
000002b0: 32bb 65bf b4a8 763f dba5 8cbe 3a43 62be
000002c0: ad2c 0e3e 6783 803c b7a0 7cbf 208b df3e
000002d0: 5406 0240 8c74 a1bf cbc3 f4bf 3aa9 4ebf
000002e0: 7e03 6e3f df85 043f 0d2b 5fbf 3d8d a7be
000002f0: 30ff e33f 2ee2 b33f 4a95 143e 4d33 a6bf
00000300: c29a 2640 af1a 25bf 6d2c b83f 22ec a1bf
00000310: 174a 41be e346 a4bf d0ed fa3d 0436 753f
00000320: e53d dd3f 326f 863f 1b7a 183f 5619 cf3f
00000330: 8e29 3b3e 6eea fe3e 6026 01bf bdba 52bf
00000340: a6d4 a43f 6709 953f 0d65 bebe 1779 623f
00000350: c92d a7be fe00 e03f 6cf3 b23f 5b2a 603f
00000360: bf44 163c e598 663f d342 26c0 65dd d43f
00000370: db6f d13e edc6 e93e eb67 8cbe ddc1 5f3f
00000380: 24ec 7fbf 6b24 dc3e 0b1f 71bf 4420 90bf
00000390: 0959 943f a30e c3bf db26 f0bf 83e6 a9bf
000003a0: 6a40 38bf bb3b d3be eecc 46bf 1fe8 543e
000003b0: d1e5 b03c c419 a23f 06fc 5dbb 3e1e 3540
000003c0: a347 c43d 29ee 83bf ac0c 513e aa8a c33f
000003d0: 7985 75bf 476b b13f d89d 27bf a86b 0bbe
000003e0: 6f21 353f f05a e53e ec02 4bbe 72b7 dd3e
000003f0: a09d 9bbf 0f5a 37bf 2aab adbc 4f15 4ebf

attn_layers.0.b_K f4 [4, 8]
-0.044691805 0.018390404 -0.038207695 -0.039356496 -0.016898576 -0.034514043 0.027039303 0.022278814
-0.03707891 -0.009033995 -0.026570622 -0.011268905 -0.007650627 0.01219307 -0.0689179 -0.008665832
-0.007758751 0.020128759 -0.0006550602 -0.00708168 0.025281431 -0.010936207 0.0015897771 0.009079487
0.00807004 -0.061707154 0.036433987 0.022641893 0.0006330324 0.014980045 -0.006144989 0.018735383
00000000: c10e 37bd 79a7 963c ac7f 1cbd 4734 21bd
00000010: e26e 8abc 995e 0dbd 8781 dd3c 0f82 b63c
00000020: 0ee0 17bd 5203 14bc a2aa d9bc 37a1 38bc
00000030: 1cb2 fabb 71c5 473c d424 8dbd 22fb 0dbc
00000040: 1f3d febb 11e5 a43c 59b8 2bba 700d e8bb
00000050: 011b cf3c c72d 33bc 1160 d03a 21c2 143c
00000060: 3338 043c a4c0 7cbd ce3b 153d 7e7b b93c
00000070: 16f2 253a dd6e 753c e75b c9bb f27a 993c

attn_layers.0.W_V f4 [4, 32, 8]
0.48988983 0.33426112 1.7167959 0.060859807 0.24099785 -0.12297306 -0.29400417 0.010491795
-0.6535646 0.44537398 -0.8599282 -0.51255 1.7436424 -0.44971785 1.0007391 0.11669359
0.9278597 -0.07630715 -0.5785188 -1.62956 -0.9134682 0.49870902 0.48232615 0.4042926
1.2192906 -1.518228 0.044620454 -1.0596217 1.9149034 0.56634164 -0.8965944 -1.5433794
-0.15295666 -0.33484864 -0.82717544 -0.8785878 0.23611577 0.5838239 0.16559477 2.1678507
0.048719816 0.044280197 -0.95074356 -0.044463407 0.38097793 -1.0013757 0.90970993 2.9478061
0.2665836 -0.008629309 -0.5078437 -0.64972395 -0.3722002 0.7643478 -0.37142462 0.4670031
0.20783651 0.9658302 -0.84649706 0.86739635 -0.88858956 -0.097401574 1.02087 -0.59285223
-0.25700867 0.8712583 0.3088215 -0.038351938 0.84984386 -1.4100686 -0.41042745 -0.16301972
0.6004583 -0.13550803 -1.0310005 -0.32697126 0.42703292 0.07986228 -0.043038458 -0.074355654
2.010131 0.8517835 1.1972446 0.54843086 -1.2076844 -1.7068449 0.4283583 1.0268207
-1.2266945 0.8727001 -0.22830501 -0.7875437 -0.52366185 0.96339315 -1.0519195 0.07417132
-0.8617934 1.340008 -1.1180234 0.26791346 0.43689495 -0.21495548 1.2405733 1.2498013
-2.1213064 -0.5863421 -0.21365646 -0.23365395 0.17426786 1.9892422 1.293123 -0.2679828
-0.52405655 0.94930834 2.2068508 1.4239345 1.3701041 -0.9482838 0.57577175 -0.85915756
0.7651953 0.25422752 -0.96375227 0.34104884 0.52883446 -0.3330263 0.61305636 0.6761813
-0.0189936 -0.19360048 -0.2137778 2.1708186 0.42855567 0.5528859 -0.91227525 0.59212077
0.40165892 0.4170709 1.1206827 -0.60483897 -0.06878349 0.31133336 -0.31761822 -0.49882928
2.2065723 0.7172417 -0.14261658 -1.683499 0.44126102 -0.5728365 0.81685024 -0.75754124
-1.1731791 -0.41524076 -1.5892096 -0.8834985 -0.65728724 -0.22477484 -0.038863927 -0.5955075
-0.4172231 0.3918455 -1.3116448 -0.49044073 -0.816556 -1.2037219 -0.21988608 1.147421
-0.3978562 0.3551878 0.9023131 0.47788617 0.94748384 -0.3567834 -0.53267884 0.6250893
0.31755698 0.37663814 0.8970715 -0.118348315 -1.3556284 0.7335742 -0.26324922 -0.45922416
-0.57928437 -0.42463157 -1.7186415 0.15803242 0.53736335 1.0819988 -0.36615148 -0.5996796
-0.44148386 -0.23238474 -0.55448985 1.3358514 -1.3056155 -0.5352576 -0.08847313 1.4219604
0.22312927 -1.4223489 1.1582676 0.8387563 -1.400393 -0.31763235 -1.1717347 0.5766262
0.90307266 1.1357597 -1.7012227 -0.29149607 -0.8178216 -0.17930087 -0.34022763 -0.17580459
-0.3300197 -0.53535765 0.9296964 1.2243645 -0.7647425 0.6817449 -1.4118637 -0.4759365
0.6100291 0.5072768 0.6945455 -0.38655233 -0.4603672 0.062129725 1.8211707 2.1549404
-0.53507805 -0.03741264 -0.197301 -0.4018993 -1.1381038 0.18333332 1.1130769 -0.82380813
-1.6152884 1.0609354 -1.021807 0.8524763 0.42908722 -0.2017994 -0.7642331 1.346188
-0.69213 -0.30591744 -0.50002056 0.27421772 -1.0105882 1.2028459 0.34185764 -0.9291854
00000000: d7d2 fa3e 4624 ab3e f8bf db3f 2248 793d
00000010: 24c8 763e 4dd9 fbbd b787 96be c7e5 2b3c
00000020: 0250 27bf 0f08 e43e 4124 5cbf 7a36 03bf
00000030: ad2f df3f 6b41 e6be 3818 803f 0dfd ee3d
00000040: 3788 6d3f ec46 9cbd cf19 14bf 6c95 d0bf
00000050: 0dd9 69bf ca56 ff3e 74f3 f63e 71ff ce3e
00000060: b711 9c3f 4c55 c2bf f0c3 363d afa1 87bf
00000070: 8e1b f53f c4fb 103f 3687 65bf 758d c5bf
00000080: aca0 1cbe 4871 abbe c5c1 53bf 21eb 60bf
00000090: 55c8 713e 7c75 153f ad91 293e 11be 0a40
000000a0: 6e8e 473d 275f 353d ee63 73bf 431f 36bd
000000b0: 8a0f c33e 142d 80bf c0e2 683f dba8 3c40
000000c0: a57d 883e f261 0dbc 0b02 02bf 4f54 26bf
000000d0: 0691 bebe 4cac 433f 5e2b bebe 081b ef3e
000000e0: 18d3 543e a640 773f 08b4 58bf b00d 5e3f
000000f0: 9b7a 63bf 7a7a c7bd deab 823f 2ac5 17bf
00000100: a496 83be c90a 5f3f da1d 9e3e ec16 1dbd
00000110: 5e8f 593f 217d b4bf 8c23 d2be a4ee 26be
00000120: a3b7 193f 9ec2 0abe d3f7 83bf c768 a7be
00000130: 0fa4 da3e d68e a33d 1849 30bd c747 98bd
00000140: fca5 0040 7c0e 5a3f 503f 993f f765 0c3f
00000150: 6795 9abf e579 dabf c751 db3e dc6e 833f
00000160: 5304 9dbf 4669 5f3f cac8 69be 779c 49bf
00000170: b40e 06bf efa0 763f 4ca5 86bf 22e7 973d
00000180: 7e9e 5cbf 6285 ab3f 641b 8fbf f42b 893e
00000190: b2b0 df3e 4a1d 5cbe 1bcb 9e3f 7df9 9f3f
000001a0: 7cc3 07c0 841a 16bf c2c8 5abe fb42 6fbe
000001b0: 4673 323e 7d9f fe3f 0e85 a53f 0b35 89be
000001c0: 9228 06bf df05 733f 0b3d 0d40 7c43 b63f
000001d0: 925f af3f bac2 72bf c765 133f c0f1 5bbf
000001e0: d7e3 433f 1c2a 823e 78b8 76bf f49d ae3e
000001f0: b261 073f 6c82 aabe 43f1 1c3f 381a 2d3f
00000200: 7798 9bbc 343f 46be 91e8 5abe b1ee 0a40
00000210: a66b db3e ee89 0d3f df8a 69bf 3a95 173f
00000220: 3da6 cd3e 518a d53e 8872 8f3f bad6 1abf
00000230: 5cde 8cbd 1667 9f3e db9e a2be 8d66 ffbe
00000240: 7b38 0d40 279d 373f 150a 12be e57c d7bf
00000250: f7ec e13e 6aa5 12bf 191d 513f 39ee 41bf
00000260: bc2a 96bf 709a d4be 386b cbbf f52c 62bf
00000270: fa43 28bf 602b 66be c82f 1fbd 2e73 18bf
00000280: 449e d5be f99f c83e fae3 a7bf 0c1b fbbe
00000290: d009 51bf 8f13 9abf d129 61be b1de 923f
000002a0: cfb3 cbbe 2ddb b53e fefd 663f 7fad f43e
000002b0: 4d8e 723f 50ac b6be a45d 08bf da05 203f
000002c0: d496 a23e b7d6 c03e 7aa6 653f 9a60 f2bd
000002d0: 3b85 adbf 85cb 3b3f 9ac8 86be 6e1f ebbe
000002e0: fb4b 14bf 4f69 d9be 72fc dbbf 40d3 213e
000002f0: a590 093f f07e 8a3f 3578 bbbe 9a84 19bf
00000300: 2c0a e2be 44f6 6dbe 0cf3 0dbf 2efd aa3f
00000310: 691e a7bf a406 09bf 6631 b5bd cc02 b63f
00000320: 007c 643e 870f b6bf 1d42 943f bcb8 563f
00000330: 1440 b3bf b5a0 a2be 67fb 95bf c69d 133f
00000340: c52f 673f 9360 913f aac1 d9bf f93e 95be
00000350: c25c 51bf a69a 37be 5132 aebe 1e06 34be
00000360: 58f8 a8be 330d 09bf 9500 6e3f fab7 9c3f
00000370: 2ac6 43bf d586 2e3f f3b7 b4bf f3ad f3be
00000380: de2a 1c3f e4dc 013f bccd 313f 30ea c5be
00000390: 40b5 ebbe bd7b 7e3d 1f1c e93f 8bea 0940
000003a0: e0fa 08bf ff3d 19bd 4609 4abe bfc5 cdbe
000003b0: 63ad 91bf bbbb 3b3e 4e79 8e3f 17e5 52bf
000003c0: c5c1 cebf bbcc 873f 92ca 82bf e33b 5a3f
000003d0: 52b1 db3e 80a4 4ebe c8a4 43bf e34f ac3f
000003e0: 6f2f 31bf 36a1 9cbe 5901 00bf 4466 8c3e
000003f0: f45a 81bf dbf6 993f f707 af3e 18df 6dbf

attn_layers.0.b_V f4 [4, 8]
-0.72378343 -0.058867205 0.3019492 -0.37159276 0.011768784 0.17355199 0.23292772 -0.08932223
-0.38896298 0.35866576 -0.42703497 0.15977725 0.1476704 -0.10593932 0.29540908 0.28275484
-0.31030768 -0.17065206 0.098622225 -0.3199426 0.21240455 -0.31528902 -0.06679076 0.14991169
-0.043019943 -0.14446478 -0.11407194 0.13949798 -0.4142908 0.08094681 -0.009267214 -0.23470648
00000000: df49 39bf bd1e 71bd 1699 9a3e 6841 bebe
00000010: dcd1 403c 9db7 313e 9b84 6e3e 93ee b6bd
00000020: 2826 c7be 0aa3 b73e 54a4 dabe a69c 233e
00000030: e936 173e b7f6 d8bd dc3f 973e 3ec5 903e
00000040: a6e0 9ebe 6abf 2ebe 73fa c93d 84cf a3be
00000050: 9480 593e 906d a1be 98c9 88bd 7382 193e
00000060: ae35 30bd 93ee 13be 8d9e e9bd 8fd8 0e3e
00000070: ec1d d4be 71c7 a53d 83d5 17bc e556 70be

attn_layers.0.W_O f4 [4, 8, 32]
0.3304626 -1.0924671 1.0902028 0.39054057 1.017468 -0.41002223 0.77019185 1.2857456
0.121952675 0.044394784 -0.36509243 -1.0071634 0.4606958 -0.67779267 -0.7470637 0.4171569
0.6186616 -0.9044718 -0.21488197 -1.0355917 0.060664427 0.98457474 -0.85140383 0.75266385
-0.7520181 -0.7926508 -1.9790778 0.038551826 0.9079218 0.90542257 -1.2609771 -1.9067913
-0.03306298 -0.3190998 -0.6395005 0.70508724 0.4991681 -1.7662628 1.5430485 -0.34808975
0.65804034 0.84005135 0.8036954 -0.16183376 -1.76968 0.4042978 0.82684994 0.241079
1.6775767 -0.99188143 -0.037871126 0.33649418 1.4698032 1.574538 1.7150557 0.35668445
0.8676797 0.04093378 0.7451898 1.3107587 0.26848736 0.35724318 1.2368155 -1.9357905
0.20226029 0.09719921 -1.2448239 0.34183398 0.13035405 0.21171577 -1.0895125 -0.72702783
1.0965238 2.6056738 0.5728554 0.9682558 -1.8729461 0.2449956 -0.46117535 0.6185187
0.3749538 -0.36934286 -0.16636315 0.62356526 0.43384773 -1.3438196 -0.7840633 2.019524
-1.1074889 -0.6033004 0.6289023 -1.2483807 1.0589944 -0.7629214 -0.13187405 0.10817352
-0.8188126 -0.00332948 0.29734245 -0.20803589 1.0956687 -0.23963292 0.8569084 0.75576407
-1.1365238 0.04287145 1.2864723 -0.02970378 0.39716983 0.80247897 0.10991022 1.4637227
-0.4046899 0.078842185 0.37845543 -0.57468 0.056946047 2.2542293 -0.9765043 1.0406322
-0.48299348 -0.42854577 0.00505956 0.2490511 -0.48870063 0.5453863 0.11632508 -0.46610346
-0.36672947 0.4917629 -0.9087091 0.21860717 -0.8770369 -0.5853291 1.2816674 0.56102043
0.47908068 0.13416468 -0.8176118 -1.1825787 -2.1346784 1.720997 -0.09271575 0.5871477
-1.2220627 -1.0967815 0.602489 -0.5566682 -0.3045051 0.056466997 -0.5473224 0.058591153
0.15561661 -0.24231905 -0.47465155 1.0498785 0.07945304 -0.91471773 1.3187375 -1.084213
0.05248768 0.54080945 -0.57272184 0.12070426 -0.9922452 0.6392859 0.59588504 1.944302
0.7706196 2.0011816 0.25648797 -1.9328011 -0.5526723 0.7269798 -0.8896587 -0.19855891
0.055153746 -1.5489061 -0.4696191 1.2230331 0.19799203 -0.019382173 -0.50993216 0.36559832
0.4776718 -0.0933972 -0.9224585 -0.47797516 1.617446 0.4862981 0.09435897 0.022681406
-1.7812741 0.53801024 -0.44531858 -1.5092614 0.064793676 -0.5656133 -1.7160832 1.650378
-0.18945578 -0.2604915 -0.6238996 -1.2558814 -0.897833 -0.29472512 -0.56541884 -1.180931
1.1926893 -0.5716392 1.5108432 -1.9860594 0.35235405 0.8818218 1.140904 1.5655521
1.6115597 -0.98246926 -0.7462026 0.008904584 1.7023442 0.6830026 0.038845044 0.6198407
-0.4690631 1.01813 -1.0683872 -0.10108307 0.38043544 -1.007796 -0.6165076 1.2717352
-0.6172088 1.2532752 0.31583968 0.7326046 -1.9307626 -0.74186754 0.6305839 0.24219373
0.024854308 0.92393816 1.8078562 0.0967021 1.6460506 -1.3846459 0.76525 0.0103123365
-0.48558816 -0.31081107 -0.480961 0.88258415 -2.3097236 -0.5998801 0.78010285 -0.41599447
00000000: 6532 a93e f6d5 8bbf c48b 8b3f eff4 c73e
00000010: 643c 823f 6fee d1be 4b2b 453f 5093 a43f
00000020: 53c2 f93d 4ed7 353d 65ed babe bbea 80bf
00000030: 52e0 eb3e d283 2dbf 913f 3fbf 9795 d53e
00000040: 9b60 1e3f 778b 67bf 050a 5cbe 458e 84bf
00000050: 437b 783d 170d 7c3f 9af5 59bf 94ae 403f
00000060: 4284 40bf 2aeb 4abf 6c52 fdbf 85e8 1d3d
00000070: 906d 683f c6c9 673f b367 a1bf bd11 f4bf
00000080: 0c6d 07bd 0d61 a3be 4eb6 23bf 9980 343f
00000090: f692 ff3e e614 e2bf 9d82 c53f d238 b2be
000000a0: 5575 283f 9b0d 573f fbbe 4d3f c0b7 25be
000000b0: e084 e2bf 1f00 cf3e 70ac 533f 6add 763e
000000c0: d5ba d63f f1eb 7dbf c11e 1bbd f748 ac3e
000000d0: 8322 bc3f 768a c93f f286 db3f 589f b63e
000000e0: 4220 5e3f 2eaa 273d c2c4 3e3f f1c6 a73f
000000f0: 2d77 893e 94e8 b63e f84f 9e3f fcc7 f7bf
00000100: 521d 4f3e 6110 c73d 6456 9fbf dd04 af3e
00000110: 887b 053e 05cc 583e 2575 8bbf 7f1e 3abf
00000120: e45a 8c3f 5cc3 2640 a7a6 123f 9ddf 773f
00000130: b3bc efbf 20e0 7a3e 2d1f ecbe 3e57 1e3f
00000140: f2f9 bf3e 821a bdbe 1a5b 2abe f9a1 1f3f
00000150: 4a21 de3e 4802 acbf 5fb8 48bf e23f 0140
00000160: 32c2 8dbf e571 1abf beff 203f f0ca 9fbf
00000170: 218d 873f d14e 43bf fe09 07be 148a dd3d
00000180: b49d 51bf 6833 5abb 453d 983e 5c07 55be
00000190: df3e 8c3f 5562 75be 595e 5b3f c179 413f
000001a0: 9d79 91bf f999 2f3d 20ab a43f 5755 f3bc
000001b0: d859 cb3e 436f 4d3f 9c18 e13d 445b bb3f
000001c0: 8433 cfbe 0378 a13d e9c4 c13e 3a1e 13bf
000001d0: 4240 693d 4b45 1040 30fc 79bf 7033 853f
000001e0: ec4a f7be 5a6a dbbe aaca a53b 4007 7f3e
000001f0: f836 fabe 709e 0b3f d83b ee3d 1da5 eebe
00000200: f7c3 bbbe 59c8 fb3e 29a1 68bf 8fda 5f3e
00000210: 7e85 60bf 21d8 15bf ad0d a43f 099f 0f3f
00000220: 104a f53e 7762 093e 024f 51bf bd5e 97bf
00000230: 929e 08c0 a149 dc3f c1e1 bdbd 504f 163f
00000240: 8d6c 9cbf 5663 8cbf b83c 1a3f cf81 0ebf
00000250: 18e8 9bbe f049 673d 521d 0cbf 47fd 6f3d
00000260: f659 1f3e 7c22 78be 8705 f3be 6b62 863f
00000270: 47b8 a23d f12a 6abf 64cc a83f 7ec7 8abf
00000280: 52fd 563d 7d72 0a3f e69d 12bf cc33 f73d
00000290: c803 7ebf 3ea8 233f ec8b 183f e3de f83f
000002a0: 5347 453f 5c13 0040 6452 833e 0766 f7bf
000002b0: ef7b 0dbf 591b 3a3f acc0 63bf 0753 4bbe
000002c0: e5e8 613d 8e42 c6bf ea71 f0be 598c 9c3f
000002d0: 6cbe 4a3e 5dc7 9ebc ea8a 02bf b42f bb3e
000002e0: 6691 f43e 0847 bfbd 3e26 6cbf 29b9 f4be
000002f0: 7808 cf3f 11fc f83e 473f c13d 5bce b93c
00000300: ca00 e4bf 0abb 093f cc00 e4be 7a2f c1bf
00000310: 8cb2 843d 09cc 10bf 9da8 dbbf 963f d33f
00000320: b200 42be 245f 85be e2b7 1fbf b9c0 a0bf
00000330: 62d8 65bf 36e6 96be 4abf 10bf bf28 97bf
00000340: 0baa 983f f256 12bf 4f63 c13f 3237 febf
00000350: c067 b43e 13bf 613f 2409 923f 0364 c83f
00000360: 9747 ce3f 1b83 7bbf 2207 3fbf 88e4 113c
00000370: 6ae6 d93f 42d9 2e3f fb1b 1f3d e1ad 1e3f
00000380: 0a29 f0be 1552 823f e9c0 88bf a404 cfbd
00000390: 6fc8 c23e 76ff 80bf 71d3 1dbf 38c8 a23f
000003a0: 6501 1ebf 526b a03f bdb5 a13e fa8b 3b3f
000003b0: 3b23 f7bf 08eb 3dbf f26d 213f a201 783e
000003c0: 439b cb3c 3687 6c3f d567 e73f c00b c63d
000003d0: c9b1 d23f 143c b1bf 6de7 433f 13f5 283c
000003e0: 039f f8be a122 9fbe 8540 f6be 09f1 613f
000003f0: 83d2 13c0 be91 19bf d2b4 473f 3afd d4be

attn_layers.0.b_O f4 [32]
-0.30988342 0.22708128 -0.19137672 0.15412591 -0.22898005 0.23379984 -0.22266467 0.043916363
0.09843518 -0.28827584 -0.23897631 -0.29948068 -0.28750712 0.19633055 -0.061571978 -0.170772
0.14515117 -0.26785803 0.049263608 0.16569746 0.017206984 -0.038313225 0.2572768 -0.0018289448
-0.24552485 0.29353246 0.38690293 -0.25435925 -0.23206277 -0.39409167 -0.28252786 0.19339332
00000000: 0aa9 9ebe ff87 683e 42f8 43be 2fd3 1d3e
00000010: bf79 6abe 3a69 6f3e 3502 64be a5e1 333d
00000020: 6298 c93d e498 93be 35b6 74be 8855 99be
00000030: 2234 93be e00a 493e e632 7cbd dbde 2ebe
00000040: 82a2 143e b024 89be a3c8 493d 98ac 293e
00000050: a9f5 8c3c 54ee 1cbd c9b9 833e 34b9 efba
00000060: de6a 7bbe e349 963e 2418 c63e 603b 82be
00000070: dda1 6dbe 62c6 c9be 7ea7 90be e608 463e

unembedding.weight f4 [88, 32]
-0.015891237 -0.086068444 0.13108289 -0.12353223 -0.03204579 -0.03591343 -0.022551898 0.073793136
-0.0037608445 -0.10149565 0.07065422 0.13284713 -0.10561596 0.052569475 0.021068554 0.06941079
0.31299734 0.045533717 -0.14140616 0.33438268 -0.023909291 0.051778417 0.27951303 0.038890965
0.087351926 -0.13560924 0.15978175 -0.0038660106 0.12923932 -0.118080676 -0.06279693 0.048437517
-0.042890552 0.008377565 0.0018759423 0.07326878 0.13621236 -0.06845709 -0.17134342 0.021174937
0.036085516 -0.16053404 0.15098985 0.13607271 -0.0047383606 0.010511791 0.0006762256 0.029275395
0.2650663 -0.04302995 -0.08650503 0.31284425 0.010406459 0.07435307 0.30137032 -0.009576741
0.10360381 0.010734012 0.1508575 -0.041892648 0.07744023 -0.16708936 0.030259507 0.098252065
-0.11725172 -0.121227644 -0.04595894 -0.058111385 -0.034918837 0.09637542 -0.15801553 0.009027125
0.03055457 -0.10092697 0.08436629 0.13293473 0.021009412 -0.04862595 0.057397634 0.018784875
0.19371812 0.00035239043 -0.22406936 0.28276056 0.078131974 0.054531716 0.33381936 0.056251436
0.06169012 -0.102043286 0.22833236 0.13859694 0.0045255115 -0.16078268 -0.07543249 0.04804842
0.055960584 0.083339676 -0.17319353 0.070152275 -0.15750578 0.11499463 -0.00028779925 0.13823412
-0.008541246 -0.3507451 -0.21405225 -0.11278122 -0.22598751 0.22658409 -0.19311263 -0.32669115
0.13364835 -0.03481414 0.08768718 0.16737074 -0.25409195 -0.23380229 0.3539182 0.15303859
-0.22405314 0.23619317 0.40997186 -0.16591622 -0.22049928 -0.5537518 -0.18846285 0.03993325
-0.05731997 0.08675672 0.030223966 0.07325034 0.07991258 -0.15652291 -0.23523372 -0.09055051
-0.039269447 -0.08052699 -0.03454665 0.2844853 0.2004564 0.07357507 0.017073566 -0.046547573
0.10984666 -0.24894066 -0.030589031 -0.0037565578 -0.18773445 0.08928395 0.25057214 -0.1909921
-0.060124658 -0.23914516 0.22111376 -0.09526908 -0.02962992 0.037011933 -0.08333973 -0.030321522
-0.05705553 -0.10840394 -0.17151476 0.07950136 0.054511763 0.053815477 -0.22024643 0.03351141
0.1567088 0.061823834 -0.0086979875 0.123863384 -0.1294717 -0.15174936 -0.026145622 -0.006326803
-0.100141615 -0.16872978 -0.3026015 0.12762593 0.2297106 0.0103423335 0.39739943 -0.121186316
-0.0953031 -0.110305525 0.1766102 0.06979024 -0.007431736 0.18166098 0.10887631 -0.024334008
-0.33297116 0.07451692 0.28194788 -0.29960763 -0.077448204 -0.16033673 -0.17470282 0.0061024795
0.027136406 0.06999036 0.048634365 -0.029085612 0.0025816613 0.017088205 0.13322996 0.05159407
0.17466494 -0.052851394 0.022665434 0.045539394 -0.17458774 0.09961169 0.24224046 -0.06325897
0.12045038 -0.08053306 0.04680728 0.08567672 -0.018619996 0.020092191 -0.010187206 -0.084002234
-0.02953808 0.040106848 -0.06636372 0.12896939 0.00943964 0.045868225 -0.26780513 0.1105852
-0.098446645 -0.24306808 -0.17256868 0.45235193 0.18765326 0.017693644 -0.13591745 0.14983937
0.064557746 -0.05304718 0.14977396 0.038902566 0.07778505 0.1357576 0.1966828 -0.085758656
0.08660497 0.07583647 0.07947914 0.04008776 -0.039273266 -0.05543598 0.21360387 -0.01883712
00000000: 572e 82bc a744 b0bd 983a 063e 77fe fcbd
00000010: 7242 03bd f619 13bd c2be b8bc db20 973d
00000020: 8078 76bb f4dc cfbd 29b3 903d 1409 083e
00000030: 2e4d d8bd 1753 573d f697 ac3c 3f27 8e3d
00000040: 3041 a03e 9081 3a3d c7cc 10be 3534 ab3e
00000050: 6bdd c3bc 9b15 543d 551c 8f3e 224c 1f3d
00000060: 91e5 b23d 26dd 0abe d49d 233e e55c 7dbb
00000070: 5057 043e 48d4 f1bd ad9b 80bd 6b66 463d
00000080: 01ae 2fbd 0e42 093c 2ee2 f53a f10d 963d
00000090: 417b 0b3e 3b33 8cbd a674 2fbe 1077 ad3c
000000a0: 68ce 133d 0963 24be 159d 1a3e a556 0b3e
000000b0: 4044 9bbb a639 2c3c bb44 313a f4d2 ef3c
000000c0: c5b6 873e 2c40 30bd 8d29 b1bd 1f2d a03e
000000d0: da7f 2a3c 6c46 983d 364d 9a3e c3e7 1cbc
000000e0: 3c2e d43d b6dd 2f3c 637a 1a3e a097 2bbd
000000f0: fc98 9e3d 7919 2bbe c9e2 f73c 6138 c93d
00000100: ab21 f0bd 3346 f8bd 713f 3cbd 3406 6ebd
00000110: 0e07 0fbd 7a60 c53d d3ce 21be 82e6 133c
00000120: 944d fa3c cdb2 cebd 3cc8 ac3d 0b20 083e
00000130: ee1b ac3c 012c 47bd c819 6b3d bde2 993c
00000140: 0b5e 463e 0bc1 b839 7072 65be fec5 903e
00000150: a803 a03d a65c 5f3d 5fea aa3e e867 663d
00000160: c7ae 7c3d 12fc d0bd f5cf 693e 5bec 0d3e
00000170: be4a 943b 37a4 24be 597c 9abd 6cce 443d
00000180: ed36 653d fead aa3d a559 31be ffab 8f3d
00000190: 3249 21be 4e82 eb3d c3e3 96b9 3f8d 0d3e
000001a0: 95f0 0bbc dd94 b3be 8330 5bbe d7f9 e6bd
000001b0: 4569 67be a905 683e 51bf 45be 1044 a7be
000001c0: 1ddb 083e 4699 0ebd 5695 b33d 3c63 2b3e
000001d0: 5718 82be de69 6fbe c434 b53e 26b6 1c3e
000001e0: 306e 65be 9fdc 713e d5e7 d13e f1e5 29be
000001f0: 90ca 61be aec2 0dbf 68fc 40be 0c91 233d
00000200: 58c8 6abd 82ad b13d 4098 f73c 4604 963d
00000210: 35a9 a33d 8b47 20be 1ce1 70be 8c72 b9bd
00000220: 00d9 20bd 56eb a4bd ca80 0dbd 0fa8 913e
00000230: 7144 4d3e 87ae 963d dddd 8b3c aba8 3ebd
00000240: 49f7 e03d 4dea 7ebe d995 fabc 9530 76bb
00000250: 763d 40be 81da b63d fe4a 803e 6f93 43be
00000260: 4645 76bd 78e2 74be a56b 623e 6f1c c3bd
00000270: 72ba f2bc d399 173d 05ae aabd d764 f8bc
00000280: 0fb3 69bd e302 debd 91a1 2fbe 9cd1 a23d
00000290: ba47 5f3d 9e6d 5c3d 4888 61be 4343 093d
000002a0: 4678 203e fd3a 7d3d 0182 0ebc 16ac fd3d
000002b0: 3b94 04be 2f64 1bbe 582f d6bc 1251 cfbb
000002c0: 0c17 cdbd 80c7 2cbe 95ee 9abe 5fb0 023e
000002d0: 4139 6b3e e472 293c f077 cb3e 8830 f8bd
000002e0: 462e c3bd dde7 e1bd 4ed9 343e 2fee 8e3d
000002f0: ec85 f3bb 5605 3a3e 8bfa de3d 1d58 c7bc
00000300: 327b aabe 549c 983d 795b 903e 2c66 99be
00000310: 2a9d 9ebd 502f 24be 4ce5 32be 4ff7 c73b
00000320: 2b4d de3c 1b57 8f3d d434 473d f344 eebc
00000330: 1731 293b 90fc 8b3c 6f6d 083e 4e54 533d
00000340: 5edb 323e b47a 58bd dcac b93c 8487 3a3d
00000350: 21c7 32be 3701 cc3d e20d 783e eb8d 81bd
00000360: b0ae f63d 84ee a4bd feb8 3f3d 4777 af3d
00000370: f688 98bc 6198 a43c 3de8 26bc 5d09 acbd
00000380: d8f9 f1bc 1447 243d b4e9 87bd 8d10 043e
00000390: b8a8 1a3c 52e0 3b3d c11d 89be 7e7a e23d
000003a0: 659e c9bd d7e6 78be d8b5 30be ac9a e73e
000003b0: 2d28 403e 43f2 903c f22d 0bbe 7e6f 193e
000003c0: da36 843d 0048 59bd 585e 193e 4c58 1f3d
000003d0: c54d 9f3d 0a04 0b3e 3767 493e 3ca2 afbd
000003e0: f25d b13d 2750 9b3d f6c5 a23d 1033 243d
000003f0: 01dd 20bd d710 63bd f9ba 5a3e 4e50 9abc

unembedding.bias f4 [88]
-0.9623576 -1.3748858 -1.503681 0.32207295 -0.058506865 -0.75800484 -0.21885955 -0.58064824
-1.3265147 -1.1828164 -1.1193478 -1.6131272 0.27941003 -0.20416558 -1.2977784 -1.0337508
-0.36560458 0.044829413 -0.8054847 -1.0754242 -0.7276574 0.13903676 -0.36804032 -0.22157444
-0.41911677 -0.37765235 0.41817132 -1.0840122 -1.1198947 -1.237638 -0.9169147 -1.5097106
0.15328756 -0.2284999 -0.16214581 -1.1394055 -1.108397 -0.43350375 -1.4792142 -0.27144715
-0.41626033 -0.52886856 -1.0313585 -1.0253365 0.1050399 -0.5734754 -0.24788219 -1.2206016
-0.11732211 -0.105494715 -0.40702102 -1.3767796 -1.0005623 -0.9511855 -0.4983465 -1.1105471
-0.68782353 -0.16094472 -1.3952811 -1.478775 -0.7468866 -0.9053829 -0.69519466 -0.87375736
-0.9281899 -0.31098914 -0.8797963 -0.9324454 -0.10862032 0.2640221 -1.1376843 -1.5043339
-1.3255951 -1.2070018 -1.2483467 -0.9246281 -1.0304793 -0.8423358 -1.33882 -1.1763036
-1.3669764 -0.8977942 -0.95422494 -0.97219294 -1.2535098 -1.2668099 -1.0651283 -1.3036962
00000000: 115d 76bf 42fc afbf 9e78 c0bf bfe6 a43e
00000010: e5a4 6fbd 9b0c 42bf b81c 60be 5da5 14bf
00000020: 3ccb a9bf 8766 97bf ca46 8fbf f47a cebf
00000030: d50e 8f3e c810 51be 9a1d a6bf f251 84bf
00000040: 8630 bbbe 0c9f 373d 3f34 4ebf 80a7 89bf
00000050: c147 3abf a75f 0e3e c86f bcbe 69e4 62be
00000060: 7996 d6be a65b c1be 8d1a d63e e9c0 8abf
00000070: b658 8fbf ec6a 9ebf ecba 6abf 323e c1bf
00000080: 6af7 1c3e e1fb 69be 8d09 26be 0ad8 91bf
00000090: f4df 8dbf 34f4 ddbe e456 bdbf 1ffb 8abe
000000a0: 1320 d5be ee63 07bf 8e03 84bf 3a3e 83bf
000000b0: 291f d73d 49cf 12bf d4d4 7dbe ac3c 9cbf
000000c0: 9346 f0bd 9d0d d8bd 0f65 d0be 503a b0bf
000000d0: 6d12 80bf e580 73bf 4627 ffbe 6826 8ebf
000000e0: 3415 30bf b1ce 24be 9298 b2bf 8048 bdbf
000000f0: f633 3fbf 2cc7 67bf 47f8 31bf 90ae 5fbf
00000100: da9d 6dbf f839 9fbe 553a 61bf beb4 6ebf
00000110: 5574 debd e82d 873e a49f 91bf 038e c0bf
00000120: 1aad a9bf 097f 9abf d3c9 9fbf 6db4 6cbf
00000130: bfe6 83bf 52a3 57bf 745e abbf 1e91 96bf
00000140: 15f9 aebf d7d5 65bf 1648 74bf a3e1 78bf
00000150: 0273 a0bf d426 a2bf 2056 88bf 84df a6bf
