Models/transformer_1head_32hidden_100epochs_OnlyEncoderTransformerFree.pth (torch, 156381 bytes, 40 tensors)

encoder_embedding.weight f4 [47, 32]
0.48521218 -0.53546757 -1.2191337 1.4635092 0.65072066 -1.3583448 -0.50312597 0.22263321
-1.8886584 -1.2716136 -0.5777748 0.6969877 -0.46098292 -1.019691 0.44407383 2.58979
-0.12091943 0.06306815 0.5324853 1.2139945 -0.66565853 -0.41874057 -1.391473 0.15531927
0.21327569 -1.0591598 -0.18237682 0.35449007 -1.9247894 -1.4689486 1.2815633 0.0
0.9218144 1.6455331 -1.524627 -0.23564392 0.41772902 -2.0164034 -0.4387605 -0.31197926
0.15966737 1.0696604 0.4752579 1.465448 0.30955994 0.7198119 0.48704353 0.534739
-0.4727673 -0.23484653 -1.5801957 0.49564573 -0.77364135 0.46874976 -0.28925943 -0.10943085
0.68947244 -0.5821166 0.26797098 -0.39428195 0.8538259 -1.004852 0.5575622 0.0
-0.8353861 1.3562053 -0.1210158 -1.124355 0.42130917 -1.165463 2.1414201 -0.26425326
0.011803022 1.0315031 -0.29901692 -1.9341165 0.54344803 0.5285313 -0.09434467 -0.9490804
0.13864337 -0.106556416 1.6250142 -0.95771843 0.31471163 0.42577335 -0.16941012 -0.91977227
0.44717887 -1.3372464 1.5513104 0.12866972 0.2985716 -0.48996583 0.45547724 0.0
0.21046998 -0.2905032 -1.1845087 1.2641422 -1.1308261 -0.49990115 -0.9774651 -0.083398685
-0.56606644 0.099463895 -0.6773884 -1.35509 -0.4830963 0.05323775 -0.26253432 0.91449076
0.5728378 -0.25336242 0.09581769 -0.28434932 0.5580843 -1.1891936 0.75645006 -0.57543236
0.54784954 -1.2879059 1.2039225 -0.4777138 -0.8988726 0.38748172 -1.0594525 0.0
-0.38301736 -0.4637611 1.5406972 -0.28344408 -0.22441316 -0.4472187 -0.47304556 0.70289433
0.18608434 -1.1833601 0.32557604 -0.97230655 -2.56225 0.53847754 -0.2689845 -1.8617388
-0.010988791 0.30791157 1.2274275 -0.46016142 0.7138827 1.429069 1.5377674 0.8443716
0.04983377 -0.15365614 0.06467647 -1.3076153 1.8657962 0.4617785 -0.6211402 0.0
-1.0079793 -0.20718315 -0.2771277 -0.30514866 1.1517994 -0.3306977 -0.69624895 -0.4951493
0.33914387 -0.47706 0.38175932 -0.41635334 -0.96920085 0.6509447 1.3725127 0.08750657
1.6996052 -1.2056589 1.5310618 0.93585026 -0.7253988 -0.383301 -0.6652278 0.10672135
0.7680792 1.9261079 -0.11648866 -0.5862463 -1.0239605 0.6824577 0.8070407 0.0
0.7719949 -2.1256073 0.2456698 0.36357707 0.4656886 0.32532936 -0.21069397 0.21138401
-0.5503606 -0.009319488 0.90847427 0.8618577 0.25017673 -0.7512888 -0.45750582 -0.27164903
0.20619923 -0.67431945 0.734713 1.3693491 -0.37537766 -0.13350955 -1.15689 -1.9075614
0.7244149 -1.6206614 -0.09267346 1.3768295 0.30548042 -0.7160506 -0.5123781 0.0
-1.3088274 -0.07006605 -0.7812307 -0.82742757 -0.69428957 0.22201747 2.6722455 1.3321747
0.5038808 0.9686586 0.85141623 -0.98902965 -0.017575879 0.2891429 0.00044262988 -1.978794
0.85393965 -0.7242192 -1.4436256 -0.96920556 -1.9178454 0.22921759 -0.7747365 -0.6613078
-1.0278018 -0.90078646 -0.83103263 2.2521408 -0.2446631 -1.5578114 -0.6127664 0.0
00000000: bb6d f83e 6714 09bf 930c 9cbf 4554 bb3f
00000010: a195 263f 3ede adbf ddcc 00bf f6f9 633e
00000020: 8fbf f1bf 3cc4 a2bf 0de9 13bf c96d 323f
00000030: f405 ecbe 3c85 82bf a55d e33e 1fbf 2540
00000040: 9ba4 f7bd e029 813d f550 083f 2c64 9b3f
00000050: 9968 2abf 2a65 d6be ca1b b2bf 040c 1f3e
00000060: f164 5a3e 8c92 87bf fdc0 3abe b97f b53e
00000070: 805f f6bf 8206 bcbf 440a a43f 0000 0000
00000080: 07fc 6b3f d4a0 d23f fa26 c3bf a44c 71be
00000090: 94e0 d53e c10c 01c0 37a5 e0be bfbb 9fbe
000000a0: d87f 233e a2ea 883f 0155 f33e cd93 bb3f
000000b0: a47e 9e3e 9845 383f c55d f93e a8e4 083f
000000c0: 8e0e f2be 9c7b 70be da43 cabf 47c5 fd3e
000000d0: 5c0d 46bf f8ff ef3e d019 94be 481d e0bd
000000e0: 4481 303f 9805 15bf 7e33 893e 53df c9be
000000f0: 5694 5a3f fe9e 80bf 65bc 0e3f 0000 0000
00000100: dddb 55bf 2398 ad3f 22d7 f7bd ddea 8fbf
00000110: d6b5 d73e e42d 95bf 070d 0940 344c 87be
00000120: 7661 413c 4b08 843f bf18 99be 2191 f7bf
00000130: 691f 0b3f d44d 073f c737 c1bd eff6 72bf
00000140: 87f8 0d3e 403a dabd 7700 d03f 092d 75bf
00000150: e221 a13e f7fe d93e d979 2dbe 3276 6bbf
00000160: a1f4 e43e e42a abbf 5791 c63f ffc1 033e
00000170: 60de 983e cddc fabe 5034 e93e 0000 0000
00000180: 7185 573e d6bc 94be fb9d 97bf 69cf a13f
00000190: e9be 90bf 0bf3 ffbe 273b 7abf eecc aabd
000001a0: bbe9 10bf bab3 cb3d 5469 2dbf 9773 adbf
000001b0: 6658 f7be d40f 5a3d e66a 86be 111c 6a3f
000001c0: 80a5 123f b8b8 81be 113c c43d 3c96 91be
000001d0: 9dde 0e3f 7f37 98bf b6a6 413f 894f 13bf
000001e0: de3f 0c3f 1ada a4bf 221a 9a3f e796 f4be
000001f0: 841c 66bf 0164 c63e 249c 87bf 0000 0000
00000200: da1a c4be 1872 edbe 9135 c53f 951f 91be
00000210: 90cc 65be d9f9 e4be 0733 f2be e2f0 333f
00000220: e58c 3e3e 5878 97bf e7b1 a63e 15e9 78bf
00000230: e7fb 23c0 aad9 093f 56b8 89be 754d eebf
00000240: 540a 34bc 96a6 9d3e 581c 9d3f 479a ebbe
00000250: 04c1 363f bceb b63f 90d5 c43f bd28 583f
00000260: 7f1e 4c3d 0958 1dbe 1975 843d f05f a7bf
00000270: 69d2 ee3f 3b6e ec3e 0b03 1fbf 0000 0000
00000280: 7705 81bf d227 54be afe3 8dbe 723c 9cbe
00000290: 2a6e 933f 3551 a9be 5f3d 32bf 3684 fdbe
000002a0: 44a4 ad3e 3541 f4be f575 c33e 442c d5be
000002b0: 8c1d 78bf 50a4 263f 7fae af3f a536 b33d
000002c0: aa8c d93f 0853 9abf d5f9 c33f e293 6f3f
000002d0: bcb3 39bf 0740 c4be 5e4c 2abf b990 da3d
000002e0: d7a0 443f b48a f63f 9b91 eebd 3d14 16bf
000002f0: 2311 83bf 8cb5 2e3f 389a 4e3f 0000 0000
00000300: 75a1 453f f309 08c0 dd90 7b3e c626 ba3e
00000310: bc6e ee3e 9291 a63e 29c0 57be 0d75 583e
00000320: 6fe4 0cbf c4b0 18bc c591 683f b5a2 5c3f
00000330: 2a17 803e 7654 40bf 343e eabe 9515 8bbe
00000340: e425 533e 33a0 2cbf 2716 3c3f d546 af3f
00000350: 8031 c0be bab6 08be f914 94bf f92a f4bf
00000360: 4173 393f d571 cfbf 95cb bdbd f33b b03f
00000370: ee67 9c3e 184f 37bf 362b 03bf 0000 0000
00000380: a887 a7bf ca7e 8fbd bcfe 47bf 4bd2 53bf
00000390: f6bc 31bf 8c58 633e 1206 2b40 b384 aa3f
000003a0: 55fe 003f 03fa 773f 6af6 593f 0c31 7dbf
000003b0: 4afb 8fbc 8a0a 943e c710 e839 1f49 fdbf
000003c0: ca9b 5a3f 6e66 39bf b9c8 b8bf db1d 78bf
000003d0: f57b f5bf 04b8 6a3e 2255 46bf 784b 29bf
000003e0: 028f 83bf f199 66bf 8ebe 54bf 1323 1040
000003f0: f788 7abe 5d66 c7bf 42de 1cbf 0000 0000

decoder_embedding.weight f4 [45, 32]
0.51600003 2.0433247 -1.2742507 2.0629468 -0.86851573 0.23437427 1.1191896 1.2927634
1.5417117 -0.80620205 1.0697672 0.9285623 -1.713514 -1.7023532 -0.6270701 -0.08941693
1.1015854 0.9880189 0.3532686 -0.5031283 -1.0696034 -1.4154346 1.5990574 -0.8533734
0.13178292 -0.9079793 -0.0040798485 -1.0311471 -0.25854683 0.67634803 -1.3984805 0.0
-0.8425789 1.3737254 0.17786281 -0.68882585 -0.6494353 -0.264281 -2.0766685 0.040329456
1.4094725 -0.91235244 1.3577596 -1.166296 0.3374667 1.3595469 1.3272065 -0.6695675
-0.08077156 0.5262728 -0.4218401 -0.6803989 1.5593251 0.96546406 1.47937 -0.46004158
0.6242376 0.4150915 1.2393976 -0.670374 -0.33358306 -2.4333587 1.3236176 0.0
0.9293252 -0.31985432 0.7948182 0.021730227 -1.3940119 0.8980172 -0.8006799 -0.7881761
0.72078353 -0.96767545 -0.6741941 -0.19158573 0.6860722 0.29937688 -0.23862031 -0.8658499
0.62498033 1.2463517 -1.8597369 -0.39847994 -0.39028457 0.0038202947 -0.3804483 -1.4710317
0.55736864 1.4159851 0.17722173 0.030081637 0.52552694 1.7578602 -3.1041622 0.0
1.5454023 -0.7945187 0.7415803 -1.0527943 -0.08920761 -0.53166586 -0.38853702 0.93467164
0.4409216 0.01578674 0.46458444 1.9599015 1.3767865 0.8792531 0.4674529 0.68821406
0.4724637 0.40236562 -1.398713 1.5043483 -0.4795922 1.2492845 0.38232383 -0.2950599
-0.5519241 -1.278065 -2.4784555 -1.7131107 -0.57814825 0.8697825 0.26928896 0.0
0.69378644 0.027111774 0.057201605 -0.07044923 -0.62147844 0.43170118 -0.07170435 0.7190999
0.6027377 -0.5629454 0.42174017 0.86925673 0.16555934 0.2293616 -0.121653326 0.03956181
-0.4164611 1.0593446 0.3614554 -1.0647655 -0.35744885 0.19230783 -0.59021026 -0.12816015
-0.16759866 1.4880835 0.2676287 -0.18285207 -0.3325419 1.3349447 -0.76578104 0.0
1.9056741 1.2435132 -0.6700404 0.4278826 1.6288291 -0.83961445 0.6442806 0.121897
-0.39646143 0.136327 0.081012666 0.13943297 0.443246 0.08655317 -0.27411672 1.6844276
0.39049977 -0.84176624 0.61945105 -0.41589257 -0.45191222 -0.4494084 0.050173797 -1.4307956
0.53982395 -1.2515746 -0.40546367 0.04485714 0.65389013 -0.5219511 0.5503518 0.0
0.026722372 -0.12778328 0.18486314 -0.33379057 -1.2645111 0.543737 -0.24355254 -0.89989007
0.38571241 0.9694163 -0.5753421 0.6144125 -0.7315508 -2.3776047 -0.10527136 0.26908377
0.15467441 -0.42602378 -0.05612255 -0.23059775 -0.077869736 0.7417066 0.31309924 -0.5965847
-0.35035133 2.7394714 -0.014579405 0.50242704 -2.0476868 -1.1584368 -0.5078189 0.0
0.32834798 0.99219453 -0.67566 1.9471301 0.6960563 -0.08566277 -0.74680334 1.0252498
0.059275288 1.0809889 0.12460106 -0.14134595 -0.5112105 -1.2090143 0.26943088 1.7254415
1.1169645 1.1312884 -1.2446429 0.5170349 0.4075991 0.60799694 0.07323861 0.43662474
-1.8887489 0.630434 0.5654382 0.20044376 1.3329632 -0.6886323 -0.14126325 0.0
00000000: 9418 043f d5c5 0240 a61a a3bf 5207 0440
00000010: 0c57 5ebf cfff 6f3e 9b41 8f3f 4579 a53f
00000020: cf56 c53f 4263 4ebf 22ee 883f 42b6 6d3f
00000030: 6d54 dbbf b6e6 d9bf ab87 20bf 3920 b7bd
00000040: c000 8d3f ceee 7c3f 9fdf b43e 04cd 00bf
00000050: c4e8 88bf f62c b5bf eaad cc3f ae76 5abf
00000060: 1af2 063e 5571 68bf 40b0 85bb a1fc 83bf
00000070: 4060 84be 2525 2d3f 6901 b3bf 0000 0000
00000080: 40b3 57bf 3cd6 af3f ab21 363e e456 30bf
00000090: 6441 26bf d74f 87be 23e8 04c0 8030 253d
000000a0: 9869 b43f ee8f 69bf 11cb ad3f 3049 95bf
000000b0: 6fc8 ac3e a205 ae3f e7e1 a93f c768 2bbf
000000c0: 8f6b a5bd d0b9 063f 6dfb d7be 9f2e 2ebf
000000d0: f797 c73f a728 773f ff5b bd3f 928a ebbe
000000e0: 09ce 1f3f e086 d43e 95a4 9e3f a19d 2bbf
000000f0: 66cb aabe 26bc 1bc0 4d6c a93f 0000 0000
00000100: 42e8 6d3f f2c3 a3be 3579 4b3f 9703 b23c
00000110: fb6e b2bf 75e4 653f 5cf9 4cbf e9c5 49bf
00000120: 4585 383f 94b9 77bf fc97 2cbf 0d2f 44be
00000130: 6da2 2f3f ed47 993e e258 74be 57a8 5dbf
00000140: b6fe 1f3f 7488 9f3f dc0b eebf 9005 ccbe
00000150: 61d3 c7be e95d 7a3b 1fca c2be c44a bcbf
00000160: b6af 0e3f 003f b53f 9d79 353e c46d f63c
00000170: ef88 063f 9001 e13f 98aa 46c0 0000 0000
00000180: becf c53f 9465 4bbf 35d8 3d3f f7c1 86bf
00000190: 7bb2 b6bd 411b 08bf 53ee c6be a446 6f3f
000001a0: 7ac0 e13e 3253 813c 03de ed3e 0dde fa3f
000001b0: 8a3a b03f bb16 613f fd55 ef3e cc2e 303f
000001c0: c3e6 f13e de02 ce3e 0709 b3bf 7c8e c03f
000001d0: 1c8d f5be 8ee8 9f3f f3bf c33e 1712 97be
000001e0: e64a 0dbf a297 a3bf 049f 1ec0 3647 dbbf
000001f0: 8601 14bf 11aa 5e3f 3ee0 893e 0000 0000
00000200: fd9b 313f 8319 de3c 3b4c 6a3d b047 90bd
00000210: 3619 1fbf f007 dd3e bbd9 92bd ee16 383f
00000220: 054d 1a3f 311d 10bf 54ee d73e 9c87 5e3f
00000230: 6388 293e c4dd 6a3e 6125 f9bd 910b 223d
00000240: 643a d5be 9b98 873f af10 b93e 3c4a 88bf
00000250: 8903 b7be 58ec 443e 0518 17bf 6a3c 03be
00000260: fc9e 2bbe 8579 be3f a106 893e 933d 3bbe
00000270: ef42 aabe 78df aa3f 3a0a 44bf 0000 0000
00000280: 21ed f33f 712b 9f3f c587 2bbf 6e13 db3e
00000290: 797d d03f f9f0 56bf 93ef 243f 22a5 f93d
000002a0: fefc cabe 4e99 0b3e f8e9 a53d 84c7 0e3e
000002b0: 24f1 e23e ca42 b13d 0759 8cbe 539b d73f
000002c0: 96ef c73e fe7d 57bf 5894 1e3f dfef d4be
000002d0: 0a61 e7be dc18 e6be 0a83 4d3d 4f24 b7bf
000002e0: e731 0a3f 9933 a0bf ef98 cfbe 1fbc 373d
000002f0: 5865 273f 969e 05bf dbe3 0c3f 0000 0000
00000300: e0e8 da3c 9fd9 02be c34c 3d3e 99e6 aabe
00000310: 80db a1bf 5932 0b3f d665 79be 325f 66bf
00000320: 197c c53e ab2b 783f 9f49 13bf 234a 1d3f
00000330: ea46 3bbf ad2a 18c0 8398 d7bd 59c5 893e
00000340: f862 1e3e ca1f dabe c2e0 65bd d121 6cbe
00000350: 2b7a 9fbd 7ce0 3d3f 8b4e a03e c6b9 18bf
00000360: 4061 b3be 8053 2f40 75de 6ebc 0f9f 003f
00000370: 4d0d 03c0 a847 94bf 6b00 02bf 0000 0000
00000380: 3a1d a83e 7600 7e3f 0ef8 2cbf 8f3b f93f
00000390: bf30 323f f66f afbd 812e 3fbf 633b 833f
000003a0: a5ca 723d d85d 8a3f d72e ff3d febc 10be
000003b0: b1de 02bf fbc0 9abf d8f2 893e 44db dc3f
000003c0: b1f8 8e3f 0fce 903f 7550 9fbf 665c 043f
000003d0: d4b0 d03e b0a5 1b3f 20fe 953d 478d df3e
000003e0: 86c2 f1bf 1f64 213f 8fc0 103f 2141 4d3e
000003f0: 8a9e aa3f 354a 30bf 50a7 10be 0000 0000

encoder_pos_embedding.weight f4 [8, 32]
-0.7439138 0.36641768 1.3382787 0.37717465 -0.16472237 1.8844266 -0.021400098 1.4609069
-0.10558193 -0.88826543 0.121725805 -0.50037694 0.018502818 -0.38447556 0.89089644 -1.02258
0.325723 -0.884329 1.4736005 0.25775716 -0.05508187 -0.8781025 2.2323968 -0.09392327
0.09894331 -0.4815719 0.17136183 0.40057716 -0.118701294 -0.7703404 -1.3547844 0.42818862
-1.2409368 0.5087174 -0.19935681 1.1702024 -0.10337548 -1.4469019 1.1739342 0.08973008
-0.17116739 -0.9813029 0.8662273 -1.1824043 2.0995073 -1.4751445 0.10911686 -0.1601698
-0.57291055 -1.6776273 -1.2208419 0.4402722 2.0161703 -0.71721905 0.8881149 0.93339336
0.7096424 0.09725115 -1.8222235 -0.22789806 1.8467749 -1.0634773 -0.048591826 0.06334506
0.23718837 0.3617829 -0.5199464 -0.2684633 0.121077485 1.4819738 -0.7052789 -0.9690518
1.2225481 0.061427895 0.25116178 0.22681816 -0.39150223 0.6794837 -1.3164555 -0.46430796
-0.44390056 -0.32106963 -0.80700916 -1.1593031 0.3690242 0.31833512 -0.16768846 0.64545256
0.2366474 0.54521924 0.026442783 -0.1567152 0.13344714 -1.2242246 -0.2877105 -0.11793636
0.62390107 -0.8801752 -0.29420137 -1.4140435 -0.5999683 -2.3910198 -0.71541023 -1.7831404
-0.7969484 0.77287245 0.6553237 -2.0065951 0.41705215 -0.44154066 0.4053632 -0.4323504
-0.10882923 1.9506254 -0.7055184 0.23454861 1.3532836 -1.5559216 -0.32760412 -0.6541635
-0.8109453 -0.51460725 1.7073299 -0.41165364 0.14790054 -1.0695428 1.8288102 -0.66978407
0.6227637 -0.5422949 -1.4198382 -1.4167192 -0.31997058 1.3172784 0.56639385 -0.6345092
0.28756687 -1.2128603 0.97363055 0.8497404 0.41524306 -0.19487119 0.44903824 -0.5256532
0.56957847 -0.16804656 0.22175673 0.7560139 0.53846323 -0.20960106 -0.8635428 0.40201128
-2.3955448 0.42736214 1.8354639 -0.15653506 0.9343852 -0.9302574 -0.09246549 -0.90162545
0.28487638 -0.8621484 0.16845056 -1.7480278 0.8545497 -2.0618365 -0.65001017 -0.6976607
-0.557336 -0.22676611 -0.8589649 -1.074983 0.28797266 -0.43730506 0.43131447 -1.001814
0.10321632 0.92107236 -2.5103805 -1.483482 0.667353 -0.8722899 -1.458253 -0.19184227
-1.3046547 -1.2476764 0.8016958 -0.4288412 0.7957319 -0.33910763 -1.2940664 -0.75707746
1.5093094 -1.8137802 -0.2034045 -0.99747884 -0.12697157 -1.5407768 0.23338312 -0.3314174
0.51961464 -0.4045475 0.874374 0.17903179 -1.6055839 -0.25571707 -0.80726355 -1.5685521
-1.1232109 0.22327712 -1.3566693 0.70253885 -1.1962519 -1.6805477 -0.2526643 -0.5775586
-0.2693863 -0.43454513 -0.63756436 3.7180376 0.09343906 -1.6341046 -0.16821513 -1.0737984
-2.166861 -1.1638199 -0.6308308 -0.5943345 0.3089668 -0.3893277 0.4035366 1.6772882
-0.41698408 0.35493347 -1.2946581 -1.331306 -0.72078454 -0.5112701 1.7195215 0.2823448
0.9191658 -0.36268207 0.43646446 0.15635449 -1.9987406 1.7549955 0.7537829 2.8143232
1.4454575 -0.4859904 2.6214285 0.42152056 1.7417036 0.24895322 0.46928382 0.408657
00000000: 2371 3ebf 199b bb3e b74c ab3f 091d c13e
00000010: fbac 28be e434 f13f 424f afbc fffe ba3f
00000020: 573b d8bd 5d65 63bf 614b f93d b418 00bf
00000030: 3993 973c fbd9 c4be ca11 643f e7e3 82bf
00000040: 2ac5 a63e 6363 62bf f19e bc3f bff8 833e
00000050: 879d 61bd 53cb 60bf 97df 0e40 d85a c0bd
00000060: caa2 ca3d 9890 f6be 7a79 2f3e 7318 cd3e
00000070: aa19 f3bd 0735 45bf 9369 adbf 8a3b db3e
00000080: 04d7 9ebf 4e3b 023f 3124 4cbe 31c9 953f
00000090: 86b6 d3bd 1534 b9bf 7a43 963f 67c4 b73d
000000a0: 8146 2fbe ab36 7bbf 13c1 5d3f 0659 97bf
000000b0: 545e 0640 89d1 bcbf a978 df3d 8d03 24be
000000c0: 44aa 12bf 7ebc d6bf 8c44 9cbf 5c6b e13e
000000d0: ef08 0140 ab9b 37bf 805b 633f def2 6e3f
000000e0: 20ab 353f 9c2b c73d 9f3e e9bf 1c5e 69be
000000f0: 1f63 ec3f 0620 88bf 3908 47bd 0ebb 813d
00000100: 82e1 723e 9c3b b93e 351b 05bf 0674 89be
00000110: 79f7 f73d 51b1 bd3f 288d 34bf c713 78bf
00000120: 757c 9c3f d19b 7b3d 4798 803e 0543 683e
00000130: fb72 c8be a5f2 2d3f 9d81 a8bf c6b9 edbe
00000140: ef46 e3be 3d63 a4be 2798 4ebf 0b64 94bf
00000150: bdf0 bc3e d2fc a23e 86b6 2bbe 613c 253f
00000160: b253 723e 7d93 0b3f 899e d83c f379 20be
00000170: 5ea6 083e 64b3 9cbf ca4e 93be 9e88 f1bd
00000180: fbb7 1f3f 2953 61bf 90a1 96be 61ff b4bf
00000190: 8697 19bf 7806 19c0 2025 37bf f23d e4bf
000001a0: cf04 4cbf f8da 453f 4bc3 273f 0e6c 00c0
000001b0: dc87 d53e 9e11 e2be c48b cf3e 085d ddbe
000001c0: dce1 debd 18ae f93f db9c 34bf 832d 703e
000001d0: 6638 ad3f 7028 c7bf babb a7be 4277 27bf
000001e0: 1c9a 4fbf 4dbd 03bf c989 da3f 44c4 d2be
000001f0: 3d73 173e c7e6 88bf 7416 ea3f f876 2bbf
00000200: 716d 1f3f d7d3 0abf 42bd b5bf 0e57 b5bf
00000210: 2fd3 a3be 949c a83f 30ff 103f 326f 22bf
00000220: f73b 933e 023f 9bbf da3f 793f 9688 593f
00000230: bd9a d43e 508c 47be 57e8 e53e 3591 06bf
00000240: e5cf 113f 6614 2cbe 3214 633e 208a 413f
00000250: bad8 093f a9a1 56be 2411 5dbf 6cd4 cd3e
00000260: 9b50 19c0 36cf da3e 7bf0 ea3f ba4a 20be
00000270: de33 6f3f 5925 6ebf 8c5e bdbd edd0 66bf
00000280: 51db 913e c2b5 5cbf 4e7e 2c3e 60bf dfbf
00000290: c5c3 5a3f 21f5 03c0 1167 26bf e499 32bf
000002a0: 92ad 0ebf 6035 68be 20e5 5bbf 0b99 89bf
000002b0: 2771 933e 73e6 dfbe 40d5 dc3e 713b 80bf
000002c0: 1463 d33d 66cb 6b3f 13aa 20c0 bde2 bdbf
000002d0: a5d7 2a3f 644e 5fbf 09a8 babf 4d72 44be
000002e0: edfe a6bf dcb3 9fbf f03b 4d3f 1391 dbbe
000002f0: 16b5 4b3f 849f adbe f8a3 a5bf d4cf 41bf
00000300: 0d31 c13f f329 e8bf 4549 50be c65a 7fbf
00000310: d604 02be 2d38 c5bf fcfb 6e3e 8baf a9be
00000320: 7705 053f da20 cfbe f9d6 5f3f 1c54 373e
00000330: c683 cdbf 59ed 82be d3a8 4ebf 51c6 c8bf
00000340: 60c5 8fbf c2a2 643e 57a7 adbf 96d9 333f
00000350: c81e 99bf 301c d7bf 375d 81be e1da 13bf
00000360: 00ed 89be b37c debe 6b37 23bf 54f4 6d40
00000370: fa5c bf3d 572a d1bf 9640 2cbe 3a72 89bf
00000380: daad 0ac0 0df8 94bf 217e 21bf 4e26 18bf
00000390: e530 9e3e f655 c7be 599c ce3e 61b1 d63f
000003a0: f07e d5be d7b9 b53e 5bb7 a5bf 3c68 aabf
000003b0: 5685 38bf 99e2 02bf 4819 dc3f 7f8f 903e
000003c0: 734e 6b3f 77b1 b9be 4578 df3e 641b 203e
000003d0: bbd6 ffbf b1a3 e03f ebf7 403f df1d 3440
000003e0: c004 b93f bcd3 f8be 7cc5 2740 8bd1 d73e
000003f0: 25f0 de3f 98ed 7e3e f845 f03e 7e3b d13e

decoder_pos_embedding.weight f4 [8, 32]
0.5434182 -1.3423887 1.3131093 -1.8849455 -0.5077736 -0.39729777 -0.7316022 -0.007394933
0.37517488 1.1649691 -0.7110631 0.55335194 -1.3979479 -0.9980105 -1.0308259 0.7327652
-0.053851157 -0.66197795 2.254987 -0.66212255 2.9880362 -0.37736315 0.33299652 0.5149533
-1.1976124 -0.6193598 -0.6549599 -0.5709972 -1.4637446 1.2182257 0.42586094 0.5275777
-0.88943505 1.2440863 -1.8569742 0.23334128 0.011979057 0.004091061 0.2498047 1.0405091
-1.3975284 -0.219076 0.72213846 0.84793276 -0.6397854 -0.2948145 1.9061782 -0.4849155
0.6845205 -2.079265 1.9621401 0.92376053 -0.6900496 -1.670804 -2.4194336 0.16917217
-0.96960187 -0.23997621 3.348627 -0.06264155 -1.8087378 1.7819943 -0.7539781 0.5880846
0.3955699 -1.4625903 1.2879852 2.3178473 -0.852938 -2.0213444 -0.3615764 1.532163
-1.7229003 -0.1558911 1.3507942 0.37797377 -1.0414611 -0.7764981 0.2881243 0.20141011
0.804744 -0.045386937 -0.6753457 -0.78936833 -1.588101 2.5974913 -0.88845646 -1.1936179
0.1912656 -1.4796273 2.9763393 0.9948435 0.4372525 2.9114 -3.8028634 -0.95406085
2.1761067 -0.10884788 -0.8474569 0.3359141 0.9761538 2.39751 -1.7766303 0.89708835
0.6711808 0.3155421 -2.0498538 1.399043 0.27699137 -1.982434 0.74484277 -1.9935539
-0.57927054 -0.7070252 -0.92757046 0.15185587 0.28731474 2.0726354 0.25254762 0.4390658
-0.73057556 0.068121895 -2.3780515 -0.0056107533 -0.1951398 0.32433325 1.1268171 -0.53584796
1.4919589 1.0551423 0.22918847 0.011585992 -0.87459874 0.5271145 -1.3453832 0.60249084
-0.73384833 0.58836937 -2.0589392 -0.13108788 -0.019452207 -0.9550393 -0.32608733 -2.8158689
0.50818986 -1.7804011 -1.1189084 1.839665 -0.24698143 -0.025519198 0.6586884 1.0186462
0.86779016 -0.7949366 0.21050069 -0.27413437 1.6441808 2.3259926 1.3118613 0.2255022
0.3110657 -0.09238022 0.12775527 -1.0089759 1.569811 1.1107975 1.1187699 -1.5923941
-1.6423346 0.23713033 -1.0040435 -0.32716605 0.79127914 1.8790227 1.1281232 0.4582507
-0.6129431 1.7415856 -0.779665 -0.5090209 -0.5979797 0.6496706 -0.77330595 0.9894444
-0.23644443 0.41949654 1.1247965 0.5503548 1.5394424 -1.1260029 -0.72986054 -0.6460563
0.081825964 -0.8103002 0.70709413 -0.97407573 -0.36829382 0.69926894 -0.4217842 -1.0315931
-1.2870991 0.7829473 -0.66995054 1.557877 1.138697 0.959818 0.40224347 0.08647654
0.21177745 1.5113103 -0.27606967 0.49830297 0.8640218 0.38432363 0.28938067 0.5036771
-0.07324173 0.9541072 0.36638364 -0.8373039 -0.8295697 -1.0404905 -0.5407691 -1.7492574
-0.2396827 0.5348953 -1.9167737 0.20345084 -1.5883464 -0.5832785 -0.4394234 0.9669332
-1.1669668 -1.1824987 1.279621 -0.4216492 0.36277235 1.2604127 0.113420844 -1.4468914
0.3467607 -1.1900402 -0.63114107 -0.24829336 -0.5910846 0.7478984 1.7250375 -0.40626687
-0.06436552 -1.3819209 0.77187157 0.51791674 -1.9334415 -0.45957687 0.52971315 0.93336725
00000000: 751d 0b3f 65d3 abbf f713 a83f e545 f1bf
00000010: 73fd 01bf 9d6a cbbe 484a 3bbf 3251 f2bb
00000020: ec16 c03e b51d 953f 3b08 36bf 79a8 0d3f
00000030: f5ef b2bf 9e7d 7fbf 1af2 83bf 8096 3b3f
00000040: 0893 5cbd 6377 29bf b551 1040 dd80 29bf
00000050: fc3b 3f40 be35 c1be 857e aa3e fbd3 033f
00000060: 5d4b 99bf 5d8e 1ebf 74ab 27bf df2c 12bf
00000070: fc5b bbbf d2ee 9b3f 720a da3e 550f 073f
00000080: 04b2 63bf 383e 9f3f 55b1 edbf 04f1 6e3e
00000090: cf43 443c 4f0e 863b cecc 7f3e 672f 853f
000000a0: 36e2 b2bf 7555 60be 11de 383f 1f12 593f
000000b0: fac8 23bf edf1 96be a6fd f33f d846 f8be
000000c0: bc3c 2f3f ae12 05c0 6827 fb3f 927b 6c3f
000000d0: 17a7 30bf e8dc d5bf 00d8 1ac0 783b 2d3e
000000e0: d437 78bf 53bc 75be e84f 5640 374a 80bd
000000f0: b884 e7bf 6418 e43f b504 41bf b68c 163f
00000100: 2388 ca3e 2936 bbbf b3dc a43f 9c57 1440
00000110: 255a 5abf b55d 01c0 8b20 b9be eb1d c43f
00000120: ff87 dcbf eba1 1fbe d3e6 ac3f c785 c13e
00000130: 994e 85bf 94c8 46bf 0785 933e 743e 4e3e
00000140: b403 4e3f a7e7 39bd 75e3 2cbf 0b14 4abf
00000150: e546 cbbf 4c3d 2640 e271 63bf 79c8 98bf
00000160: 21db 433e 6d64 bdbf 587c 3e40 10ae 7e3f
00000170: 8fdf df3e 6154 3a40 1d62 73c0 553d 74bf
00000180: 5545 0b40 a3eb debd eff2 58bf effc ab3e
00000190: 37e5 793f ce70 1940 9f68 e3bf 95a7 653f
000001a0: 81d2 2b3f bc8e a13e ce30 03c0 d713 b33f
000001b0: d0d1 8d3e 66c0 fdbf 04ae 3e3f c62c ffbf
000001c0: 134b 14bf 9aff 34bf 4275 6dbf 1b80 1b3e
000001d0: eb1a 933e 0fa6 0440 ec4d 813e 3ccd e03e
000001e0: 0007 3bbf 7e83 8b3d ff31 18c0 69da b7bb
000001f0: bad2 47be 020f a63e 8b3b 903f 552d 09bf
00000200: 82f8 be3f e70e 873f 62b0 6a3e 2cd3 3d3c
00000210: b4e5 5fbf faf0 063f 8435 acbf d73c 1a3f
00000220: 7cdd 3bbf 609f 163f a9c5 03c0 e73b 06be
00000230: 3c5a 9fbc 757d 74bf ebf4 a6be 3237 34c0
00000240: bb18 023f 2fe4 e3bf 6438 8fbf 257a eb3f
00000250: b3e8 7cbe a30d d1bc ce9f 283f 0063 823f
00000260: 7f27 5e3f f780 4bbf 7e8d 573e 575b 8cbe
00000270: 8474 d23f 10dd 1440 12eb a73f 0cea 663e
00000280: 0144 9f3e d731 bdbd 47d2 023e 1f26 81bf
00000290: 91ef c83f 9d2e 8e3f da33 8f3f 92d3 cbbf
000002a0: 0538 d2bf 4bd2 723e 7f84 80bf 4f82 a7be
000002b0: 4591 4a3f d183 f03f 5766 903f d69f ea3e
000002c0: d7e9 1cbf 47ec de3f 2098 47bf 324f 02bf
000002d0: 3315 19bf d050 263f 61f7 45bf 3a4c 7d3f
000002e0: 7d1e 72be 40c8 d63e 55f9 8f3f 0de4 0c3f
000002f0: 730c c53f dd20 90bf 24d8 3abf f263 25bf
00000300: 5f94 a73d d56f 4fbf 1f04 353f 075d 79bf
00000310: 0291 bcbe 4a03 333f 19f4 d7be 3e0b 84bf
00000320: aabf a4bf 3c6f 483f e181 2bbf 8368 c73f
00000330: d3c0 913f a2b6 753f dbf2 cd3e 9d1a b13d
00000340: 30dc 583e 9e72 c13f 0159 8dbe 9121 ff3e
00000350: 8830 5d3f 11c6 c43e b429 943e fcf0 003f
00000360: c3ff 95bd 5f40 743f a396 bb3e 8c59 56bf
00000370: ae5e 54bf cb2e 85bf d86f 0abf abe7 dfbf
00000380: 626f 75be e6ee 083f d758 f5bf 6b55 503e
00000390: ef4e cbbf bd51 15bf 1bfc e0be ef88 773f
000003a0: 2b5f 95bf 1e5c 97bf 9fca a33f 67e2 d7be
000003b0: 4cbd b93e 3455 a13f 3049 e83d bd33 b9bf
000003c0: 9e8a b13e 3d53 98bf 7692 21bf 9d40 7ebe
000003d0: 5251 17bf 4576 3f3f 07ce dc3f 3602 d0be
000003e0: 12d2 83bd c9e2 b0bf 6099 453f 3196 043f
000003f0: 037b f7bf a94d ebbe 489b 073f 28f1 6e3f

transformer.encoder.layers.0.self_attn.in_proj_weight f4 [96, 32]
-0.13605195 0.02717989 -0.12920842 -0.07593365 -0.04179548 -0.21578008 -0.014549818 0.08867856
0.16727912 0.07926535 -0.024418373 0.036680084 -0.026767122 0.18035376 -0.14184254 0.0529186
0.07093664 -0.017042233 -0.16760498 -0.045011498 -0.1025208 0.1075412 -0.22304474 -0.15038976
0.048858315 0.17006277 -0.004200529 -0.1251152 0.14299183 -0.112242445 0.13696411 0.045217678
-0.12994516 -0.0036929722 -0.10707615 0.01799488 -0.034276247 0.1949634 -0.2836996 -0.11982662
0.10832965 0.098917656 0.08041188 0.056360003 -0.23476748 0.07763137 -0.016615393 -0.16016772
-0.0021031406 0.121487655 -0.25054136 -0.091573924 0.13288431 -0.010531207 -0.03715223 0.07702481
0.13362814 -0.10177834 -0.23072334 0.04457123 0.12798437 -0.16003272 0.062581174 0.20606439
0.06238222 -0.14630462 -0.06728768 -0.024242429 -0.035073992 -0.0337816 -0.14210781 0.03861542
0.050657462 0.08815315 -0.020335294 0.15820561 -0.045137413 0.14062902 0.05757025 0.21391909
-0.17669107 0.18716331 -0.041777954 0.10878567 0.10747494 -0.09720304 -0.010442129 0.15969421
0.112876885 0.03487464 -0.25580567 0.0684329 0.09510154 -0.09983624 -0.07494942 0.06295161
0.0327336 -0.012750387 -0.0958075 -0.046429273 0.05605808 -0.27118522 0.21767427 0.118474655
-0.07649557 -0.062445827 0.1855438 -0.08445979 -0.091825046 0.011675057 0.07088082 0.010418824
-0.1964868 0.07725051 0.16761845 0.021185013 -0.23628247 0.066289864 -0.09564483 0.052741643
0.053284124 -0.01753121 -0.03765391 0.035596594 -0.12742057 0.116123185 -0.13632828 0.21355711
0.008403087 -0.0023859122 0.20306341 0.22628517 0.15618454 -0.21371499 0.06614169 -0.06031823
0.11747605 -0.21783234 0.12935852 -0.18631014 0.029798526 -0.087597094 -0.15388791 0.05496229
0.041084506 -0.10775546 0.08662098 0.1563632 0.03225134 0.067546986 -0.028546663 0.011045881
-0.038432878 -0.1009094 0.03605262 0.04161821 0.19966027 -0.12369939 0.02164063 -0.039512053
-0.11657823 -0.023619676 -0.07157338 -0.110973895 0.2897095 -0.18198365 0.2695095 -0.03620907
-0.037945796 -0.25806788 0.000846089 -0.12689424 -0.035984945 -0.14398576 -0.16526489 0.12082994
0.12746973 -0.23105392 0.03821392 0.0206207 -0.0659029 -0.16917408 -0.0254833 -0.06912919
-0.024494506 -0.15008725 -0.01587387 -0.041176923 0.0164487 -0.13952233 0.03735374 -0.17264366
-0.032669276 0.0532501 -0.051797923 -0.031416237 0.013287358 -0.12625468 0.020648176 -0.12002563
0.1933125 -0.28135842 0.025739066 -0.069959 0.12212206 -0.1706369 -0.017467147 0.005651917
0.12689133 0.17474274 0.18530509 -0.2253871 -0.15246359 0.1699408 -0.16198026 0.061757598
-0.0010303074 0.11523049 -0.17453007 -0.059183095 0.047877427 0.15224223 -0.11845568 -0.0425151
0.009723806 -0.08923691 -0.030718923 -0.08243986 -0.07828661 0.15575272 -0.17069346 0.011994631
-0.16912612 -0.24896568 -0.034230717 -0.19849028 -0.0029463754 0.07488284 -0.01228829 0.1800502
0.21168856 -0.042595185 0.08052311 -0.07016369 0.0014974272 -0.2808009 0.07692594 -0.119037
-0.060099572 -0.07615658 -0.17242779 -0.12875557 -0.25530007 0.06502593 -0.07322137 0.13987292
00000000: 3451 0bbe 5ca8 de3c 364f 04be 1a83 9bbd
00000010: bd31 2bbd 74f5 5cbe 5c62 6ebc 1b9d b53d
00000020: 384b 2b3e df55 a23d 0a09 c8bc db3d 163d
00000030: b946 dbbc a8ae 383e 2c3f 11be 2dc1 583d
00000040: 3b47 913d 279c 8bbc a4a0 2bbe fa5d 38bd
00000050: 6df6 d1bd 903e dc3d d765 64be c6ff 19be
00000060: a81f 483d ef24 2e3e 97a4 89bb 331e 00be
00000070: 736c 123e 5edf e5bd 5240 0c3e 2c36 393d
00000080: 5810 05be cb05 72bb be4a dbbd 006a 933c
00000090: 4065 0cbd 7ca4 473e 1341 91be a967 f5bd
000000a0: efdb dd3d 5795 ca3d fcae a43d bfd9 663d
000000b0: e366 70be 32fd 9e3d 011d 88bc 0203 24be
000000c0: d8d4 09bb 85ce f83d f546 80be 1c8b bbbd
000000d0: d312 083e 158b 2cbc f02c 18bd 2fbf 9d3d
000000e0: d1d5 083e 2a71 d0bd bd42 6cbe 5290 363d
000000f0: 560e 033e 9edf 23be 8f2a 803d 8b02 533e
00000100: 8084 7f3d e1d0 15be 20ce 89bd 0f98 c6bc
00000110: bfa9 0fbd 935e 0abd b684 11be 342b 1e3d
00000120: 337e 4f3d a489 b43d 3496 a6bc a700 223e
00000130: 02e2 38bd 0e01 103e c8ce 6b3d 9b0d 5b3e
00000140: 81ee 34be bda7 3f3e 5c1f 2bbd 05cb de3d
00000150: d21b dc3d 6312 c7bd 7715 2bbc e186 233e
00000160: ff2b e73d b6d8 0e3d f6f8 82be 8c26 8c3d
00000170: 99c4 c23d f176 ccbd 157f 99bd c6ec 803d
00000180: ab13 063d 00e7 50bc b936 c4bd 9f2c 3ebd
00000190: 289d 653d cad8 8abe 01e6 5e3e d7a2 f23d
000001a0: b6a9 9cbd 32c7 7fbd 32ff 3d3e 41f9 acbd
000001b0: c50e bcbd bd48 3f3c f729 913d b7b3 2a3c
000001c0: d633 49be 8435 9e3d 2ca4 2b3e 318c ad3c
000001d0: 08f4 71be fbc2 873d 70e1 c3bd 9f07 583d
000001e0: 7440 5a3d 9d9d 8fbc fd3a 1abd bccd 113d
000001f0: 8a7a 02be fed1 ed3d a499 0bbe b7ae 5a3e
00000200: 1aad 093c f75c 1cbb dbef 4f3e 4db7 673e
00000210: d7ee 1f3e 1ad8 5abe 4b75 873d 4010 77bd
00000220: 4997 f03d 710f 5fbe 8f76 043e 16c8 3ebe
00000230: 0a1c f43c 1b66 b3bd cb94 1dbe 2320 613d
00000240: 3a48 283d e5ae dcbd 5766 b13d ad1d 203e
00000250: fb19 043d 1356 8a3d b1da e9bc c8f9 343c
00000260: cb6b 1dbd 96a9 cebd e9ab 133d db77 2a3d
00000270: be73 4c3e 1b56 fdbd b147 b13c 64d7 21bd
00000280: 91c0 eebd 0d7e c1bc 1095 92bd 4846 e3bd
00000290: ce54 943e ec59 3abe 26fd 893e f64f 14bd
000002a0: 0d6d 1bbd 7921 84be 12cc 5d3a 90f0 01be
000002b0: f364 13bd 0171 13be 333b 29be b075 f73d
000002c0: 6d87 023e 6699 6cbe 3386 1c3d beec a83c
000002d0: 1af8 86bd f83b 2dbe 5bc2 d0bc 9b93 8dbd
000002e0: b4a8 c8bc 79b0 19be eb09 82bc 22a9 28bd
000002f0: 6dbf 863c f1de 0ebe 3c00 193d 80c9 30be
00000300: 38d0 05bd c71c 5a3d 0f2a 54bd 50ae 00bd
00000310: 38b3 593c e848 01be 5d26 a93c ffcf f5bd
00000320: b6f3 453e 360e 90be bcda d23c aa46 8fbd
00000330: 211b fa3d 71bb 2ebe 4317 8fbc b733 b93b
00000340: cdef 013e c3ef 323e 9ec0 3d3e e0cb 66be
00000350: 6a1f 1cbe f604 2e3e 27de 25be 89f5 7c3d
00000360: 610b 87ba f7fd eb3d 03b8 32be f969 72bd
00000370: 1f1b 443d 63e5 1b3e e498 f2bd 5024 2ebd
00000380: 9950 1f3c d7c1 b6bd 40a6 fbbc 3bd6 a8bd
00000390: bb54 a0bd a47d 1f3e 44ca 2ebe 2185 443c
000003a0: 662f 2dbe dcf0 7ebe 8235 0cbd 0941 4bbe
000003b0: fa17 41bb 2d5c 993d d354 49bc 145f 383e
000003c0: e3c4 583e 4a78 2ebd 4de9 a43d fbb1 8fbd
000003d0: 5245 c43a 23c5 8fbe 598b 9d3d acc9 f3bd
000003e0: f82a 76bd fbf7 9bbd e990 30be 80d8 03be
000003f0: b1b6 82be 512c 853d 16f5 95bd d93a 0f3e

transformer.encoder.layers.0.self_attn.in_proj_bias f4 [96]
0.02991792 -0.015478939 -0.023002585 -0.0580073 0.04338327 0.041233834 -0.06767712 -0.10062671
-0.01698503 0.00764148 0.1842745 -0.11060848 0.11101822 -0.0501565 0.15575342 -0.016290776
-0.14650558 -0.14573489 -0.19429281 0.21100189 0.010738761 0.10546768 0.018762134 0.103619955
0.053856842 -0.1075649 -0.02284848 0.056853894 0.04820012 0.053527832 -0.091337785 0.058506437
-0.06608019 -0.0024425057 -0.004554026 0.00080908125 -0.07918755 -0.085496634 0.08235033 0.045370273
0.079763785 -0.00028120054 0.012277709 0.06050674 -0.03441344 0.043844774 0.13942528 0.027771216
0.08459358 0.031185076 0.07385674 -0.008865333 0.023873458 -0.06283126 0.046910737 -0.0206824
-0.004392484 -0.097478226 0.0137276035 -0.03341194 -0.01245918 -0.03348552 0.002449177 -0.08785225
-0.009107476 0.023228528 -0.06693234 -0.011934129 -0.13427451 0.05718538 0.054060936 -0.08591779
-0.07209309 0.049178716 0.015105505 -0.016938891 0.0024607666 -0.03111862 0.03544443 0.1566803
0.011529482 -0.019873178 -0.0010668127 0.051826913 -0.05196194 -0.041445587 0.0035652327 0.10613502
0.10793931 0.04727792 -0.043113943 0.049596753 0.10292533 0.039933562 0.024449326 0.021139238
00000000: 6d16 f53c 609b 7dbc eb6f bcbc 1099 6dbd
00000010: a8b2 313d cfe4 283d 4d9a 8abd 6015 cebd
00000020: 3124 8bbc 6165 fa3b 74b2 3c3e b386 e2bd
00000030: 855d e33d e770 4dbd d37d 1f3e 3c74 85bc
00000040: 8f05 16be 873b 15be b2f4 46be e110 583e
00000050: a1f1 2f3c 70ff d73d 0cb3 993c b336 d43d
00000060: fe98 5c3d fc4a dcbd bc2c bbbc a1df 683d
00000070: 7d6d 453d 0040 5b3d 4e0f bbbd 72a4 6f3d
00000080: 0d55 87bd 7212 20bb f039 95bb 8618 543a
00000090: 152d a2bd dc18 afbd 4aa7 a83d 2ed6 393d
000000a0: 325b a33d 196e 93b9 7228 493c ead5 773d
000000b0: 1bf5 0cbd 9496 333d 80c5 0e3e 7680 e33c
000000c0: 663f ad3d d877 ff3c 3442 973d e73f 11bc
000000d0: 4592 c33c adad 80bd 7925 403d 236e a9bc
000000e0: d4ee 8fbb aaa2 c7bd bee9 603c f5da 08bd
000000f0: 9721 4cbc 1d28 09bd 5f82 203b e1eb b3bd
00000100: 8637 15bc c149 be3c d313 89bd 5d87 43bc
00000110: 427f 09be 383b 6a3d 006f 5d3d abf5 afbd
00000120: 8ba5 93bd 9f6f 493d 147d 773c 6ec3 8abc
00000130: d044 213b 7aec febc 2e2e 113d cd70 203e
00000140: 27e6 3c3c 13cd a2bc 4bd4 8bba 7548 543d
00000150: 0bd6 54bd d9c2 29bd aea6 693b 515d d93d
00000160: 490f dd3d 7ea6 413d 3f98 30bd f725 4b3d
00000170: 84ca d23d 6091 233d f449 c83c 322c ad3c

transformer.encoder.layers.0.self_attn.out_proj.weight f4 [32, 32]
0.1617329 0.052324586 -0.1468783 0.22163802 -0.22925216 -0.22126538 -0.0050343857 0.07383614
0.22969878 0.15843852 -0.11376837 0.15371272 -0.10870043 0.016679527 -0.06865132 -0.06493881
-0.13830496 0.0007439471 0.32256034 -0.06309074 0.08418068 -0.25962904 -0.12294587 -0.19115497
-0.13519402 -0.1697168 0.075659335 -0.11186431 -0.023385089 0.1164869 -0.035151534 -0.06991587
0.020746863 -0.10918575 -0.029129209 -0.20990536 -0.29124454 0.14013354 -0.24945836 0.14934972
0.33404267 0.22008835 0.19920005 -0.10976174 0.24356152 -0.59166473 -0.2972056 0.08564278
-0.07359522 0.018353267 -0.1178445 -0.029219683 0.23476732 -0.21708399 0.2755816 -0.051338114
0.039957058 -0.073767565 -0.054574873 0.0026294745 -0.13395008 0.0659356 -0.02473304 0.039646026
0.10976869 -0.05533096 0.13554724 -0.1967115 0.057217456 0.37406528 0.025908934 0.24632278
-0.24866821 -0.11325938 0.09691543 -0.018258048 -0.24734618 -0.14111957 0.24642156 0.11774835
0.11485533 -0.13812618 -0.09921112 0.2781221 0.14778031 -0.28492132 0.07685946 0.21182017
-0.07904779 -0.26587418 -0.1736519 -0.04323689 0.16683492 0.035411835 0.024628554 -0.07809319
-0.16154192 -0.21660385 -0.035314146 0.2522157 0.37535793 -0.15554683 0.23967135 -0.15573163
-0.010184982 0.096543156 0.27524638 0.09675816 0.09286703 0.12122219 0.22499384 0.1620983
0.18366295 0.059325777 0.13676517 0.04083803 0.05199034 -0.30229387 -0.023247318 0.26894256
-0.11390987 0.062208146 -0.066657774 0.115706496 -0.15049933 -0.00083130086 -0.07783298 0.11099661
-0.01641718 0.09852994 0.021205228 0.056427773 0.39389357 -0.09327476 0.2790132 -0.0008372545
-0.22195806 0.17209285 0.21433476 -0.20196894 -0.0232715 0.13439701 -0.1760416 -0.36134464
-0.046703488 0.096236646 -0.098770835 -0.09765219 -0.1471256 0.023382338 0.16067673 0.020019414
0.072163284 -0.021000896 0.099978745 0.17512636 0.086914025 0.024810495 0.06768445 -0.07913642
-0.23956972 0.36294398 -0.14310284 0.040731095 -0.014169357 -0.12112951 0.1510886 0.0739775
0.1586546 -0.18103842 0.16233559 -0.14679904 -0.025174633 0.09896711 0.08918258 0.41992128
-0.1419226 -0.5167388 0.033219066 0.023722699 -0.10135252 0.033551984 0.14278078 0.12970403
0.30416974 0.18164319 0.19565348 -0.0043163467 -0.10712664 0.22952929 -0.019144349 0.071770824
-0.16506335 0.20203227 0.10591975 0.08255995 0.26901558 0.030584397 -0.13291961 0.18716468
0.105390295 0.22564149 0.19850527 -0.31284687 0.0234351 0.049963694 -0.29449904 0.34926617
-0.23134881 -0.21625508 -0.039987005 -0.097916685 0.12618087 0.13382474 0.49486578 0.14682378
-0.2717337 0.2326108 0.31195545 -0.15433149 -0.2147695 0.055485044 -0.15272397 -0.033503782
0.14801626 0.13538475 -0.049901858 0.23245504 0.19861732 -0.10645293 -0.06784162 -0.08918581
0.2958729 -0.020518266 -0.43465874 0.13672319 0.05784928 0.3424522 0.13022774 -0.2763599
0.20613465 -0.0825674 -0.24390388 0.04992407 0.18407409 -0.19530083 0.18623017 0.12809464
-0.021926282 0.13631092 0.3520874 0.08232963 0.12350535 -0.08473667 0.00045374397 -0.06523706
00000000: 4f9d 253e 4e52 563d 4467 16be 14f5 623e
00000010: 14c1 6abe 6493 62be 7df7 a4bb 6737 973d
00000020: 2836 6b3e b53d 223e 64ff e8bd de66 1d3e
00000030: 559e debd 81a3 883c 1099 8cbd a4fe 84bd
00000040: d19f 0dbe 7205 433a a126 a53e b835 81bd
00000050: ec66 ac3d 19ee 84be 0bcb fbbd 21be 43be
00000060: 4d70 0abe 3eca 2dbe 48f3 9a3d 1e19 e5bd
00000070: 1692 bfbc af90 ee3d 0efb 0fbd 0d30 8fbd
00000080: 53f5 a93c c79c dfbd 61a0 eebc 6ef1 56be
00000090: 011e 95be 2b7f 0f3e 0372 7fbe 22ef 183e
000000a0: a407 ab3e d75e 613e 19fb 4b3e c3ca e0bd
000000b0: 3168 793e 5777 17bf 552b 98be 7b65 af3d
000000c0: 17b9 96bd 9759 963c 7558 f1bd 1e5e efbc
000000d0: d866 703e 444b 5ebe 0819 8d3e ea47 52bd
000000e0: 03aa 233d 7313 97bd e789 5fbd 4353 2c3b
000000f0: 362a 09be 3e09 873d f29c cabc df63 223d
00000100: 68ce e03d b7a2 62bd e5cc 0a3e bd6e 49be
00000110: da5c 6a3d 7c85 bf3e f93e d43c 0a3c 7c3e
00000120: e1a2 7ebe 89f4 e7bd 997b c63d e791 95bc
00000130: 5148 7dbe a681 10be ef55 7c3e 0c26 f13d
00000140: 4539 eb3d f370 0dbe 332f cbbd 0566 8e3e
00000150: b953 173e 35e1 91be 7e68 9d3d 63e7 583e
00000160: cfe3 a1bd a920 88be ced1 31be 2a19 31bd
00000170: c6d6 2a3e 000c 113d d2c1 c93c 53ef 9fbd
00000180: 3f6b 25be 66cd 5dbe 91a5 10bd 6b22 813e
00000190: ea2e c03e ab47 1fbe 686c 753e 1d78 1fbe
000001a0: e9de 26bc 6bb8 c53d 18ed 8c3e 2429 c63d
000001b0: 1231 be3d 5743 f83d c964 663e 19fd 253e
000001c0: 2412 3c3e 96ff 723d 2b0c 0c3e c745 273d
000001d0: d3f3 543d 43c6 9abe 2971 bebc d7b2 893e
000001e0: 9449 e9bd f8cd 7e3d df83 88bd 87f7 ec3d
000001f0: 7f1c 1abe a8eb 59ba e666 9fbd 3152 e33d
00000200: 527d 86bc 11ca c93d 96b6 ad3c cf20 673d
00000210: 6bac c93e d606 bfbd d1da 8e3e 337b 5bba
00000220: f948 63be 1c39 303e 927a 5b3e f2d0 4ebe
00000230: dfa3 bebc 5f9f 093e 4044 34be 2a02 b9be
00000240: 284c 3fbd b817 c53d 5d48 cabd dffd c7bd
00000250: 18a8 16be 518c bf3c 7188 243e c1ff a33c
00000260: 58ca 933d 120a acbc a8c1 cc3d 5354 333e
00000270: fbff b13d 613f cb3c 259e 8a3d 4612 a2bd
00000280: c451 75be cbd3 b93e 8d89 12be a6d5 263d
00000290: 9726 68bc c012 f8bd f8b6 1a3e 8481 973d
000002a0: 5a76 223e 2362 39be 4d3b 263e 7d52 16be
000002b0: 083b cebc 45af ca3d 5ba5 b63d ecff d63e
000002c0: 2854 11be fe48 04bf b710 083d 1b56 c23c
000002d0: e991 cfbd ce6d 093d 2035 123e 22d1 043e
000002e0: 23bc 9b3e ac00 3a3e 6359 483e 2470 8dbb
000002f0: 3665 dbbd ba09 6b3e 9cd4 9cbc 95fc 923d
00000300: 5e06 29be 8ce1 4e3e 74ec d83d 3115 a93d
00000310: 69bc 893e 218c fa3c 141c 08be 19a8 3f3e
00000320: ded6 d73d 900e 673e f744 4b3e 772d a0be
00000330: f8fa bf3c bba6 4c3d 94c8 96be 04d3 b23e
00000340: b4e6 6cbe f971 5dbe 6ac9 23bd 8b88 c8bd
00000350: 8f35 013e 5a09 093e 0c5f fd3e f958 163e
00000360: ae20 8bbe 8731 6e3e a0b8 9f3e 1309 1ebe
00000370: 89ec 5bbe 4944 633d ac63 1cbe 433b 09bd
00000380: 9391 173e 4da2 0a3e e465 4cbd b208 6e3e
00000390: 5762 4b3e fe03 dabd 8cf0 8abd 0da7 b6bd
000003a0: a77c 973e ec15 a8bc 978b debe 2a01 0c3e
000003b0: 5ef3 6c3d e555 af3e 6c5a 053e 0b7f 8dbe
000003c0: f614 533e 1919 a9bd f0c1 79be 2e7d 4c3d
000003d0: eb7d 3c3e f1fc 47be 1fb3 3e3e 3e2b 033e
000003e0: bf9e b3bc 1795 0b3e cd44 b43e 709c a83d
000003f0: 5ff0 fc3d 6b8a adbd 7ce4 ed39 029b 85bd

transformer.encoder.layers.0.self_attn.out_proj.bias f4 [32]
0.160083 0.19992375 -0.11093333 -0.21493271 0.040538132 0.25754237 0.08509135 0.07703295
0.012264478 -0.014885241 0.025731277 0.00679656 0.14918336 -0.1783188 -0.13654558 -0.16115224
-0.025467632 0.09821822 0.01712515 -0.06750877 -0.18573508 -0.24743922 0.12120558 -0.028138878
-0.073432654 0.07327358 0.13109028 -0.11822864 0.05631084 0.12515862 0.011886785 0.16240539
00000000: ccec 233e d0b8 4c3e 0431 e3bd 5217 5cbe
00000010: 500b 263d 98dc 833e 6044 ae3d 74c3 9d3d
00000020: f3f0 483c 3ae1 73bc 66ca d23c adb5 de3b
00000030: 86c3 183e 3499 36be 9bd2 0bbe 1805 25be
00000040: 7fa1 d0bc a226 c93d 0b4a 8c3c 0a42 8abd
00000050: 5631 3ebe b560 7dbe a23a f83d 8183 e6bc
00000060: dc63 96bd 7510 963d 883c 063e db21 f2bd
00000070: 32a6 663d 9529 003e cac0 423c 994d 263e

transformer.encoder.layers.0.linear1.weight f4 [128, 32]
-0.09588402 0.077861644 0.04871035 -0.20330496 0.27274767 -0.1834076 0.37406695 0.1379198
-0.2702487 -0.22901648 0.11801549 -0.27082404 0.102946796 -0.3436911 -0.21148251 0.013369295
0.043911844 0.008292523 0.061639782 -0.033086553 0.0123984115 0.047182467 0.074273996 -0.12639973
0.055044442 -0.008083469 -0.23233269 -0.16833602 0.08354686 0.30739075 -0.14557776 0.07276616
-0.06097177 0.05074965 0.028550047 -0.056058306 -0.15676025 -0.010763976 0.16634224 0.031873964
-0.022657758 0.04938767 -0.20378734 0.17689618 -0.15900226 -0.021624327 0.0471204 -0.09001461
0.23858102 0.0058312244 0.35435098 0.13277765 -0.065755725 0.11957832 -0.27372974 0.004375323
-0.07410452 0.018416636 -0.04277558 0.06775601 -0.14682877 0.050042227 -0.106929556 0.06471888
-0.12530509 0.079989254 0.044480298 -0.16937333 0.15744428 -0.13065515 0.13433048 0.16094005
-0.028629268 -0.09884315 -0.0063109924 -0.031435113 0.018951623 -0.121172644 0.11543303 0.09018276
0.18313071 0.05415202 -0.09831136 0.04045992 -0.054531865 0.08679786 0.10801062 -0.029656146
-0.010776811 0.091656424 0.0641828 0.0045151915 -0.06045178 0.28946292 -0.16101742 -0.04692641
-0.25433475 -0.16972941 0.066793114 -0.089336455 0.08039222 0.05159241 0.118838035 -0.1384683
-0.23151451 0.04148724 0.061006844 -0.2253057 -0.17300388 -0.0030925488 0.0276375 -0.15971039
0.07477609 -0.24916418 0.1643022 -0.13232218 -0.17159957 0.039348397 -0.07333098 -0.091062896
-0.076608345 -0.16586812 0.09419779 -0.019966058 0.06703848 -0.019924166 0.058306634 -0.28869125
-0.02598416 0.13982192 0.036144212 0.049010035 0.25505212 -0.05589608 -0.037136953 0.044164404
-0.103340656 0.005709174 -0.109459355 0.012302522 -0.14426902 0.012320404 -0.21631977 -0.11578092
0.009662598 -0.0037425351 0.036011696 0.20013723 0.13631898 -0.08665231 -0.13280223 -0.07747029
-0.12147704 0.019482773 0.114028 -0.21452421 -0.13736455 0.0001619069 -0.18225875 -0.008193447
0.1775397 -0.11163865 -0.083546504 -0.08777167 -0.078822814 0.09185151 0.16852105 0.041581392
-0.043467116 -0.07284304 0.02266839 0.17500676 0.032262906 -0.23239163 0.023664733 0.05807072
-0.17689507 0.087315425 0.09916218 -0.15591449 -0.21380457 0.040032115 -0.18936992 -0.011655019
0.09468107 -0.06144887 0.018463196 0.035745498 0.062231444 0.14690112 0.08694866 0.041267484
-0.26623318 0.13078901 0.1237995 -0.11777908 0.33594573 -0.13160013 0.15867227 -0.06310171
-0.039236594 -0.06436904 0.06441385 -0.03517102 0.08168342 0.008357196 -0.19958468 -0.036776762
-0.046882637 0.13895442 0.14275546 0.050776817 -0.023221886 0.1532162 0.03760196 0.046722136
-0.09598092 0.013694751 -0.1195875 -0.0056170416 0.004520836 0.18016908 -0.33500317 -0.1828942
-0.06506054 -0.034997143 0.057220202 -0.2731491 -0.015330467 -0.014127771 0.19996248 0.16187224
-0.024400715 -0.23241504 0.06459285 0.016551444 -0.071152 0.12590626 -0.04493795 0.2771879
-0.1388578 0.06278008 0.20030208 -0.040965643 0.01666734 -0.22856532 -0.102764644 0.17055304
-0.13974102 0.04276848 -0.2063141 0.067027904 0.16753423 0.28358144 0.13128303 0.115788236
00000000: d75e c4bd ed75 9f3d 8184 473d 2d2f 50be
00000010: 95a5 8b3e 34cf 3bbe b485 bf3e d93a 0d3e
00000020: 0a5e 8abe 4c83 6abe 1bb2 f13d 73a9 8abe
00000030: c5d5 d23d 48f8 afbe df8e 58be e30a 5b3c
00000040: e8dc 333d 5ddd 073c ff79 7c3d c485 07bd
00000050: b522 4b3c 6742 413d f71c 983d ee6e 01be
00000060: 4876 613d 8770 04bc 9fe8 6dbe 4760 2cbe
00000070: 9e1a ab3d 5262 9d3e 5612 15be 6d06 953d
00000080: 89bd 79bd ddde 4f3d cae1 e93c 659d 65bd
00000090: c285 20be 635b 30bc 9f55 2a3e 468e 023d
000000a0: c39c b9bc ba4a 4a3d a1ad 50be 4624 353e
000000b0: 7dd1 22be 8025 b1bc 5201 413d 9459 b8bd
000000c0: 954e 743e db13 bf3b 7e6d b53e ddf6 073e
000000d0: f0aa 86bd 7ae5 f43d 4e26 8cbe df5e 8f3b
000000e0: 1cc4 97bd 7cde 963c 7235 2fbd aac3 8a3d
000000f0: 485a 16be 14f9 4c3d e2fd dabd 558b 843d
00000100: fa4f 00be 68d1 a33d f930 363d 3470 2dbe
00000110: 1339 213e 77ca 05be ee8d 093e 78cd 243e
00000120: ed87 eabc 476e cabd 71cc cebb 1bc2 00bd
00000130: 6f40 9b3c 5d29 f8bd 2768 ec3d bdb1 b83d
00000140: 9e86 3b3e 82ce 5d3d 7757 c9bd 4db9 253d
00000150: ce5c 5fbd 14c3 b13d ac34 dd3d 72f1 f2bc
00000160: 3991 30bc 5db6 bb3d 4672 833d 2cf4 933b
00000170: 499c 77bd 7c34 943e c0e1 24be e835 40bd
00000180: 2a38 82be 8ccd 2dbe d4ca 883d 08f6 b6bd
00000190: ada4 a43d 9052 533d 5b61 f33d a2ca 0dbe
000001a0: 2412 6dbe 86ee 293d 50e2 793d 8ab6 66be
000001b0: ee27 31be 5cac 4abb 0a68 e23c 1f8b 23be
000001c0: 3524 993d e524 7fbe d63e 283e 777f 07be
000001d0: ccb7 2fbe c92b 213d 8e2e 96bd 2f7f babd
000001e0: d6e4 9cbd 55d9 29be c5ea c03d dc8f a3bc
000001f0: 784b 893d 0138 a3bc f0d2 6e3d 57cf 93be
00000200: bcdc d4bc 7a2d 0f3e f40b 143d bfbe 483d
00000210: 3196 823e 4af3 64bd eb1c 18bd bce5 343d
00000220: 44a4 d3bd 0614 bb3b 3a2c e0bd 8490 493c
00000230: 42bb 13be 85db 493c ee82 5dbe 8c1e edbd
00000240: e04f 1e3c 5245 75bb 0081 133d c6f0 4c3e
00000250: 3497 0b3e c476 b1bd 4ffd 07be bea8 9ebd
00000260: f4c8 f8bd 569a 9f3c 8387 e93d 3cac 5bbe
00000270: 4ba9 0cbe 8dc5 2939 0aa2 3abe cf3d 06bc
00000280: f8cc 353e cea2 e4bd 6e1a abbd a2c1 b3bd
00000290: db6d a1bd a51c bc3d c890 2c3e 4051 2a3d
000002a0: 930a 32bd bb2e 95bd 0fb3 b93c f934 333e
000002b0: 1c26 043d 12f8 6dbe 8bdc c13c 90db 6d3d
000002c0: fb23 35be 6ed2 b23d 8b15 cb3d 0ca8 1fbe
000002d0: 96ef 5abe b7f8 233d 30ea 41be b1f4 3ebc
000002e0: 26e8 c13d cfb1 7bbd 2140 973c df69 123d
000002f0: 66e6 7e3d 3f6d 163e 2412 b23d 1808 293d
00000300: b74f 88be 8eed 053e 988a fd3d 2936 f1bd
00000310: 1401 ac3e 2fc2 06be fc7a 223e 783b 81bd
00000320: 8db6 20bd ead3 83bd 69eb 833d 7d0f 10bd
00000330: a349 a73d 9fec 083c ed5f 4cbe 3ba3 16bd
00000340: 0208 40bd 114a 0e3e 7d2e 123e 5afb 4f3d
00000350: d33b bebc b5e4 1c3e 8304 1a3d b65f 3f3d
00000360: a591 c4bd f35f 603c 4bea f4bd 290f b8bb
00000370: 8523 943b 3e7e 383e 8985 abbe 9e48 3bbe
00000380: 763e 85bd 2a59 0fbd bb5f 6a3d 33da 8bbe
00000390: a42c 7bbc 2b78 67bc f7c2 4c3e d6c1 253e
000003a0: 02e4 c7bc 35fe 6dbe 4249 843d e596 873c
000003b0: 24b8 91bd 92ed 003e db10 38bd 93eb 8d3e
000003c0: bd30 0ebe d892 803d fd1b 4d3e 97cb 27bd
000003d0: f289 883c 070d 6abe 4576 d2bd 75a5 2e3e
000003e0: 4518 0fbe 002e 2f3d 0144 53be ed45 893d
000003f0: 188e 2b3e 9631 913e 0f6f 063e 6222 ed3d

transformer.encoder.layers.0.linear1.bias f4 [128]
-0.3614308 -0.1523433 -0.20496543 -0.13924925 -0.22887757 -0.31568316 -0.0926675 -0.11474824
-0.1989674 -0.33441243 -0.059104722 -0.3297741 -0.2104236 -0.07870795 -0.31582874 -0.18758747
-0.19797915 -0.39729762 -0.18232693 -0.20415711 -0.21352834 -0.197328 -0.29373375 -0.18456623
-0.2791982 -0.15144272 -0.12229198 -0.29969755 -0.20995234 -0.15409745 -0.27871808 -0.34087792
-0.23582543 -0.3657584 -0.35872248 -0.17107065 -0.21683219 -0.043261804 -0.028061789 -0.19686076
-0.17181699 -0.27958548 -0.092133254 -0.1623006 -0.21278825 -0.059900153 -0.4001834 -0.13382396
-0.23565665 -0.38115862 -0.24255525 -0.34361976 -0.08373424 -0.1319606 -0.105784535 -0.25457886
-0.12800099 -0.033612054 -0.095691755 -0.28637964 -0.07851883 -0.33487925 -0.23948787 -0.22911097
-0.11925597 -0.15349625 -0.26664233 -0.21886225 -0.3112045 -0.37438536 -0.0644476 -0.24440028
-0.3299547 -0.13030438 -0.16316366 -0.33486715 -0.38000917 -0.46664667 -0.28320107 -0.21731296
-0.19440165 -0.08127508 -0.25265098 -0.2988161 -0.21463656 -0.38872313 -0.24120359 -0.34128907
-0.2054339 -0.23375505 -0.36324543 -0.26109138 -0.3723837 -0.3515522 -0.3089277 -0.1642943
-0.30045888 -0.27487677 -0.3189026 -0.18631944 -0.24975413 -0.039994843 -0.40448532 -0.19368899
-0.08194117 -0.31171152 -0.11873925 -0.37864324 -0.14073429 -0.014988427 -0.507678 -0.15814367
-0.28382304 -0.13934408 -0.25803754 -0.14514793 -0.23899876 -0.020242695 -0.36834934 -0.49387366
-0.22032163 -0.17963348 -0.1880498 -0.1991671 -0.12266583 -0.09012827 -0.27893883 -0.07998644
00000000: 750d b9be e2ff 1bbe 75e2 51be 5b97 0ebe
00000010: e25e 6abe 39a1 a1be 75c8 bdbd 2001 ebbd
00000020: 1cbe 4bbe 1b38 abbe cb17 72bd 27d8 a8be
00000030: 4979 57be a231 a1bd 4eb4 a1be ee16 40be
00000040: 0cbb 4abe 986a cbbe e9b3 3abe 900e 51be
00000050: 2ca7 5abe 5a10 4abe 4564 96be eefe 3cbe
00000060: 11f3 8ebe cd13 1bbe 3874 fabd f571 99be
00000070: bffd 56be b9cb 1dbe 23b4 8ebe 8d87 aebe
00000080: 397c 71be af44 bbbe 79aa b7be 252d 2fbe
00000090: 4209 5ebe 4a33 31bd d6e1 e5bc de95 49be
000000a0: cbf0 2fbe d425 8fbe 5cb0 bcbd 2132 26be
000000b0: 2ae5 59be dd59 75bd d7e4 ccbe 2609 09be
000000c0: fa4f 71be 3927 c3be 6760 78be eeee afbe
000000d0: db7c abbd ae20 07be 90a5 d8bd 2958 82be
000000e0: b112 03be cbac 09bd 0afa c3bd 5aa0 92be
000000f0: 7bce a0bd 4b75 abbe 4f3c 75be 119c 6abe
00000100: 793c f4bd 1f2e 1dbe 5885 88be 6d1d 60be
00000110: 3256 9fbe 70af bfbe 1afd 83bd 1144 7abe
00000120: d3ef a8be 836e 05be 6014 27be b573 abbe
00000130: 9090 c2be 50ec eebe bbff 90be 4a87 5ebe
00000140: 3a11 47be 8d73 a6bd 785b 81be 6dfe 98be
00000150: b0c9 5bbe b806 c7be 13fe 76be 71bd aebe
00000160: 445d 52be 7c5d 6fbe 4efb b9be c5ad 85be
00000170: 14a9 bebe a6fe b3be c62b 9ebe c43c 28be
00000180: bfd5 99be a6bc 8cbe 3447 a3be 86ca 3ebe
00000190: 8cbf 7fbe a2d1 23bd b318 cfbe 6856 46be
000001a0: c6d0 a7bd a798 9fbe 902d f3bd 87dd c1be
000001b0: a61c 10be 0592 75bc 2ff7 01bf 6af0 21be
000001c0: 4151 91be 37b0 0ebe 7f1d 84be a9a1 14be
000001d0: 17bc 74be 02d4 a5bc 4998 bcbe 02dd fcbe
000001e0: fe9b 61be d7f1 37be 2090 40be 76f2 4bbe
000001f0: 3938 fbbd 2c95 b8bd 12d1 8ebe eecf a3bd
