Models/transformer_1head_32hidden_100epochs_minus5females_model4.pth (torch, 156129 bytes, 40 tensors)

encoder_embedding.weight f4 [47, 32]
1.3156048 -1.4487151 -0.56873775 -0.8832946 -1.8007863 0.24424249 2.4841983 0.40637007
-0.30274427 0.1459281 -0.4859942 2.096346 -2.102882 -0.04643847 0.1396021 0.67979455
2.397943 1.3966933 -0.31894535 -0.93768233 0.9576903 -0.67605245 -1.1241888 -3.2592406
-0.2093846 -0.07501009 -1.2691438 -0.39874446 1.1272321 -0.8534352 0.3699447 -0.34466556
0.6341114 -1.8826315 0.62608474 0.58999956 0.5623821 1.5769196 0.39654937 -0.83174574
-0.5022809 -0.4779655 0.9074205 -0.57328093 -0.15144616 1.1890247 0.043853994 -0.5597488
-1.1321067 0.41833624 1.103247 0.6817108 -0.20979548 1.0557768 0.017180165 0.50991935
1.2221586 0.28633973 -1.3938959 1.4677517 -0.98148865 0.37156075 0.59553707 1.8428429
0.14025934 -0.9650752 0.7606199 2.101385 0.0575459 -0.39100417 -0.76352566 1.2623613
-0.4996796 0.723986 -0.3473708 -1.4222848 -1.4190162 0.43591428 -0.61600024 0.1954085
1.6925614 0.8377918 0.5774177 -1.5743307 -0.595531 0.68354106 0.5571016 0.6405908
-0.73907316 1.559993 0.75028086 0.4487782 0.45165533 -1.1472901 -0.8357689 0.045504138
0.6919756 -0.8436593 1.7876021 0.60517627 -1.6385162 -0.062494442 -0.08272994 0.5176946
-0.5196104 -2.0540993 1.0567582 1.0970719 -0.92378426 0.169497 0.027810317 0.7577031
-0.79271394 1.0882683 1.5629264 0.50390935 -0.9003507 -2.1085694 -0.8864903 2.3514779
-0.14037544 -0.15783559 -0.87499315 -0.08134042 -1.556867 0.10757096 -0.57166135 1.696961
-0.63185835 1.5996019 0.60652494 -1.1309639 0.58099437 -1.9739089 -0.3141724 1.7487234
0.29627502 -0.44971496 -2.459381 -1.2768095 0.35523042 -0.8223544 -0.34325182 -1.1500787
1.2615094 0.9644626 -0.98385316 -2.6916919 -0.06609507 -0.037411705 -1.1074165 -1.0918927
0.049729764 0.17526914 0.45996267 0.15267581 -0.26040652 0.20472439 0.28470078 0.7999906
-0.81934047 -0.19563553 -0.80373466 1.7686018 0.7237899 0.9158842 -0.5474673 -1.3700143
0.9483468 -1.5238698 -0.055672575 0.46786454 -0.57753354 -0.9863932 1.9865509 2.67075
0.3567816 0.9766871 -1.7311692 0.8082342 0.29971227 1.4141954 -1.3894148 -0.15397744
-0.6434161 1.1963207 0.8949951 0.9719469 0.0144103 0.19982027 1.568846 2.415222
1.2345977 -0.22859691 1.381977 -0.7452908 1.1072263 -0.32943922 -1.3592727 -0.42984042
-0.043868717 -0.62958163 1.3673996 0.78423476 -2.2741234 0.93629706 0.52027255 1.578391
0.556915 -1.4533495 0.64864314 -0.70255065 -0.072703235 0.85181344 -1.3582516 0.57609606
-0.72026527 -0.38250822 -0.5209336 -0.7843725 1.3441455 1.4426239 0.75308365 -1.0079405
0.50255203 -0.15547474 -1.195261 -1.2025965 -0.34554014 -0.7478941 0.962823 0.13850702
-0.88924706 -0.15612005 0.9568175 0.43160826 -0.3863302 0.34613723 -0.73767954 -0.15276118
-2.0159514 1.5262909 0.3092782 -0.45502385 0.075054735 -0.6251771 2.1372364 1.618103
3.1979227 0.8697222 -0.054386336 -0.9388059 -1.1164128 -1.8205452 0.4752557 -0.0901516
00000000: bd65 a83f 7f6f b9bf cc98 11bf 981f 62bf
00000010: 2a80 e6bf b41a 7a3e 1bfd 1e40 bd0f d03e
00000020: 4c01 9bbe 2d6e 153e 3bd4 f8be 882a 0640
00000030: 9e95 06c0 4436 3ebd daf3 0e3e 0407 2e3f
00000040: e677 1940 d9c6 b23f ce4c a3be f30b 70bf
00000050: 312b 753f c611 2dbf 6be5 8fbf 6697 50c0
00000060: eb68 56be e49e 99bd 4e73 a2bf 3c28 ccbe
00000070: 2449 903f bb7a 5abf 6469 bd3e 0178 b0be
00000080: 2055 223f 12fa f0bf 1747 203f 360a 173f
00000090: 46f8 0f3f 80d8 c93f 8508 cb3e 4aed 54bf
000000a0: 7b95 00bf e5b7 f4be b64c 683f 8ac2 12bf
000000b0: b414 1bbe f631 983f 3fa0 333d b34b 0fbf
000000c0: dfe8 90bf 2b30 d63e 3337 8d3f 9984 2e3f
000000d0: a0d4 56be b223 873f 6bbd 8c3c 138a 023f
000000e0: b16f 9c3f 1f9b 923e 2e6b b2bf 4adf bb3f
000000f0: d742 7bbf 363d be3e 1e75 183f 47e2 eb3f
00000100: 25a0 0f3e 2b0f 77bf fcb7 423f 187d 0640
00000110: 40b5 6b3d b331 c8be 6b76 43bf 0e95 a13f
00000120: 01d6 ffbe 2657 393f 96da b1be 6e0d b6bf
00000130: 53a2 b5bf 2830 df3e 31b2 1dbf 2a19 483e
00000140: daa5 d83f 8679 563f a5d1 133f ab83 c9bf
00000150: b874 18bf 8cfc 2e3f 369e 0e3f c2fd 233f
00000160: e633 3dbf daad c73f 6812 403f 42c6 e53e
00000170: 5e3f e73e 67da 92bf f3f4 55bf 8c62 3a3d
00000180: 5025 313f 0efa 57bf 25d0 e43f d5ec 1a3f
00000190: e6ba d1bf 2cfa 7fbd 516e a9bd a287 043f
000001a0: 3005 05bf 5d76 03c0 da43 873f da6c 8c3f
000001b0: 207d 6cbf 9f90 2d3e 76d2 e33c d5f8 413f
000001c0: 4def 4abf 604c 8b3f f90d c83f 3400 013f
000001d0: 627d 66bf cdf2 06c0 07f1 62bf 9d7e 1640
000001e0: 94be 0fbe a79f 21be 8dff 5fbf ce95 a6bd
000001f0: 6b47 c7bf 2a4e dc3d 6658 12bf 0536 d93f
00000200: 78c1 21bf c1bf cc3f 3845 1b3f 6dc3 90bf
00000210: 0cbc 143f 0ca9 fcbf 34db a0be 2bd6 df3f
00000220: 5cb1 973e 0a41 e6be 8066 1dc0 7e6e a3bf
00000230: c3e0 b53e d185 52bf b4be afbe c735 93bf
00000240: 2479 a13f 05e7 763f cddd 7bbf ae44 2cc0
00000250: da5c 87bd 043d 19bd d3bf 8dbf 24c3 8bbf
00000260: 70b1 4b3d c179 333e 3a80 eb3e 0c57 1c3e
00000270: 0154 85be 45a3 513e 4dc4 913e 2fcc 4c3f
00000280: 4cc0 51bf ae54 48be 8ec1 4dbf 8b61 e23f
00000290: 4b4a 393f 6377 6a3f d126 0cbf a15c afbf
000002a0: dbc6 723f 2a0e c3bf ed08 64bd f18b ef3e
000002b0: 3dd9 13bf 4484 7cbf 4d47 fe3f 91ed 2a40
000002c0: 14ac b63e 2a08 7a3f f496 ddbf 70e8 4e3f
000002d0: e373 993e 5b04 b53f 58d8 b1bf 43ac 1dbe
000002e0: ebb6 24bf 0921 993f 661e 653f 83d1 783f
000002f0: 2e19 6c3c af9d 4c3e f2cf c83f ff92 1a40
00000300: 4c07 9e3f 4f15 6abe 9fe4 b03f 61cb 3ebf
00000310: 97b9 8d3f 42ac a8be a6fc adbf 0b14 dcbe
00000320: afaf 33bd 432c 21bf f306 af3f 9cc3 483f
00000330: 3d8b 11c0 2ab1 6f3f 9530 053f b708 ca3f
00000340: fb91 0e3f 5b07 babf 7a0d 263f 5cda 33bf
00000350: 6fe5 94bd 7210 5a3f 30db adbf 087b 133f
00000360: 4e63 38bf 1ed8 c3be e85b 05bf a3cc 48bf
00000370: f60c ac3f e6a7 b83f 17ca 403f 3204 81bf
00000380: 40a7 003f c534 1fbe 50fe 98bf afee 99bf
00000390: a3ea b0be fd75 3fbf 917b 763f c9d4 0d3e
000003a0: b2a5 63bf efdd 1fbe fef1 743f c2fb dc3e
000003b0: 12cd c5be e638 b13e 91d8 3cbf 6d6d 1cbe
000003c0: 5905 01c0 805d c33f b659 9e3e e3f8 e8be
000003d0: 4cb6 993d 9b0b 20bf 7bc8 0840 001e cf3f
000003e0: c4aa 4c40 1da6 5e3f 35c4 5ebd 9555 70bf
000003f0: 9de6 8ebf a007 e9bf b754 f33e 67a1 b8bd

decoder_embedding.weight f4 [45, 32]
-0.53941786 -0.62377167 -1.1158166 0.6977993 -0.69279385 -0.506949 0.8892368 0.20876074
-1.4669747 0.83257633 -0.28233048 1.4802365 1.443708 0.3010493 -0.30463806 -0.5267202
-1.4646987 -1.3940766 -0.91802907 -0.3626649 0.1497778 1.7513154 -1.2600127 -0.30902967
-0.66217655 -0.6885958 -0.73019224 0.8865725 -0.21480927 0.2025947 0.71506745 -1.4006184
0.45939508 0.7329449 0.47176254 1.0236871 -1.1475531 -0.6873328 1.000562 -1.9903815
-2.1564262 1.7469883 -1.4841019 1.4626452 -2.0312107 -0.05518998 0.9077177 -1.9124397
0.3604186 -0.118992254 0.67893827 -1.7664915 -0.13091059 0.62964064 1.5394008 1.0896516
-0.47735772 1.0117178 -2.4545858 -0.25917462 1.2181109 0.460461 0.9425765 0.43944865
0.60416263 0.5119856 -0.47539976 -0.3946503 2.0108802 0.7693074 0.5578518 0.09519133
0.62404394 -1.9692043 -0.28577372 0.22693233 -1.3174852 0.7571886 -1.6236571 -0.2462488
1.1486216 -0.06363311 0.015917247 -1.9427618 0.13655193 0.27175042 -0.8609337 1.4680083
-0.5833553 0.42978898 -1.1178366 1.3450679 0.6421599 -0.43651313 -0.33211547 -0.5922485
2.2457342 -1.4054916 0.6715742 1.1291186 3.0048363 0.2347893 1.0871375 -1.3433298
0.40835965 -0.44006842 0.27264547 -3.420928 1.2422476 0.930552 1.864904 0.07389424
-0.63370764 0.91479754 -1.888111 0.26044023 -0.19970664 0.36751708 -1.3065546 -0.52787596
-0.71965367 0.75421107 -0.94416904 -0.5529883 0.14594185 1.3213025 1.2224125 -0.18800177
-0.6927287 0.9487429 1.8206469 1.0741336 -2.1262228 0.47037408 -1.723855 -0.67517704
0.28762084 1.0415754 -0.19884428 -0.20814063 1.4354337 -2.3473923 0.8382169 -0.52605754
-1.739346 0.33481258 0.115645476 1.7254268 -0.5298979 -1.0210638 -0.34939656 2.3611467
0.14712344 -2.4857469 1.2076701 -0.099397205 1.863406 0.6042325 -0.100360885 -0.15039898
-0.44260252 0.6682527 1.6664001 0.659493 0.45522714 0.17286162 -0.64411944 -1.8476056
-2.45249 -0.8597261 0.08446099 -0.7680203 -0.4443979 -0.6646269 -1.0065907 1.9089171
-0.17266144 0.749047 -1.9212586 0.88725185 2.0388114 0.54639715 -0.31790188 -0.11894554
0.56611836 -0.18409301 1.6728448 1.4397204 -0.4348862 -0.96105456 -0.108370356 0.8732181
0.52804744 0.4320721 -1.031603 0.62553084 -0.013599854 -0.044610627 -0.5654493 0.18637353
-0.50757146 -1.0878202 -0.48884943 -0.12429378 0.91481894 0.72599477 -0.107226364 0.47221085
1.4519675 2.7187817 0.7933244 0.6056116 0.18670744 1.8309846 0.055973694 0.9326732
0.10725017 -0.09977059 1.0726174 0.38739732 -0.6307802 -0.4348515 0.9615534 0.7889934
0.17969505 1.774867 -0.4493793 -0.3674547 1.1825056 0.90962774 -0.0073185796 0.63982517
0.49997252 0.032737236 -0.49008632 -0.049902722 -0.96886307 1.2317663 0.19184016 -0.3051741
0.20127398 0.17035532 1.6622869 0.12435185 0.21428445 -1.0465025 1.4128404 -0.73864865
0.26454583 1.2679334 0.28697157 -0.84083664 -1.0286635 -0.7834109 -0.94030756 0.7047712
00000000: 4a17 0abf 80af 1fbf 14d3 8ebf faa2 323f
00000010: f05a 31bf 69c7 01bf 06a5 633f 60c5 553e
00000020: d4c5 bbbf b923 553f 9f8d 90be 6478 bd3f
00000030: 6ccb b83f 2223 9a3e 85f9 9bbe 23d7 06bf
00000040: 3f7b bbbf 1a71 b2bf f403 6bbf 37af b9be
00000050: 5a5f 193e 1a2b e03f 1948 a1bf 2339 9ebe
00000060: 6784 29bf d047 30bf e1ed 3abf 6af6 623f
00000070: f6f6 5bbe fc74 4f3e a90e 373f 7747 b3bf
00000080: d535 eb3e 47a2 3b3f dc8a f13e 2e08 833f
00000090: 05e3 92bf 0bf5 2fbf 6a12 803f d2c4 febf
000000a0: e302 0ac0 509d df3f 0df7 bdbf f537 bb3f
000000b0: 5bff 01c0 e30e 62bd 3060 683f d3ca f4bf
000000c0: c988 b83e 36b2 f3bd e6ce 2d3f 651c e2bf
000000d0: 6d0d 06be 2130 213f 160b c53f b479 8b3f
000000e0: 3b68 f4be f87f 813f ef17 1dc0 89b2 84be
000000f0: 0feb 9b3f 8bc1 eb3e b24c 713f 6aff e03e
00000100: 67aa 1a3f 7d11 033f 9967 f3be 9b0f cabe
00000110: 43b2 0040 54f1 443f 60cf 0e3f acf3 c23d
00000120: 58c1 1f3f e30e fcbf ef50 92be f360 683e
00000130: 5ba3 a8bf 1dd7 413f ffd3 cfbf a528 7cbe
00000140: 0806 933f 1352 82bd e364 823c 6bac f8bf
00000150: 45d4 0b3e df22 8b3e 2766 5cbf b2e7 bb3f
00000160: c656 15bf 4d0d dc3e 4515 8fbf 2f2b ac3f
00000170: 9764 243f a67e dfbe 0a0b aabe 999d 17bf
00000180: 1cba 0f40 26e7 b3bf 49ec 2b3f f586 903f
00000190: 3d4f 4040 9b6c 703e 5227 8b3f 3bf2 abbf
000001a0: 8414 d13e a650 e1be 3098 8b3e 7cf0 5ac0
000001b0: f801 9f3f a838 6e3f 2db5 ee3f dd55 973d
000001c0: aa3a 22bf 2c30 6a3f 9fad f1bf 6c58 853e
000001d0: e67f 4cbe 332b bc3e 2e3d a7bf e122 07bf
000001e0: 393b 38bf fa13 413f 10b5 71bf a490 0dbf
000001f0: c871 153e 7120 a93f 0378 9c3f 8983 40be
00000200: ab56 31bf d1e0 723f f50a e93f 367d 893f
00000210: 0914 08c0 dfd4 f03e 48a7 dcbf 67d8 2cbf
00000220: 0a43 933e 5852 853f d69d 4bbe d122 55be
00000230: 4bbc b73f ad3b 16c0 6295 563f b5ab 06bf
00000240: e4a2 debf 8e6c ab3e 89d7 ec3d c9da dc3f
00000250: 64a7 07bf 38b2 82bf 1be4 b2be 071d 1740
00000260: 87a7 163e 7a16 1fc0 ef94 9a3f c390 cbbd
00000270: 1684 ee3f fbae 1a3f 028a cdbd 3102 1abe
00000280: cc9c e2be 9c12 2b3f 994c d53f 89d4 283f
00000290: 8813 e93e a302 313e 03e5 24bf 577e ecbf
000002a0: 99f5 1cc0 0217 5cbf e2f9 ac3d fa9c 44bf
000002b0: 1f88 e3be fd24 2abf f7d7 80bf 6557 f43f
000002c0: 29ce 30be 8bc1 3f3f cdeb f5bf f022 633f
000002d0: e37b 0240 afe0 0b3f 09c4 a2be b899 f3bd
000002e0: 22ed 103f e182 3cbe c71f d63f c248 b83f
000002f0: 67a9 debe ac07 76bf 47f1 ddbd 398b 5f3f
00000300: 1e2e 073f 8e38 dd3e 910b 84bf ca22 203f
00000310: ecd1 5ebc a2b9 36bd 49c1 10bf b4d8 3e3e
00000320: 34f0 01bf b13d 8bbf 794a fabe bd8d febd
00000330: 9331 6a3f cbda 393f 7f99 dbbd 9fc5 f13e
00000340: 12da b93f 8500 2e40 4f17 4b3f 5d09 1b3f
00000350: 3c30 3f3e b45d ea3f ac44 653d acc3 6e3f
00000360: faa5 db3d 8654 ccbd 874b 893f f158 c63e
00000370: d07a 21bf dba4 debe 5d28 763f 79fb 493f
00000380: fb01 383e d82e e33f 0b15 e6be 0623 bcbe
00000390: 585c 973f 5ddd 683f b2d0 efbb 95cb 233f
000003a0: 66fc ff3e 7b17 063d 98ec fabe cc66 4cbd
000003b0: 6907 78bf 85aa 9d3f bf71 443e c83f 9cbe
000003c0: c41a 4e3e a071 2e3e d1c5 d43f 2fac fe3d
000003d0: 626d 5b3e cbf3 85bf f4d7 b43f 1418 3dbf
000003e0: 8d72 873e a44b a23f f0ed 923e 1241 57bf
000003f0: 3fab 83bf 9e8d 48bf ffb7 70bf e36b 343f

encoder_pos_embedding.weight f4 [8, 32]
-0.87581277 1.1736871 -0.4487765 0.18799916 0.91953754 -1.0947276 0.1018907 -0.8872419
0.77597594 -0.3395425 -1.3309501 0.04789373 0.52499187 -1.2733568 0.29437485 -0.75174963
1.0340149 -0.5511906 -0.2406357 -1.3068293 -1.7064732 1.2907236 1.2879319 -1.1697837
-1.8253037 -0.5352429 0.18227607 -1.1988393 1.0705107 0.31608728 -0.05697379 -1.4336
0.6341945 1.5044503 0.067594886 0.6835629 -0.7852308 1.4285091 -1.2228974 -1.4141282
-0.8683299 0.34554133 -1.155399 0.7113717 1.4466894 -0.17273611 1.547651 0.056818273
-0.28473762 1.4714036 0.023241308 -0.45888492 1.2038225 -0.83869696 0.043802615 -0.091507874
-0.24343716 1.1795685 -0.6778364 -0.3733476 -0.32015917 -1.1845893 -0.81051207 0.0070846495
-0.7204868 -0.6060573 0.5363996 0.07045584 -0.85336804 -1.3401719 0.28496844 -1.4522201
1.1331801 -1.8772117 -0.7772637 1.2741907 0.1536448 -1.7334403 -0.9922477 -1.7301366
-1.4047195 1.2787243 0.072924964 0.3577577 1.0538665 -0.38878316 -1.3169448 -1.6972693
0.5422137 0.28842145 0.5673443 0.61958843 1.5682104 0.49842006 0.06153967 -0.4959617
-1.2493188 -0.23522025 0.089708485 1.4323413 0.56725657 -0.21680616 -0.5376959 0.17471248
0.09664623 0.7972925 1.1222303 -0.8949222 0.12702248 0.095856346 -0.47439966 0.0057545933
0.12109166 0.8153065 -1.3365225 -1.0127683 0.32108742 0.5871371 2.1853337 0.37655783
-0.29920003 0.34898126 0.8957371 -0.41679108 -0.26834732 0.23018666 0.4504538 -0.40261576
0.7653042 0.7480109 -0.81301886 -0.40163928 0.48441854 -0.3549049 -0.49784857 1.9827911
0.91378206 -0.65971476 -0.7087849 0.046670534 0.9925126 -0.16907646 1.2286894 -1.4533405
0.30456954 0.5840367 -0.41632226 -0.48998457 0.1778103 -0.39227855 -0.01995697 0.20978694
-1.7734098 0.7043335 -1.4683192 1.3313948 0.30646652 -0.16994224 1.0712848 0.7075777
-0.25482693 1.9730256 -0.7061397 -0.89827883 -1.1986775 1.0637039 1.0674967 -0.091275774
-0.26655287 0.1818539 0.14378494 -0.028105943 0.04439919 0.773847 1.2824173 -1.1648386
0.3369279 -0.08554761 -1.1082271 -1.8177925 -0.6477107 0.7785612 1.2359368 -0.7295429
0.8881453 -0.050778832 -0.25046876 1.4585435 -1.3501981 0.5498637 -1.5697101 0.58726275
0.72774595 0.03009075 -0.5218081 0.85350096 -1.118173 -0.3432896 -0.0519786 -1.5890791
-0.34487078 -1.2741194 -0.57007945 0.9083012 0.6038476 0.8384655 -0.72838765 0.5770381
-1.1062316 -0.43482038 0.96314013 0.8650848 0.978984 0.35180774 -0.87126625 0.15136832
-0.53827524 1.5372782 1.4507369 -0.5218987 -0.13615511 0.9475081 2.2766578 0.77220964
2.436746 0.17458312 0.17645328 -0.7187714 0.70447284 0.13325617 -0.76242334 0.1823268
-0.9731284 1.0487251 -0.056459248 -1.3026037 1.7449036 0.72585267 0.8514256 0.5901214
0.8944283 -0.48794705 -0.87683415 -0.14547533 0.461436 -0.10105795 1.1186974 0.8513518
-0.3857105 0.20031646 0.29842815 0.21538542 -0.31220886 -1.4579823 -0.9299452 -0.07967771
00000000: 4435 60bf 613b 963f 09c6 e5be da82 403e
00000010: d066 6b3f 0920 8cbf 12ac d03d 4922 63bf
00000020: 5ca6 463f 84d8 adbe 935c aabf 372c 443d
00000030: de65 063f 5bfd a2bf 4db8 963e aa72 40bf
00000040: 9a5a 843f d41a 0dbf 3469 76be 2f46 a7bf
00000050: b76d dabf 6e36 a53f f4da a43f 79bb 95bf
00000060: 8da3 e9bf ae05 09bf 94a6 3a3e 9173 99bf
00000070: 7f06 893f 31d6 a13e 595d 69bd 3480 b7bf
00000080: 925a 223f d491 c03f 306f 8a3d fafd 2e3f
00000090: e304 49bf 63d9 b63f e787 9cbf 2702 b5bf
000000a0: de4a 5ebf cbea b03e 1de4 93bf 751c 363f
000000b0: 1e2d b93f bce1 30be 6e19 c63f 47ba 683d
000000c0: 21c9 91be f456 bc3f 8e64 be3c f7f2 eabe
000000d0: db16 9a3f d8b4 56bf 5f6a 333d 7b68 bbbd
000000e0: 9747 79be 1afc 963f b086 2dbf 6b27 bfbe
000000f0: e7eb a3be 9fa0 97bf b87d 4fbf 5926 e83b
00000100: d371 38bf 9226 1bbf 7c51 093f 274b 903d
00000110: 5476 5abf c18a abbf 62e7 913e 59e2 b9bf
00000120: 0c0c 913f 7948 f0bf c1fa 46bf ae18 a33f
00000130: 1055 1d3e 5fe1 ddbf f203 7ebf 1e75 ddbf
00000140: d9cd b3bf 3dad a33f af59 953d 042c b73e
00000150: 19e5 863f 960e c7be a691 a8bf 1f40 d9bf
00000160: 84ce 0a3f faab 933e 7a3d 113f 599d 1e3f
00000170: 1ebb c83f ea30 ff3e 0511 7c3d b1ee fdbe
00000180: aee9 9fbf 94dd 70be 15b9 b73d f656 b73f
00000190: ba37 113f 6f02 5ebe 70a6 09bf d4e7 323e
000001a0: 75ee c53d 5c1b 4c3f 3ea5 8f3f 9f19 65bf
000001b0: 2e12 023e 5550 c43d 83e4 f2be 0791 bc3b
000001c0: e7fe f73d edb7 503f 2b13 abbf 64a2 81bf
000001d0: 9265 a43e 9e4e 163f 82dc 0b40 30cc c03e
000001e0: bf30 99be acad b23e 074f 653f a465 d5be
000001f0: d264 89be 0db6 6b3e e1a1 e63e a723 cebe
00000200: faea 433f a47d 3f3f 0122 50bf aaa3 cdbe
00000210: b505 f83e 18b6 b5be 02e6 febe 19cc fd3f
00000220: 9fed 693f 11e3 28bf ed72 35bf 9a29 3f3d
00000230: 4e15 7e3f 6122 2dbe b245 9d3f 1007 babf
00000240: 8af0 9b3e 6e83 153f 3128 d5be 42df fabe
00000250: e713 363e bcd8 c8be cd7c a3bc 63d2 563e
00000260: 18ff e2bf 334f 343f e2f1 bbbf 256b aa3f
00000270: 2ee9 9c3e 5705 2ebe dc1f 893f d023 353f
00000280: ad78 82be 1a8c fc3f 92c5 34bf 9af5 65bf
00000290: 446e 99bf 7327 883f bba3 883f cbee babd
000002a0: 9e79 88be e937 3a3e 5c3c 133e 6f3e e6bc
000002b0: eddb 353d d61a 463f 4026 a43f 6e19 95bf
000002c0: d081 ac3e 9633 afbd 63da 8dbf 6dad e8bf
000002d0: 5ed0 25bf c94f 473f 2d33 9e3f 53c3 3abf
000002e0: 7e5d 633f 77fd 4fbd 713d 80be 8eb1 ba3f
000002f0: 4bd3 acbf dec3 0c3f 43ec c8bf da56 163f
00000300: 8f4d 3a3f e080 f63c 3795 05bf 0a7f 5a3f
00000310: 4b20 8fbf a8c3 afbe 83e7 54bd f266 cbbf
00000320: e792 b0be 5816 a3bf baf0 11bf 6d86 683f
00000330: c295 1a3f ada5 563f 9d77 3abf c5b8 133f
00000340: ff98 8dbf c7a0 debe 5a90 763f 3376 5d3f
00000350: b29e 7a3f 2520 b43e 4e0b 5fbf 4c00 1b3e
00000360: 68cc 09bf 88c5 c43f bfb1 b93f 279b 05bf
00000370: 3f6c 0bbe e48f 723f c3b4 1140 88af 453f
00000380: a5f3 1b40 ebc5 323e 2bb0 343e 6701 38bf
00000390: 5558 343f 4e74 083e 2d2e 43bf e0b3 3a3e
000003a0: f11e 79bf a03c 863f d041 67bd b8bb a6bf
000003b0: 0059 df3f 7bd1 393f 07f7 593f 3212 173f
000003c0: 41f9 643f 32d4 f9be 3478 60bf 7cf7 14be
000003d0: 5741 ec3e 78f7 cebd 7a31 8f3f 31f2 593f
000003e0: d97b c5be c21f 4d3e 93cb 983e ff8d 5c3e
000003f0: d7d9 9fbe 2a9f babf e310 6ebf 112e a3bd

decoder_pos_embedding.weight f4 [8, 32]
0.44464242 0.8794423 0.5984175 0.20142123 -0.14557844 -2.4422946 -0.6058636 1.0489211
0.5531326 -1.2404921 1.5497496 -0.85016096 -0.425607 0.73166746 -0.81938845 -1.5820684
0.34024376 -0.97443056 -1.5869445 0.13286626 1.7972664 0.83853364 0.28044316 1.8153262
-0.39886975 -0.094526894 0.71498096 -0.3491063 -0.9799044 0.067594774 -1.5766907 0.4816707
-4.1906424 -1.8979359 0.0044518877 -1.910067 0.9620305 0.80867934 0.04851757 0.42812642
1.4318714 0.026969481 -0.5263048 2.3010972 -1.6813715 0.17581774 0.21165895 -1.1318678
-0.9872407 -1.2782494 -1.449513 2.6156282 0.066786245 0.24268603 -1.290432 0.71766984
-1.3063045 -2.2245572 1.8971704 1.9784492 0.08290609 0.9185931 -0.15832631 0.44835466
0.32399842 3.5355492 1.3968673 -0.8498498 1.7469181 2.7170203 2.773828 -0.8071358
0.7895098 -0.6308718 -0.8634665 0.6692149 -1.2584997 -0.3740252 1.3704516 -0.18496218
-1.7553034 -0.29021406 0.42493382 1.9984227 -2.4713392 0.47353926 -2.5891929 1.0458914
-0.58055633 -1.0025972 -0.34843597 -0.5399425 -0.702547 0.78320944 -0.016872436 -1.2201324
-1.7625356 -1.1754049 -0.8269132 0.17462452 -2.800259 1.8297644 -0.4263676 0.9052039
-0.88863754 2.1672256 0.026613297 -1.5128517 0.1978634 -0.46076128 2.010272 1.6586183
-0.08253725 2.0557163 -0.48688677 1.5639554 -2.2572958 -2.3197799 -0.11955939 -1.8176446
0.5551275 1.8401095 -0.83637935 2.0639527 1.5719129 -0.29583672 -0.692142 -0.6965764
-0.3475412 0.7914 0.37725353 -0.25732 -0.22963569 -1.379979 -0.5222555 -1.2762417
-0.2730851 -2.3259602 -1.5754101 0.050499886 -0.27140957 -0.11642288 1.7886919 0.9847607
-0.11657818 -0.43527853 -1.5926145 -1.2184466 1.0097126 -1.0606002 -0.21079957 -1.6949621
0.41646796 -1.6269455 -0.74187005 0.65958077 -0.015787017 -0.5278878 -1.6854979 -0.35357913
-0.33268586 -0.061911162 -1.6713557 0.1840316 1.1496378 0.7549531 0.33190656 1.0949928
0.79689467 -0.28823766 0.98560065 0.94364756 2.1923273 -1.2409093 0.5948351 -1.4513308
0.5100814 -0.47208214 -1.6553043 0.9735239 -1.0233696 -0.9100407 -1.603892 0.8865284
0.009483011 0.96203417 1.231487 0.13265191 0.9338715 -0.83663756 -1.25235 -0.12853594
-0.93633705 -0.12985978 -0.95535964 0.032260377 0.036156304 0.8053504 0.6035711 -1.380148
1.583426 -0.6046497 -1.7184728 -2.416619 0.85064286 -0.9361038 -1.3278913 0.5447614
0.011786336 -1.0000881 2.7600558 1.6640124 -1.0113177 0.5063701 0.015444338 -2.486517
0.24920715 0.29518324 1.8167099 1.6681058 -0.42956716 1.1294789 0.14741592 1.8950703
-0.0069240876 -1.766327 -1.4564136 0.08117766 0.5317287 0.8913572 0.37905067 0.90005845
-0.39917022 -1.4114012 0.30798778 0.4018153 0.63831025 0.32528266 -0.04753578 -0.14855039
0.8249512 2.3357801 -0.55402666 -0.22426161 -2.3988643 0.61177254 1.4297794 -0.19946764
1.7103302 0.16711617 -0.5485694 1.5274686 1.0372695 1.7727969 -1.0807976 0.09752604
00000000: 2ca8 e33e 2123 613f e431 193f 5e41 4e3e
00000010: 8412 15be 8e4e 1cc0 e019 1bbf 0c43 863f
00000020: 199a 0d3f 72c8 9ebf 325e c63f 26a4 59bf
00000030: 29e9 d9be 8f4e 3b3f 71c3 51bf 3881 cabf
00000040: 6e34 ae3e 4874 79bf ff20 cbbf 180e 083e
00000050: d30c e63f 24aa 563f 3f96 8f3e 9c5c e83f
00000060: a838 ccbe 5197 c1bd fe08 373f 10be b2be
00000070: 04db 7abf 216f 8a3d 00d1 c9bf 8b9d f63e
00000080: be19 86c0 90ef f2bf 24e1 913b 137d f4bf
00000090: a147 763f 9c05 4f3f 5cba 463d 6333 db3e
000000a0: 9047 b73f 1aef dc3c e9bb 06bf 2d45 1340
000000b0: 2e37 d7bf 9109 343e 20bd 583e 0be1 90bf
000000c0: cebb 7cbf ad9d a3bf a489 b9bf 7466 2740
000000d0: 3ac7 883d b082 783e e02c a5bf 36b9 373f
000000e0: fc34 a7bf 255f 0ec0 7bd6 f23f d33d fd3f
000000f0: abca a93d eb28 6b3f 4b20 22be be8e e53e
00000100: 1fe3 a53e 7046 6240 8ccc b23f c28f 59bf
00000110: 039b df3f a9e3 2d40 6686 3140 74a0 4ebf
00000120: 501d 4a3f d080 21bf 240c 5dbf ab51 2b3f
00000130: 8516 a1bf 3b80 bfbe f56a af3f ba66 3dbe
00000140: c8ad e0bf f096 94be ed90 d93e 51cc ff3f
00000150: 6c2a 1ec0 bd73 f23e 56b5 25c0 c5df 853f
00000160: 579f 14bf 1b55 80bf 3366 b2be ac39 0abf
00000170: 1fda 33bf 6a80 483f 1038 8abc 4c2d 9cbf
00000180: c49a e1bf ab73 96bf 95b0 53bf c5d0 323e
00000190: 7237 33c0 b835 ea3f db4c dabe 71bb 673f
000001a0: c07d 63bf d3b3 0a40 2104 da3c 20a5 c1bf
000001b0: b49c 4a3e e7e8 ebbe 4ca8 0040 9b4d d43f
000001c0: 4a09 a9bd db90 0340 3949 f9be b12f c83f
000001d0: 8977 10c0 4677 14c0 8edb f4bd 94a8 e8bf
000001e0: d61c 0e3f b588 eb3f f51c 56bf cd17 0440
000001f0: 7134 c93f e977 97be 3830 31bf d552 32bf
00000200: ecf0 b1be 3199 4a3f 6027 c13e 72bf 83be
00000210: 9e25 6bbe 27a3 b0bf 89b2 05bf e35b a3bf
00000220: cfd1 8bbe 88dc 14c0 0aa7 c9bf f8d8 4e3d
00000230: 32f6 8abe 1e6f eebd dbf3 e43f 4719 7c3f
00000240: 8ac0 eebd d4dc debe cbda cbbf 0ff6 9bbf
00000250: 433e 813f bfc1 87bf d8db 57be 85f4 d8bf
00000260: 4a3b d53e c03f d0bf 32eb 3dbf 49da 283f
00000270: c653 81bc a823 07bf 65be d7bf 5308 b5be
00000280: cd55 aabe 8f96 7dbd fcee d5bf c872 3c3e
00000290: 5527 933f 9b44 413f a8ef a93e b928 8c3f
000002a0: 4a01 4c3f e393 93be 5350 7c3f e392 713f
000002b0: 174f 0c40 1ed6 9ebf 1d47 183f 35c5 b9bf
000002c0: b294 023f c0b4 f1be 03e1 d3bf dd38 793f
000002d0: c6fd 82bf 6df8 68bf 554c cdbf 86f3 623f
000002e0: a25e 1b3c df47 763f 5ea1 9d3f e7d5 073e
000002f0: 3412 6f3f e12d 56bf 014d a0bf ed9e 03be
00000300: c9b3 6fbf f6f9 04be 7392 74bf 7523 043d
00000310: a218 143d 722b 4e3f a383 1a3f b1a8 b0bf
00000320: b4ad ca3f 53ca 1abf ebf6 dbbf e3a9 1ac0
00000330: bbc3 593f 80a4 6fbf 58f8 a9bf 7c75 0b3f
00000340: 7a1b 413c e302 80bf c1a4 3040 5cfe d43f
00000350: dc72 81bf 79a1 013f 400a 7d3c 1823 1fc0
00000360: 2930 7f3e 4222 973e f389 e83f 7e84 d53f
00000370: 3af0 dbbe c492 903f 33f4 163e aa91 f23f
00000380: 75e3 e2bb 0117 e2bf c36b babf 7940 a63d
00000390: 5f1f 083f fc2f 643f ee12 c23e 3b6a 663f
000003a0: 0a60 ccbe cba8 b4bf 93b0 9d3e bcba cd3e
000003b0: 4d68 233f 738b a63e e1b4 42bd 981d 18be
000003c0: 0030 533f 6c7d 1540 b1d4 0dbf d6a4 65be
000003d0: fe86 19c0 209d 1c3f 0303 b73f 3f41 4cbe
000003e0: 1aec da3f 8020 2b3e 0b6f 0cbf 1784 c33f
000003f0: 3fc5 843f 02eb e23f 9357 8abf bcbb c73d

transformer.encoder.layers.0.self_attn.in_proj_weight f4 [96, 32]
0.07268331 0.055613745 -0.23160535 0.08447229 -0.20854548 -0.0108943265 0.14745624 0.08949454
0.13630356 0.03427571 0.13603406 -0.00033795775 0.039367877 0.012491164 0.15113063 -0.21107413
0.16132376 0.11039904 0.009850433 -0.07085493 0.0028393029 0.21882707 -0.022313552 0.008003262
0.1598423 -0.14801225 0.024049075 -0.10737677 0.03931255 -0.096931495 0.08599026 -0.12133864
0.018802945 -0.010387084 0.2812098 -0.07235478 -0.14280193 -0.05823513 -0.011134256 -0.116601706
0.052982636 0.10535867 0.04378839 -0.026328562 0.16714674 0.01815056 -0.024183577 0.07888219
-0.09408333 0.0060511683 0.09762164 0.3119542 0.09447135 -0.15093228 -0.2013752 0.028629486
0.18548685 0.15458581 0.24302226 -0.117412895 -0.11131218 0.037107904 -0.12375631 -0.16933084
0.016415738 0.02335341 -0.03467662 -0.06610305 -0.061246086 0.19561973 0.014973373 -0.043976504
-0.2045118 0.26401046 -0.19480306 0.1242455 -0.1746393 0.15048794 -0.023109369 0.10515605
0.13914163 -0.14506161 0.13628928 -0.21783376 -0.041405976 0.13664052 0.025547892 0.10057941
-0.008598644 0.018986817 -0.020617636 0.11589762 0.08897201 -0.19736105 -0.016809244 0.15182997
-0.07867334 0.20292135 -0.15857317 0.007295921 0.046431836 0.01530669 -0.008600857 0.021090332
0.014563724 0.11846698 -0.19615898 0.16252217 0.005696737 0.082437225 -0.14663543 0.104098804
-0.017203419 -0.06353059 -0.03936014 0.020048762 -0.124360636 0.005118011 -0.095912136 0.09632782
-0.26196116 0.056285895 -0.311816 -0.006110783 -0.087838374 -0.0891326 -0.08331258 0.17014194
0.010037999 0.011678516 0.13472511 -0.042872697 -0.08144211 -0.0069924104 -0.012011236 0.14082274
0.08601869 -0.18716305 0.013563844 -0.15116954 0.120734446 0.09169829 0.013812045 -0.0073192297
-0.16144037 -0.03863663 -0.07190353 0.15122849 0.0664973 -0.16616456 -0.0011612513 -0.12807937
0.15116715 0.12068332 0.2935593 -0.0024742964 -0.023236465 0.10235107 0.06529378 -0.22733882
-0.08381995 0.05973884 0.16314901 -0.060762856 0.15020637 -0.15761949 -0.025884772 -0.12588294
-0.09273685 -0.08716618 0.010515085 -0.06414412 0.1197382 0.09272234 0.052716464 -0.25974032
-0.03217298 -0.01251937 0.05855676 0.26580557 0.2067883 -0.010839235 -0.11822839 -0.010528143
0.16153334 0.1891388 0.19613907 0.045952365 0.2637497 0.26451343 -0.27201492 0.008820796
0.17155418 0.06398793 0.08150343 -0.038589545 0.03600862 -0.007353458 -0.009406659 -0.04196116
-0.14812183 -0.23073001 0.06155961 0.13409118 0.07705057 0.008722638 -0.071337365 -0.043873057
-0.09908165 -0.059343636 0.062257886 -0.07639605 -0.06780935 -0.035897423 0.06306171 -0.0037778104
-0.09092265 -0.06443507 0.074808896 0.027821016 0.064497985 -0.18526913 0.21463215 0.0114806825
0.20015717 -0.19451612 0.13608631 0.13599631 0.0543791 -0.030952936 -0.1388702 -0.007168401
0.0050653634 0.04506869 -0.084346786 0.015992034 0.058445115 0.19357027 0.108364776 -0.28626364
0.031482913 0.11515287 -0.0429492 0.23277028 0.13367872 -0.03091476 -0.03094931 0.02372052
0.20886698 0.1262654 0.113285966 0.07414448 -0.1393747 0.17674506 -0.14167303 0.11986304
00000000: fdda 943d 3dcb 633d f429 6dbe cfff ac3d
00000010: f28c 55be 1e7e 32bc c5fe 163e ea48 b73d
00000020: 2993 0b3e b064 0c3d 834c 0b3e ec2f b1b9
00000030: 3640 213d bda7 4c3c fdc1 1a3e d123 58be
00000040: 0e32 253e e418 e23d b663 213c 641c 91bd
00000050: 9913 3a3b 3414 603e e9ca b6bc 1d20 033c
00000060: b3ad 233e 8690 17be 9102 c53c 5ae8 dbbd
00000070: 3206 213d 0584 c6bd a91b b03d 6580 f8bd
00000080: a208 9a3c 972e 2abc bbfa 8f3e be2e 94bd
00000090: ab3a 12be f687 6ebd 746c 36bc e0cc eebd
000000a0: 5204 593d 49c6 d73d 745b 333d ffae d7bc
000000b0: 8428 2b3e 7cb0 943c a31c c6bc fc8c a13d
000000c0: c3ae c0bd e148 c63b dbed c73d 76b8 9f3e
000000d0: 327a c13d fe8d 1abe 4d35 4ebe 6288 ea3c
000000e0: 44f0 3d3e be4b 1e3e d4da 783e 2c76 f0bd
000000f0: a4f7 e3bd 75fe 173d f373 fdbd 1065 2dbe
00000100: 4c7a 863c a74f bf3c 1209 0ebd 0961 87bd
00000110: 2ddd 7abd 8a50 483e e152 753c b520 34bd
00000120: 8b6b 51be 612c 873e 747a 47be 6d74 fe3d
00000130: a5d4 32be 8319 1a3e dc4f bdbc 0e5c d73d
00000140: 257b 0e3e 088b 14be 6b8f 0b3e d00f 5fbe
00000150: 5099 29bd 7eeb 0b3e d049 d13c 94fc cd3d
00000160: 54e1 0cbc 3e8a 9b3c 51e6 a8bc bb5b ed3d
00000170: f536 b63d 0419 4abe 8ab3 89bc 5179 1b3e
00000180: 7d1f a1bd 9dca 4f3e 0161 22be 9f12 ef3b
00000190: 4f2f 3e3d e9c8 7a3c 9cea 0cbc a2c5 ac3c
000001a0: b09c 6e3c d19e f23d e6dd 48be 366c 263e
000001b0: b2ab ba3b d9d4 a83d 9927 16be c131 d53d
000001c0: 2fee 8cbc 531c 82bd 1938 21bd 4d3d a43c
000001d0: cab0 febd fdb4 a73b 956d c4bd 8547 c53d
000001e0: c61f 86be 0a8c 663d 59a6 9fbe f73c c8bb
000001f0: 9be4 b3bd 278b b6bd c99f aabd b039 2e3e
00000200: 6b76 243c 3f57 3f3c 61f5 093e 489b 2fbd
00000210: 1fcb a6bd 9720 e5bb c6ca 44bc d633 103e
00000220: 912a b03d aca7 3fbe e33a 5e3c 30cc 1abe
00000230: 9f43 f73d 50cc bb3d ea4b 623c 26d6 efbb
00000240: a050 25be 7141 1ebd 2842 93bd a4db 1a3e
00000250: bd2f 883d 0b27 2abe 2135 98ba 3d27 03be
00000260: 90cb 1a3e d128 f73d 684d 963e ce27 22bb
00000270: 665a bebc 709d d13d bfb8 853d 82cb 68be
00000280: cba9 abbd b7b0 743d 8910 273e 79e2 78bd
00000290: b3cf 193e 0167 21be 4d0c d4bc 75e7 00be
000002a0: d1ec bdbd 2f84 b2bd 7747 2c3c fe5d 83bd
000002b0: 4d39 f53d 36e5 bd3d 38ed 573d affc 84be
000002c0: d1c7 03bd 0b1e 4dbc 37d9 6f3d ab17 883e
000002d0: 50c0 533e 0c97 31bc ba21 f2bd 3b7e 2cbc
000002e0: ff68 253e 9aad 413e aed8 483e 8c38 3c3d
000002f0: 330a 873e 4e6e 873e 8a45 8bbe 1a85 103c
00000300: e6ab 2f3e 1b0c 833d 45eb a63d 1210 1ebd
00000310: c67d 133d 47f5 f0bb 631e 1abc 77df 2bbd
00000320: 40ad 17be 7d44 6cbe ee25 7c3d 334f 093e
00000330: b0cc 9d3d 65e9 0e3c 5319 92bd 3cb4 33bd
00000340: 52eb cabd 5012 73bd 2002 7f3d 8875 9cbd
00000350: a1df 8abd 2d09 13bd 7f26 813d 2495 77bb
00000360: a835 babd 89f6 83bd 6835 993d e6e8 e33c
00000370: 8517 843d 31b7 3dbe 88c8 5b3e 7919 3c3c
00000380: 00f6 4c3e 3c2f 47be 365a 0b3e 9e42 0b3e
00000390: 9fbc 5e3d 0391 fdbc fd33 0ebe e8e4 eabb
000003a0: 59fb a53b f299 383d 02be acbd ba01 833c
000003b0: 2564 6f3d 4937 463e 5aee dd3d 2691 92be
000003c0: 3af4 003d 45d5 eb3d 80eb 2fbd 555b 6e3e
000003d0: 13e3 083e f340 fdbc 6889 fdbc 8951 c23c
000003e0: 3ae1 553e b84b 013e 7902 e83d 10d9 973d
000003f0: 3eb8 0ebe a8fc 343e bc12 11be c17a f53d

transformer.encoder.layers.0.self_attn.in_proj_bias f4 [96]
-0.020940702 0.054863967 -0.18442707 -0.06379587 0.07562797 0.07737144 0.0037894403 -0.0666484
0.18216546 0.061824482 -0.11628938 -0.040799953 0.06871286 -0.06536039 -0.07480111 0.018659396
-0.05789838 -0.0061819125 -0.09912153 -0.025148928 -0.13584018 0.008037651 0.018697657 0.08077934
0.08704198 0.057354316 0.03247277 -0.027712755 -0.13113019 0.09227119 0.019623814 0.087619245
0.0046109855 -0.0059976573 0.09085214 0.035291325 -0.03775663 -0.10888994 -0.03808567 -0.088739656
-0.060945977 -0.03879673 0.08565736 0.07714837 -0.11115605 0.048856985 0.0056201913 -0.11777884
0.06200641 -0.044448268 -0.11534578 -0.0901901 0.0815086 0.10786084 -0.10466928 -0.08692265
-0.1275466 0.121419564 0.09937083 0.001514889 0.03864558 -0.09082551 0.07075792 -0.025494805
-0.09994396 -0.016454507 0.0634933 -0.028856207 0.11906541 0.0263139 -0.014774549 -0.0029171167
-0.021709936 -0.06745644 -0.021292478 0.10117273 0.024065804 -0.119937845 0.15893275 -0.020237906
0.04108327 -0.05146486 0.08139786 -0.07054043 0.0660066 -0.02979341 0.015550999 0.036595218
-0.06852995 -0.06789589 -0.04696959 -0.008502106 0.022259863 -0.037739564 -0.050325252 0.029398317
00000000: d68b abbc 0ab9 603d 73da 3cbe 69a7 82bd
00000010: d6e2 9a3d eb74 9e3d 4258 783b f57e 88bd
00000020: 9589 3a3e ab3b 7d3d 2029 eebd da1d 27bd
00000030: 54b9 8c3d abdb 85bd 5331 99bd 97db 983c
00000040: da26 6dbd a491 cabb 3b00 cbbd 2005 cebc
00000050: b019 0bbe 5ab0 033c d42b 993c a36f a53d
00000060: 1143 b23d 5cec 6a3d 2b02 053d dc05 e3bc
00000070: fe46 06be adf8 bc3d 1fc2 a03c b871 b33d
00000080: c017 973b ff87 c4bb b010 ba3d a38d 103d
00000090: b2a6 1abd b001 dfbd b8ff 1bbd 23bd b5bd
000000a0: 7da2 79bd 52e9 1ebd 206d af3d f7ff 9d3d
000000b0: c8a5 e3bd 431e 483d 9529 b83b 0836 f1bd
000000c0: 6ffa 7d3d 630f 36bd 693a ecbd 96b5 b8bd
000000d0: fbed a63d 25e6 dc3d d95c d6bd 8104 b2bd
000000e0: 939b 02be d2aa f83d ef82 cb3d 3d8f c63a
000000f0: d44a 1e3d ba02 babd 87e9 903d 7bda d0bc
00000100: 6baf ccbd 9acb 86bc c608 823d da63 ecbc
00000110: 91d8 f33d 3f90 d73c f310 72bc 192d 3fbb
00000120: 09d9 b1bc 9a26 8abd 906d aebc a633 cf3d
00000130: a625 c53c f9a1 f5bd 44bf 223e f7c9 a5bc
00000140: ee46 283d d1cc 52bd ecb3 a63d 8077 90bd
00000150: 782e 873d 4f11 f4bc 9ec9 7e3c dee4 153d
00000160: 6e59 8cbd 000d 8bbd 2f63 40bd 6b4c 0bbc
00000170: 515a b63c cd94 1abd da21 4ebd bdd4 f03c

transformer.encoder.layers.0.self_attn.out_proj.weight f4 [32, 32]
0.20108213 -0.26387033 -0.2864799 -0.052558 0.21397324 0.17921159 0.11416432 0.121970035
0.08820463 0.04624576 0.21922183 -0.042652745 -0.10516943 -0.30245107 -0.1246409 -0.26070765
-0.0690716 -0.051508386 -0.32850423 0.077315696 0.17431909 -0.04056279 0.036731154 0.13389719
-0.31719154 -0.009267251 -0.06334689 -0.15339056 0.21074751 -0.010534784 -0.0062261648 0.2241197
-0.16911568 0.08326343 -0.17309828 -0.10473439 -0.013129015 0.20104419 -0.033704218 0.0031316024
-0.39887726 0.0023638778 0.05438197 0.024545928 -0.3127302 -0.050426185 -0.069688916 0.22123517
0.20741819 0.14124723 -0.123751834 0.2438832 0.091271535 0.15233807 -0.19971004 0.0010760913
-0.054476693 0.22001964 0.025205038 0.15152755 -0.019826835 -0.31138682 -0.049615342 -0.34567368
-0.12191815 0.08916303 -0.03246523 0.02703876 -0.047368824 0.21242198 0.030737774 0.23951599
0.28718486 0.46093172 -0.34046334 0.11153278 -0.08614225 0.19723442 0.12675022 -0.14780715
-0.0024774582 -0.2664852 0.0075667566 0.029223505 -0.17714302 -0.061770454 -0.1934683 -0.023246517
-0.19145486 0.12705317 -0.090919636 -0.20973253 0.06430487 0.07468257 0.06933462 -0.07946963
0.34760568 0.047625814 0.01873596 -0.05254525 -0.16768469 0.13758984 -0.28416863 0.09525703
0.20650618 0.095117964 -0.021833654 0.023047877 -0.13230275 0.07624334 0.19256145 0.14793617
0.023456741 0.27323717 0.136219 0.15925461 -0.0322502 -0.062643714 -0.1520303 0.011237462
-0.35689977 -0.08664465 0.21731116 0.29958 -0.06147893 -0.19790496 -0.18824455 0.118658066
0.0019852316 -0.011301151 0.10194686 -0.008220469 0.061016984 -0.22900045 0.026998185 -0.18189245
-0.22561295 0.23762818 0.18014078 0.16772811 -0.05764499 -0.08094741 -0.11487514 -0.3901806
0.05877727 0.12292097 -0.06236918 0.30460587 -0.13704011 0.039654687 0.0056478726 -0.13296889
0.11789103 0.27427953 0.31768355 -0.2933578 -0.11604127 0.04478459 -0.23023158 0.12359125
-0.20697504 -0.01824155 0.026599606 0.11557824 -0.053241577 0.077523224 0.0072515924 0.16917028
-0.07614401 -0.11636345 -0.10875035 -0.16783118 -0.29707825 -0.15603001 0.010091205 0.08003429
0.16799544 -0.15871431 -0.16334032 -0.18818693 -0.08735216 0.21023059 -0.12872691 0.16965829
0.05383124 -0.05555771 0.14530164 -0.29813236 0.07656179 0.09357458 -0.26196212 0.051113322
0.15199214 -0.21264598 -0.11502226 -0.08259726 -0.15556243 0.22366455 -0.1287154 -0.03217995
0.15526432 0.011658662 -0.035771366 -0.06484682 -0.058206383 0.05744784 -0.13900472 -0.0058058086
-0.19102436 -0.21706516 0.2666856 0.03800366 0.026852995 0.099502906 0.08737212 0.18740034
0.16444193 0.060400154 0.07010069 -0.12645502 -0.014608941 -0.2565935 -0.06766029 -0.0041346955
-0.16632633 -0.032745793 0.2906011 -0.15487845 -0.056106273 0.2311438 0.16169779 0.13851711
-0.14699537 -0.19078426 -0.060125396 0.17208631 0.2808311 -0.15361086 -0.20447971 -0.05143012
-0.15527178 -0.13614759 -0.17733933 -0.22532757 -0.25860742 -0.26228598 0.14842972 0.23814343
-0.14778683 -0.16764913 -0.018420564 -0.047251433 -0.24167894 -0.085768804 0.07374533 -0.03288889
00000000: 79e8 4d3e 031a 87be 7ead 92be 0f47 57bd
00000010: cd1b 5b3e 3e83 373e fcce e93d 6dcb f93d
00000020: a1a4 b43d 326c 3d3d b07b 603e a5b4 2ebd
00000030: 1263 d7bd deda 9abe ba43 ffbd 797b 85be
00000040: 6975 8dbd 75fa 52bd b531 a8be b157 9e3d
00000050: b480 323e 2b25 26bd 6873 163d 581c 093e
00000060: ee66 a2be abd5 17bc 04bc 81bd 6a12 1dbe
00000070: 32ce 573e 169a 2cbc db04 ccbb a27f 653e
00000080: a92c 2dbe 0486 aa3d ad40 31be fc7e d6bd
00000090: 151b 57bc 87de 4d3e 6f0d 0abd 923b 4d3b
000000a0: a439 ccbe 4aeb 1a3b a1bf 5e3d 8b14 c93c
000000b0: 2c1e a0be b08b 4ebd 10b9 8ebd 798b 623e
000000c0: 6f65 543e 1da3 103e 9a71 fdbd 85bc 793e
000000d0: 92ec ba3d 83fe 1b3e ca80 4cbe a20b 8d3a
000000e0: f422 5fbd d44c 613e cc7a ce3c 0a2a 1b3e
000000f0: e36b a2bc 186e 9fbe 7539 4bbd 24fc b0be
00000100: 39b0 f9bd 1b9b b63d 43fa 04bd 6480 dd3c
00000110: d005 42bd 2685 593e c9cd fb3c ae43 753e
00000120: e509 933e 3eff eb3e 3651 aebe 4c6b e43d
00000130: 596b b0bd d2f7 493e cfca 013e c25a 17be
00000140: da5c 22bb c070 88be 8ef2 f73b 2266 ef3c
00000150: fb64 35be 0403 7dbd 8e1c 46be 7b6f bebc
00000160: be0c 44be 3a1a 023e 1334 babd 20c4 56be
00000170: 46b2 833d 2df3 983d 4fff 8d3d f9c0 a2bd
00000180: 5ff9 b13e 4913 433d 287c 993c b039 57bd
00000190: 89b5 2bbe 5ae4 0c3e 8d7e 91be 1e16 c33d
000001a0: 5b76 533e 35cd c23d 7edc b2bc e7ce bc3c
000001b0: 5f7a 07be 7825 9c3d d42e 453e 947c 173e
000001c0: 5a28 c03c bee5 8b3e fe7c 0b3e a413 233e
000001d0: c918 04bd 594b 80bd d5ad 1bbe 551d 383c
000001e0: 91bb b6be c072 b1bd d186 5e3e 8d62 993e
000001f0: 55d1 7bbd 99a7 4abe 2ec3 40be 0003 f33d
00000200: a91a 023b 7628 39bc 84c9 d03d 25af 06bc
00000210: f2ec 793d 187f 6abe 4c2b dd3c 0442 3abe
00000220: 1507 67be cd54 733e d376 383e ebc0 2b3e
00000230: 271d 6cbd c1c7 a5bd a843 ebbd c0c5 c7be
00000240: 6fc0 703d fdbd fb3d d376 7fbd 4df5 9b3e
00000250: 3e54 0cbe f46c 223d ca11 b93b ff28 08be
00000260: da70 f13d 5e6e 8c3e 6ba7 a23e fe32 96be
00000270: 0ca7 edbd 0c70 373d d4c1 6bbe 691d fd3d
00000280: 44f1 53be 4e6f 95bc 6be7 d93c 49b4 ec3d
00000290: d713 5abd 7fc4 9e3d c49e ed3b f93a 2d3e
000002a0: 64f1 9bbd f64f eebd 81b8 debd f0db 2bbe
000002b0: a41a 98be 55c6 1fbe 9555 253c 05e9 a33d
000002c0: ff06 2c3e 0186 22be af42 27be 13b4 40be
000002d0: b0e5 b2bd b046 573e fdd0 03be e7ba 2d3e
000002e0: 257e 5c3d 7b90 63bd f4c9 143e cea4 98be
000002f0: 6ecc 9c3d 08a4 bf3d e61f 86be 345c 513d
00000300: d4a3 1b3e debf 59be ca90 ebbd c128 a9bd
00000310: c24b 1fbe 5208 653e f8cd 03be 20cf 03bd
00000320: 9cfd 1e3e f903 3f3c ff84 12bd 69ce 84bd
00000330: d169 6ebd 6d4e 6b3d 4157 0ebe a73e bebb
00000340: e49b 43be 5446 5ebe 048b 883e baa9 1b3d
00000350: d0fa db3c 2ec8 cb3d 27f0 b23d e0e5 3f3e
00000360: 7763 283e 2766 773d f390 8f3d 6d7d 01be
00000370: 575a 6fbc 3960 83be 7a91 8abd 577c 87bb
00000380: 7351 2abe 7420 06bd abc9 943e 7598 1ebe
00000390: b1cf 65bd f6b0 6c3e 1b94 253e 6ed7 0d3e
000003a0: f485 16be f35c 43be 0c46 76bd 6537 303e
000003b0: 18c9 8f3e 2a4c 1dbe 2163 51be 64a8 52bd
000003c0: 91ff 1ebe 466a 0bbe 7198 35be 45bc 66be
000003d0: 3168 84be 594a 86be f6fd 173e dfdb 733e
000003e0: 6e55 17be 37ac 2bbe b9e6 96bc b88a 41bd
000003f0: af7a 77be 8ea7 afbd cb07 973d 80b6 06bd

transformer.encoder.layers.0.self_attn.out_proj.bias f4 [32]
0.2174203 -0.08445729 -0.12932108 -0.08848116 0.19419299 -0.16959763 0.12178508 -0.13610636
-0.034297418 -0.024575477 0.17010522 -0.08953826 -0.032803666 0.04569039 -0.14454706 -0.04249436
0.24119593 0.048189957 0.17089333 -0.08910254 -0.07313031 -0.0075202296 -0.0056381305 -0.047897957
0.036540892 0.06968103 0.12092177 -0.05636868 -0.04822228 0.22021395 -0.12874976 0.039825246
00000000: 6da3 5e3e f2f7 acbd bf6c 04be 9c35 b5bd
00000010: 87da 463e 00ab 2dbe 756a f93d 775f 0bbe
00000020: 737b 0cbd 8352 c9bc 1030 2e3e d65f b7bd
00000030: 235d 06bd d925 3b3d 2504 14be 910e 2ebd
00000040: 11fc 763e d562 453d a9fe 2e3e 647b b6bd
00000050: 58c5 95bd 426c f6bb 11c0 b8bb a630 44bd
00000060: e7ab 153d eeb4 8e3d d5a5 f73d d8e2 66bd
00000070: ba84 45bd c47f 613e fad6 03be cc1f 233d

transformer.encoder.layers.0.linear1.weight f4 [128, 32]
0.0050730794 -0.08947197 -0.008991024 -0.15525769 -0.07798904 -0.09648887 0.05170539 0.08659089
0.09318595 0.18124913 0.07246229 0.10673565 0.021744916 0.15999632 0.00015043002 0.20417804
-0.016005725 -0.035624765 0.09551493 0.095297396 -0.03038479 -0.019826556 0.08799746 0.13470922
0.14369504 -0.093449116 0.06787816 0.1507609 -0.20656228 0.051071364 0.18069258 0.013843979
0.24144177 0.27062187 -0.07786144 -0.23830299 -0.23360328 0.014225104 0.044710927 0.032186825
-0.07107279 -0.0069280677 0.007238021 -0.13266203 -0.03231965 -0.16277695 0.029590394 0.06738775
0.26852968 0.12999524 0.14818448 -0.03518551 -0.18560307 0.03181305 -0.08276473 0.04938914
-0.23770306 -0.20046008 0.19376153 0.07668101 -0.19615866 0.059368555 -0.14485641 0.045051802
0.1582205 -0.047315132 0.2882889 0.026645252 0.12029119 -0.014883105 -0.19033763 0.12957999
0.23838256 -0.008496293 0.1760909 0.115798526 -0.19431397 0.22112823 -0.08397209 -0.06923069
-0.23282342 -0.077040344 -0.019646542 -0.06463819 -0.1514647 -0.078447886 0.02748589 -0.123989575
0.23322812 -0.12285109 0.12909487 0.048631676 0.122278936 -0.2072613 -0.032485757 0.025936764
0.00639996 0.019464921 0.06969553 0.0028419367 -0.031119598 0.035205066 -0.0022008407 -0.02599602
-0.044659864 0.108016714 0.022593085 -0.26022294 0.053652354 0.014901782 -0.20293128 -0.030827401
0.04017567 -0.048755683 -0.031921607 0.22760908 -0.11822092 0.08458852 -0.12355707 0.078051105
0.07150129 -0.09687103 -0.011497243 0.09353531 -0.044014934 -0.081752576 -0.04053624 0.24812326
0.0864265 -0.26731467 0.03345731 -0.20168297 0.011102426 -0.0764748 0.06258269 0.036056083
0.033616066 -0.041678153 0.010068908 0.3008325 0.15462208 -0.06273067 -0.03472902 0.07609685
-0.009711201 -0.16048338 0.044736575 0.04575598 0.16837114 -0.04399583 -0.0065201228 0.1427714
0.19736773 -0.02926709 -0.060345694 0.118040584 -0.109084286 0.06672672 0.0047210064 0.21374173
0.36402726 -0.3747502 -0.057365764 -0.10106753 -0.12355042 -0.013438074 0.082300514 0.07083872
0.051361572 0.01621626 -0.052330963 -0.2390734 -0.20828092 -0.055794474 -0.19946718 -0.101793244
0.087725915 -0.0014974069 0.0951957 0.0184306 -0.16647103 -0.059461977 -0.19392681 0.2273331
0.033806153 -0.30317107 0.18184555 -0.035428587 0.108573854 0.0058249836 -0.09241599 0.038322162
0.10264446 0.06975752 -0.30514824 -0.044337325 0.035729665 -0.10718482 -0.038997386 -0.11192576
-0.010517561 0.037975922 0.037517842 -0.058639362 -0.049932726 0.09725878 -0.096470736 0.08103734
0.17261092 -0.0259616 0.08656314 0.18547262 0.11208704 -0.040448792 -0.08535696 0.115567096
0.028172722 -0.16174969 0.2476387 -0.06512667 -0.09588398 0.0047606607 -0.06836946 -0.14617673
-0.04874193 -0.0076100803 0.1591196 -0.17418513 -0.033784956 0.06868397 0.13469754 0.23730287
0.060745664 0.08430739 0.01940485 0.07907961 -0.1273339 0.007091986 0.08181047 0.09313568
-0.29764348 -0.13627654 -0.06957962 -0.16162774 -0.1698951 0.19937019 -0.04698468 0.046511546
-0.026692908 0.15236339 -0.02803446 0.10583039 -0.1428051 -0.15531085 -0.28661153 0.18922748
00000000: 133c a63b 153d b7bd 174f 13bc dffb 1ebe
00000010: b8b8 9fbd f59b c5bd 08c9 533d 9156 b13d
00000020: 46d8 be3d 5f99 393e 1c67 943d 3898 da3d
00000030: 6522 b23c 13d6 233e c0bc 1d39 0c14 513e
00000040: 701e 83bc 46eb 11bd 559d c33d 482b c33d
00000050: 86e9 f8bc 4d6b a2bc 0338 b43d 37f1 093e
00000060: cb24 133e 4062 bfbd b403 8b3d 1161 1a3e
00000070: 1085 53be 3530 513d 7a07 393e dbd1 623c
00000080: 833c 773e f38e 8a3e d275 9fbd b305 74be
00000090: b335 6fbe 6910 693c ce22 373d 55d6 033d
000000a0: 9c8e 91bd d804 e3bb ec2c ed3b 8ed8 07be
000000b0: 9c61 04bd 00af 26be 8e67 f23c 9702 8a3d
000000c0: b97c 893e 791d 053e acbd 173e ae1e 10bd
000000d0: bb0e 3ebe 674e 023d 8e80 a9bd 444c 4a3d
000000e0: 6e68 73be 6845 4dbe 6c69 463e ef0a 9d3d
000000f0: d1dd 48be 712c 733d 3d55 14be 3d88 383d
00000100: 8e04 223e 83cd 41bd 9a9a 933e 2547 da3c
00000110: 3a5b f63d 44d8 73bc dee7 42be 9eb0 043e
00000120: 8f1a 743e 0934 0bbc 2c51 343e c727 ed3d
00000130: 3efa 46be 706f 623e 8ff9 abbd d2c8 8dbd
00000140: 4369 6ebe 54c7 9dbd c9f1 a0bc 0761 84bd
00000150: 9019 1bbe 49a9 a0bd 172a e13c 3fee fdbd
00000160: 5ad3 6e3e 5a99 fbbd 7231 043e 0232 473d
00000170: 616d fa3d 4e3c 54be c90f 05bd 5679 d43c
00000180: c1b6 d13b e674 9f3c 88bc 8e3d c93f 3a3b
00000190: 87ee febc 3033 103d fb3b 10bb 9bf5 d4bc
000001a0: 43ed 36bd de37 dd3d 2215 b93c f13b 85be
000001b0: 92c2 5b3d 9b26 743c 38cd 4fbe bf89 fcbc
000001c0: 3e8f 243d 0ab4 47bd 3bc0 02bd 5b12 693e
000001d0: cf1d f2bd bf3c ad3d 7d0b fdbd 42d9 9f3d
000001e0: 456f 923d 5264 c6bd ef5e 3cbc 718f bf3d
000001f0: 0149 34bd e56d a7bd 5409 26bd 0614 7e3e
00000200: 6000 b13d 78dd 88be 880a 093d fb85 4ebe
00000210: f3e6 353c d29e 9cbd 5a2b 803d 8baf 133d
00000220: 00b1 093d b6b6 2abd 10f8 243c b806 9a3e
00000230: 4055 1e3e f078 80bd 0440 0ebd aad8 9b3d
00000240: bb1b 1fbc c155 24be b33d 373d 9f6a 3b3d
00000250: 7c69 2c3e f934 34bd c1a6 d5bb aa32 123e
00000260: c41a 4a3e 89c1 efbc 0c2d 77bd 43bf f13d
00000270: 9567 dfbd 05a8 883d acb2 9a3b 1ddf 5a3e
00000280: c861 ba3e 42df bfbe 5df8 6abd 7efc cebd
00000290: 0108 fdbd 5e2b 5cbc 2c8d a83d e413 913d
000002a0: 8360 523d f6d7 843c fe58 56bd a8cf 74be
000002b0: 9847 55be bf88 64bd 2041 4cbe fa78 d0bd
000002c0: a5a9 b33d a344 c4ba f7f5 c23d c5fb 963c
000002d0: 6277 2abe 678e 73bd c094 46be 02ca 683e
000002e0: 5278 0a3d 3d39 9bbe b835 3a3e 911d 11bd
000002f0: f85b de3d 81df be3b 9844 bdbd b3f7 1c3d
00000300: 4237 d23d 08dd 8e3d 643c 9cbe 0e9b 35bd
00000310: 4559 123d b783 dbbd b9bb 1fbd 5539 e5bd
00000320: d951 2cbc a48c 1b3d 4fac 193d d42f 70bd
00000330: 4286 4cbd 9c2f c73d 7392 c5bd e8f6 a53d
00000340: ebc0 303e 6cad d4bc 0448 b13d 89ec 3d3e
00000350: e48d e53d a2ad 25bd a1cf aebd 71ae ec3d
00000360: 7bca e63c b6a1 25be 0095 7d3e 2261 85bd
00000370: d25e c4bd 51ff 9b3b 4a05 8cbd 5aaf 15be
00000380: 9ea5 47bd fb5d f9bb 40f0 223e 965d 32be
00000390: 1862 0abd 2eaa 8c3d 27ee 093e 86ff 723e
000003a0: 72d0 783d 5aa9 ac3d ecf6 9e3c 7ef4 a13d
000003b0: d163 02be e463 e83b 3f8c a73d ebbd be3d
000003c0: ba64 98be 148c 0bbe c37f 8ebd be81 25be
000003d0: fbf8 2dbe b327 4c3e 0273 40bd e482 3e3d
000003e0: 16ab dabc 2605 1c3e 86a8 e5bc 9abd d83d
000003f0: 803b 12be cf09 1fbe bfbe 92be d9c4 413e

transformer.encoder.layers.0.linear1.bias f4 [128]
-0.35176292 -0.25299948 -0.2989012 -0.41261673 -0.12945981 -0.34512246 -0.4340339 -0.14603044
-0.053233698 -0.301076 -0.23363607 -0.30318034 -0.32831043 -0.3508759 -0.28849363 -0.24972218
-0.36098185 -0.18451129 -0.11358333 -0.10287373 -0.22743505 -0.35809287 -0.38869497 -0.05291653
-0.31987914 -0.14623953 0.0042217528 -0.26871258 -0.16059223 -0.2609139 -0.22145088 -0.17504077
-0.16613781 -0.2985896 -0.395719 -0.10962666 -0.21299611 -0.40864205 -0.26237303 -0.37248948
-0.3597526 -0.1495112 -0.27953845 -0.23000869 -0.14675224 -0.2540227 -0.07858002 -0.23841088
-0.082062125 -0.15192479 -0.22391775 -0.2331642 -0.3605606 -0.09970386 -0.42175674 -0.22668852
-0.10065823 0.025465295 -0.26347184 -0.12624444 -0.372716 -0.21542394 -0.09065307 -0.2906541
-0.123616345 -0.2965623 -0.20144829 -0.29338035 -0.18775772 -0.15490933 -0.35570365 -0.17621876
-0.15799162 -0.4243832 -0.44840574 -0.2610184 -0.06449643 -0.31659037 -0.36174986 -0.18607832
-0.16879891 -0.35910618 -0.2788215 -0.31715792 -0.07479046 -0.14039484 -0.14094454 -0.25213328
-0.4646788 -0.3093512 -0.2804362 -0.368537 -0.3131908 -0.09871153 -0.30018827 -0.30279207
-0.13207605 -0.31858328 -0.2452947 -0.29303446 -0.13185 -0.14811976 -0.30259863 -0.045623697
-0.16734795 -0.06637562 -0.2083426 -0.46258894 -0.24748439 -0.23363803 -0.32364976 -0.2569569
-0.26999918 -0.19742912 -0.10230637 -0.3783047 -0.30888104 -0.29524845 -0.14159538 -0.26261193
-0.26927337 -0.2883011 -0.05285508 -0.14251201 -0.1250657 -0.053873587 -0.21901685 -0.22442159
00000000: 451a b4be 2689 81be 9409 99be 8042 d3be
00000010: 1d91 04be e4b3 b0be b139 debe 0189 15be
00000020: 940b 5abd a226 9abe 4b3e 6fbe 743a 9bbe
00000030: 4e18 a8be 02a6 b3be 70b5 93be 2cb7 7fbe
00000040: 9dd2 b8be 87f0 3cbe 609e e8bd 76af d2bd
00000050: bce4 68be f357 b7be 0703 c7be 01bf 58bd
00000060: 33c7 a3be d1bf 15be a156 8a3b b294 89be
00000070: 4a72 24be 8296 85be 05c4 62be e33d 33be
00000080: 0820 2abe bce0 98be ae9b cabe f183 e0bd
00000090: a71b 5abe 8839 d1be c255 86be f1b6 bebe
000000a0: 7e31 b8be 7719 19be aa1f 8fbe 6687 6bbe
000000b0: 3846 16be 430f 82be 90ee a0bd fb21 74be
000000c0: 3010 a8bd 2c92 1bbe b24a 65be 99c2 6ebe
000000d0: 669b b8be 8a31 ccbd 80f0 d7be 0921 68be
000000e0: e725 cebd 989c d03c c8e5 86be 3946 01be
000000f0: a2d4 bebe 1898 5cbe 51a8 b9bd 9dd0 94be
00000100: 912a fdbd 04d7 97be 7648 4ebe f335 96be
00000110: 8f43 40be 8da0 1ebe ca1e b6be b172 34be
00000120: 8ec8 21be c148 d9be 7095 e5be 34a4 85be
00000130: b416 84bd 2218 a2be 4737 b9be 518b 3ebe
00000140: 9fd9 2cbe c4dc b7be b1c1 8ebe 8662 a2be
00000150: be2b 99bd aac3 0fbe c453 10be 9d17 81be
00000160: 61ea edbe 4863 9ebe 5595 8fbe e2b0 bcbe
00000170: 8b5a a0be 4529 cabd 47b2 99be 9007 9bbe
00000180: f23e 07be 591d a3be 892e 7bbe 9d08 96be
00000190: b003 07be b5ac 17be 35ee 9abe eadf 3abd
000001a0: 435d 2bbe f1ef 87bd c357 55be 75d8 ecbe
000001b0: 8c6c 7dbe cf3e 6fbe 6cb5 a5be db8f 83be
000001c0: 553d 8abe dc2a 4abe 0186 d1bd 27b1 c1be
000001d0: a825 9ebe ce2a 97be 61fe 10be 1275 86be
000001e0: 33de 89be 349c 93be 927e 58bd abee 11be
000001f0: 3911 00be 8daa 5cbd f445 60be c6ce 65be
