Models/transformer_1head_32hidden_100epochs_minus5females_model1.pth (torch, 156129 bytes, 40 tensors)

encoder_embedding.weight f4 [47, 32]
0	0xbfe0372f	-1.7516841
1	0xbfd47e52	-1.660105
2	0xbfa23496	-1.2672298
3	0x3f62b55b	0.88557976
4	0x3ecd5bec	0.40109193
5	0x3ea94282	0.33058554
6	0xbf4a4120	-0.7900562
7	0x3f2cadec	0.67452884
8	0xbec25463	-0.37955007
9	0x3f50926c	0.8147342
10	0xbd93ce39	-0.07217068
11	0x3f141808	0.5784917
12	0x3fbba04f	1.4658297
13	0xbfa48c4c	-1.2855315
14	0x3adfe18c	0.0017080768
15	0x3ebc1869	0.36737373
16	0xbf32d74a	-0.69859755
17	0x3f85f2a4	1.0464673
18	0x3f7a350a	0.9773718
19	0xbf47eb87	-0.7809376
20	0x3fa0815e	1.253948
21	0xbf4bb265	-0.79569083
22	0x3e846a7c	0.2586249
23	0x3ff9b0ef	1.9507121
24	0x3f70ce43	0.9406473
25	0x400682ea	2.1017404
26	0x3fc2c3dd	1.5216023
27	0x3cc2d0f7	0.023781283
28	0x3f920a83	1.1409458
29	0x3f1f0857	0.621221
30	0xbd096fb6	-0.0335538
31	0xbf8a672f	-1.0812739
32	0x3fb40b45	1.4065939
33	0xbdaecbfa	-0.08534999
34	0x3ec46aa0	0.38362598
35	0x3fae9eda	1.3642228
36	0x3f5ea56a	0.8697115
37	0xbf38c032	-0.72168267
38	0xbd519e9e	-0.05117666
39	0xbfb7afa0	-1.4350471
40	0x3ea8d816	0.3297736
41	0xbfa699c4	-1.3015676
42	0x3fe16764	1.7609677
43	0x3fc0d9c8	1.5066462
44	0x3f1d6c65	0.6149352
45	0x3ed2e8e7	0.41193315
46	0x3fd22620	1.6417885
47	0x3e5b9732	0.21444395
48	0xbf04ccf5	-0.5187524
49	0xbedf4761	-0.43609145
50	0x3f045663	0.51694316
51	0x3fb4e68d	1.4132859
52	0xbf9afc7d	-1.2108303
53	0xbe05ed3d	-0.1307878
54	0x3edd743e	0.43252748
55	0xbe2445ec	-0.16042298
56	0xbdfdee1a	-0.1239893
57	0x3ea18ae8	0.3155129
58	0x3e771da3	0.241324
59	0xbf42ce5a	-0.7609612
60	0x3face8ae	1.3508508
61	0xbf405568	-0.7513032
62	0xbdf1c05c	-0.11804268
63	0x3d2b31f9	0.041795705
64	0xc0074750	-2.1137276
65	0xbf4d01de	-0.80080974
66	0x3fb1a95d	1.387981
67	0xbf76571e	-0.9622668
68	0x3e9d0124	0.30664933
69	0xbfc0c8c4	-1.5061269
70	0x3f83a625	1.0285078
71	0x3f010e57	0.50412506
72	0x3fc01fa2	1.5009654
73	0xbf3db151	-0.7409869
74	0xbeb886f5	-0.36040464
75	0xbf94ced0	-1.1625614
76	0x3e96c9c2	0.29450804
77	0x3ef09ec6	0.46996135
78	0x3f8ecef3	1.1156906
79	0xbf014d65	-0.5050872
80	0x3f94b867	1.1618775
81	0xbf46f09d	-0.77710897
82	0x3e0211cb	0.127021
83	0x3ee9ca7e	0.45662302
84	0xbf8d0c9b	-1.1019472
85	0x3f570248	0.83987856
86	0x3f6ef896	0.9334806
87	0xbd9e48b5	-0.077287115
88	0xbf10f041	-0.566166
89	0xbff4e6e1	-1.9132959
90	0xbdbd9b3c	-0.09258124
91	0x40077b32	2.1168942
92	0x3f754874	0.9581368
93	0x3c8e3ca6	0.017362904
94	0xbf08672e	-0.5328244
95	0x3b9ca25b	0.0047800965
96	0xbe8322aa	-0.25612384
97	0xbe14f131	-0.14545132
98	0xbd5fc75f	-0.054633494
99	0xbf050378	-0.5195842
100	0x3ed8cb12	0.4234243
101	0x3df536af	0.11973321
102	0x3df901e9	0.121585675
103	0x3f20c52c	0.6280086
104	0xbe0cc802	-0.13748172
105	0xbf04cb34	-0.51872563
106	0xbdfee672	-0.12446298
107	0xbf22c5f7	-0.6358332
108	0xbf37fec1	-0.718731
109	0xbfaa2737	-1.3293217
110	0x3f01abd5	0.5065282
111	0x3f23d83f	0.6400184
112	0x3f5f1e21	0.8715535
113	0xbf8c1a1c	-1.0945468
114	0x3f2b5f60	0.66942406
115	0x3f570385	0.83989745
116	0x3e04427d	0.12915988
117	0x3fb9b781	1.4509126
118	0x3f6c6e38	0.9235568
119	0xbef1ea8e	-0.47249264
120	0xbdac5f90	-0.084166646
121	0xbf6c9d6e	-0.9242772
122	0xbe05f59d	-0.13081975
123	0xbeb3e1b3	-0.35133132
124	0xbe633c55	-0.22190984
125	0xbf4092e7	-0.75224155
126	0x3fcc5d0c	1.5965896
127	0x3f1d039d	0.6133364
128	0x4006f048	2.1084156
129	0xbf0f566a	-0.5599123
130	0x3ff047ae	1.8771875
131	0xbf2eed44	-0.6833079
132	0x3da4e7fd	0.08052061
133	0x3fe329ac	1.7747092
134	0x3f856105	1.0420233
135	0xbd20b0d3	-0.039231133
136	0xbf76d98a	-0.9642569
137	0xbfd4e15d	-1.6631275
138	0x3e89f7c9	0.26946858
139	0x3f3af0e6	0.7302383
140	0xbc34a770	-0.011026248
141	0x3f8d4c68	1.1038942
142	0xbf17d020	-0.5930195
143	0x3f6e1050	0.9299364
144	0x3f084a85	0.5323871
145	0x3f177cd9	0.5917488
146	0x3eae1377	0.33999225
147	0xbd9d7d85	-0.076899566
148	0xbe09e570	-0.1346643
149	0xbf915ed0	-1.135706
150	0x3f9921a1	1.1963388
151	0xbede5d2d	-0.43430462
152	0x3e4127e0	0.18862867
153	0xbea86dc7	-0.32896253
154	0xbe421201	-0.1895218
155	0xbfc74844	-1.5568929
156	0xbeca6d2e	-0.39536422
157	0x3f4cdc0c	0.80023265
158	0x3f4ea9cb	0.80727834
159	0xbf4c62ac	-0.7983806
160	0xbd48798e	-0.04894405
161	0x3e6780da	0.22607747
162	0x3eb7ec38	0.35922408
163	0x3ffca4c1	1.9737779
164	0xbe502c00	-0.20329285
165	0x3f46ed79	0.77706105
166	0xbf7425dc	-0.9537027
167	0xc00e428a	-2.2228112
168	0xbe03b849	-0.12863268
169	0x3db236d9	0.087018676
170	0xbe8b8c08	-0.27255273
171	0x3f713b7f	0.9423141
172	0x3e6814cc	0.22664183
173	0x3f07a8bb	0.5299184
174	0xbf2a002a	-0.664065
175	0x3f3739cc	0.71572566
176	0x3e6301c1	0.22168638
177	0xbea1af32	-0.31578976
178	0x3f375b35	0.71623546
179	0xbe9b7104	-0.30359662
180	0x3fbf48a4	1.4944043
181	0xbf8e6314	-1.1123986
182	0x3ee41240	0.44545174
183	0xbf47ab43	-0.779957
184	0xbf7b861a	-0.982515
185	0x3f029f28	0.51024103
186	0x3f39d336	0.7258791
187	0xbd7aaee6	-0.061201952
188	0x3f805620	1.0026283
189	0x3f8640e6	1.0488555
190	0xc004fed5	-2.0780537
191	0x3f0453ed	0.5169056
192	0xbf3ec726	-0.74522626
193	0x3ec34fde	0.3814687
194	0x3e090210	0.13379693
195	0xbf86b4f2	-1.052397
196	0x3d5d4032	0.0540163
197	0xbee0ebcc	-0.439299
198	0xbd28a2e5	-0.041170973
199	0xbf14ef0d	-0.5817726
200	0x3fb7ada3	1.4349865
201	0xbf99a555	-1.200358
202	0x3fb9783b	1.4489816
203	0xbecc1961	-0.39863113
204	0xbeae7f8b	-0.34081683
205	0x3e5e74f3	0.217243
206	0x3f0e2550	0.55525684
207	0x3f71f09d	0.9450777
208	0xbeb47516	-0.3524558
209	0x3fa1895b	1.2620043
210	0xbf869c50	-1.0516453
211	0xbee85f78	-0.45385337
212	0xbf8fe583	-1.1241916
213	0x3e9b0f4b	0.30285105
214	0x4003e5c3	2.0608985
215	0x3e696cdd	0.22795434
216	0x3f88ec78	1.0697165
217	0x3d485afe	0.048914902
218	0x3ef1213c	0.47095668
219	0x3f5c82e0	0.861372
220	0xbd7adda9	-0.061246548
221	0x3e8c1d7e	0.2736625
222	0x401da3db	2.463126
223	0x3f1a2b72	0.6022254
224	0xbe991fc8	-0.2990706
225	0xbf08c9a4	-0.5343268
226	0x3fc1ff2a	1.5155995
227	0x3f81c6fa	1.0138848
228	0x3f953969	1.1658145
229	0xbf808bad	-1.0042626
230	0x3da3ef1c	0.08004591
231	0xbf006aa4	-0.5016272
232	0x3f5615fb	0.8362729
233	0x3e81a50d	0.25321236
234	0xbe8d1bfc	-0.27560413
235	0x3f804073	1.0019668
236	0x3ef5f4c1	0.48038295
237	0x3f639994	0.88906217
238	0x3fa7f5ee	1.3121927
239	0xbe4a34c5	-0.19746692
240	0xbedbb4e1	-0.42911437
241	0xbfdbb2bc	-1.716392
242	0x3f1f1430	0.6214018
243	0xc00dcb86	-2.215547
244	0x3e259359	0.1616949
245	0x3f52db54	0.8236592
246	0x3ef17ca3	0.47165403
247	0x3fa27ffe	1.269531
248	0x3f18b901	0.59657294
249	0x3e2af668	0.16695559
250	0x3eb9a4ce	0.36258548
251	0xc00e92d6	-2.2277122
252	0xbf7575e7	-0.9588303
253	0xbfc5021f	-1.5391272
254	0xbf412cf3	-0.7545921
255	0xbeb7c84f	-0.3589501

decoder_embedding.weight f4 [45, 32]
0	0xc02452f5	-2.5675633
1	0x3df52d9d	0.11971591
2	0xbf75046e	-0.95709884
3	0xbfb281f7	-1.3945912
4	0x3f1707c0	0.589962
5	0x3f432e28	0.76242304
6	0xbbf9e319	-0.007625949
7	0x402e4e02	2.7235112
8	0xbe2d8ac5	-0.16947468
9	0x3fc92063	1.5713009
10	0xbf978b4c	-1.1839385
11	0xbe0e0c3f	-0.13871859
12	0xbf1f184f	-0.62146467
13	0xbee1f86e	-0.4413485
14	0xbe8b2505	-0.2717668
15	0x3f3ead3c	0.74483085
16	0x3e5a144d	0.21296807
17	0xbfd3eade	-1.6556051
18	0xbd2340ad	-0.0398566
19	0xbfe32347	-1.7745141
20	0x3f691329	0.9104486
21	0x3bac9e0a	0.005267863
22	0xbf5a6b88	-0.8532033
23	0x4008104e	2.1259952
24	0x3e1e6ecf	0.15471958
25	0xbf8dafe1	-1.1069299
26	0xbf8953fb	-1.0728754
27	0x3d54e419	0.051975343
28	0xbdc46dca	-0.09591253
29	0xbf26aea4	-0.6511023
30	0x3f0b1fd9	0.5434547
31	0xbf9cf8ce	-1.2263429
32	0x3f041815	0.51599246
33	0xbf96571a	-1.1745331
34	0xbf3138ed	-0.69227487
35	0xc086f98a	-4.2179613
36	0xbe6b971f	-0.23006867
37	0xbd5a3f39	-0.05328295
38	0xbde5f3e5	-0.1122816
39	0x3e89e954	0.26935828
40	0x3f15f1ad	0.5857189
41	0x404fc09f	3.2461317
42	0x3f1622b3	0.58646697
43	0x3f8189aa	1.0120137
44	0x3e082560	0.13295507
45	0x401fbac3	2.495774
46	0xbec5a7ad	-0.3860449
47	0xbda2448e	-0.07923232
48	0x3ff5d44d	1.9205414
49	0xbfce509c	-1.611835
50	0xbfb82565	-1.4386412
51	0xbd63021b	-0.05542193
52	0xbe5e3ff6	-0.21704087
53	0x3f9cc319	1.2247039
54	0xbdd7f81e	-0.105453715
55	0xbe5c2184	-0.2149716
56	0xbdcf64a5	-0.10126618
57	0x3e9d3ec2	0.30711943
58	0xbe659850	-0.22421384
59	0x3d94399f	0.07237553
60	0x3fd364fa	1.6515191
61	0x3d045701	0.032309536
62	0x3f0e5f44	0.55614114
63	0x3f12f358	0.57402563
64	0xbeda8e0f	-0.42686507
65	0x3eefefca	0.46862632
66	0xbfc04af5	-1.5022875
67	0xbfbeb4c0	-1.489891
68	0x3ef67645	0.48137107
69	0xbf930c4e	-1.148813
70	0xbff8e2df	-1.9444236
71	0x3f657ec3	0.8964655
72	0xbfc79c22	-1.5594523
73	0x3e0d1dcc	0.13780898
74	0xbebf98cb	-0.3742126
75	0xbf45e87d	-0.77307874
76	0x3f1e71ac	0.618922
77	0x3f23a90b	0.63929814
78	0x3f1fdbd7	0.62444824
79	0x3e6e0d05	0.23247154
80	0x3fac0b1b	1.3440889
81	0xbf317723	-0.69322413
82	0xbe391e89	-0.18078054
83	0x3f8ae803	1.0852054
84	0xbdd5364b	-0.10410746
85	0x3fde0c87	1.7347573
86	0x3f877932	1.0583861
87	0xbd4b80d9	-0.049683426
88	0xbf62b6c5	-0.88560134
89	0xbf86a617	-1.0519437
90	0xbebf0e80	-0.3731575
91	0x3f2a4233	0.6650726
92	0xbfb1a416	-1.38782
93	0xbd805dc2	-0.06267883
94	0xbf35e10e	-0.7104653
95	0xbfa568fa	-1.2922661
96	0xbf266fbf	-0.6501426
97	0xc01376d4	-2.3041277
98	0x3f4ae587	0.7925648
99	0xbec07cc8	-0.375952
100	0x3ca0d6ec	0.019633733
101	0x3facf060	1.3510857
102	0x3e055a7f	0.13022803
103	0x401ea648	2.478899
104	0xbf103747	-0.56334347
105	0x3e00270e	0.12514898
106	0xbe76251e	-0.24037597
107	0x3f9e2076	1.2353656
108	0x3ee1148d	0.43960992
109	0xbec74d27	-0.3892605
110	0x3f64f366	0.89433897
111	0x3e966b59	0.29378775
112	0xbf2a7bee	-0.6659535
113	0xbea1dd46	-0.3161413
114	0x3f619697	0.88120407
115	0xc0258a46	-2.5865645
116	0xbf68374b	-0.9070937
117	0xbf33d8bb	-0.7025258
118	0xbf2b447e	-0.66901386
119	0x3feb915b	1.8403734
120	0xbebec3e7	-0.37258837
121	0xc009ebb4	-2.1550112
122	0xbf1aeac3	-0.6051447
123	0xbe87671f	-0.26445863
124	0xbe30ab16	-0.17252764
125	0xbe5f3ba3	-0.21800093
126	0x3e9e9b1f	0.30977723
127	0xbf735064	-0.9504454
128	0x3fc4b777	1.5368489
129	0x3fcbf266	1.5933349
130	0x3f2c34b5	0.67267925
131	0x3f7e12ba	0.99247324
132	0x3f3f10f0	0.7463522
133	0x3f0fa18a	0.56105864
134	0x3fda580c	1.705812
135	0x3f3ffaf3	0.74992293
136	0xbd0bb066	-0.034103774
137	0xc01ab727	-2.4174287
138	0x3e95c280	0.29249954
139	0xbf4ad187	-0.79225963
140	0xbf10902a	-0.56469977
141	0xbea417fa	-0.32049543
142	0xbe358246	-0.17725477
143	0x3f28def4	0.659652
144	0xbed47ee3	-0.41503057
145	0xbf752cf8	-0.9577174
146	0xbfa22d56	-1.2670085
147	0x3facb91e	1.3493993
148	0x3d35863f	0.04431748
149	0xbf823c43	-1.017464
150	0xbee8109e	-0.45325178
151	0xbf298585	-0.6621936
152	0x3e7ec1ca	0.24878612
153	0xbd934bf5	-0.07192222
154	0xbee2c408	-0.44290185
155	0x3c60cb96	0.013720414
156	0xbf749773	-0.95543593
157	0xbf8388af	-1.0276088
158	0xbf8d1562	-1.102215
159	0x3c99f66e	0.018794265
160	0x3eba47cf	0.3638291
161	0x3f8071a7	1.0034684
162	0x3fd16802	1.6359866
163	0x3ea22c3a	0.31674367
164	0xbcd33579	-0.025782334
165	0xc0148b8c	-2.3210173
166	0xbe897274	-0.26845133
167	0xbef946f5	-0.48686948
168	0xbf03280a	-0.5123297
169	0xbeee9465	-0.4659759
170	0x3f6edd17	0.93306106
171	0x3d05871f	0.032599565
172	0x3d065c71	0.032803003
173	0x3f8bd5d9	1.0924636
174	0x3fc452b0	1.5337734
175	0xbe27307a	-0.16327086
176	0xbf7fcc20	-0.99920845
177	0xbf178179	-0.59181935
178	0x3e83ed5a	0.25767022
179	0xbe5c44ba	-0.21510592
180	0x3f12718d	0.57204515
181	0xbf1f44bb	-0.6221425
182	0xbf8b3571	-1.0875684
183	0xbc199ffb	-0.009376521
184	0x3ef3a340	0.47585487
185	0xbeb9d3f8	-0.36294532
186	0xbf4972d4	-0.7869084
187	0xbffd0aea	-1.9768956
188	0xbf0f1c66	-0.5590271
189	0x3d0d7f16	0.034545027
190	0xbf0104ab	-0.5039775
191	0x3f335e3b	0.7006566
192	0x3e58aeff	0.21160506
193	0xbe8bab83	-0.2727929
194	0xbf9f547a	-1.2447655
195	0x3fca1a02	1.5789187
196	0xbfb396d7	-1.4030408
197	0x3ed77427	0.42080805
198	0x3fb3c133	1.4043335
199	0x3e1649c9	0.14676584
200	0xbe16e49a	-0.14735642
201	0xbfe73b80	-1.8065033
202	0xbf3111ad	-0.69167596
203	0x3f36d457	0.71417755
204	0xbeeeca94	-0.4663893
205	0xbc4e0594	-0.012574572
206	0x3f2517ce	0.6448945
207	0x3f21455f	0.62996477
208	0xbf9a5a79	-1.205886
209	0x3fcb3ed0	1.5878544
210	0x3dce983c	0.1008763
211	0x3e9f1a73	0.31074867
212	0xbf8b4852	-1.0881445
213	0x3f398979	0.7247539
214	0xbf1df7dc	-0.6170633
215	0x3fde52ac	1.736898
216	0x3fbf848c	1.4962325
217	0xbf1b242c	-0.6060207
218	0xbfb41954	-1.407023
219	0xbe538d40	-0.20659351
220	0xbd95611b	-0.07293912
221	0x3e602efd	0.21892925
222	0xbe359ff5	-0.177368
223	0xbf8d37f8	-1.1032705
224	0x3f1acac7	0.60465664
225	0x3e9925d8	0.29911685
226	0xbe6fe436	-0.234269
227	0x3f1cdb21	0.61271864
228	0xbf4d46c6	-0.80186117
229	0xbf64c6b6	-0.8936571
230	0xbf22ff1b	-0.6367051
231	0xbf1b0ebf	-0.60569376
232	0xbfd6feb1	-1.6796476
233	0x3f5cdf82	0.86278546
234	0xbe80cf6d	-0.25158253
235	0x3e79d12f	0.24396203
236	0xbf1f1633	-0.6214325
237	0xbf741653	-0.95346564
238	0x3eb0bbca	0.34518272
239	0x3f358d62	0.7091886
240	0xbf76c90d	-0.9640053
241	0xbdb7722c	-0.089573234
242	0xbe83579b	-0.25652775
243	0xbe6265d8	-0.22109163
244	0xbfb6ae75	-1.427199
245	0xbf965913	-1.1745933
246	0xbee00273	-0.4375187
247	0x3f6801bc	0.90627646
248	0xbf184502	-0.594803
249	0xbf5ddaf6	-0.8666223
250	0xc01e3452	-2.4719434
251	0x3fda2351	1.7042028
252	0xbec7377a	-0.38909513
253	0xbecd06d0	-0.4004426
254	0x3f3effaf	0.7460889
255	0x3f15939a	0.5842835

encoder_pos_embedding.weight f4 [8, 32]
0	0xbeb4ac52	-0.3528772
1	0x3edfaa62	0.4368468
2	0xbefe37cd	-0.49651948
3	0xbe93ee67	-0.28892824
4	0xbf114f5c	-0.5676172
5	0xbf1bef63	-0.6091215
6	0x3f0024b3	0.50056
7	0x3fedbb8f	1.8572863
8	0xbf81c9d4	-1.0139718
9	0x3f27da9b	0.6556794
10	0x3e2b3747	0.16720305
11	0x3e2f71f7	0.17133318
12	0x3fbae184	1.4600072
13	0x3f8736e4	1.0563626
14	0xbf9c8912	-1.222933
15	0xbe8d7c76	-0.2763402
16	0x3f415533	0.7552063
17	0x3f983fa2	1.1894419
18	0xbe6ba1cf	-0.23010944
19	0x3f492a21	0.7857991
20	0xbcfe89e1	-0.031071605
21	0x3df1b0fb	0.118013345
22	0x3c3971ee	0.011318667
23	0xbef95e20	-0.48704624
24	0x3ebc4b38	0.36776137
25	0xbf456721	-0.7711049
26	0x3eba2f1d	0.3636407
27	0xbe985e37	-0.2975938
28	0x3f04b419	0.5183731
29	0x3f687c80	0.9081497
30	0x3f43073e	0.76182926
31	0xbf0f9d34	-0.5609925
32	0xbe3a171c	-0.18172878
33	0x3e334655	0.17507298
34	0x3f4f7c94	0.81049466
35	0xbe95b6fa	-0.29241163
36	0x3f2d86d7	0.67783874
37	0x3eb8f0e1	0.36121276
38	0x3ea54129	0.32276276
39	0x3eb21ca1	0.34787467
40	0x3f705e93	0.9389431
41	0x3f314d4d	0.69258577
42	0xbf874c4b	-1.0570158
43	0x3e9e1185	0.3087274
44	0x3e6f83b6	0.23390087
45	0x3e9043f1	0.28176835
46	0x3f04466d	0.5166996
47	0xbf981310	-1.1880817
48	0xbf65f9a4	-0.89834046
49	0xbe4984a0	-0.19679499
50	0xbd864e1c	-0.06557867
51	0xbe3ab3b0	-0.18232608
52	0xbfc55b14	-1.541842
53	0xbecb7011	-0.39733937
54	0x3f609b1f	0.87736696
55	0xbf54f560	-0.8318691
56	0x3e9579dc	0.29194534
57	0xbfde64cf	-1.7374514
58	0x3f84a737	1.036353
59	0xbe65c0e0	-0.22436857
60	0x3e3831c2	0.17987731
61	0x3f849da8	1.0360613
62	0xbd09556d	-0.033528734
63	0x3f0d2bdd	0.55145055
64	0x3ef4752f	0.47745654
65	0xbecb8223	-0.39747724
66	0x3fb384a3	1.4024853
67	0xbd02e03b	-0.031952124
68	0x3c062004	0.008186344
69	0xbed2dee1	-0.41185668
70	0x3ebad992	0.36494118
71	0x3fb735bd	1.4313275
72	0x3f9829f5	1.1887804
73	0xbec1bccb	-0.3783935
74	0xbe30f6f5	-0.17281707
75	0x3f79e2a5	0.9761146
76	0xbcdc9deb	-0.02693077
77	0xbeb0250e	-0.3440327
78	0x3ea522a8	0.32253003
79	0x3f5cb099	0.86206967
80	0x3d072b62	0.033000357
81	0xbf1c589b	-0.610727
82	0xbdfa9d48	-0.1223703
83	0x3f59364f	0.84848493
84	0xbfd5b861	-1.6696893
85	0xbf21b43e	-0.6316565
86	0xbe24540e	-0.1604769
87	0x3f8233a0	1.0172005
88	0xbef964d8	-0.4870975
89	0x3fb16b56	1.3860881
90	0xbfbdc624	-1.4826093
91	0xbfb770e5	-1.4331328
92	0x3f497483	0.7869341
93	0x3deede5d	0.11663506
94	0xbd934655	-0.07191149
95	0x3ec6eb29	0.38851288
96	0xbf273213	-0.6531078
97	0x3fef2b5e	1.868511
98	0x400a1f15	2.158147
99	0x3eeff344	0.46865284
100	0x400067ce	2.0063357
101	0xbf11e9f9	-0.5699764
102	0x3f8fa031	1.1220762
103	0xbe8a5cea	-0.27024013
104	0x3d3b9ff6	0.045806848
105	0xbf15e50f	-0.5855264
106	0x3f73759a	0.9510132
107	0x3e0e5788	0.13900578
108	0xbf7cfc4d	-0.9882248
109	0x3e175b28	0.14780867
110	0x3f2449dd	0.64175206
111	0x3f883aa1	1.0642892
112	0xbef97075	-0.4871861
113	0x3ef10822	0.47076517
114	0xbf164f0a	-0.58714354
115	0x3f5b9c7f	0.8578567
116	0x3e45725e	0.19281909
117	0xbca499c7	-0.020092858
118	0xbeb095e6	-0.34489363
119	0x3f3a59d4	0.72793317
120	0xbf340b53	-0.7032978
121	0xbf8548ef	-1.0412883
122	0xbf7c3b7e	-0.9852828
123	0xbf90fbc2	-1.132683
124	0xbfae9192	-1.3638175
125	0x3c8e8f87	0.017402424
126	0xbf912bad	-1.1341454
127	0x3dec931b	0.11551496
128	0xbe270a7f	-0.16312598
129	0x3f148c21	0.5802632
130	0x3f80c145	1.0058981
131	0x3f583987	0.8446278
132	0x3f399db1	0.72506243
133	0x3f419b4e	0.756276
134	0x3e27efeb	0.16400115
135	0x3ebf3ae6	0.37349623
136	0xbf8efc0b	-1.1170667
137	0x3fa446ea	1.2834141
138	0xbee417fe	-0.44549555
139	0xbff80add	-1.9378315
140	0x3f8936eb	1.0719885
141	0xc0027293	-2.038243
142	0x3dd138ce	0.10215913
143	0x3e93cea7	0.288686
144	0xc001fd55	-2.0310872
145	0x3f587ba3	0.84563655
146	0xbf3bc7c0	-0.7335167
147	0xbed57bc6	-0.41695994
148	0x3f89642b	1.0733694
149	0xbfcce969	-1.6008731
150	0xbfca6b9d	-1.5814091
151	0x3e5a54fb	0.2132148
152	0x3e9c0b98	0.30477595
153	0x3fcf96c2	1.6217883
154	0xbb2b2d8c	-0.0026119677
155	0xbe3fd97e	-0.1873531
156	0x3fbef6ca	1.4919064
157	0xbff35055	-1.900889
158	0xbfd1dfa8	-1.639638
159	0xbeb5406b	-0.3540071
160	0xbf9f697d	-1.2454067
161	0xbfed8f5e	-1.8559377
162	0x3f58b5eb	0.84652585
163	0x3f8206fb	1.015838
164	0x3f9b81bf	1.214897
165	0xc00a3ea4	-2.1600733
166	0xbf66a0bc	-0.9008901
167	0x3ed945fe	0.42436212
168	0xbf700fb1	-0.93773943
169	0xbd1560a7	-0.036469128
170	0xbf2d43ac	-0.67681384
171	0xbf3365e5	-0.70077354
172	0xbed50a43	-0.41609392
173	0x4013ada1	2.3074725
174	0x3d0b6526	0.03403201
175	0xbf21704f	-0.63061994
176	0xbf545b11	-0.82951456
177	0xbf265df5	-0.6498712
178	0xbe81cce8	-0.25351644
179	0x3da79f60	0.08184695
180	0x3fcbbdab	1.5917257
181	0x3f5843e6	0.84478605
182	0x3f351d95	0.70748264
183	0x3f93a300	1.1534119
184	0xbf57a72f	-0.84239477
185	0xbf10032e	-0.5625485
186	0x3fc0f48a	1.5074627
187	0x3e17120e	0.14752981
188	0xbfc98934	-1.5744996
189	0xbffebcaa	-1.9901326
190	0xbfa7eadb	-1.3118547
191	0x3e92d842	0.28680617
192	0x3f8b66aa	1.0890706
193	0x3fccfb59	1.6014205
194	0x3f87956a	1.0592473
195	0xbfd06306	-1.628022
196	0xbf32fa31	-0.6991301
197	0x3f97d244	1.1861043
198	0x3f6340cd	0.88770753
199	0x3f8325be	1.0245893
200	0xbfd5464b	-1.6662077
201	0x40002d88	2.002779
202	0xbdc2fe0c	-0.09521112
203	0x3f832d64	1.0248227
204	0x3f858eb0	1.043417
205	0x3ec5a2ba	0.38600713
206	0xba8fbb9d	-0.0010965947
207	0x3fc81b04	1.5633245
208	0xbfc6795b	-1.5505785
209	0xbf4a757a	-0.79085505
210	0x3e4e273c	0.20132154
211	0x3f8e744b	1.112924
212	0xbec17636	-0.377855
213	0xbf00286e	-0.5006169
214	0x3f1ff7b5	0.62487346
215	0x3f01e913	0.5074627
216	0xbf742b0f	-0.953782
217	0x3f6c57de	0.92321575
218	0x3e8bd823	0.27313337
219	0x3f9a9314	1.2076135
220	0xbece0c4a	-0.4024375
221	0x3fcdd28e	1.6079881
222	0xbf9b17cf	-1.2116641
223	0x3f2bd9ea	0.67129385
224	0x3eb18b2e	0.34676498
225	0xbfc1b737	-1.5134038
226	0xbf6c2181	-0.9223862
227	0xbf7465d7	-0.95467895
228	0x402929b6	2.6431708
229	0x3fb056ad	1.3776451
230	0x3f95fa14	1.1716943
231	0xbf8e47cb	-1.111566
232	0xbdb73072	-0.08944787
233	0x400a8c2c	2.1648054
234	0xbe618f77	-0.22027384
235	0x400f31f4	2.237424
236	0x3fd79cf5	1.6844774
237	0x3f51baaa	0.8192545
238	0xbeab77f9	-0.3348997
239	0xbe704cbb	-0.2346677
240	0xbdee3061	-0.11630321
241	0xbf99cca6	-1.2015579
242	0x3f4460cf	0.7671022
243	0xbf195d0b	-0.599076
244	0xbed4c487	-0.41556188
245	0xbeb2e1b5	-0.34937826
246	0xbf975ec8	-1.18258
247	0xbee52537	-0.44754955
248	0xbebeaad4	-0.37239707
249	0xbfdd316f	-1.7280711
250	0xbf674d66	-0.90352476
251	0xbe5ed788	-0.21761906
252	0xc0009aaf	-2.0094411
253	0xbf745244	-0.9543803
254	0xbf695363	-0.91142863
255	0xbfc56ccc	-1.5423827

decoder_pos_embedding.weight f4 [8, 32]
0	0xbe99aa3e	-0.30012697
1	0xc01c660c	-2.4437284
2	0xbf704c98	-0.9386687
3	0xbefb5c24	-0.49093735
4	0xbfcafac4	-1.5857778
5	0xbf096aa1	-0.5367833
6	0xc006ed06	-2.1082168
7	0x3eda65dc	0.42655838
8	0xbfa54457	-1.2911481
9	0xbdc0796e	-0.09398161
10	0xbdd26518	-0.10273188
11	0xbf78d145	-0.9719432
12	0xbf3ace14	-0.729707
13	0x40355540	2.8333282
14	0xbf5ccf40	-0.8625374
15	0xbf5b977a	-0.8577801
16	0xbf5264e1	-0.8218518
17	0x3fa6d702	1.3034365
18	0x3fb72b5c	1.4310107
19	0x3e9dee6b	0.3084596
20	0x3ea9eaf0	0.33187056
21	0x3f57a92e	0.8424252
22	0x3f94320c	1.1577773
23	0x3f995288	1.1978312
24	0xbf9a816e	-1.2070749
25	0x40009247	2.008928
26	0x3e0f2572	0.13979128
27	0xbeb4e2f9	-0.35329416
28	0xbd3127c3	-0.04325081
29	0x3d692b5a	0.05692611
30	0xbf10388e	-0.56336296
31	0x3f03c102	0.5146638
32	0x3f2eb3e2	0.6824323
33	0x3ddb1fd3	0.10699429
34	0x3eb4c637	0.35307476
35	0x403769e3	2.8658378
36	0x3f2a8c0e	0.66619956
37	0xbf4a8118	-0.7910323
38	0xbf4bb90e	-0.79579246
39	0xbeeed07b	-0.46643433
40	0x3ec53090	0.38513613
41	0xbd09c9cb	-0.03363971
42	0x3f90b205	1.1304327
43	0x3decfbce	0.115714654
44	0xbe4f8a60	-0.2026763
45	0x3f4cf563	0.8006193
46	0xbfc30d5a	-1.523845
47	0xbfa91fb8	-1.3212805
48	0xc0414f09	-3.020449
49	0x4010e719	2.264105
50	0xc0162860	-2.3462143
51	0x3f7c1d85	0.98482543
52	0xbee71ebc	-0.45140636
53	0x3fbc0802	1.4689944
54	0x3f0d7b69	0.55266434
55	0xbc563050	-0.013073042
56	0xbea880da	-0.32910806
57	0x3faff8f8	1.3747854
58	0x3f9f0f3e	1.2426527
59	0x3e0c5d15	0.13707383
60	0xbfaf1d20	-1.3680763
61	0xbf5dc217	-0.8662428
62	0x3f1e7bc1	0.61907583
63	0xbf9b04fd	-1.2110897
64	0x3e49bc18	0.19700658
65	0xbd2fe29f	-0.042940732
66	0xbf76a75b	-0.96349114
67	0x403b5bf4	2.9274874
68	0xbfd69402	-1.6763918
69	0x3eeaa178	0.45826316
70	0x3f97f775	1.1872393
71	0x3efed486	0.49771518
72	0xbf29ad24	-0.66279817
73	0xbf70a971	-0.9400855
74	0x3fae9c78	1.36415
75	0x3de83587	0.113383345
76	0xbfd805bf	-1.6876754
77	0xbf502301	-0.8130341
78	0xbd9cceb3	-0.07656612
79	0x3f05ac0a	0.52215636
80	0x3d1fab01	0.03898144
81	0xbecc7b0e	-0.39937633
82	0x400a88a3	2.1645896
83	0xbf8a1678	-1.0788107
84	0xbdc4766e	-0.09592901
85	0x3fe60291	1.7969533
86	0xbf465082	-0.77466595
87	0xbeb93be4	-0.36178505
88	0xbfb64150	-1.4238682
89	0x3f667ae8	0.9003129
90	0x3f4c6873	0.79846877
91	0xbf9e8c61	-1.238659
92	0xbff83a77	-1.9392842
93	0x3ab5cb3a	0.001386977
94	0xbe87308c	-0.26404226
95	0x3f267977	0.6502909
96	0xbf6effc6	-0.9335903
97	0xbf8abb0f	-1.0838336
98	0x402b9dcb	2.681506
99	0xbf1973f5	-0.5994256
100	0xbf07463b	-0.5284154
101	0xbe121683	-0.142664
102	0x3fb642f1	1.4239179
103	0xbf51ef9c	-0.8200624
104	0x3e5b0858	0.21389902
105	0xbf745a1f	-0.95450014
106	0xbf526d3e	-0.8219794
107	0xbfd7a8bb	-1.6848367
108	0x400692d3	2.1027114
109	0x3f051765	0.5198882
110	0x403fa1dd	2.9942544
111	0x40308434	2.758069
112	0xbf0026fb	-0.5005948
113	0xbf8604b9	-1.0470191
114	0x3c391566	0.011296606
115	0x3d29ed0c	0.04148583
116	0x3ec3da99	0.38252714
117	0xbe879aab	-0.2648519
118	0xbebaf9bb	-0.36518654
119	0x3fe877bc	1.816154
120	0x3de31afa	0.1108913
121	0xbf966240	-1.1748734
122	0x3fb552f8	1.4165945
123	0x3fe1435b	1.759868
124	0x3ff14302	1.8848574
125	0x3f7a5c3e	0.97797
126	0x3e88e980	0.26740646
127	0xbfb3bce5	-1.4042021
128	0xbf33aefd	-0.70188886
129	0x3f6b621f	0.91946596
130	0x3e8d161c	0.2755593
131	0x3e9a11c2	0.30091673
132	0x3f06accb	0.5260741
133	0xbf071b26	-0.527758
134	0xbe85991e	-0.26093382
135	0x3e1af6fb	0.15133278
136	0x3f6a6374	0.91558003
137	0xbf1e9c79	-0.6195751
138	0xbf42fc95	-0.7616666
139	0xbe7b9845	-0.24569805
140	0xbed4cab0	-0.41560888
141	0x3f31904d	0.6936081
142	0xbf733975	-0.9500955
143	0xbecc79fa	-0.3993681
144	0xbed6c976	-0.41950577
145	0x400055ae	2.0052295
146	0xbda34d1f	-0.07973694
147	0xbd5f9f29	-0.054595146
148	0xbec12e19	-0.37730482
149	0x3f2b139a	0.66826785
150	0x3f547023	0.8298361
151	0xbf800f0f	-1.0004596
152	0x3f5afddf	0.85543627
153	0x4001e077	2.0293252
154	0xbf38af16	-0.7214216
155	0xc01b4bcd	-2.4265015
156	0xbf9015f4	-1.12567
157	0x3fe66a78	1.8001242
158	0x3dd2458d	0.10267172
159	0xbf1f7023	-0.6228048
160	0xbfa5f7e0	-1.296627
161	0x3fb16c4d	1.3861176
162	0xbf307eb8	-0.6894336
163	0x3eccc3aa	0.3999303
164	0x3fe74279	1.8067161
165	0x3f6be201	0.9214173
166	0xbf9ebb29	-1.2400867
167	0xbdada553	-0.08478799
168	0x3d46dadd	0.048548568
169	0x3f7bd03d	0.9836462
170	0xbeb9d56e	-0.36295646
171	0xbf9c68ee	-1.2219522
172	0x3f75fbe5	0.96087486
173	0xbcf76898	-0.030201241
174	0x3f63bc47	0.88959163
175	0xbf441473	-0.76593703
176	0xbf1082e4	-0.56449723
177	0x3f65de47	0.89792293
178	0xbfaefab4	-1.3670259
179	0xbddb47e3	-0.10707071
180	0x3d7c035d	0.061526645
181	0x40013fd4	2.0195208
182	0xbf88a9b7	-1.0676793
183	0xbf15a20a	-0.58450377
184	0xbf6460f5	-0.89210445
185	0xbf6c4703	-0.92295855
186	0x3fa3c0b2	1.2793181
187	0x3e9b625a	0.30348474
188	0x3c7abaef	0.0153033575
189	0xbfaf359c	-1.3688235
190	0xbdf6edc4	-0.12057069
191	0x3f0b50ce	0.54420173
192	0x3e8b0bf1	0.27157548
193	0xbf675f91	-0.903802
194	0xbf4961a9	-0.7866464
195	0xbd0769e1	-0.03305996
196	0xbfc6f7d8	-1.5544386
197	0x3f25887e	0.64661396
198	0x3fcbfad5	1.5935923
199	0x3f49646f	0.78668875
200	0x3e4d041a	0.20021096
201	0x3fc6f2f6	1.5542896
202	0x3ef6139b	0.48061833
203	0xbfbb6007	-1.463868
204	0x3edbbb8f	0.42916533
205	0xbf76c39a	-0.96392214
206	0xbfd61335	-1.6724612
207	0xbbf5764d	-0.007490909
208	0xbf5b5ff0	-0.85693264
209	0xbd2d180c	-0.04225926
210	0xbfa1505a	-1.2602646
211	0x3f82ffbe	1.0234296
212	0x3dc0e374	0.09418383
213	0xbff006f2	-1.875212
214	0xbf3e9dda	-0.7445961
215	0xbe9fcc30	-0.3121047
216	0x3c9ff0bd	0.019523973
217	0x3d0dae95	0.034590323
218	0xbe2f61a5	-0.17127092
219	0xbf95cc80	-1.1703033
220	0xbf818c25	-1.0120894
221	0x3f8a329f	1.0796698
222	0xbf2854dd	-0.6575449
223	0x3cdc3405	0.026880274
224	0xbfb0f0e1	-1.382351
225	0x3fa7d789	1.3112651
226	0xbf62109b	-0.8830659
227	0xbfed92dd	-1.8560444
228	0xbf240359	-0.6406761
229	0xbf0dbd09	-0.5536657
230	0xbf006df2	-0.50167763
231	0xbfa24e11	-1.2680074
232	0x3fe2ab2a	1.7708485
233	0xbef1be67	-0.47215578
234	0xbebe6ac1	-0.37190822
235	0xbea0fe53	-0.31444034
236	0x3ef2506e	0.47326988
237	0x3e64f0a5	0.22357424
238	0x3e45b4b3	0.19307213
239	0x3f968d2c	1.1761832
240	0xbf236ced	-0.6383808
241	0x3f369eea	0.71336234
242	0xbff06f9b	-1.8784059
243	0xbf3b3ab0	-0.73136425
244	0x3fd21091	1.6411306
245	0xbfd9e389	-1.7022563
246	0x3f02011e	0.50782955
247	0x3ee1d5f3	0.44108543
248	0x3f32352f	0.696124
249	0x3f83c1d7	1.029353
250	0xbf273f32	-0.65330803
251	0xbe74cb5d	-0.23905702
252	0xbcc34b09	-0.02383949
253	0x3fe213e0	1.7662315
254	0x3e9f340e	0.31094402
255	0xbf8c7044	-1.0971761

transformer.encoder.layers.0.self_attn.in_proj_weight f4 [96, 32]
0	0x3e3df274	0.1854952
1	0xbe081d4f	-0.1329243
2	0xbdf704f5	-0.12061492
3	0xbd29850d	-0.041386653
4	0xbe7624d7	-0.24037491
5	0xbdc0aa20	-0.09407449
6	0xbce214ba	-0.027597774
7	0xbdc96a6c	-0.098347515
8	0x3e40bd4f	0.18822215
9	0x3c8a7a6c	0.016904078
10	0xbe22403c	-0.15844816
11	0x3dc574ed	0.096414424
12	0xbdba3d4b	-0.09093722
13	0xbe087f17	-0.13329731
14	0xbe29ec35	-0.16594012
15	0x3dda01b7	0.10644858
16	0x3dc34413	0.095344685
17	0x3c08f1d4	0.008358438
18	0x3dd50f92	0.104033604
19	0xbc31ccd3	-0.010852057
20	0xbd9f1fc1	-0.077697285
21	0x3d0c047a	0.034183957
22	0x3e032999	0.12808837
23	0xbcdcd36f	-0.026956288
24	0xbd11c7d4	-0.03559096
25	0xbc02ff00	-0.007995367
26	0x3d86d3e7	0.06583386
27	0xbdfaf0ef	-0.12252986
28	0x3d8a913a	0.06765981
29	0xbdebdfbc	-0.11517283
30	0x3d99f3d5	0.075172104
31	0x3e44bfc6	0.19213781
32	0xbd72f022	-0.05931104
33	0xbe1acea7	-0.15117894
34	0x3e2062af	0.15662645
35	0xbe09943d	-0.13435455
36	0x3d9c9886	0.07646279
37	0x3e4c3b97	0.19944607
38	0xbde40e03	-0.11135485
39	0xbe67c991	-0.22635485
40	0x3de5a062	0.11212231
41	0x3e304c77	0.17216669
42	0xbdd15871	-0.10221947
43	0x3de67638	0.11253017
44	0x3e929ef2	0.2863689
45	0xbe47c81f	-0.19509934
46	0x3d964621	0.07337595
47	0x3d4426ea	0.047888674
48	0xbdef3616	-0.11680238
49	0xbc674da2	-0.01411763
50	0xbe09fc65	-0.13475187
51	0xbce85657	-0.028361483
52	0xbe457022	-0.19281057
53	0x3d307a33	0.04308529
54	0x3cfaa415	0.030595819
55	0x3b7384d6	0.0037158034
56	0x3e5a85e5	0.21340139
57	0xbcded436	-0.0272008
58	0x3d8872a8	0.06662494
59	0xbd425be4	-0.047450915
60	0x3e109714	0.14120132
61	0x3ea88d87	0.32920477
62	0xbdffd703	-0.12492182
63	0x3dadfcfb	0.08495518
64	0xbe114e6b	-0.1419007
65	0xbd7a0070	-0.061035573
66	0xbe22e03b	-0.1590585
67	0x3d3cce34	0.046095088
68	0xbda913e8	-0.0825575
69	0x3d1ad8cb	0.037804406
70	0xbdbe2f70	-0.09286392
71	0xbd4b5206	-0.04963877
72	0x3d53e855	0.05173524
73	0x3ce2507b	0.027626267
74	0xbe1cc488	-0.15309346
75	0x3de74c57	0.112938575
76	0x3e3f4f1c	0.18682522
77	0xbd7ac399	-0.061221693
78	0x3cb375f1	0.021906825
79	0x3e19c0e6	0.15014991
80	0x3d9e5479	0.07730956
81	0x3c623a0c	0.013807785
82	0xbe6aca38	-0.22928703
83	0xbe0f6a08	-0.14005291
84	0xbd1ba800	-0.038002014
85	0x3e0e3729	0.1388823
86	0xbcc5c062	-0.024139587
87	0xbe24dc19	-0.16099586
88	0xbd8b821b	-0.06811925
89	0xbc358a88	-0.011080392
90	0xbc88bb9e	-0.016691025
91	0xbe194254	-0.14966708
92	0xbd9b93aa	-0.07596524
93	0x3ab1f24d	0.001357624
94	0x3e5147d2	0.20437554
95	0x3d18741f	0.037220117
96	0x3a26a8cf	0.0006357552
97	0xbd9d020f	-0.07666408
98	0x3d9f7e53	0.07787766
99	0x3c9ce08e	0.019150045
100	0xbeab7e73	-0.3349491
101	0xbcb920b3	-0.0225986
102	0xbd94e1b6	-0.072696134
103	0x3ddd9b5d	0.10820649
104	0x3dfaac86	0.122399375
105	0x3d78f5d4	0.060781315
106	0xbcbdd44a	-0.023172516
107	0x3dde9a51	0.10869277
108	0x3cad0f00	0.021125317
109	0xbe484c51	-0.19560362
110	0x3d0e0b6c	0.03467886
111	0xbe35f194	-0.17767936
112	0x3d4c408f	0.049866255
113	0xbdaf2cb4	-0.08553448
114	0x3d03e72e	0.032202892
115	0xbdaad592	-0.083415166
116	0xbe0b4660	-0.13601065
117	0xbe9c217e	-0.30494303
118	0xbc108ad0	-0.008822158
119	0x3d832662	0.06403805
120	0xbe02a2d1	-0.12757422
121	0xbb6fc4c6	-0.0036585792
122	0xbd9cf579	-0.07664008
123	0xbe4c42b0	-0.19947314
124	0xbc31cb39	-0.010851675
125	0xbdd0a025	-0.10186795
126	0x3e29e341	0.16590597
127	0x3ca138e0	0.01968044
128	0x3dbf27a6	0.09333734
129	0x3c45db08	0.012076147
130	0xbd40324d	-0.04692297
131	0x3cd770e0	0.02629894
132	0xbe771031	-0.2412727
133	0x3bf2b4b5	0.007406796
134	0x3e0b5bf8	0.13609302
135	0x3e1ed21d	0.1550984
136	0x3e3e636a	0.18592611
137	0xbdc97278	-0.09836286
138	0xbdb276af	-0.08714043
139	0x3d3228b9	0.043495867
140	0xbe3b75ce	-0.18306658
141	0x3da8515c	0.08218643
142	0xbd2a3a1f	-0.041559335
143	0x3d34ede5	0.044172186
144	0x3ccbec69	0.024893003
145	0xbe61462a	-0.21999422
146	0x3dd97afb	0.1061916
147	0xbd55cedf	-0.05219924
148	0x3e0f57c0	0.13998318
149	0x3cdfc391	0.027314933
150	0x3dd1ae1e	0.10238288
151	0xbe36dc0d	-0.1785738
152	0xbe69df4e	-0.2283909
153	0xbd3443e1	-0.044010047
154	0xbdfa942e	-0.12235294
155	0xbc34b05e	-0.011028377
156	0x3e5db18c	0.2164976
157	0xbd2aaf6d	-0.041671205
158	0x3e11d062	0.14239648
159	0xbddbf564	-0.10740164
160	0x3a724311	0.0009241561
161	0x3ce4f9ff	0.027951239
162	0xbcf95cd8	-0.03043978
163	0xbd268169	-0.04065076
164	0xbea79495	-0.32730547
165	0xbe2ef358	-0.17085016
166	0x3e225257	0.15851723
167	0x3c22c560	0.009934753
168	0x3e4965d7	0.19667755
169	0x3ca99169	0.02069922
170	0x3d38f933	0.04515953
171	0xbe051283	-0.12995343
172	0xbe20c428	-0.15699828
173	0x3d843423	0.06455257
174	0xbe0b07f9	-0.1357726
175	0x3d3dad92	0.046308108
176	0x3de914d7	0.11380928
177	0xbe063665	-0.13106687
178	0x3e2ea200	0.17053986
179	0xbe046f77	-0.12933145
180	0x3d9d1b26	0.07671194
181	0xbd953b83	-0.072867416
182	0x3dded7c9	0.108810015
183	0xbd24389d	-0.040093053
184	0xbcde5463	-0.027139848
185	0xbd57c32f	-0.052676376
186	0x3d485010	0.04890448
187	0xbd445b74	-0.04793878
188	0x3e420a94	0.18949348
189	0xbcbcf60f	-0.023066549
190	0xbd8fc778	-0.070204675
191	0xbe185a1b	-0.14878123
192	0xbcd022b9	-0.025407182
193	0xbc36d5a9	-0.011159339
194	0xbd2bede8	-0.041974932
195	0x3d8cb183	0.06869795
196	0xbce118ba	-0.02747761
197	0x3e361fee	0.17785618
198	0xbe24bebb	-0.16088383
199	0x3df70480	0.12061405
200	0x3c67e15a	0.014152849
201	0x3c62fae5	0.013853763
202	0xbd9b870e	-0.07594119
203	0x3df779e7	0.12083798
204	0xbe0b3e81	-0.13598062
205	0xbcad4b49	-0.021154063
206	0xbdbb9e60	-0.09161067
207	0xbd91ae4a	-0.07113321
208	0xbe1908b9	-0.14944734
209	0xbe33778d	-0.17526074
210	0xbc7bada4	-0.015361223
211	0xbcb5d536	-0.022196393
212	0xbe953ab8	-0.2914636
213	0xbdac5bcc	-0.08415946
214	0xbd525565	-0.05135097
215	0xbcc42c73	-0.023946976
216	0x3df93f27	0.121702485
217	0x3d1170c2	0.035507925
218	0xbe0ee375	-0.13953955
219	0xbdd1f24c	-0.102512926
220	0x3e043b2b	0.12913196
221	0x3d1c70c3	0.038193475
222	0x3d492d52	0.049115486
223	0x3dd8234a	0.10553606
224	0x3e4505e8	0.19240534
225	0x3e11c690	0.14235902
226	0xbd0e1dad	-0.03469627
227	0x3d14090e	0.036141448
228	0x3dbd2351	0.09235252
229	0x3e0ffdd9	0.14061679
230	0x3ceeff6f	0.029174535
231	0xbc104e69	-0.008807757
232	0xbe4163cc	-0.18885726
233	0xbd7a7bbd	-0.061153162
234	0x3e141058	0.1445936
235	0xbe90302e	-0.28161758
236	0x3d158936	0.036507808
237	0x3e84a936	0.25910348
238	0x3e25d1e7	0.16193353
239	0xbce35878	-0.027752146
240	0x3d8edf99	0.069762416
241	0x3dacb1e3	0.08432367
242	0xbe23ff15	-0.16015275
243	0xbcbe7ce4	-0.023252912
244	0x3e55d21e	0.20880935
245	0x3d375008	0.044754058
246	0xbdc02893	-0.09382739
247	0xbe084465	-0.1330734
248	0x3dae7dc1	0.085200794
249	0xbe068e2e	-0.13140175
250	0xbdf1a860	-0.11799693
251	0x3e38a7c7	0.18032752
252	0x3d80a48e	0.06281386
253	0x3cf91fe1	0.030410709
254	0xbde15383	-0.11002257
255	0xbd04b1d7	-0.032396164

transformer.encoder.layers.0.self_attn.in_proj_bias f4 [96]
0	0x3d366cc7	0.044537332
1	0x3dc3395a	0.09532423
2	0xbe0d4e17	-0.1379932
3	0x3d75dd85	0.06002571
4	0x3c66e19d	0.014091876
5	0x3d75930a	0.05995468
6	0x3d9aaf82	0.07553007
7	0xbe34917f	-0.17633627
8	0xbcb490ea	-0.022041757
9	0xbc2996a9	-0.010350862
10	0xbcc31bfc	-0.023817055
11	0x3d84fb1f	0.0649321
12	0xbd8e871c	-0.06959364
13	0xbd361d39	-0.044461463
14	0xbcd2c73c	-0.025729768
15	0xbe05e7b4	-0.13076669
16	0xbd7f3ba3	-0.062312733
17	0xbcefde50	-0.029280812
18	0xbdc1de31	-0.09466208
19	0x3b93b878	0.0045080744
20	0x3e1d18c5	0.1534148
21	0xbcd09dc7	-0.02546586
22	0xbdd4218f	-0.10357963
23	0x3c4c25a2	0.012460144
24	0x3db58337	0.08862918
25	0x3cddf4c9	0.027094262
26	0x3da6c8cb	0.08143767
27	0xbd001239	-0.03126738
28	0x3da93b8e	0.08263312
29	0xbdd419f9	-0.103565164
30	0x3c82735d	0.01592415
31	0x3d42367a	0.047415234
32	0xbd5c45fd	-0.053777684
33	0xbd8d3d6d	-0.06896482
34	0xbd37918f	-0.04481655
35	0xbccfb969	-0.025356965
36	0x3debe1e7	0.11517697
37	0x3d889575	0.06669132
38	0xbda97730	-0.08274686
39	0x3d6bf893	0.057610106
40	0x3c0075bc	0.00784057
41	0x3d84bf0e	0.06481753
42	0x3d8a46ff	0.06751823
43	0x3c12917d	0.00894582
44	0x3c4ea9a6	0.0126136895
45	0x3c182505	0.00928617
46	0x3e15154e	0.14558908
47	0x3ddf6863	0.10908582
48	0x3ba8b1e3	0.005148159
49	0xbd362c31	-0.044475738
50	0x3db22a81	0.08699513
51	0xbd4ca7ce	-0.04996472
52	0x3cd4a75f	0.025958715
53	0xbcaf2115	-0.02137808
54	0x3d998b2d	0.07497249
55	0x3d9977cb	0.07493552
56	0xbd493abe	-0.049128287
57	0xbd720c8e	-0.059094004
58	0xbcb4eef0	-0.02208659
59	0x3d31e992	0.04343564
60	0xbd38d2fe	-0.045123093
61	0x3d522fec	0.051315233
62	0x3d658284	0.056032673
63	0x3c67ace0	0.014140338
64	0x3d488bd9	0.048961494
65	0xbd149671	-0.036276285
66	0x3ced03e4	0.02893252
67	0x3c04978b	0.008092771
68	0x3daa70e0	0.083223104
69	0xbca52756	-0.020160358
70	0x3d8734e8	0.06601888
71	0xbbd242fb	-0.006416676
72	0x3cbd1f6f	0.023086278
73	0x3d7a02a1	0.061037663
74	0x3dc5a6c4	0.09650949
75	0x3db0cc3c	0.086327046
76	0x3d1f6714	0.038916662
77	0xbd601df1	-0.054716054
78	0xbd20e489	-0.039280448
79	0xbd5dbebe	-0.054136984
80	0x3d20bc81	0.03924227
81	0x3d0d32c5	0.034472246
82	0x3def6867	0.11689835
83	0xbd225a1d	-0.03963672
84	0x3d0231bf	0.031785723
85	0xbb02de77	-0.0019969025
86	0x3dc425c8	0.09577519
87	0x3e0cff40	0.13769245
88	0x3d0f465f	0.03497922
89	0x3b81c789	0.003960554
90	0x3dc3bf15	0.095579304
91	0xbdcd3bcf	-0.10021173
92	0x3bdec12c	0.00679793
93	0x3cff077a	0.031131495
94	0xbd4078f2	-0.046990342
95	0xbb233006	-0.002490045

transformer.encoder.layers.0.self_attn.out_proj.weight f4 [32, 32]
0	0x3adaba41	0.0016687588
1	0xbdd1cc1b	-0.10244008
2	0x3dfe9ab1	0.12431849
3	0xbd84f352	-0.06491722
4	0x3e12f79f	0.14352272
5	0xbe288824	-0.16458184
6	0xbeb8882c	-0.3604139
7	0x3d9151a6	0.07095651
8	0x3e075a57	0.13218056
9	0x3e3c7f5c	0.18407959
10	0xbe9ef7f4	-0.31048548
11	0xbe33247d	-0.17494388
12	0xbd2a0b8a	-0.04151491
13	0xbe143900	-0.14474869
14	0xbd2b5dd4	-0.04183753
15	0xbe72e04e	-0.23718378
16	0xbc286056	-0.0102768745
17	0xbd57210e	-0.052521758
18	0x3dfbc687	0.122937255
19	0x3e3f6aa8	0.1869303
20	0x3e001716	0.12508807
21	0x3e106ee7	0.14104806
22	0xbda233cd	-0.079200365
23	0x3dfc8bd9	0.12331361
24	0xbcbd2096	-0.023086827
25	0xbda3d298	-0.07999152
26	0x3d23e004	0.04000856
27	0x3c5b8fec	0.013401013
28	0x3d8d8074	0.06909266
29	0xbd47093f	-0.048592802
30	0x3daa3617	0.08311098
31	0xbe243c57	-0.16038643
32	0xbe15785a	-0.14596692
33	0xbd1b6130	-0.037934482
34	0xbdb6f093	-0.08932605
35	0xbe470ce3	-0.1943851
36	0x3e19e853	0.15030031
37	0xbda102e9	-0.07861883
38	0x3e6fd91d	0.23422666
39	0xbc3d7102	-0.011562588
40	0x3e104278	0.14087856
41	0xbd44068a	-0.0478578
42	0x3d15613c	0.036469683
43	0xbd4e5355	-0.05037244
44	0xbd7909ef	-0.06080049
45	0xbc3843a1	-0.011246593
46	0x3e339875	0.17538626
47	0xbe9ed606	-0.31022662
48	0x3d6ff73a	0.058585383
49	0xbe84cfdc	-0.25939834
50	0xbda77a97	-0.08177679
51	0xbe69f029	-0.2284552
52	0xbd4ae6de	-0.04953658
53	0x3e8b1857	0.27167007
54	0x3bfb28d6	0.00766478
55	0xbca0f0c9	-0.019646065
56	0x3e0cfa53	0.13767366
57	0x3decb20a	0.11557396
58	0x3e1d729c	0.15375751
59	0x3d800af2	0.06252088
60	0xbe0dd422	-0.13850453
61	0x3cd231ac	0.025658451
62	0x3e16bdb4	0.14720803
63	0xbc5adf90	-0.0133589655
64	0xbddbc233	-0.107304
65	0x3eb91b8e	0.36153835
66	0x3e5a6aef	0.21329854
67	0x3c0cc18d	0.008591068
68	0xbd576af0	-0.052592218
69	0xbcb0f821	-0.021602692
70	0xbd0f3f33	-0.03497238
71	0x3d2f785f	0.042839404
72	0x3dd27bf5	0.10277549
73	0xbe69b560	-0.22823095
74	0xbe510b84	-0.20414549
75	0xbe11f425	-0.1425329
76	0xbe47f955	-0.19528706
77	0xbd96fc0f	-0.07372295
78	0x3d21144e	0.039326005
79	0x3e7b82c3	0.245616
80	0x3dc1e45c	0.09467384
81	0xbd16aebb	-0.03678773
82	0xbdd4d5ad	-0.10392318
83	0x3e139007	0.14410411
84	0xbe6adfd7	-0.2293695
85	0xbc2ed48a	-0.01067079
86	0xbd805c09	-0.06267554
87	0x3df1d936	0.11809008
88	0x3d143c75	0.03619047
89	0xbceb10ef	-0.028694598
90	0xbdf55440	-0.1197896
91	0x3da0b202	0.07846452
92	0x3e676760	0.22598028
93	0xbe0839d7	-0.13303314
94	0x3e472b37	0.19450079
95	0xbe618ba6	-0.22025928
96	0x3dd094b7	0.10184615
97	0xbe6c29cd	-0.2306282
98	0xbe5070a7	-0.20355473
99	0x3b793f86	0.0038032248
100	0x3e36497f	0.17801474
101	0xbe0a2be9	-0.13493313
102	0x3e3514e8	0.17683756
103	0x3d33a0d5	0.043854553
104	0xbeaeb3d2	-0.34121567
105	0x3defedb3	0.117152594
106	0xbdd30a81	-0.10304738
107	0xbdaa6693	-0.08320346
108	0xbdad38c5	-0.084580936
109	0xbd4216e9	-0.04738513
110	0xbd8990f3	-0.067171
111	0x3e0aa907	0.13541041
112	0x3da42672	0.08015145
113	0xbe26b5c4	-0.16280276
114	0x3d82015e	0.06347917
115	0x3d645804	0.055748
116	0xbe2ec1a6	-0.17066059
117	0xbc6bcf40	-0.014392674
118	0xbe21be7b	-0.15795319
119	0xbe01a85b	-0.12661879
120	0xbe12dcb7	-0.14342009
121	0xbe10f64b	-0.14156453
122	0xbe276bd1	-0.16349722
123	0x3e04a210	0.12952447
124	0xbd5bfbce	-0.053706937
125	0x3e4151b9	0.18878831
126	0xbd8fb986	-0.07017808
127	0xbe13c029	-0.14428772
128	0x3d5a1c26	0.0532495
129	0xbe7be9c5	-0.24600895
130	0x3e4e2583	0.20131497
131	0xbe12ad2b	-0.14323871
132	0xbe130158	-0.14355981
133	0xbe375495	-0.17903359
134	0x3e2740cf	0.16333316
135	0x3d8a52c0	0.067540646
136	0xbe124db1	-0.1428745
137	0xbe282689	-0.1642095
138	0x3e236fa3	0.15960555
139	0xbe6a2939	-0.22867288
140	0x3e31c315	0.17359574
141	0xbe0c7c61	-0.13719322
142	0xbd0977c5	-0.033561487
143	0xbe1e18a9	-0.15439095
144	0xbe324aa5	-0.17411287
145	0x3c452191	0.012031929
146	0xbd802101	-0.06256295
147	0x3e35d79e	0.17758033
148	0xbdca5901	-0.098802574
149	0xbda2ecd3	-0.07955327
150	0x3d56f3b0	0.052478492
151	0x3e1f52eb	0.15558974
152	0xbdd81b41	-0.10552073
153	0x3e82017d	0.2539176
154	0x3d2df1f0	0.042467058
155	0x3b967678	0.0045917593
156	0x3d995369	0.07486612
157	0x3d75d0bf	0.06001353
158	0xbeae0f96	-0.33996266
159	0x3e8d0703	0.27544412
160	0xbd936530	-0.07197034
161	0xbe34f4f4	-0.17671567
162	0xbdb0dd24	-0.08635929
163	0x3e96e001	0.29467776
164	0x3e0948e0	0.13406706
165	0xbd82d70d	-0.06388674
166	0x3e454f86	0.19268617
167	0x3e4e7913	0.20163374
168	0x3e10e96c	0.14151543
169	0xbe9a0792	-0.300839
170	0xbdbaa14a	-0.09112795
171	0xbe2567c1	-0.1615286
172	0x3ec5a731	0.3860412
173	0x3e907b3a	0.28219014
174	0x39932598	0.00028066034
175	0xbd4f9342	-0.050677545
176	0xbe13d606	-0.14437112
177	0x3e95a8d0	0.29230356
178	0xbeb5b215	-0.35487428
179	0xbdd7a6a8	-0.10529834
180	0xbc01595c	-0.00789484
181	0x3e879b89	0.2648585
182	0x3e0fc8bb	0.14041416
183	0xbdf791af	-0.12088334
184	0x3da39115	0.079866566
185	0xbd756b57	-0.05991682
186	0x3e25dd98	0.16197813
187	0xbb9a71d0	-0.0047132745
188	0x3d583dcd	0.052793313
189	0xbdc67902	-0.09691049
190	0xbdc20705	-0.09473995
191	0xbe5402ae	-0.20704147
192	0xbe30af2c	-0.17254323
193	0xbd999102	-0.07498361
194	0x3dc83159	0.09775037
195	0x3e788ce1	0.24272491
196	0xbe889f7a	-0.2668417
197	0xbda9ed4f	-0.08297216
198	0xbcea8e66	-0.028632354
199	0x3d110028	0.03540054
200	0xbe85c9ac	-0.26130426
201	0x3d106f12	0.035262175
202	0xbe582b01	-0.21110155
203	0xbc931eb0	-0.017958969
204	0x3ea0ee62	0.31431872
205	0x3cc08e8c	0.023505472
206	0x3d50a221	0.05093587
207	0x3c39c528	0.01133851
208	0x3dc4b504	0.096048385
209	0x3d5cec9b	0.053936582
210	0x3d113f7d	0.035460938
211	0x3cf2b2c4	0.029626258
212	0xbe0933d7	-0.13398682
213	0x3e2ea08d	0.17053433
214	0xbe9357ab	-0.28777823
215	0xbe15d3b3	-0.14631538
216	0x3e7349a8	0.23758566
217	0x3d0591e2	0.032609828
218	0x3e01d5fb	0.12679283
219	0x3d3e32fc	0.04643534
220	0x3d497b4f	0.049189862
221	0xbe9a30de	-0.30115408
222	0xbdc2190c	-0.094774336
223	0x3e73e9df	0.23819683
224	0x3c4449b0	0.011980459
225	0x3ce6162a	0.02808674
226	0x3eaf7e77	0.34276173
227	0x3e82bb06	0.25533313
228	0x3e79b8f4	0.2438696
229	0xbe3c0ea8	-0.18364966
230	0xbb981a53	-0.00464181
231	0xbe308e20	-0.17241716
232	0xbe3df213	-0.18549375
233	0x3e0ec6ed	0.13943072
234	0x3e57ae67	0.21062623
235	0xbe058adc	-0.13041252
236	0x3d0f7ae9	0.035029326
237	0xbe95e09d	-0.2927293
238	0xb9d449d4	-0.00040490797
239	0x3e0e920b	0.13922898
240	0xbe3663a5	-0.17811449
241	0x3e83f499	0.2577255
242	0xbe6b2c55	-0.2296613
243	0xbe7a095b	-0.24417631
244	0x3df42b43	0.11922314
245	0x3de1cefe	0.11025809
246	0x3e1c6d42	0.15276054
247	0xbe3b6584	-0.18300444
248	0x3deb402a	0.11486848
249	0x3db04a0b	0.086078726
250	0x3ca216d9	0.019786285
251	0xbe3a20e0	-0.18176603
252	0xbd27bbb0	-0.040950477
253	0x3eb3380a	0.35003692
254	0x3c725c02	0.014792444
255	0x3ba5bb8f	0.005057759

transformer.encoder.layers.0.self_attn.out_proj.bias f4 [32]
0	0x3e771e85	0.24132736
1	0x3d9fd7b2	0.078048125
2	0xbcfa7644	-0.030573972
3	0x3de2b300	0.11069298
4	0xbcb4570c	-0.022014163
5	0xbeb263dd	-0.34841815
6	0xbe8e5ddb	-0.2780598
7	0xbd99b1e7	-0.07504635
8	0xbe1689b0	-0.14700961
9	0x3d6813d5	0.05665954
10	0x3d90e46b	0.07074817
11	0x3b09e5a9	0.002104143
12	0xbe5446b1	-0.20730092
13	0x3e328f8b	0.1743757
14	0x3c97c2ac	0.018525444
15	0x3c948402	0.018129352
16	0x3e915730	0.2838683
17	0xbe26d496	-0.16292033
18	0xbdb172a5	-0.08664445
19	0x3e515635	0.20443042
20	0xbc60b346	-0.013714617
21	0x3e876241	0.2644215
22	0x3c45bd83	0.012069109
23	0xbb10ca8c	-0.0022093384
24	0xbe53d9c1	-0.20688535
25	0x3e0cfe59	0.13768901
26	0xbdcd08b5	-0.10011426
27	0xbd93d206	-0.07217793
28	0xbc2eac82	-0.010661246
29	0xbdae8375	-0.08521167
30	0x3d3664f6	0.044529878
31	0xbcf3c127	-0.029755188

transformer.encoder.layers.0.linear1.weight f4 [128, 32]
0	0xbdb0193f	-0.08598565
1	0x3e55275a	0.20815793
2	0xbe0977f9	-0.13424672
3	0x3e1afc23	0.15135245
4	0xbe25d128	-0.16193068
5	0xbe40e310	-0.18836617
6	0xbd19bfe7	-0.037536528
7	0x3d6c6bf1	0.05772013
8	0xbe3fcab9	-0.18729676
9	0x3d2d5082	0.042313106
10	0x3debf86e	0.115219936
11	0xbe9dd925	-0.3082973
12	0xba8479fb	-0.0010107154
13	0xbcff418f	-0.03115919
14	0xbdda37ff	-0.10655212
15	0x3d7b0404	0.061283126
16	0xbc58d4c3	-0.01323432
17	0xbe506ff4	-0.20355207
18	0x3e145709	0.14486326
19	0xbb62113a	-0.003449513
20	0x3e33d7dd	0.17562814
21	0x3e560815	0.2090152
22	0x3db7a5c4	0.08967164
23	0x3d20e5c9	0.03928164
24	0xbb95ca79	-0.0045712558
25	0x3d2e3d93	0.04253919
26	0xbe1ed5b1	-0.15511204
27	0x3d216c06	0.03940966
28	0x3cab1c87	0.020887626
29	0x3dc1bd18	0.09459895
30	0x3da49f80	0.08038235
31	0xbcdf5120	-0.027260363
32	0xbe106fb5	-0.14105113
33	0xbe5b06cf	-0.21389316
34	0xbe5ec9dc	-0.2175669
35	0xbd49e1d4	-0.049287632
36	0xbe35ca7c	-0.17753023
37	0xbdd17556	-0.10227458
38	0xbd8bf657	-0.06834095
39	0xbe1d6c74	-0.15373403
40	0x3dac784a	0.08421381
41	0x3de9ae82	0.11410238
42	0x3c9c025d	0.019044096
43	0xbd35b989	-0.044366393
44	0xbd9da3ac	-0.076972336
45	0x3d19f08e	0.037582926
46	0x3ce7e06d	0.028305257
47	0xbce594b4	-0.028025009
48	0xbd4aa311	-0.04947192
49	0xbd5be414	-0.05368431
50	0x3db27dbb	0.087153874
51	0x3b7c9fbf	0.0038547365
52	0xbc747322	-0.014920028
53	0x3eb2134c	0.34780347
54	0x3c0e9769	0.008703091
55	0x3e2b461c	0.16725963
56	0x3e548c43	0.2075663
57	0x3ed1e8e4	0.40997994
58	0xbd1f765b	-0.038931232
59	0x3dbeb5b4	0.09312001
60	0xbb91c528	-0.0044485517
61	0xbdb3f376	-0.08786671
62	0x3d8674cf	0.06565248
63	0xbdbb01e8	-0.09131223
64	0x3e8c9c77	0.27463123
65	0xbdd62673	-0.10456552
66	0x3bb2cf0d	0.0054568113
67	0x3e4f2a20	0.20230913
68	0xbe3fd1dd	-0.187324
69	0xbe593649	-0.21212114
70	0xbe845f03	-0.25853738
71	0xbc072bc4	-0.008250181
72	0xbe379540	-0.17928028
73	0xbdb793cb	-0.08963736
74	0xbbde6a19	-0.00678755
75	0xb9f6e350	-0.00047090137
76	0xbe113cd6	-0.14183363
77	0x3d3d24c2	0.046177633
78	0x3e0499b3	0.12949257
79	0x3d2bd498	0.041950792
80	0x3e80ecb2	0.25180584
81	0xbe5c333d	-0.21503921
82	0xbeb6cda4	-0.35703766
83	0x3e69655a	0.22792569
84	0xbc99a2e0	-0.018754423
85	0x3e82f314	0.2557608
86	0x3b9dd067	0.0048161033
87	0x3d8b66c2	0.06806709
88	0xbd1cd3fa	-0.038288094
89	0x3eb8e74e	0.3611397
90	0xbe531286	-0.20612535
91	0xbd44e591	-0.048070494
92	0xbd47a710	-0.048743308
93	0x3d3ff9e5	0.046869177
94	0xbdaa3245	-0.083103694
95	0xbe582cce	-0.21110842
96	0xbe8765de	-0.26444906
97	0x3d8041c7	0.06262546
98	0x3dca7beb	0.09886917
99	0xbdb82124	-0.08990696
100	0xbdb63d8e	-0.088984594
101	0x3e65bc97	0.22435223
102	0xbd5d9b17	-0.054102983
103	0xbdccf44c	-0.100075334
104	0xbea18a6a	-0.31550914
105	0x3dfe42d8	0.12415093
106	0x3e2a817e	0.1665096
107	0xbe016fbe	-0.12640283
108	0xbd3138d6	-0.043267094
109	0x3de682df	0.112554304
110	0x3d9a595a	0.07536574
111	0x3d00f05e	0.031479232
112	0x3e115ec1	0.14196302
113	0xbe63d55c	-0.22249359
114	0x3dc8d125	0.09805516
115	0x3e5f8121	0.21826603
116	0x3dab8afe	0.0837612
117	0xbc5bc625	-0.013413941
118	0x3ca2f24a	0.019890923
119	0x3db0b539	0.086283155
120	0xbd23d64c	-0.03999929
121	0xbd52a867	-0.051430132
122	0xbc2fe8a5	-0.010736619
123	0x3bd8c4a7	0.0066152397
124	0x3cb1ad6e	0.021689143
125	0xbe05f4a7	-0.13081609
126	0x3e1e559c	0.15462345
127	0xbdc179c8	-0.09447056
128	0xbd229936	-0.039696895
129	0xbe48a471	-0.1959398
130	0xbdf912d1	-0.12161792
131	0x3d745a04	0.059656158
132	0xbe155f0b	-0.14587037
133	0x3e74b3bf	0.23896693
134	0x3db3ee2d	0.08785663
135	0xbe498627	-0.19680081
136	0x3d5dd396	0.054156862
137	0xbe04983d	-0.129487
138	0xbdb1cd38	-0.086817205
139	0x3e3d6bc8	0.18498147
140	0xbe02de60	-0.12780142
141	0x3e1ac0dc	0.15112633
142	0xbdfaeff7	-0.12252801
143	0x3e085289	0.13312735
144	0x3e49c2f8	0.19703281
145	0x3e3e5120	0.18585634
146	0x3deb0a47	0.114765696
147	0xbe2de536	-0.16981968
148	0x3eab16b2	0.33415753
149	0x3df79d95	0.12090603
150	0xbd3f175d	-0.04665314
151	0xbe0a161b	-0.13484995
152	0xbcabc08a	-0.020965833
153	0xbd1dad48	-0.038495332
154	0x3e5b18a0	0.21396112
155	0x3d809920	0.06279206
156	0xbdf02dd2	-0.117274895
157	0xbd95bf40	-0.07311869
158	0x3c5b65e3	0.013390991
159	0xbd6fc933	-0.058541488
160	0xbde58f90	-0.11209023
161	0xbe2b4ca7	-0.1672846
162	0xbd958f8b	-0.07302769
163	0xbe06b6e5	-0.13155706
164	0xbe27ca96	-0.16385874
165	0xbd1152f4	-0.0354795
166	0xbe4c734f	-0.19965862
167	0xbdab167f	-0.083539
168	0xbe2fb901	-0.17160417
169	0xbb7d0473	-0.0038607388
170	0x3d9fd384	0.07804015
171	0xbdf3fd59	-0.119135566
172	0xbe51d6fc	-0.20492166
173	0xbdd5f6cc	-0.104474634
174	0x3d060fbc	0.03272985
175	0x3e18ba30	0.14914775
176	0x3e116c71	0.14201523
177	0x3e21910b	0.15777986
178	0x3d9ab7d8	0.07554597
179	0x3e104588	0.14089024
180	0x3e09599a	0.13413087
181	0x3c1ac120	0.009445459
182	0xbe12aebe	-0.14324471
183	0xbe04251f	-0.12904786
184	0xbdb5890d	-0.08864031
185	0xbd5bd401	-0.05366898
186	0x3dd2ac5d	0.10286782
187	0x3e347760	0.17623663
188	0x3bb0e71c	0.005398644
189	0xbe478700	-0.19485092
190	0x3e3ffd3a	0.18748942
191	0x3d3e205b	0.046417575
192	0xbe0ba167	-0.13635789
193	0x3cbbf42d	0.02294358
194	0x3d46d023	0.04853834
195	0x3dd67805	0.10472111
196	0xbd850f56	-0.06497066
197	0xbe672dab	-0.22576015
198	0xbd85620b	-0.06512841
199	0xbd9217ad	-0.07133422
200	0x3c3c0ef4	0.0114781745
201	0xbd62222a	-0.055208363
202	0x3d1f1476	0.038837872
203	0xbd208e16	-0.039198004
204	0x3bc6dc8c	0.0060687717
205	0xbd04f563	-0.03246058
206	0xbd201eea	-0.039091982
207	0xbd27466e	-0.04083865
208	0xbd86d2a6	-0.06583147
209	0x3ddccad7	0.10780876
210	0x3e8a6d90	0.27036715
211	0x3e13d8ae	0.14438125
212	0x3e252bc1	0.16129972
213	0x3d88c6c4	0.066785365
214	0xbdfe25d4	-0.12409559
215	0xbd8fccf6	-0.07021515
216	0xbe2b8eeb	-0.16753738
217	0x3e996d54	0.29966223
218	0x3e386763	0.18008189
219	0x3ca1e8e6	0.019764375
220	0xbdc0ab7f	-0.0940771
221	0x3d9a77ba	0.07542367
222	0xbdbaba28	-0.09117538
223	0x3dd9e8ae	0.10640083
224	0xbc8d6c7d	-0.017263645
225	0xbe18d715	-0.14925797
226	0xbdf635bd	-0.120219685
227	0xbd829164	-0.06375387
228	0xbdd66460	-0.10468364
229	0x3e0ca2da	0.13733998
230	0xbcca3dcf	-0.024687676
231	0xbdef4e80	-0.116848946
232	0xbe170358	-0.1474737
233	0x3e3a8aec	0.18217057
234	0x3d35c75d	0.04437958
235	0xbc4fd7bb	-0.0126857115
236	0x3d537dcf	0.051633652
237	0x3e21b235	0.15790637
238	0xbe5b4de9	-0.21416439
239	0x3e262735	0.16225894
240	0x3ddd8655	0.108166374
241	0xbd781627	-0.060568
242	0x3e4cd53f	0.20003222
243	0x3e05b30b	0.1305658
244	0x3e365faf	0.17809938
245	0x3e572168	0.21008837
246	0xbca7885c	-0.020450763
247	0x3c924094	0.017853059
248	0xbd9d80a0	-0.07690549
249	0x3d94ae45	0.07259802
250	0xbbe1244a	-0.006870781
251	0x3de9cb26	0.114157006
252	0xbe004f5e	-0.12530276
253	0x3e475296	0.19465098
254	0xbd801dee	-0.06255709
255	0xbd63f5ea	-0.055654444
