Models/transformer_1head_32hidden_100epochs_ForcedDecoderSolver.pth (torch, 156087 bytes, 40 tensors)

encoder_embedding.weight f4 [47, 32]
00000000: bb6d f83e 6714 09bf 930c 9cbf 4554 bb3f
00000010: a195 263f 3ede adbf ddcc 00bf f6f9 633e
00000020: 8fbf f1bf 3cc4 a2bf 0de9 13bf c96d 323f
00000030: f405 ecbe 3c85 82bf a55d e33e 1fbf 2540
00000040: 9ba4 f7bd e029 813d f550 083f 2c64 9b3f
00000050: 9968 2abf 2a65 d6be ca1b b2bf 040c 1f3e
00000060: f164 5a3e 8c92 87bf fdc0 3abe b97f b53e
00000070: 805f f6bf 8206 bcbf 440a a43f 0000 0000
00000080: 07fc 6b3f d4a0 d23f fa26 c3bf a44c 71be
00000090: 94e0 d53e c10c 01c0 37a5 e0be bfbb 9fbe
000000a0: d87f 233e a2ea 883f 0155 f33e cd93 bb3f
000000b0: a47e 9e3e 9845 383f c55d f93e a8e4 083f
000000c0: 8e0e f2be 9c7b 70be da43 cabf 47c5 fd3e
000000d0: 5c0d 46bf f8ff ef3e d019 94be 481d e0bd
000000e0: 4481 303f 9805 15bf 7e33 893e 53df c9be
000000f0: 5694 5a3f fe9e 80bf 65bc 0e3f 0000 0000
00000100: dddb 55bf 2398 ad3f 22d7 f7bd ddea 8fbf
00000110: d6b5 d73e e42d 95bf 070d 0940 344c 87be
00000120: 7661 413c 4b08 843f bf18 99be 2191 f7bf
00000130: 691f 0b3f d44d 073f c737 c1bd eff6 72bf
00000140: 87f8 0d3e 403a dabd 7700 d03f 092d 75bf
00000150: e221 a13e f7fe d93e d979 2dbe 3276 6bbf
00000160: a1f4 e43e e42a abbf 5791 c63f ffc1 033e
00000170: 60de 983e cddc fabe 5034 e93e 0000 0000
00000180: 7185 573e d6bc 94be fb9d 97bf 69cf a13f
00000190: e9be 90bf 0bf3 ffbe 273b 7abf eecc aabd
000001a0: bbe9 10bf bab3 cb3d 5469 2dbf 9773 adbf
000001b0: 6658 f7be d40f 5a3d e66a 86be 111c 6a3f
000001c0: 80a5 123f b8b8 81be 113c c43d 3c96 91be
000001d0: 9dde 0e3f 7f37 98bf b6a6 413f 894f 13bf
000001e0: de3f 0c3f 1ada a4bf 221a 9a3f e796 f4be
000001f0: 841c 66bf 0164 c63e 249c 87bf 0000 0000
00000200: da1a c4be 1872 edbe 9135 c53f 951f 91be
00000210: 90cc 65be d9f9 e4be 0733 f2be e2f0 333f
00000220: e58c 3e3e 5878 97bf e7b1 a63e 15e9 78bf
00000230: e7fb 23c0 aad9 093f 56b8 89be 754d eebf
00000240: 540a 34bc 96a6 9d3e 581c 9d3f 479a ebbe
00000250: 04c1 363f bceb b63f 90d5 c43f bd28 583f
00000260: 7f1e 4c3d 0958 1dbe 1975 843d f05f a7bf
00000270: 69d2 ee3f 3b6e ec3e 0b03 1fbf 0000 0000
00000280: 7705 81bf d227 54be afe3 8dbe 723c 9cbe
00000290: 2a6e 933f 3551 a9be 5f3d 32bf 3684 fdbe
000002a0: 44a4 ad3e 3541 f4be f575 c33e 442c d5be
000002b0: 8c1d 78bf 50a4 263f 7fae af3f a536 b33d
000002c0: aa8c d93f 0853 9abf d5f9 c33f e293 6f3f
000002d0: bcb3 39bf 0740 c4be 5e4c 2abf b990 da3d
000002e0: d7a0 443f b48a f63f 9b91 eebd 3d14 16bf
000002f0: 2311 83bf 8cb5 2e3f 389a 4e3f 0000 0000
00000300: 75a1 453f f309 08c0 dd90 7b3e c626 ba3e
00000310: bc6e ee3e 9291 a63e 29c0 57be 0d75 583e
00000320: 6fe4 0cbf c4b0 18bc c591 683f b5a2 5c3f
00000330: 2a17 803e 7654 40bf 343e eabe 9515 8bbe
00000340: e425 533e 33a0 2cbf 2716 3c3f d546 af3f
00000350: 8031 c0be bab6 08be f914 94bf f92a f4bf
00000360: 4173 393f d571 cfbf 95cb bdbd f33b b03f
00000370: ee67 9c3e 184f 37bf 362b 03bf 0000 0000
00000380: a887 a7bf ca7e 8fbd bcfe 47bf 4bd2 53bf
00000390: f6bc 31bf 8c58 633e 1206 2b40 b384 aa3f
000003a0: 55fe 003f 03fa 773f 6af6 593f 0c31 7dbf
000003b0: 4afb 8fbc 8a0a 943e c710 e839 1f49 fdbf
000003c0: ca9b 5a3f 6e66 39bf b9c8 b8bf db1d 78bf
000003d0: f57b f5bf 04b8 6a3e 2255 46bf 784b 29bf
000003e0: 028f 83bf f199 66bf 8ebe 54bf 1323 1040
000003f0: f788 7abe 5d66 c7bf 42de 1cbf 0000 0000
0.48521218 -0.53546757 -1.2191337 1.4635092 0.65072066 -1.3583448 -0.50312597 0.22263321
-1.8886584 -1.2716136 -0.5777748 0.6969877 -0.46098292 -1.019691 0.44407383 2.58979
-0.12091943 0.06306815 0.5324853 1.2139945 -0.66565853 -0.41874057 -1.391473 0.15531927
0.21327569 -1.0591598 -0.18237682 0.35449007 -1.9247894 -1.4689486 1.2815633 0.0
0.9218144 1.6455331 -1.524627 -0.23564392 0.41772902 -2.0164034 -0.4387605 -0.31197926
0.15966737 1.0696604 0.4752579 1.465448 0.30955994 0.7198119 0.48704353 0.534739
-0.4727673 -0.23484653 -1.5801957 0.49564573 -0.77364135 0.46874976 -0.28925943 -0.10943085
0.68947244 -0.5821166 0.26797098 -0.39428195 0.8538259 -1.004852 0.5575622 0.0
-0.8353861 1.3562053 -0.1210158 -1.124355 0.42130917 -1.165463 2.1414201 -0.26425326
0.011803022 1.0315031 -0.29901692 -1.9341165 0.54344803 0.5285313 -0.09434467 -0.9490804
0.13864337 -0.106556416 1.6250142 -0.95771843 0.31471163 0.42577335 -0.16941012 -0.91977227
0.44717887 -1.3372464 1.5513104 0.12866972 0.2985716 -0.48996583 0.45547724 0.0
0.21046998 -0.2905032 -1.1845087 1.2641422 -1.1308261 -0.49990115 -0.9774651 -0.083398685
-0.56606644 0.099463895 -0.6773884 -1.35509 -0.4830963 0.05323775 -0.26253432 0.91449076
0.5728378 -0.25336242 0.09581769 -0.28434932 0.5580843 -1.1891936 0.75645006 -0.57543236
0.54784954 -1.2879059 1.2039225 -0.4777138 -0.8988726 0.38748172 -1.0594525 0.0
-0.38301736 -0.4637611 1.5406972 -0.28344408 -0.22441316 -0.4472187 -0.47304556 0.70289433
0.18608434 -1.1833601 0.32557604 -0.97230655 -2.56225 0.53847754 -0.2689845 -1.8617388
-0.010988791 0.30791157 1.2274275 -0.46016142 0.7138827 1.429069 1.5377674 0.8443716
0.04983377 -0.15365614 0.06467647 -1.3076153 1.8657962 0.4617785 -0.6211402 0.0
-1.0079793 -0.20718315 -0.2771277 -0.30514866 1.1517994 -0.3306977 -0.69624895 -0.4951493
0.33914387 -0.47706 0.38175932 -0.41635334 -0.96920085 0.6509447 1.3725127 0.08750657
1.6996052 -1.2056589 1.5310618 0.93585026 -0.7253988 -0.383301 -0.6652278 0.10672135
0.7680792 1.9261079 -0.11648866 -0.5862463 -1.0239605 0.6824577 0.8070407 0.0
0.7719949 -2.1256073 0.2456698 0.36357707 0.4656886 0.32532936 -0.21069397 0.21138401
-0.5503606 -0.009319488 0.90847427 0.8618577 0.25017673 -0.7512888 -0.45750582 -0.27164903
0.20619923 -0.67431945 0.734713 1.3693491 -0.37537766 -0.13350955 -1.15689 -1.9075614
0.7244149 -1.6206614 -0.09267346 1.3768295 0.30548042 -0.7160506 -0.5123781 0.0
-1.3088274 -0.07006605 -0.7812307 -0.82742757 -0.69428957 0.22201747 2.6722455 1.3321747
0.5038808 0.9686586 0.85141623 -0.98902965 -0.017575879 0.2891429 0.00044262988 -1.978794
0.85393965 -0.7242192 -1.4436256 -0.96920556 -1.9178454 0.22921759 -0.7747365 -0.6613078
-1.0278018 -0.90078646 -0.83103263 2.2521408 -0.2446631 -1.5578114 -0.6127664 0.0

decoder_embedding.weight f4 [45, 32]
00000000: 9418 043f d5c5 0240 a61a a3bf 5207 0440
00000010: 0c57 5ebf cfff 6f3e 9b41 8f3f 4579 a53f
00000020: cf56 c53f 4263 4ebf 22ee 883f 42b6 6d3f
00000030: 6d54 dbbf b6e6 d9bf ab87 20bf 3920 b7bd
00000040: c000 8d3f ceee 7c3f 9fdf b43e 04cd 00bf
00000050: c4e8 88bf f62c b5bf eaad cc3f ae76 5abf
00000060: 1af2 063e 5571 68bf 40b0 85bb a1fc 83bf
00000070: 4060 84be 2525 2d3f 6901 b3bf 0000 0000
00000080: f25c 5bbf 5b91 b13f 7ab3 523e 4ea1 33bf
00000090: 5aeb 25bf b0f4 88be ec48 02c0 8789 bd3b
000000a0: 65be b23f dcef 6fbf dd71 a43f 0743 95bf
000000b0: 2e79 f73e 31bc ab3f 097f a83f b439 24bf
000000c0: a0ff b3bd e9a2 073f b025 fdbe c8cb 1cbf
000000d0: b9bc dc3f 6d7d 743f e875 bc3f 0855 f4be
000000e0: 0d7b 373f 7f9d ee3e 3279 943f c7c6 0abf
000000f0: 2f34 5abe 2a54 17c0 590f a83f 614b 44bd
00000100: 42e8 6d3f f2c3 a3be 3579 4b3f 9703 b23c
00000110: fb6e b2bf 75e4 653f 5cf9 4cbf e9c5 49bf
00000120: 4585 383f 94b9 77bf fc97 2cbf 0d2f 44be
00000130: 6da2 2f3f ed47 993e e258 74be 57a8 5dbf
00000140: b6fe 1f3f 7488 9f3f dc0b eebf 9005 ccbe
00000150: 61d3 c7be e95d 7a3b 1fca c2be c44a bcbf
00000160: b6af 0e3f 003f b53f 9d79 353e c46d f63c
00000170: ef88 063f 9001 e13f 98aa 46c0 0000 0000
00000180: 292e c73f bc63 67bf cb50 5b3f 764d 5dbf
00000190: 37a5 f3bd 6ec2 1fbf 248e e1be c665 7e3f
000001a0: b803 ce3e d76d 8c3c 4c33 0f3f cb15 f23f
000001b0: 5b15 ab3f 0259 513f 64b3 ce3e ac1b 313f
000001c0: e67a 093f 917e f53e 2eb2 abbf 503e bd3f
000001d0: 7677 3abf f683 ac3f 55a3 ec3e 18cd a8be
000001e0: 40f5 efbe 00c0 9ebf 95d5 22c0 430c cfbf
000001f0: 3647 f1be 23a5 783f 2dcc cc3d 58b4 1fbe
00000200: c50e 4d3f f759 c0bd 4afe 8a3e 4ccd 2fbf
00000210: 612e 15bf 6148 763e ff68 71bd d809 3e3f
00000220: e164 163f bc31 0fbf be95 363f 3d56 653f
00000230: e780 06be d148 aabc 120e 15be 4f08 5fbc
00000240: c29f 66be f694 843f 4540 193f 25f3 8dbf
00000250: a110 0fbf 99a4 573e 294a fdbe c6a4 e4be
00000260: 7af0 063e 6729 773f cf86 09bc bd9f 933c
00000270: 1765 93be 9fc2 cc3f 3467 29bf a4e8 c73d
00000280: 7b94 c93f 533d 9e3f dd06 57bf df91 633f
00000290: 412c a73f 29fa 7dbf 7bd6 0f3f 0fe9 663e
000002a0: 1e25 143d 3c3c fc3e b8fc 293e 18d3 ff3d
000002b0: 4fbd 303f a50a 5c3e 4915 1bbe 33f0 ca3f
000002c0: f238 84be e386 83bf 257e 113f 2bb5 ecbe
000002d0: 035f 2dbe 9b13 c8be 8483 d33d 4b39 f4bf
000002e0: 80d5 873e d910 c6bf 166f 6dbd 1a64 873e
000002f0: 0573 ed3e bf99 70bf 6102 cc3e dad4 2f3e
00000300: a611 28bd 4020 06bd c95d 8c3e 775c 3cbe
00000310: cc45 9cbf 5d5f 093f f30c fc3c 6a8f f1be
00000320: 2741 c43e f1c5 bd3f 2933 febe 2136 033f
00000330: 11e3 7cbf 7505 1bc0 cb76 47be 99a6 17bd
00000340: 1b41 053e 6e4e eabe c351 07be 1dac 10be
00000350: a0ab 95be 4074 343f fb76 403e c3e7 2abf
00000360: 86ea a83d f35d 1c40 f95f d3bd ed76 d73e
00000370: f8c2 f8bf aff4 a1bf 4eef c1be c861 dfbc
00000380: 598d 703e 1015 5e3f eed6 54bf 5fbe f33f
00000390: 7f22 eb3e 3df9 8fbe fe7f 35be 0265 4f3f
000003a0: 2bfd d2bd 8fa2 713f f21b a83e ccac 023e
000003b0: 36f1 8bbe 3b5c a7bf b9f6 af3e fb79 c53f
000003c0: b4da ac3f a5b6 983f 3c2b 8dbf 7a56 403f
000003d0: ac4f 9a3e a255 e03e 20dc 613c b22f 303f
000003e0: 17d2 dabf 13ca 1a3f 584c 273f 8645 f23e
000003f0: 61dd a23f 80b4 76bf 10e0 d8be 4b12 8d3e
0.51600003 2.0433247 -1.2742507 2.0629468 -0.86851573 0.23437427 1.1191896 1.2927634
1.5417117 -0.80620205 1.0697672 0.9285623 -1.713514 -1.7023532 -0.6270701 -0.08941693
1.1015854 0.9880189 0.3532686 -0.5031283 -1.0696034 -1.4154346 1.5990574 -0.8533734
0.13178292 -0.9079793 -0.0040798485 -1.0311471 -0.25854683 0.67634803 -1.3984805 0.0
-0.856887 1.3872484 0.20576277 -0.70168006 -0.64812243 -0.26749182 -2.0357008 0.005784217
1.3964354 -0.9372537 1.2847248 -1.166108 0.4833464 1.3416806 1.3163768 -0.6415055
-0.08788991 0.52982956 -0.49442816 -0.61248446 1.7245094 0.95503885 1.4723482 -0.47721124
0.71672136 0.46604535 1.1599486 -0.5420956 -0.21308969 -2.364512 1.3129684 -0.04792345
0.9293252 -0.31985432 0.7948182 0.021730227 -1.3940119 0.8980172 -0.8006799 -0.7881761
0.72078353 -0.96767545 -0.6741941 -0.19158573 0.6860722 0.29937688 -0.23862031 -0.8658499
0.62498033 1.2463517 -1.8597369 -0.39847994 -0.39028457 0.0038202947 -0.3804483 -1.4710317
0.55736864 1.4159851 0.17722173 0.030081637 0.52552694 1.7578602 -3.1041622 0.0
1.5560962 -0.9038656 0.85670155 -0.8644632 -0.118967466 -0.6240605 -0.44053757 0.99374044
0.40237212 0.01714222 0.5593765 1.8912901 1.3365892 0.8177644 0.4037124 0.6918285
0.53703153 0.47948125 -1.3413751 1.4784641 -0.7283853 1.3477771 0.46218362 -0.32968974
-0.46866798 -1.2402344 -2.544286 -1.6175617 -0.47124642 0.9712698 0.09999881 -0.1559614
0.8010066 -0.093921594 0.27147132 -0.68672633 -0.58273894 0.24051048 -0.058938023 0.7423377
0.5874768 -0.55935264 0.7132224 0.89584714 -0.1313511 -0.020786675 -0.14556149 -0.013612821
-0.2252188 1.0357959 0.5986369 -1.1089827 -0.5588475 0.21058883 -0.49470642 -0.44656962
0.13177672 0.9654755 -0.008393957 0.018020505 -0.28788063 1.5996894 -0.661731 0.097611696
1.5748438 1.2362465 -0.8399485 0.88894457 1.306038 -0.9920984 0.56186646 0.22549842
0.03616821 0.49264705 0.16600311 0.12491435 0.6903886 0.21488436 -0.15144838 1.5854553
-0.25824696 -1.0275539 0.56833106 -0.4623197 -0.16930775 -0.39077458 0.10327819 -1.9079984
0.26530075 -1.5473891 -0.057967268 0.2644356 0.46376815 -0.939846 0.39845565 0.1717104
-0.041032456 -0.0327456 0.27415302 -0.18394648 -1.22088 0.5366114 0.030767893 -0.4717973
0.38330957 1.4826032 -0.49648407 0.5125447 -0.98783976 -2.422208 -0.1947891 -0.037024114
0.13013117 -0.45762962 -0.13214783 -0.14128156 -0.29232502 0.70489883 0.18795387 -0.6675989
0.08247857 2.4432342 -0.1032104 0.4208292 -1.94345 -1.2652797 -0.37877887 -0.027268305
0.2349142 0.8675089 -0.83140457 1.9042472 0.45924756 -0.2811984 -0.17724606 0.810135
-0.10302194 0.9438867 0.3283382 0.1276123 -0.27332467 -1.3075022 0.34367922 1.542785
1.3504243 1.1930739 -1.1028819 0.7513195 0.3013891 0.43815333 0.013785392 0.6882278
-1.7095364 0.6046459 0.65350866 0.47318667 1.272381 -0.9636917 -0.42358446 0.2755302

encoder_pos_embedding.weight f4 [8, 32]
00000000: 0df6 62bf fac4 e43d bd40 ac3f 7370 bc3e
00000010: a991 26be 1799 0640 fbe6 6b3d f282 923f
00000020: 47c0 673c c61c 6dbf baf6 c33c 449d cfbe
00000030: a06f 2c3e 4f3d 75be e049 f33e 3529 8abf
00000040: a4c5 c73e 0155 7dbf a932 be3f 7fc8 09bc
00000050: ec9f 013e 247f 55bf a66d 1040 bf22 843d
00000060: 0dc5 2cbd 0011 f5be c707 213e 7440 b93e
00000070: 5f98 22be d023 21bf 35df 8ebf 8a3b db3e
00000080: 1dae a2bf 212e 143f fbbe 30be fc46 c63f
00000090: c995 5cbf 435c c3bf 0a57 583f 3ff0 2bbe
000000a0: dab2 49be 9773 7cbf 1c38 cc3f 93c9 ccbf
000000b0: dae4 ea3f 32e7 1cbf 4423 76bd 66b1 71be
000000c0: ddb0 9dbd 399d ecbf b98c c0bf 2f13 be3d
000000d0: 0e06 143f 3b7a c8bf c3dc 0f40 7566 a2bd
000000e0: 65f8 c13f 4fed cb3d a52f 79bf 45e3 483e
000000f0: 7c5b 0640 5315 8cbf 3691 8dbe 0ebb 813d
00000100: e785 a23e 2a38 113f 17ea 09bf bfd2 d2be
00000110: c840 c43e 3f62 b13f b245 b0be f3e3 74bf
00000120: 8970 793f 11ce 783e 7b35 8f3e 1141 953e
00000130: 61a6 7dbe 06cd 383e 75bc acbf addd 15bf
00000140: d8f8 38bf 8daa 9cbe f586 50bf ec02 4abf
00000150: 572a 373f b45f f03e 1fd6 e6be 43d0 963f
00000160: c6dd 303a aabd 033f 8256 acbe 0514 a1be
00000170: e780 bd3e c57d d5bf d083 03be 9e88 f1bd
00000180: 6286 3c3f 2f36 3cbf 1570 9cbe 4ca9 86bf
00000190: 7f45 40bf 1d2b e6bf 4a9e 9fbf 0148 c0bf
000001a0: 74a5 26bf f7d4 8a3f a435 2b3e 94a1 aabf
000001b0: 07a8 913e 2e30 8cbd b753 d13e 53c7 3fbf
000001c0: f8e5 71be 311a ef3f 146d dcbe 765a b53e
000001d0: c96a 713f 13a3 8cbf c25a b4be 68c6 4ebf
000001e0: acb4 27bf 0046 c0be 36d6 c13f 61f1 abbe
000001f0: 0738 23be 712d 9ebf c654 ad3f f876 2bbf
00000200: 716d 1f3f d7d3 0abf 42bd b5bf 0e57 b5bf
00000210: 2fd3 a3be 949c a83f 30ff 103f 326f 22bf
00000220: f73b 933e 023f 9bbf da3f 793f 9688 593f
00000230: bd9a d43e 508c 47be 57e8 e53e 3591 06bf
00000240: e5cf 113f 6614 2cbe 3214 633e 208a 413f
00000250: bad8 093f a9a1 56be 2411 5dbf 6cd4 cd3e
00000260: 9b50 19c0 36cf da3e 7bf0 ea3f ba4a 20be
00000270: de33 6f3f 5925 6ebf 8c5e bdbd edd0 66bf
00000280: 51db 913e c2b5 5cbf 4e7e 2c3e 60bf dfbf
00000290: c5c3 5a3f 21f5 03c0 1167 26bf e499 32bf
000002a0: 92ad 0ebf 6035 68be 20e5 5bbf 0b99 89bf
000002b0: 2771 933e 73e6 dfbe 40d5 dc3e 713b 80bf
000002c0: 1463 d33d 66cb 6b3f 13aa 20c0 bde2 bdbf
000002d0: a5d7 2a3f 644e 5fbf 09a8 babf 4d72 44be
000002e0: edfe a6bf dcb3 9fbf f03b 4d3f 1391 dbbe
000002f0: 16b5 4b3f 849f adbe f8a3 a5bf d4cf 41bf
00000300: 0d31 c13f f329 e8bf 4549 50be c65a 7fbf
00000310: d604 02be 2d38 c5bf fcfb 6e3e 8baf a9be
00000320: 7705 053f da20 cfbe f9d6 5f3f 1c54 373e
00000330: c683 cdbf 59ed 82be d3a8 4ebf 51c6 c8bf
00000340: 60c5 8fbf c2a2 643e 57a7 adbf 96d9 333f
00000350: c81e 99bf 301c d7bf 375d 81be e1da 13bf
00000360: 00ed 89be b37c debe 6b37 23bf 54f4 6d40
00000370: fa5c bf3d 572a d1bf 9640 2cbe 3a72 89bf
00000380: daad 0ac0 0df8 94bf 217e 21bf 4e26 18bf
00000390: e530 9e3e f655 c7be 599c ce3e 61b1 d63f
000003a0: f07e d5be d7b9 b53e 5bb7 a5bf 3c68 aabf
000003b0: 5685 38bf 99e2 02bf 4819 dc3f 7f8f 903e
000003c0: 734e 6b3f 77b1 b9be 4578 df3e 641b 203e
000003d0: bbd6 ffbf b1a3 e03f ebf7 403f df1d 3440
000003e0: c004 b93f bcd3 f8be 7cc5 2740 8bd1 d73e
000003f0: 25f0 de3f 98ed 7e3e f845 f03e 7e3b d13e
-0.88656694 0.11170383 1.3457257 0.36804542 -0.16266502 2.1030939 0.057593327 1.1446211
0.014144964 -0.9262203 0.02392136 -0.40549672 0.16839457 -0.23949169 0.475173 -1.0793825
0.39017975 -0.9895783 1.485921 -0.008409618 0.12658662 -0.83397126 2.2566924 0.0645194
-0.04218011 -0.47864532 0.15725623 0.36181986 -0.15878437 -0.6294527 -1.1161867 0.42818862
-1.2709385 0.5788289 -0.17260353 1.5490413 -0.86166054 -1.5262531 0.8450781 -0.16790865
-0.19697133 -0.98613876 1.5954623 -1.5999016 1.835109 -0.61290276 -0.060092226 -0.23602828
-0.076997496 -1.848548 -1.5042945 0.09281003 0.5782174 -1.5662302 2.2478492 -0.079296984
1.5153929 0.099573724 -0.97338325 0.19617946 2.0993338 -1.0944008 -0.2764985 0.06334506
0.31742784 0.56726325 -0.5387282 -0.41176412 0.38330674 1.3858107 -0.34428173 -0.9566032
0.9743734 0.24297358 0.2797049 0.29151204 -0.247705 0.1804696 -1.3495013 -0.58541375
-0.72254705 -0.3059887 -0.8145593 -0.7891071 0.7154898 0.46948016 -0.45085236 1.1782306
0.0006746914 0.5146128 -0.3365975 -0.31460586 0.37012407 -1.6679007 -0.12843251 -0.11793636
0.7364255 -0.7352018 -0.30554262 -1.0520415 -0.7510604 -1.7981907 -1.2470181 -1.5021974
-0.6509621 1.0846242 0.16719681 -1.333056 0.28448507 -0.06845127 0.40884182 -0.7491352
-0.23622882 1.8679868 -0.4305197 0.3542058 0.94303566 -1.0987266 -0.35225493 -0.80771494
-0.6551006 -0.37553406 1.5143497 -0.33582595 -0.15939341 -1.2357618 1.3541496 -0.66978407
0.6227637 -0.5422949 -1.4198382 -1.4167192 -0.31997058 1.3172784 0.56639385 -0.6345092
0.28756687 -1.2128603 0.97363055 0.8497404 0.41524306 -0.19487119 0.44903824 -0.5256532
0.56957847 -0.16804656 0.22175673 0.7560139 0.53846323 -0.20960106 -0.8635428 0.40201128
-2.3955448 0.42736214 1.8354639 -0.15653506 0.9343852 -0.9302574 -0.09246549 -0.90162545
0.28487638 -0.8621484 0.16845056 -1.7480278 0.8545497 -2.0618365 -0.65001017 -0.6976607
-0.557336 -0.22676611 -0.8589649 -1.074983 0.28797266 -0.43730506 0.43131447 -1.001814
0.10321632 0.92107236 -2.5103805 -1.483482 0.667353 -0.8722899 -1.458253 -0.19184227
-1.3046547 -1.2476764 0.8016958 -0.4288412 0.7957319 -0.33910763 -1.2940664 -0.75707746
1.5093094 -1.8137802 -0.2034045 -0.99747884 -0.12697157 -1.5407768 0.23338312 -0.3314174
0.51961464 -0.4045475 0.874374 0.17903179 -1.6055839 -0.25571707 -0.80726355 -1.5685521
-1.1232109 0.22327712 -1.3566693 0.70253885 -1.1962519 -1.6805477 -0.2526643 -0.5775586
-0.2693863 -0.43454513 -0.63756436 3.7180376 0.09343906 -1.6341046 -0.16821513 -1.0737984
-2.166861 -1.1638199 -0.6308308 -0.5943345 0.3089668 -0.3893277 0.4035366 1.6772882
-0.41698408 0.35493347 -1.2946581 -1.331306 -0.72078454 -0.5112701 1.7195215 0.2823448
0.9191658 -0.36268207 0.43646446 0.15635449 -1.9987406 1.7549955 0.7537829 2.8143232
1.4454575 -0.4859904 2.6214285 0.42152056 1.7417036 0.24895322 0.46928382 0.408657

decoder_pos_embedding.weight f4 [8, 32]
00000000: 0653 023f 874a a8bf e532 a63f 3e05 04c0
00000010: 1225 fdbe 62c2 60be 1beb 2fbf 3fd5 05be
00000020: 21f1 f93e 7331 903f 93de 49bf e707 593f
00000030: d5b7 9bbf bdf6 81bf d054 a8bf 105d 173f
00000040: 86d6 e7bc 8adc 47bf 5e6d 0e40 a49e 2ebf
00000050: e4aa 3c40 2672 a6be d983 9b3e 5c66 103f
00000060: ff22 8dbf 85ac 01bf 9976 16bf 4594 2ebf
00000070: b513 a8bf 8d6f 973f 200c 573e b7e3 f33e
00000080: 6036 5bbf 870c b53f e76e 19c0 5445 50bd
00000090: a470 813e cd41 133e d0e2 913d 5368 8d3f
000000a0: 1c23 aabf 7ad8 4abe e646 fd3e b487 723f
000000b0: 8e46 30bf 0805 adbe 512c f83f 2a23 05bf
000000c0: 1010 003f 39ea 0cc0 69d5 ef3f ad62 833f
000000d0: ba4d 0cbf 28b4 d9bf ff89 19c0 a837 793e
000000e0: 6b6e 65bf 77e6 f03d 95d1 6340 c46e 23be
000000f0: 3014 e9bf d171 e43f 6965 1abf fbcd 163f
00000100: af34 263f 98ee abbf 1ac1 b73f 2d56 2740
00000110: a05d 26bf 8777 00c0 ceb4 57be 2e25 d63f
00000120: 21fb c8bf 5828 cf3b 374b 9f3f 63d6 993e
00000130: 3437 8abf fe23 0bbf c436 393e aabd 2abd
00000140: 89ae 763f 8f38 433e facc 47bf aeca 53bf
00000150: 44c4 f0bf 505e 2d40 3b58 83bf e520 a3bf
00000160: 1286 b33d 0c98 dcbf f377 2940 1463 033f
00000170: 40f0 3f3f 583c 3a40 e706 7bc0 52ef a4bf
00000180: c8e4 1040 3977 36bd b43e 5ebf 6903 1e3f
00000190: 6f0f 793f c438 1640 d639 c3bf 373d 6f3f
000001a0: ca84 1e3f 1700 ad3e 5619 e3bf 9040 aa3f
000001b0: 429c df3e 2591 dcbf 7265 493f 07dd ddbf
000001c0: a836 a5be 3430 34bf a4a3 18bf 6209 a03e
000001d0: 8d6c f83c 5c28 f93f 3ca7 b63e f31d 303f
000001e0: adb8 f7be 5789 763e b9f4 23c0 8c02 983d
000001f0: b20f 38be 4a9c cc3e 5679 9a3f 7225 0fbf
00000200: 82f8 be3f e70e 873f 62b0 6a3e 2cd3 3d3c
00000210: b4e5 5fbf faf0 063f 8435 acbf d73c 1a3f
00000220: 7cdd 3bbf 609f 163f a9c5 03c0 e73b 06be
00000230: 3c5a 9fbc 757d 74bf ebf4 a6be 3237 34c0
00000240: bb18 023f 2fe4 e3bf 6438 8fbf 257a eb3f
00000250: b3e8 7cbe a30d d1bc ce9f 283f 0063 823f
00000260: 7f27 5e3f f780 4bbf 7e8d 573e 575b 8cbe
00000270: 8474 d23f 10dd 1440 12eb a73f 0cea 663e
00000280: 0144 9f3e d731 bdbd 47d2 023e 1f26 81bf
00000290: 91ef c83f 9d2e 8e3f da33 8f3f 92d3 cbbf
000002a0: 0538 d2bf 4bd2 723e 7f84 80bf 4f82 a7be
000002b0: 4591 4a3f d183 f03f 5766 903f d69f ea3e
000002c0: d7e9 1cbf 47ec de3f 2098 47bf 324f 02bf
000002d0: 3315 19bf d050 263f 61f7 45bf 3a4c 7d3f
000002e0: 7d1e 72be 40c8 d63e 55f9 8f3f 0de4 0c3f
000002f0: 730c c53f dd20 90bf 24d8 3abf f263 25bf
00000300: 5f94 a73d d56f 4fbf 1f04 353f 075d 79bf
00000310: 0291 bcbe 4a03 333f 19f4 d7be 3e0b 84bf
00000320: aabf a4bf 3c6f 483f e181 2bbf 8368 c73f
00000330: d3c0 913f a2b6 753f dbf2 cd3e 9d1a b13d
00000340: 30dc 583e 9e72 c13f 0159 8dbe 9121 ff3e
00000350: 8830 5d3f 11c6 c43e b429 943e fcf0 003f
00000360: c3ff 95bd 5f40 743f a396 bb3e 8c59 56bf
00000370: ae5e 54bf cb2e 85bf d86f 0abf abe7 dfbf
00000380: 626f 75be e6ee 083f d758 f5bf 6b55 503e
00000390: ef4e cbbf bd51 15bf 1bfc e0be ef88 773f
000003a0: 2b5f 95bf 1e5c 97bf 9fca a33f 67e2 d7be
000003b0: 4cbd b93e 3455 a13f 3049 e83d bd33 b9bf
000003c0: 9e8a b13e 3d53 98bf 7692 21bf 9d40 7ebe
000003d0: 5251 17bf 4576 3f3f 07ce dc3f 3602 d0be
000003e0: 12d2 83bd c9e2 b0bf 6099 453f 3196 043f
000003f0: 037b f7bf a94d ebbe 489b 073f 28f1 6e3f
0.50907934 -1.3147744 1.2984282 -2.06282 -0.49442345 -0.21949151 -0.6871812 -0.13069628
0.4881678 1.1265091 -0.78855246 0.84777683 -1.2165476 -1.0153424 -1.3150883 0.5912638
-0.028300535 -0.7807089 2.2254252 -0.68210816 2.9479303 -0.32508963 0.3037403 0.5640619
-1.1026305 -0.5065387 -0.58774716 -0.6819499 -1.3131014 1.1830918 0.21000719 0.4763467
-0.85629845 1.4144448 -2.397394 -0.050847366 0.2528125 0.1438057 0.07123339 1.1047462
-1.3291965 -0.19809142 0.49468154 0.94738317 -0.6885766 -0.337929 1.9388524 -0.5200678
0.5002451 -2.2017958 1.8737003 1.0264488 -0.548061 -1.7008104 -2.3990476 0.24337637
-0.8962161 0.11762708 3.5596669 -0.15960222 -1.8209286 1.7847234 -0.6031099 0.5890805
0.6492414 -1.3432188 1.4355805 2.6146348 -0.6498661 -2.0072954 -0.21065065 1.6730096
-1.5701638 0.006321948 1.2444829 0.30046377 -1.0798097 -0.54351795 0.18087298 -0.041684784
0.9636007 0.19064544 -0.78047144 -0.8273114 -1.8809896 2.7088814 -1.0261301 -1.2744414
0.08765806 -1.7233901 2.6479461 0.51323056 0.7497597 2.909933 -3.9222963 -1.2885535
2.2639637 -0.044547293 -0.8681443 0.61723953 0.97289175 2.3472147 -1.5252025 0.9345278
0.6192137 0.3378913 -1.7742107 1.3300953 0.43673903 -1.7231795 0.7867042 -1.7333077
-0.32268262 -0.7038605 -0.59624696 0.3125716 0.030325199 1.9465442 0.35674465 0.687957
-0.48383084 0.24075828 -2.5618117 0.07422361 -0.17974737 0.3996299 1.2068279 -0.5591651
1.4919589 1.0551423 0.22918847 0.011585992 -0.87459874 0.5271145 -1.3453832 0.60249084
-0.73384833 0.58836937 -2.0589392 -0.13108788 -0.019452207 -0.9550393 -0.32608733 -2.8158689
0.50818986 -1.7804011 -1.1189084 1.839665 -0.24698143 -0.025519198 0.6586884 1.0186462
0.86779016 -0.7949366 0.21050069 -0.27413437 1.6441808 2.3259926 1.3118613 0.2255022
0.3110657 -0.09238022 0.12775527 -1.0089759 1.569811 1.1107975 1.1187699 -1.5923941
-1.6423346 0.23713033 -1.0040435 -0.32716605 0.79127914 1.8790227 1.1281232 0.4582507
-0.6129431 1.7415856 -0.779665 -0.5090209 -0.5979797 0.6496706 -0.77330595 0.9894444
-0.23644443 0.41949654 1.1247965 0.5503548 1.5394424 -1.1260029 -0.72986054 -0.6460563
0.081825964 -0.8103002 0.70709413 -0.97407573 -0.36829382 0.69926894 -0.4217842 -1.0315931
-1.2870991 0.7829473 -0.66995054 1.557877 1.138697 0.959818 0.40224347 0.08647654
0.21177745 1.5113103 -0.27606967 0.49830297 0.8640218 0.38432363 0.28938067 0.5036771
-0.07324173 0.9541072 0.36638364 -0.8373039 -0.8295697 -1.0404905 -0.5407691 -1.7492574
-0.2396827 0.5348953 -1.9167737 0.20345084 -1.5883464 -0.5832785 -0.4394234 0.9669332
-1.1669668 -1.1824987 1.279621 -0.4216492 0.36277235 1.2604127 0.113420844 -1.4468914
0.3467607 -1.1900402 -0.63114107 -0.24829336 -0.5910846 0.7478984 1.7250375 -0.40626687
-0.06436552 -1.3819209 0.77187157 0.51791674 -1.9334415 -0.45957687 0.52971315 0.93336725

transformer.encoder.layers.0.self_attn.in_proj_weight f4 [96, 32]
00000000: 17f1 03be cd86 e93b 179c 29be d41e 90bd
00000010: bd84 b7bc 8b34 94be 83c0 a63c 6bc9 ed3d
00000020: bb6f 343e cf16 8c3d ef69 f0bc 5338 1f3d
00000030: 0547 c43b 2567 e13d f77f f6bd 1429 a43d
00000040: 9e1c 093e fb7e 2ebd 49b4 e3bd 5071 443d
00000050: ca6e 4abe a070 1e3e 5f1d 44be 6052 6ebe
00000060: 8af8 51bd 3f6c c63d 3683 ff3c dd37 d4bd
00000070: e326 363e 6c73 f9bd 07dc b13d 2c36 393d
00000080: 151b f8bd 1cf3 51bc 5bc4 9cbd 3d41 98bb
00000090: 6a20 d03d 68d1 ef3d 3a57 28be b6f8 d5bd
000000a0: d6ad b33d f3c5 0d3d 1f41 883d e538 59ba
000000b0: fe6b 31be 9721 3ebd 45a2 18bd 19e6 4abe
000000c0: 65f4 4d3c 28f1 333e a0b6 11be 2da5 d7bc
000000d0: 7baa 483d 17a9 13bc 5fab 66bc ac10 f4b7
000000e0: 52bc 6d3d a809 41be c23d 60be 2943 e83d
000000f0: f10c d83c 42dc eebd 7e8c 543d 8b02 533e
00000100: 48e7 123e 9384 0bbe a617 d2bd 0a2c 42bd
00000110: 01cf 843d d152 e7bc 2b57 11be 6239 72b9
00000120: 44e5 003e 138e 1f3c 81e0 9bbb e319 fd3d
00000130: ec67 67bc 7d60 1c3e 1bba 7bba 1680 343e
00000140: 4cc3 00be 5840 653e f7ba 003d 0be7 ae3d
00000150: 9dfd 8a3d 7ab5 72bd accb 253d 27a1 483e
00000160: 811f 263d f666 32bc 7693 81be 7169 df3c
00000170: 8f4e 633d af77 c7bd b1f5 f7bd c6ec 803d
00000180: 97da 70bc 3880 303d f831 acbd c661 6c3b
00000190: b9de 2c3c 7d29 76be a2b9 533e d404 203e
000001a0: 6982 f1bd 9779 bebc 1091 2b3e 478d f8bc
000001b0: 1e3e dfbd eaa2 923d 3fd4 163e 1e06 903b
000001c0: 6589 51be 3085 813d 9ebe 833d 2f6d a43d
000001d0: 8263 33be c4ea 083c 8e31 f8bd f06f af3d
000001e0: 0e44 0d3e 70bf 323d 5f63 71bd 86c7 b13b
000001f0: f6a4 ebbc 1ffe f13d fd5f ffbd b7ae 5a3e
00000200: a1a0 2a3d 56a1 12bc 7ad8 6c3e 005d 463e
00000210: a839 4c3d 8861 75be 21d5 fe3c 5eae a5bd
00000220: 66e2 ef3d c0c3 1fbe 4493 2b3e 3953 6ebe
00000230: 3192 853c 5271 98bc c15c c4bd eb36 7b3d
00000240: a96a 52bb 1003 47bd dda1 8cbd fc7d 163e
00000250: d1c6 dc3d 81a4 8dbb 5c65 babd 3445 3abd
00000260: 4c0d 253d b932 cebd 51e5 a73d e4e0 ad3d
00000270: e094 343e 9724 3dbe 7058 ff3d 64d7 21bd
00000280: d4d7 d4bd 16ea 1abd 7ac3 06be c04c 0bbe
00000290: db7a 383e b768 26be 688d ea3d 4144 ebbd
000002a0: c255 b5bd e8a8 5abe bf93 323d aa68 06be
000002b0: b7bf 023c f265 99bd 84f8 0abe 3c62 6c3d
000002c0: 4de4 f23d 8a0a 26be a04b 06be 6205 3ebd
000002d0: e8ac d83d b1db 88be 98dc a0bd 417f c2bd
000002e0: 3f90 213a fef0 b0bd 72b4 99bb 2d2f 2dbe
000002f0: 9bb1 043e 803b 21be 154d fd3d 80c9 30be
00000300: e4c9 133c be7b bc3d 8706 f8bd 69b5 75bd
00000310: 42d8 0cbd 6737 c7bd 6ab8 81bd ee88 34be
00000320: 80bd 2c3e 4169 4dbe 6165 ef3d 23e9 0cbd
00000330: 0ac6 ec3d e471 a2bd f032 413c 9e14 b1bd
00000340: d188 1d3e 33b1 353e b905 f63d 1bc7 84be
00000350: f338 aebd 78ff 1b3e 9a45 11be 8aff b33d
00000360: ff40 293d 11f2 203e 18a6 19be 3309 b5bd
00000370: 922f 023e 768c bf3d a9c3 dabd 5024 2ebd
00000380: 8bfe 5b3d 79e8 4dbd ff7a 4ebd 597a 7abd
00000390: 209b 3ebd f6cd 7a3e c121 5cbe 93d9 dabc
000003a0: dc22 20be ff6b 84be a1fd d73c edee 2ebe
000003b0: 0544 aabc 3b04 2f3e 5576 4bbd 2261 fc3d
000003c0: 9d5e 623e 2dc6 9ebd 9b9a f23d bb50 0cbe
000003d0: e91f 003d 347d 86be 8b96 153e dcbf 5fbd
000003e0: cdf8 a2bc 4865 3ebd 0473 51be 674e 14be
000003f0: 6e41 68be 8d0d 393d 5a0e e8bd d93a 0f3e
-0.12884937 0.007126665 -0.1656345 -0.0703713 -0.022402162 -0.28946337 0.020355469 0.11610683
0.17620747 0.06840288 -0.029347388 0.038872074 0.0059899115 0.110060014 -0.12036126 0.080156475
0.13389823 -0.042601567 -0.11118371 0.047959626 -0.19768825 0.1547265 -0.19151829 -0.23273611
-0.051262416 0.09688615 0.031190496 -0.103622176 0.17788272 -0.12180218 0.08684545 0.045217678
-0.121145405 -0.012814309 -0.07654639 -0.004646449 0.101624325 0.11709863 -0.16439524 -0.104478285
0.08773391 0.034612607 0.06653046 -0.0008286371 -0.17326352 -0.046418753 -0.037264127 -0.19814338
0.012570475 0.17572463 -0.14229822 -0.02632388 0.048990708 -0.009012482 -0.014078944 -2.909483e-05
0.058040924 -0.1885134 -0.21898559 0.11340935 0.026373358 -0.116631046 0.051891796 0.20606439
0.1434604 -0.13624792 -0.10258417 -0.04740528 0.06484795 -0.028237732 -0.14193408 -0.00023100295
0.12587458 0.009738463 -0.0047569876 0.12358453 -0.014123898 0.15271182 -0.0009602622 0.17626986
-0.125745 0.22387826 0.031428304 0.08540162 0.06786654 -0.0592551 0.04047744 0.19592725
0.04055739 -0.010888806 -0.25307816 0.027271958 0.05549484 -0.09739625 -0.12107409 0.06295161
-0.014700553 0.04309103 -0.08407968 0.003606902 0.010551148 -0.24039264 0.20676282 0.15626842
-0.11792452 -0.023251338 0.16754556 -0.030340804 -0.1090052 0.0715998 0.14729403 0.0043952605
-0.20462568 0.063242316 0.06432842 0.080286376 -0.17518428 0.008356754 -0.12118827 0.08566272
0.13795492 0.0436396 -0.05893266 0.0054253964 -0.028765183 0.11816048 -0.1246948 0.21355711
0.041657094 -0.008949598 0.23129454 0.19371414 0.049859673 -0.23962986 0.031107487 -0.080898985
0.11713104 -0.15602016 0.16755396 -0.23273934 0.016305061 -0.018608723 -0.09588004 0.06133167
-0.0032107031 -0.048586905 -0.068668105 0.14696497 0.10780109 -0.004322589 -0.09101364 -0.045476153
0.040295884 -0.10068268 0.081980355 0.0849016 0.17634916 -0.18470989 0.1246804 -0.039512053
-0.103927284 -0.037820898 -0.13160506 -0.13603497 0.18015616 -0.16250883 0.11452752 -0.11487628
-0.08854248 -0.21353495 0.043597933 -0.13125864 0.007980279 -0.07490148 -0.13571364 0.05771087
0.11859951 -0.16214958 -0.13114786 -0.046391852 0.10579854 -0.2673011 -0.07854575 -0.09496928
0.0006163157 -0.086397156 -0.0046907 -0.16912527 0.12958376 -0.15745354 0.12368218 -0.17264366
0.009020302 0.092032894 -0.1211062 -0.05998746 -0.034385927 -0.09727364 -0.06334002 -0.1763036
0.16869164 -0.20059682 0.11689258 -0.034402024 0.115612105 -0.07931879 0.01179193 -0.086465105
0.15384223 0.17743377 0.1201281 -0.25933155 -0.08506956 0.15234172 -0.14186707 0.087889746
0.04132175 0.15717341 -0.15004766 -0.08839645 0.12713459 0.09352963 -0.106818505 -0.0425151
0.053709548 -0.05027053 -0.050410267 -0.061151836 -0.046534657 0.2449263 -0.21497251 -0.026715076
-0.15638298 -0.25863644 0.026366057 -0.1708333 -0.020784387 0.17091458 -0.049673397 0.12323214
0.22106405 -0.07752643 0.11845895 -0.13702671 0.031280432 -0.26267397 0.14608209 -0.05462633
-0.019894028 -0.046483308 -0.20454031 -0.14483033 -0.2268121 0.04517894 -0.11330862 0.13987292

transformer.encoder.layers.0.self_attn.in_proj_bias f4 [96]
00000000: 9b55 cf3c 9cd0 b5bd 80bc 0fbd 5ce7 1fbd
00000010: 169b d63d 92d6 e23d 56b9 023c 5f82 8cbd
00000020: 607b a2bc a598 993a a8a1 453e fcfa c5bd
00000030: d7ef 613d 9310 85bd a35f 1c3e 77d7 2d3c
00000040: 9328 0ebe 3f6f 57be a9bf 4bbe f051 ff3d
00000050: 142b 3cbd 06e1 303e 4762 4b3d 4958 c33d
00000060: e28d 463d 6c72 9dbd 3e8a 403d afef 143e
00000070: 1fd7 c23d 730f f63d 5056 abbd 81a2 183e
00000080: 19ee 98bd 9b0a 5d3d 57c0 7a3c 0120 01bd
00000090: 1c5e 06be 80c3 f0bd 30a7 863d 3840 4e3d
000000a0: 4f19 913d fd5d e73c bf73 a43c 2be5 bf3d
000000b0: 11eb bd3b fd56 8e3d 3bcd 043e d456 6f3d
000000c0: 7d43 e03d b760 8e3d a5ac fc3d 6006 5a3c
000000d0: e1a6 443d b0ee ddbd 0086 563d 71e9 aabc
000000e0: 6925 01bc 512d 9bbd 81dc d6bc 6322 a0bd
000000f0: d8f6 a7bc 722f 96bd c7d0 1a3d 42a9 e2bd
00000100: 3a87 5abc a390 2d3c 677d babd 707d 7a3b
00000110: d6fe e2bd ce51 a13d 64d2 483d f133 81bd
00000120: 69db 11bd 8c45 923c 7037 11bc 0cb6 07bd
00000130: 8bbd 8d3c db3b 4bbc 9773 0b3d 3815 253e
00000140: b32c 143c 0473 bfbc 3d1a 813a 8ff9 1c3d
00000150: cba7 3ebd bc87 0cbd acf7 2cbc cd43 fb3d
00000160: f90d ba3d 29be 163d aa9e c9bc 0739 9b3c
00000170: 10e9 c33d 76d6 283d 0d79 20bc 8e6f 543d
0.025309375 -0.0887768 -0.035091877 -0.039039 0.10478799 0.11076082 0.007978758 -0.06860804
-0.01983422 0.0011718465 0.19299948 -0.09667012 0.05516037 -0.06497302 0.15270858 0.010610453
-0.13882665 -0.21038531 -0.19897331 0.124668 -0.04593952 0.1727334 0.04965427 0.095383234
0.048475154 -0.0768784 0.047006838 0.14544557 0.09513687 0.120146655 -0.08366072 0.1490574
-0.074672885 0.053965192 0.015304646 -0.031524662 -0.13121837 -0.11756039 0.06574857 0.050354213
0.07084905 0.02824306 0.020074723 0.09369882 0.0057958444 0.069501854 0.12968914 0.058432415
0.10950372 0.06952041 0.12337617 0.013307184 0.04801071 -0.10836542 0.052373886 -0.020863267
-0.007882454 -0.07577003 -0.026228191 -0.07819059 -0.020503446 -0.07333268 0.03779676 -0.110674396
-0.013337905 0.010593566 -0.0910595 0.003822174 -0.11083762 0.07876931 0.04902877 -0.06308735
-0.035609636 0.017855428 -0.008863315 -0.033132598 0.017302295 -0.012404407 0.034045782 0.16121376
0.00904386 -0.023370273 0.0009849739 0.038323935 -0.04654674 -0.034309134 -0.010557096 0.12268791
0.09084696 0.036802445 -0.02461179 0.018948091 0.095659375 0.04122015 -0.009794486 0.0518642

transformer.encoder.layers.0.self_attn.out_proj.weight f4 [32, 32]
00000000: 1805 073e f52d 3c3d ff75 14be 12d7 7c3e
00000010: 4a53 2ebe 331c 67be c019 42bb b93c 863d
00000020: c436 583e 3350 413e 8190 a9bd 03ae 063e
00000030: d833 efbd 58ac 103d f501 b9bd 5dbf 49bd
00000040: 4cf4 0ebe 8de9 ba3b 0765 ab3e 3698 cdbd
00000050: c05d d23d 7527 a7be f57f ebbd 0cdd 15be
00000060: 1510 2ebe 6224 25be 470b 033e d595 0cbe
00000070: 24c0 23bd 0ea5 c73d 9eb9 acbd 73a7 a9bd
00000080: 1272 753c a721 37bd 7e49 8cbd cfbe 14be
00000090: 10d1 90be 11f8 023e 63f5 4cbe 9698 b13d
000000a0: 08d5 c23e 9ef2 243e 8e06 0e3e 3583 aebd
000000b0: 67c4 6c3e 5339 e8be 1bab 98be 9c9e 9f3d
000000c0: 4a20 99bd e20c bc3b 7c03 82bd 46dd 213d
000000d0: c1c2 4b3e 5ad4 31be b56d 713e 38b7 42bc
000000e0: d4d5 423d 4403 51bd 704f debc 7428 293d
000000f0: 385d 20be d124 883d 2f42 b0bd 48d4 4f3d
00000100: d04a c83d 08bc 69bd 1016 c73d accd 46be
00000110: 7999 803d a575 ae3e 35a2 78bc fc2a 8a3e
00000120: 38aa 5abe bbc7 babd 22fc a43d d2a2 ef3c
00000130: 08a7 49be bc8c 14be e4c5 813e 3af8 ac3d
00000140: 7052 bd3d 3ffd 07be af3e 92bd 7134 883e
00000150: 00c7 f63d 17be 6bbe 3987 8a3d ef2b 443e
00000160: 8420 33bd 9e19 78be cd60 1fbe eb45 8abd
00000170: feb8 ef3d 5c73 703c 6528 e93c cf89 4cbd
00000180: 6caf 02be 7fac 57be 2cd8 25bd 31c5 3b3e
00000190: c853 a13e e91b 13be 7016 503e e988 37be
000001a0: 0732 ec3c be06 c23d 709f 613e ab2e cb3d
000001b0: 6569 9e3d 93a5 993d 0cc3 853e 13ac 1b3e
000001c0: 299a 343e b1df 053e 924a 283e f5ad 313d
000001d0: c740 ab3c 472b 96be 0a6d 35bd 9de0 4b3e
000001e0: 7335 c6bd c11e dbbc 15dd 9bbd 1b11 173e
000001f0: fbed 39be bc0b fcbc ceb2 86bd b1c0 c53d
00000200: 9c07 263d 9a78 243d 2a6e 2c3c 3a0a 1c3d
00000210: 024a c43e bb61 91bd a23d 7d3e 2257 803d
00000220: 9854 33be 0ed8 3c3e 0e74 083e ab0b 30be
00000230: c50c 7ebc 421b bd3d db5a 2dbe 8b5f cebe
00000240: 0f01 2fbd 3c97 033e 06c9 a7bd 55d8 0cbe
00000250: 12b2 03be feff 453c 4565 193e 16a7 de3c
00000260: cdba 863d dd5f 38bd 6c2d 943d a73a 373e
00000270: 79b9 ca3d 71c1 f5bc 1a12 423d 6ee2 6cbd
00000280: bde6 5dbe 2e56 b73e 4954 ccbd 32b4 423d
00000290: 0faa 32bd 8d13 e7bd e654 f93d 6881 753d
000002a0: 7453 5b3e 5d43 49be 6ec1 a63d 94b9 24be
000002b0: 99f6 c2bc f3ef ea3d ba06 9d3d 8fe3 d13e
000002c0: 0004 14be 086f 02bf e2dd 42bc 882b a63c
000002d0: 1664 d3bd 827b e03a a392 fc3d 3787 073e
000002e0: 8f73 a53e 69b7 1e3e 55ce 393e 357f 823d
000002f0: bd10 91bd 21f4 7a3e b283 033d bb8d a73d
00000300: e0e4 29be 837f 2b3e aab2 143e a893 d43d
00000310: 4ea7 3f3e 0bea 963c 0434 f0bd b370 0e3e
00000320: 02ab 4e3d 96a2 733e f2db 073e dc95 a1be
00000330: c6d3 9fbb 0ea2 703d 6ab5 60be 7796 c13e
00000340: ab52 35be 1797 f4bd 901e 89bc d588 b8bd
00000350: 4104 543d a9b3 cf3d a856 e13e 4a1c 083e
00000360: b0d4 83be dde6 593e b6d5 993e d705 d6bd
00000370: bbbb 29be f23c e63d de8b 3ebe b6c4 3bbd
00000380: 3885 0e3e 76c7 0d3e c94f 8dbd d940 853e
00000390: 8189 063e 887d c8bd 8b10 b3bd ed65 16be
000003a0: 8839 843e 8856 8f3c 3b53 c7be f67c 393e
000003b0: 2628 323d 7681 9c3e 651d 103e 4a40 7ebe
000003c0: c330 5f3e 607a 22be b4f8 51be 2dba 243d
000003d0: 12fa 033e 81e1 67be 58ab 343e ac7f 4c3d
000003e0: da17 a5bc 98e5 1b3e 2387 b53e 3484 c53d
000003f0: 38b1 2c3e 7a29 c1bc 88d5 1e3c 2dfe 1dbd
0.13185537 0.045942266 -0.14498137 0.24691418 -0.1702396 -0.22569351 -0.00296174 0.06554551
0.21114641 0.1887825 -0.08279515 0.13152318 -0.1167981 0.03532061 -0.090335764 -0.049254764
-0.1396038 0.005704111 0.33475515 -0.100387976 0.10271788 -0.3264729 -0.11499015 -0.14635104
-0.16998322 -0.1612716 0.1279727 -0.13729031 -0.03997816 0.097482786 -0.08433841 -0.082838915
0.01498081 -0.044709828 -0.06849955 -0.14525913 -0.28284502 0.12789942 -0.20015483 0.086716816
0.38053155 0.16108176 0.13869688 -0.085211195 0.23121797 -0.45356235 -0.29818043 0.07793924
-0.07476862 0.0057388404 -0.06348321 0.039517663 0.19898511 -0.17366162 0.23577006 -0.011884503
0.047567204 -0.051028505 -0.027137488 0.041298345 -0.1566056 0.06647647 -0.086063735 0.050739557
0.09779894 -0.057064086 0.09721005 -0.19414395 0.062792726 0.3407413 -0.015175392 0.2698592
-0.21353996 -0.09120127 0.08055903 0.029252443 -0.19692624 -0.14506811 0.2534629 0.08445783
0.09244239 -0.132802 -0.07140862 0.2660251 0.12049675 -0.23021732 0.06764073 0.19157384
-0.04373218 -0.24228522 -0.1556427 -0.06751617 0.11705206 0.014675941 0.028461644 -0.049936112
-0.1276223 -0.21061896 -0.04048936 0.18336941 0.31509233 -0.14366116 0.20321059 -0.17923321
0.028832449 0.09473942 0.22033477 0.099210106 0.07734946 0.07502284 0.2612537 0.1520236
0.17636932 0.13073613 0.16434696 0.04337879 0.020904912 -0.29329893 -0.04429344 0.19909902
-0.096781634 -0.026748063 -0.076105274 0.14752619 -0.18157189 -0.030767314 -0.06577073 0.096558936
0.0405346 0.040154077 0.010524312 0.03809569 0.38337713 -0.07098719 0.24730542 0.06266619
-0.17512739 0.18441793 0.13325521 -0.17191951 -0.015505974 0.09233715 -0.1692919 -0.40307269
-0.04272562 0.1285066 -0.08192639 -0.13754399 -0.12860897 0.012084959 0.14980038 0.027179282
0.06578598 -0.045013297 0.07235226 0.17893468 0.09898657 -0.029999467 0.047380544 -0.057833128
-0.21670051 0.35807937 -0.099770136 0.04753513 -0.04361921 -0.11283026 0.12174396 0.059937865
0.21418554 -0.19654603 0.081423625 -0.16086417 -0.023799228 0.11471548 0.076672986 0.40993926
-0.14454651 -0.5095067 -0.011893721 0.02028443 -0.10321824 0.0017126652 0.12332656 0.13235174
0.32314727 0.15499653 0.18145116 0.06371919 -0.07083271 0.2450719 0.032108016 0.0818133
-0.16591215 0.1674786 0.1452128 0.10379726 0.18716165 0.018422147 -0.11728671 0.13910179
0.050456055 0.2379249 0.13267496 -0.31559646 -0.0048775403 0.058748297 -0.21944204 0.37810108
-0.17707317 -0.119428806 -0.016738206 -0.09010474 0.05176187 0.10141689 0.44011426 0.13292041
-0.25748205 0.21279474 0.3004586 -0.104503326 -0.1657552 0.11242093 -0.18608043 -0.045841895
0.13918006 0.1384562 -0.068999834 0.26026037 0.13138391 -0.09789568 -0.0874339 -0.14687319
0.25825143 0.017497316 -0.38930687 0.18114075 0.04349532 0.3056752 0.14073713 -0.24829212
0.21795945 -0.15866995 -0.20505029 0.040216614 0.12888363 -0.22644617 0.17643487 0.049926445
-0.020152975 0.15224302 0.35454664 0.09644356 0.16864479 -0.023579348 0.0096944645 -0.03857248

transformer.encoder.layers.0.self_attn.out_proj.bias f4 [32]
00000000: cbb5 023e 4fdc 1b3e 3f41 eabd 06a1 55be
00000010: f79a e3bb 084f 873e 1eb1 983d 9169 013e
00000020: a3c5 43bb 82a6 a6bc 4c97 8bbb 6607 6fbd
00000030: fa1f 213e 8486 cebd b625 b8bd effc 2abe
00000040: ccb1 50bc 4e92 fa3d 260a bdbc a24d 86bd
00000050: 0ed0 d7bd 6479 41be 4431 4a3d 9f3b 2abc
00000060: d493 88bd 71e9 db3d 55be d03d 6399 cabd
00000070: a576 173c f7aa 2f3e 7ced d3bb 132e 2c3e
0.12764661 0.1522076 -0.11438226 -0.20862207 -0.0069459635 0.26427484 0.074556574 0.12637927
-0.002987244 -0.020343069 -0.0042599794 -0.058356665 0.15734854 -0.100842506 -0.08991568 -0.16698049
-0.012737703 0.12234937 -0.023076128 -0.06557776 -0.1053773 -0.18893963 0.04936339 -0.010390191
-0.06668821 0.10737885 0.10192553 -0.098925374 0.009244596 0.17155062 -0.0064675193 0.16814451

transformer.encoder.layers.0.linear1.weight f4 [128, 32]
00000000: 47f3 8abb 508f 5cbc 41b7 8e3d 9b6f 86be
00000010: c888 7d3e 98f6 86be a302 a63e 5c48 773d
00000020: 6845 98be 4814 e9bd 79d0 1f3e 9922 a4be
00000030: 35d5 b33d 35e4 a4be a24c 26be d5ab 7dbd
00000040: 3cbb 143d a115 c43d 14c9 38bb 297c 343c
00000050: 7cc3 973d 8381 123d 9ebd 043b 9427 08be
00000060: 5a2d 92bc 7b5f 6abb 74ae 02be 2433 21be
00000070: 90a8 b23d dd38 8b3e a8a4 4abd 56a4 c93d
00000080: 5477 edbd 1887 ab3b 77e5 973d 0454 0bbd
00000090: 573c 2ebe 543a 73bd 7423 533e d7cd a63d
000000a0: 7d96 40bd c64c 57bb 5f45 d7bd 914d 163e
000000b0: 0f4d e7bd ff63 17bd 568c 59bc 7fd2 a4bc
000000c0: 038d 1e3e 3b33 203d d2b1 8b3e f9d2 133d
000000d0: 7e2d 343b 752b 683d c449 2dbe 4561 44bd
000000e0: f88b 88bd ecd2 12bd d288 4ebd 4bcc bd3d
000000f0: 940e 0dbe 7889 093e 8b58 c0bd bbd1 2c3b
00000100: 4448 4cbd 6c18 723d 98ef dabc b2b6 34be
00000110: 617e c83d aa1a 30be 8511 103e d0ba 0d3e
00000120: 84d8 d23a c9da f1bd 042e 033d 8f2a 61bd
00000130: 406f dc3c cb2a 22be 32fd 033e d6f9 b83d
00000140: 011d 583e 42ae d23d 0783 0fbe d64c 90bb
00000150: e57f bb3c 8bd9 353d 6299 5739 9140 6dbd
00000160: 2733 9b3a 3614 aa3d eaf8 b63d 978c 23bd
00000170: 39e9 f8bc 2006 813e f9f5 febd 466d 4ebc
00000180: bf2f 82be fa65 1fbe 4a81 443a 6072 d0bc
00000190: 7bc2 933d f074 073c 2d87 833d d7f8 92bd
000001a0: 6cac 22be ea27 cb3d 5fad 9cbc 61f7 7cbe
000001b0: 42c5 cebd 1c35 88bd 08ea 5e3d 1a5c dfbd
000001c0: d526 a13d 830c 84be 3631 cd3d 8bc2 21be
000001d0: e074 2dbe 7497 7cbc 94fc 5dbd 5433 acbd
000001e0: a818 d4bd 7a02 4bbe 7764 933d 0c8b 4d3b
000001f0: ed06 353e 72d6 d2bc 3875 d23c 47f0 8abe
00000200: 0496 9dbc 044c 253e 4039 143e 8a7e 633c
00000210: 3c08 843e 30f3 2cbd 1a1f 723c 17a8 4e3d
00000220: e503 18be ec75 50bd aab4 a9bd a022 8abc
00000230: 8950 a2bd 02dc 1dbc 6800 23be 0b6d f9bd
00000240: 5344 0b3d 5e92 6bbc d789 dabd 07be 023e
00000250: 02a2 143e 87ed e3bb 33a0 13be 1774 d7bd
00000260: 2b7a 8bbd 1c6e 91bc 8e01 243c 172d c1bd
00000270: bd54 06be 0816 46bc 6e67 3dbe ad1c 983c
00000280: 2d86 a83d 96f2 cabd 14ca bcbd 4288 05bd
00000290: 5dba 95bd 458c 2c3e 5df1 0e3e 1f22 2b3d
000002a0: f40e 16bd c787 2dbd e979 863d 976d 2e3e
000002b0: 0380 4c3d 6716 80be 5778 a73b 4545 a43d
000002c0: 85b3 5abe fbef 4c3d a2cd 8f3d 5d1b 19be
000002d0: dcc2 4fbe 5db7 7b3d 9e85 4cbe d035 933c
000002e0: 4cf6 9b3d 157a e4bd e559 f13b aefd d83c
000002f0: 050b b83d 292d a93d a499 af3d 8ea7 c43d
00000300: 5635 87be 486f 043e fbfe ab3d 40be bcbd
00000310: 767b 8a3e 9cb9 a1bd e1ed 163e ac1a e83c
00000320: af31 e03c 9236 af3b f782 66bd 012f 0bbd
00000330: e784 b7bc 4700 14bd aaa9 65be 37e8 403d
00000340: eb05 063d 7a8a 073e c2a6 1c3e 04b8 b1bb
00000350: 3c1c 2dbd ee46 343e 5695 06bc aa2b 1e3d
00000360: 7b6b 23bd 3767 aebd 3332 b8bd 505a 9abd
00000370: 6740 c13c 7d52 4b3e 5ad7 acbe bc39 93bd
00000380: 03b4 6cbd 884d b0bd becf f93d 9a98 5fbe
00000390: 9e66 883b d2b7 d03c 1969 2d3e e51c 1f3e
000003a0: 11e2 c2bd 98fd 51be b1bc 823d 2f5f db3d
000003b0: 261f 1e3d 1b47 6d3d d797 bdbd 0bde a83e
000003c0: 13ce 5fbe 0d25 6f3d 80ca 613d f35e 85bb
000003d0: c45c c13c dc10 06be 2604 b2bd 70f7 f63d
000003e0: 64ce 27be 6f8d 8ebc 334c 49be e6f7 f83d
000003f0: 5433 183e 47cf 593e 58b7 683d b251 bb3d
-0.0042404267 -0.013461903 0.06968547 -0.26257023 0.24759209 -0.2636001 0.32423887 0.06037174
-0.29740453 -0.113808215 0.1560687 -0.32057646 0.087809004 -0.32205358 -0.1624017 -0.06193145
0.036311373 0.09574438 -0.0028196024 0.01101593 0.074103326 0.035768043 0.0020254622 -0.13296348
-0.017843891 -0.0035762477 -0.12761861 -0.15742165 0.08723557 0.2719182 -0.049473435 0.09845798
-0.11595026 0.0052346103 0.07416814 -0.03401567 -0.17015205 -0.059381798 0.20618993 0.081447296
-0.047018517 -0.0032852157 -0.10511278 0.14678027 -0.11293995 -0.036960598 -0.013278088 -0.020119904
0.15483479 0.039111357 0.27284104 0.03608987 0.0027492936 0.05668207 -0.1692267 -0.047944326
-0.06667322 -0.035845682 -0.05042345 0.092674814 -0.13775092 0.13431346 -0.09391888 0.0026370126
-0.049873605 0.05910532 -0.026725575 -0.17647818 0.0978973 -0.17197672 0.14069183 0.13840795
0.0016086255 -0.11809308 0.032026306 -0.054972228 0.026908517 -0.15836637 0.12889555 0.090320274
0.21104814 0.10287143 -0.14014827 -0.004403691 0.022888133 0.04439692 0.00020561137 -0.057922903
0.0011840806 0.08304636 0.08934195 -0.039929 -0.030384647 0.25199986 -0.12449259 -0.012599295
-0.25427052 -0.15566245 0.0007496072 -0.025445163 0.072148286 0.008267626 0.06422267 -0.07176369
-0.15886086 0.099197224 -0.019125639 -0.24703743 -0.10096218 -0.06650755 0.05442241 -0.10906239
0.07868735 -0.25790796 0.10019152 -0.15796869 -0.16939116 -0.015416969 -0.054195955 -0.084082276
-0.10356265 -0.19825163 0.071968965 0.0031363396 0.17678423 -0.025737021 0.02569066 -0.27136442
-0.019236572 0.16142279 0.14474964 0.01388515 0.25787532 -0.04222411 0.014777923 0.05045327
-0.14845236 -0.05089371 -0.08286412 -0.016862214 -0.07925517 -0.0096349735 -0.15918124 -0.121790014
0.034000706 -0.014378158 -0.10670822 0.12767802 0.14514926 -0.0069558057 -0.1441658 -0.10520189
-0.06810411 -0.0177527 0.010010136 -0.09432428 -0.13118263 -0.012090214 -0.18496487 0.018568361
0.08228717 -0.09909551 -0.09218231 -0.03260065 -0.073109366 0.16850384 0.1395926 0.041780587
-0.036635354 -0.042365815 0.06566221 0.17033993 0.04992677 -0.25017092 0.005110781 0.080210246
-0.21357544 0.05003355 0.07021643 -0.14951845 -0.20289177 0.061454166 -0.19972846 0.017969996
0.07615337 -0.11156098 0.0073654526 0.026488151 0.08986477 0.08260567 0.085742265 0.09602271
-0.2640788 0.12933075 0.08398243 -0.09215975 0.27047318 -0.0789673 0.14739181 0.02833303
0.027367441 0.0053470815 -0.05627724 -0.033980373 -0.02240224 -0.036133077 -0.22428003 0.047096457
0.032720488 0.13236418 0.15297988 -0.0054235477 -0.042263255 0.17605183 -0.008214315 0.03861586
-0.039897423 -0.085157804 -0.0899395 -0.07536757 0.02359028 0.19855686 -0.3375805 -0.07188746
-0.05778886 -0.08608538 0.12197827 -0.21835557 0.0041626235 0.025478277 0.16934623 0.15538366
-0.09515775 -0.20506895 0.06383646 0.10711514 0.038603924 0.05792914 -0.09257477 0.32981905
-0.21855955 0.058384944 0.05512476 -0.0040701567 0.023603804 -0.13092369 -0.086921975 0.12058914
-0.16387326 -0.017401425 -0.19657974 0.12156658 0.1486333 0.21270476 0.056815475 0.091464415

transformer.encoder.layers.0.linear1.bias f4 [128]
00000000: 9194 9dbe 85d5 3ebe 0f7e 35be 9249 cbbd
00000010: a175 51be af1b 90be 1540 dbbd c083 dbbd
00000020: 0712 4bbe ce8d abbe 4359 09bd 3d07 95be
00000030: d39a 76be e8da 9dbd 1037 84be 202c 38be
00000040: d524 24be 2fee bcbe c7d9 fabd 8adf 44be
00000050: 67a8 03be 3622 22be 40fc 95be 850f 0abe
00000060: 992d 75be 4c0e 19be 225e 15be b070 a1be
00000070: 2914 03be ba70 08be c730 5fbe aba8 a7be
00000080: 5418 a0be 773c a8be 9aa1 99be 731f 1bbe
00000090: 25d5 33be daa4 3bbd 12b7 00bd 916f e4bd
000000a0: 30d8 11be 66f8 87be 63ef a7bd 8c3a 08be
000000b0: 4a33 78be 1678 40bd b124 afbe a934 d7bd
000000c0: b178 68be f834 a1be 870c 64be 0327 b7be
000000d0: d936 5dbd 27a6 e5bd 51b9 04be 2ccf 5ebe
000000e0: 32a6 6fbd cfab 2abd 75c0 cbbd 934e 69be
000000f0: 7b46 64bd 8fa0 92be 008f 59be 86bf 42be
00000100: 9e0f e4bd 7104 9cbd cb19 71be 5ad0 64be
00000110: 99ba 80be 4bf9 b3be f530 cfb9 2769 5bbe
00000120: 658b 90be 567f 0abe 6b8e 05be 2a51 99be
00000130: c353 bdbe bd14 c5be 41d8 5abe 73a4 3cbe
00000140: 105b f8bd f482 53bd ab65 97be 166a 67be
00000150: 341b 25be c52a b9be 08fb 42be 051f 8abe
00000160: a1fc 43be 92fc 29be 46cc a0be dc62 83be
00000170: c702 bbbe d8dc acbe 0c03 7dbe 5ab7 ebbd
00000180: 3f71 9cbe 0d58 93be 6c7c 82be 6964 5dbe
00000190: d840 81be 3f30 013c e976 c4be 4fcb 12be
000001a0: 9060 e8bc 4c20 9cbe 6d76 02be 235c ccbe
000001b0: fdc1 d4bd 4e68 a53c 8e12 eabe f92e fbbd
000001c0: 00bb 6ebe 59e0 9abd eb96 6fbe 1554 15be
000001d0: 940e 7bbe 1308 96bc 13f7 b0be 61d8 cebe
000001e0: 98a6 3dbe 8119 1abe f544 52be 0a38 49be
000001f0: b8eb 9cbd dbc6 a8bd 4d7b 8ebe 02a3 94bd
-0.3077741 -0.18636139 -0.17723869 -0.09926142 -0.20455028 -0.2814612 -0.10705582 -0.10718489
-0.19831096 -0.33506626 -0.033532392 -0.29107085 -0.24082498 -0.07707769 -0.2582326 -0.17985582
-0.16029675 -0.3690047 -0.12248569 -0.19225898 -0.12857209 -0.15833363 -0.29294014 -0.13482483
-0.23943175 -0.1494686 -0.1458669 -0.31531286 -0.12800659 -0.13324252 -0.21795951 -0.3274587
-0.3126856 -0.3285863 -0.30006105 -0.15148716 -0.17561777 -0.04581151 -0.03142459 -0.11154092
-0.14242625 -0.265567 -0.08199956 -0.13303584 -0.24238315 -0.046989523 -0.3420768 -0.10508091
-0.2270229 -0.31485724 -0.22270404 -0.3577195 -0.054007385 -0.11213332 -0.12961318 -0.21758717
-0.058508106 -0.041667756 -0.09948818 -0.2278388 -0.055731278 -0.2863812 -0.21245956 -0.19018373
-0.11135791 -0.07618035 -0.23544995 -0.22345105 -0.25142363 -0.35151133 -0.00039518593 -0.21426831
-0.2823135 -0.13525137 -0.1304261 -0.29944736 -0.36977968 -0.38492385 -0.21371557 -0.18422107
-0.12126744 -0.05163856 -0.29569754 -0.22599062 -0.16123658 -0.36165443 -0.19041073 -0.2697679
-0.19139339 -0.16600254 -0.31405848 -0.2566136 -0.36525556 -0.3376224 -0.24708194 -0.11509581
-0.3055515 -0.28778115 -0.2548555 -0.21620335 -0.25244784 0.007885038 -0.3837197 -0.14335369
-0.028366357 -0.3049339 -0.12740488 -0.39914045 -0.10388563 0.020191338 -0.4571728 -0.12264819
-0.23313522 -0.07562322 -0.23397414 -0.14582856 -0.2451728 -0.018314397 -0.34563503 -0.4039946
-0.18520582 -0.15048791 -0.20534118 -0.19650283 -0.07662147 -0.08241054 -0.27828446 -0.07257654
