Models/transformer_1head_32hidden_100epochs_ForcedEncoderSolver.pth (torch, 156087 bytes, 40 tensors)

encoder_embedding.weight f4 [47, 32]
00000000: a751 b73e ebf0 ebbe b630 a8bf f425 ba3f
00000010: 464f 143f 9806 97bf 7d63 c9be 71bb b93e
00000020: fb1b e2bf 3187 99bf e7dd 2fbf 24af 373f
00000030: a3d4 fdbe 2778 8fbf e0f2 ec3e e7a9 2640
00000040: a893 1cbe 7bd9 5f3d e5fc d63e d187 903f
00000050: 304a 18bf 7047 06bf 69f1 aabf bd41 5d3e
00000060: 697e 583e 6271 79bf ed3c 7bbd d685 f63e
00000070: 1572 f9bf 52ed afbf c454 9a3f c5f4 053d
00000080: 3f0b 743f 9c51 bc3f aba2 c9bf 04d7 6bbe
00000090: 59e9 d73e 3eca fdbf 831d f7be e241 d5be
000000a0: adc8 243e f700 853f 3401 e73e d48c ac3f
000000b0: 9df6 943e 59e9 363f 9bb9 973e 5251 0a3f
000000c0: 72d1 b5be 1e6b cfbd 65f2 cabf 7b56 cd3e
000000d0: ff3d 3bbf bfaa f33e fa8c e8be 264e fdbd
000000e0: 1bc6 253f c324 f2be e305 7a3e c824 e4be
000000f0: c287 613f f4ef 6bbf 4848 393f 59b8 2abe
00000100: dddb 55bf 2398 ad3f 22d7 f7bd ddea 8fbf
00000110: d6b5 d73e e42d 95bf 070d 0940 344c 87be
00000120: 7661 413c 4b08 843f bf18 99be 2191 f7bf
00000130: 691f 0b3f d44d 073f c737 c1bd eff6 72bf
00000140: 87f8 0d3e 403a dabd 7700 d03f 092d 75bf
00000150: e221 a13e f7fe d93e d979 2dbe 3276 6bbf
00000160: a1f4 e43e e42a abbf 5791 c63f ffc1 033e
00000170: 60de 983e cddc fabe 5034 e93e 4252 5dbf
00000180: 7185 573e d6bc 94be fb9d 97bf 69cf a13f
00000190: e9be 90bf 0bf3 ffbe 273b 7abf eecc aabd
000001a0: bbe9 10bf bab3 cb3d 5469 2dbf 9773 adbf
000001b0: 6658 f7be d40f 5a3d e66a 86be 111c 6a3f
000001c0: 80a5 123f b8b8 81be 113c c43d 3c96 91be
000001d0: 9dde 0e3f 7f37 98bf b6a6 413f 894f 13bf
000001e0: de3f 0c3f 1ada a4bf 221a 9a3f e796 f4be
000001f0: 841c 66bf 0164 c63e 249c 87bf a29d 493f
00000200: 6820 a9be 3f3e afbe 041b c83f d5a1 42be
00000210: fc62 38be cd45 cebe c033 fcbe 0aa7 1f3f
00000220: e953 2f3e 4206 92bf c72f d43d 4bcc 73bf
00000230: 0a46 23c0 d96a 1b3f 59ab 2fbe 421f dfbf
00000240: 32a2 883d a77c ef3e 5c6b b73f 6f8a e2be
00000250: 2e84 ee3e 0cc8 bb3f d692 b73f f7ae 6b3f
00000260: ab88 d23d d688 6bbe 6684 0b3d 586f a4bf
00000270: 720f ec3f d583 ed3e e5ac 02bf cd5f 3ebf
00000280: 8cb3 8dbf e448 6ebe 9424 b3be 9913 afbe
00000290: 9ab5 8d3f 2e0e e9be add8 54bf 57c2 dcbe
000002a0: 68e2 f73e 8866 bebe b802 a73e 4ca8 b8be
000002b0: ea83 8abf da05 323f f0fe b13f 4592 f73c
000002c0: b5bf dc3f 9e9c 93bf 8167 ba3f 65c7 693f
000002d0: c6ac 3ebf d1c2 bfbe 2214 2abf 4e1d 813d
000002e0: 619b 603f fe2a 0240 ff01 d6bd 234b f5be
000002f0: a40b 84bf f25f 433f 57e4 483f 4d83 ee3f
00000300: fd32 713f 884c 11c0 0aca 873e fe47 d83e
00000310: 0391 ce3e 2cef b53e f3d3 c6be 889b 243e
00000320: 7c45 17bf d99e e63d 3a8b 723f cafb 4e3f
00000330: 0bea 893e c3d3 13bf b07b febe 7b05 74be
00000340: 603c 073e 894f 3bbf eccd 603f 29c5 b43f
00000350: 6d02 bbbe 16e8 d3bd a909 9abf a487 eebf
00000360: 6589 573f 2629 ccbf 4c40 4fbd 3518 b63f
00000370: c37e 223e 4a59 69bf 90fe 06bf f842 1f3e
00000380: c979 adbf ec9c 41be b99e 57bf 60b8 6cbf
00000390: 01a0 3dbf f8de 453e 0ca3 2a40 13e8 af3f
000003a0: 88b2 123f bb8a 8c3f c0d3 4d3f a648 81bf
000003b0: 5bc3 8ebd 21b3 963e 0b24 b93d 40d3 f1bf
000003c0: 4dfc 693f 383b 2bbf 995a c9bf 40fa 5cbf
000003d0: 1353 d5bf dd0b f23d 224e 5abf 7ba6 30bf
000003e0: e43d 90bf ca8b 84bf fffb 34bf a327 1540
000003f0: 6278 b8be 2d41 c2bf 66d7 2ebf 3d3e 0a3f
0.35804483 -0.46082243 -1.3139865 1.4542832 0.5793346 -1.1798887 -0.39333716 0.3627582
-1.7664789 -1.1994382 -0.6869797 0.7175162 -0.4957629 -1.1208543 0.4627905 2.60412
-0.15290701 0.054650765 0.41989818 1.1291448 -0.594882 -0.52452755 -1.3354923 0.21607108
0.21141972 -0.97438633 -0.0613374 0.48148984 -1.948794 -1.37443 1.2057118 0.032704134
0.9532966 1.4712405 -1.5752767 -0.2303124 0.42170218 -1.9827344 -0.48264703 -0.41651827
0.16092177 1.039092 0.45118105 1.3480477 0.290944 0.7144981 0.29633793 0.54030335
-0.35511357 -0.10127853 -1.5855223 0.40105042 -0.73141474 0.47591206 -0.45420057 -0.12368421
0.6475541 -0.47293672 0.24416308 -0.44559312 0.88097775 -0.92163014 0.7237592 -0.16671886
-0.8353861 1.3562053 -0.1210158 -1.124355 0.42130917 -1.165463 2.1414201 -0.26425326
0.011803022 1.0315031 -0.29901692 -1.9341165 0.54344803 0.5285313 -0.09434467 -0.9490804
0.13864337 -0.106556416 1.6250142 -0.95771843 0.31471163 0.42577335 -0.16941012 -0.91977227
0.44717887 -1.3372464 1.5513104 0.12866972 0.2985716 -0.48996583 0.45547724 -0.8645364
0.21046998 -0.2905032 -1.1845087 1.2641422 -1.1308261 -0.49990115 -0.9774651 -0.083398685
-0.56606644 0.099463895 -0.6773884 -1.35509 -0.4830963 0.05323775 -0.26253432 0.91449076
0.5728378 -0.25336242 0.09581769 -0.28434932 0.5580843 -1.1891936 0.75645006 -0.57543236
0.54784954 -1.2879059 1.2039225 -0.4777138 -0.8988726 0.38748172 -1.0594525 0.78756154
-0.33032537 -0.34227178 1.5633245 -0.19007047 -0.1800651 -0.4028763 -0.49258232 0.62364256
0.17121853 -1.140816 0.10360675 -0.952336 -2.5511498 0.6070991 -0.17155208 -1.7431414
0.06671561 0.4677479 1.4329638 -0.4424624 0.4658522 1.4670424 1.4341686 0.9206385
0.102799736 -0.23001418 0.034061812 -1.284648 1.8442214 0.46389642 -0.51045066 -0.7436493
-1.1070418 -0.23269993 -0.34988844 -0.3419464 1.1071045 -0.4551863 -0.8314312 -0.4311702
0.48414922 -0.371876 0.32619262 -0.360659 -1.0821507 0.6954018 1.3905926 0.030221114
1.7246004 -1.1532171 1.4562837 0.91319877 -0.7448238 -0.3745332 -0.6643697 0.063044176
0.8773709 2.033874 -0.104495995 -0.47908887 -1.0316052 0.76318276 0.7847342 1.863382
0.94218427 -2.270296 0.2652133 0.42242426 0.4034501 0.35534036 -0.3883358 0.16074955
-0.590904 0.112607665 0.9474369 0.8085295 0.26936373 -0.57745 -0.4970374 -0.23830216
0.13206625 -0.73168236 0.8781421 1.4122669 -0.36525288 -0.10347001 -1.2034198 -1.8635144
0.8419402 -1.5950058 -0.050598428 1.4226137 0.15868668 -0.9115187 -0.5273218 0.1555289
-1.3552791 -0.18907517 -0.84226567 -0.92468834 -0.7407227 0.19323337 2.6662016 1.3742698
0.5730367 1.0979837 0.8040123 -1.0100296 -0.06970855 0.2943354 0.09040078 -1.8892593
0.91400605 -0.66887236 -1.5730773 -0.8631935 -1.6665977 0.11818669 -0.8527547 -0.6900403
-1.1268888 -1.035516 -0.70697016 2.3305442 -0.36029345 -1.517614 -0.6829742 0.5400122

decoder_embedding.weight f4 [45, 32]
00000000: 9418 043f d5c5 0240 a61a a3bf 5207 0440
00000010: 0c57 5ebf cfff 6f3e 9b41 8f3f 4579 a53f
00000020: cf56 c53f 4263 4ebf 22ee 883f 42b6 6d3f
00000030: 6d54 dbbf b6e6 d9bf ab87 20bf 3920 b7bd
00000040: c000 8d3f ceee 7c3f 9fdf b43e 04cd 00bf
00000050: c4e8 88bf f62c b5bf eaad cc3f ae76 5abf
00000060: 1af2 063e 5571 68bf 40b0 85bb a1fc 83bf
00000070: 4060 84be 2525 2d3f 6901 b3bf c221 debe
00000080: 40b3 57bf 3cd6 af3f ab21 363e e456 30bf
00000090: 6441 26bf d74f 87be 23e8 04c0 8030 253d
000000a0: 9869 b43f ee8f 69bf 11cb ad3f 3049 95bf
000000b0: 6fc8 ac3e a205 ae3f e7e1 a93f c768 2bbf
000000c0: 8f6b a5bd d0b9 063f 6dfb d7be 9f2e 2ebf
000000d0: f797 c73f a728 773f ff5b bd3f 928a ebbe
000000e0: 09ce 1f3f e086 d43e 95a4 9e3f a19d 2bbf
000000f0: 66cb aabe 26bc 1bc0 4d6c a93f a4f5 9e3e
00000100: 42e8 6d3f f2c3 a3be 3579 4b3f 9703 b23c
00000110: fb6e b2bf 75e4 653f 5cf9 4cbf e9c5 49bf
00000120: 4585 383f 94b9 77bf fc97 2cbf 0d2f 44be
00000130: 6da2 2f3f ed47 993e e258 74be 57a8 5dbf
00000140: b6fe 1f3f 7488 9f3f dc0b eebf 9005 ccbe
00000150: 61d3 c7be e95d 7a3b 1fca c2be c44a bcbf
00000160: b6af 0e3f 003f b53f 9d79 353e c46d f63c
00000170: ef88 063f 9001 e13f 98aa 46c0 80f4 6fbf
00000180: becf c53f 9465 4bbf 35d8 3d3f f7c1 86bf
00000190: 7bb2 b6bd 411b 08bf 53ee c6be a446 6f3f
000001a0: 7ac0 e13e 3253 813c 03de ed3e 0dde fa3f
000001b0: 8a3a b03f bb16 613f fd55 ef3e cc2e 303f
000001c0: c3e6 f13e de02 ce3e 0709 b3bf 7c8e c03f
000001d0: 1c8d f5be 8ee8 9f3f f3bf c33e 1712 97be
000001e0: e64a 0dbf a297 a3bf 049f 1ec0 3647 dbbf
000001f0: 8601 14bf 11aa 5e3f 3ee0 893e 6cc1 053e
00000200: fd9b 313f 8319 de3c 3b4c 6a3d b047 90bd
00000210: 3619 1fbf f007 dd3e bbd9 92bd ee16 383f
00000220: 054d 1a3f 311d 10bf 54ee d73e 9c87 5e3f
00000230: 6388 293e c4dd 6a3e 6125 f9bd 910b 223d
00000240: 643a d5be 9b98 873f af10 b93e 3c4a 88bf
00000250: 8903 b7be 58ec 443e 0518 17bf 6a3c 03be
00000260: fc9e 2bbe 8579 be3f a106 893e 933d 3bbe
00000270: ef42 aabe 78df aa3f 3a0a 44bf bd10 8fbe
00000280: 21ed f33f 712b 9f3f c587 2bbf 6e13 db3e
00000290: 797d d03f f9f0 56bf 93ef 243f 22a5 f93d
000002a0: fefc cabe 4e99 0b3e f8e9 a53d 84c7 0e3e
000002b0: 24f1 e23e ca42 b13d 0759 8cbe 539b d73f
000002c0: 96ef c73e fe7d 57bf 5894 1e3f dfef d4be
000002d0: 0a61 e7be dc18 e6be 0a83 4d3d 4f24 b7bf
000002e0: e731 0a3f 9933 a0bf ef98 cfbe 1fbc 373d
000002f0: 5865 273f 969e 05bf dbe3 0c3f 22ce 8a3f
00000300: e0e8 da3c 9fd9 02be c34c 3d3e 99e6 aabe
00000310: 80db a1bf 5932 0b3f d665 79be 325f 66bf
00000320: 197c c53e ab2b 783f 9f49 13bf 234a 1d3f
00000330: ea46 3bbf ad2a 18c0 8398 d7bd 59c5 893e
00000340: f862 1e3e ca1f dabe c2e0 65bd d121 6cbe
00000350: 2b7a 9fbd 7ce0 3d3f 8b4e a03e c6b9 18bf
00000360: 4061 b3be 8053 2f40 75de 6ebc 0f9f 003f
00000370: 4d0d 03c0 a847 94bf 6b00 02bf 035a 32bf
00000380: 3a1d a83e 7600 7e3f 0ef8 2cbf 8f3b f93f
00000390: bf30 323f f66f afbd 812e 3fbf 633b 833f
000003a0: a5ca 723d d85d 8a3f d72e ff3d febc 10be
000003b0: b1de 02bf fbc0 9abf d8f2 893e 44db dc3f
000003c0: b1f8 8e3f 0fce 903f 7550 9fbf 665c 043f
000003d0: d4b0 d03e b0a5 1b3f 20fe 953d 478d df3e
000003e0: 86c2 f1bf 1f64 213f 8fc0 103f 2141 4d3e
000003f0: 8a9e aa3f 354a 30bf 50a7 10be c21f 813f
0.51600003 2.0433247 -1.2742507 2.0629468 -0.86851573 0.23437427 1.1191896 1.2927634
1.5417117 -0.80620205 1.0697672 0.9285623 -1.713514 -1.7023532 -0.6270701 -0.08941693
1.1015854 0.9880189 0.3532686 -0.5031283 -1.0696034 -1.4154346 1.5990574 -0.8533734
0.13178292 -0.9079793 -0.0040798485 -1.0311471 -0.25854683 0.67634803 -1.3984805 -0.4338513
-0.8425789 1.3737254 0.17786281 -0.68882585 -0.6494353 -0.264281 -2.0766685 0.040329456
1.4094725 -0.91235244 1.3577596 -1.166296 0.3374667 1.3595469 1.3272065 -0.6695675
-0.08077156 0.5262728 -0.4218401 -0.6803989 1.5593251 0.96546406 1.47937 -0.46004158
0.6242376 0.4150915 1.2393976 -0.670374 -0.33358306 -2.4333587 1.3236176 0.31046784
0.9293252 -0.31985432 0.7948182 0.021730227 -1.3940119 0.8980172 -0.8006799 -0.7881761
0.72078353 -0.96767545 -0.6741941 -0.19158573 0.6860722 0.29937688 -0.23862031 -0.8658499
0.62498033 1.2463517 -1.8597369 -0.39847994 -0.39028457 0.0038202947 -0.3804483 -1.4710317
0.55736864 1.4159851 0.17722173 0.030081637 0.52552694 1.7578602 -3.1041622 -0.9373245
1.5454023 -0.7945187 0.7415803 -1.0527943 -0.08920761 -0.53166586 -0.38853702 0.93467164
0.4409216 0.01578674 0.46458444 1.9599015 1.3767865 0.8792531 0.4674529 0.68821406
0.4724637 0.40236562 -1.398713 1.5043483 -0.4795922 1.2492845 0.38232383 -0.2950599
-0.5519241 -1.278065 -2.4784555 -1.7131107 -0.57814825 0.8697825 0.26928896 0.13062066
0.69378644 0.027111774 0.057201605 -0.07044923 -0.62147844 0.43170118 -0.07170435 0.7190999
0.6027377 -0.5629454 0.42174017 0.86925673 0.16555934 0.2293616 -0.121653326 0.03956181
-0.4164611 1.0593446 0.3614554 -1.0647655 -0.35744885 0.19230783 -0.59021026 -0.12816015
-0.16759866 1.4880835 0.2676287 -0.18285207 -0.3325419 1.3349447 -0.76578104 -0.27942458
1.9056741 1.2435132 -0.6700404 0.4278826 1.6288291 -0.83961445 0.6442806 0.121897
-0.39646143 0.136327 0.081012666 0.13943297 0.443246 0.08655317 -0.27411672 1.6844276
0.39049977 -0.84176624 0.61945105 -0.41589257 -0.45191222 -0.4494084 0.050173797 -1.4307956
0.53982395 -1.2515746 -0.40546367 0.04485714 0.65389013 -0.5219511 0.5503518 1.0844157
0.026722372 -0.12778328 0.18486314 -0.33379057 -1.2645111 0.543737 -0.24355254 -0.89989007
0.38571241 0.9694163 -0.5753421 0.6144125 -0.7315508 -2.3776047 -0.10527136 0.26908377
0.15467441 -0.42602378 -0.05612255 -0.23059775 -0.077869736 0.7417066 0.31309924 -0.5965847
-0.35035133 2.7394714 -0.014579405 0.50242704 -2.0476868 -1.1584368 -0.5078189 -0.69668597
0.32834798 0.99219453 -0.67566 1.9471301 0.6960563 -0.08566277 -0.74680334 1.0252498
0.059275288 1.0809889 0.12460106 -0.14134595 -0.5112105 -1.2090143 0.26943088 1.7254415
1.1169645 1.1312884 -1.2446429 0.5170349 0.4075991 0.60799694 0.07323861 0.43662474
-1.8887489 0.630434 0.5654382 0.20044376 1.3329632 -0.6886323 -0.14126325 1.0087817

encoder_pos_embedding.weight f4 [8, 32]
00000000: f1f6 31bf 1ba8 9b3e d7ac a43f d6cf a03e
00000010: 0da9 21be f2dd ee3f f4c1 71bc a274 b23f
00000020: 3909 21be 4463 65bf 0bc3 a73d 4be3 1fbf
00000030: 618e 62bc 829e d8be 6ed4 413f de7d 7bbf
00000040: 2260 de3e a79b 41bf c6c6 c63f ca67 233e
00000050: 3e2c f4bd fb17 78bf 4bfc 0c40 b8b9 4cbd
00000060: e904 043d 752c ecbe 2990 4d3e 2bce b83e
00000070: 94cf 58be 141d 34bf c79c a4bf 8a3b db3e
00000080: 8ac4 a2bf ed11 ff3e 83e4 13be 8775 963f
00000090: 9782 23be 9f93 b8bf 5319 893f 1b42 023d
000000a0: ac0d 8dbd 1f95 79bf 0193 563f 10f9 8abf
000000b0: 29b1 0240 5495 b3bf 10e0 283e 1569 03be
000000c0: 6a5a 1abf 8037 debf 4cab 95bf 9f1f 023f
000000d0: c047 0540 b402 12bf 8b51 343f 89f7 813f
000000e0: af3c 3e3f 639a e23d b05d e9bf 6134 79be
000000f0: a5be e23f 67d2 8abf 41eb 4dbd 0ebb 813d
00000100: c117 693e b886 be3e e762 fbbe 1d93 6ebe
00000110: 185b 153e e560 bc3f 302e 2ebf c581 82bf
00000120: aa65 9a3f a068 b2bc f385 6b3e ae77 543e
00000130: 06fc d6be e8ad 193f 7d49 a8bf 4619 edbe
00000140: 230b ecbe ff6c d3be 8cde 44bf deff 95bf
00000150: 4200 ad3e 48c7 9f3e 42b1 41bd afe3 2c3f
00000160: 5a44 933e f214 093f bade 82bc 5d3a 10be
00000170: 21d7 1d3e 7181 a1bf bbdd b0be 9e88 f1bd
00000180: 1a4b 163f b319 66bf 23fc 8cbe 308b aebf
00000190: 936f 17bf a37a 13c0 2262 28bf 7775 cbbf
000001a0: 418e 42bf a0fa 463f 9627 413f cdd2 00c0
000001b0: 041a c93e 72ec b8be 009d fc3e 87ad 03bf
000001c0: d593 1cbe 68b7 f93f 7a4f 68bf c2f0 963e
000001d0: ea69 ba3f 84d3 c2bf 569d c7be e7f1 38bf
000001e0: f121 4dbf 7f53 04bf af29 d03f dc7d cbbe
000001f0: 724b 443e fedc 78bf 76ca dc3f f876 2bbf
00000200: 716d 1f3f d7d3 0abf 42bd b5bf 0e57 b5bf
00000210: 2fd3 a3be 949c a83f 30ff 103f 326f 22bf
00000220: f73b 933e 023f 9bbf da3f 793f 9688 593f
00000230: bd9a d43e 508c 47be 57e8 e53e 3591 06bf
00000240: e5cf 113f 6614 2cbe 3214 633e 208a 413f
00000250: bad8 093f a9a1 56be 2411 5dbf 6cd4 cd3e
00000260: 9b50 19c0 36cf da3e 7bf0 ea3f ba4a 20be
00000270: de33 6f3f 5925 6ebf 8c5e bdbd edd0 66bf
00000280: 51db 913e c2b5 5cbf 4e7e 2c3e 60bf dfbf
00000290: c5c3 5a3f 21f5 03c0 1167 26bf e499 32bf
000002a0: 92ad 0ebf 6035 68be 20e5 5bbf 0b99 89bf
000002b0: 2771 933e 73e6 dfbe 40d5 dc3e 713b 80bf
000002c0: 1463 d33d 66cb 6b3f 13aa 20c0 bde2 bdbf
000002d0: a5d7 2a3f 644e 5fbf 09a8 babf 4d72 44be
000002e0: edfe a6bf dcb3 9fbf f03b 4d3f 1391 dbbe
000002f0: 16b5 4b3f 849f adbe f8a3 a5bf d4cf 41bf
00000300: 0d31 c13f f329 e8bf 4549 50be c65a 7fbf
00000310: d604 02be 2d38 c5bf fcfb 6e3e 8baf a9be
00000320: 7705 053f da20 cfbe f9d6 5f3f 1c54 373e
00000330: c683 cdbf 59ed 82be d3a8 4ebf 51c6 c8bf
00000340: 60c5 8fbf c2a2 643e 57a7 adbf 96d9 333f
00000350: c81e 99bf 301c d7bf 375d 81be e1da 13bf
00000360: 00ed 89be b37c debe 6b37 23bf 54f4 6d40
00000370: fa5c bf3d 572a d1bf 9640 2cbe 3a72 89bf
00000380: daad 0ac0 0df8 94bf 217e 21bf 4e26 18bf
00000390: e530 9e3e f655 c7be 599c ce3e 61b1 d63f
000003a0: f07e d5be d7b9 b53e 5bb7 a5bf 3c68 aabf
000003b0: 5685 38bf 99e2 02bf 4819 dc3f 7f8f 903e
000003c0: 734e 6b3f 77b1 b9be 4578 df3e 641b 203e
000003d0: bbd6 ffbf b1a3 e03f ebf7 403f df1d 3440
000003e0: c004 b93f bcd3 f8be 7cc5 2740 8bd1 d73e
000003f0: 25f0 de3f 98ed 7e3e f845 f03e 7e3b d13e
-0.6951743 0.30401692 1.2865247 0.31408566 -0.15787144 1.8661482 -0.014755715 1.3941844
-0.15726174 -0.8960459 0.08191498 -0.62456197 -0.013827891 -0.42308432 0.75714767 -0.98238933
0.4343272 -0.7562813 1.5529411 0.15957561 -0.11922501 -0.9691159 2.2028987 -0.049981803
0.032231245 -0.46127668 0.20074524 0.36094794 -0.21172935 -0.7035687 -1.2860345 0.42818862
-1.2716229 0.49818364 -0.14442639 1.1754616 -0.15967785 -1.442005 1.0710853 0.031801324
-0.06887373 -0.97493166 0.8381806 -1.0857258 2.042063 -1.4029946 0.16491723 -0.12833054
-0.6029421 -1.7360687 -1.1692901 0.508295 2.0825043 -0.57035375 0.70436925 1.0153667
0.74311346 0.11064603 -1.8231716 -0.24336387 1.771443 -1.084546 -0.050273184 0.06334506
0.22762968 0.37212157 -0.49098894 -0.23298307 0.14585531 1.471707 -0.68039227 -1.0195853
1.2062275 -0.021778405 0.23000316 0.20748779 -0.41989154 0.60030985 -1.3147427 -0.46308345
-0.46102247 -0.41294095 -0.7690208 -1.171871 0.3378926 0.31206727 -0.047288187 0.6753492
0.28763086 0.53547585 -0.015975345 -0.14084764 0.15414096 -1.2617627 -0.34544167 -0.11793636
0.58708346 -0.89882964 -0.27536115 -1.3636227 -0.59154624 -2.3043602 -0.6577474 -1.5895222
-0.7599831 0.77726173 0.7545103 -2.0128663 0.3927766 -0.36117893 0.49338531 -0.51436657
-0.15290768 1.9509096 -0.9074627 0.2948056 1.4563572 -1.52208 -0.38987225 -0.72244114
-0.80129915 -0.51689905 1.6262721 -0.3974446 0.19169405 -0.9721221 1.7249286 -0.66978407
0.6227637 -0.5422949 -1.4198382 -1.4167192 -0.31997058 1.3172784 0.56639385 -0.6345092
0.28756687 -1.2128603 0.97363055 0.8497404 0.41524306 -0.19487119 0.44903824 -0.5256532
0.56957847 -0.16804656 0.22175673 0.7560139 0.53846323 -0.20960106 -0.8635428 0.40201128
-2.3955448 0.42736214 1.8354639 -0.15653506 0.9343852 -0.9302574 -0.09246549 -0.90162545
0.28487638 -0.8621484 0.16845056 -1.7480278 0.8545497 -2.0618365 -0.65001017 -0.6976607
-0.557336 -0.22676611 -0.8589649 -1.074983 0.28797266 -0.43730506 0.43131447 -1.001814
0.10321632 0.92107236 -2.5103805 -1.483482 0.667353 -0.8722899 -1.458253 -0.19184227
-1.3046547 -1.2476764 0.8016958 -0.4288412 0.7957319 -0.33910763 -1.2940664 -0.75707746
1.5093094 -1.8137802 -0.2034045 -0.99747884 -0.12697157 -1.5407768 0.23338312 -0.3314174
0.51961464 -0.4045475 0.874374 0.17903179 -1.6055839 -0.25571707 -0.80726355 -1.5685521
-1.1232109 0.22327712 -1.3566693 0.70253885 -1.1962519 -1.6805477 -0.2526643 -0.5775586
-0.2693863 -0.43454513 -0.63756436 3.7180376 0.09343906 -1.6341046 -0.16821513 -1.0737984
-2.166861 -1.1638199 -0.6308308 -0.5943345 0.3089668 -0.3893277 0.4035366 1.6772882
-0.41698408 0.35493347 -1.2946581 -1.331306 -0.72078454 -0.5112701 1.7195215 0.2823448
0.9191658 -0.36268207 0.43646446 0.15635449 -1.9987406 1.7549955 0.7537829 2.8143232
1.4454575 -0.4859904 2.6214285 0.42152056 1.7417036 0.24895322 0.46928382 0.408657

decoder_pos_embedding.weight f4 [8, 32]
00000000: a23a ff3e 684e a9bf 713e a13f 563a eebf
00000010: 3ced 16bf 9c18 d6be 0f35 55bf b296 d63c
00000020: 7a2e df3e 92b2 9c3f cd4b 42bf 6db5 073f
00000030: 42e5 a6bf daaf 6bbf 6e77 8dbf 983d 643f
00000040: bec1 2cbd b7bd 0fbf 37bf 0940 c7b0 2ebf
00000050: feb2 3f40 41f3 abbe 28b6 c93e cc1e 013f
00000060: 935c 97bf 6c14 33bf ed68 24bf 1281 0cbf
00000070: c468 abbf ca62 9d3f 5860 b23e 7c34 e23e
00000080: e5ac 54bf 6f36 a03f 8eb7 0ac0 e3fe 963e
00000090: 159d bebd b2b6 843d a187 403e f6a1 8e3f
000000a0: 16fd a9bf 15f3 f5bc 041f 313f 9c18 5a3f
000000b0: d512 25bf db12 92be d04c f93f 46a9 01bf
000000c0: 1516 2b3f b05e 1bc0 e5ea f53f bd38 8a3f
000000d0: 710b 37bf e533 e5bf 09be 21c0 d241 933e
000000e0: 6162 3ebf d24d 4dbe a078 6340 918c 14be
000000f0: 2ce3 d4bf 17f4 e43f f9e4 2abf 1ac7 153f
00000100: 6160 173f 643b d0bf c58f 8f3f f9ef 1340
00000110: 7cf8 5dbf 73c8 ebbf c192 d6be 6be9 a43f
00000120: 5929 f8bf da3a c6be 72a9 c83f 5582 1d3f
00000130: 8628 85bf d9e7 7ebf 3003 d03e eadd 953e
00000140: d803 533f 7a49 3cbe 9001 55bf 3c65 0dbf
00000150: ac79 c6bf 804e 2040 86f8 7abf 232d 8bbf
00000160: e080 b63e ec61 c0bf eb6b 4e40 4818 a53f
00000170: 274c a63e 71d0 4d40 dc3c 8ac0 e159 45bf
00000180: 3bfb 0840 2471 1fbd 362c 7ebf c400 be3e
00000190: 8c9a 8e3f f384 1b40 6906 d7bf 45f4 743f
000001a0: e57d 283f 862f 873e 8aa1 05c0 495a af3f
000001b0: 8b40 b53e d86f 02c0 6ee5 673f 6022 f6bf
000001c0: f25b f6be c9e0 5abf 3beb 43bf 7312 883e
000001d0: eda8 273e 9494 f83f 0407 043e 215c 263f
000001e0: 8e24 38bf d05f ff3d 5b65 15c0 6b9e 1f3d
000001f0: 2f0d 72be 179d aa3e 64ab 913f d2ac 03bf
00000200: 82f8 be3f e70e 873f 62b0 6a3e 2cd3 3d3c
00000210: b4e5 5fbf faf0 063f 8435 acbf d73c 1a3f
00000220: 7cdd 3bbf 609f 163f a9c5 03c0 e73b 06be
00000230: 3c5a 9fbc 757d 74bf ebf4 a6be 3237 34c0
00000240: bb18 023f 2fe4 e3bf 6438 8fbf 257a eb3f
00000250: b3e8 7cbe a30d d1bc ce9f 283f 0063 823f
00000260: 7f27 5e3f f780 4bbf 7e8d 573e 575b 8cbe
00000270: 8474 d23f 10dd 1440 12eb a73f 0cea 663e
00000280: 0144 9f3e d731 bdbd 47d2 023e 1f26 81bf
00000290: 91ef c83f 9d2e 8e3f da33 8f3f 92d3 cbbf
000002a0: 0538 d2bf 4bd2 723e 7f84 80bf 4f82 a7be
000002b0: 4591 4a3f d183 f03f 5766 903f d69f ea3e
000002c0: d7e9 1cbf 47ec de3f 2098 47bf 324f 02bf
000002d0: 3315 19bf d050 263f 61f7 45bf 3a4c 7d3f
000002e0: 7d1e 72be 40c8 d63e 55f9 8f3f 0de4 0c3f
000002f0: 730c c53f dd20 90bf 24d8 3abf f263 25bf
00000300: 5f94 a73d d56f 4fbf 1f04 353f 075d 79bf
00000310: 0291 bcbe 4a03 333f 19f4 d7be 3e0b 84bf
00000320: aabf a4bf 3c6f 483f e181 2bbf 8368 c73f
00000330: d3c0 913f a2b6 753f dbf2 cd3e 9d1a b13d
00000340: 30dc 583e 9e72 c13f 0159 8dbe 9121 ff3e
00000350: 8830 5d3f 11c6 c43e b429 943e fcf0 003f
00000360: c3ff 95bd 5f40 743f a396 bb3e 8c59 56bf
00000370: ae5e 54bf cb2e 85bf d86f 0abf abe7 dfbf
00000380: 626f 75be e6ee 083f d758 f5bf 6b55 503e
00000390: ef4e cbbf bd51 15bf 1bfc e0be ef88 773f
000003a0: 2b5f 95bf 1e5c 97bf 9fca a33f 67e2 d7be
000003b0: 4cbd b93e 3455 a13f 3049 e83d bd33 b9bf
000003c0: 9e8a b13e 3d53 98bf 7692 21bf 9d40 7ebe
000003d0: 5251 17bf 4576 3f3f 07ce dc3f 3602 d0be
000003e0: 12d2 83bd c9e2 b0bf 6099 453f 3196 043f
000003f0: 037b f7bf a94d ebbe 489b 073f 28f1 6e3f
0.4984942 -1.3227053 1.2597181 -1.8611553 -0.5895574 -0.4181565 -0.83284086 0.026194904
0.43590146 1.2241995 -0.7589691 0.5301121 -1.3038714 -0.92065203 -1.1052072 0.89156485
-0.042176954 -0.56148857 2.1522958 -0.6823849 2.9952998 -0.33584026 0.39396787 0.5043762
-1.1825126 -0.69953036 -0.64222604 -0.54884446 -1.3391347 1.2295773 0.3483913 0.44180667
-0.83076316 1.2516612 -2.1674533 0.29491338 -0.09307305 0.06480159 0.18801738 1.1143177
-1.3280361 -0.030023137 0.6918795 0.851938 -0.6448186 -0.2853001 1.9476566 -0.50648916
0.6683057 -2.4276543 1.9212309 1.0798565 -0.71501833 -1.7906462 -2.5272238 0.28761154
-0.74368864 -0.20049217 3.5542374 -0.14506747 -1.6631827 1.788699 -0.66755635 0.5850693
0.5913144 -1.6268125 1.121575 2.3115218 -0.8670728 -1.8420547 -0.4190884 1.2883734
-1.9387618 -0.38716775 1.5676711 0.61526996 -1.0402992 -0.9957252 0.40627432 0.2927087
0.8242774 -0.18387404 -0.8320551 -0.55232596 -1.5505881 2.5047913 -0.98035467 -1.087315
0.356452 -1.5029883 3.2253368 1.2898035 0.32479975 3.2158473 -4.319929 -0.7709027
2.140334 -0.03892626 -0.9928621 0.3710996 1.1140914 2.4299896 -1.6798831 0.95685226
0.658171 0.26403445 -2.0879846 1.3699428 0.35400805 -2.0380764 0.90584457 -1.922924
-0.48117024 -0.85499245 -0.7653081 0.26576576 0.16373034 1.9420342 0.12893301 0.6498433
-0.7193078 0.12469447 -2.3343112 0.03896944 -0.23637842 0.33322975 1.1380429 -0.5143558
1.4919589 1.0551423 0.22918847 0.011585992 -0.87459874 0.5271145 -1.3453832 0.60249084
-0.73384833 0.58836937 -2.0589392 -0.13108788 -0.019452207 -0.9550393 -0.32608733 -2.8158689
0.50818986 -1.7804011 -1.1189084 1.839665 -0.24698143 -0.025519198 0.6586884 1.0186462
0.86779016 -0.7949366 0.21050069 -0.27413437 1.6441808 2.3259926 1.3118613 0.2255022
0.3110657 -0.09238022 0.12775527 -1.0089759 1.569811 1.1107975 1.1187699 -1.5923941
-1.6423346 0.23713033 -1.0040435 -0.32716605 0.79127914 1.8790227 1.1281232 0.4582507
-0.6129431 1.7415856 -0.779665 -0.5090209 -0.5979797 0.6496706 -0.77330595 0.9894444
-0.23644443 0.41949654 1.1247965 0.5503548 1.5394424 -1.1260029 -0.72986054 -0.6460563
0.081825964 -0.8103002 0.70709413 -0.97407573 -0.36829382 0.69926894 -0.4217842 -1.0315931
-1.2870991 0.7829473 -0.66995054 1.557877 1.138697 0.959818 0.40224347 0.08647654
0.21177745 1.5113103 -0.27606967 0.49830297 0.8640218 0.38432363 0.28938067 0.5036771
-0.07324173 0.9541072 0.36638364 -0.8373039 -0.8295697 -1.0404905 -0.5407691 -1.7492574
-0.2396827 0.5348953 -1.9167737 0.20345084 -1.5883464 -0.5832785 -0.4394234 0.9669332
-1.1669668 -1.1824987 1.279621 -0.4216492 0.36277235 1.2604127 0.113420844 -1.4468914
0.3467607 -1.1900402 -0.63114107 -0.24829336 -0.5910846 0.7478984 1.7250375 -0.40626687
-0.06436552 -1.3819209 0.77187157 0.51791674 -1.9334415 -0.45957687 0.52971315 0.93336725

transformer.encoder.layers.0.self_attn.in_proj_weight f4 [96, 32]
00000000: 3e3e 19bd 502d b33c 62a2 333c 3cf3 c1bd
00000010: ecd9 eb3d 9cb3 aabe 054a e53d f398 173e
00000020: 0f8c 533d e852 4d3d 5b7e c2bd 8e65 ac3c
00000030: 1958 75bb aaaf da3d 3dfd 02be fe2c 063e
00000040: 4d1d 5a3e d3c2 963c 3dd1 413c 3038 9c3d
00000050: c87c 7ebe 8f1e d23d a2cf 3dbe c8f2 2fbe
00000060: 8f87 c93c e778 ba3d 37f6 f43c b636 b0bd
00000070: b84e c93d 0ec2 acbd 700c 0f3e 2c36 393d
00000080: 11a0 7abc ae9f 17bd efe1 63be cd3a 423d
00000090: f1ff 36bd 790c 913e 180a afbe 289c 51be
000000a0: ab7b 2e3e 27f9 223d ec88 dc3d fb9a 363b
000000b0: e684 30be 9cb6 b43d d8dc dbbd 0963 4ebe
000000c0: e8cd 18be a8fa f33d 93c8 6abe 9623 15be
000000d0: 8ee6 b83d f85c 623d 9ffb 62bc 55f9 fa3c
000000e0: b270 443d 32f2 03be 2a85 85be 5997 b83c
000000f0: ef73 bf3d 6a60 46be 0bcc 903c 8b02 533e
00000100: 20e4 063e b31d 18be 9bc1 61bd fd02 903b
00000110: 558c fb3d b678 85bd a188 a4bd e08a a93c
00000120: de66 8d3d 2823 a23c 1478 febc 64c3 053e
00000130: 189b c93a 28b5 323e 69d7 423d 137b 743e
00000140: 3267 45be aab6 3f3e de58 043e 0025 f93d
00000150: 3061 1b3c 4623 88bd c160 df3c fdf3 cf3d
00000160: 4cf9 8a3d 4d06 bfbb d2c7 88be 2b2c 5b3c
00000170: 1fb4 6b3d cba2 adbd 6e16 98bd c6ec 803d
00000180: 67dd 81bd 525e 2c3b 2195 59bd 4055 8abd
00000190: 929a 163e b2c7 c2be 9b34 893e f9b1 273e
000001a0: b68c 35be 1347 ba3c 3b02 243e 1ae7 9bbd
000001b0: b7bd 75bd 2503 ab3c d15e 243e bac4 1d3d
000001c0: 072b 5abd eb8a 013e f43a 0b3d 567e fa3d
000001d0: b159 46be 07ca 67bd 0984 f4bd 287e b83c
000001e0: 0d18 d43d 998a d83c 8c2f ce3d 483a ae3b
000001f0: 6d9f 14bd 60ce 1c3e 6bbf fbbd b7ae 5a3e
00000200: 7dff 423d b735 e03b 0acd 4d3e 8c66 f33d
00000210: 5bdd 043e 82c5 59be a386 ca3b ea1b 59bd
00000220: ea73 533e 9f54 7ebd a349 513e 1670 35be
00000230: 1f61 a5bb 1e27 87bd b7ca febd 618d d43c
00000240: ad0e a83d d246 14bd cd61 93bd ec34 e23d
00000250: 3c06 9c3d dbf0 5dbc c462 e6bd 26e3 51bd
00000260: 250f f9bb 3d1b 82bd 97a5 273e 3c6d de3c
00000270: 8a96 1b3e 1607 02be 0da4 8d3d 64d7 21bd
00000280: 7dcf 12be b14b a7bc 5c0c b4bd f1e4 2fbe
00000290: 8508 b83e 2f59 3dbe 0335 2f3e 93e9 afbd
000002a0: 4e29 fabc 9d5a 6bbe fa71 d03d 248f d2bd
000002b0: a23a a4bd 87f5 cdbd 11e2 9abd 9dd2 9c3d
000002c0: 10c6 a53d e9ee 11be 9e50 0ebe 712e f73c
000002d0: e059 a83d 7ff8 7bbe c1a8 93bd 1ab3 31be
000002e0: e045 a8bb b23b 0cbe df56 0b3e 6a33 45bd
000002f0: c1b9 c43d 99fd eabd ccde 913d 80c9 30be
00000300: 382f 043d 992d 9a3d 3451 72bd 2024 0ebe
00000310: 645e 5b3d 21a8 e5bd 2eb1 b8bc 2db0 19be
00000320: 31db 763e 29d0 93be 049d 213e 98e2 a33c
00000330: 7f2b 3c3d 8c2a 06be 2b8c 173c b75f 08bd
00000340: 479c 433e 1465 283e 4297 483d 8915 59be
00000350: f83e 82bd bb51 0e3e f331 4cbe 6719 683d
00000360: 6bed c33c 5173 043e dca7 3cbd 886f 85bd
00000370: 4e9d 813d 8ac2 f63d 756f 00be 5024 2ebd
00000380: 7f3a d63d 97a7 fdbc 65eb f4bd 66c0 75bb
00000390: 26a7 3ebe 511a 8a3e fdd4 1abe 607f 93bc
000003a0: 901d 4abe 90af 6dbe 379c b8bc 4a60 22be
000003b0: e580 15bd faf4 4f3e 7566 c5bc 9407 df3d
000003c0: f3fb 313e a6d8 afbd a40d 003e 0bad 08be
000003d0: fdef 303d 9a1e 86be 5f3c 133e f873 06be
000003e0: 35f2 a73c ab6c 09bd 9ee8 96be 4b79 09be
000003f0: a875 53be 76f0 eabb 5cca d2bd d93a 0f3e
-0.037412874 0.021872193 0.010964008 -0.094702214 0.11516175 -0.33340156 0.11195759 0.14804439
0.051647242 0.050127894 -0.09496757 0.021044519 -0.0037436543 0.106780365 -0.12791915 0.131031
0.2130024 0.018403446 0.011829671 0.076279044 -0.24852288 0.10259735 -0.18536237 -0.17182457
0.024600772 0.091050915 0.02990256 -0.08604185 0.098294675 -0.084354505 0.13969588 0.045217678
-0.015296952 -0.037017517 -0.22254156 0.047419358 -0.04467768 0.28329828 -0.34187388 -0.20469725
0.17039363 0.03978839 0.10768303 0.0027863372 -0.17238197 0.088238925 -0.10735482 -0.20154966
-0.14922297 0.11913043 -0.22928075 -0.14564356 0.0902835 0.055264443 -0.013853936 0.030636469
0.047959037 -0.12885359 -0.2607816 0.022533106 0.093482845 -0.19372717 0.01767542 0.20606439
0.1317296 -0.1485508 -0.055116277 0.0043948875 0.122826256 -0.065171644 -0.080338724 0.020696104
0.06904386 0.019792154 -0.031063117 0.13062817 0.0015381305 0.17451918 0.047568712 0.23875074
-0.19277647 0.18722025 0.12924525 0.1216526 0.0094836205 -0.06647353 0.027267816 0.10153959
0.06785831 -0.0058296085 -0.2671495 0.01337723 0.057544824 -0.08478316 -0.07426153 0.06295161
-0.06341057 0.0026301336 -0.053120736 -0.067545414 0.14707401 -0.3804298 0.26797947 0.16376485
-0.17729458 0.022738969 0.16016476 -0.076124385 -0.05999538 0.020875523 0.16051795 0.03851769
-0.05326369 0.12650649 0.03399177 0.12231128 -0.19370152 -0.056589153 -0.11939246 0.022521093
0.1035615 0.026433276 0.100676626 0.0053170063 -0.036284853 0.15313101 -0.122923695 0.21355711
0.047606934 0.006842341 0.20097747 0.11884794 0.12975065 -0.2126675 0.0061806007 -0.053005137
0.20649686 -0.06209242 0.20438246 -0.17718539 -0.005046978 -0.06599258 -0.124410085 0.025946321
0.08205924 -0.036200352 -0.071963884 0.1104525 0.076183766 -0.013546194 -0.11249307 -0.051242016
-0.0076006823 -0.063528515 0.16371761 0.027151696 0.15194145 -0.12698016 0.06916056 -0.039512053
-0.14336963 -0.020421835 -0.0879142 -0.17177178 0.35944 -0.18491052 0.17110066 -0.085894726
-0.030537274 -0.22983785 0.10177989 -0.10281208 -0.08018996 -0.10056596 -0.0756265 0.07657359
0.08094418 -0.14251293 -0.1389794 0.030173512 0.08220267 -0.24606512 -0.07209922 -0.17353478
-0.005135283 -0.13694647 0.13607357 -0.048144735 0.09605742 -0.11474151 0.07122573 -0.17264366
0.032271594 0.07528228 -0.059159473 -0.13880968 0.053556815 -0.11213709 -0.022545423 -0.15008612
0.24107052 -0.2886975 0.15782553 0.02000551 0.04593992 -0.13102168 0.009249727 -0.033294406
0.19102584 0.16444808 0.048972376 -0.21199621 -0.063596666 0.13898365 -0.19940929 0.05666485
0.02391692 0.12934615 -0.04605852 -0.065154135 0.063288316 0.12048824 -0.12542517 -0.0425151
0.10460376 -0.030963702 -0.119589604 -0.0037498712 -0.1861845 0.26973203 -0.15120311 -0.018005073
-0.1973784 -0.23211503 -0.022535427 -0.15857044 -0.036499877 0.20308295 -0.024096707 0.10890117
0.17381267 -0.08586244 0.12505203 -0.1334726 0.04319762 -0.26195222 0.14378498 -0.13130176
0.020501235 -0.0335509 -0.29474348 -0.13425176 -0.20650351 -0.0071697785 -0.10292503 0.13987292

transformer.encoder.layers.0.self_attn.in_proj_bias f4 [96]
00000000: d48c 84bd a4cc 713b 1079 9bbd 0963 1bbd
00000010: 70be bf3d aa10 c83d 25a6 873c ec96 c7bd
00000020: 838e 033c 9290 b43d 69ab 243e e7ea 0bbc
00000030: 528e e33c cbdd 74bd cdc1 393e 66f5 6fbd
00000040: 36a2 66bc c6c3 3abe 2ec8 48be 778a a53d
00000050: 8ddd 523c 0d5e 403e faae d63d a0a6 953c
00000060: 5950 c13d ce78 09be 53ad d0bd 5079 ef3d
00000070: 49db da3d 3e16 ac3d 0b8f 21bc 7c6a 0c3e
00000080: f98b dabd ed42 db3d b886 0e3d b639 a7bd
00000090: 081e 5abe 57d4 66be 5c31 c53c 96e9 c13d
000000a0: 3524 0b3e 1784 803c aab6 30bc b0c2 343e
000000b0: 0767 84bc cc20 0d3e 79f8 143e ab9a 3c3d
000000c0: a022 2e3e 00d9 013e 79ac 5d3e 056b 0abc
000000d0: e0c3 843d 9610 3dbe d0e4 8a3d e93c 25bd
000000e0: ba5b d63b 24e8 d3bd 7f01 bfbd 7aea 2abe
000000f0: 3087 fcbc 6ddb 02be bbdf ec3d 02dd 39be
00000100: 479b 70bb bd18 74bc 8c54 88bd 0e56 3b3c
00000110: 1e10 31be ba9b 863d 4e69 a23c 44e0 82bd
00000120: 7759 afbd 1a90 123d cb55 d1bb e6ff 60bb
00000130: 224f 203c 2139 20bd 9168 353d 9397 213e
00000140: 3afc 253c 2bf9 03bc 0263 febc 8e57 263d
00000150: 185a 3ebd cbbf 1fbd 8d05 e6bc 5271 dc3d
00000160: 3774 ea3d e3f1 5f3d 088a 84bd 457d 043d
00000170: b9b5 a93d c770 4f3d 705f 883c 1f73 b83c
-0.06472173 0.0036895657 -0.0759145 -0.037936244 0.09362495 0.097688034 0.016558716 -0.09745583
0.008029583 0.08816637 0.16081013 -0.008539892 0.027777825 -0.05978183 0.18140335 -0.05858364
-0.01407676 -0.18238744 -0.19607612 0.08083051 0.012870205 0.18785878 0.10482593 0.01826793
0.09439153 -0.1342499 -0.10189309 0.116930604 0.106863566 0.0840268 -0.009860764 0.13712496
-0.10671229 0.107061245 0.034796447 -0.08165304 -0.21300519 -0.22541939 0.024071388 0.09468381
0.1358803 0.015687985 -0.010785738 0.17652392 -0.016162409 0.13782042 0.1454791 0.04604594
0.17005396 0.12680435 0.21647824 -0.008448367 0.06482673 -0.18463358 0.06781924 -0.04034129
0.0065416964 -0.10347012 -0.09326457 -0.16691008 -0.030826181 -0.12779017 0.11566111 -0.18150714
-0.0036713646 -0.014898476 -0.06656751 0.011434091 -0.17291304 0.06572671 0.019825604 -0.063904315
-0.08561986 0.035781957 -0.006388401 -0.0034332215 0.009784492 -0.039116982 0.044289175 0.15780477
0.010130936 -0.008055012 -0.03105307 0.040610842 -0.04647264 -0.039001267 -0.028078819 0.10763802
0.114479475 0.05467404 -0.0647164 0.03234603 0.08286614 0.050644662 0.01664707 0.022515832

transformer.encoder.layers.0.self_attn.out_proj.weight f4 [32, 32]
00000000: efbd 063e 7895 a33d 9d29 1cbe 1b33 613e
00000010: d840 3fbe ba20 60be 53ac 6e3c ac4c 8b3d
00000020: 79be 513e 3bc7 2f3e a519 8cbd 215d d53d
00000030: 1f0b 0ebe 4698 2ebc 8175 a4bd ed77 60bd
00000040: d51a 18be 091e e1bc 47f3 9b3e f808 9ebd
00000050: adf4 ba3d bcba 8fbe 35e3 b9bd f34d 13be
00000060: 3628 19be 52ff 14be 5600 e33d baa6 d7bd
00000070: cb2b 46bc 8dd9 be3d a72d 1bbd 1ac7 2ebd
00000080: 540e c63c 437e a5bd e541 1dbd dea4 47be
00000090: 60fa 8cbe c523 0e3e 75d5 44be 34d7 bf3d
000000a0: 5447 b73e 6e93 243e fe4a 243e f3fe 12be
000000b0: 99d3 843e be54 f9be a973 9dbe f040 d43d
000000c0: 66c9 8abc 6f2e 213d 8611 ecbc f4ab 063d
000000d0: 98a7 5a3e 90ba 45be ca9f 843e 65cd 2bbd
000000e0: 2df3 dc3c 4ed2 67bd 30ce c83b b7b0 e03c
000000f0: aad4 e6bd 7add 793d 21fa d8bd fd90 4f3d
00000100: 8be1 1d3d 6508 8ebc 1e5a 0a3e b53b 14be
00000110: 363a 0d3d 3ff2 ba3e 2896 4f3d 8fdc 4e3e
00000120: 8eb1 3fbe c7cc 1bbd 900e dc3d f490 d5bc
00000130: 7be7 70be 84d4 05be 0f94 813e fb7a ee3d
00000140: 52bd 1b3d db44 0ebe 95c6 babd 9b57 703e
00000150: 2caa 033e 12ac 79be 9e23 703d e7e1 0a3e
00000160: ff91 bbbd 2aab 57be 2cd1 01be 203b 94bd
00000170: 2701 313e 131f b13c 0f99 5f3b e608 5fbd
00000180: 477b 2fbe e563 71be 389c 65bd fa08 863e
00000190: 8e3a a63e ce37 e5bd ae78 3d3e 089f 0cbe
000001a0: bc4f 223d f036 c43d 341f 753e c7b5 d63d
000001b0: e7c6 c03d e336 a03d dea7 523e 3336 ef3d
000001c0: 2fdd cf3d 4f43 fd3d 2979 013e d966 b13c
000001d0: bf37 ad3c 9375 9dbe 67bf f9bc bc4b 3f3e
000001e0: 0d56 cdbd 2f1f 373b b45d a8bd fb68 013e
000001f0: 119f f9bd f9f6 d2bc d915 43bd 8faf df3d
00000200: fc1e cc3c 921a e63d cc6b aabc 61fe c23d
00000210: f1dd b43e 0e5e dbbd d0a5 813e da90 1d3d
00000220: c820 37be 691e fe3d 3802 273e 2b2a 57be
00000230: 2e13 a7bc fe36 8e3d f111 09be fda5 c4be
00000240: 04c8 a4bc 393f 083e fa66 f1bd 7fe2 eabd
00000250: 3641 f0bd 3bc8 063b d007 123e 83ef 703d
00000260: 4fd4 ad3b ff7d 39bb 06b5 cc3d 804a c23d
00000270: b4db 983d eec2 e8bc 147d 4a3d 444a 91bd
00000280: b2c1 2fbe b916 ba3e 4f43 2abe b6a1 513d
00000290: 053c 01bd f566 03be b6a4 9e3d 2f4c ef3d
000002a0: e423 633e 7753 18be 038f 203e e6bd 12be
000002b0: 17d2 143d 7ee3 4d3c 4be9 743c 7f12 c73e
000002c0: f348 22be faf2 05bf 0265 a13c ac5e dc39
000002d0: 2a44 aebd d7e6 07bb 556a d93d 9e1e e83d
000002e0: 8616 a93e 7827 373e e5d1 423e 3b5e 893d
000002f0: 7343 e1bd d2e6 573e 73ad 05bc a7de d03d
00000300: de34 0cbe cc00 063e f9fa 1d3e 2bc4 b53d
00000310: 14f0 783e e01e a03c 2a3e ffbd 794a 5d3e
00000320: e05b 2c3e 9951 563e 5c10 fe3d 8561 9abe
00000330: 1e0e 8bbc ae93 203c 07a8 80be 8329 a53e
00000340: e8ab 41be a995 48be 2f54 71bd f7d1 a8bd
00000350: 097d f43d 8283 093e a81e db3e c2a0 d53d
00000360: b2d8 95be 9dcb 443e 9790 8f3e f825 4ebe
00000370: 7164 26be 09c9 893d 024f 10be 80e0 1ebd
00000380: 32d3 413e bf4d d03d 1d15 97bd e0de 803e
00000390: 1888 0e3e 78cf 01be 041f 8ebd 45e1 efbd
000003a0: 4a9b 743e 1ec8 133c 1913 cfbe 918e 293e
000003b0: 848c 3f3d 136a b13e ee7f 313e 8bbc 90be
000003c0: 1652 973e e857 0bbe 0ec0 3cbe fcb1 d03d
000003d0: ff56 b03d c1a3 29be 6285 1e3e a256 de3d
000003e0: f71e 8bbb 33b9 063e 643a ba3e 2675 893d
000003f0: 7dd4 d53d 5299 87bd edf9 df3c 39a5 d0bd
0.13158391 0.07987493 -0.15250249 0.21992151 -0.1867708 -0.21887484 0.0145674525 0.068017334
0.20482816 0.17165844 -0.06840829 0.104181536 -0.1387143 -0.010656422 -0.080302246 -0.05480187
-0.14853986 -0.027480142 0.30459043 -0.077165544 0.091286995 -0.28072155 -0.090765394 -0.14385204
-0.14956746 -0.14550522 0.110840484 -0.105298474 -0.012095402 0.09318838 -0.037885334 -0.042670347
0.024176754 -0.08080723 -0.03839292 -0.19496486 -0.2753477 0.13880832 -0.19222052 0.093672186
0.35796607 0.16071865 0.16044232 -0.14355068 0.25942686 -0.48697466 -0.30752304 0.10363948
-0.016941737 0.039350923 -0.02881695 0.03287883 0.21352994 -0.19309449 0.2590316 -0.041943926
0.026971424 -0.056597047 0.006128095 0.027428014 -0.11271031 0.061002232 -0.10594583 0.05067538
0.038545173 -0.017337987 0.1351094 -0.14475901 0.034479342 0.36512944 0.05068031 0.20201324
-0.18720075 -0.038037088 0.10744965 -0.026070096 -0.23525803 -0.1306935 0.25308272 0.116445504
0.038022347 -0.13893454 -0.09119908 0.23470919 0.12857884 -0.24382046 0.058627717 0.13562737
-0.09158706 -0.21061388 -0.12677449 -0.0723784 0.17285596 0.021621263 0.003411833 -0.054451846
-0.1713687 -0.23573263 -0.056057185 0.26178724 0.3246655 -0.111922845 0.18503067 -0.1373254
0.039626822 0.09580791 0.23937684 0.1048389 0.094129376 0.07822969 0.20571849 0.116802596
0.10149609 0.12366354 0.12643875 0.021655487 0.021144746 -0.30753765 -0.030486776 0.18681234
-0.100261785 0.002794217 -0.082209975 0.12637703 -0.12188543 -0.025752531 -0.047628257 0.10922157
0.024917118 0.11235537 -0.020803355 0.09521175 0.35325578 -0.10711299 0.25321817 0.03846822
-0.17883599 0.12408144 0.1630944 -0.2101218 -0.020394888 0.06944083 -0.1338575 -0.3840789
-0.020114906 0.13305368 -0.11787219 -0.11468982 -0.11731188 0.0020566124 0.14260793 0.058822166
0.00530485 -0.002830386 0.09995465 0.09486866 0.0746378 -0.028413262 0.04943569 -0.07094243
-0.17163733 0.3634546 -0.16627239 0.05117961 -0.03155138 -0.12832244 0.0774626 0.11684453
0.2218166 -0.1487559 0.15679555 -0.14330253 0.03633317 0.012566445 0.0149481995 0.388813
-0.1584814 -0.5232388 0.019701485 0.00042032206 -0.08509095 -0.0020736957 0.10615984 0.11333965
0.33024997 0.1788615 0.19025381 0.06707426 -0.10999193 0.21084145 -0.008159029 0.101987176
-0.13692042 0.13086241 0.1542777 0.08875307 0.24310333 0.019545972 -0.12463029 0.2161044
0.16831923 0.20929565 0.12405464 -0.30152526 -0.016974505 0.009800835 -0.25128195 0.32258233
-0.18913233 -0.19588341 -0.058918174 -0.082431726 0.11937911 0.13429072 0.42796826 0.10431053
-0.29266888 0.19218297 0.2804 -0.20131671 -0.16249253 0.067277975 -0.14092639 -0.03878832
0.18928221 0.10171079 -0.07377074 0.2517004 0.13919103 -0.126768 -0.069395095 -0.11712889
0.23887363 0.00901988 -0.40444258 0.16558291 0.046764866 0.3465124 0.17333958 -0.28268847
0.29554814 -0.13607752 -0.18432638 0.10190198 0.08610343 -0.16566373 0.15480569 0.10856368
-0.0042456347 0.13156585 0.36372674 0.067117974 0.104409195 -0.066210404 0.027340854 -0.10187764

transformer.encoder.layers.0.self_attn.out_proj.bias f4 [32]
00000000: 466c 193e f5b5 583e 28d4 50be b6af 54be
00000010: 508f 903d a59f ba3e f334 723e 0cb6 fb3d
00000020: d100 c1bd dc7a 823d 2321 6e3d 42c6 d6bc
00000030: a1b4 4f3e aec7 3bbe 8558 6abe 5241 5cbe
00000040: 220b 1dbc 5bec 0e3e cd31 1bbd 8edd 07be
00000050: b1f3 91be aee3 9fbe 413d 3c3e ef90 fabd
00000060: 9136 e637 df96 f13c f9f8 493d ae1c 03be
00000070: 8b6f 6d3d 342d 1a3e 7fd5 0f3c 2cfb 873e
0.1498271 0.21163161 -0.20393431 -0.20770153 0.07058585 0.36449924 0.23653011 0.12290582
-0.09423984 0.0637109 0.05813707 -0.026217584 0.20283748 -0.1833789 -0.2288533 -0.21509293
-0.009585174 0.1395735 -0.03788929 -0.1326811 -0.28506234 -0.31228393 0.18382742 -0.12234675
2.7443546e-05 0.029490886 0.049309704 -0.12803909 0.057967704 0.15056306 0.008778929 0.26558816

transformer.encoder.layers.0.linear1.weight f4 [128, 32]
00000000: bbd4 b0bd 1611 66bd 473d 753d dbbd 7ebe
00000010: d24e 693e 98d1 81be 0c83 dd3e 9d91 ad3d
00000020: 9a28 86be f37e c7bd e514 173e 6a54 c6be
00000030: ebb8 2b3e 6caf 9cbe a021 e9bd bc73 72bd
00000040: 1c67 c13d a82f ab3d 5fc2 a6bd 8817 cd3d
00000050: e5f8 4e3d 2279 b7bc 4d67 f93b 5e06 33be
00000060: 3a2e 543c 9a38 96bd c7db 0dbe 3539 f0bd
00000070: 4706 423e 820f 6e3e 1e06 a2bd 11fc 1d3e
00000080: 4842 21be a306 663d 54a1 f93d 098d ccbd
00000090: c335 3dbe 7941 a1bd b473 853e a372 7a3c
000000a0: 2d27 96bd bcaa c53c 6521 48be 4ef6 ae3c
000000b0: fb32 b4bd dd88 a3bd 0396 b23d 9cd5 c03c
000000c0: df2a 103e 1e9b 223e b3f6 c13e 2e1b bf3d
000000d0: 2552 37bc 75cc 333e ead5 1cbe 272d 73bd
000000e0: 6186 f0bd b130 47be 0829 5dbd d30a 693e
000000f0: 2802 0bbe d462 d13d 2468 74bd 17e3 003e
00000100: 0c50 d0bd 7733 8b3d 3592 a23d 12d4 bfbd
00000110: cd1f 7f3e 3a3b 21be 3530 143e 09e1 1c3e
00000120: ce1c b7bb d3af 81bd ed72 a8bb 8283 4abe
00000130: 5be6 213e bee0 0ebe 2cca bc3d 25dc be3d
00000140: cfad 503d 14bc be3d d2ab 21be 0cad 1c3e
00000150: 4153 693d 38bc 423d d62b a43d e3dd 90bd
00000160: 7373 a0bd 068f 053e 01c8 b7bc 8502 febc
00000170: 4a70 90bb aa4e 613e dc25 81be 94f6 583d
00000180: ea1c 99be 4556 4bbe 1ab1 a4bd 77e0 68bd
00000190: 796e 953d 2e86 c03d 7e24 433e ab23 c2bd
000001a0: 5bdc 0bbe 0033 8a3d f6b0 053d 1997 29be
000001b0: 1a83 96bd 64bc dbbd 0f29 643d c611 fabd
000001c0: e947 b73d 9e82 92be 5bb8 5b3b c5f0 8cbe
000001d0: 83c6 e8bd 9aa1 00bd 612a 37be c142 91bd
000001e0: cdf4 b0bd e1da f1bd 448c d53c 9323 90bd
000001f0: ad68 213e 4737 b63d 8226 b73c 77ab 8cbe
00000200: 68ce a3bb c7a9 213e b867 f13d 06bf e3bd
00000210: ac65 693e 6c24 bd3c 01b7 763d 0b3b 7b3d
00000220: b101 e9bd f3f9 11bd 88e1 eebd fe4b 743a
00000230: 3b5f 3cbe e979 47bd d6d8 79be 9c71 46bd
00000240: 222c 533d 671e 483d 7a0a debc 13c1 f03d
00000250: 3c90 233e 2e55 05bc 3ac7 48be 2b96 0abe
00000260: d1d1 b2bd 07c7 7cbc f3e1 98bc 9a13 ecbd
00000270: 1ead f2bd 05f6 a53d 5e3c 59be 248d 84bd
00000280: bf99 ea3d f6ce b3bd 9ca7 8bbd 460a 30be
00000290: 476a 6c3c 7267 db3d b9c9 5c3e 405e a13d
000002a0: 1cb4 a6bd 1b40 d3bd 483a 853c e934 fe3d
000002b0: 609f ae3d 829d 96be 50ee 0fbc 5728 acbc
000002c0: d62e 34be af2a f33d a009 403d 8199 fdbd
000002d0: 9573 88be dddc a43d ac60 00be 9175 31ba
000002e0: 8afd 823d 9cca 01be b063 d0bc 10d8 b03d
000002f0: 2e6a b23d f571 3d3e a06b ab3d 1af8 713d
00000300: d735 44be a248 933d 40ca 0a3e c249 3cbe
00000310: 7b94 823e b6de 91bd a5ae 253e 1d9b 553d
00000320: 4d6b ccbd b61d 3c3d df27 b1bd dbad 723d
00000330: 7eaa 90bd a1a3 513c 9efb 8dbd 98ec 983b
00000340: 86b8 413d 9e6e 773e 0abd 133e cf9d 55bd
00000350: 2e32 14bd 6293 c03c f2ac 98bd 48f4 0dbd
00000360: 6eee cc3c c0d9 a5bd 3617 4ebd d78f b6bd
00000370: fbc3 7abd 0609 753e 4516 96be f8ea ddbd
00000380: 6cd7 63bd 67aa c8bd 1894 ef3d 0120 3ebe
00000390: edea aa3b b641 7f3b 772e 1e3e 0c90 e63d
000003a0: 512a a8bd 44d9 2ebe d31b 723c 3b00 273d
000003b0: 03af 2a3c 8e86 d63d 5bf2 f2bc 3101 923e
000003c0: cb0e 46be 2622 813d 5a08 033e 00e3 b43c
000003d0: e3a7 833c 4c04 2fbe d0ee 9fbd 5944 cc3d
000003e0: e6b1 52be 8c55 e0bb 137e 6fbe 722c 8e3d
000003f0: 0826 ec3d 4a0b ae3e 6a1f 333d 7b04 1b3e
-0.08634325 -0.05616864 0.05987289 -0.24877112 0.22783974 -0.2535522 0.43264043 0.08475039
-0.26202852 -0.097410105 0.14754064 -0.38736278 0.1676976 -0.30602586 -0.113833666 -0.059192404
0.09443495 0.08358699 -0.08142542 0.10014254 0.050530333 -0.022396628 0.0076111914 -0.17482898
0.012950474 -0.07335015 -0.1385337 -0.117296614 0.18947707 0.23248103 -0.07911323 0.15428187
-0.1574794 0.056158673 0.12188974 -0.09987838 -0.1847754 -0.07873816 0.26064837 0.015286121
-0.07331691 0.024129264 -0.19543989 0.021357682 -0.08798786 -0.07985089 0.08720019 0.023539357
0.14078854 0.15879485 0.3788353 0.09331356 -0.011189018 0.17558463 -0.15315977 -0.059369233
-0.11744381 -0.19452168 -0.05399421 0.22758035 -0.13575041 0.10223928 -0.05966963 0.12586628
-0.10171518 0.067969255 0.07938043 -0.09366621 0.24914475 -0.1574525 0.14471515 0.15320219
-0.0055881506 -0.06332364 -0.0051406533 -0.19776729 0.1581053 -0.1395292 0.09218249 0.09319333
0.050947007 0.09313217 -0.157882 0.15300387 0.056964163 0.04754278 0.080161735 -0.070735715
-0.0783452 0.1304284 -0.022434236 -0.03100706 -0.004407917 0.22002664 -0.25224197 0.05296953
-0.29904872 -0.19857128 -0.08041592 -0.05685469 0.072964616 0.09400593 0.1905689 -0.094794594
-0.13658278 0.06748009 0.032639466 -0.16561545 -0.073492244 -0.10729292 0.05570322 -0.12210421
0.08949263 -0.28615278 0.0033526632 -0.27527443 -0.11365988 -0.031404115 -0.1788726 -0.070928104
-0.08640442 -0.11809326 0.02606786 -0.07038035 0.15762587 0.08897262 0.02235723 -0.27474567
-0.004998971 0.15787421 0.11787361 -0.11120419 0.22792691 0.023088656 0.06023312 0.061335605
-0.11377276 -0.03563876 -0.116641104 0.0009319185 -0.18395703 -0.048700247 -0.24399123 -0.04844819
0.05155576 0.04885712 -0.027104605 0.11755576 0.1597299 -0.008137984 -0.19607249 -0.13533847
-0.087314256 -0.015428311 -0.018662428 -0.11527176 -0.11849426 0.08103565 -0.21214435 -0.06472233
0.11455106 -0.08779709 -0.06819078 -0.17191419 0.014429635 0.1071309 0.21561326 0.07879305
-0.08139822 -0.103149615 0.016263142 0.124124356 0.08526492 -0.29417044 -0.0087848455 -0.02101533
-0.17595991 0.118733756 0.04688418 -0.12382794 -0.26650682 0.08049939 -0.12536877 -0.0006769533
0.06396015 -0.12674946 -0.02543816 0.08634961 0.087116584 0.18500502 0.08370137 0.0590745
-0.19161163 0.07191588 0.13553715 -0.18387511 0.25503907 -0.07122557 0.16179903 0.05214988
-0.099814035 0.045926772 -0.08650183 0.059247833 -0.07063769 0.01279536 -0.06932758 0.004666876
0.047295116 0.24163291 0.14427581 -0.05215245 -0.036180668 0.023507778 -0.07454862 -0.034656793
0.025016036 -0.08098173 -0.050315104 -0.08914154 -0.061222058 0.23929223 -0.29313865 -0.10835832
-0.055625364 -0.09798127 0.116981685 -0.18566896 0.0052159936 0.003894908 0.15447412 0.112579435
-0.08211196 -0.17075068 0.014777142 0.040771704 0.010417703 0.10474883 -0.02965658 0.28516534
-0.1934158 0.063053414 0.12796155 0.022080898 0.016071266 -0.17091483 -0.07809222 0.09973974
-0.20575675 -0.0068461355 -0.23387937 0.06942071 0.115306914 0.33992988 0.04373113 0.15138428

transformer.encoder.layers.0.linear1.bias f4 [128]
00000000: 1fe8 9cbe 50cc 69be 2faf 29be 1d38 3ebe
00000010: 60ad a2be a032 bcbe 2a2a 5fbe f380 23be
00000020: cf34 87be 0b29 b2be 7ffc 94bd 51b4 b3be
00000030: bdbc 92be 121b fbbd 4481 8dbe ba47 56be
00000040: 8e49 fdbd 9dcb afbe 22b1 7fbe 4b1d 73be
00000050: 63c3 6fbe 4900 45be 5a8c 9cbe 6355 15be
00000060: 3841 8abe b8b6 26be 1c7a 0dbe 6ff5 a7be
00000070: 814d 3abe 2952 5abe 7376 8ebe 6ba1 c2be
00000080: 55b4 a1be 35f2 a3be 4503 98be 11ae 09be
00000090: c8db 60be 055d eebd a812 1fba 433c 51be
000000a0: f899 5ebe d42d c0be 22db 26be 2091 41be
000000b0: 8935 9bbe e36d a0bd 28ac d0be 7ed6 35be
000000c0: f5ea 73be b6fa b1be 95e7 94be 3e34 d4be
000000d0: b6cc cbbd a3db 15be 3570 25be 9a00 99be
000000e0: 4115 27be e3ed 1abe 3bce 1fbe 08a9 7fbe
000000f0: d45b 09be 2863 c0be f51d 70be dd8d 9abe
00000100: e217 fbbd 3c32 36be 8aa8 a1be 7c9d a6be
00000110: 7b83 98be 50b0 bbbe b2b5 bcbc 8a42 82be
00000120: d35d b2be ebbe 4cbe 3225 28be fae2 b1be
00000130: 2fb7 c7be 9b05 eebe d475 87be 2a93 88be
00000140: c424 47be f15c 87bd b413 98be 09fd 8fbe
00000150: 010e 5dbe 4cc2 03bf ff7a 72be d372 a5be
00000160: 6352 75be d1a8 72be 0d79 c6be 403f 87be
00000170: 66a8 edbe fe99 9dbe 842a acbe 99f2 23be
00000180: 7bb9 bfbe 7391 b3be 1d92 8abe c8bc 8fbe
00000190: 7856 5fbe 1182 9abd 22b1 e7be c43c 37be
000001a0: dd4f 2bbe a17e a2be 3064 32be 3e9f c9be
000001b0: 4c8c 4dbe cad3 d6bc 9b10 07bf f0f4 81be
000001c0: 1264 7cbe cf33 36be da0b 8ebe bf94 1abe
000001d0: 3276 95be 44b6 edbd 47e0 bfbe 5319 fabe
000001e0: 29ea a9be 24fc 30be eb56 8cbe 5321 86be
000001f0: ba87 d8bd a3e6 15be 1dc1 a6be 6009 74bd
-0.30645844 -0.22831845 -0.16570733 -0.18576093 -0.317729 -0.36757374 -0.21793428 -0.15967159
-0.26407477 -0.34796938 -0.07274722 -0.35098508 -0.2865962 -0.122610226 -0.27637684 -0.20925799
-0.12367545 -0.34335032 -0.24969915 -0.23741643 -0.23414378 -0.1923839 -0.3057583 -0.14583354
-0.27002883 -0.16280639 -0.13816112 -0.32804438 -0.18193628 -0.21320404 -0.27824745 -0.38013777
-0.31582895 -0.32020727 -0.29689994 -0.13445307 -0.2195884 -0.11638836 -0.00060681487 -0.20433144
-0.21738422 -0.37534964 -0.1629453 -0.18903017 -0.30314282 -0.07833459 -0.40756345 -0.17757604
-0.23820098 -0.3476159 -0.29082933 -0.41446108 -0.09951155 -0.14634566 -0.16156085 -0.2988327
-0.16316701 -0.15129809 -0.15606014 -0.24966824 -0.13413936 -0.3757565 -0.23448928 -0.30186358
-0.12260415 -0.177926 -0.31573898 -0.32542026 -0.29787812 -0.36657953 -0.023035858 -0.2544139
-0.34837207 -0.19994704 -0.16420439 -0.34743482 -0.39006945 -0.46488652 -0.26457083 -0.26674777
-0.19447619 -0.06609524 -0.29702532 -0.28122738 -0.21587373 -0.5146835 -0.23679732 -0.32314166
-0.2395721 -0.23697211 -0.3876423 -0.26415443 -0.4641754 -0.3078155 -0.33626187 -0.16010512
-0.37446198 -0.35071906 -0.270646 -0.28073716 -0.21810329 -0.075443394 -0.4525233 -0.17894274
-0.16729684 -0.31737235 -0.17421031 -0.39379305 -0.2007305 -0.026224036 -0.5275971 -0.25382185
-0.24647549 -0.17793201 -0.27743417 -0.15095805 -0.29191738 -0.1160703 -0.37475798 -0.48847446
-0.33186463 -0.17283684 -0.27410063 -0.261973 -0.10572763 -0.14638762 -0.3256921 -0.059579253
