Models/transformer_1head_32hidden_100epochs_minus5females_model0.pth (torch, 156129 bytes, 40 tensors)

encoder_embedding.weight f4 [47, 32]
000000 0c 12 5c bf 2b da 59 3f 1d 43 86 3f cd 9c 21 3e
       -0.8596504 0.8509852 1.0489231 0.15782471
000010 14 c2 72 3f 14 fe 1b bf 2e f9 c8 be d6 b6 35 3f
       0.9482739 -0.6093457 -0.3925261 0.7098211
000020 d9 81 83 3d 7c 26 e3 3e fe 9e 1f bf 5d 78 ec bf
       0.06421251 0.443653 -0.6235198 -1.8474232
000030 bc ac ab 3f b4 f5 74 3f ee 6c 34 bf cc b8 e7 bf
       1.3412089 0.95687413 -0.70478714 -1.810327
000040 ee ad a3 be 36 ec 06 3f 64 98 bc 3f 5c 89 88 3c
       -0.31968635 0.5270418 1.4734006 0.01666706
000050 33 22 ca 3e 1c d0 f8 be 8d 67 07 3e 04 1b 9e bf
       0.39479217 -0.48596275 0.13223095 -1.2351995
000060 12 9d a3 3f 3d 76 5f bf bf d4 a8 be 5c bf 50 bd
       1.2782309 -0.8728979 -0.32974812 -0.050963745
000070 c2 b7 9d 3f 4b 1d 2c 3f e2 25 06 bf e9 a9 83 3e
       1.2321703 0.672322 -0.52401555 0.2571557
000080 7d 77 3e 3f c1 c6 4e be 96 6d 4b 3e 72 1b 32 bf
       0.74401075 -0.20193006 0.19866022 -0.6957313
000090 6a 26 84 3c 2d 7f 3f 3f d9 36 15 3f 67 67 0d bf
       0.016131599 0.7480343 0.58286816 -0.55235904
0000a0 e7 af d7 bd d3 4b e5 3e 87 df a3 bf a9 5c 89 3d
       -0.105315976 0.44784412 -1.280259 0.06707127
0000b0 66 9d 31 bf e4 3c cc 3f 04 fc 5a bf 1a ec ba be
       -0.69380796 1.5956082 -0.85540795 -0.36508256
0000c0 ec 9d 4f 3f 1f 25 0c bf 29 e0 58 bf 97 14 96 3f
       0.81100345 -0.5474414 -0.8471704 1.1725034
0000d0 20 ce b3 be 52 6a a3 bf 2f a6 47 3f da 5a 4e 3f
       -0.35118198 -1.2766821 0.7798795 0.8060738
0000e0 13 52 1c 3f a5 30 a1 3f 5e 26 99 bf c8 d3 56 3e
       0.61062735 1.259297 -1.1964834 0.20979226
0000f0 f9 a5 84 3f e4 b7 ee be 98 77 b2 3e d9 0e d8 be
       1.0363151 -0.46624672 0.34856868 -0.42198828
000100 22 b0 f8 3e cc 55 04 be 82 73 e4 bf fa a1 9a be
       0.4857188 -0.12923354 -1.784775 -0.30201703
000110 72 a3 32 3e 93 df 58 3f 6c 4d 6d bd 92 ac 02 3f
       0.17445162 0.8471615 -0.057935163 0.5104457
000120 24 d8 7b 3d 0b bc e8 be f7 2f 99 bf 00 47 16 40
       0.061485425 -0.45455965 -1.1967763 2.3480835
000130 55 7c 95 3f ca d8 c4 3e 5d 1c 48 be 69 df 89 3f
       1.1678568 0.38446647 -0.1954207 1.0771304
000140 32 ac b7 be 31 7f 98 bf 0f 01 a8 bf 3e 68 ae bf
       -0.35873562 -1.1913816 -1.3125323 -1.3625562
000150 2c 1c cc bf 8b 57 9f be 66 31 a6 3e fb 0d d7 bf
       -1.5946097 -0.31121477 0.32459563 -1.6801142
000160 89 99 d4 bf 03 35 09 3f 7f 44 06 40 6d 96 99 be
       -1.6609355 0.53596514 2.0979307 -0.29997578
000170 8b ca 32 be e6 0e f9 be 97 3a 6d bf 51 25 fb 3f
       -0.17460077 -0.4864418 -0.92667526 1.9620763
000180 f3 92 3b bf 6f 6e 2a 3f 10 be 26 be 4f 6d 3d 3f
       -0.732711 0.6657476 -0.1628344 0.73994917
000190 bc ab 3c bd 46 30 36 bf f2 9e 20 3f 2c fb ef be
       -0.046062216 -0.7116741 0.6274253 -0.46871316
0001a0 aa 42 5a 3f b6 ea cc 3f 52 a1 0e bf b7 40 b8 3f
       0.8525797 1.6009128 -0.55714905 1.4394749
0001b0 82 e0 43 3e 1d 15 c3 bf 30 ff a1 3f c9 34 34 bf
       0.19128612 -1.5240818 1.2656002 -0.70393044
0001c0 91 7c 30 bf b5 08 3d 3f 75 bd 5c be ca ba 94 be
       -0.68940073 0.7384141 -0.21556647 -0.2904876
0001d0 5d ed 9d 3d d7 d7 84 3f dc 54 9f bf ef 99 bf bc
       0.07711289 1.0378369 -1.2447772 -0.023388831
0001e0 ba e6 f8 3f 62 06 e9 3e 90 45 c0 bf d3 73 07 40
       1.9445412 0.45512682 -1.5021229 2.1164443
0001f0 93 ce 1b bf 50 d0 39 3f 52 80 67 be f0 21 9a 3f
       -0.6086208 0.72583485 -0.22607544 1.2041607
000200 1f 05 ab 3e 16 bf e0 be dd 9e 75 3f 0e eb a6 bf
       0.33402345 -0.43895787 0.9594553 -1.3040483
000210 b3 41 ad 3f 24 c8 c3 3d ee 24 74 3f 08 4d 70 3f
       1.3535675 0.09559658 0.9536885 0.9386754
000220 dc 5f bf be a4 79 ba 3e b2 93 80 3e be 75 c8 3f
       -0.37377822 0.3642093 0.25112683 1.5660932
000230 4a 8e 1b 3f 96 c2 89 bf 47 b4 94 bf b6 43 b2 3f
       0.6076399 -1.0762508 -1.1617516 1.3926914
000240 33 a8 b6 3f 97 0c 16 bf 2f c1 73 bf 46 fa 13 40
       1.427008 -0.5861296 -0.9521665 2.3121505
000250 ca 54 d9 bf ff f9 c6 bd 16 99 9f 3d b3 d2 8a 3d
       -1.6979 -0.09715652 0.07792871 0.06778469
000260 bd 38 f0 be f8 e4 7d be 0e bd 95 bf 29 be de be
       -0.46918288 -0.24794376 -1.169832 -0.43504456
000270 97 09 ab 3f 38 61 33 be f0 ac 26 be 1f c8 f5 3d
       1.3362302 -0.17517555 -0.16276908 0.12001061
000280 28 69 1a bf d3 6a a3 bf 37 67 ef 3f a9 39 d3 3e
       -0.60316706 -1.2766975 1.8703374 0.4125493
000290 bc 1a 51 bf b5 52 a3 3d 2e cc e6 3c a7 47 30 bd
       -0.8168142 0.079747595 0.028173532 -0.043037083
0002a0 15 ab 1a bf 5d 1f f5 be d3 e4 39 3f 65 af d5 3f
       -0.604173 -0.4787549 0.72614783 1.6694151
0002b0 33 57 1b 3f 09 75 a3 bd dd 80 6b be de 36 25 3e
       0.6067993 -0.07981307 -0.22998376 0.16134211
0002c0 ec 77 25 bf 8f 81 b2 3e 0a 5a cb 3f 3c c2 76 bc
       -0.6463611 0.3486447 1.5886853 -0.0150609575
0002d0 3f 8a 71 3f 29 66 04 40 eb f2 ba be 64 31 52 bf
       0.9435157 2.0687354 -0.36513457 -0.82106614
0002e0 35 1a 3b bf f4 f7 0f c0 b6 1a 0e be 1c 40 10 3f
       -0.73086864 -2.2495089 -0.13877377 0.56347823
0002f0 c6 3e 5a bf 3b 1f 82 bd 4b db b5 bd e1 f9 fa 3d
       -0.85252035 -0.06353613 -0.088797174 0.12254692
000300 bb ee 55 3f 22 6a 7d bf 6a 5d 8d 3f bc 7e 0e c0
       0.835674 -0.9899007 1.1044133 -2.2264853
000310 9e b5 f3 3f 20 b9 ad 3f 1c 12 b1 3f 30 63 db be
       1.90398 1.3572121 1.3833652 -0.42849112
000320 82 be 88 be 5a a1 d7 be 65 eb 03 3f 59 91 9d be
       -0.26707846 -0.4211529 0.5153106 -0.30774954
000330 be 9c 7f bf e9 0c 3e 3f c7 8e 54 bf 1b b2 94 3d
       -0.99848545 0.7423845 -0.8303036 0.072605334
000340 d7 c2 0b be 6d 15 36 3f 35 79 d7 bf 45 a6 04 3f
       -0.13648544 0.71126443 -1.6833864 0.5181621
000350 1f cd 75 be 4a c4 77 be 3e f9 17 bc a0 d6 51 3f
       -0.24004029 -0.24195972 -0.009275733 0.81968117
000360 41 4d 9c 3f 38 01 1d bf 6a 77 99 be ce 84 e0 3e
       1.2211076 -0.61329985 -0.29973918 0.43851322
000370 3a 78 07 bf ee ff 20 be c7 8f 62 3f 50 80 a0 be
       -0.52917826 -0.1572263 0.88500637 -0.31347895
000380 be f0 63 3e 0e 80 2b 3f 87 a4 1b 3f ec f1 00 3f
       0.22259805 0.6699227 0.60797924 0.50369143
000390 39 51 9f 3f 8d 7a 84 bf fd 08 84 be 76 ec 67 be
       1.2446662 -1.03499 -0.25788108 -0.22648796
0003a0 0e 0d 4e 3f ab 77 36 bf 55 5e a8 3f af 3e 67 3f
       0.8048867 -0.7127635 1.3153788 0.9033002
0003b0 03 2c 26 3f 6a 2e 95 bf 91 26 13 bf 00 48 8c 3f
       0.64910907 -1.165479 -0.5748072 1.0959473
0003c0 92 e7 b2 3e d6 42 27 3f 2c d5 48 3f c0 89 cd 3f
       0.349423 0.6533636 0.78450274 1.6057663
0003d0 91 e2 f6 3f 15 d2 61 bd 24 9a 8f bf 26 f5 03 bf
       1.9287893 -0.05513199 -1.1218915 -0.5154594
0003e0 e5 d5 6d 3f b0 0f 95 3f 64 96 00 bf 5f 2e 95 3f
       0.929045 1.1645412 -0.5022948 1.1654776
0003f0 0b 5f 84 3d 01 90 0e be d4 2a d7 bd 1c 10 25 be
       0.064634405 -0.1392212 -0.10506216 -0.16119426

decoder_embedding.weight f4 [45, 32]
000000 16 8b a5 bf f0 78 f1 3f 77 6d 10 bf 51 09 19 bf
       -1.2933071 1.8865032 -0.5641703 -0.5977984
000010 25 68 ab 3e 91 b8 aa bf a1 8a ff 3e 20 39 a3 bf
       0.33477893 -1.3337575 0.49910453 -1.2751808
000020 a2 d0 86 3f ef 72 93 3e fd 93 26 bf 06 17 3e 3e
       1.053242 0.28798625 -0.6506956 0.1856347
000030 ca 72 db bf 8f 32 df be dc 04 38 bf cb 32 ca bf
       -1.7144406 -0.4359326 -0.71882415 -1.5796751
000040 61 e7 9b 3f 0c 7a 69 3e 50 52 19 3f ab cb 91 bf
       1.2179986 0.22800463 0.59891224 -1.139028
000050 f3 aa de bf ca a7 75 3f d4 e0 0d 3d fe 4c b5 3e
       -1.739592 0.9595915 0.03463824 0.35410303
000060 c2 36 a6 be 56 4b c4 3f 51 63 79 3f 6b 18 b0 bf
       -0.32463652 1.5335491 0.9741717 -1.3757452
000070 0e 15 35 bf 02 a9 a8 be 86 51 ed 3e e7 82 df bc
       -0.7073525 -0.32941443 0.4635126 -0.027284099
000080 c2 14 9b bf c2 6a b6 be 43 b1 11 40 1c 39 1c 3e
       -1.211571 -0.35628325 2.2764442 0.1525616
000090 ee 1d 57 bf 25 00 66 3d 65 7c 24 c0 b0 2d 94 be
       -0.84030044 0.05615248 -2.5700924 -0.28941107
0000a0 e7 8f 03 3f 42 69 3c 3f 62 c8 5b 3f cf 6c 98 bf
       0.5139145 0.7359811 0.85852635 -1.1908206
0000b0 b3 85 39 bf d7 83 2e 3e 45 9d 2b 3f 75 34 8d bf
       -0.72469634 0.1704248 0.6703685 -1.1031634
0000c0 9d f9 c4 3c 62 7c a1 bf c2 49 c5 bf 04 38 e5 3f
       0.024044806 -1.2616084 -1.5413134 1.790772
0000d0 b7 47 48 bf b2 48 10 bf 89 cf a2 bf 1d 8c 7e bf
       -0.7823443 -0.56360924 -1.2719585 -0.99432546
0000e0 49 86 6d bf 3a 78 22 be 66 fc 95 3e a9 59 3e 3f
       -0.9278303 -0.15866175 0.29294127 0.7435556
0000f0 6e 43 0c bf 76 1d a4 be 77 2a a7 3e be 03 96 bf
       -0.5479039 -0.32053727 0.32649586 -1.1719892
000100 59 9e 36 3f 29 1e 0f 40 68 63 c2 bf 53 74 0b 3f
       0.7133537 2.2362158 -1.5186586 0.5447437
000110 c2 11 70 3f bc 4b 69 bf 4e b0 5d 3f f8 0b 16 3f
       0.93777096 -0.91131186 0.86597145 0.5861201
000120 b2 4d 79 bf 74 57 06 3e 40 19 88 be ba 4d 61 3f
       -0.9738418 0.13119298 -0.26581764 0.88009226
000130 5a 47 2d 3f f5 c0 79 3e 82 f9 8b bf 05 ba 37 40
       0.67687 0.24390014 -1.0935519 2.8707287
000140 52 c9 57 be e8 f0 36 3e fe e1 35 3f 24 44 0d bf
       -0.21072891 0.17865336 0.7104796 -0.551821
000150 91 12 9b bf 9e 71 0d 3f ca 38 18 bf 7c 3f e1 bf
       -1.2115041 0.5525149 -0.59461653 -1.7597499
000160 56 0a 18 3f 87 d2 64 bf fb 37 85 be fc 85 92 3d
       0.5939077 -0.8938374 -0.26019272 0.07154462
000170 3e 31 68 c0 8e 39 27 bf 4e 0c 34 3f cf d0 e5 3e
       -3.6280055 -0.65322196 0.70331275 0.4488587
000180 1a 29 1c 3f bd 1f 87 be 61 b8 ee bf 1b 12 e6 3d
       0.61000216 -0.26391402 -1.8650018 0.11233922
000190 12 08 5f be c7 75 27 bf 87 e5 17 3f 67 92 45 3f
       -0.21780422 -0.6541409 0.59334606 0.7717652
0001a0 36 1f f0 bd 12 3a b5 3e c0 6a b7 bf 91 24 89 bf
       -0.11724703 0.35395867 -1.4329453 -1.0714284
0001b0 7c 14 16 3f 4b 56 1b bf b6 c5 b6 bf 9b 87 78 3f
       0.58625007 -0.6067855 -1.4279087 0.9708192
0001c0 b7 e7 87 bf d1 69 57 3f cc a7 d5 be 8b 33 a5 bd
       -1.0617589 0.8414584 -0.4172958 -0.08066472
0001d0 89 2f bb bf 34 5d 57 3f 6e cd 8b 3f 95 e9 98 3e
       -1.4623882 0.8412659 1.0922067 0.2986571
0001e0 2c 87 c4 3e 41 69 31 3c a0 6e bf bf ab 8c 38 bf
       0.38384378 0.010828317 -1.4955635 -0.7208964
0001f0 8b 3a de be c2 13 32 3f 47 36 b6 3f cb 27 9e 3e
       -0.4340404 0.695614 1.4235314 0.30889735
000200 1f ae 30 bf 90 aa d2 be 6b 4c 68 3e 34 0d 90 bf
       -0.6901569 -0.41145754 0.22685401 -1.1254029
000210 11 7b bd 3e a2 51 10 3e a2 f5 ae 3f c8 29 26 3f
       0.37007955 0.1409364 1.3668711 0.64907503
000220 13 3c a8 3d 9d f0 a7 bf a7 dd 04 3f 64 c6 e5 3d
       0.08214583 -1.3120304 0.51900715 0.11219481
000230 da 17 80 bf a0 4b 8b be 54 47 bf bf 6a cf 67 3f
       -1.0007279 -0.27206135 -1.4943643 0.90550864
000240 14 29 ab be cc 9e 14 3f 28 13 fa 3e c7 3a 36 3f
       -0.33429778 0.58054805 0.4884274 0.7118344
000250 82 21 21 3f 1c 69 8d 3e 2c 82 22 bf 89 47 b6 bf
       0.62941754 0.27619255 -0.63479877 -1.4240581
000260 77 aa 37 3f 3c 42 c1 3f 5d 1e 10 bf 3a 3c 5e be
       0.71744484 1.5098338 -0.5629633 -0.21702662
000270 7b a5 80 bd 61 53 15 3f ed 56 62 3e af 19 f3 be
       -0.06281563 0.5833035 0.22103472 -0.47480533
000280 e5 56 e4 bd 36 72 86 be 1e 2d bf 3f c2 d6 15 c0
       -0.11149386 -0.2625901 1.4935644 -2.3412328
000290 ce 19 d8 be a0 af 70 be c9 48 00 40 b1 19 76 bf
       -0.42207187 -0.23504496 2.0044425 -0.9613295
0002a0 18 f2 82 bf 07 9c 98 3e 03 f1 be be 4a 3d 12 3f
       -1.0230131 0.2980654 -0.37293252 0.5712477
0002b0 02 52 7a bf 8a 73 68 bd a4 bc 6a 3f 35 81 a9 3d
       -0.97781384 -0.05675081 0.9169409 0.082765974
0002c0 3c 93 db 3e 71 7e 76 3f 49 bb 46 bf 57 40 c4 3f
       0.42885768 0.96286684 -0.77629524 1.5332135
0002d0 f0 14 7b 3f e6 9a 5f be d3 dd b5 3e 74 a7 73 3f
       0.98078823 -0.21836433 0.355208 0.9517739
0002e0 4b c3 bb bf 8c 92 e5 3e ba 74 05 c0 a4 72 d0 3e
       -1.4668974 0.4483837 -2.0852494 0.40712464
0002f0 1a 41 09 3f 43 bd 24 bf d1 c4 5a 3f 3d 9c 04 3e
       0.5361496 -0.6435129 0.8545657 0.12950225
000300 8e bb 0f bf d9 56 07 be 31 39 9f 3d 81 7f 71 bd
       -0.5614556 -0.13216724 0.0777458 -0.058959488
000310 97 a4 98 bf 93 9a 13 3f 61 b1 43 bf 95 87 2e bf
       -1.1925229 0.57657737 -0.76442534 -0.6817563
000320 39 47 7b bf df 62 1c be e0 9e f7 3e 2b 43 7e bd
       -0.9815555 -0.15272091 0.483634 -0.062075775
000330 05 b6 bf 3f b0 fd 61 3d 01 7f 13 bf 77 12 56 3c
       1.4977423 0.055173576 -0.5761567 0.013065926
000340 bd ee ee bb c0 63 70 bf 39 b1 97 bf 12 da cd bf
       -0.0072916434 -0.93902206 -1.1850959 -1.6082175
000350 3c 29 18 bf b1 29 52 3f 2e c5 10 3f a5 9d 50 bf
       -0.5943792 0.82094866 0.5655087 -0.81490546
000360 74 4f d4 3e f4 d0 6d bd 94 e8 49 3e 13 5f 0c bd
       0.41466868 -0.0580606 0.19717628 -0.034270357
000370 71 d5 14 bf 34 89 2a bf 3f 20 02 bf 66 1e d2 be
       -0.58138186 -0.66615605 -0.50830454 -0.41038817
000380 46 a4 13 3f 73 72 c8 bd 4d 97 4d 3f 89 98 79 bf
       0.57672536 -0.097874545 0.8030899 -0.97498375
000390 ba 2e 04 bd 9d bf 73 3e dd 66 dc 3e 43 35 81 3f
       -0.032271124 0.23803563 0.43047228 1.0094379
0003a0 20 32 44 3f 6a 06 e1 bd 0a 35 3a 3f be fd cf be
       0.76638985 -0.109875515 0.7273718 -0.40623277
0003b0 b1 3a aa be 10 a1 bc 3d 48 8b 9d 3e 59 f5 43 bf
       -0.33247903 0.09210408 0.30770326 -0.76546246
0003c0 59 a4 15 3e 73 1d 40 3f 16 6b 21 bf b7 9d 2d bd
       0.14613475 0.75044936 -0.63054025 -0.042386737
0003d0 61 fd 8e 3f e8 76 5c 3f 5c 6d 30 bf 57 3d 2f 3f
       1.1171075 0.86118937 -0.6891687 0.6845297
0003e0 cd c3 27 bf d3 3c 68 3f d1 cb 95 bf 9b db f6 be
       -0.65533143 0.9071781 -1.1702825 -0.4821442
0003f0 c0 ca 79 bf 2e 0a ec be ba 5c e9 bf 67 f6 a0 3e
       -0.97574997 -0.46101516 -1.8231423 0.3143799

encoder_pos_embedding.weight f4 [8, 32]
000000 c3 57 1f 3f 5e 3a bf bd c1 0a 94 3f 2c 21 1d 3d
       0.6224329 -0.093373045 1.1565782 0.038361713
000010 71 82 95 be 3c 26 b4 bf db c1 97 bf 31 b6 28 bf
       -0.2920108 -1.4074168 -1.1856035 -0.65903
000020 13 62 3f be 4f d6 73 3f 95 18 88 3f d5 5f d9 be
       -0.18689756 0.95248884 1.0632502 -0.42455927
000030 70 e6 02 bf 8c 4f f7 be ed c2 fa be 45 0b 34 3f
       -0.5113287 -0.48302877 -0.48976842 0.70329696
000040 8d 18 d3 3e c1 3e 4b 3d ac 7f ab be 50 1f 73 bf
       0.41229668 0.049620394 -0.33495843 -0.94969654
000050 b0 01 63 be 42 13 d7 3e b2 e2 f8 be 6f 82 c4 bf
       -0.22168612 0.4200688 -0.48610455 -1.5352305
000060 f3 7c 96 bf ab a5 21 bf d4 cf 53 3f 36 6a 81 3d
       -1.1756881 -0.63143414 0.82738996 0.06319086
000070 4d 43 09 3f 3c 62 a1 be 09 b3 94 bf f8 f8 5e be
       0.5361832 -0.3152026 -1.1617137 -0.21774662
000080 4d a6 01 3f 4e ee bf 3e a4 c6 4c bf 2c f9 4e 3f
       0.5064438 0.374865 -0.799906 0.80848956
000090 44 38 c6 3d de 2c 1b bd 9f d9 30 3e 11 3b bd bf
       0.096787006 -0.037884586 0.17270516 -1.4783651
0000a0 11 fe da bf 31 88 51 bf 5f 18 25 3f 17 5c 67 3c
       -1.7108785 -0.81848437 0.6449031 0.014121077
0000b0 e9 f6 32 be 55 77 44 bf a6 b5 c2 3e 25 d1 22 bf
       -0.17477001 -0.76744586 0.38029212 -0.6360038
0000c0 74 c5 a5 3e 68 1e ab bd c3 12 9c 3f fd ff 53 3d
       0.32377207 -0.08355409 1.2193226 0.0517578
0000d0 ff 7b 39 bf 08 93 39 3f 8c 96 81 3e a5 0d a9 3e
       -0.7245483 0.72489977 0.2531017 0.33018222
0000e0 f7 f6 2c 40 d0 72 76 be 9c a8 f5 be 79 fa cc 3f
       2.7025735 -0.24067235 -0.479802 1.6013938
0000f0 51 b1 b9 3e 69 ab 35 3e 5d fc 88 be 54 0e 86 3f
       0.36268094 0.17741169 -0.26755038 1.0473123
000100 43 36 c8 be da 12 f9 3f 80 35 87 bf 7b 9c 68 3e
       -0.39103898 1.9458878 -1.0563202 0.22715943
000110 30 f4 a8 be f2 7d ae 3f f2 18 07 3e 85 18 1f 3f
       -0.329988 1.3632185 0.1319311 0.6214679
000120 16 7b 83 3f c4 cb cc 3f 2f ed 80 3e 68 58 b7 3e
       1.0271938 1.5999684 0.25180957 0.35809636
000130 83 2d 31 bf 74 5b 53 bf c3 37 3e bf c9 9d 47 be
       -0.6921007 -0.8256142 -0.74303836 -0.19493784
000140 bd 84 00 3f 93 0c 24 bf dd 60 07 bf 71 81 ef be
       0.5020254 -0.64081687 -0.52882177 -0.46778443
000150 07 b8 5c 3f 0c 09 31 3f 96 f0 e0 3e e3 71 68 bf
       0.86218303 0.6915443 0.43933553 -0.9079878
000160 e1 ac fa 3e c5 0d 3d bf 48 1f ff 3d e2 d1 eb bf
       0.4896002 -0.73849136 0.12457138 -1.8423426
000170 b3 94 dc 3d e4 52 95 3e a2 cd 3c bd 95 ba 01 40
       0.107705496 0.29164803 -0.046094544 2.027013
000180 46 83 cf bf f4 d2 13 bf 14 ad 97 3f e1 07 2b bf
       -1.6211936 -0.57743764 1.1849694 -0.668089
000190 4a ff 83 be 1d ff 8d 3f 71 a7 92 3f ca 1f 83 bf
       -0.25780708 1.1093479 1.1457349 -1.0244076
0001a0 16 7c a7 3e d1 bb 20 c0 6b 2e 6c 3f 47 6c cb bf
       0.32711858 -2.5114634 0.9225833 -1.5892419
0001b0 5f dc 29 bf 8a fd dd bf 05 2e 2d 3e 86 e1 00 bf
       -0.66351885 -1.7342999 0.16912086 -0.5034412
0001c0 55 fb dc 3e e4 f2 7f bc 09 5b bd 3e ec c6 0d 3e
       0.431605 -0.0156218745 0.36983517 0.13845414
0001d0 30 1a a0 be 82 ef 89 3d e4 24 e4 3e b0 de 83 3f
       -0.3126998 0.067351356 0.44559395 1.0302334
0001e0 e9 cc 00 c0 d7 5c e9 3f 31 80 46 bf d9 c2 70 bf
       -2.0125067 1.8231457 -0.77539355 -0.94047314
0001f0 ae b5 ea 3f 22 18 d9 3d 3a b8 67 be 9f 28 33 bf
       1.8336694 0.10600306 -0.2262887 -0.6998386
000200 c1 79 0e be 3d d1 ce 3f 12 27 a7 bf 6a 93 82 bf
       -0.13913633 1.6157604 -1.3058798 -1.0201237
000210 5b c0 03 bf 1f 4a 26 3f f4 12 b6 bf b7 61 1f 3f
       -0.51465386 0.6495685 -1.4224534 0.62258476
000220 51 fa 04 3e ed 27 6e 3e 69 6f f9 3e 1d bf 70 bf
       0.12986113 0.23257418 0.48717812 -0.94041616
000230 0e 7a dd 3d 1d 1c 7b 3e ca 8c 8b 3e 9a 96 c0 bf
       0.10814296 0.24522443 0.2725585 -1.504596
000240 2c 3b af be d8 bd 21 3f 01 05 ad bf e9 82 7d bf
       -0.34224832 0.63180304 -1.3517152 -0.9902788
000250 ca 69 67 bf 6c 3f e0 bd 83 99 9d be c1 ba 2d 3e
       -0.90395796 -0.10949597 -0.30781183 0.16965772
000260 36 1f a6 bf fc 38 38 3d 59 06 be 3e d0 94 1a 40
       -1.2978275 0.04497622 0.37114218 2.4153328
000270 5e 01 a6 3f ba 7f b0 3f 7b d1 37 3f 65 14 24 3f
       1.2969167 1.3788979 0.71804017 0.6409362
000280 ef 5e 20 be 2a 9b c3 3f 42 51 7f 3f e3 00 c4 bd
       -0.15661214 1.5281727 0.99733365 -0.09570482
000290 73 f3 33 3f 71 4e 56 be 26 0c 30 3e 07 e9 99 bf
       0.7029335 -0.2092836 0.17192134 -1.2024239
0002a0 1d 77 f3 3e 25 bc 07 c0 f6 40 8e bc 01 9c 1a 3e
       0.47551814 -2.1208584 -0.01736496 0.15098573
0002b0 5b 87 e7 bf 41 d2 85 3e 67 a4 44 bf 26 f5 e0 be
       -1.8088182 0.26136974 -0.7681336 -0.43937033
0002c0 bb ff 7b 3e 77 75 ef 3e 72 06 53 3d e7 5f 25 bf
       0.24609272 0.46769306 0.05151982 -0.6459946
0002d0 cb 43 b5 be ca 71 41 3e 4b f2 13 3e 5f 79 e0 bf
       -0.35403284 0.18891063 0.14447896 -1.753704
0002e0 57 a5 6b bf e3 c1 21 bf 94 89 8c bf 3f bb 8c 3f
       -0.92049164 -0.6318647 -1.0979486 1.0994643
0002f0 08 44 56 bf 5f ae 37 bf 0b fc 04 40 3f 10 5a 3f
       -0.8369756 -0.71750444 2.0778835 0.8518104
000300 47 ec fe bd f5 04 3b bf ec 14 38 bf 30 40 fe 3d
       -0.1244741 -0.7305444 -0.71906924 0.124145865
000310 ca 5c 37 3f e6 9e 76 3f 1b 23 7f bf d6 00 96 3f
       0.7162596 0.9633621 -0.9966294 1.1719005
000320 db 3b 13 be 1b da a1 bd 08 6e 95 be d6 11 11 bf
       -0.14378302 -0.079029284 -0.2918551 -0.5666784
000330 67 fd fc 3e f7 f4 83 3f 77 c6 3b 3e f5 7f 49 bf
       0.4941208 1.0309132 0.18337427 -0.7871087
000340 78 84 09 3f 8e cf c4 be 47 b8 2d 3f f0 cb 58 3f
       0.53717756 -0.38439602 0.6785931 0.84686184
000350 db 6f fb 3e 83 0d c4 3f 6f 03 75 bf f3 1f 16 3d
       0.49108776 1.5316623 -0.95708364 0.036651563
000360 d6 d7 2a 3f 50 98 11 bf fc d7 38 3e 8f aa 10 3f
       0.6673559 -0.56873035 0.18051142 0.5651025
000370 c9 f7 b2 3e dc 26 c8 be 2d 67 00 c0 a2 7b 07 40
       0.3495467 -0.39092147 -2.0062973 2.116921
000380 ea 46 18 40 5a 41 e2 3d 4a 99 08 be 5d a9 e0 3e
       2.3793283 0.11047621 -0.13339725 0.43879214
000390 8b cb 21 3e c8 a2 ce 3f 06 02 fd 3c 46 21 2b bd
       0.15800302 1.6143427 0.030884754 -0.04177978
0003a0 fb 3a c1 bc 4a 92 d5 be a8 e6 ee bd d7 54 a3 bf
       -0.023587694 -0.41713172 -0.11665088 -1.2760266
0003b0 b7 7a dc 3e b2 6f d1 be c2 b6 9f bd ae 28 93 be
       0.43062374 -0.4090553 -0.0779853 -0.28741974
0003c0 4a 33 1a bf 14 15 62 3d 81 b4 b4 3f e6 b1 c7 be
       -0.6023451 0.055195883 1.4117585 -0.39002913
0003d0 f1 0a 3b bf 7f d1 86 bf b0 49 65 3f 2c 38 14 bf
       -0.7306357 -1.0532683 0.89565563 -0.5789821
0003e0 70 c3 9b 3d f5 a4 56 3f 19 a6 97 3f 69 cb 63 be
       0.07605636 0.83845454 1.1847564 -0.22245564
0003f0 d2 f7 4c bf 22 0b 7d bf 70 e0 62 bf 32 e1 9c 3a
       -0.80065644 -0.9884511 -0.88623714 0.0011968969

decoder_pos_embedding.weight f4 [8, 32]
000000 a5 03 dc bd d1 a9 ae 3e 34 78 86 be 0b 3c 5e bd
       -0.10742883 0.34113935 -0.26263583 -0.05425648
000010 08 bc 0a be 92 63 49 bf db f0 85 bf fc 70 c2 bf
       -0.1354829 -0.7866756 -1.0464128 -1.519073
000020 e8 89 89 3e 28 0e cd bf 7a 2f fc be fa 39 b6 3f
       0.26863027 -1.6019945 -0.49254972 1.4236443
000030 79 a6 21 bf 88 27 ac 3f ce 9b 15 3f 17 00 06 40
       -0.6314464 1.3449564 0.58440864 2.0937555
000040 b1 f4 e1 3e 6c 95 bd bf 9f f9 d3 3f 8d e3 8c 3f
       0.44131997 -1.4811225 1.6560553 1.1006943
000050 5b af b8 3f 79 90 90 3e c4 68 2c bf eb 3d 02 bd
       1.4428514 0.28235224 -0.6734736 -0.03179733
000060 cf 62 28 3f 69 0a 24 bf f2 b8 36 bf e2 63 c7 3b
       0.6577577 -0.64078385 -0.71375954 0.006084905
000070 ff 7f af 3e 21 8e e7 bc 30 40 bb 3e 89 2d 85 3e
       0.3427734 -0.028266015 0.3657241 0.26011303
000080 b4 df 7a 3e 8b f8 48 3f 5c 4c f5 bf 99 0f af 3f
       0.24499398 0.78504246 -1.9163928 1.3676635
000090 00 43 6b 3f cd 02 21 3f 34 ba 04 40 cb 62 2d 40
       0.9189911 0.628949 2.073865 2.7091548
0000a0 b2 9d a5 bf bf b5 06 c0 ab 2f 46 3f d5 de 39 3f
       -1.293875 -2.104843 0.77416486 0.7260564
0000b0 35 57 0c 3e b1 dd 17 40 95 ff 6e bf 0a 4c ac bf
       0.13705142 2.372906 -0.9335874 -1.3460705
0000c0 e9 3f 03 40 c8 e4 bf ba f0 e7 d6 3f 5a 62 a6 be
       2.0507758 -0.0014640326 1.6789532 -0.3249691
0000d0 d1 41 c8 3d cf 9d e6 bf 9e 42 cb bf 49 d6 5a 3f
       0.097781785 -1.8016909 -1.5879705 0.85483223
0000e0 fd e6 4d 3f a8 db fb bc 28 cb 5d bc 85 04 99 bf
       0.80430585 -0.030744389 -0.013537206 -1.1954504
0000f0 14 0b 48 40 8d 10 c5 3f e0 f4 57 3f a3 2b 30 3f
       3.1256762 1.5395676 0.84358025 0.68816584
000100 f9 5b 67 be cc 79 b5 bf 17 40 ea bf e6 86 5f 3f
       -0.22593679 -1.4177794 -1.8300809 0.87315214
000110 95 de 48 3e b0 93 17 bf fd 4b cf 3f 63 f0 82 be
       0.19616158 -0.5920973 1.6195065 -0.25574026
000120 a7 35 a1 bf ca e8 2f bf 85 57 71 bf 6a 40 46 3f
       -1.2594498 -0.6871458 -0.9427417 0.7744204
000130 84 1d 4e 3d 49 da 1c 3f 41 50 7a bf 3a 0e 91 bf
       0.050321117 0.61270577 -0.9777871 -1.1332467
000140 28 6a 34 c0 27 09 25 bc 4b 0e df 3e 28 70 50 3f
       -2.8189793 -0.010072983 0.43565592 0.81421137
000150 ba d3 b7 3f f5 1d 00 40 9b 00 23 3f ba 75 83 3f
       1.4361489 2.0018284 0.636728 1.0270302
000160 82 f6 86 bf be b2 90 3f e0 5b b1 bf 30 12 ae 3f
       -1.0543978 1.1304548 -1.3856163 1.35993
000170 1e d7 d7 bf a0 16 e4 3f ba 71 66 bf 43 c3 51 3f
       -1.6862524 1.7819405 -0.9001728 0.8193857
000180 af a5 58 bf 93 4b 4a 3f 8e 7f 00 be a2 48 f4 be
       -0.84627813 0.7902157 -0.12548658 -0.47711664
000190 02 b1 1f 3f a8 16 2a be cf 64 2f 40 5e 7c b0 bf
       0.6237947 -0.16610205 2.7405279 -1.3787954
0001a0 99 97 be 3f 23 f3 00 40 7c 07 d1 3f 8f 3e a1 bf
       1.4890014 2.01484 1.6330409 -1.2597216
0001b0 03 d2 18 be 85 9c b1 bf 7c 16 f5 be 21 39 e7 3f
       -0.14923863 -1.3875891 -0.47868717 1.8064309
0001c0 6d e4 6c bf cd 56 f8 bf 7b 25 83 bf fe 7f 4a bf
       -0.9253605 -1.940149 -1.0245813 -0.7910155
0001d0 61 70 89 bf 55 28 86 3f a2 46 82 3d 0a f7 02 3f
       -1.073742 1.0481058 0.063611284 0.511582
0001e0 6e af b7 bf a1 fc 93 3e d4 e4 db be c3 18 ee bf
       -1.4350412 0.28903678 -0.4294802 -1.8601307
0001f0 2e 9b 95 3f 15 3a e1 bf a9 ae 9b be 86 5d 2c 3f
       1.1687982 -1.759585 -0.30406693 0.67330205
000200 0d d6 9c bf 51 4f 77 3d b0 82 02 c0 9a 14 db 3d
       -1.2252823 0.060378376 -2.0392265 0.10697289
000210 37 65 49 bf b7 d4 9c be 9c 6d 83 3e 2c b3 ab be
       -0.78670067 -0.3063104 0.25669563 -0.33535135
000220 43 5d b9 3f a0 86 ab 3e 72 22 26 c0 f4 3a c2 3f
       1.4481586 0.33501148 -2.5958524 1.5174241
000230 57 0f 5a be b2 c1 9c 3f 15 4a 4a bf e0 c9 12 bf
       -0.21294914 1.2246611 -0.7901929 -0.57339287
000240 86 26 21 3f c2 aa 8f bf f7 f1 d5 3e 1a ce 99 3e
       0.6294941 -1.1223986 0.41786167 0.30040056
000250 c0 24 59 bf 75 85 a3 3e e3 d4 1e be 3b 91 a2 bf
       -0.848217 0.31937757 -0.15510897 -1.2700571
000260 63 14 f3 3e 2f 89 b1 be 72 a7 34 3f c9 fb f5 3d
       0.4747649 -0.34674975 0.70568 0.12010915
000270 98 7c 87 bf cc 68 7b 3f 2f 5b c7 3e 5c 25 6d 3e
       -1.0584898 0.9820678 0.38936755 0.23158783
000280 fc 0b 2a 3e 4f 6d 45 bf db c6 b3 3e e4 e4 6c 3f
       0.16606134 -0.77119917 0.35112652 0.9253676
000290 14 4d 45 3f 64 1d d3 be 1e 9c b1 bf a8 22 1c 3f
       0.77070737 -0.4123336 -1.3875768 0.6099038
0002a0 99 4c ab bf e7 81 cd 3f 40 8e 9d 3e 97 cd 4b bf
       -1.3382751 1.6055268 0.3077259 -0.7961058
0002b0 7c 58 87 3f b5 ac 2e 3f ee c3 2d 3f 8b 43 0d 3f
       1.0573878 0.6823228 0.6787709 0.5518119
0002c0 3f ed 6f 3f 39 71 d7 bf 60 e4 5d 3f 2f 67 41 bf
       0.93721384 -1.6831428 0.866766 -0.7554807
0002d0 0d ce 28 3f ca 27 7b be 9f e4 c5 3f 6a 70 0f c0
       0.6593941 -0.24526897 1.5460395 -2.2412362
0002e0 52 83 aa 3f 67 83 96 3e ba 38 29 3f 14 6e e5 bf
       1.3321326 0.29397127 0.6610218 -1.7924218
0002f0 f0 fb 0e c0 6c aa 26 be 66 b4 b1 be 6b c8 a4 3e
       -2.234127 -0.16275948 -0.34707946 0.32184157
000300 1f fa 2b 3e bf 57 a9 3d df 15 9c be 09 27 01 bf
       0.16794632 0.08268689 -0.30485436 -0.5045019
000310 3d 32 d6 bf 8a c2 55 be ae e8 0d 3f 43 91 7a 3e
       -1.6734082 -0.20874992 0.55433166 0.24469475
000320 e0 3a a5 3f 4b e4 db 3f 86 0c 7a bf 33 c5 91 bf
       1.2908592 1.7179044 -0.9767536 -1.1388305
000330 fd 01 e6 be ee 2b 26 40 26 4a 41 bd 50 e5 cf bf
       -0.44923392 2.5964313 -0.047189854 -1.6241856
000340 33 62 10 be 30 30 d9 bf f1 94 c2 be 49 57 ac 3f
       -0.1409996 -1.6967831 -0.38004258 1.3464137
000350 b8 eb 73 be 73 0e 63 bf 36 d8 1f bf 6f ed 02 3f
       -0.23820388 -0.8869392 -0.62439287 0.51143545
000360 4b 37 fa bf fa 0f 1f bf e7 17 81 3f f5 c7 4f bf
       -1.9548124 -0.62133753 1.008542 -0.81164485
000370 0b 0e 81 bf 8a 2c 6c 3f 0f f4 c1 bf da 23 a8 bf
       -1.008241 0.9225546 -1.5152606 -1.3135941
000380 68 0e 91 bf dd 19 53 3f 7f 85 a6 3f 91 01 f5 bf
       -1.1332521 0.8246134 1.300949 -1.9141103
000390 9f 37 be be 7b ec 76 3f 1d 7a 17 3f 0f 21 b6 be
       -0.3715181 0.9645459 0.59170705 -0.35572097
0003a0 1b ec ec 3e 18 7a be be 8b 57 bc bf 1f 57 9d 3e
       0.46273884 -0.37202525 -1.4714216 0.3073053
0003b0 83 8e b5 bf 2a a6 a0 3f 09 06 85 be c7 47 4e bf
       -1.4184116 1.2550709 -0.25981167 -0.80578274
0003c0 16 80 ae 3e f4 25 d3 be 43 72 9f 3e 62 81 80 3f
       0.34082097 -0.41239893 0.31141862 1.0039485
0003d0 e2 3c c6 be 14 99 41 3e 0d d0 42 3f 4f b3 f2 3d
       -0.38718325 0.18906051 0.7609871 0.11850607
0003e0 bf bb 9d 3f cf c1 25 c0 09 d3 b0 bf 3d c1 85 bf
       1.232292 -2.5899541 -1.3814403 -1.0449597
0003f0 22 e7 14 3f 35 2c 6a bf 1a 2f 9f 3e 10 5b e6 bf
       0.5816518 -0.91473705 0.31090623 -1.799654

transformer.encoder.layers.0.self_attn.in_proj_weight f4 [96, 32]
000000 72 e2 9c bd b7 b2 83 be ce 51 91 3d 31 55 a5 3d
       -0.076603785 -0.25722286 0.07095681 0.080728896
000010 9c 4e 07 3e 55 c2 83 3e 9f 1f 0a be 60 40 b7 bd
       0.13213581 0.257342 -0.13488625 -0.089478254
000020 c9 96 d2 3d ca 95 8c 3d 26 35 7d 3e 72 f9 88 3d
       0.10282666 0.068645075 0.24727306 0.06688203
000030 38 99 eb 3c 93 22 01 be 7e e9 20 3e bd 93 ec 3c
       0.028759584 -0.12610845 0.1571407 0.02887904
000040 f9 a3 02 bd f2 00 f1 3d b1 f9 06 bd 91 74 21 be
       -0.031894658 0.117677584 -0.032952968 -0.15767123
000050 ca 59 71 bd c9 47 2f 3e ed 26 3b bd 75 9c 0f be
       -0.05892352 0.17117228 -0.04569142 -0.14024527
000060 f7 20 a9 3c 45 5b ca bd 22 2a 85 be 4d 49 4f be
       0.020645602 -0.098806895 -0.26008707 -0.20242806
000070 d3 ba 85 3d dd a1 af 3b c0 83 e9 3d 57 65 24 bd
       0.065297745 0.005359872 0.114020824 -0.040135708
000080 85 2e 93 3c 5d ab 25 3e c9 e2 80 3d 66 03 88 bd
       0.017966518 0.16178651 0.06293256 -0.06641273
000090 43 79 d7 3d 69 7d 5e bc 47 9a 23 bd 27 44 41 3e
       0.10521176 -0.013579705 -0.039942052 0.18873654
0000a0 b6 c2 4d 3e f6 dd 3c 3e d5 25 45 3d 4c e6 78 bd
       0.20093808 0.18444046 0.048131783 -0.060766503
0000b0 48 b6 06 be f7 5d 38 3e 2f 5b 7d 3d 3e 91 db 3c
       -0.13155472 0.18004595 0.061854538 0.026802655
0000c0 d6 97 00 be fa 53 06 be 6a 1b 0d 3e 84 6a 78 3e
       -0.12557921 -0.13117972 0.13779989 0.24259382
0000d0 b5 4a d6 bd 00 39 90 3c 97 f3 09 be bf 08 48 3d
       -0.10463468 0.017605305 -0.13471828 0.048836466
0000e0 f0 c6 2b be 8b 70 f1 bd d4 1b 28 be 96 f6 21 3d
       -0.16775107 -0.11789044 -0.16416866 0.039541803
0000f0 33 3d 93 bc 9f 64 6c 3d a6 a6 30 3e 27 05 50 bc
       -0.017973518 0.057713147 0.17251071 -0.012696541
000100 b7 a3 d1 bd fb 37 eb 3d 70 11 3c 3e d0 02 a1 bd
       -0.10236304 0.11485287 0.18366027 -0.078618646
000110 02 6d 05 bd 96 5c f2 3d bf 6e cf bd 0f b2 a4 3d
       -0.03257466 0.118340656 -0.10128545 0.080417745
000120 99 a9 15 3d ba 51 a1 bc 23 57 3a 3e d2 64 66 3d
       0.036538694 -0.01969229 0.18197303 0.056248493
000130 6e 7c f7 bd 86 57 b7 bd eb ab b5 3b 58 55 03 3e
       -0.1208428 -0.08952241 0.005544176 0.12825525
000140 f4 81 aa 3d df ea 8b bd 73 43 11 be 7a 04 9a bd
       0.08325568 -0.068319075 -0.14185886 -0.07520385
000150 bb ee 7b 3e f7 b3 b3 3d 13 43 5e 3d 53 24 11 bd
       0.24602787 0.0877456 0.054263186 -0.035435032
000160 90 a8 2b 3d 7a 47 af bd 10 e0 13 3d b6 b2 0c 3e
       0.0419088 -0.08558555 0.036102355 0.13740048
000170 b7 b8 f2 bd a7 29 45 be c6 ba 19 3d dc 6f da bd
       -0.11851638 -0.1925417 0.037531637 -0.10665867
000180 a1 44 88 3c 4a 71 57 be 37 78 18 3e 7f 86 01 be
       0.016634287 -0.2103931 0.14889608 -0.12648962
000190 44 ae 6c 3e dc ce e0 39 9f e5 86 bd d6 bf bf 3d
       0.23113352 0.00042878732 -0.065867655 0.09362762
0001a0 b8 fa 16 bd 61 e6 86 3d 5d 96 79 3e b1 37 05 be
       -0.036860198 0.0658691 0.24373765 -0.13009526
0001b0 52 96 56 3d 99 4f 20 be 8a 55 e3 3d 0c 2a 86 be
       0.05238945 -0.15655364 0.111003 -0.26203954
0001c0 ba b9 c8 bd 97 06 02 be ca f4 ed 3d 4e 6d 1a be
       -0.098010495 -0.12697826 0.116189554 -0.15080759
0001d0 1d 0e 7d 3d d2 b7 db 3c 0e 60 6e 3d d4 ff d0 ba
       0.061781038 0.02682105 0.058197074 -0.0015945383
0001e0 1e 4c e3 3c f0 74 8d 3d 03 13 26 be 0f b0 c9 bd
       0.027746256 0.0690707 -0.1621819 -0.09848034
0001f0 41 8f 4f bd fe 42 19 3d 5f 76 d8 bc 4f b8 83 bc
       -0.050673727 0.037417404 -0.026423631 -0.016079096
000200 34 1a 18 be c3 5a a1 3d 5f df 0d bd 1d 37 f9 bc
       -0.14853746 0.078786395 -0.03463685 -0.030421788
000210 c1 e3 1b bd 82 bd 30 3c 64 7e 51 be e3 f2 26 3e
       -0.038059 0.01078737 -0.2045837 0.16303591
000220 c5 2b 19 3e e0 8e e2 bd 18 8f e2 3d d0 bb 6d bc
       0.14958103 -0.110624075 0.11062449 -0.01451011
000230 2d 56 38 3d f8 1c 27 be 0e e3 15 3e 32 75 94 bd
       0.04500406 -0.16319644 0.14637396 -0.07248916
000240 23 5b bb bd ad 88 dd bd 1e ee 35 be 22 06 c6 3d
       -0.09148242 -0.108170845 -0.17766616 0.096691385
000250 d3 a4 a6 bd 98 8e 32 3d b5 cf 9c 3c 25 dc 10 be
       -0.081369065 0.04359302 0.019142011 -0.14146478
000260 76 7c 13 be ea c2 06 be 5f 7b 9d bd 2e ff a2 3d
       -0.14402947 -0.13160291 -0.07689547 0.07958828
000270 0c 87 f4 3c ea bb 3a be 05 36 33 3d b1 de 8d bd
       0.029849552 -0.18235746 0.04375269 -0.06927241
000280 86 cf a7 3c 23 f4 27 be 94 b3 35 3d 95 d8 37 be
       0.020484697 -0.16401725 0.044360712 -0.17953713
000290 ad a4 c9 3d 5c 7b 03 3d c4 b6 ab bd d8 03 c3 3d
       0.098458625 0.032100067 -0.08384469 0.095222175
0002a0 50 d5 09 be 1a 1f f9 bd 0b af 94 bd 71 0d c7 3d
       -0.13460279 -0.12164135 -0.07259949 0.097193606
0002b0 d2 f3 03 3d e7 97 98 bc c5 66 33 bc c9 5f 93 be
       0.032214947 -0.01862712 -0.010949795 -0.28784016
0002c0 f0 39 a7 3d c5 7b 95 3d 6e a2 46 be a6 ef 86 bd
       0.081653476 0.07298998 -0.193979 -0.06588678
0002d0 c0 85 ea bd 90 d6 29 3e f4 ce 87 3d 80 99 b3 bb
       -0.11451292 0.16585755 0.0663127 -0.005480945
0002e0 46 cd 00 3e fb e8 2e 3e 23 f7 05 bd 9c c4 d2 bc
       0.12578306 0.17081062 -0.03270639 -0.025728516
0002f0 7e e8 0f bc c3 91 11 3b d9 32 6e be d8 6b 80 3d
       -0.008783458 0.0022212125 -0.23261584 0.062705696
000300 4b 35 a0 bd 99 49 b4 bc ae a1 80 3c 33 02 19 3d
       -0.07822665 -0.02200775 0.015702095 0.037355613
000310 b1 4b 06 3d b9 e2 72 bd 43 89 0e be b8 81 5b 3e
       0.03278703 -0.05929825 -0.13919549 0.21436203
000320 b7 28 57 be 59 0c 9e bd 72 ac 6f be fd c2 71 bd
       -0.21011625 -0.07717199 -0.23405626 -0.059023846
000330 7e 6e c6 3b d1 65 9c bc 3a f8 a0 3d ab 6a f2 3a
       0.006055652 -0.019091519 0.078598455 0.0018494924
000340 3b 35 da 3d d6 bf 46 3c 1a 33 11 3c 42 68 ba 3d
       0.10654684 0.012130698 0.008862281 0.09101917
000350 da 27 14 bd a6 56 83 3d ff e6 e4 3d 68 b1 60 3e
       -0.036170818 0.06413011 0.111768715 0.21942675
000360 ad 48 3b 3d 54 1c 74 bc 81 7d 29 3c 9c 2a 0a 3d
       0.045723606 -0.014899332 0.010344864 0.03373204
000370 83 73 c3 3b f8 8c 2c 3e e2 b5 25 3e 4a fd 1a be
       0.005964698 0.1685065 0.16182664 -0.15135685
000380 a9 84 69 3d e4 1c 70 bd 2e f0 b3 3b c1 e8 b3 bd
       0.05701128 -0.058621302 0.005491278 -0.08784629
000390 ae 85 aa bd 07 f5 03 bd da 2f 89 3b 25 63 c7 3c
       -0.083262786 -0.0322161 0.0041866126 0.024339268
0003a0 61 1c ab 3d cb 2b 4c be 67 22 12 3e 83 93 86 bd
       0.08355022 -0.1993858 0.14270936 -0.065711044
0003b0 6e 1f b3 bd f4 2c 91 3d c3 c8 8a 3d 5e fb 2d 3e
       -0.08746229 0.07088652 0.067765735 0.1699042
0003c0 e8 04 30 bd 69 92 3b bd 7d 95 53 bd a7 a8 aa 3c
       -0.04297343 -0.045793924 -0.051656235 0.020832373
0003d0 9a 2b 08 3e c1 87 03 bd 93 ef 15 bc 2b 54 22 be
       0.13297883 -0.032111887 -0.009151357 -0.1585242
0003e0 1c ba c3 3d ce 89 b4 bd d9 3a eb 3c 4d 86 c2 bd
       0.09556982 -0.08815347 0.028714584 -0.09498272
0003f0 07 42 1f bd 2b 7f 00 3e ba 20 96 be 7a ae 7b 3e
       -0.038881328 0.1254851 -0.29321843 0.24578276

transformer.encoder.layers.0.self_attn.in_proj_bias f4 [96]
000000 aa 45 a7 bd 25 2d 0a be 94 9b ec 3d 42 38 bf 3d
       -0.08167584 -0.13493784 0.11553112 0.09336902
000010 78 ae c2 bd 3f 7d 47 3d 65 ea 00 be 17 c8 37 3e
       -0.095059335 0.04870343 -0.12589414 0.17947422
000020 08 e6 d9 bd 85 35 30 bd 9d 02 17 3d f9 a8 48 3e
       -0.10639578 -0.04301979 0.036867727 0.19595708
000030 f3 db 23 3d ae 04 dd bd b1 32 37 bd 31 64 e7 bb
       0.04000468 -0.10791908 -0.044726077 -0.0070615043
000040 ea 92 a9 bd 83 6d a0 bd 0b 81 2f 3a bf 08 25 bd
       -0.08279975 -0.07833388 0.0006694949 -0.040291544
000050 a1 16 8d 3c fc b1 29 be 6c 34 9c 3d c3 9f e5 3c
       0.017222704 -0.16571802 0.07627186 0.028030282
000060 ed b5 cf bc 9e 8b bd bc 44 a9 a3 3d 48 1c a3 3d
       -0.025355304 -0.023137864 0.07991269 0.079643786
000070 ae 65 b0 bd 23 d8 15 be 4e f0 55 be 0f 97 50 be
       -0.08613144 -0.14633231 -0.2089245 -0.20370124
000080 c9 09 32 3d 20 62 1e bc c4 b7 0a 3d d7 78 99 3d
       0.043466363 -0.0096669495 0.03386666 0.074937515
000090 a0 98 85 3c c8 af 17 3d e1 48 4b bd 2f 1f 7f 3c
       0.016308129 0.037032872 -0.04963005 0.0155714
0000a0 62 9d 9d bd e3 48 52 bd f0 97 3f bd 0f 24 a9 3d
       -0.07696034 -0.05133904 -0.04677576 0.08258831
0000b0 57 ca c1 3c ab 39 67 3b 9e 75 66 3d 84 bb a9 3c
       0.023656053 0.0035282176 0.056264512 0.020719297
0000c0 58 3b 52 bd 19 02 55 3d ea c2 35 3d 53 79 62 bc
       -0.051326126 0.052003954 0.044375338 -0.013822871
0000d0 d4 c4 61 bd a2 7e a2 3c 01 65 28 bc 0e 69 eb 3c
       -0.05511935 0.019835774 -0.010277987 0.028736617
0000e0 01 0d 0e bb b8 c6 43 3d ff 0e 9f bc cf 9e 6e bd
       -0.0021675231 0.047796935 -0.01941633 -0.05825692
0000f0 0f 74 9c ba 07 2d 9b bd 05 9c 6e bd f2 80 8e bc
       -0.0011936444 -0.07576948 -0.05825426 -0.01739547
000100 9c 65 4c bd 9f 0c ec 3d 85 77 82 3d a0 bd cf bc
       -0.04990159 0.11525845 0.06370453 -0.025358975
000110 dd 38 e9 bc 7a 35 22 bd 47 05 6e bd c2 ed 51 3d
       -0.028469497 -0.03960178 -0.0581105 0.051252134
000120 02 fc 3b 3d 4c be 9d bc db ba c2 3b 9d 12 2c 3c
       0.04589463 -0.01925578 0.005942685 0.010502485
000130 e7 95 6d 3e e7 12 dc bd 10 4b b0 bd c2 44 ea bb
       0.23201714 -0.10745793 -0.08608067 -0.00714931
000140 0e 84 e5 b9 af 16 2c 3d e3 79 27 3d 16 5c 2b 3d
       -0.00043776672 0.04201382 0.040887725 0.041835867
000150 ad 5e 3c 3d e2 b3 89 bd 08 02 0d bd 5d 50 21 3d
       0.045988727 -0.06723763 -0.034425765 0.03938328
000160 05 51 d7 3c c8 3b 62 3a 62 40 cd bd 3a 8a 57 bd
       0.02628375 0.0008630124 -0.10022046 -0.052622057
000170 d9 b5 44 be 83 f2 2f bd 3d c4 6d 3d c5 0e 97 bc
       -0.19209994 -0.042955887 0.058048476 -0.01843966

transformer.encoder.layers.0.self_attn.out_proj.weight f4 [32, 32]
000000 ae 57 42 3d 90 db 67 bd 26 e1 1f 3e 1d 6f 67 be
       0.0474469 -0.056605875 0.15613231 -0.2260098
000010 a1 60 45 be e3 95 fe bc b1 34 74 3e 4b be ac 3d
       -0.19275142 -0.031077331 0.23848225 0.08434733
000020 a8 78 57 be 6e 30 0d 3d 1a d8 28 be d0 c2 15 be
       -0.2104212 0.034470014 -0.16488686 -0.14625096
000030 c1 eb 57 3d bb 0a 21 bc 8e 0c b8 bd 70 13 36 bd
       0.052715067 -0.0098292185 -0.089867696 -0.04445213
000040 cd 93 1a 3e 0a bb 1a be ae dd a7 3e bf fb d6 3d
       0.15095444 -0.15110412 0.32786316 0.104972355
000050 26 26 da bc 26 18 8b be 9b 7e 5e 3e 54 c5 90 3e
       -0.026629519 -0.2716686 0.21727984 0.2827555
000060 46 8b 88 3e 5b eb 1c 3d e0 7c 32 be d0 d8 65 bc
       0.26668757 0.03831039 -0.17430449 -0.014028743
000070 5f 1a a2 3d c5 af a8 bd 68 22 df bc e7 fa 28 3e
       0.07915186 -0.082366504 -0.027238086 0.16501962
000080 56 ba 03 bd d4 5f 21 3e 77 0c bb 3c 96 9d 9f 3d
       -0.032160126 0.15759212 0.022833092 0.07793729
000090 f1 6f 58 3e d1 c5 98 3e 66 f7 05 3e 62 cd 7a 3e
       0.21136452 0.29838422 0.13082656 0.2449241
0000a0 96 da 2f 3e be e8 ae bc 80 bb 0b be c2 a4 78 bd
       0.17173228 -0.021351214 -0.13645744 -0.060704
0000b0 a2 3b 48 3e bc e1 d6 3d b3 cd 98 3e 07 89 98 bd
       0.19553998 0.10492274 0.29844436 -0.07448011
0000c0 b4 64 41 be b3 d7 d9 3c 58 ac 9c bd 32 2f 62 3d
       -0.18886071 0.026592111 -0.076500595 0.05522079
0000d0 e8 f5 43 be 2c 56 2d 3e e9 cd 85 3c e3 33 ea bd
       -0.19136775 0.16927403 0.016333537 -0.11435678
0000e0 a5 5d c0 bd 64 fe ac bd f1 b5 c3 bd b9 66 1c be
       -0.09392861 -0.08446959 -0.09556187 -0.1527356
0000f0 a4 0b b0 3d a0 d4 9b bd ab 31 d4 bd 03 fb 34 be
       0.0859597 -0.076089144 -0.10361036 -0.17673878
000100 bb 34 ef 3e 5b eb 17 3d ab d9 f2 be e4 05 31 3e
       0.46719918 0.037089687 -0.47431692 0.17287403
000110 cf e4 7e bc 6f 49 d0 3e ca 6b 61 3c b8 79 42 3e
       -0.015557482 0.40681025 0.013758609 0.18991745
000120 37 42 1e 3e 8f fd 87 3d 8e 5a 92 bc 6d 00 59 bd
       0.15454946 0.06640159 -0.017865445 -0.05297892
000130 03 d5 af 3e 56 26 9e be 90 6d 0d be 73 be 92 3e
       0.34342203 -0.30888623 -0.13811326 0.28660926
000140 6a 89 57 3e e5 63 40 be 20 9f 78 3e 67 30 44 bc
       0.21048513 -0.18788107 0.24279451 -0.011974431
000150 59 c2 82 3d aa 82 f5 bd 36 ce 4b 3e eb c6 93 be
       0.06384725 -0.11987813 0.19902882 -0.288627
000160 1e f7 1c 3e 8a 99 02 be 74 46 30 3e 43 5d c8 3d
       0.15328643 -0.12753883 0.17214376 0.09783413
000170 0c 97 00 be 1c 12 a1 3e 7e be d1 bd fb 9c b7 bc
       -0.1255762 0.3145913 -0.102414116 -0.022413721
000180 fe 1c fb 3c 4d 0e 1b be d1 e7 29 be 23 19 84 3c
       0.030653473 -0.15142174 -0.16592337 0.016125267
000190 77 ff 3c be 50 32 90 bd 2a 2e 53 3e 34 f6 02 be
       -0.18456827 -0.07040846 0.20623079 -0.12789232
0001a0 ba e4 40 3e 90 52 e4 bd 29 3b 65 3c 9a a2 d5 3d
       0.18837252 -0.1114856 0.013991156 0.104314044
0001b0 47 35 48 be 07 23 48 3d cc 5c bf bd 9c 1e 9c be
       -0.19551574 0.04886153 -0.093438715 -0.30492103
0001c0 4a 17 58 bd 04 d3 53 3c 9d 16 61 bc 4a 7f 82 be
       -0.052756585 0.012928728 -0.013738302 -0.2548774
0001d0 58 9b 8a bd da 03 f2 bd c1 8e 86 be ea 35 c5 3d
       -0.06767911 -0.11817141 -0.26280788 0.09629424
0001e0 b9 43 49 3e 1c 76 0d be 52 0e a1 3e f8 2c 7f be
       0.1965474 -0.13814586 0.31456238 -0.24919498
0001f0 1a e4 90 be f4 dc a7 bd 11 1b bb bd b8 fb 64 bd
       -0.28299028 -0.0819644 -0.09136022 -0.05590412
000200 95 22 06 3d 8d 5a 82 be 53 b9 06 3e 0e 06 98 be
       0.032747824 -0.2545971 0.13156633 -0.2969212
000210 ab 16 03 be 8f 38 8b bd c0 98 65 bd 2e a9 10 3e
       -0.12801616 -0.06797897 -0.056053877 0.14127037
000220 7f 99 3e bd 1c c2 c8 bd 1d 7c 9e be da 34 9c be
       -0.046533104 -0.098026484 -0.30954066 -0.30509073
000230 f6 d9 09 3e 81 0d 88 be d1 6d 1b be 5f 91 ae 3e
       0.13462052 -0.26572803 -0.1517861 0.34095284
000240 24 8c 68 be 8f b6 a0 3e f7 67 11 3d b8 9d a1 3e
       -0.2270971 0.3138928 0.03549954 0.31565642
000250 71 4a 1e be 04 89 fc 3d 78 6e 3a be 8b dc c8 3d
       -0.15458085 0.12330821 -0.18206203 0.0980769
000260 e6 9d 48 3e 97 4a 54 be d8 c6 0e 3e 5b 7a c4 bd
       0.19591483 -0.20731579 0.1394304 -0.0959365
000270 b3 9c 90 bd 47 a8 c2 bc 6b 0a 11 3e 61 2e a0 bd
       -0.07061138 -0.023761882 0.1416413 -0.07821346
000280 1d 41 0e bd 23 43 a0 3e 58 3b 48 3d bf 3c 14 3e
       -0.034730066 0.3130122 0.04888472 0.14476298
000290 e5 b6 03 be fb eb 63 3c 2b b6 8d 3e 74 54 a8 be
       -0.12862737 0.013911243 0.27678046 -0.32876933
0002a0 73 df d9 be a8 0c 0f 3b d4 06 8e 3d 4a 93 42 be
       -0.4255329 0.0021827612 0.06934896 -0.19001499
0002b0 6e 2a 65 be fd 4a 90 3d 3f 76 17 3e 05 d6 3e 3e
       -0.22379467 0.07045553 0.14791201 0.1863633
0002c0 dd 96 83 be 9f df c6 bd 4c 90 07 3e 6b 71 83 3e
       -0.25701037 -0.09710621 0.13238639 0.2567247
0002d0 6b 1b 12 3e 9e 0c 28 3e da 42 43 3e 42 74 39 3e
       0.14268272 0.16411063 0.1906847 0.18110755
0002e0 72 3c 39 be 86 53 63 3e 3c 99 a6 3d 71 42 c4 3d
       -0.18089464 0.2219983 0.08134696 0.09582985
0002f0 03 3d f6 3d fa 14 98 3e ce c3 4f be 75 15 0c 3c
       0.12023356 0.29703504 -0.20289537 0.008550038
000300 ab a7 30 3e 8f f4 22 bd 82 aa 8d 3e e9 32 9e be
       0.1725146 -0.03978401 0.2766915 -0.30898216
000310 fb 3c 9c 3e f7 2c 70 be 6d 28 a9 3e f2 4d 18 3e
       0.30515274 -0.23454653 0.33038655 0.14873484
000320 08 b7 73 bd a8 19 2a bd 7b 9b 4a 3e ea 4e a3 3c
       -0.059500724 -0.041528374 0.19785874 0.01993509
000330 b7 af 6d 3e ab 2c b0 3d ea 27 9f bc dd 39 96 be
       0.23211561 0.0860227 -0.019428212 -0.2934102
000340 e9 a8 af be dd 6a 91 be d7 8a 69 3e b4 b0 9c 3d
       -0.34308556 -0.28401843 0.2280687 0.07650891
000350 39 9c d2 bc d5 ee c1 3d f2 9d c1 bd e1 9b c4 3d
       -0.025709258 0.09469382 -0.09453954 0.09600044
000360 34 ff b4 bb 7c ce 5a be 42 0a 90 bd 10 f8 5c be
       -0.0055235866 -0.2136783 -0.070332065 -0.21579003
000370 4c 02 23 bd b8 86 cf 3d 2b f2 97 3d 66 ec 53 3e
       -0.039797112 0.101331174 0.07419237 0.20695648
000380 d6 a0 91 be 68 73 35 3e 55 ba b2 be d9 35 55 be
       -0.2844302 0.17719805 -0.34907785 -0.20821323
000390 61 c8 b8 bd d8 91 20 be 1f 1e 26 be 33 3f 3c 3e
       -0.09022594 -0.15680635 -0.16222428 0.18383484
0003a0 7b c0 62 3e ea 72 9e be 11 18 e7 bc c7 aa 43 be
       0.22143738 -0.30947047 -0.028209718 -0.19108115
0003b0 4c 0f 16 3e 41 2c 75 bd a4 ec 93 3e 59 84 6e 3e
       0.14654273 -0.059856657 0.2889148 0.23292674
0003c0 54 3a c9 bd 2c 5c 40 bd 0a bf 25 be 8d d7 24 be
       -0.09825578 -0.046962902 -0.16186157 -0.16097851
0003d0 cf 6a 37 bd 26 a7 b7 be ad 25 97 bc 5e 39 9b bd
       -0.044779595 -0.35869712 -0.018450582 -0.07579301
0003e0 07 8e 89 3e 55 d8 0c bd d2 f0 d8 3d 6f 63 05 be
       0.2686617 -0.034385998 0.10592808 -0.13026212
0003f0 64 ec a1 ba 40 98 bb bc 32 3c 54 3e fe 21 bf bd
       -0.0012353775 -0.022899747 0.20726088 -0.09332655

transformer.encoder.layers.0.self_attn.out_proj.bias f4 [32]
000000 0d ff c1 3d 60 b5 88 3c 61 5f 3d 3e 41 e7 a0 3c
       0.09472475 0.016688049 0.18493415 0.01964152
000010 48 7e 4a 3e ab c3 d3 bd 6d f7 0b be b1 be 46 bb
       0.19774735 -0.10340055 -0.13668604 -0.0030326063
000020 76 69 e9 3d ea db f6 3d d2 df 53 bd e1 8c 3b bd
       0.11397068 0.12053664 -0.051727124 -0.04578865
000030 21 76 46 bd 05 88 20 3e 50 80 65 bd 36 d7 4d 3e
       -0.0484525 0.15676887 -0.05603057 0.20101628
000040 4e 0f 9c bd 9b 77 b4 3d 66 17 9c 3d 6c 98 d4 bd
       -0.07620107 0.088118754 0.076216504 -0.10380635
000050 a4 c8 d3 bc 53 db 87 3d 5b b6 24 bc 32 bc 92 3e
       -0.025852509 0.0663363 -0.010053243 0.28659207
000060 a3 68 a3 bd 45 fb 0e 3e 93 88 42 be 85 96 ba 3d
       -0.07978942 0.13963039 -0.18997411 0.091107406
000070 85 be 09 3d 1a 2b 5a be c3 d1 0d be 78 b2 e7 bc
       0.03362896 -0.21305504 -0.13849549 -0.028283343
